checkpoints/sssm-Walker2D-v1-model_step-525-2024-11-18-22-01-56.pt (torch, 34490 bytes, 18 tensors)

emb.weight f4 [8, 24]
000000 85 6c 0f be e7 10 27 be 5e 52 44 bb fd ed 44 be
       -0.1400624 -0.16315041 -0.0029956321 -0.1923141
000010 a8 46 6a bc 22 97 a1 bc 59 a9 0c 3e f5 d4 58 3e
       -0.014299072 -0.019725386 0.13736476 0.21174987
000020 a9 48 5d be 50 45 6e 3d 5a 34 99 3d 43 12 a2 be
       -0.21609749 0.05817157 0.074806884 -0.31654558
000030 0b 52 ef bd a6 ed bf 3c de 80 14 be 06 28 c5 3b
       -0.1168557 0.02342875 -0.14502284 0.006016734
000040 2e 32 3c be 1b 1e d7 be 60 f8 45 be cc b2 b3 bd
       -0.18378517 -0.42015156 -0.19333029 -0.08774337
000050 d8 76 4a be a4 f5 b8 bc f2 c2 40 bc 72 52 24 be
       -0.19771898 -0.022578068 -0.011765229 -0.16047075
000060 ad d4 87 be 00 43 2a be 0c 1f 80 3e c8 e7 a0 3e
       -0.26529446 -0.16627121 0.25023687 0.31426835
000070 ef ea 63 be a6 2e 4d bc e3 1e 90 bd df de 63 3d
       -0.22257589 -0.012523329 -0.07037141 0.05563247
000080 59 2f 8f 3d 50 28 37 be 31 f0 0e 3f 9d 05 1e 3e
       0.06991453 -0.17886472 0.55835253 0.15431829
000090 55 e4 98 3e 55 14 3d 3d 04 95 fd bd d8 be 19 bd
       0.29861704 0.04616197 -0.12381938 -0.03753552
0000a0 02 85 bc 3e 87 f4 19 be 36 df 0a be 0d a6 82 3d
       0.36820227 -0.15034686 -0.1356171 0.06379328
0000b0 9e 7c 19 be 57 0a 3f 3e db 62 6c 3e f2 f0 23 be
       -0.14988944 0.18656288 0.23084585 -0.16009882
0000c0 72 96 e3 3c 2a 76 8f be eb 3e e3 3e 7f d2 9c 3e
       0.027781699 -0.2801984 0.4438394 0.30629346
0000d0 bc 00 bc 3d f2 2b 2c 3e d1 74 41 be b5 0a 98 be
       0.091798276 0.16813639 -0.18892218 -0.2969567
0000e0 1f 64 96 bd 9f 61 58 3e 8f 70 1a 3e 1c 74 93 bd
       -0.07343315 0.2113099 0.15082 -0.071998805
0000f0 70 e7 b0 bc f2 b4 dd 3e c5 96 23 be 90 8a 7f 3d
       -0.021594733 0.43302113 -0.15975483 0.062388003
000100 42 d2 a6 bd 91 81 67 3e 6f 83 95 3e 91 8f b4 3d
       -0.08145572 0.2260802 0.29201838 0.088164456
000110 12 11 a2 be b1 b1 23 bd 15 c3 bd 3c 6f b1 de bd
       -0.3165365 -0.03996438 0.023164311 -0.108736865
000120 d0 63 5d 3e 08 a0 8d 3c ee 77 df 3d 92 10 b9 3c
       0.21620107 0.017288223 0.10911547 0.02259091
000130 f5 71 0f bf 75 a9 0c bf b8 7c 0a be f7 04 f7 be
       -0.5603326 -0.5494607 -0.13524139 -0.48245975
000140 a0 0f c0 be 69 3a 41 3e 44 85 61 be d7 46 2e 3e
       -0.3751192 0.18869938 -0.22023493 0.17019211
000150 5e c5 14 bb d3 4a 71 be ee 02 46 bc 38 34 c2 bd
       -0.0022700648 -0.235637 -0.012085659 -0.09482616
000160 8a 50 ba 3e 88 d2 65 3e 50 b0 29 be a3 1a 47 be
       0.3638957 0.22443593 -0.16571164 -0.19443755
000170 33 3f 54 be 5f 3e c2 3d 33 88 45 be aa 1e 85 be
       -0.20727234 0.094845526 -0.19290237 -0.25999957
000180 29 5c b1 be be 1a 1c 3e 42 36 0f bf 50 56 58 3e
       -0.34640625 0.15244576 -0.55942166 0.21126676
000190 1e 27 bb bd 79 c6 db 3e 12 3b 2d bd 59 01 ca be
       -0.091383204 0.4292486 -0.042292662 -0.39454153
0001a0 04 da 42 bd 32 37 92 be e0 17 b4 3b 1b 54 8e bd
       -0.047571197 -0.28557736 0.00549601 -0.069496356
0001b0 69 30 09 be f4 ce 61 bc 9c 55 ec 3d c8 cd 00 3e
       -0.13397373 -0.013782252 0.11539766 0.125785
0001c0 63 9c fc 3d 3c 89 d4 3e dc 42 91 3e cc 55 11 3d
       0.12334516 0.41510952 0.28371322 0.035482213
0001d0 89 90 64 3e e7 4f 1f bd c1 d5 10 be da 1d e7 bd
       0.22320761 -0.03889456 -0.1414404 -0.112849906
0001e0 15 94 0d 3e e7 6b 99 be 60 ea 8c 3d 7d 58 30 3e
       0.1382602 -0.29965135 0.06880641 0.17221256
0001f0 ea c2 5f 3d 88 e0 69 3e 4d 3e f9 bd cb 42 7b 3e
       0.054629244 0.22839558 -0.12170086 0.24537198
000200 fe ef ba 3e ce 3f b9 3d 7b 9e 97 be 62 3f 09 3e
       0.36511225 0.09045373 -0.29613099 0.13403085
000210 57 61 2f bd 59 dc 67 3c 3a aa 0f 3d 96 59 85 bd
       -0.04281744 0.014151656 0.03507445 -0.06511228
000220 c8 0d 30 be 9f f5 b5 3e c5 fd 0e be fa cb 8a 3d
       -0.17192757 0.35538957 -0.13963993 0.06777187
000230 98 ec 0c be a6 43 df 3d 76 49 17 bb e7 25 32 3e
       -0.13762128 0.10901575 -0.0023084558 0.17397271
000240 e4 8f e5 bb c0 e0 c0 3d 60 16 d6 3e 89 ce 3f be
       -0.0070056785 0.09417868 0.41813946 -0.1873113
000250 6c 48 c1 bd 41 9a 3c 3e 6d 17 35 3e 0f e7 29 3e
       -0.094376415 0.18418218 0.17684717 0.16592048
000260 7b 5f fa bd 86 ba f9 bc ed 01 5f 3d f5 d3 79 bc
       -0.12225243 -0.03048445 0.054445196 -0.015248288
000270 72 71 96 3e 6b 09 c3 be 6d 7b 2c 3d 23 b3 39 be
       0.29383427 -0.38093123 0.042109895 -0.18134741
000280 18 0d 95 be 38 53 38 3e 41 89 5d bd b4 23 ee bd
       -0.29111552 0.18000495 -0.054085974 -0.116279036
000290 8a 0e 65 3e da 4a 27 3b 1e 9e bc 3d 67 41 10 3d
       0.22368827 0.0025526793 0.09209846 0.035218623
0002a0 47 f4 d7 bd 30 5e 5d be 65 8d 6f be 88 c0 a8 3d
       -0.10544639 -0.21617961 -0.23393781 0.082398474
0002b0 a5 a1 90 3e 81 2c eb 3d a6 10 11 be 03 d2 0b 3f
       0.28248325 0.11483098 -0.14166507 0.5461733
0002c0 a9 41 75 3d bc dc 5d 3d 5c 91 6b be 92 d6 1d 3e
       0.05987707 0.054165587 -0.23004669 0.15413883
0002d0 22 18 89 3e 3d ad 81 3e 0a ce af be d0 57 a3 bd
       0.26776224 0.25327483 -0.34336883 -0.07975733
0002e0 0a fe 62 3d e9 ed ab 3b 40 12 5f bc 44 ec 51 3e
       0.05541805 0.005246867 -0.013615191 0.20500284
0002f0 d1 30 86 bd 94 14 1d 3c de 11 cd 3e 9e bb 73 3c
       -0.0655228 0.009587426 0.40052694 0.014876274

stu.hidden.0.rn_1.weight f4 [8]
000000 0c a6 f4 3e 3e 14 21 3f ea 84 63 3f 57 e0 4e 3f
       0.47782934 0.6292151 0.88874686 0.80811065
000010 7e 81 5c 3f 54 31 6d 3f 1c 45 3c 3f 5a 9b 49 3f
       0.8613509 0.92653394 0.7354295 0.7875267

stu.hidden.0.stu.M_u f4 [8, 3, 8]
000000 f0 1b 61 be f4 b4 8f be 68 34 17 bc 74 73 9b bd
       -0.21983314 -0.28067744 -0.009228803 -0.0759038
000010 a7 54 58 bc 18 16 2c 3e 2d 43 c3 3c a9 ee 2e be
       -0.013203776 0.16805303 0.023835743 -0.17083229
000020 e0 c4 ea be 03 d7 5e be 2a 86 b2 3d 54 ef 87 bd
       -0.4585333 -0.21761708 0.08716996 -0.06637445
000030 c0 22 1e be 9e d0 24 3e e9 4a 37 3e 32 a8 98 bc
       -0.15442944 0.16095206 0.1789967 -0.01863489
000040 18 29 ec 3b bb 2b 85 3c 2f d3 0f 3e f2 a3 9b bd
       0.007207047 0.016256204 0.14045404 -0.075996295
000050 5d b3 33 be 7e ea 27 3e 96 d8 b1 bd a2 cf 79 3e
       -0.1754889 0.16398045 -0.086838886 0.24395612
000060 67 1f 81 3e e3 fa 00 bf f5 1c c0 3c 70 85 1e 3d
       0.2521927 -0.5038282 0.023451308 0.038701475
000070 a2 2a 8d 3d 82 5d f4 bd 22 8f 67 bd c0 52 f0 ba
       0.06892897 -0.11931898 -0.056532986 -0.0018335208
000080 16 4c 07 bc 15 e6 fb be 6d 0e 1f 3e 67 20 da bd
       -0.008257886 -0.49198976 0.15532847 -0.106507115
000090 b3 63 86 3e 70 dc c7 b9 fd 95 27 3e e2 99 de bd
       0.2624794 -0.00038120477 0.1636581 -0.108691946
0000a0 6f 59 ad bd fb eb 95 3c 7d 21 4b bd 04 1c 1d 3c
       -0.08464324 0.018301 -0.049592484 0.009589199
0000b0 33 03 b4 bd de c4 0d be ae 40 af 3d 1c fd ad be
       -0.08789673 -0.1384463 0.085572585 -0.3398217
0000c0 03 50 31 3e 1e b5 36 be 00 0f 8a bd 72 a5 1c 3d
       0.17315678 -0.17842528 -0.06741142 0.03824372
0000d0 c6 ca e9 3d 6c 38 50 bd 0e 52 8a 3e 6f 33 fd be
       0.11415629 -0.050835058 0.27015728 -0.49453303
0000e0 3f 17 89 3e 69 d5 34 3e da fe 25 be ed 7d 9c bc
       0.26775548 0.17659535 -0.162105 -0.019103015
0000f0 31 2e 4e be 79 21 99 bc b0 ef e9 bd f8 e2 d3 be
       -0.20134808 -0.018692719 -0.1142267 -0.413841
000100 64 a8 5c bd 0c 49 cc bc 6d ea 1c be 84 92 71 3e
       -0.053871527 -0.024937175 -0.15323801 0.23591048
000110 24 d7 03 be e6 0e 7f 3e 9e 2f 7c bd e0 c9 19 be
       -0.12875038 0.24908027 -0.06156885 -0.15018415
000120 56 fa 3d bc 9b 8a d6 be ca f5 5a bc 90 c6 18 be
       -0.011595329 -0.41902623 -0.013364265 -0.14919496
000130 6f f1 ae 3d fc 7b 8b 3c 4e 92 ad 3e a0 d7 01 3c
       0.085421436 0.017026894 0.33900684 0.007924944
000140 82 d9 34 3e a4 96 33 be fd 1d b3 bd 95 66 8e be
       0.17661098 -0.17537934 -0.08745954 -0.2781264
000150 9c e3 7a be 85 92 5d 3e 34 ae fd b9 29 5e 71 be
       -0.24500889 0.21637924 -0.00048385712 -0.23571075
000160 f4 13 2c 3e 66 31 07 be 4b b1 59 3e c0 84 3d 3c
       0.16804487 -0.13202438 0.21259038 0.011567295
000170 93 fd 9b bd 37 77 43 be 62 e9 2d 3e 67 36 3b be
       -0.07616725 -0.19088446 0.1698356 -0.18282472
000180 6e ca 23 be 99 e8 bc 3d 9f f9 d5 be ef 01 89 3d
       -0.1599519 0.09224052 -0.41792008 0.06689822
000190 64 17 8a be 60 4a cf bd e4 ac c9 bc ed 72 44 3e
       -0.2697097 -0.10121608 -0.024618573 0.19184466
0001a0 cb 4c 7a 3e 1d e7 b6 3c 07 3f 1a be 6a 81 25 be
       0.24443357 0.022327 -0.15063106 -0.16162649
0001b0 78 6c d8 bd 11 e1 9a bd 73 70 28 3d da af e8 3e
       -0.10567564 -0.07562459 0.041122865 0.45446664
0001c0 05 6b f9 bd 6e dc ca 3e 72 0a 0d 3d bf 32 91 be
       -0.121786155 0.396213 0.03443379 -0.2835903
0001d0 7b 70 93 be ac e8 a0 3c 27 14 ae bc a6 a4 b5 3e
       -0.28796753 0.019642197 -0.021249844 0.3547718
0001e0 83 fa bd be c5 9e e9 3d 48 09 b7 3d f0 29 43 3e
       -0.37105188 0.11407236 0.08937317 0.19058967
0001f0 f4 6f 27 3e a6 eb 49 be 93 4b 23 3e a9 e1 d2 3d
       0.163513 -0.19718799 0.15946798 0.102969475
000200 32 2a 8a be 74 3e d1 3d 9d c2 94 bd 6b 6f 2d 3e
       -0.26985317 0.1021699 -0.07263682 0.16937034
000210 17 d9 85 bc 0b 45 65 be e9 11 fe 3d 72 c6 d3 bd
       -0.016338868 -0.22389619 0.1240576 -0.10340585
000220 a8 68 a5 3b 2a 81 e6 bc 7a 38 1e bd 80 cb 80 3e
       0.0050478764 -0.028137762 -0.03862808 0.25155258
000230 2a 69 55 3e 95 3f 97 3a 48 40 12 3c 6b 13 4d be
       0.20840898 0.0011539335 0.008926459 -0.20026939
000240 67 15 20 3e 64 84 30 3e 5c 32 2a bd 9e ed 53 3d
       0.15633164 0.17238003 -0.041551933 0.05174028
000250 a4 c7 de 3d 92 f9 88 3c c6 ca 0f bd 81 5c 21 3e
       0.10877922 0.016720567 -0.03510549 0.15757944
000260 e8 60 c5 bd 49 fd d6 3d 40 df af 3d ca 01 88 bc
       -0.09637624 0.10497529 0.085875034 -0.016602416
000270 5e 99 3c be 3a 65 c5 bc 00 8b 10 3c f0 0d c0 bd
       -0.1841788 -0.02409612 0.008822203 -0.09377658
000280 36 5b b3 3d 25 9c cb bc c1 dd 8a 3e 25 ba b7 bd
       0.087576315 -0.024854729 0.2712231 -0.08971051
000290 25 64 68 be 68 82 8f 3d 45 4d 83 be 5b 88 c7 3d
       -0.22694452 0.07007295 -0.2564489 0.097428046
0002a0 22 36 41 3e 88 01 d9 bd 3f 2e ee bd 17 1e 2c be
       0.18868306 -0.10595995 -0.116299145 -0.16808353
0002b0 cd d3 7c bd 95 2b 00 3d 2d 96 4d 3e 5a 00 98 be
       -0.061725426 0.031291563 0.20076819 -0.29687768
0002c0 41 e5 26 3e 26 9b 3e bc 1f 4a 8a 3e 74 68 1e be
       0.16298391 -0.01163367 0.27009675 -0.15469533
0002d0 59 e3 e5 3d 20 d7 9a 38 69 01 35 be 55 f9 17 be
       0.11225004 7.3833624e-05 -0.17676319 -0.14841206
0002e0 92 1a 08 be 88 81 69 be 96 1d 0b be ad 96 2f 3d
       -0.13291386 -0.22803319 -0.13585505 0.042868305
0002f0 c1 86 b7 3d dc f6 01 be 88 c6 f6 3d c9 e6 9b bc
       0.08961249 -0.12691826 0.120495856 -0.019030945

stu.hidden.0.stu.M_phi_plus f4 [8, 16, 8]
000000 0d ba f7 bc 0d de d9 be dc 23 14 3d 39 99 b1 be
       -0.030240083 -0.42552224 0.03616701 -0.34687212
000010 9a a7 a4 3e 51 67 86 be f0 62 19 be 8e 4d bf bd
       0.3215912 -0.262507 -0.14979148 -0.09340964
000020 8c fe 86 3e 2c b3 cb be 02 66 ce bd da 5f 09 be
       0.2636608 -0.39785135 -0.1007805 -0.1341547
000030 ca 26 c5 3e a7 f0 94 be 29 b5 fc be 75 44 1d bd
       0.38506156 -0.29089853 -0.49356964 -0.038395364
000040 76 b2 3b be 3b a9 4b 3d 7e e6 e7 be 4c e4 bd 3e
       -0.18329796 0.049721938 -0.4529304 0.3708824
000050 94 75 23 be 91 59 1d 3e ec 00 8f be ba 35 64 3e
       -0.15962821 0.15366198 -0.2793039 0.2228612
000060 cc 2b 41 be fd 3d 82 bd 25 51 66 3d f0 e9 aa bd
       -0.18864363 -0.063594796 0.05622973 -0.08345401
000070 18 4b 2f 3e 5c 7d 8b bd b2 5c be bc e6 b5 62 be
       0.1711849 -0.0681102 -0.02323756 -0.22139701
000080 ff f7 1a bf 25 b3 e4 bc c1 ff 65 3e ff 3f 89 be
       -0.6053466 -0.027917454 0.22460844 -0.26806638
000090 89 7e 1e be de c8 28 be aa e4 11 3f 1e 70 07 3d
       -0.15477957 -0.16482875 0.5698954 0.033065908
0000a0 b8 2a 08 bf 0d 86 b7 bd f0 2c d6 3b a2 ab 9e 3b
       -0.53190184 -0.08961115 0.0065361187 0.0048422376
0000b0 45 5d 71 be 9d 9d 44 3e fd 20 f9 3d 48 52 75 3e
       -0.23570736 0.1920075 0.12164495 0.23957169
0000c0 07 70 76 3e d0 af 34 bf ff b3 6d 3e f8 cf d7 3d
       0.24066173 -0.7058077 0.23213194 0.10537714
0000d0 48 41 e7 3d 95 df 24 be 64 10 02 be f5 2f fe 3e
       0.11291748 -0.16100915 -0.12701565 0.49645963
0000e0 5d e0 fa 3e fb a1 79 bd 2c 90 86 bd 80 4c 00 3f
       0.489993 -0.060945492 -0.06570467 0.5011673
0000f0 1e 88 93 3d ed fc 7f be ff 76 1d 3c 42 62 c3 3e
       0.07203697 -0.24998827 0.00961089 0.38160902
000100 40 03 3f 3e bb e8 a8 3e 8b 00 7a be 1a 2d be 3e
       0.18653584 0.3299006 -0.2441427 0.37143785
000110 28 36 c5 3e cb 08 a7 3d dd d6 31 be cb 26 38 be
       0.3851788 0.08155974 -0.1736712 -0.17983548
000120 9c c5 2a 3d cb ff 13 3e d3 88 57 be a2 eb dc bd
       0.04169236 0.14453046 -0.21048288 -0.10787131
000130 8b 77 52 3e b6 e2 46 3e 23 08 eb be 3a ad b7 3c
       0.20553415 0.19422421 -0.45904645 0.022421468
000140 6a a0 63 bd 79 f7 88 3e 2d d0 9d be 70 02 32 be
       -0.055572905 0.26751307 -0.30822888 -0.17383742
000150 d3 c2 7d bd 79 83 11 be 86 a7 82 3d aa 1a 3b be
       -0.061953377 -0.14210309 0.06379609 -0.1827189
000160 c3 70 55 be 5a b8 9d 3d 45 6e 7d be 42 8a f9 bd
       -0.20843796 0.07701178 -0.24749096 -0.12184574
000170 9c c6 0a 3e b2 ed e2 bc 9b 6c 32 3e 03 e9 c7 bd
       0.13552326 -0.027701233 0.17424242 -0.0976124
000180 a1 2d b0 3d e7 fc 52 be 02 7f 49 bc c4 90 1a be
       0.08602453 -0.20604287 -0.012298347 -0.15094286
000190 02 e5 0e 3e 0f 94 37 bc 59 2c 81 bd b4 f2 06 be
       0.13954547 -0.0112047335 -0.06307287 -0.13178521
0001a0 8c da 1d be 48 31 78 3e 53 86 2e be 83 47 e8 bd
       -0.154154 0.2423755 -0.17043428 -0.11341765
0001b0 70 5c 85 3b 79 a4 18 3e d3 50 b5 bd 12 e0 59 3e
       0.0040698573 0.14906491 -0.088533066 0.21276882
0001c0 0a 75 d1 bd 75 d6 bb bd b0 7c a8 3d 1a 22 78 3d
       -0.102274016 -0.09171764 0.08226907 0.060579397
0001d0 8f e8 45 3d ad d5 a3 bd 48 5d a5 3d 35 72 b1 3d
       0.04831749 -0.0799974 0.080744326 0.086643614
0001e0 ed 66 89 be c2 47 49 bd a6 ee a7 bb 7e d2 c9 bd
       -0.2683634 -0.0491407 -0.0051248847 -0.09854601
0001f0 9b c7 dc 3b 3d ba 05 3e 3f 9e f1 3d d6 cd f2 bd
       0.006737662 0.13059326 0.11797761 -0.11855666
000200 5a 6f bd be 98 26 32 3e 6a ce af 3e e7 5b 98 be
       -0.36999017 0.17397535 0.3433717 -0.29757616
000210 59 dc 8e be d3 83 03 3f 99 f2 83 be 78 70 a0 be
       -0.27902487 0.5137302 -0.25771025 -0.31335807
000220 36 53 ab 3d bc fb ee bd 46 63 0b be 62 db 4f be
       0.083654806 -0.11669108 -0.13612089 -0.20298532
000230 7f 57 52 3e b1 7d bd bc 8f 15 a0 bd 66 10 96 be
       0.2054119 -0.023131223 -0.07816612 -0.29309386
000240 5e 89 43 3d aa 10 40 bf 0d 7b 96 3d 77 3e 14 3f
       0.047738425 -0.7502543 0.07347689 0.57907814
000250 68 62 c1 3c d3 1d 89 3e a4 41 c7 be 38 53 04 bd
       0.023606494 0.26780567 -0.38917267 -0.032305926
000260 2b c3 08 bf e3 2d 7d 3d e9 8f b7 3d 5c 26 84 be
       -0.534228 0.06181134 0.089629956 -0.25810516
000270 20 fc 06 3e f9 f9 2f 3e 9b 21 11 be 0c df 18 be
       0.13182116 0.17185201 -0.14172976 -0.14928836
000280 b8 6a f5 be 95 8c 30 3f c4 5c 90 be d7 7d 52 be
       -0.47932982 0.6896451 -0.28195775 -0.20555817
000290 51 f6 9d be cc 48 0c bf 39 19 e7 3e 3f de da be
       -0.30851987 -0.5479858 0.4513643 -0.42747685
0002a0 97 f8 96 be 62 dd 5b be bf 40 96 3e 7d dc de bd
       -0.29486534 -0.2147117 0.29346272 -0.108818986
0002b0 f6 67 51 be ff 31 3b bf 25 b3 de 3e 53 06 8e be
       -0.20449814 -0.73123163 0.4349605 -0.277392
0002c0 b8 43 84 3e d0 ce d6 be c6 de d1 3e 06 29 83 3e
       0.25832915 -0.4195466 0.40990275 0.25617236
0002d0 d8 07 bc 3d bc f4 44 bc e8 45 5c be 34 17 36 3f
       0.091811836 -0.01202124 -0.21511042 0.71129155
0002e0 74 79 47 3f 8a d5 83 bd 4a f8 98 be 9f b4 0e 3f
       0.779197 -0.06437214 -0.2987693 0.55744356
0002f0 a5 57 fb 3d d2 c3 c6 bd 54 36 03 bf a5 48 41 3e
       0.12272576 -0.097053185 -0.51254773 0.18875368
000300 83 53 48 3f 57 2a 8c 3d 4a 80 04 bf 07 61 cf 3d
       0.7825243 0.06844013 -0.51758254 0.10125928
000310 0c 4e df 3e 3d b1 90 be e6 1b fa bd c4 79 96 3e
       0.43614233 -0.28260222 -0.122123525 0.29389775
000320 4c a9 ab be 0e a7 e9 3e ce b4 2d be 51 01 c3 be
       -0.335276 0.45635265 -0.16963503 -0.38086942
000330 5c 1a 34 bc 74 b6 b8 be f2 03 33 be 09 3c 7d 3e
       -0.010992613 -0.360767 -0.17481974 0.24729933
000340 c1 41 09 bf f4 71 2e 3d 0c 38 d9 bc f1 d9 84 bb
       -0.5361596 0.042589143 -0.026515983 -0.004054301
000350 19 97 e6 bd 04 d2 13 3e e3 e2 e5 bb 1e ff 89 bd
       -0.11259288 0.14435583 -0.0070155724 -0.06738113
000360 39 71 c2 be 9f 2a 06 be d8 c2 a8 3c e6 cf 54 3d
       -0.37977007 -0.13102196 0.020600721 0.05195608
000370 5c 6a f9 3d 8d 01 88 3e 7d 7a 79 bd 5c ca 8b be
       0.121784896 0.26563683 -0.06090783 -0.27302825
000380 a5 37 8d be 13 b7 b7 bd ab 3e 1f bd 49 02 82 3c
       -0.27581516 -0.089704655 -0.038878124 0.01587023
000390 43 b4 81 3e 17 6b 73 3d 19 ca b4 3d 21 c6 26 be
       0.2533284 0.0594283 0.088276096 -0.16286518
0003a0 46 15 07 3e aa cd f1 bc b6 84 37 3e 87 4a bd bc
       0.13191709 -0.029517014 0.17921719 -0.023106826
0003b0 92 77 49 be 8d 99 9a 3c e3 19 2e be 1c 5f 6d 3d
       -0.19674519 0.018872047 -0.17002062 0.05795203
0003c0 1c fb 9a bc 2f 6c 64 bb f8 ef da bd 81 f5 86 3d
       -0.018918566 -0.0034854522 -0.10690302 0.06589795
0003d0 ef 11 a9 3d 1a e4 bc bd e4 68 8e 3d 01 68 21 be
       0.08255374 -0.092231944 0.069536 -0.1576233
0003e0 e4 ec b9 3a 12 33 a9 be 74 3f c9 3a 54 06 d8 bd
       0.0014184979 -0.33046776 0.0015353994 -0.10548082
0003f0 04 b1 4a 3e af 26 c8 bd 2a b8 86 bb a5 f5 49 be
       0.19794089 -0.09773003 -0.0041113095 -0.19722612

stu.hidden.0.stu.M_phi_minus f4 [8, 16, 8]
000000 dd 53 3a be 39 fb 06 3f 08 0c a4 bd 70 0f 07 be
       -0.18196054 0.52727085 -0.08010107 -0.13189483
000010 82 ab 76 be 2e 3e 97 3e 03 c7 c0 3e 28 7c 5f be
       -0.24088863 0.29539627 0.37651834 -0.21824706
000020 c5 fe ff be 94 60 48 3f 5a 2e 08 bd 34 d6 00 3e
       -0.4999906 0.78272367 -0.03324733 0.12581712
000030 e2 47 3d 3e b7 9a 63 3e 60 fc c9 3e fe 64 29 be
       0.18484452 0.22226988 0.3945036 -0.16542432
000040 f5 db f4 be 4f d1 48 3e 98 e4 23 be 6f 53 45 3d
       -0.47824064 0.19611095 -0.1600517 0.04817527
000050 f7 bb ad 3e 3a 7a 53 3d eb 43 a2 3e c7 b7 ed 3d
       0.33932468 0.051630236 0.31692442 0.11607318
000060 79 19 a6 be 25 23 d9 3e bc e3 96 3e 91 e0 e0 bd
       -0.3244131 0.42409626 0.29470623 -0.10980333
000070 9e de 5f bd 9d c8 aa 3e 60 da b7 3e a1 cc 88 be
       -0.054655664 0.3335618 0.35908794 -0.2671862
000080 ee 89 77 3d 6e 6b 79 be 40 86 95 3e 7f c3 5a 3b
       0.060434274 -0.24357387 0.29203987 0.0033380685
000090 85 2f 28 3e b3 f3 a5 bd f0 33 1e be 11 7a f5 bd
       0.16424377 -0.081031226 -0.154495 -0.11986173
0000a0 36 e5 1c be 9f f7 d3 bd 23 d5 b1 be a7 c2 b0 3b
       -0.15321812 -0.10349964 -0.34732923 0.005394298
0000b0 52 b7 8b 3e b4 f3 0a 3e 24 5c b9 3d be e0 21 3e
       0.272883 0.13569528 0.090507776 0.15808389
0000c0 62 97 a4 be 2b 64 aa be e0 4d a2 3e 25 32 a4 bb
       -0.32146746 -0.33279547 0.3170004 -0.0050108605
0000d0 24 b0 b0 bc a5 50 1e be 22 7c ac 3d 2c 02 4d 3e
       -0.021568365 -0.15460451 0.08422114 0.2002036
0000e0 cb 94 17 3d 4a d3 ec bd e1 0f 82 be 83 3c f8 3c
       0.037007134 -0.11563738 -0.2540274 0.030302292
0000f0 78 e1 4e 3b 84 8c 44 be 0a e6 55 bd 44 72 39 bc
       0.0031567495 -0.19194227 -0.052221335 -0.011318747
000100 d1 af 1b be bc db 22 3e 2f 7c ef 3c b9 ed 8d bd
       -0.15203787 0.15904135 0.02923402 -0.069301076
000110 7e 44 27 3d 95 59 49 3e 30 97 0f be a7 48 47 be
       0.040836804 0.19663079 -0.14022517 -0.19461308
000120 a5 66 47 3e 7a 54 59 3d 8e cd 91 be 6f ec 04 3e
       0.1947275 0.05305908 -0.28477138 0.12980817
000130 e4 77 51 3e 52 c8 0d be 86 ac 09 be f2 6d 3c 3d
       0.20455891 -0.13845947 -0.13444719 0.04600329
000140 a1 ae 3a 3e 16 2e 86 bd 32 39 5d 3e 6b 75 68 3e
       0.18230678 -0.06551759 0.2160385 0.22701041
000150 eb 26 28 3e fb b7 c2 bd 1d f6 63 3d 39 bb 8b 3c
       0.16421096 -0.09507748 0.055654634 0.017057048
000160 28 34 73 3e a2 ac f1 3b 86 35 2e bd f1 88 30 be
       0.23750365 0.0073753158 -0.042531513 -0.17239739
000170 eb 99 8d be 2d 2a 98 3d a7 bc bd 3d fa c1 45 be
       -0.27656493 0.074299194 0.09264498 -0.19312277
000180 2a f3 5b 3e e9 fb 2a 3d d3 ec 59 3d fb 75 8d bc
       0.21479478 0.041744146 0.05320437 -0.017268172
000190 b5 a1 68 3c fe 20 12 3e 93 73 e7 bd 0d d7 14 be
       0.01419871 0.14270398 -0.11301341 -0.1453516
0001a0 1a ff de 3d 86 c8 82 3e 9d 8b b5 bd ce b2 ea 3d
       0.108885005 0.25543612 -0.0886452 0.114598855
0001b0 b9 66 11 be 3d 14 a4 3d 43 b8 c1 3d 44 9c de 3d
       -0.14199342 0.08011673 0.09458973 0.10869649
0001c0 82 6c 33 be 50 a4 33 be ce 47 99 3e 23 0f 24 be
       -0.17521861 -0.17543149 0.29937595 -0.16021399
0001d0 5f 89 3f 3e 51 cb 12 bd 68 52 ef 3d d1 37 80 be
       0.18704747 -0.03583843 0.116856396 -0.25042585
0001e0 ac 10 ce 3d 6d 80 1d bd 94 e0 b4 bc 46 45 33 be
       0.10061774 -0.038452554 -0.022079743 -0.17506894
0001f0 70 3e 66 bb 18 c7 96 3d a8 50 95 3d 65 b9 aa 3d
       -0.003513243 0.07362193 0.072907746 0.083361425
000200 cf 1a 8b bd a9 c4 15 bd 75 33 38 3e 65 a1 47 be
       -0.06792223 -0.036564503 0.1798838 -0.19495161
000210 8a 5d 2a bf 25 8e 19 3d 22 51 c5 bd bb dc 14 bf
       -0.6654898 0.037489075 -0.096346155 -0.5814931
000220 40 60 82 be 44 25 bc 3e 22 13 cd 3e 52 3f b4 be
       -0.25464058 0.3674718 0.4005366 -0.3520456
000230 89 20 84 be 8c 02 e4 3e db f9 55 3e 6b 1e de be
       -0.25806072 0.44533193 0.20896094 -0.43382582
000240 83 c7 f3 bd a5 a4 78 bc 44 16 94 3e 56 98 bc be
       -0.11903288 -0.015175973 0.28923237 -0.36834973
000250 4e 8e a7 3d 01 af 02 be 0e 85 22 3e 96 aa a8 bd
       0.08181439 -0.12762071 0.15871069 -0.08235662
000260 f9 14 77 be 4c 70 ac 3e c6 19 d6 3e ca 94 9f bd
       -0.24129094 0.33679426 0.4181654 -0.07792051
000270 43 8b 9b be 87 69 09 3f 38 91 53 3e 7a 1a 0e bf
       -0.30379686 0.53676647 0.20660865 -0.5550915
000280 6f 72 fd 3b 39 76 62 3c 90 b3 e8 bc 2b 4c fa bc
       0.007734589 0.013822132 -0.028405935 -0.030553898
000290 79 f4 1c 3d 5d f3 cd 3d 30 db b3 3c aa 4b 9e bd
       0.038319085 0.100561835 0.021955103 -0.077292755
0002a0 27 74 f7 3d d1 65 ca bd 0d 57 c6 bd 78 7f 93 3d
       0.12082701 -0.09882701 -0.09684572 0.07202047
0002b0 63 e4 25 3e 13 a4 b2 bd a2 43 02 3d 82 45 81 3c
       0.16200404 -0.08722701 0.03180278 0.015780214
0002c0 9a 49 ca 3c 87 9f 96 bd 53 c4 e8 bd ec 1d 91 3e
       0.0246933 -0.07354646 -0.11365571 0.2834314
0002d0 d2 f2 62 3e 0d f1 70 be 2f ad 1b 3e 1f de 86 3e
       0.22162941 -0.23529454 0.15202783 0.2634134
0002e0 e5 d8 be bb 3a ed 77 3d 01 1a a4 3e db a2 b1 be
       -0.0058241957 0.06052897 0.3205109 -0.3469456
0002f0 7f cf 91 bd 6f 94 b6 bc 52 39 19 bd c0 7e 0d 3e
       -0.07119655 -0.022287576 -0.03740818 0.13817883
000300 98 06 d2 3a 67 aa d4 3d 64 a9 07 be c2 3c e8 3e
       0.0016023694 0.10384064 -0.13248211 0.45358855
000310 85 59 15 3e 82 be 93 bd ef 6b 0b be a0 11 98 3d
       0.1458493 -0.07214071 -0.13615392 0.07425237
000320 14 ba 72 3d 8a 50 1d be 9f 5d 76 3d 58 8b 3e be
       0.05925949 -0.15362754 0.060147878 -0.18607843
000330 df a4 f4 bc 0d 2d 49 3e d8 4e 2a bb c0 f2 5a be
       -0.029863773 0.19646092 -0.0025986936 -0.21381664
000340 59 5e 30 3d f5 38 92 3d ef ac 16 be 09 ed 64 3e
       0.043058727 0.0713977 -0.14714406 0.22356047
000350 0d c8 03 3d 04 e1 0d 3e 3c 9b 68 be 4d 43 80 be
       0.032173205 0.13855368 -0.22715467 -0.25051346
000360 7a 86 80 bd 66 32 5f 3e 66 05 54 be 4e 51 83 bd
       -0.06275649 0.21796569 -0.20705184 -0.06411992
000370 d0 5c 6c 3d d4 b1 fc bd 6f 15 f0 bd 7e f9 ee be
       0.0577057 -0.123386055 -0.11722838 -0.46674722
000380 b7 fb 93 be b5 0b 98 3d 73 13 bc bd 79 2e ac 3d
       -0.2890298 0.07424108 -0.09183397 0.084073015
000390 7c a9 e1 bd 74 12 1f 3e 40 a6 67 3d 90 fa 48 bd
       -0.11018655 0.15534383 0.056555033 -0.04906708
0003a0 7c f0 27 3d c3 22 09 3e 0f 4c 55 be 72 3d 86 3e
       0.04100083 0.13392167 -0.20829795 0.26218754
0003b0 38 f3 c5 be 0e 7c dd 3c a9 46 11 3e c0 be 1c bc
       -0.38662124 0.027036693 0.14187111 -0.009566963
0003c0 54 c2 98 3c 43 64 53 be 93 b2 9b bd c1 2a 67 3e
       0.01864735 -0.20643716 -0.0760242 0.22574903
0003d0 d1 37 43 be b4 98 6c bd 82 bb 56 be 1e a7 0a 3e
       -0.19064261 -0.057762817 -0.20969966 0.13540313
0003e0 c3 5f a0 bd 8a bf 95 3b b5 e1 ac bd 20 cc 50 bd
       -0.07830765 0.0045699524 -0.08441488 -0.05097592
0003f0 a3 94 7e 3d a0 3f c6 bd 1b a7 dd bc 81 4c 86 bc
       0.06215347 -0.09680104 -0.027057221 -0.016393902

stu.hidden.0.rn_2.weight f4 [8]
000000 e6 77 6f 3f d5 09 13 3f fd 3f 35 3f b3 e9 3d 3f
       0.93542325 0.5743688 0.70800763 0.7418472
000010 c7 53 57 3f 6e b2 1e 3f 32 ba 1e 3f e1 e2 85 3f
       0.8411221 0.6199101 0.6200286 1.0459863

stu.hidden.0.mlp.swiglu.w.weight f4 [32, 8]
000000 cc bd 92 be e8 b3 01 be a7 05 26 3d 76 9e 8c bd
       -0.2866043 -0.12666285 0.040532734 -0.068661615
000010 72 ce 0a 3f d1 63 12 be 6d 55 5d be d3 dc a7 3c
       0.5422126 -0.1429589 -0.21614619 0.02049104
000020 87 63 25 be b0 63 ca be 66 79 49 3b fc f8 db bd
       -0.16151248 -0.3952918 0.0030742525 -0.107408494
000030 57 f2 e6 bd 05 8b 10 be 08 63 55 3e 72 b5 5a 3e
       -0.112766914 -0.14115532 0.20838559 0.21358278
000040 ee 2c ce bd 25 9e ce 3d 5b 0a d2 3c b9 2f 38 be
       -0.100671634 0.100887574 0.025639703 -0.17986955
000050 c9 e1 30 bd 16 92 97 3e 14 41 d0 3d 7f 83 da 3d
       -0.043184076 0.29603642 0.10168663 0.10669612
000060 c6 9f 6c be 36 55 d4 3d 4a 5c 78 be bf 25 a9 be
       -0.23107824 0.10367815 -0.24253955 -0.3303661
000070 90 5c 42 bc ae d3 79 be 83 d2 11 3e d2 98 d6 bd
       -0.011862889 -0.24397156 0.1424046 -0.10478367
000080 d7 84 69 3e 99 12 1f 3e 7f 6d 9c bd 12 2b 45 3d
       0.2280458 0.15534438 -0.07638072 0.04813678
000090 2a f2 63 bd d3 2f b2 3e b0 f7 a0 bd 6c ca 21 3a
       -0.055650868 0.34802112 -0.07859743 0.0006171826
0000a0 b4 b4 be ba d3 aa 08 be 6d 55 59 3e db ee 09 3d
       -0.0014549703 -0.13346414 0.21223994 0.033675056
0000b0 1f 82 81 3c c4 73 7b ba 80 5c 21 be d6 b1 82 be
       0.015809117 -0.00095921406 -0.15757942 -0.25526303
0000c0 5e 21 00 be 1f f6 20 3e 46 1d bb bd bb ea 05 bf
       -0.12512729 0.15718888 -0.09136443 -0.52311295
0000d0 a2 3b 22 3e 9c 54 93 be 13 d9 00 3e b7 71 22 be
       0.1584306 -0.2877549 0.12582807 -0.15863691
0000e0 c6 95 1e bf 5a c9 34 3e 68 f7 d5 3b ec 45 0e 3e
       -0.61947286 0.17654935 0.0065297373 0.1389386
0000f0 68 1e 2a be 35 af a3 3e 8f 79 02 3f 3b 50 ca be
       -0.16613162 0.3196961 0.50966734 -0.39514336
000100 b3 12 ab 3d 88 73 b0 be 24 ae b2 3e 26 c2 bb bd
       0.08353176 -0.34463143 0.34898484 -0.0916789
000110 00 d7 b3 3c ea c0 ed bd 5a 07 e8 3d 6b e2 66 be
       0.021953106 -0.11609061 0.11329527 -0.22547309
000120 b7 71 74 be 58 b2 47 be 88 4e 45 3c b8 29 ba be
       -0.23871504 -0.19501626 0.012042649 -0.36359954
000130 08 78 1f 3d 29 5c 46 3e 14 26 ba 3e 02 f8 e5 bd
       0.03893283 0.19371094 0.36357176 -0.11228944
000140 32 80 a1 bd 8f b4 23 3e 3d 24 14 bd 8d b8 85 3d
       -0.078857794 0.15986846 -0.036167372 0.06529341
000150 f0 35 af bd bd 68 e4 3d a1 c8 43 bb aa e2 ac bd
       -0.0855521 0.1115279 -0.0029874223 -0.0844167
000160 81 02 a8 3e 76 d1 42 3b 75 86 3e be 33 db 1b 3e
       0.3281441 0.00297269 -0.18605979 0.15220337
000170 1e 2c 2c be 84 6d 92 3e c1 0e 82 be 67 ed 1d 3e
       -0.16813704 0.2859918 -0.2540188 0.15422593
000180 07 29 9a 3c b5 43 d4 bd 28 b2 4f bd 22 2a d1 3d
       0.018818391 -0.103644766 -0.050707012 0.10213114
000190 8b 97 7c 3d 6f 8f d9 bd de 1e 4e be 2b 55 e2 bd
       0.06166796 -0.10623061 -0.20128962 -0.11051401
0001a0 da e1 e7 bd f7 3c a1 3d 56 be 92 3e a1 98 77 3b
       -0.11322375 0.07872956 0.2866084 0.0037780183
0001b0 0c f0 d0 bd 3d 0e 39 3f 87 5e 34 3e fa 54 12 bf
       -0.10202035 0.7228735 0.17614184 -0.57160914
0001c0 f1 7c 1d 3e fa d2 3c be 3c 6f c1 3e ac 62 74 be
       0.15379693 -0.18439856 0.37780178 -0.23865765
0001d0 f0 db f3 bc 5c 42 4f bc c7 87 85 3e 59 4b b7 3d
       -0.02976796 -0.012650099 0.26080152 0.08949918
0001e0 85 89 c0 3e 81 8b 09 be eb b1 32 3e 62 81 1a 3e
       0.3760492 -0.13432123 0.17450683 0.15088418
0001f0 e1 48 b6 bd 5f 5d b0 be 00 c0 3b 3d e4 55 69 3d
       -0.08900619 -0.34446236 0.045837402 0.056966677
000200 bd b1 eb bc e0 9c 34 be 5f 87 ca bd 36 6a 25 3e
       -0.028771276 -0.17637968 -0.09889101 0.16153798
000210 d1 fc 8b 3d 6f ab 3e be f4 2e 7e 3d fe 8e 8e 3e
       0.0683533 -0.18620084 0.062056497 0.2784347
000220 8d a0 f1 3e 90 77 8e 3d 04 b6 96 3d 50 07 bb 3e
       0.47192803 0.069563985 0.073589355 0.36529016
000230 95 92 2c be 77 39 1a bc 7e d6 d6 3e ee c7 1d 3e
       -0.16852792 -0.009413115 0.4196052 0.15408298
000240 20 d4 74 3e 71 59 de bd 6b 2c 8c bd da 8f 90 3e
       0.23909044 -0.10856903 -0.068444096 0.2823475
000250 77 0b ed be d3 e8 8e 3c 67 b6 11 be d3 14 1a 3e
       -0.4629781 0.017445004 -0.14229737 0.15047006
000260 ad 3c 17 3e 63 e4 eb bd 9c 99 00 be 77 62 93 3e
       0.1476924 -0.11518171 -0.12558597 0.2878606
000270 40 b1 61 bd 02 c6 bf 3d 58 c5 98 3e e2 b6 71 3d
       -0.05510068 0.09363939 0.2983806 0.0590123
000280 cb 33 c6 3a c7 47 ba bd c1 c5 cb bc 31 47 b0 bc
       0.0015121637 -0.09095722 -0.02487457 -0.021518322
000290 cb 50 00 3e 31 6f 96 3c 7e 29 b7 3d bc 2d 5c 3d
       0.1253082 0.018363567 0.08943461 0.053754553
0002a0 d1 b3 f0 3d fd b7 22 3d c7 a2 a3 3e 31 8d a2 3c
       0.11753047 0.039726246 0.31960127 0.019842716
0002b0 e6 28 32 be 10 73 84 be d9 4a fd bd e0 cd ff be
       -0.17398414 -0.25869036 -0.12367792 -0.49961758
0002c0 00 1f cc be f0 8f b1 3d 4b f3 92 3d 4c 2b 45 be
       -0.398674 0.08670032 0.07175311 -0.19254798
0002d0 1f f9 a0 be ff 84 72 3d a8 42 43 be 01 f2 04 be
       -0.31440064 0.059208866 -0.19068396 -0.12982942
0002e0 73 3e b4 3e 9d 80 0a be 94 b2 e5 3e e8 bb ea 3c
       0.35203895 -0.13525625 0.44862807 0.028654054
0002f0 c0 3e 80 be 26 cc ff bd 68 73 ca 3e 02 12 11 3d
       -0.25047874 -0.1249011 0.39541173 0.035417564
000300 c0 d1 22 3f c5 c4 a2 3e c2 ef 02 3d 4d 2c cd 3e
       0.63601303 0.31790748 0.031966932 0.4007286
000310 de 7d ba 3e 7c b9 3f be fe ba 82 bd c5 09 ec 3c
       0.36424154 -0.187231 -0.06383322 0.028813252
000320 73 c3 2f 3f 21 ce 55 be fc cc 17 3e 7e 1d 06 3f
       0.68657607 -0.20879413 0.14824289 0.5238875
000330 10 11 59 be 99 4b 1f bf 7a ba 3f 3e 3f e3 2f be
       -0.21197915 -0.6222473 0.18723479 -0.17176531
000340 5b 9c a0 be 6c d6 fb 3e 2f 02 28 be c0 22 c1 be
       -0.3136929 0.49187028 -0.16407083 -0.37721825
000350 e3 97 c1 be 94 4d 82 3e 62 b0 86 3c fc 42 5a 3e
       -0.37811193 0.25449812 0.016441528 0.21314615
000360 2d 79 46 3c 8a 9f 2e 3f a2 8f 68 be 11 67 ec be
       0.0121138515 0.6821219 -0.22711042 -0.46172383
000370 dd 35 c3 be fe 27 c1 bd 51 37 b1 bd c6 b3 73 bd
       -0.38127032 -0.09431456 -0.08653129 -0.059497617
000380 6b c3 11 bf 8f a4 2f bf 0f 5a 1f 3f 59 64 80 be
       -0.5693881 -0.6861047 0.62246794 -0.2507656
000390 84 8f 5d 3d a0 d2 e9 3d 66 1a ae 3e 41 e7 32 3e
       0.054091945 0.11417127 0.34004515 0.17471029
0003a0 48 7e dc bc d6 8c f3 3e c0 35 9b 3d e2 5f 34 be
       -0.026915684 0.47568387 0.075786114 -0.17614701
0003b0 d9 9f 0b 3c ec bb 0d be c5 bc 72 3e ac c6 d1 be
       0.008521997 -0.13841218 0.23704822 -0.40971887
0003c0 ed cf 33 3e 75 98 86 be b0 97 cc 3d 1c 6e 9c bd
       0.17559786 -0.2628819 0.099898696 -0.07638189
0003d0 ae f0 0e 3d 6c 01 c7 bd 07 a6 14 3e ec 6d 07 3e
       0.0348975 -0.09717068 0.1451646 0.13225526
0003e0 f6 79 50 be 18 e6 a7 3e 52 39 4e bd 39 20 94 be
       -0.20359024 0.32792735 -0.050347634 -0.28930834
0003f0 50 df 31 be 8a 90 54 3d 39 9d 93 3d 6c ce b7 be
       -0.17370343 0.051895656 0.07207722 -0.35899675

stu.hidden.0.mlp.swiglu.v.weight f4 [32, 8]
000000 42 0e bb bd 8d cf fb 3c eb b2 9e be d5 a4 47 3e
       -0.09133579 0.030738616 -0.3099588 0.19496472
000010 fd 18 36 3e fa 32 f1 bd 44 ad a8 be da ed 75 bd
       0.1778297 -0.11777301 -0.3294469 -0.060041286
000020 1c f4 cd bd dd 78 26 bd 0c 2b 86 3d 61 5d cc 3b
       -0.10056326 -0.040642608 0.06551179 0.0062367176
000030 fb af 93 be 8c 8e 05 be f5 f2 f1 3d 41 e9 b3 3d
       -0.288452 -0.13042659 0.118139185 0.08784724
000040 1e 5f 02 be 2a 23 76 3c 3a 63 e0 bd 8f ab 4d be
       -0.12731597 0.015023032 -0.10956426 -0.20084976
000050 6a f8 89 bd 3b 91 d2 3d 83 e3 98 3e 88 5d fb 3d
       -0.06736834 0.10281607 0.29861078 0.12273699
000060 38 89 e3 be 59 e1 64 3d 90 22 03 be a5 49 fd 3a
       -0.44440627 0.05587897 -0.12806153 0.0019324316
000070 3c c6 94 be 12 f6 a9 3e 00 1e 9e 3e 4c db fe 3d
       -0.2905749 0.3319555 0.30882263 0.12444171
000080 38 ec 25 bd 5f 5e 94 bd f0 79 e3 bd 22 43 97 bd
       -0.04050848 -0.07244562 -0.11107242 -0.073858514
000090 f0 a1 e2 39 79 45 01 3e 51 d4 0d 3d 61 f8 91 3c
       0.00043226732 0.12624158 0.03462631 0.017818632
0000a0 f8 91 19 3d 49 a7 09 bc 26 69 e9 3d a5 47 a5 3d
       0.037492722 -0.0084017 0.113970086 0.08070306
0000b0 c2 e1 09 bd b7 e8 99 bd 2a b3 43 bd 74 6b 48 be
       -0.033662565 -0.0751509 -0.047778286 -0.1957224
0000c0 18 58 78 be 7a ee 88 3e bf c0 93 bc e8 42 da bd
       -0.24252355 0.26744443 -0.018036244 -0.106572926
0000d0 35 00 4f be e0 96 0c 3d 92 88 9f 3d 10 6d 64 be
       -0.20214923 0.034323573 0.077897206 -0.22307229
0000e0 48 01 43 3e cd cc 68 be 94 d1 de bc a5 8f 86 3e
       0.19043458 -0.22734375 -0.027199544 0.26281467
0000f0 ec 71 c5 3e a7 48 82 be a0 11 84 bd 77 9a ab 3e
       0.38563478 -0.25446054 -0.06448674 0.33516285
000100 45 c7 72 3e 26 fd 15 3e d5 5b df be 60 25 1b be
       0.23708828 0.1464735 -0.4362475 -0.15150976
000110 00 39 5e be 8e 48 4a 3e 73 c8 dc be fb 9b 17 3d
       -0.21701431 0.1975424 -0.4312168 0.03701399
000120 7c 82 91 3d ba 20 cb 3e 07 52 10 be 8c 9c d9 bd
       0.07104966 0.39673406 -0.14093791 -0.10625562
000130 50 6b 15 be b9 b2 63 be cb ed 77 be ae 91 2d be
       -0.14591718 -0.22236146 -0.24211805 -0.16950104
000140 50 13 8f bd ef 4a 3d be 7e 88 e9 3d 88 17 90 3d
       -0.069861054 -0.18485616 0.11402987 0.07035738
000150 6c 31 55 3e fa ce 54 bc eb 3f 43 3d 80 6d 05 3d
       0.20819634 -0.0129888 0.04766838 0.03257513
000160 0a 37 c1 3d 3a 12 8b 3e 03 38 85 be 21 d5 6c be
       0.09434326 0.27162343 -0.26019296 -0.23128177
000170 df fe 39 be cd c2 ab 3e f6 99 53 be ba 8a 08 bd
       -0.18163632 0.3354706 -0.206642 -0.033335425
000180 87 8a e7 3d 0c 63 c6 bd 77 66 ea bd e9 50 75 3d
       0.11305719 -0.096868604 -0.11445325 0.059891615
000190 05 a4 1d be 71 83 74 3d 8b 4f f5 bd 09 e7 98 3c
       -0.153946 0.059695665 -0.11978062 0.018664854
0001a0 92 14 d3 3e 08 e4 9b 3e 8d fd 9d be 5a 67 89 bd
       0.4122663 0.30447412 -0.30857506 -0.06709166
0001b0 ee 67 15 3e 1d ce e7 bd 5a 1b 6c be 8a 08 aa 3e
       0.14590427 -0.1131861 -0.23057309 0.3320964
0001c0 6d 05 a9 bd 1d 9f a6 3d 3c 7f 0d bd 91 ab db 3d
       -0.08252988 0.08135817 -0.03454517 0.10726083
0001d0 ba 15 9f be f4 aa c5 3d e1 4a f9 be 4a 7a 3e 3e
       -0.31071264 0.09651747 -0.4868994 0.18601337
0001e0 3d d3 c2 3e 66 5e da bc 92 fb 96 3d d5 67 96 3e
       0.38051787 -0.02665634 0.07372202 0.29376093
0001f0 01 3d 7f bd 1b 2f ed 3d cf 18 07 be 74 6e 21 bc
       -0.062314037 0.1158125 -0.13193057 -0.009852994
000200 c6 0a a8 bd 49 c2 96 3e d9 4d 27 bd f1 d1 ad 3d
       -0.0820518 0.29445103 -0.040845726 0.08487309
000210 a3 a3 a7 be e9 0e fc bd a2 76 5e 3e be 74 b4 bb
       -0.32742032 -0.123075314 0.21724942 -0.005507081
000220 6c c5 89 3e 56 13 01 3e ad 39 6d 3d 5a 47 dd 3e
       0.26908433 0.12605032 0.057916332 0.432185
000230 02 b9 3f be 2a 30 3a bd 6a da 9f 3d dc 02 c9 39
       -0.18722919 -0.04545609 0.07805331 0.00038339838
000240 f7 ab fc 3d eb 12 5b 3e dd 64 c6 bd 8f 85 f4 3e
       0.12337487 0.21393935 -0.09687207 0.47758147
000250 92 9b dc bd 02 5a 3c 3e a7 e5 cf bb 22 50 68 3c
       -0.1077186 0.1839371 -0.0063445154 0.014179261
000260 82 0b dd bc 7d b2 04 3b ac a9 33 3c a2 b6 33 be
       -0.026983026 0.002024799 0.010965746 -0.17550138
000270 0f 44 2c be 37 6d 9c 3d 62 23 49 be 23 15 43 be
       -0.16822837 0.076380186 -0.19642404 -0.19051032
000280 c0 ac 93 bd 34 a4 0e be 89 f0 6a 3d 61 32 1b bd
       -0.07210684 -0.13929826 0.0573583 -0.037889842
000290 7a b8 53 3d 9d 60 b2 bd 13 07 43 bd 97 47 2c 3d
       0.051689602 -0.08709834 -0.04761417 0.04206046
0002a0 34 fa aa 3e 7c 82 55 be ee de ab 3e 03 29 cb 3e
       0.33394015 -0.20850557 0.3356852 0.39679727
0002b0 d3 20 61 be 71 d2 e8 be 30 14 d8 3e eb b5 f2 bd
       -0.21985178 -0.45473054 0.42202902 -0.11851104
0002c0 5d 22 6e 3e ac ee 7f 3e eb f9 80 bd dd a8 76 3e
       0.23255296 0.2499339 -0.06297668 0.24087854
0002d0 1a 92 9d 3d 4d c7 e4 be cb bf fc bd ff d7 59 be
       0.07693882 -0.44683304 -0.12341269 -0.21273802
0002e0 57 e4 86 3e a9 07 56 3e 1a 2b 81 bd 21 36 39 3e
       0.26346084 0.2090136 -0.06307049 0.18087055
0002f0 78 2a 2d bf c8 aa 0c 3d 07 6b be bd c9 17 d7 bd
       -0.6764293 0.034342557 -0.092977576 -0.105025835
000300 bc 15 c2 3e ef 41 a6 3e 8c a8 ed be 80 1d be 3b
       0.37907207 0.32472178 -0.46417654 0.0058018565
000310 38 26 23 3f 3b f3 db be 64 8c 9c be e2 8d 31 bb
       0.6373019 -0.42959008 -0.3057586 -0.0027092625
000320 29 4b 37 3e 8c 43 a2 be 73 0d 1e 3e ad 56 0e 3f
       0.17899765 -0.3169216 0.15434818 0.55601007
000330 3d 15 0a bf c4 95 27 be cb 2b cb 3e a8 18 f3 be
       -0.5393866 -0.16365725 0.3968185 -0.4747975
000340 ed 02 d1 3e 3c 97 b4 3c c5 45 ee 3c ab 1f 3d 3e
       0.40822545 0.02204477 0.029086003 0.18469112
000350 47 ba 5c 3d 87 f5 9c 3e 13 44 12 bf 90 f7 1c 3d
       0.053888585 0.30656072 -0.57135123 0.03832203
000360 a5 24 0b bf 27 97 06 be 8f c1 85 bd 6b 90 11 be
       -0.5435279 -0.13143598 -0.06531059 -0.14215247
000370 c9 3b 2c bd 06 1f 4a 3e da 4a 1c 3f 5e f0 73 be
       -0.042049203 0.19738397 0.61051714 -0.23822162
000380 01 99 47 3f 75 76 6d 3e 68 10 8d be 6c 48 e7 3e
       0.7796784 0.23189719 -0.2755158 0.4517244
000390 5d 35 50 3d 92 a2 28 bf 86 b2 66 be ba e2 2c be
       0.05083214 -0.6587306 -0.22529039 -0.16883364
0003a0 bf 6b e5 3c 2c 73 e0 3e 8d 14 10 bd 2b a9 7c be
       0.028005479 0.4383787 -0.03517585 -0.24673907
0003b0 53 ad 52 be 3d 04 33 3b 7e 72 37 bd 04 ec 08 be
       -0.2057393 0.0027315759 -0.044786923 -0.13371283
0003c0 1b 3b 85 3e a6 e0 5c be 49 92 85 3d 3a 73 cf 3d
       0.26021656 -0.21570072 0.06522042 0.101293996
0003d0 c8 4c b0 3d 95 24 29 3e d0 76 02 3e b8 7a 9e 3c
       0.08608395 0.16517861 0.12740636 0.019345626
0003e0 a5 7d 96 be 74 ac 86 3e 29 9b a6 bd 6d 3d e6 be
       -0.29392734 0.26303446 -0.08135063 -0.4496874
0003f0 22 d1 f3 bd d4 f5 5a be 18 8f 42 3e 75 cf 2a be
       -0.11905123 -0.21382838 0.18999898 -0.16680701

stu.hidden.0.mlp.swiglu.w2.weight f4 [8, 32]
000000 82 d8 52 be 38 15 87 3e ed 42 b7 3d 3e 42 ab 3e
       -0.20590404 0.26383376 0.08948312 0.33448976
000010 5d 8b f3 bd e4 c2 95 bd 24 fc be 3d ef 4d 76 be
       -0.11891816 -0.07312563 0.09325436 -0.24053167
000020 b5 f8 8e 3d 22 94 32 3d a2 41 d0 3a 52 07 0c bd
       0.06981031 0.0435983 0.0015888701 -0.03418667
000030 7a 44 ff bd 1e 8e 42 be 09 dd 23 3e 34 e0 21 3d
       -0.12464233 -0.18999526 0.16002287 0.039520457
000040 26 a7 15 3e 15 6d b4 bc e8 c2 8e bc 18 da bf be
       0.14614543 -0.02202467 -0.017426923 -0.3747108
000050 10 6d b8 bc 0f d4 9c be 4c 27 bf be f6 5a 3e be
       -0.022512943 -0.30630538 -0.3733467 -0.18589386
000060 4f 29 f0 3e 65 0e 11 bf b3 1e 45 be 17 61 48 bd
       0.46906516 -0.5666259 -0.19249992 -0.048920717
000070 34 53 b6 be e8 10 71 bd 0b 22 8f be 4c 6b cd 3c
       -0.35610354 -0.058854014 -0.2795566 0.025075577
000080 4b 5f 3f be 7f dc 06 3d 31 9d 0a bd aa cd 38 bd
       -0.18688695 0.032925125 -0.033841316 -0.04511801
000090 a8 30 a8 bd 22 08 97 3d a4 07 9a be 54 99 84 bc
       -0.082124054 0.07374598 -0.30083954 -0.016186394
0000a0 e2 b3 a2 be b0 2f 4f be cf 4a 3b 3e 51 63 b7 3d
       -0.31777865 -0.20233035 0.18290256 0.0895449
0000b0 7a 46 94 3e fe 17 84 bd d1 b9 78 be 78 58 89 be
       0.2896002 -0.06449889 -0.24289633 -0.2682531
0000c0 bf bc 1e 3d 24 46 a3 be 2a c1 18 3d 57 b3 81 3e
       0.03875422 -0.3188945 0.03729359 0.25332138
0000d0 e7 93 a6 bd 88 43 96 3e f9 18 41 be 15 94 89 bd
       -0.08133679 0.29348397 -0.18857183 -0.067176975
0000e0 bf 83 9a 3e fa ca 48 3e 47 3d 9b 3e a5 df 31 bf
       0.3017864 0.1960868 0.30320188 -0.6948188
0000f0 dd fd d7 be 68 d9 8d be 47 06 1d be 82 b0 5d be
       -0.4218587 -0.2770493 -0.15334426 -0.21649364
000100 81 fc 67 3d 55 9d a6 3d ca 48 f3 bd 0f f0 72 3d
       0.05663729 0.081354775 -0.11879118 0.05931097
000110 d6 3c 85 3c 23 92 e6 bd 19 90 d2 3d 37 c1 89 3e
       0.01626436 -0.11258342 0.10281391 0.26905224
000120 6b 5f 2f 3e 5b 69 1b 3d b4 3c 67 3d 62 cb c8 3d
       0.17126243 0.03794227 0.056454375 0.09804417
000130 1c 7d 33 be 7c ba dc 3e 12 83 c9 3d c6 07 ae bd
       -0.17528194 0.43111026 0.09839453 -0.084975764
000140 59 8d 18 3e 8a a9 19 3e cc 5e 8d 3d f9 36 9e be
       0.1489767 0.1500608 0.06902847 -0.30901316
000150 23 a4 9d bd de 0e 7d be 88 08 b7 3d 1a d2 8e 3d
       -0.07697322 -0.24712703 0.08937174 0.069736674
000160 c3 e9 c4 be 18 19 0e 3b 0a 43 1b 3e fb da f2 bd
       -0.38459596 0.0021682438 0.15162292 -0.118581735
000170 78 ff 93 3e ea 39 00 bd 86 e1 96 3e f2 0a 81 3a
       0.28905845 -0.03130523 0.29468936 0.0009845181
000180 8e 42 d1 be ee 13 68 bd 5f 68 fd bd fc 91 9a 3c
       -0.4087109 -0.05665963 -0.12373423 0.018868439
000190 50 94 60 bd 0f 00 03 be 67 4a 1a 3e 5a 66 e6 3d
       -0.05482894 -0.12792991 0.15067445 0.11249991
0001a0 d1 0a 8a 3e 99 d1 36 3e db 5e 3f be 2a 4a 90 be
       0.26961377 0.17853393 -0.18688528 -0.28181583
0001b0 f1 a4 24 3e 6c 1b 0a 3e 4d 88 d0 3d 4c 1e 21 bc
       0.16078545 0.13487023 0.10182247 -0.0098338835
0001c0 2f b8 fd bd 04 8c a5 be 34 a7 f8 bd 3f 47 72 3e
       -0.12388646 -0.32333386 -0.121412665 0.2365999
0001d0 b9 3b c3 3d 74 de f5 be 18 85 55 3d dc 51 0d bf
       0.095328756 -0.4802128 0.05212888 -0.5520303
0001e0 1b ce 85 bc b1 bf 14 bf 06 2d 9a bd cc 4e 00 3f
       -0.01633363 -0.58105 -0.07528119 0.50120234
0001f0 71 34 27 be 65 43 16 3e 89 18 2d 3e 30 10 8f 3d
       -0.16328599 0.14674146 0.1690389 0.069855094
000200 7d 86 8e 3e 62 d7 c3 bd 11 46 a8 3e 1b 36 4c 3e
       0.2783698 -0.095625654 0.32865956 0.19942515
000210 ce d2 2b 3d c1 2d 00 3e 07 e4 7b 3e 60 82 cc be
       0.041949086 0.12517454 0.24598704 -0.39943218
000220 23 65 0a 3e 76 64 86 bb d2 1e 2b bd 40 4c 6b be
       0.13515143 -0.0041013313 -0.04177744 -0.22978306
000230 aa ce 3e bd 48 65 4a be bb 49 85 3e 89 76 e5 3e
       -0.04658381 -0.19765198 0.26032814 0.44816998
000240 43 4d ff bd 2b fb 46 3e bb a6 cd 3d 49 54 07 3e
       -0.124659084 0.1943175 0.10041567 0.13215746
000250 eb e8 bd bc 06 77 66 3e fe 81 22 bd e4 64 01 3f
       -0.023182353 0.22506341 -0.03967475 0.5054457
000260 ee 0e b0 3d 8a fe 58 3e 85 cb 40 be 12 ad bb 3d
       0.085965976 0.21190849 -0.18827637 0.0916387
000270 80 9e 9c bd e7 9d 63 3e 0f 99 1b 3e 80 58 bf 3e
       -0.07647419 0.22228204 0.15195106 0.37372208
000280 bc 87 d3 3c e7 b5 23 3e dd 28 a1 bd 03 df 89 bd
       0.02582156 0.15987359 -0.07869122 -0.06731989
000290 7a 3e fe 3d cc 78 85 be 19 b4 d5 3d 8f 83 94 3e
       0.1241426 -0.26068723 0.104347415 0.2900662
0002a0 a9 fc 27 3e 42 09 7c 3e f0 4b ad 3c fc 70 f6 bd
       0.16404976 0.24612907 0.021154374 -0.12033269
0002b0 a6 cc 10 be 3f 58 dc 3e 53 32 6a 3e 57 4a b8 bd
       -0.14140567 0.43036076 0.2287076 -0.08998554
0002c0 6d e6 10 3e 25 76 46 be ea 56 00 bc 17 56 c9 3d
       0.141504 -0.19381006 -0.007833222 0.098308735
0002d0 5a 7a 08 be 60 fc 16 be 2e c2 c4 3d 7c 63 1b be
       -0.13327923 -0.14744711 0.09607349 -0.15174669
0002e0 e7 e1 af be bb 27 b8 bd 35 e8 d2 3d 2e c8 96 3d
       -0.34352037 -0.08991953 0.10298196 0.073624
0002f0 ca 40 b4 3e 80 9e 22 bc 23 d3 96 be ab c9 e2 3c
       0.3520568 -0.009925485 -0.2945796 0.027684053
000300 60 b9 5f 3e 3d 75 29 bd 94 08 ea 3d b3 e0 9e be
       0.21848059 -0.041371573 0.114274174 -0.31030807
000310 42 d4 d1 3d b6 0a 04 be c5 41 e4 be 43 df 94 3e
       0.10245563 -0.12894711 -0.44581428 0.29076585
000320 36 f3 ec 3d bf d5 7f be e7 90 50 3d c4 e6 09 3e
       0.11569826 -0.24983881 0.05091944 0.13466936
000330 74 5d f1 bd 7a 1f 0b 3e 5d 26 99 3e 11 8d 1b be
       -0.11785403 0.13586226 0.2991208 -0.15190531
000340 e5 bc 8f be 8a a4 5c be 83 5a 89 be 87 e7 8d 3e
       -0.28073803 -0.21547142 -0.26826867 0.27715704
000350 e6 e6 ef 3c 83 8a a8 bd 1b 56 7c be 6c d6 39 bd
       0.029284906 -0.08229544 -0.24642222 -0.045370504
000360 35 93 ad 3e 3a df 14 be d7 5b 1e 3e 63 e7 93 be
       0.33901373 -0.14538279 0.15464722 -0.28887472
000370 dc fd ff bd 4d 06 d1 be d9 eb c7 bd 22 c5 f6 be
       -0.12499592 -0.4082512 -0.09761781 -0.48197275
000380 58 c1 b9 bd 76 b7 98 be f4 e2 e0 3b 91 d1 98 be
       -0.090700805 -0.2982747 0.0068629924 -0.29847386
000390 ab 74 a8 3d 9d f4 a5 3d ee 33 3b bb 3f c3 26 be
       0.08225378 0.08103297 -0.0028564888 -0.16285418
0003a0 15 c9 98 be a8 76 56 3b e5 a5 7a bd a6 e5 75 3e
       -0.29840913 0.0032724533 -0.061193366 0.24013385
0003b0 9c a7 ec bd d2 0e b5 be a1 d0 f6 bd af ac 4e bd
       -0.115554065 -0.3536287 -0.120515116 -0.050457653
0003c0 6f 45 c2 bd 98 e7 86 bc 7d f0 6b 3e 74 14 d8 3d
       -0.094859 -0.016467854 0.23040958 0.10550776
0003d0 1b cb ed bc bf 12 ca 3e a5 21 95 3e 33 d9 86 bd
       -0.029027512 0.39467427 0.2912723 -0.06584396
0003e0 e9 8c a9 be ae 55 af 3e 3f 3e c7 3e ae 9c d8 bd
       -0.33115318 0.34245056 0.38914678 -0.10576759
0003f0 a7 3c b5 3e 85 4a 8b bd 59 dd 80 3e d4 6c 9b bd
       0.35397837 -0.06801323 0.25168875 -0.07589117

stu.hidden.1.rn_1.weight f4 [8]
000000 01 33 60 3f 9c 9b 11 3f 21 04 42 3f d6 24 26 3f
       0.87577826 0.56878066 0.7578755 0.6489996
000010 f0 fa 15 3f d4 ca 01 3f 94 ee 49 3f 76 ea 09 3f
       0.58586025 0.50700116 0.78879666 0.53873384
