checkpoints/sssm-Walker2D-v1-model_step-1400-2024-11-18-15-48-05.pt (torch, 229970 bytes, 18 tensors)

emb.weight f4 [24, 24]
0	0xbe9d0c49	-0.30673435
1	0x3d5b4030	0.05352801
2	0xbdfbd403	-0.122962974
3	0x3d433689	0.04765943
4	0xbc60b718	-0.013715528
5	0x3e1b4ead	0.15166731
6	0xbecccf15	-0.4000174
7	0xbd3586b2	-0.04431791
8	0xbd856ffc	-0.065155
9	0xbe268515	-0.16261704
10	0xbe9359d9	-0.28779486
11	0x3e5156e1	0.20443298
12	0x3d0c88bc	0.034310088
13	0x3dc22d99	0.09481353
14	0x3e90a574	0.2825123
15	0xbe65fe7b	-0.22460358
16	0x3e1fa3f8	0.15589893
17	0x3d0a3e05	0.033750553
18	0x3c1f9aad	0.009741467
19	0xbe0d8d72	-0.13823488
20	0x3ca3a98a	0.019978303
21	0xbe3e09e0	-0.18558455
22	0xbbea32c6	-0.007147166
23	0xbd937a72	-0.07201089
24	0xbd777940	-0.060418367
25	0x3d06e564	0.032933608
26	0x3e1d3b48	0.15354645
27	0x3da275d0	0.07932627
28	0xbd3704c8	-0.044682294
29	0xbe6ad0d4	-0.22931224
30	0xbda3b00b	-0.07992562
31	0xbe4983d9	-0.19679202
32	0x3daada00	0.083423615
33	0x3d2b47d8	0.041816562
34	0xbe9ef857	-0.31048843
35	0xbdc4067b	-0.095715486
36	0xbe4fb47b	-0.20283692
37	0x3d10c948	0.035348207
38	0x3e1e1137	0.15436254
39	0xbe1fa9d6	-0.15592131
40	0xbd884ebd	-0.06655643
41	0xbdd44403	-0.10364535
42	0x3e3ccbc5	0.18437107
43	0x3d93dc24	0.07219723
44	0x3e0939cf	0.13400958
45	0xbd788018	-0.060669035
46	0x3da52b4f	0.08064901
47	0x3c6da93c	0.014505681
48	0x3bb8156e	0.005617789
49	0xbdf3292d	-0.11873088
50	0x3e3556d2	0.177089
51	0x3e99ddab	0.30051932
52	0xbe4f6d0c	-0.20256442
53	0x3e933b30	0.28756094
54	0xbe178e62	-0.14800408
55	0xbebaef92	-0.36510903
56	0xbd5bcf5a	-0.053664543
57	0x3b015e19	0.0019739924
58	0x3f6275d7	0.8846106
59	0xbd51c57c	-0.051213726
60	0xbc57b3eb	-0.013165454
61	0x3e13bae5	0.14426763
62	0xbeca2225	-0.39479175
63	0x3e25ffc3	0.16210847
64	0x3e25c514	0.1618846
65	0xbe7aba9a	-0.24485245
66	0xbe3d4dfe	-0.18486783
67	0x3d97838e	0.07398139
68	0xbd02b678	-0.031912297
69	0x3e1d32e4	0.15351444
70	0xbc8b6866	-0.017017554
71	0xbe47dddb	-0.19518225
72	0x3ca12185	0.019669304
73	0xbe06c1fe	-0.1315994
74	0xbe005d82	-0.1253567
75	0xbc3b8994	-0.011446375
76	0xbe96290d	-0.29328194
77	0xbe6c1570	-0.23055053
78	0xbe8353b6	-0.25649804
79	0xbe8d5483	-0.2760354
80	0xbe1a517b	-0.15070145
81	0xbe8164e5	-0.2527229
82	0xbe064c53	-0.13115053
83	0xbe0fd10d	-0.1404459
84	0xbe4c18b6	-0.19931301
85	0x3d4fb3f8	0.05070874
86	0x3e1caf79	0.15301313
87	0x3e07365d	0.13204332
88	0x3c94656d	0.01811477
89	0x3e5299c0	0.20566463
90	0x3e0973a7	0.13423024
91	0xbe0b9fc8	-0.1363517
92	0x3e41bc33	0.18919449
93	0xbb28338d	-0.0025665492
94	0xbe9351ee	-0.28773445
95	0x3e1b0b98	0.15141141
96	0xbcf89094	-0.030342378
97	0xbeab0843	-0.3340474
98	0x3efd83db	0.4951466
99	0x3dd96483	0.10614874
100	0xbdd8be3e	-0.10583161
101	0xbe8d81dd	-0.2763814
102	0x3e4ef89c	0.20212024
103	0xbdf3801a	-0.11889668
104	0xbe83a258	-0.25709796
105	0x3dd55cbb	0.104180776
106	0x3e4236f4	0.18966275
107	0xbe100811	-0.14065577
108	0x3d1d18e9	0.038353834
109	0xbe287424	-0.16450554
110	0x3e2bc83b	0.167756
111	0xbeacb174	-0.33729136
112	0xbe42c7bd	-0.19021507
113	0xbde4d8af	-0.111741416
114	0x3e71f8c1	0.23630048
115	0xbde9bc37	-0.11412852
116	0xbe0b09f1	-0.13578011
117	0xbe34397c	-0.17600054
118	0xbe1242fc	-0.14283365
119	0xbe67ebd0	-0.22648549
120	0xbd697c3d	-0.05700325
121	0x3e01f481	0.12690927
122	0xbe8b1b67	-0.27169344
123	0xbd8f774a	-0.070051745
124	0x3d49f614	0.049306944
125	0xbc88fc7d	-0.016721958
126	0x3cf5a570	0.029986113
127	0xbbcd0094	-0.0062561724
128	0x3d07d722	0.03316415
129	0x3dac86c4	0.08424142
130	0xbebe66da	-0.37187845
131	0x3dcb404d	0.09924374
132	0xbdd52a10	-0.104084134
133	0x3e20223a	0.15638056
134	0xbe24ee1f	-0.16106461
135	0x3d0c5872	0.034264036
136	0xbda545a3	-0.08069923
137	0xbde9bdf7	-0.11413186
138	0xbdb6a339	-0.08917851
139	0xbd2ce268	-0.042208105
140	0xbd8974d0	-0.06711733
141	0xbd3c117c	-0.045915112
142	0x3e057d99	0.13036193
143	0xbe55b17b	-0.20868485
144	0x3c73c208	0.014877804
145	0x3e558b22	0.20853856
146	0x3b82cadf	0.0039914693
147	0xbd0e37aa	-0.034721054
148	0xbe0e0f1b	-0.1387295
149	0x3dd17328	0.102270424
150	0x3e5fc729	0.21853317
151	0xbe6d34d8	-0.2316469
152	0x3d0ed2a6	0.03486886
153	0x3d8dc35e	0.06922029
154	0x3ddc2d8d	0.107508756
155	0x3c4b5729	0.012410917
156	0x3d06f7c2	0.032951124
157	0xbe26b7b6	-0.16281018
158	0xbebb7d93	-0.36619243
159	0xbe6bcbd2	-0.2302697
160	0xbdff62c7	-0.12470012
161	0x3e5c5225	0.2151571
162	0xbe3f709d	-0.18695302
163	0xbc0913fc	-0.008366581
164	0xbebd8341	-0.370142
165	0xbce378f2	-0.027767632
166	0xbe462f62	-0.19354013
167	0xbe93c073	-0.28857765
168	0xbb314342	-0.0027048145
169	0x3dc4c119	0.09607143
170	0x3e504db8	0.20342147
171	0x3e36ec1f	0.1786351
172	0x3e14d8ed	0.14535876
173	0xbdeef3ed	-0.11667619
174	0xbbef471f	-0.0073021795
175	0xbdd836e9	-0.10557348
176	0xbe641148	-0.22272217
177	0xbdad17d9	-0.08451814
178	0xbc69f737	-0.014280132
179	0xbebfe732	-0.37481076
180	0x3e5b9c82	0.21446422
181	0xbe86df6e	-0.26342338
182	0xbdec6c9f	-0.11544155
183	0xbf0654de	-0.5247325
184	0xbe44f6b9	-0.19234742
185	0x3e0b66f0	0.13613486
186	0x3d31e4ef	0.04343122
187	0x3decda3d	0.11565063
188	0x3d71ea58	0.05906138
189	0x3cc445ad	0.023959005
190	0xbdc4f657	-0.09617298
191	0x39dd0cf8	0.00042162067
192	0x3da0038d	0.07813177
193	0x3dd66ce1	0.10469986
194	0x3d99c920	0.07509065
195	0xbd2fa2d0	-0.04287988
196	0xbe15c228	-0.14624846
197	0xbd7af29e	-0.061266534
198	0x3e54e21f	0.20789383
199	0x3c7aad2e	0.015300078
200	0x3dfa8877	0.1223306
201	0xbe286d9a	-0.1644806
202	0x3ee8cfbb	0.45470986
203	0xbc17860f	-0.009248271
204	0xbd3c7e11	-0.046018664
205	0xbe7c3fc9	-0.24633707
206	0x3d32b068	0.043625265
207	0x3eb3ad3c	0.35093105
208	0xbe47b94b	-0.19504277
209	0xbe1d7be1	-0.15379287
210	0xba0df5d4	-0.00054153544
211	0xbdc05226	-0.093906686
212	0x3e66f31b	0.22553675
213	0xbbefd646	-0.0073192446
214	0x3cac747f	0.021051643
215	0xbd91dc6e	-0.07122122
216	0xbe63fedf	-0.22265194
217	0x3d1ca24d	0.03824072
218	0x3e4b88cf	0.19876407
219	0xbe31637b	-0.17323105
220	0x3e26ddc1	0.1629553
221	0xbe5bba7e	-0.2145786
222	0x3ca45ea4	0.02006466
223	0x3e1afcce	0.151355
224	0xbe141068	-0.14459383
225	0x3db8c728	0.09022361
226	0x3e68eb5a	0.2274603
227	0x3b6032ae	0.0034209895
228	0xbe420d8f	-0.18950485
229	0xbe7948e5	-0.24344213
230	0x3dc95ccd	0.098321535
231	0xbe40055d	-0.18752046
232	0xbec52a77	-0.3850896
233	0xbeaefa93	-0.34175548
234	0xbe80c7c6	-0.25152415
235	0xbe0713db	-0.13191168
236	0xbe36e3f3	-0.17860393
237	0xbddff9a1	-0.10936285
238	0xbe7d3e66	-0.24730834
239	0xbd5e3e89	-0.054258857
240	0xbe91bd13	-0.28464565
241	0x3e47a3bd	0.19496055
242	0x3da4fd04	0.080560714
243	0x3ebb0f03	0.3653489
244	0x3e9580bf	0.29199788
245	0xbcaf5de3	-0.021407073
246	0x3e634ea8	0.22197974
247	0x3de3699b	0.11104127
248	0x3e32e79d	0.17471166
249	0xbe890b4e	-0.26766437
250	0x3ee812ef	0.45326945
251	0xbe8a18bd	-0.26972
252	0x3ad67df8	0.0016364446
253	0xbe9b204a	-0.30298072
254	0xbe010338	-0.12598884
255	0x3d03d2be	0.0321834

stu.hidden.0.rn_1.weight f4 [24]
0	0x3ec90234	0.39259493
1	0x3f00ddd2	0.5033847
2	0x3edd9158	0.4327495
3	0x3ef54d04	0.4791032
4	0x3ed01913	0.4064413
5	0x3ea674ac	0.3251089
6	0x3f272578	0.6529155
7	0x3efbb357	0.49160263
8	0x3eb7b79e	0.35882276
9	0x3f0c48d9	0.54798657
10	0x3e9be881	0.30450824
11	0x3e2264c9	0.15858759
12	0x3f1ede92	0.62058365
13	0x3f01be7a	0.5068127
14	0x3eae96d9	0.34099463
15	0x3eaca933	0.3372284
16	0x3ef2542e	0.4732985
17	0x3eed1ddd	0.46311846
18	0x3eb18a5e	0.34675878
19	0x3f0a0e4d	0.5392807
20	0x3ebb4a7f	0.36580274
21	0x3cf015dc	0.029307298
22	0x3f3a9e42	0.7289773
23	0x3ee2c1d5	0.44288507

stu.hidden.0.stu.M_u f4 [24, 3, 24]
0	0x3d2ad47a	0.04170654
1	0xbdaaec62	-0.08345868
2	0xbce64d3d	-0.028113002
3	0xbdbe2c02	-0.092857376
4	0xbea21079	-0.31653193
5	0x3e01fc36	0.12693867
6	0x3e46be95	0.19408639
7	0x3e389bff	0.18028258
8	0x3eb6e071	0.3571811
9	0x3eee6cc0	0.46567345
10	0x3f0e3787	0.5555348
11	0x3ebea91b	0.37238392
12	0xbe29768a	-0.16549125
13	0x3e185b2a	0.14878526
14	0xbdaeac79	-0.0852899
15	0x3d099332	0.033587642
16	0x3e8252ee	0.25453895
17	0xbd8385f1	-0.06422032
18	0xbe729cd9	-0.23692645
19	0xbeb1cbcf	-0.34725806
20	0xbedff57a	-0.4374197
21	0x3e1d1687	0.15340625
22	0xbe973a18	-0.2953651
23	0xbe60ff5b	-0.2197241
24	0x3dfd8967	0.12379723
25	0xbeac823b	-0.33693108
26	0x3d7b68a6	0.061379097
27	0xbe810707	-0.25200674
28	0xbe9574ed	-0.2919077
29	0x3c58ed1b	0.013240124
30	0x3eafd45a	0.343417
31	0x3e7d3f5f	0.24731205
32	0x3ddc9240	0.107700825
33	0x3e48c7b1	0.19607426
34	0x3da687ae	0.081313476
35	0x3d0efe4f	0.034910496
36	0x3e935c87	0.2878153
37	0xbdecd622	-0.1156428
38	0xbe2428e3	-0.16031222
39	0xbe39b5d3	-0.18135767
40	0xbddacb12	-0.10683264
41	0x3e241c5a	0.1602644
42	0xbeaf608f	-0.34253356
43	0xbe0378f5	-0.1283911
44	0xbe069d8b	-0.13146035
45	0xbd6c8ef5	-0.057753522
46	0xbe253275	-0.16132529
47	0xbe45d954	-0.19321185
48	0x3cc3211e	0.023819502
49	0xbe1c5d70	-0.15270019
50	0xbe6a88dd	-0.22903772
51	0xbe81d3d4	-0.25356925
52	0xbdb66061	-0.089051016
53	0xbe3adbc4	-0.18247896
54	0x3dae1a57	0.08501118
55	0x3e833188	0.25623727
56	0xbe633bfa	-0.22190848
57	0x3e252f17	0.16131245
58	0xbe07dccc	-0.13267821
59	0xbe45f85c	-0.19333023
60	0x3d136097	0.035980787
61	0xbd209362	-0.039203055
62	0xbe295580	-0.16536522
63	0x3eb2b627	0.34904596
64	0x3d17c20b	0.03705029
65	0x3e6f53c5	0.233718
66	0x3df5e6cb	0.12006911
67	0x3d724deb	0.05915634
68	0x3e07b610	0.13253045
69	0x3c234923	0.009966168
70	0x3daf7d00	0.08568764
71	0x3d4ffeef	0.050780233
72	0x3c88118e	0.016609933
73	0xbee65e19	-0.44993666
74	0xbce8caad	-0.028416956
75	0xbede6b75	-0.43441358
76	0xbdadf288	-0.08493525
77	0x3d575fec	0.052581713
78	0x3dd76e38	0.105190694
79	0xbcb95da2	-0.022627655
80	0x3c141127	0.009037293
81	0xbdd74952	-0.105120316
82	0xbe88f58d	-0.2674984
83	0xbdc0bf8d	-0.094115354
84	0x3c407fc1	0.011749209
85	0x3df0b6fc	0.117536515
86	0xbe621cf5	-0.22081359
87	0x3e3df162	0.18549111
88	0xbd8ac215	-0.067752995
89	0x3dc01146	0.09378295
90	0x3d6b6781	0.057471756
91	0xbdc13891	-0.09434617
92	0xbc015e8f	-0.00789608
93	0xbe46a7b2	-0.19399908
94	0xbde7e87f	-0.11323642
95	0xbe9cb623	-0.3060771
96	0x3dcfd626	0.101482674
97	0xbe9514b2	-0.29117352
98	0xbac3920c	-0.0014920845
99	0x3ccbee7c	0.024893992
100	0x3cb4c737	0.02206765
101	0x3d058944	0.03260161
102	0xbe41b128	-0.18915236
103	0x3e5caa08	0.21549237
104	0xbcc61f29	-0.02418478
105	0xbe6beb01	-0.23038866
106	0x3e0bccf7	0.13652407
107	0x3e451748	0.19247162
108	0x3e5faa0d	0.21842213
109	0x3e2574a4	0.16157776
110	0xbe808bcd	-0.2510666
111	0xbdb44751	-0.08802665
112	0x3e4e739b	0.20161287
113	0xbd406250	-0.046968758
114	0xbd5232a4	-0.051317826
115	0x3e8ba877	0.27276966
116	0x3e80a253	0.25123844
117	0x3e1b7e97	0.15185009
118	0x3cc900a7	0.024536444
119	0xbe800e04	-0.25010693
120	0x3d915865	0.07096938
121	0xbe93db93	-0.2887846
122	0xbe733a7e	-0.23752782
123	0xbe5c7327	-0.21528302
124	0x3e977d19	0.2958763
125	0x3d3a4464	0.04547538
126	0xbca097d6	-0.019603651
127	0x3de98b8c	0.114035696
128	0x3eb69511	0.35660604
129	0x3bfb7850	0.0076742545
130	0x3e2cf971	0.1689203
131	0x3e686a2a	0.22696748
132	0x3da07b94	0.07836071
133	0x3df00095	0.11718861
134	0xbe10f48c	-0.14155787
135	0x3e0b90d1	0.13629462
136	0x3c0e0eed	0.008670551
137	0x3ba6fba4	0.005095916
138	0x3dbe8330	0.09302366
139	0x3cd412d6	0.025887888
140	0xbcc659a2	-0.024212662
141	0x3e09b49e	0.13447806
142	0x3e28aa23	0.16471152
143	0xbe3771c6	-0.17914495
144	0x3c7f1c25	0.015570675
145	0x3e99097e	0.29890054
146	0xbeeaa3b0	-0.4582801
147	0x3e7c6762	0.24648812
148	0x3e1b8f70	0.15191436
149	0xbea42491	-0.32059148
150	0xbcf84cf6	-0.030310135
151	0x3e6a6fb5	0.22894175
152	0x3d51860f	0.05115324
153	0xbe45c3b6	-0.19312939
154	0x3ca9b306	0.020715248
155	0x3d12187b	0.035667878
156	0x3e8b0b4d	0.2715706
157	0x3d0bf5cf	0.03416997
158	0x3e121825	0.14267023
159	0x3e875fd8	0.2644031
160	0xbe0385d6	-0.12844023
161	0xbdb9f3c6	-0.09079699
162	0xbcd60da3	-0.02612955
163	0x3e1c43e5	0.15260275
164	0x3e829e31	0.25511315
165	0xbdd0197d	-0.101611115
166	0x3c901914	0.017590083
167	0x3df2b1aa	0.11850293
168	0x3dfdb390	0.123877645
169	0x3d9a254f	0.07526647
170	0xbdde7740	-0.10862589
171	0x3e0b0677	0.13576685
172	0x3e5ce0fe	0.21570203
173	0x3da647a6	0.081191346
174	0x3d549c06	0.051906608
175	0x3d876b94	0.06612316
176	0x3d629473	0.055317353
177	0xbe872c97	-0.26401207
178	0xbcc3eea9	-0.023917513
179	0x3eb8990b	0.36054263
180	0xbe9d44d2	-0.30716568
181	0x3e797184	0.24359709
182	0x3e309ac8	0.17246544
183	0x3e9e1420	0.3087473
184	0x3dc301c3	0.095218204
185	0xbd34300b	-0.04399113
186	0x3e0a0443	0.13478188
187	0x3cb6e239	0.022324668
188	0x3e57dd04	0.21080405
189	0xbee9ef19	-0.4569023
190	0xbc413ccf	-0.011794283
191	0x3d6b0378	0.057376355
192	0xbe9a7670	-0.30168486
193	0xbcf6f7dc	-0.030147485
194	0xbeb95e05	-0.36204544
195	0xbcc6dd90	-0.024275571
196	0x3e87c249	0.26515415
197	0xbde7c64c	-0.11317119
198	0x3e6ffecc	0.23437041
199	0x3e496bcc	0.19670027
200	0x3e355b1b	0.17710535
201	0x3f118c9f	0.56855196
202	0x3c263364	0.010144088
203	0x3e802f9b	0.2503632
204	0x3ccd893d	0.025089854
205	0x3c60c819	0.013719582
206	0x3ef2e50d	0.47440377
207	0x3e8c75c8	0.2743361
208	0x3e2dbdf5	0.16966994
209	0xb904e428	-0.00012673496
210	0xbeaa7371	-0.332912
211	0xbe17d0c5	-0.14825733
212	0x3dd5ea52	0.10445084
213	0xbea5462f	-0.32280108
214	0x3e28476c	0.16433495
215	0xbe87b62d	-0.26506177
216	0x3da08c12	0.07839216
217	0xbe4cd2e0	-0.20002317
218	0xbe204a88	-0.15653431
219	0x3e3fb238	0.18720329
220	0xbe8f3dc6	-0.27976817
221	0x3e18afff	0.14910887
222	0x3e4ef399	0.20210113
223	0x3e89b281	0.26894
224	0x3d664a61	0.056223277
225	0x3e3ad304	0.18244559
226	0x3d909b05	0.07060818
227	0x3e8dada6	0.27671546
228	0x3e888dcc	0.26670682
229	0xbe8a0833	-0.2695938
230	0xbde3bbd1	-0.111198075
231	0xbe8bef61	-0.2733107
232	0x3e56fac4	0.20994097
233	0x3da8dc4b	0.082451425
234	0xbe4a74c9	-0.19771113
235	0x3e4bf92d	0.19919272
236	0xbe74bc39	-0.23899926
237	0x3ca54130	0.020172685
238	0x3e2c0776	0.16799721
239	0x3e5fe3ef	0.21864294
240	0xbe289f0d	-0.16466923
241	0xbe93c14a	-0.28858405
242	0xbda0e336	-0.07855837
243	0xbe199247	-0.14997207
244	0xbda3e0b7	-0.08001845
245	0x3df19c47	0.11797386
246	0x3e898ad2	0.26863724
247	0x3deae158	0.11468762
248	0x3ab96e53	0.0014147259
249	0x3cac5825	0.021038124
250	0x3e809be4	0.25118935
251	0xbdcec488	-0.10096079
252	0xbb9997e0	-0.0046872944
253	0xbd930b62	-0.071799055
254	0xbed1e9f0	-0.40998793
255	0xbe66b597	-0.22530209

stu.hidden.0.stu.M_phi_plus f4 [24, 16, 24]
0	0x3e0dcd03	0.13847737
1	0x3ebc3c02	0.36764532
2	0xbde5c1fc	-0.1121864
3	0xbe0a2c2b	-0.13493411
4	0x3e4de512	0.20106915
5	0xbe6ac336	-0.2292603
6	0xbd01fc27	-0.03173461
7	0x3d02e639	0.03195784
8	0xbe0a525d	-0.13507982
9	0xbed3921b	-0.41322407
10	0xbef9b8ea	-0.4877389
11	0x3dfc12b1	0.123082526
12	0x3ee2c53c	0.44291103
13	0xbead8858	-0.33893085
14	0x3e77cce5	0.24199255
15	0xbe30851d	-0.17238279
16	0x3ea43030	0.32068014
17	0x3f274db9	0.6535297
18	0xbeacaa99	-0.33723906
19	0xbc4a7cfc	-0.0123589
20	0xbdf889a3	-0.12135627
21	0xbe12e793	-0.14346151
22	0x3e9c3cde	0.30515188
23	0x3f5a7fb6	0.8535112
24	0x3e20c84b	0.15701406
25	0x3f0d75e6	0.55258024
26	0xbd2cdf32	-0.042205043
27	0x3dd5cf5a	0.1043994
28	0x3d03d3cf	0.03218442
29	0xbe92125b	-0.2852963
30	0xbe908aa7	-0.28230783
31	0x3e513328	0.20429671
32	0xbd2c071f	-0.04199898
33	0xbe93fbfd	-0.2890319
34	0xbc88df95	-0.016708175
35	0x3cb1e585	0.021715889
36	0x3f3ce10a	0.7378088
37	0xbf00ae38	-0.50265837
38	0xbd7e0deb	-0.062024992
39	0x3c138a30	0.009005114
40	0x3dcc41c4	0.09973481
41	0x3f06e5a1	0.52694136
42	0x3e11f318	0.14252889
43	0xbe2f25d8	-0.1710428
44	0xbf22505d	-0.63403875
45	0xbf07f5bb	-0.5310933
46	0xbd6d9e8c	-0.05801253
47	0x3ec06416	0.3757636
48	0x3bad56d4	0.0052898917
49	0x3dc0a407	0.09406286
50	0xbeb11f45	-0.3459417
51	0xbeff121a	-0.49818498
52	0x3eaee1ff	0.34156796
53	0xbea2e7af	-0.31817386
54	0x3e3ae118	0.18249929
55	0x3e920fc8	0.28527665
56	0xbd989738	-0.07450718
57	0x3f0f09e5	0.5587447
58	0x3ed36f69	0.41295937
59	0x3dcb63ce	0.099311456
60	0x3d9160c3	0.07098534
61	0xbd5a33ea	-0.053272165
62	0xbf0f1ec7	-0.5590634
63	0x3e85610d	0.26050606
64	0x3e903fbc	0.28173625
65	0x3d272a0b	0.04081158
66	0xbde7275c	-0.11286804
67	0xbc1a69e9	-0.009424665
68	0xbe46bbd6	-0.19407591
69	0x3e5abab0	0.21360278
70	0xbe5ebef6	-0.21752533
71	0x3e657f51	0.22411849
72	0x3da76ec0	0.08175421
73	0x3f0dd8a5	0.554087
74	0xbd073eb5	-0.033018786
75	0x3e1e3b83	0.1545239
76	0xbe18c34a	-0.14918247
77	0xbd1f7561	-0.0389303
78	0xbd82cea1	-0.063870676
79	0x3e1dce6b	0.15410773
80	0x3e145a1d	0.144875
81	0xbee2d525	-0.4430324
82	0x3d23a220	0.039949536
83	0x3e1ea058	0.15490854
84	0x3ea4da43	0.3219777
85	0xbdc2e59d	-0.095164515
86	0x3e379a33	0.17929916
87	0xbe2aa093	-0.16662817
88	0x3e29089b	0.16507189
89	0x3f3199cd	0.69375306
90	0x3e539bc8	0.20664895
91	0x3d2cd12b	0.042191666
92	0xbe236360	-0.15955877
93	0xbdf4f5fb	-0.119609796
94	0x3d8a8ff0	0.06765735
95	0x3ecee8cc	0.40411985
96	0xbc94c254	-0.01815907
97	0xbe3639f0	-0.17795539
98	0x3c6d371f	0.014478474
99	0x3da4ffba	0.080565885
100	0xbeb50e32	-0.35362393
101	0x3e815f23	0.25267896
102	0x3eb2aa0a	0.34895355
103	0xbe00d198	-0.12579954
104	0xbc8fb55e	-0.017542537
105	0x3e3b7b21	0.18308689
106	0xbe098189	-0.1342832
107	0xbf280840	-0.6563759
108	0xbe889834	-0.26678622
109	0x3e73f5a7	0.23824178
110	0x3bdd04ec	0.0067449715
111	0xbe3c2561	-0.18373634
112	0xbf0369e4	-0.5133345
113	0x3e245b8d	0.16050549
114	0xbeac5f6d	-0.33666554
115	0xbe24d788	-0.16097844
116	0x3f3dafb8	0.7409625
117	0xbdf6a842	-0.120438114
118	0x3ede2936	0.43390816
119	0xbec84de4	-0.39121926
120	0xbe599d16	-0.2125133
121	0xbf0d2122	-0.5512868
122	0xbdddb911	-0.10826314
123	0xbcf5c4ee	-0.03000113
124	0xbe457daf	-0.19286226
125	0x3f1e6504	0.6187289
126	0x3e9e8f79	0.30968836
127	0x3c8ee347	0.017442359
128	0xbe906f86	-0.28210086
129	0x3e6d8262	0.23194268
130	0x3c94f340	0.018182397
131	0xbede679e	-0.4343843
132	0xbe2d3a57	-0.16916786
133	0x3e1819be	0.1485357
134	0xbda46ad0	-0.08028185
135	0xbdc15b56	-0.09441249
136	0xbf16b187	-0.58864635
137	0xbeb6442d	-0.3559889
138	0xbe986c25	-0.29770008
139	0xbd7bc8fa	-0.061470963
140	0x3f1b0e81	0.60569006
141	0x3cb642f1	0.022248717
142	0x3f019757	0.5062155
143	0xbece5e4a	-0.40306312
144	0xbdb5f0b5	-0.08883802
145	0xbea4eb52	-0.32210785
146	0x3e707ec6	0.2348586
147	0x3eb6f200	0.35731506
148	0xbc98bae6	-0.018643808
149	0x3d88dccd	0.066827394
150	0x3e495905	0.19662865
151	0xbe213347	-0.15742217
152	0xbec04f6d	-0.37560597
153	0xbd3d5560	-0.046223998
154	0xbe6a651b	-0.22890131
155	0x3d86a052	0.065735474
156	0xbddf11fd	-0.10892103
157	0x3c804237	0.015656574
158	0xbd91077d	-0.070815064
159	0x3e37e79e	0.17959449
160	0xbcaa05a1	-0.020754637
161	0xbe674130	-0.22583461
162	0xbe636576	-0.22206673
163	0x3e0e9bed	0.13926668
164	0x3e3dcd30	0.18535304
165	0x3ddffff3	0.1093749
166	0x3c31a3ad	0.010842246
167	0xbe8a2032	-0.26977688
168	0xbd639d1c	-0.055569753
169	0x3dcc28a7	0.09968691
170	0x3dcbba15	0.09947602
171	0x3df320c1	0.11871482
172	0x3ec6bd63	0.38816366
173	0xbf0df73f	-0.5545539
174	0xbe36976d	-0.17831202
175	0xbeaab006	-0.3333742
176	0xbe659fe3	-0.22424273
177	0x3e0a8541	0.13527395
178	0xbe38d527	-0.18050061
179	0x3e1f490f	0.15555213
180	0xbea8b02d	-0.3294691
181	0xbda2d8ce	-0.079515085
182	0xbeb372d5	-0.35048547
183	0x3e52cd7b	0.20586197
184	0x3ece5e23	0.40306196
185	0xbe840e18	-0.25792003
186	0xbbb14fed	-0.005411139
187	0xbdb579e4	-0.088611394
188	0xbe1e0cc5	-0.15434559
189	0x3d03d4f9	0.03218553
190	0x3e3cab1b	0.18424647
191	0xbcf98b73	-0.030462002
192	0xbd79481a	-0.060859777
193	0x3dd8912f	0.105745666
194	0xbe981abf	-0.29707906
195	0x3e68cc03	0.22734074
196	0x3f60fcc4	0.8788569
197	0xbef47052	-0.47741944
198	0xbe55fb9d	-0.20896764
199	0xbe4f0597	-0.20216976
200	0x3dc5d790	0.09660256
201	0x3de4b369	0.11167032
202	0x3db63897	0.088975124
203	0xbe8054f1	-0.25064805
204	0xbeb073e4	-0.34463418
205	0xbbda8f9f	-0.006669953
206	0x3c88c587	0.01669575
207	0x3ef9cbfa	0.48788434
208	0x3e9e2c44	0.30893147
209	0xbf0ae5b3	-0.54256743
210	0xbe04d52a	-0.1297194
211	0xbc6b315d	-0.014355031
212	0xbef0221a	-0.46901017
213	0xbed324db	-0.41239056
214	0x3d89c683	0.06727316
215	0x3ce55c22	0.027998034
216	0x3c89c13a	0.01681577
217	0xbe03aa8f	-0.12858032
218	0xbd762219	-0.06009111
219	0xba90b682	-0.001104072
220	0x3f1f5dbc	0.622524
221	0x3c97b11e	0.018517073
222	0xbe9654e8	-0.29361653
223	0xbe094056	-0.13403448
224	0x3ded4310	0.11585057
225	0xbe53e1d9	-0.20691623
226	0xbdbb49c9	-0.09144933
227	0xbee442d4	-0.44582236
228	0xbdbff8a5	-0.09373597
229	0x3dd1c9b9	0.10243554
230	0x3eb1d2d7	0.3473117
231	0x3e71b1d8	0.23602998
232	0x3dd1904f	0.10232603
233	0xbe09745d	-0.13423295
234	0xbde5bd92	-0.11217798
235	0x3d8ad6e4	0.067792684
236	0xbe14a2b2	-0.14515188
237	0xbeaf09eb	-0.34187254
238	0x3db9ac8d	0.090661146
239	0xbe164c44	-0.1467753
240	0x3d9ea8ae	0.07747017
241	0xbdba357e	-0.09092234
242	0xbe37b832	-0.17941359
243	0xbe2fc05a	-0.1716322
244	0x3e040157	0.12891136
245	0x3cf28a0c	0.029606842
246	0xbe06ade8	-0.13152277
247	0x3dbfdbe0	0.0936811
248	0xbd301f3a	-0.04299853
249	0x3d928402	0.07154085
250	0xbda03993	-0.078234814
251	0xbe576028	-0.21032774
252	0xbe7c5824	-0.24642998
253	0xbc9459c3	-0.018109208
254	0x3e7c00e8	0.2460972
255	0x3e8e373f	0.27776524

stu.hidden.0.stu.M_phi_minus f4 [24, 16, 24]
0	0x3d3ca31a	0.046053983
1	0xbea07c1f	-0.31344697
2	0xbdf48c79	-0.119408555
3	0x3dfaa7bc	0.12239024
4	0x3f145d83	0.5795519
5	0xbd0711b2	-0.03297586
6	0x3e0789a2	0.13236097
7	0xbea9305e	-0.33044714
8	0x3e9257fe	0.28582758
9	0xbd166e87	-0.0367265
10	0x3e0bf6a9	0.13668312
11	0x3e12dbc1	0.14341642
12	0x3daf3652	0.08555283
13	0x3e955f24	0.2917415
14	0x3e835f73	0.2565876
15	0xbe07d47e	-0.13264653
16	0x3e44d8e3	0.1922336
17	0x3eca0cc7	0.39462873
18	0xbe837045	-0.25671592
19	0x3ecf5a0d	0.4049839
20	0x3e8fa57b	0.2805594
21	0xbe97dece	-0.29662174
22	0x3e521a7f	0.2051792
23	0x3e1489bd	0.14505668
24	0xbce499dc	-0.027905397
25	0x3e3c34c9	0.18379511
26	0xbe442393	-0.19154195
27	0xbe327933	-0.17429046
28	0x3b0561fc	0.0020352593
29	0xbe50b4eb	-0.20381515
30	0x3c35f19e	0.011104969
31	0x3e23e741	0.16006185
32	0x3e3b7061	0.18304588
33	0x3ee32fee	0.44372505
34	0x3e0e0b27	0.13871442
35	0x3dcff5fd	0.101543404
36	0x3ed73135	0.4202973
37	0xbe87ec4f	-0.26547477
38	0x3d6b4e24	0.057447568
39	0xbec6144f	-0.3868737
40	0xbd9f449e	-0.077767596
41	0x3e3fd11b	0.18732111
42	0xbe492a7e	-0.19645116
43	0x3e23c58c	0.15993327
44	0x3e516d50	0.20451856
45	0x3e8e5d5a	0.27805597
46	0x3db9d566	0.09073906
47	0xbe78ed1a	-0.24309197
48	0xbd7921bf	-0.0608232
49	0xbe20ae9c	-0.15691608
50	0x3db81483	0.08988287
51	0xbe459192	-0.19293812
52	0x3d995750	0.07487357
53	0x3dc14b15	0.09438149
54	0x3d6cf9b4	0.057855323
55	0xbd3d51d2	-0.046220608
56	0x3f0d09f8	0.55093336
57	0x3e454322	0.1926389
58	0xbe2d560d	-0.16927357
59	0xbd8b0ab7	-0.06789153
60	0x3ed5ca37	0.4175584
61	0xbde82395	-0.11334912
62	0x3e45db0a	0.19321838
63	0xbeb84bf8	-0.3599546
64	0xbc9b196f	-0.018933026
65	0x3e64ac78	0.22331417
66	0x3c73fd3e	0.014891921
67	0x3d749a43	0.059717428
68	0x3e53e56b	0.20692985
69	0x3d7ed56f	0.062215265
70	0xbe472fbc	-0.19451803
71	0xbe9b7652	-0.3036371
72	0xbe765cec	-0.24058884
73	0x3e2273a1	0.15864421
74	0xbcdabf0f	-0.026702432
75	0xbd2f610d	-0.042817164
76	0x3df834d9	0.12119455
77	0xbe67baa8	-0.22629797
78	0x3ceda146	0.029007565
79	0xbd81a080	-0.06329441
80	0x3ef1c7b7	0.47222683
81	0x3ecb209e	0.39673322
82	0x3e8cc253	0.27492008
83	0x3e1e71c8	0.15473092
84	0xbd3d389a	-0.046196558
85	0xbb5ea262	-0.00339713
86	0x3e95e55e	0.29276556
87	0xbeb8b89e	-0.36078352
88	0x3eade26d	0.33961812
89	0x3e0eb651	0.13936736
90	0xbe4d7c48	-0.20066941
91	0x3e7fbf6d	0.24975367
92	0xbe480218	-0.19532049
93	0x3e2a4e87	0.16631518
94	0x3d07de65	0.033171076
95	0xbe1642df	-0.14673947
96	0x3d945e31	0.07244528
97	0x3d898bb0	0.067160964
98	0x3e0e691b	0.13907282
99	0x3e898b79	0.26864222
100	0xbdc0fc5d	-0.094231345
101	0x3e0e4fdc	0.13897651
102	0xbeb18869	-0.34674385
103	0x3d454279	0.048159096
104	0xbe951e4b	-0.29124674
105	0xbe79e1dd	-0.24402566
106	0x3d8e433c	0.06946418
107	0xbe403fdf	-0.18774365
108	0x3dab4b06	0.08363919
109	0x3e05c236	0.13062367
110	0xbe4e9921	-0.20175602
111	0x3dba5739	0.09098668
112	0x3e23d0f9	0.15997685
113	0xbe7b1f83	-0.2452374
114	0x3e790972	0.2432001
115	0xbe61f994	-0.22067863
116	0x3d124bb2	0.03571672
117	0x3d813a2e	0.06309925
118	0xbe102746	-0.14077482
119	0xbe5316d4	-0.20614177
120	0xbda7d1e6	-0.08194332
121	0xbe8b28e3	-0.27179632
122	0x3d5313b0	0.051532447
123	0xbe323112	-0.17401531
124	0x3d7947c0	0.06085944
125	0x3e171c78	0.14756954
126	0x3ee73a97	0.45161888
127	0x3e15713b	0.14593975
128	0x3e5228d5	0.20523389
129	0x3ce6fd13	0.028196847
130	0xbe5126ed	-0.20425005
131	0x3dd3a1a0	0.10333562
132	0xbe228036	-0.15869221
133	0xbbc12922	-0.005894796
134	0x3d821874	0.0635232
135	0x3dc3e1bf	0.09564542
136	0xbf1e7068	-0.6189027
137	0x3e5692c4	0.20954424
138	0xbe24c3c0	-0.16090298
139	0x3da8d0a3	0.08242919
140	0x3da39d1e	0.07988952
141	0x3d4fa79c	0.050696954
142	0x3d91ccd4	0.07119146
143	0xbd5a8deb	-0.053358
144	0x3e138874	0.14407521
145	0x3e6cdad5	0.23130353
146	0x3d9ea659	0.07746572
147	0xbd3a2cd2	-0.0454529
148	0xbe8d3416	-0.275788
149	0xbdfcff09	-0.123533316
150	0xbe90ae61	-0.2825804
151	0x3dc16189	0.094424315
152	0xbec2b233	-0.3802658
153	0xbd0ed2ff	-0.03486919
154	0xbbedae15	-0.007253418
155	0xbd1e9494	-0.038715914
156	0xbc011c26	-0.007880246
157	0xbd6b75ef	-0.057485517
158	0xbdf05c0a	-0.11736305
159	0x3de34dda	0.110988334
160	0x3edc4863	0.43023977
161	0xbe82d32e	-0.25551742
162	0x3ec2dd86	0.38059634
163	0x3b1c5982	0.0023857062
164	0xbe508f2f	-0.2036712
165	0x3b6d909a	0.003624952
166	0x3cddecf2	0.027090523
167	0x3dfa286b	0.1221474
168	0xbc73cdb9	-0.014880591
169	0x3b5e4ca8	0.0033920202
170	0xbd917f60	-0.07104373
171	0x3daf8c25	0.08571652
172	0x3e964ad9	0.2935398
173	0x3cebd70a	0.028789062
174	0x3d18334d	0.0371583
175	0xbe019d5e	-0.12657687
176	0x3ddb061e	0.10694526
177	0x3c8084d6	0.015688341
178	0xbd6c0e49	-0.05763081
179	0xbdc838a0	-0.09776425
180	0xbd4d8bee	-0.050182275
181	0x3e640cd3	0.22270517
182	0x3e5a4dce	0.21318743
183	0xbd778f46	-0.06043937
184	0xbe61bf0a	-0.22045532
185	0x3e63e7af	0.22256349
186	0xbec8d8c7	-0.39227888
187	0xbb1ac860	-0.0023617968
188	0xbb3aec83	-0.002852232
189	0xbe84fe2a	-0.25975162
190	0x3e1688a9	0.14700569
191	0x3e0944c7	0.13405143
192	0xbe8a563e	-0.27018923
193	0x3d87be0b	0.06628045
194	0x3e569035	0.20953448
195	0xbd54a757	-0.0519174
196	0xbe68a5b4	-0.2271946
197	0xbdb0e844	-0.08638051
198	0xbd409342	-0.047015436
199	0xbddfa736	-0.10920565
200	0xbe0aecd8	-0.13566911
201	0x3c7c5043	0.015399995
202	0x3b899d9e	0.0041996976
203	0xbd8fabee	-0.07015215
204	0x3d8901eb	0.06689819
205	0xbe527e95	-0.205561
206	0xbddec5b6	-0.10877554
207	0xbdc13861	-0.094345815
208	0x3df18a90	0.11794007
209	0x3d9b7872	0.075913325
210	0x3d84b902	0.064806
211	0xbc1cd0e6	-0.00957129
212	0x3df0ca4d	0.11757336
213	0x3e4f2485	0.20228775
214	0xbd478b70	-0.048716962
215	0xbd749ca8	-0.05971971
216	0x3db92ded	0.09041963
217	0xbd3024cf	-0.043003853
218	0xbe7b5767	-0.2454506
219	0xbe6fcbf1	-0.23417641
220	0x3da6fbd1	0.08153499
221	0xbe5f0627	-0.2177969
222	0x3df53182	0.119723335
223	0x3c5b1808	0.013372429
224	0xbd6223b6	-0.055209838
225	0x3e48918f	0.19586776
226	0x3b02d6ae	0.0019964385
227	0xbe919762	-0.28435808
228	0xbe94fc1b	-0.2909859
229	0x3e266d0f	0.1625254
230	0x3c89c997	0.016819758
231	0x3e0c8257	0.13721596
232	0x3d1d93ff	0.03847122
233	0xbe056a9f	-0.13028954
234	0xbdb869b7	-0.090045385
235	0xbcce2ee4	-0.025168844
236	0xbc0d6910	-0.008631006
237	0xbdc1c566	-0.09461479
238	0x3e679f89	0.22619452
239	0xbe2f33c5	-0.17109592
240	0x3b91eafa	0.00445306
241	0x3dc784e6	0.09742145
242	0x3d27bfd6	0.040954433
243	0x3eb2054f	0.34769675
244	0x3cc24251	0.023713263
245	0x3e048154	0.1293996
246	0xbf123ec2	-0.5712701
247	0x3d2842e0	0.041079402
248	0xbcf0f0db	-0.029411724
249	0xbdce8de2	-0.10085656
250	0x3e73fc3f	0.23826693
251	0x3d6acd5e	0.05732476
252	0xbc8d683a	-0.017261613
253	0x3e39d151	0.18146254
254	0xbe1bc5cd	-0.15212174
255	0xbd23ca3a	-0.03998778

stu.hidden.0.rn_2.weight f4 [24]
0	0x3f62f5e1	0.8865643
1	0x3f45d297	0.7727446
2	0x3f017de0	0.50582695
3	0x3eeafe79	0.45897272
4	0x3ed278e2	0.4110785
5	0x3f8b9d4e	1.090738
6	0x3f3b3a19	0.73135525
7	0x3f4ab7fa	0.79186976
8	0x3f04562c	0.5169399
9	0x3f51c481	0.81940466
10	0x3f508493	0.8145229
11	0x3f31372b	0.69224805
12	0x3f6dbf2f	0.9286985
13	0x3f4f90b6	0.81080186
14	0x3e87bfe5	0.2651359
15	0x3f4d8ef7	0.8029627
16	0x3f319701	0.6937104
17	0x3f22e672	0.6363288
18	0x3f483a7c	0.7821424
19	0x3f489643	0.7835428
20	0x3f324cc3	0.6964838
21	0x3ea50603	0.3223115
22	0x3f1edb27	0.6205315
23	0x3f01c744	0.5069468

stu.hidden.0.mlp.swiglu.w.weight f4 [96, 24]
0	0xbd91c137	-0.07116931
1	0x3e490c99	0.19633712
2	0xbe59f66e	-0.21285412
3	0x3e44f64a	0.19234577
4	0xbdeb38db	-0.11485454
5	0x3d11fc6f	0.03564113
6	0x3e554947	0.20828734
7	0xbd105ac6	-0.03524282
8	0xbdfc4765	-0.12318305
9	0x3dc8e4f9	0.09809298
10	0x3ca3d254	0.019997753
11	0x3e0eb3e9	0.13935818
12	0x3c936c4a	0.017995972
13	0x3e04ac31	0.12956311
14	0xbe4507df	-0.19241284
15	0xbdcf255c	-0.101145476
16	0xbc208a1d	-0.009798554
17	0x3e961958	0.2931621
18	0xbe0722c9	-0.13196863
19	0xbe5f358c	-0.2179777
20	0xbd63337c	-0.05546902
21	0xbb9470d5	-0.004530052
22	0xbd5ef228	-0.054430157
23	0x3e71db86	0.23618898
24	0xbe225ca8	-0.15855658
25	0x3d9cf660	0.0766418
26	0x3d4ffdad	0.050779033
27	0xbe788388	-0.24268925
28	0xbcbcd9c1	-0.023053052
29	0xbe2ec5b8	-0.17067611
30	0x3cc0e049	0.023544447
31	0xbec7eea6	-0.39049262
32	0xbdf17598	-0.11790007
33	0xbca0d351	-0.019632014
34	0xbe1d6905	-0.15372093
35	0xbe34b56b	-0.1764733
36	0x3c2ae85e	0.010431377
37	0xbdce0c4b	-0.100609384
38	0xbdd76300	-0.105169296
39	0x3cd38868	0.02582188
40	0x3e194f4c	0.14971656
41	0x3dbff47b	0.09372803
42	0x3ddca21c	0.107731074
43	0xbe2cf47f	-0.16890143
44	0xbe67a75f	-0.22622441
45	0xbc2a8fb7	-0.010410241
46	0x3e147415	0.14497407
47	0x3d17c98b	0.03705744
48	0x3d118cbc	0.035534605
49	0xbe137e9a	-0.14403763
50	0xbd87e3b5	-0.066352285
51	0xbcf4f085	-0.029899845
52	0xbe924faf	-0.2857642
53	0x3da4093d	0.080095746
54	0x3d0845a3	0.033269536
55	0x3c4b7f87	0.012420542
56	0x3e80f15d	0.25184146
57	0xbe873719	-0.26409224
58	0x3dbb0318	0.091314495
59	0x3dcbb11e	0.09945892
60	0x3e1287af	0.14309572
61	0x3e7d4148	0.24731934
62	0x3e840487	0.25784704
63	0xbe9828bd	-0.2971858
64	0xbe2028a5	-0.15640505
65	0x3df4fbb6	0.119620726
66	0x3e63e29f	0.22254418
67	0xbdf69892	-0.12040819
68	0x3dc1803b	0.09448286
69	0xbe608855	-0.21927007
70	0xbd8e22fc	-0.069402665
71	0x3d8b3308	0.06796843
72	0x3e5c2755	0.21499379
73	0x3d531062	0.051529296
74	0xbe8c19d9	-0.2736347
75	0xbd6fc7e6	-0.058540247
76	0xbd302c39	-0.043010924
77	0xbe8bb45d	-0.27286044
78	0xbdb2b54c	-0.08725986
79	0xbf0e7c59	-0.5565849
80	0xbd3459e9	-0.044031058
81	0xbdf5cdc3	-0.120021366
82	0xbf1de570	-0.6167822
83	0x3cb2c6b1	0.02182326
84	0x3dd02633	0.10163536
85	0xbdb4f629	-0.08836014
86	0x3e22b471	0.15889145
87	0x3d446d6a	0.047955908
88	0x3d81dbbd	0.0634074
89	0xbd0a3b51	-0.033747975
90	0xbdf3983a	-0.11894269
91	0x3e301de4	0.17198902
92	0x3eb21d73	0.34788093
93	0x3de971a5	0.11398629
94	0x3ea9d76d	0.3317217
95	0xbd9cdf3a	-0.076597646
96	0xbc4596bd	-0.012059865
97	0x3dbd7ca9	0.09252293
98	0xbe27606f	-0.1634538
99	0x3c2f55f4	0.010701645
100	0xbdb0fbf9	-0.0864181
101	0x3d269504	0.040669456
102	0xbc37eaa5	-0.011225377
103	0x3dc9b93b	0.09849783
104	0xbdd93271	-0.10605324
105	0x3d6e6d47	0.058209684
106	0x3e3182e4	0.17335087
107	0xbd2fdbbe	-0.04293417
108	0xbe185bc0	-0.1487875
109	0x3a8abe4d	0.0010585279
110	0xbd9546f3	-0.07288923
111	0xbdb8eb99	-0.09029312
112	0x3e1e6175	0.15466864
113	0x3e12e9c0	0.14346981
114	0xbd486696	-0.04892596
115	0xbdffbf3c	-0.12487647
116	0xbe29d0d8	-0.16583574
117	0x3e022e6d	0.12713023
118	0x3ddb80b9	0.10717911
119	0xbd6b5db9	-0.057462428
120	0x3e2ed830	0.17074656
121	0xbe7c10b7	-0.24615751
122	0x3e81d938	0.25361037
123	0x3e8b46d5	0.27202478
124	0xbcf41c37	-0.02979861
125	0x3e68e47d	0.22743411
126	0xbe89a8ad	-0.26886502
127	0x3d5b084d	0.053474713
128	0x3e9be5e4	0.3044883
129	0xbd4a394b	-0.049371045
130	0x3e1c4f80	0.15264702
131	0x3e4b71b1	0.19867589
132	0x3e45f8ec	0.19333237
133	0xbe12a1e1	-0.14319564
134	0x3b8c74b7	0.0042863744
135	0xbe018896	-0.1264976
136	0x3e0a7a84	0.13523299
137	0x3d86bd97	0.0657913
138	0x3e3c2f11	0.1837733
139	0xbe721d88	-0.23644078
140	0xbd232700	-0.039832115
141	0x3ea6150a	0.32437927
142	0xbeb0ac61	-0.34506515
143	0xbe8eca89	-0.27888897
144	0x3e83f771	0.2577472
145	0x3e0453f4	0.1292265
146	0xbdfcf25b	-0.12350913
147	0x3e647043	0.2230845
148	0xbe2da16d	-0.1695611
149	0xbe8d031a	-0.2754143
150	0xbcf48c84	-0.02985216
151	0x3e6114fa	0.21980658
152	0xbf3591a3	-0.7092535
153	0x3e77a83c	0.2418527
154	0x3eca4ca7	0.39511606
155	0x3e9131da	0.28358346
156	0x3e7a26a3	0.24428801
157	0xbe38b6b5	-0.18038447
158	0xbe39b980	-0.18137169
159	0xbe90b0fb	-0.28260025
160	0xbd54d8cc	-0.051964566
161	0x3e0af4f6	0.13570008
162	0xbd386e5d	-0.045027126
163	0xbe43c761	-0.19119026
164	0xbd1426ca	-0.036169805
165	0x3dc6e81c	0.0971224
166	0xbda9783c	-0.08274886
167	0xbe75eb91	-0.24015643
168	0x3e6dc717	0.23220478
169	0x3dff5da3	0.12469032
170	0xbd29ed47	-0.04148605
171	0x3c0b1761	0.008489461
172	0xbe12d0bc	-0.14337438
173	0xbe1b1ea3	-0.15148406
174	0xbd378c83	-0.044811737
175	0x3dc7e3f0	0.097602725
176	0xbc714fbc	-0.014728483
177	0xbe08c9b3	-0.13358192
178	0xbd3995c0	-0.04530883
179	0x3e0877e6	0.13326988
180	0x3df3ebac	0.11910185
181	0x3e20595b	0.15659086
182	0xbe276128	-0.16345656
183	0x3ddd3459	0.10801
184	0x3e81e09b	0.25366673
185	0x3d119f53	0.035552334
186	0x3da8cf0b	0.08242615
187	0xbea8279f	-0.32842728
188	0x3e1140ce	0.14184877
189	0x3e02a005	0.12756355
190	0xbc16af99	-0.009197139
191	0xbe392d4e	-0.18083689
192	0x3e24dc1a	0.16099587
193	0x3ddbd638	0.10734218
194	0x3e3db794	0.18527061
195	0x3dae6ec8	0.085172236
196	0x3e5da7fd	0.21646114
197	0xbde69b9a	-0.112601474
198	0x3bcba91e	0.0062152287
199	0xbe753f74	-0.23949987
200	0x3df2eaf2	0.118612185
201	0xbd9d89fa	-0.076923326
202	0xbe152621	-0.14565326
203	0xbd4fd3f3	-0.05073924
204	0xbdbbb435	-0.09165231
205	0x3df29f71	0.11846817
206	0xbd6238ce	-0.055229954
207	0x3e83bf2b	0.25731787
208	0xbc3b3079	-0.011425131
209	0xbbb914b9	-0.0056482223
210	0x3ebd73e9	0.37002495
211	0xbe40853a	-0.18800822
212	0x3e8ce43e	0.27517885
213	0x3da9dd9e	0.08294223
214	0xbe8fc627	-0.28080866
215	0xbe7b9ca9	-0.2457148
216	0xbd4971bd	-0.049180735
217	0x3e46425e	0.19361255
218	0xbdb2090b	-0.08693131
219	0x3e1432f5	0.14472564
220	0xbde451b6	-0.111483976
221	0xbd7bc6b6	-0.061468802
222	0xbe21a1d2	-0.15784386
223	0xbe3c54c5	-0.18391712
224	0xbd383d35	-0.044980247
225	0x3e8d1669	0.2755616
226	0xbe21fcc5	-0.1581908
227	0xbd07deca	-0.033171453
228	0xbe49a3c1	-0.19691373
229	0xbe5eeb1e	-0.21769378
230	0xbe043d81	-0.12914087
231	0x3de95846	0.1139379
232	0x3e4d3224	0.20038658
233	0x3e2502e7	0.16114388
234	0xbeb7cf2b	-0.35900244
235	0x3d81be1b	0.06335088
236	0x3c007273	0.007839787
237	0x3e9fa7f0	0.31182814
238	0x3e0adb85	0.13560303
239	0xbd7552f0	-0.05989355
240	0xbe6cddec	-0.23131531
241	0x3e008778	0.12551677
242	0xbc8a2ad1	-0.01686612
243	0x3d317fdc	0.043334827
244	0xbef13886	-0.47113436
245	0xbe510c16	-0.20414767
246	0x3ecc76bf	0.39934346
247	0x3de6cf28	0.11269981
248	0xbe8a63c7	-0.2702925
249	0x3e9e387e	0.30902475
250	0xbe251146	-0.1611987
251	0xbd768b4e	-0.060191445
252	0xbd0d73b4	-0.03453417
253	0x3c506914	0.012720365
254	0xbd92c156	-0.07165782
255	0x3d62da36	0.055383883

stu.hidden.0.mlp.swiglu.v.weight f4 [96, 24]
0	0x3ea22c78	0.31674552
1	0xbdcd1f04	-0.100156814
2	0xbc0f0756	-0.008729776
3	0xbe5ca176	-0.21545967
4	0xbd61e6ec	-0.055151865
5	0xbdb7b811	-0.08970655
6	0x3d33e325	0.043917794
7	0x3e049ff9	0.1295165
8	0x3eb5556f	0.35416743
9	0x3d80decd	0.06292496
10	0x3e60e5f3	0.21962719
11	0x3deaaf13	0.11459174
12	0x3e0fa217	0.14026676
13	0xbdc46837	-0.0959019
14	0x3d44339e	0.04790079
15	0xbdb9f23d	-0.090794064
16	0xbe32da18	-0.17466009
17	0xbd342789	-0.043983016
18	0x3cc55daa	0.024092514
19	0x3dfbcbce	0.12294732
20	0xbda4fb39	-0.080557294
21	0x3d7f2bf0	0.06229776
22	0x3e9aa5ae	0.3020453
23	0xbe313116	-0.17303881
24	0xbd2487b1	-0.040168468
25	0x3c37a781	0.01120937
26	0xbdf083ed	-0.11743913
27	0x3ba18157	0.0049287486
28	0xbdd299c5	-0.102832355
29	0xbe7ce2da	-0.24695912
30	0xbba36c28	-0.0049872585
31	0x3df49747	0.11942916
32	0xbcabb764	-0.02096147
33	0x3cd2538a	0.0256746
34	0xbc4e86cf	-0.012605383
35	0xbd7d8dce	-0.061902814
36	0x3d08a65b	0.033361774
37	0x3e3ddb31	0.18540646
38	0x3e293446	0.16523847
39	0xbdec663a	-0.11542936
40	0xbd628bdf	-0.055309173
41	0x3af00ee9	0.001831499
42	0xbc4127e7	-0.011789299
43	0xbb7430d4	-0.003726055
44	0xbde61557	-0.11234539
45	0xbe90a4db	-0.28250775
46	0x3d232f5b	0.039840084
47	0x3c3dc0b0	0.011581585
48	0xbe1d58b2	-0.15365866
49	0xbec1d947	-0.37861082
50	0x3d1f9bc2	0.0389669
51	0x3e3dc20e	0.18531057
52	0xbd860248	-0.06543404
53	0x3d0aebea	0.03391639
54	0x3de1c94b	0.11024722
55	0xbde0ca3d	-0.10976074
56	0xbd870332	-0.06592406
57	0x3e37c3e2	0.17945817
58	0xbde729f7	-0.11287301
59	0xbd4308e9	-0.04761592
60	0xbdccf74f	-0.10008108
61	0x3e216c5d	0.15763994
62	0x3dd89241	0.10574771
63	0x3d2f8128	0.042847782
64	0xbdaf8082	-0.08569433
65	0x3dc54582	0.09632398
66	0xbe334d05	-0.1750985
67	0x3e3805db	0.17970984
68	0x3c7283e2	0.014801951
69	0xbde1d888	-0.11027628
70	0x3e61e996	0.22061762
71	0x3db55eb2	0.08855952
72	0x3d6bbf58	0.057555526
73	0xbe25f17b	-0.16205399
74	0x3ecd045c	0.40042388
75	0xbdfe8381	-0.12427426
76	0x3e760de8	0.24028742
77	0x3d821742	0.06352092
78	0xbd7c890a	-0.061654128
79	0x3dd6db0e	0.10491
80	0x3ec354e8	0.38150716
81	0xbdb760a3	-0.08953979
82	0x3ea3eb93	0.32015666
83	0x3d766915	0.060158808
84	0x3ea964b9	0.33084658
85	0x3d9cfe3a	0.07665677
86	0x3d8bdccf	0.06829225
87	0xbdfd533e	-0.12369393
88	0xbc0b9e00	-0.008521557
89	0xbdb7742a	-0.089577034
90	0x3e568e79	0.20952787
91	0x3d3cb85e	0.046074264
92	0x3ced5ebe	0.02897584
93	0xbcef5f39	-0.02922021
94	0xbe1c270a	-0.15249267
95	0xbe1a00c1	-0.1503935
96	0x3ddd0b82	0.107932106
97	0x3e81785e	0.25287145
98	0x3e5c4eac	0.21514386
99	0x3e85159a	0.25993043
100	0xbd7e662e	-0.062109165
101	0x3e118999	0.14212646
102	0xbd9fcdc0	-0.078029156
103	0x3e049e9a	0.12951127
104	0x3df62dfa	0.12020488
105	0xbdd0642c	-0.10175356
106	0x3d95a3bc	0.073066205
107	0xbc938988	-0.018009916
108	0x3d9bb493	0.07602801
109	0xbe24355e	-0.16035983
110	0xbe0d673a	-0.13808909
111	0xbdc7d3fe	-0.09757231
112	0x3d95c215	0.07312409
113	0x3daf51c9	0.08560521
114	0x3d99fdf0	0.07519138
115	0xbd79fd29	-0.061032448
116	0x3df8a0ae	0.12140022
117	0x3e7cd2fa	0.24689856
118	0xbdfbd511	-0.122964986
119	0xbdb7b7d4	-0.08970609
120	0x3dfa4720	0.12220597
121	0x3bfb4f90	0.0076693967
122	0x3e0c6ba5	0.13712938
123	0xbdf952b1	-0.12173975
124	0x3dfca182	0.12335493
125	0xbd532db7	-0.05155727
126	0xbd18bfae	-0.037292175
127	0x3e07f66c	0.13277596
128	0x3da1ffc5	0.07910112
129	0xbcccf1ab	-0.02501758
130	0x3e88aee0	0.2669592
131	0x3e84a643	0.25908098
132	0x3e67ed1a	0.22649041
133	0xbea6afd3	-0.32556018
134	0xbb8d9d88	-0.0043217577
135	0xbd3d18a5	-0.04616608
136	0x3dff788e	0.12474166
137	0x3e0b3d54	0.13597614
138	0x3d72d112	0.059281416
139	0xbebe847f	-0.37210461
140	0x3db31c4d	0.08745632
141	0x3e285b1c	0.16441005
142	0xbe369134	-0.17828828
143	0xbdd45b49	-0.10368974
144	0xbc3e7e36	-0.011626771
145	0xbe0d3cb6	-0.1379269
146	0x3e51db27	0.20493756
147	0x3e19c4f5	0.1501654
148	0xbd6c4666	-0.057684325
149	0x3e6d0875	0.23147757
150	0xbe240027	-0.16015683
151	0x3dd9a903	0.106279396
152	0x3d3399d1	0.043847863
153	0x3e4f5c6a	0.20250097
154	0x3dc41f15	0.09576241
155	0x3e349ff3	0.17639141
156	0x3e60df82	0.21960261
157	0xbe379acc	-0.17930144
158	0xbe604c00	-0.21903992
159	0xbe62c9d1	-0.221473
160	0x3e286efa	0.16448584
161	0x3dc02dc6	0.093837306
162	0x3e0627eb	0.13101165
163	0xbe962fdf	-0.29333398
164	0xbdd9797b	-0.10618874
165	0x3d4ec054	0.050476387
166	0xbe6180a6	-0.22021732
167	0xbdc7a666	-0.09748535
168	0xbd950291	-0.0727588
169	0x3e37ea6c	0.17960519
170	0xbd2d52aa	-0.042315163
171	0xbb60ca16	-0.003430014
172	0xbc1eee0b	-0.009700309
173	0xbead0c8c	-0.33798635
174	0x3d935c1c	0.07195303
175	0xbe1cdba1	-0.15318157
176	0xbdc1fa49	-0.09471566
177	0xba9b531e	-0.0011850332
178	0xbe449229	-0.1919638
179	0xbd6eff29	-0.05834881
180	0xbe4c0c77	-0.1992663
181	0xbdad8f6a	-0.0847462
182	0x3dd28995	0.10280148
183	0xbd86a08a	-0.06573589
184	0x3d967668	0.07346803
185	0x3df7c83c	0.120987386
186	0xbe0c43e7	-0.13697778
187	0x3e33a0ba	0.17541781
188	0xbdfd9dd5	-0.1238362
189	0x3ddbc5ee	0.107311115
190	0x3b89f677	0.004210289
191	0x3ec5c99d	0.3863038
192	0x3e4e16e4	0.2012592
193	0x3e5a8733	0.21340637
194	0xbbbf286f	-0.0058336775
195	0x3e936381	0.28786853
196	0xbdf0bef4	-0.117551714
197	0x3de7df37	0.11321872
198	0x3e58182b	0.2110297
199	0xbee3b64e	-0.44475025
200	0xbdded86a	-0.108811215
201	0x3e2ea15b	0.1705374
202	0xbe887cc5	-0.26657692
203	0xbe5f57fd	-0.21810909
204	0xbecd6902	-0.40119177
205	0x3e913373	0.28359565
206	0x3dd6f00c	0.10495004
207	0xbcbcb81d	-0.02303701
208	0xbe3458b3	-0.17611961
209	0x3e3fec06	0.1874238
210	0xbdb996df	-0.090619795
211	0x3dfdaeb3	0.12386837
212	0xbe38f48c	-0.18062037
213	0x3e1d15a2	0.15340284
214	0xbe3e28f0	-0.18570304
215	0x3e5b4920	0.21414614
216	0xbd39e213	-0.045381617
217	0xbd43933c	-0.047747836
218	0x3c1aa2e8	0.009438254
219	0x3e5630e3	0.20917086
220	0xbe26b479	-0.16279782
221	0xbd68bd03	-0.05682088
222	0xbe0e5e1b	-0.13903086
223	0xbe6bd048	-0.23028672
224	0xbe503bd7	-0.20335327
225	0x3e54465d	0.20729966
226	0xbd9608d3	-0.07325902
227	0x3cc8297e	0.024433848
228	0xbe3f9393	-0.18708639
229	0x3d52dcd0	0.051480114
230	0x3e4bdfc3	0.19909577
231	0x3ced16cb	0.028941533
232	0x3e2d6183	0.16931729
233	0xbc7d3893	-0.015455383
234	0xbe38e24c	-0.18055075
235	0x3e1a00e3	0.15039401
236	0xbea68923	-0.32526502
237	0x3e7c8aee	0.24662372
238	0x3dd693c0	0.104774
239	0xbc84096c	-0.016117774
240	0xbe845b76	-0.2585103
241	0xbe5e7f07	-0.21728145
242	0x3e26f39f	0.16303872
243	0xbd9c20e8	-0.07623464
244	0x3e6a8128	0.22900832
245	0x3e4a578a	0.19759956
246	0x3dcee9f6	0.10103218
247	0x3dd57778	0.104231775
248	0x3e72fa14	0.2372821
249	0xbd291509	-0.041279826
250	0x3e3c09db	0.18363135
251	0x3e208209	0.15674604
252	0x3dfb5804	0.12272647
253	0xbdbc2ff3	-0.09188833
254	0x3e84e797	0.2595794
255	0xbd387812	-0.045036383

stu.hidden.0.mlp.swiglu.w2.weight f4 [24, 96]
0	0x3dfc3174	0.1231412
1	0xbcb6a2c0	-0.022294402
2	0xbb94bb72	-0.004538947
3	0x3db811bb	0.08987757
4	0x3de96efd	0.113981225
5	0x3e2c6f43	0.16839318
6	0x3e7455c6	0.23860845
7	0xbe22713e	-0.15863511
8	0x3e225938	0.15854347
9	0xbca87ce2	-0.020567361
10	0x3c30b6d9	0.010785782
11	0x3e9607b5	0.29302755
12	0x3d28b490	0.041187823
13	0x3e1f016e	0.15527889
14	0xbe2d0c9d	-0.16899343
15	0xbdcc8ae4	-0.09987429
16	0x3d73f066	0.059555434
17	0xbe39ca72	-0.18143633
18	0x3e141f84	0.14465147
19	0x3e10bbf7	0.14134203
20	0x3dda3d38	0.10656208
21	0x3cc8d62d	0.02451619
22	0xbbdaa815	-0.006672869
23	0xbe923d10	-0.28562212
24	0x3d4da3f1	0.050205175
25	0xbe40e0da	-0.18835774
26	0x3daaa332	0.08331908
27	0xbe0dcff6	-0.13848862
28	0xbe9970b7	-0.29968807
29	0xbbd88777	-0.0066079455
30	0x3dbd36f9	0.09239001
31	0xbcc41e68	-0.02394028
32	0x3d341b75	0.043971498
33	0x3d21bb54	0.03948529
34	0xbe0ea66c	-0.13930672
35	0xbe245f4f	-0.16051982
36	0xbea55ffe	-0.322998
37	0x3d11df05	0.03561308
38	0xbdcbcda7	-0.099513344
39	0x3da23a13	0.07921233
40	0x3e9419f3	0.28926048
41	0xbe87fa8e	-0.26558346
42	0xbea16a3e	-0.3152637
43	0x3dfe23ba	0.12409158
44	0x3e25900d	0.16168232
45	0x3d1a1065	0.03761329
46	0x3c897f90	0.01678446
47	0x3e8ed97a	0.27900296
48	0x3da55ac0	0.0807395
49	0xbdab8e54	-0.08376756
50	0xbe0b08a5	-0.13577516
51	0xbda66fef	-0.081268184
52	0xbe1bfdf9	-0.15233602
53	0xbd3e1013	-0.04640205
54	0x3dd905ff	0.10596847
55	0xbdbffb58	-0.09374112
56	0x3e4582c2	0.19288161
57	0xbd77f93a	-0.060540415
58	0x3efd5d6b	0.49485335
59	0xbdb33422	-0.08750178
60	0x3e49b7ec	0.19699067
61	0x3cf877cc	0.030330561
62	0x3d9e80aa	0.077393845
63	0x3de05e7d	0.10955522
64	0x3e09d278	0.13459194
65	0x3dbafda5	0.0913041
66	0x3d0ccbe2	0.034374125
67	0x3e66f1c4	0.22553164
68	0x3e8aed87	0.27134344
69	0x3d610c75	0.05494352
70	0x3e8a70e3	0.2703925
71	0xbe0d5a22	-0.13803914
72	0xbe059c7c	-0.13047975
73	0x3de40b0f	0.11134922
74	0xbdcb19a8	-0.09917003
75	0xbdeeb96f	-0.116564624
76	0xbccb1164	-0.024788566
77	0xbd1b34fb	-0.037892323
78	0x3c0833f3	0.008313167
79	0x3e1c56f4	0.15267545
80	0xbe39c7a6	-0.18142566
81	0x3d81b89a	0.06334038
82	0xbe1fe750	-0.15615582
83	0xbdadc7f5	-0.084854044
84	0x3cedc795	0.029025832
85	0x3d114fae	0.03547638
86	0x3df8da6c	0.12151036
87	0x3c0bd204	0.008533958
88	0x3c54d943	0.012991252
89	0x3d963213	0.0733377
90	0xbe43340b	-0.19062822
91	0xbe954cf2	-0.29160267
92	0x3cc15160	0.023598373
93	0xbdfb00e9	-0.12256033
94	0xbd563f90	-0.05230671
95	0x3eb564b2	0.35428387
96	0x3ba164f3	0.004925364
97	0x3d0ec6bd	0.0348575
98	0x3d2356e0	0.039877772
99	0x3dd3066a	0.10303958
100	0x3d29b466	0.041431807
101	0xbef3c057	-0.4760768
102	0xbdb9296e	-0.09041105
103	0x3d2be89c	0.04196988
104	0xbe1b30e4	-0.15155369
105	0xbe21b316	-0.15790972
106	0x3ddf42a1	0.1090138
107	0x3e1dfea0	0.15429163
108	0xbdc89ea3	-0.097958826
109	0xbd6381db	-0.05554376
110	0x3c93afba	0.018028129
111	0xbebb916c	-0.36634386
112	0xbe4a22cc	-0.19739836
113	0x3e20f450	0.15718198
114	0x3e3d2c65	0.18473966
115	0xbde161cd	-0.11004982
116	0xbe0cd239	-0.13752069
117	0x3caca80e	0.021076228
118	0xbe092108	-0.13391507
119	0x3d33eb62	0.04392565
120	0x3d2199eb	0.03945343
121	0x3d0a8dd8	0.03382668
122	0xbef4f768	-0.47845006
123	0x3cfa24d5	0.030535141
124	0xbe664660	-0.22487783
125	0xbe264283	-0.1623631
126	0xbd8a36c8	-0.0674873
127	0x3e0a3caa	0.13499704
128	0xbe9951e3	-0.29945287
129	0xbe551f3d	-0.20812698
130	0xbe1eab62	-0.15495065
131	0x3e191f3c	0.14953321
132	0x3eada4e2	0.33914858
133	0x3f18b84e	0.59656227
134	0x3e0056aa	0.1253306
135	0xbd2566fe	-0.040381424
136	0xbd05ebee	-0.032695703
137	0x3d23c1c1	0.0399797
138	0xbe7eb9ea	-0.24875608
139	0x3de0bcf7	0.10973542
140	0xbe38f7a4	-0.18063217
141	0xbd462359	-0.048373554
142	0xbdc172a1	-0.09445692
143	0xbe15cd8f	-0.14629196
144	0x3de68a84	0.112568885
145	0x3e4b06b6	0.19826779
146	0x3d07cacf	0.033152398
147	0x3e1e6b71	0.15470673
148	0x3e8b8ca7	0.27255747
149	0xbd06ae5f	-0.032881137
150	0x3e32e394	0.17469627
151	0xbc9d8823	-0.019229954
152	0x3dd47325	0.103735246
153	0xbd3940e4	-0.0452279
154	0xbbdbe9e8	-0.0067112334
155	0xbd1b2ab6	-0.03788253
156	0xbc8ccc5a	-0.017187286
157	0xbee542e4	-0.44777596
158	0xbd4967bb	-0.04917119
159	0x3e3fef2c	0.1874358
160	0xbe8c6541	-0.27421
161	0xbd8c3206	-0.06845479
162	0x3d532635	0.05155011
163	0x3d5cdb28	0.05391994
164	0xbe5cf960	-0.21579504
165	0x3e41a4a5	0.18910463
166	0x3da7a227	0.08185225
167	0xbd2b88cd	-0.04187851
168	0xbeb3e1f1	-0.35133317
169	0x3e41c847	0.18924056
170	0xbe781e9c	-0.24230427
171	0x3e0a70fb	0.13519661
172	0xbdadbd51	-0.08483375
173	0x3e07e9cb	0.13272779
174	0x3d4a32d9	0.0493649
175	0xbe4ec6b5	-0.20192988
176	0x3e3d17d5	0.18466122
177	0x3c6d7ebc	0.014495548
178	0xba3ff35d	-0.0007322336
179	0x3e9e6efe	0.30944055
180	0x3d10650d	0.03525262
181	0xbe833ca0	-0.2563219
182	0xbe26db3d	-0.1629457
183	0xbde21f58	-0.110411346
184	0x3da21a3a	0.079151586
185	0xbe8e0572	-0.2773853
186	0xb85774b6	-5.136869e-05
187	0x3df0b7f8	0.11753839
188	0x3da89a15	0.08232514
189	0x3d8921d6	0.06695907
190	0x3e14e604	0.14540869
191	0xbea720ac	-0.32642114
192	0xbde57fe3	-0.11206033
193	0xbe27dbcc	-0.1639244
194	0x3eea7e65	0.45799556
195	0xbe3a8cfb	-0.18217842
196	0xbdde4bd9	-0.108543105
197	0xbe53b5f0	-0.20674872
198	0xbe898838	-0.2686174
199	0xbd6e1366	-0.05812397
200	0x3df01910	0.1172353
201	0x3a473cc8	0.00076003047
202	0x3daeea1a	0.08540745
203	0xbe2bffa6	-0.16796741
204	0xbe201f41	-0.15636922
205	0x3ca72a3d	0.020405883
206	0x3ecee421	0.40408424
207	0xbe3c99a4	-0.18417984
208	0x3ea8f891	0.3300214
209	0x3b3a3ffb	0.0028419483
210	0x3e3d47ce	0.18484423
211	0xbc91cfc0	-0.017799258
212	0x3ea8f30c	0.3299793
213	0xbb9a4763	-0.004708217
214	0xbe5d8fb2	-0.21636847
215	0xbc009b52	-0.007849531
216	0xbe786fa2	-0.24261335
217	0x3d8e2bba	0.06941934
218	0xbdb96b3f	-0.09053659
219	0x3e9a2b41	0.30111125
220	0x3eab57d6	0.3346545
221	0xbe4bd178	-0.19904125
222	0xbd18362e	-0.037161045
223	0xbc8a1118	-0.016853854
224	0xbd02a526	-0.03189578
225	0x3d37ef2c	0.044905826
226	0xbc5d5caf	-0.013510867
227	0xbe0dcd5b	-0.13847868
228	0x3e3b747e	0.18306157
229	0xbe7182fb	-0.23585121
230	0xbdc5a781	-0.096510895
231	0x3dfda412	0.123848096
232	0x3d78bd3e	0.06072735
233	0x3d3f767a	0.046743847
234	0x3e61ffe2	0.22070268
235	0x3e8bf978	0.27338767
236	0x3d62df7e	0.05538892
237	0x3eb841bf	0.3598766
238	0x3c8bd544	0.017069466
239	0x3d12d3bf	0.035846468
240	0x3e8d2873	0.27569923
241	0x3db686f7	0.08912461
242	0x3c994c97	0.018713279
243	0xbe1cbd9d	-0.15306707
244	0xbe4ec642	-0.20192817
245	0xbd8b5ceb	-0.06804832
246	0x3d8c7768	0.068587124
247	0xbdaac023	-0.083374284
248	0x3e91a905	0.28449264
249	0xbd0701f5	-0.03296085
250	0xbe833c94	-0.25632155
251	0x3e8413a8	0.25796247
252	0xbdc0d814	-0.09416214
253	0xbc73801c	-0.014862087
254	0xbe30fc77	-0.17283808
255	0xbd965e49	-0.07342202

stu.hidden.1.rn_1.weight f4 [24]
0	0x3f312f45	0.6921275
1	0x3e7944c6	0.24342641
2	0x3ebfcb94	0.37460005
3	0x3ed4ce09	0.41563442
4	0x3e7eb85a	0.24875012
5	0x3f0b1c20	0.5433979
6	0x3f05360a	0.5203558
7	0x3eb5ee2d	0.35533276
8	0x3eb18f23	0.34679517
9	0x3f30b9ac	0.6903331
10	0x3f071eac	0.52781177
11	0x3ee94897	0.45563194
12	0x3f2b4e38	0.6691623
13	0x3ea98f66	0.33117217
14	0x3eb6564a	0.35612708
15	0x3f22b94f	0.6356401
16	0x3e7200dc	0.2363314
17	0x3edb02a1	0.42775443
18	0x3f21df93	0.6323177
19	0x3f4edc74	0.80805135
20	0x3edf0aa4	0.43562806
21	0x3ec40132	0.38282162
22	0x3efa8949	0.48932865
23	0x3f0dc74f	0.55382246
