checkpoints/sssm-Walker2D-v1-model_step-2625-2024-11-18-22-01-56.pt (torch, 34514 bytes, 18 tensors)

emb.weight f4 [8, 24]
0	0xbe85188e	-0.25995296
1	0xbe1b11ec	-0.15143555
2	0xbcc9f62e	-0.02465352
3	0xbe2da403	-0.16957097
4	0xbc6eec31	-0.01458268
5	0x3dee0182	0.11621381
6	0x3e6bc006	0.2302247
7	0x3de2cf49	0.11074693
8	0xbe94f9b3	-0.29096755
9	0x3d952d05	0.072839774
10	0x3e209e7e	0.1568546
11	0xbe932302	-0.28737646
12	0xbc242a06	-0.010019785
13	0xbc61b913	-0.013777035
14	0xbe7fbb2b	-0.24973743
15	0x3d1fb21a	0.03898821
16	0xbe362654	-0.17788059
17	0xbeab17f8	-0.33416724
18	0xbe28beef	-0.16479085
19	0xbe2e4618	-0.17018926
20	0xbe4af54f	-0.1982014
21	0x3b41863b	0.002952947
22	0xbe34406d	-0.17602701
23	0xbe78e606	-0.24306497
24	0xbe88c848	-0.26715302
25	0xbde9ef9b	-0.11422654
26	0x3e82f2e4	0.25575936
27	0x3e171040	0.14752293
28	0xbe87d011	-0.2652593
29	0x3cea5b00	0.028607845
30	0xbdc18a18	-0.094501674
31	0x3db52720	0.08845353
32	0x3dabd8ae	0.08390938
33	0xbe0dc7c8	-0.13845742
34	0x3eededd9	0.46470526
35	0x3e1ee1b1	0.15515782
36	0x3e807d2d	0.25095502
37	0x3dbff8b1	0.09373606
38	0xbe1ace79	-0.15117826
39	0xbd16e7b8	-0.036842078
40	0x3ec16d04	0.37778485
41	0xbdca4632	-0.0987667
42	0xbdffd0e4	-0.124910146
43	0x3c53fbe0	0.01293847
44	0xbe4ab847	-0.19796859
45	0x3d91c7ff	0.07118224
46	0x3e34da5b	0.17661421
47	0xbe43f19d	-0.19135137
48	0x3da472e2	0.08029725
49	0xbe7b0d80	-0.24516869
50	0x3ed7e2f9	0.42165354
51	0x3e2631b7	0.16229902
52	0xbb327731	-0.0027231688
53	0x3e51339a	0.2042984
54	0xbdd7cb1b	-0.10536786
55	0xbe81217e	-0.25220865
56	0xbd5e3a9b	-0.05425511
57	0x3e052375	0.13001807
58	0x3e668454	0.22511417
59	0xbdb5f045	-0.088837184
60	0x3caf5794	0.021404065
61	0x3edfd315	0.4371573
62	0xbe29615e	-0.16541049
63	0x3e1ff2ef	0.15620016
64	0xbd617bd8	-0.055049747
65	0x3e8b8391	0.27248815
66	0x3e88b4e1	0.267005
67	0x3d003c9f	0.031307813
68	0xbe936131	-0.2878509
69	0x3beed8be	0.0072890213
70	0xbe008428	-0.12550414
71	0xbe129233	-0.14313583
72	0x3eb667e6	0.35626143
73	0x3d3ee0dc	0.04660116
74	0x3d716f02	0.058943756
75	0x3dc7deaa	0.09759267
76	0xbefb8da9	-0.49131516
77	0xbee216f3	-0.44158134
78	0xbe3fb474	-0.18721181
79	0xbe9ba38d	-0.30398217
80	0xbea74ab9	-0.32674196
81	0xbbdac022	-0.006675736
82	0x3cf4c216	0.029877704
83	0x3d29b3f9	0.0414314
84	0xbbe56787	-0.007000867
85	0xbe5bf91d	-0.21481748
86	0x3d9543a5	0.07288293
87	0xbe089fa8	-0.13342154
88	0x3eb50328	0.3535397
89	0x3e2c36eb	0.16817825
90	0xbd08c534	-0.033391193
91	0xbe21cb11	-0.1580012
92	0x3cf162f0	0.029466122
93	0x3c0616cc	0.008184146
94	0xbdb6e470	-0.0893029
95	0xbe45d2df	-0.19318722
96	0xbed823ca	-0.42214805
97	0x3d8ae211	0.067814
98	0xbedf11d5	-0.43568292
99	0x3dbcbddc	0.092159
100	0xbd3e9158	-0.04652533
101	0x3e95048d	0.29105034
102	0xbdd5020b	-0.1040078
103	0xbedca08a	-0.43091232
104	0xbe65eed7	-0.22454391
105	0xbe158998	-0.14603269
106	0xbe005bfa	-0.12535086
107	0x3cb9d0dc	0.0226826
108	0xbdc76dce	-0.097377405
109	0xbc03f433	-0.008053827
110	0x3e2ac641	0.1667719
111	0x3dc4c6a1	0.09608198
112	0x3d3e2c22	0.046428807
113	0x3ed9d098	0.42541957
114	0x3e18f81d	0.14938398
115	0x3c9a1889	0.018810527
116	0x3c397f06	0.011321789
117	0xbc72eed0	-0.014827445
118	0xbe3eb07b	-0.1862201
119	0xbe13828a	-0.14405265
120	0x3ea536b6	0.32268304
121	0xbe7cb85a	-0.246797
122	0x3d32e284	0.043673053
123	0x3e25b460	0.16182089
124	0x3d9032f6	0.0704097
125	0x3e0f198b	0.13974588
126	0xbce6e643	-0.02818597
127	0x3e5ecfd1	0.21758963
128	0x3ec9eb44	0.39437306
129	0x3dcee524	0.10102299
130	0xbe5fcf6a	-0.21856466
131	0x3cfc72f0	0.030816525
132	0xbd7a87d7	-0.061164703
133	0x3c870f01	0.016486647
134	0x3cd8e03f	0.026474116
135	0xbd3ba405	-0.045810718
136	0xbdd31993	-0.10307612
137	0x3eb902a1	0.36134818
138	0x3d468a47	0.048471715
139	0x3d3e5935	0.046471793
140	0xbcfde9d4	-0.030995287
141	0x3cc8651f	0.02446228
142	0x3b329950	0.0027252026
143	0x3e707180	0.23480797
144	0x3da32da0	0.07967687
145	0x3e31f54e	0.17378733
146	0x3ec4d22a	0.38441592
147	0xbdfb9a31	-0.12285269
148	0xbe0224f1	-0.12709405
149	0x3e5c59f8	0.21518695
150	0x3e3e54df	0.18587063
151	0x3e5f7b44	0.21824366
152	0xbe351cb6	-0.17686734
153	0xbce6e138	-0.028183565
154	0x3cb5df8f	0.022201328
155	0x3d1bc46c	0.03802912
156	0x3e19dc10	0.15025353
157	0xbe7f3e4e	-0.24926111
158	0xbe0a97e1	-0.135345
159	0xbe194404	-0.14967352
160	0xbe337304	-0.17524344
161	0x3e9597fe	0.29217523
162	0xbd03599b	-0.032067876
163	0xbdbecda5	-0.09316567
164	0x3e3107cf	0.17288135
165	0x3cb143de	0.021638807
166	0x3c66292b	0.014047901
167	0x3d45b841	0.04827142
168	0xbe51248c	-0.20424098
169	0xbe6af637	-0.22945486
170	0xbe7c2d35	-0.2462662
171	0x3d964048	0.073364794
172	0x3e9b1c4d	0.3029503
173	0x3e099872	0.1343706
174	0xbd8a3038	-0.06747478
175	0x3eedde56	0.4645869
176	0x3df6b44f	0.1204611
177	0x3d4fea4e	0.05076056
178	0xbdf68638	-0.12037319
179	0x3e4edb0c	0.20200747
180	0x3d9dd9bc	0.07707545
181	0x3e3d7eed	0.1850545
182	0xbeebeb2a	-0.46077853
183	0xbc8d335c	-0.017236404
184	0x3defb87f	0.11705112
185	0x3e1bb314	0.15205032
186	0xbd83b11e	-0.06430267
187	0x3e5b4262	0.21412042
188	0xbe160587	-0.14650546
189	0x3c944c94	0.018102922
190	0x3ead00c5	0.3378965
191	0xbd5bd401	-0.05366898

stu.hidden.0.rn_1.weight f4 [8]
0	0x3f01bbed	0.50677377
1	0x3f0271dd	0.5095499
2	0x3f734d8d	0.9504021
3	0x3f52272a	0.8209101
4	0x3f58c748	0.8467908
5	0x3f4e2aa1	0.80533797
6	0x3f2389d9	0.63882214
7	0x3f391a4c	0.7230575

stu.hidden.0.stu.M_u f4 [8, 3, 8]
0	0xbe9e47fe	-0.309143
1	0xbe66c85a	-0.22537366
2	0x3d2bf6a7	0.041983273
3	0xbe02517e	-0.127264
4	0xbcce01d2	-0.025147352
5	0x3e23f32b	0.1601073
6	0xba2b3d78	-0.0006532292
7	0xbde10d44	-0.10988858
8	0xbefe3487	-0.4964945
9	0xbe129ad6	-0.14316878
10	0x3de3da91	0.111256726
11	0xbe1553cb	-0.14582746
12	0xbe152188	-0.14563572
13	0x3e2ea886	0.17056474
14	0x3e0c8a00	0.13724518
15	0x3d1dbd8a	0.038510837
16	0x3c1fa5dd	0.009744135
17	0x3deb1e46	0.114803836
18	0x3e0a09db	0.13480322
19	0xbe4a58cc	-0.19760436
20	0xbe1f64f9	-0.15565862
21	0x3e2b323e	0.16718385
22	0xbe1e2999	-0.15445556
23	0x3e96f206	0.29481524
24	0x3e74d3b4	0.23908883
25	0xbf19b4a9	-0.6004129
26	0x3beccb63	0.007226394
27	0xbc8780b3	-0.01654086
28	0xbc50ad5b	-0.012736644
29	0xbdb0e2f0	-0.08637035
30	0xbdbc8eaa	-0.092068985
31	0x3ca8bc88	0.020597711
32	0xbc155c09	-0.009116181
33	0xbf0c9c0e	-0.5492562
34	0x3e218ed4	0.15777141
35	0xbde7a169	-0.113100834
36	0x3e42e1fe	0.19031522
37	0xbce8a81b	-0.028400471
38	0x3e1e9303	0.15485768
39	0xbd2f2ece	-0.042769246
40	0xbd922275	-0.071354784
41	0xbc0fa8b6	-0.008768251
42	0xbadbd1f3	-0.0016770944
43	0x3c41db86	0.011832124
44	0xbe0cab5c	-0.13737243
45	0xbdfeee9b	-0.12447854
46	0x3e00ffd0	0.12597585
47	0xbe864e10	-0.26231432
48	0x3e83c4ca	0.25736076
49	0xbe1a3338	-0.15058601
50	0xbe2f7aea	-0.17136732
51	0xbc30adc4	-0.010783616
52	0x3dd62f94	0.104582936
53	0xbddb5738	-0.10709995
54	0x3e4b7c42	0.1987162
55	0xbeafc674	-0.34331095
56	0x3e902f51	0.281611
57	0x3e139598	0.14412534
58	0xbe31cc1c	-0.17363018
59	0xbcff44eb	-0.031160792
60	0xbe3f77eb	-0.18698089
61	0xbd1c6a75	-0.038187463
62	0xbdfbf9ec	-0.12303528
63	0xbe8c3125	-0.27381244
64	0x3d077a22	0.03307546
65	0xbd799687	-0.06093457
66	0xbdc61d59	-0.09673566
67	0x3e8dc943	0.27692613
68	0xbddfd158	-0.10928601
69	0x3e33c860	0.17556906
70	0xbd486c76	-0.04893156
71	0x3ce9277a	0.028461207
72	0xbba7e1e0	-0.005123362
73	0xbeb24180	-0.34815598
74	0xbd9cbca4	-0.07653168
75	0xbe737e9a	-0.23778763
76	0x3d5bf2d9	0.053698394
77	0x3d0ebf07	0.034850147
78	0x3e9c0abd	0.30476943
79	0x3d4d754e	0.0501607
80	0x3e44f608	0.19234478
81	0xbdbf202e	-0.0933231
82	0xbe11ea9c	-0.14249653
83	0xbe9a4a24	-0.3013469
84	0xbe6c36a5	-0.2306772
85	0x3e45558d	0.19270916
86	0xbcd85f1b	-0.026412537
87	0xbe2da3f0	-0.16957068
88	0x3e3e5a95	0.18589242
89	0xbd7cf6e0	-0.061758876
90	0x3e2e663f	0.17031191
91	0xbbe1de6f	-0.006892971
92	0xbd82214f	-0.06354009
93	0xbe3d3d98	-0.18480527
94	0x3e2bcf7a	0.16778365
95	0xbe017b83	-0.12644772
96	0xbe49053d	-0.19630904
97	0x3d7aed7b	0.061261635
98	0xbebda12f	-0.37037036
99	0xbc0e2f30	-0.008678243
100	0xbeaab9e0	-0.33344936
101	0xbdbcaca4	-0.09212616
102	0x3dfc8f2b	0.123319946
103	0x3e0f15b8	0.13973129
104	0x3e575f3e	0.21032426
105	0xbc19915c	-0.009373035
106	0xbdec6be8	-0.11544019
107	0xbe5dc7f5	-0.21658309
108	0xbe172c7c	-0.14763063
109	0xbd7e27d9	-0.06204972
110	0x3e220453	0.15821962
111	0x3ec369d8	0.3816669
112	0xbe36db30	-0.17857051
113	0x3eaced5e	0.33774847
114	0x3d55c3b6	0.052188598
115	0xbea099af	-0.3136725
116	0xbe9bd12a	-0.30433017
117	0x3d38248c	0.04495673
118	0x3d85c6fd	0.06532095
119	0x3e869110	0.2628255
120	0xbe44a390	-0.19203019
121	0x3e0aed33	0.13567047
122	0x3cd036ac	0.025416695
123	0x3e8371c4	0.25672734
124	0x3e36327b	0.17792694
125	0xbea175ad	-0.31535092
126	0x3d98f2ba	0.074681714
127	0x3e09c4c0	0.1345396
128	0xbe13b30e	-0.14423773
129	0x3db548db	0.08851787
130	0xbdea932a	-0.114538506
131	0x3e89e2c7	0.2693083
132	0xbc0fa623	-0.008767637
133	0xbe822286	-0.25416964
134	0x3d2e3d1b	0.042538743
135	0xbdb8d39a	-0.09024735
136	0x3d9b1d1e	0.07573913
137	0xbd8b6c3c	-0.068077534
138	0xbd3f8998	-0.04676208
139	0x3eb16bbb	0.34652504
140	0x3e263c3f	0.1623392
141	0x3cc4a253	0.024003183
142	0xbd102fea	-0.035201944
143	0xbe6ac9fb	-0.22928612
144	0x3e8287f8	0.2549436
145	0x3e54d746	0.20785245
146	0xbd031399	-0.03200111
147	0x3da15064	0.078766614
148	0x3e1cf3d5	0.1532739
149	0x3b812ae6	0.0039418815
150	0xbe4137cf	-0.18868946
151	0x3e207eed	0.15673418
152	0x3bc88fe4	0.0061206687
153	0x3e0b9364	0.13630444
154	0x3d98ac8e	0.07454787
155	0xbcd72c40	-0.026266217
156	0xbdea2663	-0.11433103
157	0xbd07604c	-0.03305082
158	0xbdb47a14	-0.08812347
159	0xbd4a3dcf	-0.04937535
160	0x3e3e8a33	0.18607406
161	0x3cd14e15	0.025549928
162	0x3e75f588	0.24019444
163	0xbde998a4	-0.11406067
164	0xbe0ffbdc	-0.1406092
165	0x3d7ad10c	0.06123452
166	0xbe8fe5ba	-0.28104955
167	0x3e1c32ac	0.15253705
168	0x3e64b743	0.22335534
169	0xbd9f69d8	-0.0778386
170	0xbe1b2a58	-0.15152872
171	0xbe32688d	-0.17422695
172	0xbdb8b8f4	-0.09019652
173	0x3c880682	0.016604666
174	0x3e5077ee	0.2035825
175	0xbeb14032	-0.3461929
176	0x3e31e4bc	0.17372411
177	0xbc62930e	-0.013829006
178	0x3e83d6d3	0.25749835
179	0xbe277b3b	-0.16355602
180	0x3d51e7da	0.0512465
181	0x3c56b56a	0.013104776
182	0xbe1f0ee6	-0.15533027
183	0xbe21924b	-0.15778463
184	0xbdec228f	-0.11530029
185	0xbe62c018	-0.2214359
186	0xbe087dcb	-0.13329236
187	0x3d7e8c92	0.062145777
188	0x3d1bec9f	0.038067456
189	0xbd84e5b2	-0.064891234
190	0x3e0d32c5	0.13788898
191	0xbaea839d	-0.0017892007

stu.hidden.0.stu.M_phi_plus f4 [8, 16, 8]
0	0x3e2465cc	0.16054457
1	0xbd820d8f	-0.06350242
2	0xbe9acad7	-0.3023288
3	0xbef185bf	-0.47172353
4	0x3ecf47d6	0.40484494
5	0xbead928f	-0.33900878
6	0xbe9e8707	-0.30962393
7	0xbeb2b2a6	-0.34901923
8	0x3f3de229	0.7417322
9	0xbe1fb51e	-0.15596434
10	0xbf277473	-0.6541206
11	0x3ba78fd3	0.0051135807
12	0x3f56b084	0.8386309
13	0xbf1f43f5	-0.6221307
14	0xbf2ec086	-0.6826252
15	0xbd7ac95b	-0.061227184
16	0x3dc9d76b	0.09855541
17	0x3dfb94e3	0.12284257
18	0xbf1dd755	-0.61656696
19	0x3edebc5d	0.43503085
20	0x3cf850e5	0.030312011
21	0xbb91b09a	-0.0044461014
22	0xbf090f56	-0.53539026
23	0x3e00df1c	0.1258511
24	0xbe39eb2e	-0.1815612
25	0x3ec0ac42	0.37631422
26	0xbe8b46a4	-0.27202332
27	0xbe9d9b49	-0.30782536
28	0x3e514b92	0.20438984
29	0xbe1dabb1	-0.15397526
30	0xbd7c4008	-0.061584502
31	0xbee5dffb	-0.44897446
32	0xbfb185a6	-1.3868911
33	0xbc0eff16	-0.008727809
34	0x3e96c541	0.29447368
35	0xbf79af74	-0.97533345
36	0xbf091e6e	-0.53562057
37	0xbcd7272f	-0.026263801
38	0x3f74138d	0.9534233
39	0xbda4d617	-0.08048647
40	0xbf73fcfa	-0.95307887
41	0xbe9b3c0c	-0.3031925
42	0x3e180bf5	0.14848311
43	0xbd2131eb	-0.039354246
44	0xbf0aa8a6	-0.5416359
45	0x3e7a36d9	0.24434985
46	0x3ed4efad	0.41589108
47	0x3dda8401	0.10669709
48	0x3eaae10d	0.33374825
49	0xbf9422f8	-1.1573172
50	0x3eb839e6	0.35981673
51	0x3f070865	0.52747184
52	0x3e0df2cc	0.13862151
53	0xbe96ad61	-0.29429153
54	0xbdb7ab41	-0.08968211
55	0x3f11ac6a	0.5690371
56	0x3f683a63	0.9071409
57	0xbd44689e	-0.047951333
58	0xbd4132d9	-0.047167633
59	0x3f55ded1	0.83543116
60	0x3e855830	0.26043844
61	0xbf01b75f	-0.5067043
62	0xbdb862f6	-0.0900325
63	0x3f2682dc	0.65043426
64	0x3eb6c36d	0.35695973
65	0x3ed42bde	0.41439718
66	0xbe907dd2	-0.28220993
67	0x3ec34475	0.38138166
68	0x3f08614a	0.5327345
69	0xbca1525f	-0.019692598
70	0xbe9c0c16	-0.3047797
71	0x3d2e5a8f	0.042566832
72	0x3d6895e3	0.056783568
73	0x3e2c0a93	0.16800909
74	0xbe8e03bb	-0.2773722
75	0xbe4145bc	-0.18874258
76	0x3ea59e49	0.32347324
77	0x3e98f4bd	0.2987422
78	0xbf1c61ad	-0.6108654
79	0x3e699988	0.22812474
80	0xbd66914a	-0.056290902
81	0x3ee53033	0.44763336
82	0xbed34b23	-0.41268262
83	0xbed2373a	-0.4105776
84	0x3d802731	0.06257475
85	0xbdbe1880	-0.09282017
86	0xbd929c36	-0.07158701
87	0xbd8fdcd4	-0.070245415
88	0xbe552143	-0.2081347
89	0x3e80e2e5	0.25173107
90	0xbe95dde9	-0.29270867
91	0xbe7829c1	-0.24234678
92	0x3e29e821	0.16592456
93	0xbdd87b53	-0.10570397
94	0x3dc0cc10	0.09413922
95	0xbdedb27c	-0.11606309
96	0x3e2283ba	0.15870562
97	0xbe7478df	-0.23874234
98	0x3d1192f0	0.03554052
99	0xbdd937ca	-0.10606344
100	0x3e203c1f	0.15647934
101	0xbd95a38d	-0.073065855
102	0xbde88f9b	-0.113555156
103	0xbdf257d6	-0.118331596
104	0xbe96afe1	-0.2943106
105	0x3e8453ef	0.25845286
106	0xbe436368	-0.19080889
107	0xbe15698b	-0.14591043
108	0xbdacfb7d	-0.08446405
109	0x3e2d4026	0.16919002
110	0x3cfab024	0.030601569
111	0x3d962f4b	0.07333239
112	0xbcfeb47b	-0.03109192
113	0xbc6cd6e7	-0.014455534
114	0x3da063cc	0.07831535
115	0xbc5f5414	-0.013630886
116	0x3ddf5b91	0.10906137
117	0xbda1531d	-0.07877181
118	0xbcd04127	-0.025421692
119	0x3e4d6ba7	0.20060597
120	0xbea918ca	-0.33026725
121	0x3c8d9093	0.017280852
122	0x3d060319	0.032717798
123	0xbe28b66f	-0.16475843
124	0x3c13dbec	0.009024601
125	0x3e017c24	0.12645012
126	0x3d9ab4d0	0.075540185
127	0xbd4d5e16	-0.050138555
128	0xbefb448f	-0.49075744
129	0x3f1a2113	0.6020672
130	0x3caf6ea2	0.021415059
131	0xbf11b908	-0.5692296
132	0xbee393b5	-0.4444863
133	0x3f0d06c7	0.55088466
134	0xbee65841	-0.44989207
135	0xbf0fa36c	-0.56108737
136	0x3f0223a6	0.50835645
137	0x3e6fb7ee	0.23410007
138	0xbf3b8e2e	-0.73263824
139	0xbe8a4c31	-0.27011254
140	0x3f278eb6	0.65452135
141	0xbdb3dc1a	-0.087822154
142	0xbe826119	-0.25464705
143	0xbeb98b49	-0.3623908
144	0x3edd507a	0.4322546
145	0xbf63257c	-0.8872907
146	0xbd8b9c8e	-0.0681697
147	0x3f6f4957	0.9347128
148	0x3e937300	0.28798676
149	0x3e709f1a	0.23498192
150	0xbf24d4a0	-0.6438694
151	0x3da3f26f	0.08005225
152	0xbf3176d1	-0.69321924
153	0x3ee4b3b8	0.44668365
154	0xbe0f1c2f	-0.13975595
155	0xbf0fc3b8	-0.5615802
156	0x3d9908e7	0.07472401
157	0x3e896ac8	0.2683928
158	0xbe6858b0	-0.22690082
159	0xbe9355e0	-0.28776455
160	0xbf90386c	-1.1267219
161	0x3f378eb4	0.7170212
162	0xbe5c344e	-0.21504328
163	0xbf17a02b	-0.5922877
164	0xbeccb604	-0.39982617
165	0xbf4ba263	-0.7954466
166	0x3f7d3544	0.989094
167	0xbf1c1b74	-0.6097939
168	0xbf163d01	-0.58686835
169	0xbf0046a5	-0.50107795
170	0x3f065c48	0.5248456
171	0xbde55c1b	-0.11199208
172	0xbec6dde0	-0.38841152
173	0xbf61a8ed	-0.88148385
174	0x3f5800a4	0.8437598
175	0xbeda1f6a	-0.42602092
176	0x3eb95640	0.36198616
177	0xbf310f3d	-0.69163877
178	0x3efd7fdc	0.4951161
179	0x3f08342e	0.5320462
180	0x3d441ef5	0.047881085
181	0xbcfab90b	-0.030605813
182	0xbebfe0a0	-0.37476063
183	0x3f37f3a4	0.7185614
184	0x3f867150	1.050333
185	0xbdf58b3a	-0.11989446
186	0xbeae9406	-0.34097308
187	0x3f5667ec	0.8375232
188	0x3e38a63d	0.18032165
189	0xbe517568	-0.20454943
190	0xbf2d3d33	-0.6767151
191	0x3eb0f7e4	0.34564126
192	0x3f7a6640	0.9781227
193	0x3d8a7477	0.06760495
194	0xbf0c7cde	-0.5487803
195	0x3e450720	0.19240999
196	0x3f1dcbcd	0.616391
197	0xbec15738	-0.37761855
198	0xbe1ace90	-0.1511786
199	0x3f0fc5bb	0.5616109
200	0xbe949693	-0.2902113
201	0x3f2f4baa	0.6847483
202	0xbe8301fb	-0.25587448
203	0xbf0338c4	-0.5125849
204	0x3e2a75c6	0.1664649
205	0xbeb8615a	-0.36011773
206	0xbe6b13db	-0.22956793
207	0x3ef5031e	0.4785394
208	0xbf05b695	-0.52231723
209	0x3df6d6e6	0.120527074
210	0xbd8541e4	-0.06506708
211	0xbe0c0ede	-0.13677546
212	0xbb9415a3	-0.004519181
213	0x3de08839	0.109634824
214	0xbdb618cf	-0.088914506
215	0x3d5dc68b	0.054144423
216	0xbe8b1fb5	-0.27172628
217	0xbe1f9951	-0.1558583
218	0x3da7bd52	0.08190407
219	0x3d07d44c	0.033161446
220	0x3e0fc04e	0.14038202
221	0x3e85c44c	0.26126325
222	0xbe2fa6cc	-0.17153472
223	0xbe456a61	-0.19278862
224	0xbe04838c	-0.12940806
225	0xbdbcc36c	-0.09216961
226	0x3c6e0eea	0.014529923
227	0x3db519fd	0.088428475
228	0x3eaa9684	0.3331796
229	0x3db51400	0.08841705
230	0xbcb171eb	-0.021660766
231	0xbdfe945e	-0.124306425
232	0x3d7aef86	0.061263584
233	0xbd596641	-0.053076033
234	0x3df6de8a	0.12054165
235	0xbdfa1874	-0.12211695
236	0xbe93bac3	-0.28853425
237	0x3be8dd0a	0.007106428
238	0xbe1d3b18	-0.15354574
239	0x3d18e28a	0.03732542
240	0x3a89cd84	0.0010513519
241	0xbc56b1e0	-0.013103932
242	0xbd7007fe	-0.058601372
243	0x3decfa0d	0.11571131
244	0x3db069e0	0.08613944
245	0xbde6be94	-0.11266819
246	0x3dcd088a	0.10011394
247	0xbdd91833	-0.10600319
248	0xbba769ac	-0.0051090326
249	0xbed1c43d	-0.4097003
250	0xba3b6e2d	-0.00071499014
251	0xbe0c7522	-0.13716558
252	0x3e0531a7	0.13007222
253	0xbda75c3f	-0.081718914
254	0xbca7d6fa	-0.020488251
255	0xbe24c0f8	-0.16089237

stu.hidden.0.stu.M_phi_minus f4 [8, 16, 8]
0	0xbe701d9f	-0.234488
1	0x3f0cb79e	0.5496768
2	0x3c82cfb5	0.015968183
3	0xbe71b037	-0.23602377
4	0xbe74a4ac	-0.23890942
5	0x3f0428d5	0.51624805
6	0x3f173fda	0.59081805
7	0xbdf93f4a	-0.121702746
8	0xbf1d02c5	-0.6133235
9	0x3f8f06ff	1.117401
10	0xbe17591d	-0.14780088
11	0x3dd12de5	0.10213832
12	0x3de649ab	0.1124452
13	0x3e8c900a	0.27453643
14	0x3f033120	0.51246834
15	0xbe837772	-0.25677067
16	0xbef9b13d	-0.48768035
17	0x3eb1e62a	0.34745914
18	0xbe6ec83e	-0.23318574
19	0xbaff753a	-0.0019489892
20	0x3eafb642	0.3431874
21	0x3e3ab6f5	0.18233855
22	0x3f040705	0.5157321
23	0x3dd44ce1	0.10366226
24	0xbec2b5db	-0.3802937
25	0x3f11017d	0.56642896
26	0x3eb62db7	0.35581753
27	0xbd475f90	-0.04867512
28	0xbd9933f7	-0.07480615
29	0x3ee0ed07	0.43930838
30	0x3ee4a437	0.44656536
31	0xbe5b1b2e	-0.21397087
32	0x3e25e9b4	0.16202432
33	0xbea8539f	-0.32876298
34	0x3e8634e8	0.2621224
35	0x3c160702	0.009156944
36	0x3dd64d96	0.10464017
37	0xbe4b9924	-0.19882637
38	0xbeb4d365	-0.3531753
39	0xbda94f17	-0.08267038
40	0xbe5c219d	-0.21497197
41	0xbdb165ad	-0.08661971
42	0xbec3e36c	-0.38259447
43	0x3d62749e	0.055286996
44	0x3ebc9d38	0.36838698
45	0x3e840cf4	0.25791132
46	0x3e71d283	0.2361546
47	0x3e1572a7	0.14594518
48	0xbe8678dd	-0.26264086
49	0xbeca396a	-0.39496928
50	0x3eb3ee5a	0.35142785
51	0x3c472256	0.012154182
52	0xbdeae8f4	-0.114702135
53	0xbe8b89f8	-0.272537
54	0xbd70aa32	-0.05875606
55	0x3e849c7a	0.25900632
56	0x3bbf1f35	0.0058325776
57	0xbd5821c5	-0.05276658
58	0xbe8c04cf	-0.2734742
59	0xbcbb7cbc	-0.022886626
60	0x3db2a4e6	0.08722858
61	0xbdcd765c	-0.10032341
62	0x3da03361	0.078223
63	0xbcf453b3	-0.029825067
64	0xbe073c90	-0.13206697
65	0x3dc5c718	0.09657115
66	0x3cc92ec9	0.024558442
67	0x3c8e0045	0.017334113
68	0x3aa09cdb	0.0012253778
69	0x3de478d8	0.111558616
70	0xbe84cf73	-0.2593952
71	0xbe460d59	-0.19341029
72	0x3e342d32	0.17595366
73	0x3db4b065	0.08822707
74	0xbe5e1e89	-0.21691336
75	0x3d4c0ba3	0.049815785
76	0x3e655fb6	0.22399792
77	0xbdd05e2a	-0.1017421
78	0xbb5c1cbd	-0.0033586465
79	0x3dbfbf1e	0.093626246
80	0x3e431933	0.19052581
81	0xbdc6a361	-0.09699131
82	0x3e551850	0.20810056
83	0x3e9aa04e	0.30200428
84	0x3dcfef86	0.10153107
85	0xbe2d4907	-0.16922389
86	0xbd7108f1	-0.058846418
87	0xbd4fac90	-0.050701678
88	0x3e55449e	0.20826957
89	0x3cbbc035	0.0229188
90	0xbd3cd372	-0.046100087
91	0xbe5ac386	-0.21363649
92	0xbe6b00a8	-0.22949469
93	0x3e66a205	0.22522743
94	0x3e31c754	0.17361194
95	0xbe6c3b06	-0.2306939
96	0x3e688807	0.2270814
97	0x3dd47cd2	0.1037537
98	0xbadb1c82	-0.001671687
99	0xbd416b92	-0.047221728
100	0xbc8cdc70	-0.017194957
101	0x3ddef271	0.10886086
102	0xbe3f8b12	-0.18705395
103	0xbe3bd23f	-0.18341921
104	0x3e06c798	0.13162076
105	0x3e6ad672	0.22933367
106	0xbdb37761	-0.08763004
107	0x3e2a6b01	0.16642381
108	0xbe444469	-0.19166721
109	0x3ce28d18	0.02765517
110	0x3d07f86e	0.033195905
111	0x3dca9833	0.09892311
112	0xbe584d19	-0.2112316
113	0xbe3b2c4e	-0.1827862
114	0x3e7b04c1	0.24513532
115	0xbdf9f53c	-0.12204978
116	0x3e039354	0.1284917
117	0xbc661227	-0.014042414
118	0x3d727050	0.05918914
119	0xbe9048d5	-0.28180566
120	0x3df6ebf6	0.12056725
121	0xbce5d1f1	-0.02805421
122	0xbc7e4771	-0.015519963
123	0xbe832c79	-0.25619867
124	0x3becda2d	0.007228157
125	0x3d611da1	0.054959897
126	0x3de85a53	0.11345353
127	0x3df056a1	0.11735273
128	0xbf34d16d	-0.7063206
129	0xbe9cf68f	-0.3065686
130	0x3ec5f11f	0.38660523
131	0xbebf0115	-0.37305513
132	0xbfb4ae13	-1.4115623
133	0x3e4fe278	0.20301235
134	0xbe45812a	-0.19287553
135	0xbeb3530c	-0.35024297
136	0xbf0309bd	-0.51186734
137	0x3ee372f2	0.44423634
138	0x3eb05247	0.34437773
139	0xbeed4d8d	-0.4634823
140	0xbf136cd8	-0.5758796
141	0x3f0fd9ba	0.561916
142	0x3ecff330	0.40615225
143	0xbf0c022b	-0.5469081
144	0x3d2966f6	0.041357957
145	0xbca91928	-0.020641878
146	0x3e8168e0	0.25275326
147	0xbeea541c	-0.45767295
148	0xbd8b8fe8	-0.06814557
149	0xbe5b7fb0	-0.21435428
150	0x3e0aab10	0.13541818
151	0x3de59fb7	0.11212104
152	0xbf5c274a	-0.8599745
153	0x3e6e488b	0.2326986
154	0x3f2d5d11	0.67720133
155	0xbebe7fc0	-0.3720684
156	0xbf6c181b	-0.9222428
157	0x3f492b30	0.78581524
158	0x3ec2dcdc	0.38059127
159	0xbecc88d0	-0.3994813
160	0x3ea94f90	0.33068514
161	0x3e152b03	0.14567189
162	0x3dcbfe11	0.09960569
163	0xbd8c2da0	-0.0684464
164	0x3e80feb5	0.25194326
165	0x3e039264	0.12848812
166	0x3de2fd62	0.11083485
167	0xbcc59e90	-0.02412346
168	0x3dfc713f	0.123262875
169	0xbebd1a65	-0.369342
170	0xbe90e4c0	-0.28299522
171	0x3ed10b6e	0.40829033
172	0x3e126868	0.1429764
173	0xbe22c61a	-0.15895882
174	0xbdf9e6d0	-0.12202227
175	0xbde2e35f	-0.11078524
176	0x3e7ce3b2	0.24696234
177	0x3dee95be	0.11649655
178	0xbd3a060d	-0.045415927
179	0x3e318ae5	0.1733814
180	0x3eb6bae7	0.3568947
181	0xbe85393c	-0.2602023
182	0x3e4a2575	0.19740851
183	0x3ecb11a3	0.39661893
184	0xbd013a1e	-0.031549565
185	0x3c9d74b7	0.019220693
186	0x3e70d1d2	0.2351754
187	0xbecfd5ee	-0.40592903
188	0xbd81502b	-0.06314119
189	0xbc56c94a	-0.0131095145
190	0xbdd42995	-0.10359494
191	0x3e6ac6e5	0.22927435
192	0xbe65aa3c	-0.2242822
193	0x3e18be7b	0.14916413
194	0xbe14677b	-0.144926
195	0x3eb0d6b1	0.34538797
196	0x3e05c851	0.13064696
197	0x3d463d33	0.048398208
198	0xbdc081d2	-0.09399761
199	0xbdb39957	-0.08769482
200	0x3de1a67f	0.11018085
201	0xbe485a64	-0.19565731
202	0x3dea3a0a	0.11436851
203	0xbdcec81e	-0.10096763
204	0xbe35b494	-0.17744666
205	0x3e0bc380	0.13648796
206	0x3d0e37ec	0.0347213
207	0xbe185a09	-0.14878096
208	0x3d8cf0b6	0.068818495
209	0x3e0e350f	0.13887428
210	0xbcbb6c28	-0.022878721
211	0x3e6cc690	0.2312262
212	0x3da2a017	0.07940691
213	0x3d91f36e	0.07126509
214	0xbe4b4ade	-0.19852778
215	0xbe69b816	-0.2282413
216	0xbdcab41f	-0.098976366
217	0x3e0441d3	0.12915735
218	0xbdfc8498	-0.12329978
219	0xbd180328	-0.037112385
220	0xbdfcfb91	-0.1235267
221	0xbdb8ea59	-0.09029073
222	0xbe1800f0	-0.14844108
223	0xbf0cb54f	-0.54964155
224	0xbec8411d	-0.39112177
225	0x3e147e66	0.14501342
226	0xbdc89fe2	-0.0979612
227	0x3b91f7bc	0.004454581
228	0xbc64c6b1	-0.013963387
229	0x3e36cd6f	0.17851804
230	0x3dfb15a5	0.12259988
231	0xbe0b86c2	-0.13625625
232	0x3b207ddb	0.0024489078
233	0x3df0102b	0.11721834
234	0xbe695468	-0.22786105
235	0x3e4b8026	0.19873103
236	0xbe8651ef	-0.26234385
237	0x3d82a3c1	0.0637889
238	0x3de3677c	0.111037225
239	0x3d61ea37	0.055155005
240	0xbce5d71c	-0.028056674
241	0xbe4863c0	-0.19569302
242	0xbe110c5f	-0.14164875
243	0x3e1ff548	0.15620911
244	0xbd923d93	-0.071406506
245	0xbd7f3e82	-0.06231547
246	0xbe78f547	-0.24312316
247	0x3ca8a151	0.020584734
248	0xbc094ff1	-0.008380876
249	0x3c8e9864	0.01740665
250	0xbdbb0099	-0.09130973
251	0x3d182aa7	0.03715005
252	0xbd62a108	-0.055329353
253	0xbd4d302c	-0.05009477
254	0x3c485111	0.012226359
255	0xbd02257e	-0.031774037

stu.hidden.0.rn_2.weight f4 [8]
0	0x3f5c56fb	0.8607022
1	0x3eebe6ad	0.4607443
2	0x3f28f853	0.6600391
3	0x3f4a7955	0.7909139
4	0x3f571d02	0.8402864
5	0x3f152e7e	0.58274066
6	0x3f252c67	0.6452088
7	0x3f7d8c9c	0.9904268

stu.hidden.0.mlp.swiglu.w.weight f4 [32, 8]
0	0xbec0cf54	-0.3765818
1	0xbe82e11b	-0.25562367
2	0x3d7942a9	0.060854588
3	0xbdd6fe36	-0.10497706
4	0x3f0b4dde	0.5441569
5	0x3d92766b	0.07151493
6	0xbe6443fc	-0.22291559
7	0xbde70e77	-0.11282056
8	0xbe2252b1	-0.15851857
9	0xbecb0913	-0.3965536
10	0xbd00571f	-0.031333085
11	0xbddc89e5	-0.10768489
12	0xbd1d4cd6	-0.038403355
13	0xbcd324fe	-0.025774475
14	0x3df9359a	0.12168427
15	0x3dc2ff8e	0.095213994
16	0xbcddff75	-0.02709935
17	0x3e271e79	0.16320218
18	0x3db3840d	0.08765421
19	0xbe6fe70f	-0.23427986
20	0xbddf74f2	-0.109109774
21	0x3e3adf8b	0.18249337
22	0x3e4cd0c1	0.20001508
23	0x3e3b968f	0.18319152
24	0xbe60b789	-0.21945013
25	0xbb662168	-0.0035115127
26	0xbe87801c	-0.26464927
27	0xbed689ad	-0.41901913
28	0xbd4f4cfa	-0.05061052
29	0xbe47deba	-0.19518557
30	0x3d9a305b	0.07528754
31	0xbe43d0ad	-0.19122572
32	0x3e511186	0.20416841
33	0x3d990598	0.0747177
34	0x3a067ffc	0.00051307655
35	0x3e36089e	0.17776725
36	0xbd399bd1	-0.045314614
37	0x3ee262aa	0.442159
38	0xbe14c4a1	-0.14528133
39	0x3c40deec	0.011771899
40	0x3d808ccb	0.06276854
41	0xbe2dfad4	-0.16990215
42	0x3e3e6b76	0.1859568
43	0x3d23ff7a	0.040038563
44	0x3d97b40c	0.07407388
45	0x3d0b669b	0.0340334
46	0xbe6c854d	-0.23097725
47	0xbe3f7a17	-0.18698917
48	0xbdf07cd1	-0.11742557
49	0xbd64f442	-0.055897005
50	0xbe2aed90	-0.16692185
51	0xbeff8ed1	-0.49913648
52	0x3e58a583	0.21156888
53	0xbed025d7	-0.4065387
54	0x3e3c7164	0.1840263
55	0xbd268f4a	-0.040663995
56	0xbf0c48d1	-0.5479861
57	0x3d9445df	0.07239889
58	0x3deb937e	0.11502741
59	0x3e3f9562	0.18709329
60	0xbe8a3eb5	-0.27000967
61	0x3e5f09b9	0.21781053
62	0x3f108576	0.56453645
63	0xbeb505b9	-0.3535593
64	0xbcc3b55e	-0.023890194
65	0xbedfd85c	-0.43719757
66	0x3eb60788	0.3555262
67	0xbcedca61	-0.029027166
68	0x3d95395a	0.072863296
69	0xbe973730	-0.29534292
70	0x3e572615	0.21010621
71	0xbe8aad19	-0.27085188
72	0xbe2a39c0	-0.16623592
73	0xbe8bd3a9	-0.2730992
74	0xbd65eaf3	-0.05613227
75	0xbeaff919	-0.34369734
76	0x3d0c7b02	0.034296997
77	0x3c46cc6b	0.012133698
78	0x3ebf2ab1	0.37337258
79	0xbd14b86b	-0.036308687
80	0x3b7db19a	0.0038710595
81	0x3e1752eb	0.14777724
82	0xbd477487	-0.048695114
83	0x3d867f82	0.06567289
84	0xbd741f10	-0.059599936
85	0x3c2e521e	0.010639695
86	0x3b673cfb	0.003528415
87	0xbd603278	-0.05473563
88	0x3efce0cb	0.49390253
89	0x3aebffae	0.0018005276
90	0xbd967313	-0.073461674
91	0x3e85ff8f	0.26171538
92	0xbd93a16f	-0.072085254
93	0x3f01b3d9	0.5066505
94	0xbed862bb	-0.42262825
95	0x3e461257	0.19342934
96	0x3d689778	0.056785077
97	0xbe3d7ea9	-0.18505348
98	0xbdd3838c	-0.10327825
99	0x3e0a8eee	0.13531086
100	0x3c8f54d6	0.017496508
101	0xbe88df6d	-0.2673296
102	0xbe453389	-0.1925794
103	0xbe249ba8	-0.16075003
104	0xbd89f1f1	-0.067356
105	0xbbe67a85	-0.0070336484
106	0x3ecd1b82	0.4006005
107	0x3d62903c	0.055313334
108	0xbdefd569	-0.11710627
109	0x3f353f2b	0.7079951
110	0x3e71a53e	0.23598191
111	0xbf11dba7	-0.5697579
112	0x3e053346	0.1300784
113	0xbe8ad87d	-0.27118292
114	0x3eceb246	0.40370387
115	0xbe40637a	-0.18787947
116	0x3e50d573	0.20393924
117	0x3e1adb28	0.15122664
118	0x3e8efea9	0.27928665
119	0x3e11d901	0.14242937
120	0x3eb3b50f	0.35099074
121	0xbe0a18e8	-0.13486063
122	0x3e6b762c	0.22994298
123	0x3e8b9e87	0.27269384
124	0xbd3e10ce	-0.046402745
125	0xbe82eed3	-0.25572833
126	0xbdcaefed	-0.099090435
127	0x3e6d70e9	0.23187603
128	0xbc90f85f	-0.017696558
129	0xbe9168db	-0.2840031
130	0xbd92347e	-0.07138918
131	0x3ec89cac	0.3918203
132	0xbbddc9aa	-0.006768425
133	0xbe166e8c	-0.14690608
134	0x3d52d110	0.05146891
135	0x3e6fdca5	0.23424013
136	0x3ecc21ae	0.39869446
137	0x3deeb9d7	0.1165654
138	0x3d5dd35e	0.054156654
139	0x3ed93607	0.42424032
140	0xbdf697d1	-0.120406754
141	0x3d677fb8	0.056518286
142	0x3ecf2dca	0.40464622
143	0x3e5f246e	0.2179124
144	0x3e3e2597	0.18569027
145	0xbe016ef5	-0.12639983
146	0xbdde4265	-0.108525075
147	0x3e943d72	0.2895313
148	0xbec7fe5d	-0.3906125
149	0x3c5379b3	0.012907433
150	0xbe621b35	-0.22080691
151	0x3e5cbdbf	0.21556757
152	0x3e504062	0.2033706
153	0xbe1bff4b	-0.15234105
154	0xbe0331b3	-0.12811927
155	0x3e8a7191	0.2703977
156	0xbdd6bd9c	-0.10485384
157	0x3df8a5f9	0.12141032
158	0x3eb22af2	0.3479839
159	0x3cbe920a	0.023262996
160	0x3de46a43	0.1115308
161	0xbdaa64ab	-0.08319982
162	0xbd2913ff	-0.041278835
163	0x3c20aa4c	0.009806227
164	0x3e0b0163	0.13574748
165	0x3d087c29	0.033321533
166	0x3d1782ee	0.0369901
167	0x3d4bb555	0.04973348
168	0xbe2214c1	-0.1582823
169	0x3dfd6dc5	0.123744525
170	0x3e929184	0.28626645
171	0xbd3d8e28	-0.04627815
172	0xbe037d99	-0.1284088
173	0xbec8e11c	-0.39234245
174	0xbda8be37	-0.082394056
175	0xbeef4a73	-0.46736488
176	0xbeb082a2	-0.34474665
177	0x3e53fb8d	0.20701428
178	0xbc4737b6	-0.012159279
179	0xbea8d8ee	-0.32978004
180	0xbe6e2d3c	-0.23259443
181	0x3e07853b	0.13234417
182	0xbe948399	-0.2900665
183	0xbe274987	-0.16336642
184	0x3f121b0e	0.5707253
185	0x3d343357	0.043994274
186	0x3ec3f084	0.38269436
187	0xbe7ccef6	-0.24688324
188	0xbee6a900	-0.45050812
189	0xbecf8cae	-0.40537018
190	0x3ed5c617	0.41752693
191	0x3d4b2ccd	0.049603272
192	0x3f2203a1	0.6328679
193	0x3da7733b	0.08176275
194	0x3d803524	0.06260136
195	0x3f0f7bc2	0.56048214
196	0x3edecb5d	0.4351453
197	0xbdc83bf5	-0.09777061
198	0xbd90789d	-0.07054255
199	0x3e3b3dca	0.1828529
200	0x3f21d85b	0.6322076
201	0xbe720fae	-0.23638794
202	0x3dda1bcf	0.10649835
203	0x3f1dbbb7	0.61614555
204	0xbe43ff25	-0.19140299
205	0xbf4369ce	-0.7633332
206	0x3e805fdc	0.25073135
207	0xbe0e94c0	-0.13923931
208	0xbec130b4	-0.3773247
209	0x3f3f3d75	0.7470315
210	0xbeaf721e	-0.34266752
211	0xbece6caf	-0.40317294
212	0xbe9ec8ad	-0.31012478
213	0x3f01b86b	0.50672024
214	0xbd61cd05	-0.055127162
215	0x3e4d5f64	0.2005592
216	0xbd110749	-0.03540734
217	0x3f4584ae	0.7715558
218	0xbe3f03a7	-0.18653737
219	0xbf173abe	-0.5907401
220	0xbe45f6e2	-0.1933246
221	0xbbdfb33e	-0.0068267873
222	0xbdba813a	-0.09106679
223	0xbd958482	-0.073006645
224	0xbf1111ac	-0.5666759
225	0xbf229aaa	-0.6351725
226	0x3f15786e	0.58386886
227	0xbe925b17	-0.2858512
228	0x3d804c00	0.06264496
229	0x3dd6f4a6	0.10495882
230	0x3ec498b6	0.3839776
231	0x3dd0d499	0.101968
232	0x3e04beae	0.12963364
233	0x3ecfd0ec	0.40589082
234	0x3db483f7	0.08814233
235	0xbe197feb	-0.14990203
236	0xbce9d97c	-0.028546087
237	0xbe8f8bc9	-0.28036335
238	0x3eb33a25	0.35005298
239	0xbea4ebab	-0.3221105
240	0x3da9d12c	0.082918495
241	0xbe44aab7	-0.19205748
242	0x3dac9110	0.08426106
243	0xbe5da0d9	-0.2164339
244	0x3d5df27b	0.054186326
245	0xbd6998df	-0.057030555
246	0x3e17edb6	0.14836773
247	0x3dbc1cb3	0.091851614
248	0xbe134f37	-0.14385687
249	0x3e563242	0.2091761
250	0xbd9f3c0b	-0.07775124
251	0xbe882b09	-0.26595333
252	0xbea1eb5a	-0.31624871
253	0xbda539e5	-0.08067683
254	0x3e37688c	0.17910975
255	0xbe9c0166	-0.30469817

stu.hidden.0.mlp.swiglu.v.weight f4 [32, 8]
0	0x3ce7f79e	0.028316315
1	0xbd3ad095	-0.045609076
2	0xbeac56d7	-0.33660004
3	0x3eac155a	0.3361004
4	0x3e33ff4f	0.17577861
5	0x3ce3c6c8	0.027804747
6	0xbea8b508	-0.32950616
7	0xbd9bc804	-0.07606509
8	0xbdbaf5f9	-0.09128947
9	0xbc834847	-0.016025675
10	0x398b68f4	0.00026590342
11	0xbd51a93f	-0.051186796
12	0xbe108050	-0.14111447
13	0xbdfabd53	-0.12243142
14	0x3d91db1a	0.071218684
15	0x3d43d217	0.04780778
16	0xbd9c5071	-0.076325305
17	0xbbb62318	-0.0055583827
18	0xbd5adb30	-0.05343169
19	0xbe7d4c29	-0.24736084
20	0xbe1c9096	-0.1528953
21	0xbcd948df	-0.026524005
22	0x3ec4c9d3	0.3843523
23	0x3e4b4ad6	0.19852766
24	0xbf045275	-0.5168832
25	0x3d89440d	0.06702433
26	0xbe7b4db9	-0.24541368
27	0xbdeb4ae2	-0.11488892
28	0xbe99a183	-0.30006036
29	0x3e96cd7d	0.2945365
30	0x3e889be2	0.2668143
31	0x3e2692c3	0.16266923
32	0xbd0c31d5	-0.03422721
33	0xbdaa5ce1	-0.083184965
34	0xbd7786af	-0.06043118
35	0xbd53cb68	-0.051707655
36	0x3e310811	0.17288233
37	0x3e5a3a20	0.21311235
38	0x3b9096ee	0.0044125235
39	0xbdb0fca0	-0.086419344
40	0x3dc143ac	0.094367355
41	0xbd8cf659	-0.068829246
42	0x3dd472be	0.10373448
43	0x3d972fa9	0.07382137
44	0x3af0e5d2	0.0018379039
45	0xbd590834	-0.05298634
46	0xbdf513b7	-0.11966651
47	0xbe28f8f6	-0.16501221
48	0xbe3110c0	-0.17291546
49	0x3e61a786	0.22036561
50	0xbdb83ffc	-0.08996579
51	0xbdcea77e	-0.1009054
52	0xbe9070a6	-0.28210944
53	0xbddef195	-0.10885922
54	0x3e0d0696	0.13772044
55	0xbe92ff97	-0.28710625
56	0x3e09e325	0.13465555
57	0xbe1017be	-0.14071557
58	0xbdbdecde	-0.092736945
59	0x3e81ce95	0.25352922
60	0x3ed8c8b1	0.42340615
61	0xbe20ba89	-0.15696158
62	0xbde59a28	-0.112110436
63	0x3ea2bffb	0.31787094
64	0x3eca93eb	0.39565977
65	0x3e8ccacf	0.2749848
66	0xbee01c93	-0.437718
67	0xbe565177	-0.20929514
68	0xbea69fe6	-0.32543868
69	0x3e3e352c	0.18574971
70	0xbed93cd9	-0.42429236
71	0x3d89a66a	0.06721194
72	0x3b86777d	0.0041035996
73	0x3ead9bc4	0.33907902
74	0xbe2c6c5b	-0.1683821
75	0xbdba3e92	-0.090939656
76	0xbdad97d5	-0.08476225
77	0xbe8e2766	-0.27764434
78	0xbe4e9f0f	-0.20177864
79	0xbe4ef88d	-0.20212002
80	0xbd9dd728	-0.077070534
81	0xbe1675c3	-0.1469336
82	0x3dc0d2c7	0.094152026
83	0x3d988221	0.07446695
84	0x3e3eba47	0.18625747
85	0x3cd5ae3d	0.02608406
86	0x3c9bcffb	0.019020071
87	0x3c20d83c	0.009817179
88	0x3dc5058a	0.09620197
89	0x3ebbea65	0.36702266
90	0xbeb3a213	-0.3508459
91	0xbec7b2fa	-0.39003736
92	0xbe07a658	-0.13247049
93	0x3ec07fe1	0.37597564
94	0xbe37ffc2	-0.17968658
95	0xbe083524	-0.13301522
96	0x3dc2c765	0.09510688
97	0xbe8ad794	-0.27117598
98	0xbdeef551	-0.11667884
99	0xbbbcf53b	-0.0057665384
100	0xbe27b6ea	-0.1637837
101	0x3e15d930	0.14633632
102	0xbe11f5b8	-0.1425389
103	0x3e02fd8d	0.12792034
104	0x3ebf3713	0.37346706
105	0x3ed219ed	0.41035405
106	0xbecd9e2b	-0.40159735
107	0xbd7f5bbe	-0.06234335
108	0x3e419951	0.18906142
109	0xbd36ef84	-0.044662014
110	0xbe8d8a94	-0.2764479
111	0x3ea06c58	0.3133266
112	0xbe3254ff	-0.17415236
113	0x3df2a903	0.11848643
114	0xbdd747de	-0.105117545
115	0x3e596bf5	0.21232589
116	0xbe51dcf2	-0.2049444
117	0x3de16633	0.11005821
118	0xbf04cb0f	-0.5187234
119	0x3e772a99	0.24137343
120	0x3ec31e30	0.3810897
121	0x3cfd892c	0.030949198
122	0x3dd1cc61	0.1024406
123	0x3ebf72fa	0.37392408
124	0x3bf94566	0.00760715
125	0x3e735010	0.2376101
126	0xbe68fff9	-0.22753896
127	0x3d5132c7	0.051073816
128	0xbde1396c	-0.109972805
129	0x3e91c80f	0.28472945
130	0xbd8980fa	-0.067140535
131	0xbccfe4f6	-0.025377732
132	0xbeb71644	-0.35759175
133	0xbe370ff9	-0.17877187
134	0x3ea3c11a	0.31983262
135	0xbd072b15	-0.03300007
136	0x3dde0d77	0.10842412
137	0x3e8b38af	0.27191684
138	0x3d871c6f	0.0659722
139	0x3edbeaa7	0.42952463
140	0xbe2d5ae0	-0.16929197
141	0x3d3c8ddb	0.04603372
142	0x3dcaaffd	0.09896848
143	0x3d136f86	0.03599503
144	0x3d8b97fe	0.068160996
145	0x3e8db510	0.27677202
146	0xbda0675a	-0.07832213
147	0x3eff5833	0.49871978
148	0xbd08e545	-0.033421773
149	0x3eafa254	0.34303534
150	0xbdf4e26a	-0.119572476
151	0x3d67df8f	0.056609686
152	0x3bd6b102	0.0065518627
153	0xbc353501	-0.01106
154	0x3c940016	0.018066447
155	0xbe85d751	-0.26140836
156	0xbe50b517	-0.2038158
157	0xbcbd3f52	-0.023101483
158	0xbe7ffead	-0.24999495
159	0xbe1f5fae	-0.15563843
160	0xbdc6946c	-0.09696278
161	0xbe4ba48f	-0.19886993
162	0x3da608ba	0.08107133
163	0x3c0aa1f3	0.008461463
164	0xbd2e42b9	-0.0425441
165	0xbdca9f11	-0.09893621
166	0xbd9f3cfb	-0.07775303
167	0x3ba53506	0.0050417213
168	0x3ea791c2	0.32728392
169	0xbe839108	-0.25696588
170	0x3eaf03dc	0.34182632
171	0x3ec04295	0.37550798
172	0xbe6ae0de	-0.22937343
173	0xbee8a444	-0.45437825
174	0x3ec4890a	0.38385803
175	0xbe2e126c	-0.16999215
176	0x3e8072be	0.2508754
177	0x3e300391	0.1718886
178	0xbd9fcfe6	-0.07803325
179	0x3e58c0e2	0.21167329
180	0x3e2873e0	0.16450453
181	0xbec5612f	-0.38550708
182	0xbdb39f5b	-0.08770629
183	0xbe81ad1b	-0.25327381
184	0x3ea38bef	0.31942698
185	0x3ed86d74	0.42271006
186	0xbe155dba	-0.14586535
187	0xbd7c9a8d	-0.06167083
188	0xbf434c01	-0.7628785
189	0xbe4042ba	-0.18775454
190	0xbd7ab017	-0.06120309
191	0xbbb04fbf	-0.0053806
192	0x3ed59b71	0.41720155
193	0x3ddaa998	0.10676879
194	0xbef6913a	-0.48157674
195	0x3e2c531b	0.16828577
196	0x3f4ec2e3	0.80766124
197	0xbeb502cd	-0.353537
198	0xbefc257a	-0.49247342
199	0x3e12c9e1	0.14334823
200	0x3d83bec2	0.064328685
201	0xbe3cafad	-0.1842639
202	0x3e011eb9	0.12609376
203	0x3ed4653c	0.41483486
204	0xbf0e9970	-0.5570288
205	0xbe1f4370	-0.15553069
206	0x3ee4215e	0.44556707
207	0xbf1e5357	-0.61845917
208	0x3f23c3a8	0.6397042
209	0xbe1deff1	-0.15423562
210	0x3de8e65f	0.11372065
211	0x3edfcfdb	0.4371327
212	0x3e584eac	0.21123761
213	0x3ea6964b	0.3253654
214	0xbf0937ec	-0.53600955
215	0x3dc1ed76	0.0946912
216	0xbf0cb4ab	-0.5496318
217	0xbe565ab9	-0.20933045
218	0xbdeac380	-0.1146307
219	0xbdff049b	-0.1245205
220	0xbdaa7a06	-0.083240554
221	0x3d690191	0.05688626
222	0x3f1c23d8	0.60992193
223	0xbe876422	-0.26443583
224	0x3f3a8c37	0.728702
225	0x3e12bcf6	0.14329895
226	0xbe44a61c	-0.1920399
227	0x3ee7bd4e	0.45261616
228	0xbd8dec64	-0.069298536
229	0xbf4fc303	-0.8115694
230	0xbe4c3c61	-0.19944908
231	0xbd086d6a	-0.03330747
232	0x3e48bb4a	0.19602695
233	0x3ed8e33f	0.42360875
234	0xbd2fa705	-0.04288389
235	0xbe990621	-0.29887488
236	0xbe141a51	-0.14463164
237	0xbdc89f5f	-0.097960226
238	0x3d9072ff	0.07053184
239	0xbdb918df	-0.09037947
240	0x3e510872	0.20413378
241	0xbe1af19e	-0.15131232
242	0x3d973b13	0.073843144
243	0xbd14b343	-0.03630377
244	0x3d09549b	0.03352795
245	0x3e339e87	0.17540942
246	0x3e1083c6	0.14112768
247	0xbd190de4	-0.037366763
248	0xbe58e49c	-0.21180958
249	0x3e542cfe	0.20720288
250	0xbe390b7a	-0.18070784
251	0xbef89abd	-0.48555556
252	0xbdf95ec9	-0.12176282
253	0xbeb32b85	-0.3499414
254	0x3e8754ef	0.26431987
255	0xbde46062	-0.11151196

stu.hidden.0.mlp.swiglu.w2.weight f4 [8, 32]
0	0xbe9fe119	-0.31226423
1	0x3e2086ab	0.15676372
2	0x3d1aa162	0.037751563
3	0x3e9b6cf1	0.30356553
4	0xbdd80cb5	-0.10549299
5	0xbd7b28ab	-0.06131808
6	0x3de91ee1	0.11382843
7	0xbe84055e	-0.25785345
8	0xbd732f6f	-0.059371408
9	0x3d9e40e8	0.07727224
10	0xbb7dff4a	-0.00387569
11	0xbda90536	-0.08252947
12	0xbe43ee14	-0.19133788
13	0xbe6ec2a4	-0.23316437
14	0x3e3bc77a	0.18337813
15	0x3de07258	0.10959309
16	0xb9dd4428	-0.00042203185
17	0x3d72952c	0.059224293
18	0x3e359abf	0.17734812
19	0xbebedbba	-0.37277013
20	0xbd7a7283	-0.061144363
21	0xbe85ee66	-0.26158446
22	0xbea25fab	-0.31713614
23	0xbed9a80d	-0.42511025
24	0x3f10bef5	0.5654138
25	0xbf0f6c40	-0.5602455
26	0xbdf11a29	-0.11772568
27	0xbd337a1b	-0.04381762
28	0xbeb41987	-0.35175726
29	0xbe0aedc3	-0.13567261
30	0xbe5ece44	-0.21758372
31	0x3d103790	0.03520924
32	0xbe59f2ff	-0.21284102
33	0x3c179250	0.009251192
34	0x3dc3db82	0.09563352
35	0xbd062892	-0.032753535
36	0xbe3c73a9	-0.18403496
37	0x3dc34197	0.09533995
38	0xbe9405e5	-0.28910747
39	0xbd0c1e49	-0.03420857
40	0xbe967df7	-0.2939298
41	0xbe2a165c	-0.16610092
42	0x3db5e49f	0.08881497
43	0x3d74e0e2	0.059784777
44	0x3e7426fc	0.23842996
45	0xbdc658fb	-0.096849404
46	0xbe386cdd	-0.18010278
47	0xbe4c1f00	-0.199337
48	0xbd9621e4	-0.07330683
49	0xbea04bbd	-0.31307784
50	0x3c958a7b	0.01825451
51	0x3e8fb334	0.2806641
52	0xbd8d3c58	-0.06896275
53	0x3ea44dce	0.3209061
54	0xbd9469d9	-0.07246751
55	0xbdd65dac	-0.10467085
56	0x3ed82965	0.42219082
57	0x3e49ab17	0.19694172
58	0x3eaa4be6	0.3326103
59	0xbf2af1e3	-0.6677534
60	0xbeb99677	-0.36247608
61	0xbeb40fba	-0.35168248
62	0xbdf27df5	-0.11840431
63	0xbe859976	-0.26093644
64	0x3dc105ac	0.0942491
65	0x3e385f19	0.18005027
66	0xbc7a5dde	-0.015281169
67	0x3e5597a4	0.20858628
68	0xbbf3ec18	-0.007443916
69	0xbe175508	-0.1477853
70	0x3da47d2c	0.08031687
71	0x3e98f4ff	0.29874417
72	0x3e7c1248	0.24616349
73	0x3da06e08	0.07833487
74	0x3da87bba	0.08226724
75	0x3e5c8d6a	0.2153832
76	0xbe344844	-0.17605692
77	0x3f03638c	0.5132377
78	0x3e4600ae	0.19336197
79	0xbe1dc955	-0.15408833
80	0x3e97e00a	0.29663116
81	0x3ddc4f30	0.10757291
82	0xbd1ce5d5	-0.038305122
83	0xbe85b983	-0.26118097
84	0xbe23173f	-0.15926836
85	0xbe9069c1	-0.28205684
86	0xbd0bbc9d	-0.034115423
87	0x3d89203c	0.06695601
88	0xbef0e8f1	-0.4705272
89	0x3dab2703	0.0835705
90	0x3e115a48	0.14194596
91	0xbd93ab5f	-0.07210421
92	0x3ea166c6	0.31523722
93	0xbd88165f	-0.06644892
94	0x3e776768	0.2416054
95	0x3d65d57d	0.0561118
96	0xbea18e8a	-0.3155406
97	0xbdfda212	-0.12384428
98	0xbe823f40	-0.2543888
99	0x3dac93cb	0.08426627
100	0xbd87707a	-0.0661325
101	0xbe37744c	-0.17915457
102	0x3e6b8fbc	0.23004049
103	0x3e06ad3a	0.13152018
104	0x3e9e45ad	0.30912533
105	0x3e6b0bb2	0.2295368
106	0xbdbe9a91	-0.09306825
107	0xbeca8c2e	-0.39560074
108	0x3e8119c3	0.25214967
109	0x3e3d8367	0.18507157
110	0xbdc9d3f5	-0.09854881
111	0x3d830fbc	0.063994855
112	0xbe1969c0	-0.14981747
113	0xbe8d883b	-0.27642998
114	0x3bbf9046	0.005846056
115	0x3e7161f8	0.23572528
116	0x3da213d5	0.07913939
117	0xbee94ddd	-0.45567217
118	0x3d4f986a	0.050682463
119	0xbe51591f	-0.20444153
120	0xbde2041e	-0.110359415
121	0xbf08f252	-0.5349475
122	0xbd2ea40b	-0.042636912
123	0x3f1f131a	0.6213852
124	0xbdbc54ac	-0.091958374
125	0x3e36c2b6	0.17847714
126	0x3e5f32c7	0.21796714
127	0x3e191535	0.14949496
128	0x3e8cf03d	0.27527037
129	0xbd8cf8de	-0.06883405
130	0x3e98418e	0.29737514
131	0x3e7b4378	0.24537456
132	0x3dcc1634	0.099651724
133	0x3de66f82	0.11251737
134	0x3ea050b3	0.3131157
135	0xbee5d686	-0.4489023
136	0x3e192ea5	0.149592
137	0x3d565b04	0.052332893
138	0xbd066475	-0.032810647
139	0xbe8f63fb	-0.28005967
140	0xbd45dfc1	-0.04830909
141	0xbe58d056	-0.21173224
142	0x3e68d7c0	0.22738552
143	0x3effaf73	0.49938545
144	0xbde74aca	-0.11293562
145	0x3e936016	0.28784245
146	0x3e1f234d	0.1554081
147	0x3e04dccf	0.12974857
148	0xbd4ecf9f	-0.05049097
149	0x3eafc3af	0.34328982
150	0xbd49164f	-0.04909354
151	0x3f383988	0.71962786
152	0x3c4ce1fa	0.012505049
153	0x3ea7bd19	0.32761458
154	0xbeca7c14	-0.3954779
155	0x3ddb3aa5	0.10704545
156	0xbd9b6528	-0.075876534
157	0x3e9362d4	0.28786337
158	0x3e24a9e4	0.16080433
159	0x3eefd050	0.46838617
160	0x3dc3f6ec	0.09568581
161	0x3e561828	0.20907652
162	0xbcb69a28	-0.022290304
163	0xbd02f918	-0.031975836
164	0x3df542ef	0.11975657
165	0xbe45ab09	-0.19303526
166	0x3de4a522	0.11164309
167	0x3e65e25e	0.22449633
168	0x3e079aa6	0.13242587
169	0x3e2da8cf	0.16958927
170	0xbc8a3928	-0.016872957
171	0xbd54a07a	-0.051910855
172	0xbe96377e	-0.29339212
173	0x3eca8747	0.39556333
174	0x3ead49b7	0.33845302
175	0xbc9068ff	-0.017628191
176	0x3de99711	0.11405767
177	0xbe458b87	-0.19291507
178	0xbd11acff	-0.035565373
179	0x3e067837	0.13131796
180	0xbdce6f4e	-0.100798234
181	0xbd869c43	-0.06572773
182	0x3d95180c	0.07279977
183	0xbdd874bb	-0.105691396
184	0xbe86d238	-0.2633226
185	0xbde994e2	-0.1140535
186	0x3e5f1a9d	0.21787496
187	0xbbacfbf0	-0.0052790567
188	0x3e9cb2ea	0.3060525
189	0xbac05e40	-0.0014676526
190	0xbe94ef62	-0.29088885
191	0x3da1307d	0.078705765
192	0x3e531149	0.20612063
193	0xbd3deaae	-0.046366386
194	0x3e7c0d10	0.24614358
195	0xbe93a80a	-0.2883914
196	0x3d2e6862	0.042580016
197	0xbdf2f068	-0.1186226
198	0xbeeeb7e4	-0.46624672
199	0x3e90826a	0.28224498
200	0x3e84ca5c	0.25935638
201	0xbdd626bd	-0.104566075
202	0x3b3dd7a8	0.0028967652
203	0x3b421ee8	0.0029620472
204	0xbd067483	-0.032825958
205	0x3e1ef95c	0.1552481
206	0x3ebfa34a	0.37429267
207	0xbe355ac1	-0.17710401
208	0xbe99fee8	-0.3007729
209	0xbe85dcbb	-0.26144966
210	0xbe988a64	-0.29793084
211	0x3ebb705f	0.3660917
212	0x3c9b7ff0	0.018981904
213	0xbe18c39a	-0.14918366
214	0xbe8390e5	-0.25696483
215	0x39d7e7a8	0.00041180593
216	0x3e8c72af	0.27431247
217	0xbe2b3630	-0.1671989
218	0xbcec62dc	-0.028855734
219	0xbe301488	-0.17195332
220	0xbe0d07e7	-0.13772546
221	0xbead5168	-0.3385117
222	0xbe1b196c	-0.15146416
223	0xbee57a6e	-0.4481997
224	0xbe52c914	-0.20584518
225	0xbe6eabe5	-0.2330776
226	0xbc6b9520	-0.014378816
227	0xbee51d93	-0.44749126
228	0x3e05e1fd	0.13074489
229	0x3dd20caf	0.102563255
230	0x3c53b412	0.01292135
231	0xbe129ac3	-0.1431685
232	0xbeb747f3	-0.3579708
233	0xbd3523f6	-0.04422375
234	0x3b1569df	0.00227987
235	0x3eb595d4	0.35465872
236	0xbe2318b8	-0.15927398
237	0xbeb5275a	-0.35381585
238	0xbe02867a	-0.12746611
239	0xbe4b83ca	-0.19874492
240	0xbb40c2b0	-0.0029412918
241	0xbd7ade22	-0.061247
242	0x3e5a5cf9	0.21324529
243	0x3da16628	0.07880813
244	0xbdb9716b	-0.09054836
245	0x3ee1ab6a	0.4407609
246	0x3ec99fc8	0.39379716
247	0xbe65f9ca	-0.22458568
248	0xbe87a653	-0.26494083
249	0x3ede971d	0.43474665
250	0x3f194841	0.59875876
251	0xbe228db2	-0.15874365
252	0x3eac47c2	0.33648497
253	0xbd58ec2e	-0.052959614
254	0x3e4fa303	0.20277028
255	0xbd19c848	-0.03754452

stu.hidden.1.rn_1.weight f4 [8]
0	0x3f6525c1	0.8951073
1	0x3f13639f	0.57573885
2	0x3f323c4c	0.69623256
3	0x3f20a24c	0.62747645
4	0x3f18dab3	0.5970871
5	0x3ed7a157	0.4211528
6	0x3f352c5f	0.7077083
7	0x3f0034f4	0.500808

stu.hidden.1.stu.M_u f4 [8, 3, 8]
0	0xbe828d6a	-0.25498515
1	0x3dd71e19	0.105037875
2	0xbe2e9401	-0.17048647
3	0x3dcb1104	0.09915355
4	0x3d83efb2	0.06442203
5	0x3e054d1c	0.13017696
6	0xbdbfa326	-0.0935729
7	0xbdb2d44e	-0.087319
8	0xbe6978e4	-0.22800022
9	0x3d5f520a	0.054521598
10	0xbdb4af4d	-0.088224985
11	0x3dc3f3ce	0.095679864
12	0x3e28b430	0.16474986
13	0xbe052a83	-0.13004498
14	0xbd23ce68	-0.039991766
15	0xbc381c55	-0.011237224
16	0xbc44973b	-0.011998947
17	0x3de6961b	0.11259099
18	0xbb71ead2	-0.0036913645
19	0xbde94a7b	-0.11391159
20	0x3cb7d6f5	0.022441367
21	0xbddc7169	-0.10763819
22	0x3d631f2d	0.055449653
23	0x3c93d092	0.01804379
24	0x3dfc073c	0.12306067
25	0xbf3427f8	-0.7037349
26	0xbd30a22c	-0.04312341
27	0x3d2e42a1	0.04254401
28	0x3e2e52f5	0.17023833
29	0x3e10f65e	0.14156482
30	0x3e03c887	0.12869464
31	0xbe0979d9	-0.13425387
32	0xbddc4374	-0.10755053
33	0xbefe4541	-0.49662212
34	0xbe72b16d	-0.23700495
35	0xbd1ea72b	-0.038733643
36	0xbe2a515f	-0.16632603
37	0xbd984c06	-0.07436375
38	0xbdc32ccf	-0.09530031
39	0xbe293407	-0.16523753
40	0x3dbe2afa	0.09285541
41	0xbc3084e8	-0.010773875
42	0x3d6a48e1	0.05719841
43	0xbdf8dfda	-0.12152071
44	0x3e0a26ad	0.13491316
45	0x3d7b2d8f	0.061322745
46	0x3e24390b	0.16037385
47	0xbe1c7366	-0.15278396
48	0x3d616dfa	0.055036522
49	0xbdfd9977	-0.12382787
50	0xbf13c5e7	-0.5772385
51	0x3d9e1c3c	0.07720229
52	0xbe0465ab	-0.12929408
53	0x3da8dcfb	0.08245274
54	0x3cc2f92d	0.023800457
55	0x3d318d74	0.04334779
56	0xbcc00f3f	-0.02344477
57	0xbd8a6009	-0.067565985
58	0xbe001440	-0.12507725
59	0xbda32dd4	-0.079677254
60	0x3d57a06a	0.052643217
61	0xbd7693d8	-0.06019959
62	0x3c493c73	0.012282479
63	0x3e9c6122	0.30542856
64	0xbd1b4434	-0.03790684
65	0x3d663ec5	0.056212205
66	0xbe5e7e81	-0.21727945
67	0xbcb9e790	-0.022693425
68	0x3cbb8a33	0.022893047
69	0xbd543b8b	-0.051814597
70	0x3db32006	0.08746342
71	0xbd0107f6	-0.031501733
72	0x3e4efa62	0.20212701
73	0x3e385896	0.18002543
74	0xbe046816	-0.1293033
75	0xbedf4705	-0.4360887
76	0x3cc05a31	0.023480507
77	0xbd01e8d9	-0.0317162
78	0xbdc32140	-0.09527826
79	0x3e5081ee	0.20362064
80	0x3dac6410	0.08417523
81	0x3dbd17d1	0.09233058
82	0xbdb6c21f	-0.089237444
83	0xbe11a94c	-0.14224738
84	0x3d58a8f7	0.052895512
85	0xbd7ab32a	-0.06120602
86	0x3b6d84e0	0.003624253
87	0xbe1bf615	-0.15230592
88	0x3dadb655	0.08482043
89	0xbdc9d98a	-0.098559454
90	0xbb44eae8	-0.0030047242
91	0xbd18c97f	-0.037301537
92	0xbd8c9b3f	-0.06865548
93	0x3de829d7	0.11336105
94	0xbdb8c112	-0.090212
95	0x3defa076	0.11700527
96	0x3e8b7d9f	0.2724428
97	0x3beccdd1	0.0072266837
98	0x3cd056c8	0.025432006
99	0x3d96af1b	0.073576175
100	0xbf01c8e0	-0.50697136
101	0x3cf5dc7f	0.030012367
102	0x3df17549	0.117899485
103	0xbe20b282	-0.15693095
104	0x3d794287	0.06085446
105	0x3e4c0f63	0.19927745
106	0xbe258384	-0.1616345
107	0xbe57a39a	-0.21058503
108	0xbe59c1ea	-0.21265379
109	0xbd0997e1	-0.03359211
110	0x3dcd294d	0.10017643
111	0x3e58576f	0.21127103
112	0x3d341580	0.043965816
113	0xbdb915c9	-0.09037358
114	0xbce65fd9	-0.028121876
115	0x3e9574a7	0.2919056
116	0xbd39244a	-0.045200624
117	0xbe2f7b65	-0.17136915
118	0xbd3f55b9	-0.04671261
119	0x3e385702	0.18001941
120	0xbd804252	-0.062626496
121	0x3e2fc64b	0.17165487
122	0xbd85fbfa	-0.06542201
123	0x3e0446cf	0.12917636
124	0xbe189922	-0.14902166
125	0xbe8261c9	-0.2546523
126	0x3d466e02	0.048444755
127	0x3db141a7	0.086551
128	0xbd0794d6	-0.033100925
129	0xbd89893f	-0.06715631
130	0x3e110c59	0.14164867
131	0xbe873d2c	-0.26413858
132	0x3d599731	0.053122703
133	0xbec0afe8	-0.37634206
134	0x3e18edef	0.14934514
135	0x3d9a6ba1	0.0754006
136	0xbe738267	-0.23780213
137	0x3e55ed2f	0.2089126
138	0x3e1a27e3	0.15054278
139	0x3e589e6e	0.21154186
140	0xbd489f5d	-0.048980106
141	0xbebc2546	-0.36747187
142	0xbde8cac3	-0.11366799
143	0x3e0cdc13	0.13755827
144	0x3df13546	0.11777739
145	0xbdd24012	-0.10266127
146	0x3dcffb8e	0.10155402
147	0xbd4e4efa	-0.050368287
148	0xbe2541b8	-0.16138351
149	0xbd37c49c	-0.044865236
150	0xbf1f1b91	-0.6215144
151	0xbddcb1f3	-0.107761286
152	0x3ce238d0	0.027614981
153	0x3ba828a9	0.0051318
154	0xbe01a9bf	-0.12662409
155	0xbdb5dc70	-0.08879936
156	0x3dabbcfe	0.08385657
157	0x3e154d2d	0.14580221
158	0xbe116b00	-0.14200974
159	0xbda26dc6	-0.07931094
160	0xbc9c3ad8	-0.019071028
161	0xbe1e869d	-0.15481038
162	0x3d9365aa	0.07197125
163	0xbe4a6753	-0.19765978
164	0xbd5534db	-0.05205236
165	0xbe029db7	-0.12755476
166	0xbe578575	-0.21047004
167	0x3c2ee6c7	0.010675139
168	0x3d8d666a	0.069042996
169	0xbcd9b79c	-0.02657681
170	0xbdc3df2d	-0.09564052
171	0xbda0070a	-0.078138426
172	0xbe3cbfb5	-0.18432505
173	0x3dc74b33	0.0973114
174	0x3e701861	0.234468
175	0xbeb12c12	-0.34603935
176	0x3d6338aa	0.05547396
177	0xbe01983c	-0.12655729
178	0xbbc9142f	-0.0061364393
179	0xbcb75ab5	-0.02238212
180	0x3d4bf74c	0.049796388
181	0xbd7a6765	-0.06113376
182	0x3df0425d	0.11731408
183	0xbf0d7854	-0.5526173
184	0xbcda7400	-0.026666641
185	0xbe25ae7f	-0.16179846
186	0xbd5fe9e9	-0.054666433
187	0x3c32e852	0.010919647
188	0xbd044de9	-0.032300863
189	0xbe1e9509	-0.1548654
190	0x3e3ab51a	0.18233147
191	0xbe1bb0a1	-0.15204097
