checkpoints/sssm-Walker2D-v1-model_step-0-2024-11-18-17-23-46.pt (torch, 34442 bytes, 18 tensors)

emb.weight f4 [8, 24]
00000000: dc54 e13d f63b 303d d381 033e 309f 62be
00000010: 3cad aa3d 5c71 f3bc bd55 953e 6d8f d53d
00000020: 3060 df3d a095 c9bc a3cd d3be f7cc 833d
00000030: 82f7 15be 64d6 983c bd21 77be 20f6 e23c
00000040: 70b1 133c 0024 76ba e865 7cbd f694 013d
00000050: d0e6 dcbd 2fd3 ef3d 4d1c b63e 24bc c93d
00000060: e991 033e fa5d 28be c6e3 9b3e acd0 55be
00000070: b453 aebe a89f 8fbe 602f 073d 1704 b0be
00000080: f6ef 94be 18a9 823e 500c 1abe f84d 333d
00000090: 2b6c 263e dc9f 3f3e a8fc 5f3e de19 983e
000000a0: 000b 1d3d ad5a e93d 136a c83d 668c 10bf
000000b0: 7417 e3be 1dc6 04be 1cfe 78be f6ae 0d3d
000000c0: 48c6 00be fafc 863d d251 503e 6b3f 8d3e
000000d0: 8fbe 35bd daf5 a0be 1385 313d 89ef 873d
000000e0: 79cc cfbe 8178 4a3e 4b3e 2f3e 2633 a33e
000000f0: f043 4f3c e6d1 87be c945 ba3e b6f5 8a3d
00000100: 146c 4bbe 6fa7 f4bd 1543 c7be c5c6 b9bd
00000110: 4cd8 863e 6c1e d3be b129 d5bd 3ffe 0d3e
00000120: 5d40 893d 4ce6 223e f68f 943e d5e8 97bd
00000130: 68ac bd3c 1d13 e63d 7a0f 45be fce4 823e
00000140: de70 8cbe b886 bc3d 5430 163e 5e7b c3bd
00000150: 3a67 a1be 61f4 94be d8d8 fa3c c49d a4be
00000160: 06ce d4bd 3311 05be 8ca1 91be ffc7 bdbe
00000170: 9538 f13d 56c1 a63e 5f91 a43d 5047 e33c
00000180: 2832 893e 00be 9cbe 2eac 14be e24b 8fbd
00000190: 496e 12be 0cf7 9bbe 104e 4abe 380f 333c
000001a0: b039 39be 529e 3e3d 1e64 7b3d 52a9 aabd
000001b0: 684e 3dbd a007 7fbe 5730 933d ac3f 0a3e
000001c0: 10f3 ffbb 1b63 a8bd 9c72 d5bc 4a9b a8bd
000001d0: 1ccc ecbc 6997 99bd f936 ebbd 2e57 2e3d
000001e0: 00b6 77bd a327 8a3d 40cb 9abe 08f5 633c
000001f0: 3c01 073e 5058 6f3c 6a18 b73d e488 2d3e
00000200: 7e3a ef3d 40e6 7c3b d42f 79be 120e c1be
00000210: 3823 083e 9f59 793e 73f7 283e 9081 6abd
00000220: 945c b5bc fab5 73be dc33 a43d 5985 823e
00000230: 2886 a5be 47ac a5be c700 febd 15c5 8b3e
00000240: 83f6 5bbe 6cda 58be 6ed7 4f3d 3cc4 b73c
00000250: d0bb 7d3c 9dd3 98bd 9483 07bd 003a 39be
00000260: 3262 e13d 5adb 2fbd dd1e a83d 93c7 c8bd
00000270: 2d70 da3d c58c 863e 1023 4cbc 207b 91bc
00000280: 1c35 5a3e f162 433e 7d83 47be bbf1 3f3e
00000290: 824b 75bd 9a18 1dbe 7aa2 eb3d a0a5 bd3b
000002a0: 7664 af3e 619f 2cbd 2484 ce3e 4a02 82be
000002b0: 5235 8c3e ba58 4fbe c3be b7bd 8832 0cbd
000002c0: eb0b c3bd 7287 55be 04b6 503e bce1 3bbe
000002d0: d85c 84be 8ea0 0bbf 48a3 493e fa25 cebd
000002e0: cca2 abbe c3df 30be 6f81 33be f34f b3be
000002f0: f6f1 433e c332 9c3e 7e2a 5f3d 1013 9c3c
0.11002514 0.043025933 0.12842493 -0.22131038 0.08333823 -0.02971714 0.29166976 0.10427747
0.10907018 -0.02460748 -0.41367826 0.06435578 -0.14645198 0.018656917 -0.24133964 0.027705252
0.009014472 -0.00093895197 -0.061620623 0.0316362 -0.107862115 0.11710202 0.35568467 0.09850338
0.12848629 -0.16442099 0.30447215 -0.20880383 -0.34048235 -0.28051496 0.033004165 -0.3437812
-0.29089326 0.25519633 -0.1504376 0.04377553 0.162522 0.18713325 0.21873724 0.29707235
0.03834057 0.11394248 0.09785857 -0.5646423 -0.4435383 -0.12966199 -0.24315685 0.034590684
-0.12575638 0.0659122 0.20343712 0.27587447 -0.044371184 -0.3143757 0.0433398 0.066374846
-0.40585688 0.19772531 0.17113607 0.3187496 0.012650475 -0.26527327 0.36381367 0.06785147
-0.19865447 -0.11945998 -0.38918367 -0.090711154 0.26336896 -0.41234148 -0.10408343 0.13866518
0.067017294 0.15908164 0.29016083 -0.07417456 0.023153499 0.11234114 -0.19244185 0.25565326
-0.2742986 0.09205383 0.14666873 -0.09545015 -0.31524068 -0.29092696 0.030620977 -0.32151616
-0.10390858 -0.12994842 -0.28443563 -0.37066647 0.1177837 0.3256938 0.0803554 0.027743965
0.2679608 -0.30613708 -0.14518806 -0.069968954 -0.14299883 -0.3046192 -0.19756341 0.010928921
-0.18088412 0.046537705 0.061374776 -0.083330765 -0.046217352 -0.24905252 0.071869545 0.13500851
-0.0078109577 -0.08222028 -0.026055627 -0.08232744 -0.02890592 -0.07499582 -0.114850946 0.04256361
-0.060476303 0.06745841 -0.30233192 0.0139134005 0.13184065 0.014608458 0.089402035 0.16946751
0.116810784 0.0038589388 -0.24334651 -0.37706047 0.13294685 0.24350594 0.16500644 -0.057252467
-0.022138871 -0.23799887 0.08017704 0.2549236 -0.32328916 -0.32358 -0.12402492 0.272988
-0.21480756 -0.21177071 0.05074256 0.022432439 0.0154866725 -0.07462237 -0.033084467 -0.18088531
0.110050574 -0.0429338 0.08209012 -0.09803691 0.10665927 0.26279274 -0.012459531 -0.017758906
0.21309322 0.19080712 -0.19483753 0.18744557 -0.059886463 -0.15341416 0.11505599 0.0057875663
0.34256333 -0.042144183 0.4033519 -0.2539237 0.2738443 -0.2024869 -0.08971932 -0.034227878
-0.095237575 -0.2085245 0.20381933 -0.1834783 -0.25852084 -0.5454186 0.19691193 -0.10065837
-0.33522642 -0.17272858 -0.17529844 -0.35021934 0.1913527 0.30507478 0.054483883 0.019052058

stu.hidden.0.rn_1.weight f4 [8]
00000000: cccc 8c3f cccc 8c3f cccc 8c3f cccc 8c3f
00000010: 7666 663f 6866 663f cccc 8c3f cccc 8c3f
1.0999999 1.0999999 1.0999999 1.0999999 0.90000093 0.9000001 1.0999999 1.0999999

stu.hidden.0.stu.M_u f4 [8, 3, 8]
00000000: 5714 18be 54c2 f4bc 1c5e 9fbe 2844 a63e
00000010: 4c76 28be c289 973e 9dbd 98bd 663c 093e
00000020: a614 66be 626b 333d 381f 8dbe c8b8 f6bc
00000030: aca2 3cbe 481a 5ebe 809c 043a 1d10 913d
00000040: 3435 a6be 76fa 3fbe 93e9 83be 0099 333e
00000050: 358f 60be f152 91bd 5a6e 6ebe dc6d b13d
00000060: c366 99bd 2460 55bd 6fd7 f03d 3478 753e
00000070: dc3a 903d 3c78 60bd 83df 43be de31 77bd
00000080: 4267 813e 845e 663e 9a1e bcbd 1abf 583e
00000090: 1bea 933e 2c4e 133e f48a 95be eaca f43d
000000a0: 40cc e8bb 3c26 f83d 384d 6abd 9594 823e
000000b0: 850a 823d 8870 6a3e f6bf c1bd 30e1 9d3e
000000c0: e6f8 abbd 7658 98bd 864b 673e 32cd 96bd
000000d0: ee40 3fbe aced 2fbe e34d 95be 6676 933e
000000e0: 8ffe 77be d032 003d e446 37bd 794e ab3e
000000f0: 2987 b3bd 6330 87be 32e9 81be 7622 163e
00000100: b5f6 ab3d 3931 ef3d b683 55be 963e 053e
00000110: 5c3f 973c 3451 5dbe d0af 65be 6ee0 0e3e
00000120: c00f 9c3c 3043 e53c b6de aabe 7418 f2bc
00000130: bc3f 293e a02d 8cbc 1973 833d fbaa b7bd
00000140: d035 28bc 8a69 74be 814d d7bd 4888 a3be
00000150: 2b04 833e da0f 07be 2464 a43e 3388 d03d
00000160: 9cba 9abc 6c0e 38be b8b4 12be cb7e 7fbe
00000170: 087a 733e c7e7 7cbe e2bf a13e 70bb 753c
00000180: 5084 afbb b002 c03c 8057 3e3e 62f4 013e
00000190: ded2 23bd 2326 8abe fe3b 9cbe a8cc 1d3e
000001a0: ee8b 0f3e 1499 2c3e 6e47 3f3e 10c8 8d3e
000001b0: e01f 63bb e825 2bbc 9c90 76bd 1033 bfbb
000001c0: e57b cabd ac98 1dbd 3010 1e3e c162 8f3e
000001d0: 1719 833e f382 e53d 9d65 82be 206e 873e
000001e0: b355 ef3d 4881 c03d c618 dd3d e383 debd
000001f0: 42d5 6dbd bca0 6c3d 4049 88bb 11f9 8abd
00000200: c059 6bbb 0869 033c 1380 94bd 8bc1 85be
00000210: b8a5 1d3c d604 9cbd 5099 d73c 2e7a 16be
00000220: 808f 03be 4a30 5fbe 889c e53c 9895 9dbe
00000230: 149a 00be 7b62 44be a0b1 fbbc d606 513d
00000240: e5c4 86bd 5c2e a93e f459 0bbd 74f6 033e
00000250: 8c09 253e 90da 613d 2655 76bd 247b d2bc
00000260: 38f0 023d bc5a 863e c019 813c 5c27 9e3d
00000270: 8729 f63d 728f cbbd d7a7 26be ffa3 a33e
00000280: aff9 77be 6fc3 813e 5cea 52bd 20c4 513b
00000290: 4a7f e9bd 5a39 57bd 2e43 43bd f490 98bc
000002a0: 5150 98bd d36e 823e 5d26 b4bd 0267 7d3e
000002b0: 3e52 ac3d 4e8e 4abe 62b0 f8bd 6320 933e
000002c0: 0ef6 763d 0ee9 503e ae36 1dbe 58a3 b6bd
000002d0: 2c9c ab3d 013f 34be 01fb e43d 9b68 bebd
000002e0: bca0 053e e8bd 09bc 25cf c0bd a10c df3d
000002f0: 2e0e 5e3e 8065 82be c754 cf3d b6ab 7e3e
-0.14851509 -0.02987782 -0.31126487 0.32473874 -0.16451377 0.29597288 -0.07458041 0.13401946
-0.22468814 0.04380358 -0.2756288 -0.030117407 -0.1842143 -0.21689713 0.00050587207 0.070831515
-0.32462466 -0.18747887 -0.2576414 0.17538834 -0.21929629 -0.07095898 -0.23284283 0.08663532
-0.07490303 -0.05209364 0.11759841 0.23971635 0.070424765 -0.054802164 -0.19128232 -0.06035029
0.25274092 0.22496992 -0.09185524 0.2116665 0.28889546 0.14385289 -0.29207575 0.11952765
-0.0071044266 0.12116668 -0.057202548 0.25503984 0.06349663 0.2289449 -0.09460442 0.30835867
-0.08397083 -0.074387476 0.22587404 -0.07363357 -0.18677112 -0.17180508 -0.29160985 0.28801268
-0.242182 0.03129846 -0.04474534 0.33458307 -0.08766014 -0.26404104 -0.25373226 0.14661583
0.08396665 0.1167931 -0.20851025 0.13012156 0.01846283 -0.21613008 -0.22430348 0.139528
0.019050479 0.027986139 -0.3337304 -0.029552676 0.16528219 -0.0171116 0.064184375 -0.08968159
-0.010266736 -0.23868385 -0.105128296 -0.31939912 0.25589117 -0.1318964 0.3210765 0.10182228
-0.01888781 -0.17974252 -0.14326751 -0.24950711 0.2377702 -0.24697791 0.31591707 0.014998302
-0.005356349 0.023438781 0.18588066 0.12690881 -0.03999602 -0.2698222 -0.3051452 0.15410101
0.14018223 0.1685527 0.18679592 0.27691698 -0.003465645 -0.010446049 -0.060196504 -0.0058349445
-0.09886912 -0.038475677 0.15435863 0.2800503 0.2560508 0.11206617 -0.2546815 0.26451206
0.11686268 0.093996584 0.10795741 -0.10864999 -0.058064707 0.057770476 -0.0041591227 -0.06785787
-0.003591165 0.008020647 -0.07250991 -0.26124224 0.00962203 -0.0761811 0.026318222 -0.14695045
-0.1284771 -0.21795765 0.028028741 -0.30778193 -0.12558776 -0.19178192 -0.030724347 0.05103191
-0.065805234 0.33043182 -0.034021333 0.12886983 0.16116923 0.055140078 -0.060139798 -0.025693484
0.03196737 0.262411 0.015759349 0.07722351 0.120196395 -0.099394694 -0.16274963 0.31961057
-0.2421634 0.25344416 -0.051493034 0.0032007769 -0.114012316 -0.05254493 -0.04767149 -0.018623807
-0.07437194 0.25475177 -0.0879638 0.24746326 0.08414124 -0.19780847 -0.12143017 0.28735647
0.06029325 0.20401403 -0.1535289 -0.08917874 0.08379397 -0.17602159 0.11180688 -0.09297296
0.13049597 -0.008407094 -0.0941451 0.10891081 0.21685097 -0.25468063 0.10123592 0.2487019

stu.hidden.0.stu.M_phi_plus f4 [8, 16, 8]
00000000: f5b9 ccbd e1b9 cc3d cd0d ccbd adbc cc3d
00000010: 958b cc3d 02af cc3d 49b4 ccbd ffb7 cc3d
00000020: 04ba cc3d 50c0 cc3d 1f4b ccbd 0ea9 cc3d
00000030: 2cc3 cc3d 38bd cc3d 13b7 ccbd 15a7 cc3d
00000040: 3bc5 ccbd 05a7 cc3d 85c4 ccbd 66c3 cc3d
00000050: c6bf ccbd 49c4 ccbd 6f74 ccbd 29bf cc3d
00000060: f447 c93d 09b4 cc3d 7b41 cb3d 2fae cc3d
00000070: 96b2 cc3d f3c1 cc3d 36b4 ccbd 28bb cc3d
00000080: 24c4 cc3d 48ca cc3d 02c8 cc3d f9c7 cc3d
00000090: 06c4 ccbd 28ca ccbd aeb7 cc3d cdc2 cc3d
000000a0: 60cb ccbd b9c2 ccbd 93c9 ccbd b8c7 cc3d
000000b0: 25c9 ccbd 4ab5 ccbd f4c7 ccbd 8e8d cc3d
000000c0: 0dc5 cc3d fac6 ccbd 3cca ccbd 2fc9 ccbd
000000d0: e0ca cc3d 51c9 cc3d e743 ccbd 39ca ccbd
000000e0: e2cb cc3d 1fcc cc3d 0fb7 ccbd 1dcc cc3d
000000f0: f0c9 cc3d f2cb ccbd dcc2 ccbd 49c0 cc3d
00000100: 46cb ccbd 1bc4 cc3d 58cb cc3d 59cb cc3d
00000110: cacb ccbd 04cb cc3d 57c8 ccbd 8ac0 cc3d
00000120: b5cb ccbd 76cc ccbd 21cc cc3d 92cc ccbd
00000130: 3ecc ccbd 72cc cc3d 36cc cc3d d1cb ccbd
00000140: 6ab6 cc3d 86cc ccbd b8cb cc3d 81cc ccbd
00000150: 61cc ccbd 6ecc ccbd 5acc cc3d 19cc ccbd
00000160: 25cc cc3d 9ccc ccbd b8cb ccbd 56cc ccbd
00000170: 53cc cc3d 87cc ccbd d2cb cc3d 65cc ccbd
00000180: b1cc cc3d 81cc ccbd 60cc ccbd b0cc ccbd
00000190: b4cc cc3d 9ecc cc3d 78ca cc3d 8fcc ccbd
000001a0: b3cc ccbd 84cc ccbd 55cc cc3d aacc cc3d
000001b0: afcc ccbd 9ccc ccbd 78cc cc3d 4fcc cc3d
000001c0: abcc ccbd 61cc cc3d 80cc ccbd 9ecc cc3d
000001d0: 8fcc ccbd 72cc ccbd adcc ccbd 95cc cc3d
000001e0: c3cc ccbd b7cc ccbd 91cc ccbd b8cc cc3d
000001f0: bccc ccbd 4dcc cc3d b1cc ccbd b1cc cc3d
00000200: abc3 ccbd d1c7 ccbd 2631 ccbd a4bf ccbd
00000210: b9c4 ccbd 5fb4 cc3d 38b8 cc3d 5da8 cc3d
00000220: 7faa ccbd 82c8 ccbd 2ab8 cc3d 25c1 ccbd
00000230: 73c7 ccbd 0ec3 ccbd d0c1 cc3d 45bf ccbd
00000240: 6ec9 cc3d 35b3 ccbd 246c ccbd 5dc7 ccbd
00000250: 8dc7 cc3d dcc5 cc3d 91fd c5bd cfc0 ccbd
00000260: 87c3 ccbd d9aa ccbd 98b2 cc3d d1c3 cc3d
00000270: ddbf ccbd 12b5 ccbd ca4b ccbd 4a9a ccbd
00000280: 44c4 cc3d 70ca ccbd f0c8 ccbd 09cb ccbd
00000290: 6c9c cc3d 64cb cc3d e8c8 cc3d e3c9 ccbd
000002a0: abcb cc3d 25cb ccbd 5cca cc3d 0ecc ccbd
000002b0: 7dc9 ccbd 0ac7 ccbd 6bcb cc3d adcb ccbd
000002c0: 00ca ccbd 13cc ccbd abcb cc3d 8fcb ccbd
000002d0: 42cc ccbd 35cc ccbd 09cc cc3d e4b1 ccbd
000002e0: 36c9 ccbd 83cc ccbd b6cb cc3d 5ecc ccbd
000002f0: 20c2 ccbd dfcb cc3d 61cb cc3d 02ca cc3d
00000300: 38cb cc3d 8dcc ccbd a9cb ccbd 93cc ccbd
00000310: 8ccc cc3d 75cc cc3d e9cb ccbd 4ccc cc3d
00000320: 09cc ccbd 40cc ccbd adcc ccbd 0ac8 cc3d
00000330: a0cc cc3d 6ecb ccbd 85cc ccbd accc cc3d
00000340: fdc7 cc3d aacc cc3d b7cc ccbd b6cc cc3d
00000350: b6cc cc3d 91cc ccbd abcc ccbd b8cc cc3d
00000360: 51cc ccbd c4cc cc3d b4cc ccbd c5cc cc3d
00000370: bccc cc3d b1cc ccbd b7cc ccbd c1cc cc3d
00000380: c0cc ccbd c9cc cc3d afcc ccbd c9cc cc3d
00000390: accc cc3d b4cc ccbd bfcc ccbd c6cc cc3d
000003a0: c5cc cc3d cacc ccbd 9ecc cc3d c9cc ccbd
000003b0: 69cc ccbd 78cc ccbd c2cc cc3d c9cc ccbd
000003c0: bdcc ccbd cacc cc3d a0cc cc3d c9cc cc3d
000003d0: a2cc cc3d c3cc cc3d c2cc ccbd c9cc cc3d
000003e0: a5cc cc3d cbcc cc3d c0cc cc3d cacc cc3d
000003f0: a4cc cc3d c6cc cc3d c2cc ccbd c9cc cc3d
-0.09996406 0.09996391 -0.0996357 0.099969245 0.09987561 0.099943176 -0.09995324 0.09996032
0.09996417 0.09997618 -0.09975266 0.09993182 0.099981636 0.09997028 -0.09995856 0.09992806
-0.09998556 0.09992794 -0.099984206 0.09998207 -0.099975154 -0.09998376 -0.099831454 0.099973984
0.09828177 0.099952765 0.09924599 0.099941604 0.09995 0.099979304 -0.0999531 0.09996635
0.09998348 0.099995196 0.09999086 0.09999079 -0.09998326 -0.09999496 0.099959716 0.09998093
-0.09999728 -0.09998078 -0.09999385 0.09999031 -0.09999303 -0.09995516 -0.099990755 0.09987937
0.09998522 -0.09998889 -0.09999511 -0.0999931 0.09999633 0.099993356 -0.09973889 -0.099995084
0.09999825 0.099998705 -0.09995853 0.09999869 0.09999454 -0.09999837 -0.09998104 0.09997613
-0.09999709 0.09998342 0.09999722 0.09999723 -0.09999807 0.0999966 -0.09999149 0.099976614
-0.099997915 -0.09999935 0.09999872 -0.09999956 -0.099998936 0.09999932 0.09999888 -0.099998124
0.0999573 -0.09999947 0.09999794 -0.099999435 -0.0999992 -0.09999929 0.099999145 -0.09999866
0.09999875 -0.09999964 -0.09999794 -0.099999115 0.09999909 -0.09999948 0.09999813 -0.09999923
0.09999979 -0.099999435 -0.09999919 -0.099999785 0.099999815 0.09999965 0.09999555 -0.09999954
-0.09999981 -0.09999946 0.09999911 0.09999974 -0.09999978 -0.09999964 0.09999937 0.09999906
-0.09999975 0.0999992 -0.09999943 0.09999965 -0.09999954 -0.09999932 -0.09999976 0.099999584
-0.09999993 -0.09999984 -0.099999554 0.099999845 -0.099999875 0.09999905 -0.09999979 0.09999979
-0.09998258 -0.099990495 -0.09970312 -0.0999749 -0.09998459 0.099953406 0.099960744 0.0999305
-0.09993457 -0.09999181 0.09996064 -0.09997777 -0.099989794 -0.09998141 0.09997904 -0.09997419
0.09999357 -0.099951185 -0.09981564 -0.09998963 0.09998999 0.09998676 -0.096675046 -0.09997713
-0.099982314 -0.09993524 0.099950016 0.099982865 -0.099975325 -0.09995474 -0.09975393 -0.09990366
0.09998372 -0.099995494 -0.09999263 -0.099996634 0.099907726 0.09999731 0.09999257 -0.09999444
0.09999784 -0.09999684 0.099995345 -0.09999858 -0.09999368 -0.09998901 0.099997364 -0.099997856
-0.09999466 -0.099998616 0.09999784 -0.09999763 -0.099998966 -0.09999887 0.09999854 -0.099948674
-0.099993154 -0.09999945 0.09999792 -0.099999174 -0.09997964 0.09999823 0.09999729 0.099994674
0.099996984 -0.099999525 -0.099997826 -0.09999957 0.09999952 0.099999346 -0.0999983 0.09999904
-0.09999854 -0.09999895 -0.09999976 0.09999092 0.099999666 -0.09999739 -0.099999465 0.099999756
0.09999082 0.09999974 -0.09999984 0.09999983 0.09999983 -0.099999554 -0.09999975 0.099999845
-0.09999908 0.099999934 -0.099999815 0.09999994 0.099999875 -0.09999979 -0.09999984 0.09999991
-0.099999905 0.09999997 -0.09999978 0.09999997 0.099999756 -0.099999815 -0.0999999 0.09999995
0.09999994 -0.09999998 0.09999965 -0.09999997 -0.09999926 -0.09999937 0.09999992 -0.09999997
-0.09999988 0.09999998 0.099999666 0.09999997 0.09999968 0.09999993 -0.09999992 0.09999997
0.0999997 0.09999999 0.099999905 0.09999998 0.099999696 0.09999995 -0.09999992 0.09999997

stu.hidden.0.stu.M_phi_minus f4 [8, 16, 8]
00000000: a080 ca3d cc1a cc3d 2542 cbbd 2515 cb3d
00000010: d034 cc3d c818 cbbd e0d9 cabd 2ca1 ca3d
00000020: fa36 cbbd 1107 cc3d 7254 c03d f210 cc3d
00000030: 7a04 ccbd 8289 cbbd 37cb c6bd b6ea ca3d
00000040: da86 cc3d 1e54 cc3d d49a ccbd 3618 ccbd
00000050: d97c cc3d e243 cc3d bb53 cabd 8364 cc3d
00000060: 241b cb3d 1363 cb3d a44b c83d 18ae ca3d
00000070: a2ca c83d 45d6 cabd 5d76 c7bd 723c c4bd
00000080: a28f ccbd bc12 ccbd f049 cc3d 9643 ca3d
00000090: b296 cc3d 3b6c cc3d 46b6 cabd b8d9 cbbd
000000a0: 6c87 cc3d e5ff cb3d 6daf ccbd 7858 cabd
000000b0: faa0 cabd 1b47 cc3d 9ed5 c9bd d77b cc3d
000000c0: 7061 cc3d 73b1 ccbd 92bf cc3d 5e9b ccbd
000000d0: a5bb ccbd 9aa8 ccbd 9cab cc3d bdb1 ccbd
000000e0: d1a8 cb3d 85b8 ccbd a7b9 ccbd 94b8 ccbd
000000f0: a0e4 cb3d 58b4 cc3d 92e4 cb3d dba8 cc3d
00000100: 40b7 ccbd e3c1 ccbd e190 cc3d 8ec2 ccbd
00000110: 03ba cc3d 4079 cc3d c3a2 cc3d ff5c ccbd
00000120: 0b71 cc3d 0ac2 cc3d 7bc3 ccbd dac2 cc3d
00000130: 4ebe cc3d 0ebc ccbd aebc ccbd 49c5 cc3d
00000140: 1ac6 cc3d 32c8 cc3d 6658 cc3d 82c6 cc3d
00000150: 37c4 cc3d 91c0 cc3d c6c5 ccbd 22a0 cc3d
00000160: 5dc1 ccbd 4fca cc3d a0c3 ccbd 9eca cc3d
00000170: 6dc6 cc3d 9ec6 ccbd 29c7 ccbd 2dc9 cc3d
00000180: 41cb ccbd cfc9 cc3d cc3f ccbd 19cb cc3d
00000190: 6ec1 ccbd c6c9 ccbd 3bc1 cb3d 9cc8 cc3d
000001a0: 88c9 cc3d 16cb ccbd 78cb cc3d 65cb ccbd
000001b0: e892 ccbd 01c3 ccbd a0ca cc3d 3aca ccbd
000001c0: b8ca cc3d 1ecb cc3d 89ca cc3d f3c2 ccbd
000001d0: 0fca cc3d dacb cc3d 7ac9 ccbd 6ac5 ccbd
000001e0: 5dcc cc3d 5bcc cc3d 7ccc ccbd 04cb cc3d
000001f0: 82cb cc3d 3ecc cc3d 82ca ccbd 0fcc cc3d
00000200: de6d cbbd 5ff6 cb3d 65f6 cb3d b506 cc3d
00000210: 4009 cc3d 2157 cc3d d52c ccbd e8b1 c93d
00000220: 8955 cb3d 5dd9 cb3d 7a10 ccbd 9f1d c73d
00000230: c519 cb3d 0bb5 ca3d 1625 c83d c4a9 cb3d
00000240: ad19 ccbd 4a2a ccbd ef7e c8bd 6a6d ca3d
00000250: 824f ccbd d091 cc3d 305b ccbd 51ed cb3d
00000260: b05c ccbd 8496 c93d 4b32 cb3d 658e cb3d
00000270: 8234 ccbd f084 cb3d a628 cbbd d872 cb3d
00000280: 6464 cc3d cc47 ccbd 6483 ccbd 388e ccbd
00000290: 8144 ccbd f681 ccbd 194e cc3d 4652 ccbd
000002a0: ee12 b13d cf35 ccbd dca4 cc3d c721 cc3d
000002b0: 8b91 ccbd 468c ccbd 389d cc3d 2e43 ccbd
000002c0: 0e8c ccbd 83ba cc3d 2e7d ccbd 5eb6 cc3d
000002d0: 6f8c cc3d e940 ccbd e2aa ccbd 0141 cc3d
000002e0: 63a3 cc3d 78c1 ccbd 44d5 cb3d adc0 ccbd
000002f0: db92 ccbd 04c4 cc3d 456c cc3d d27c ccbd
00000300: 2b0e ccbd 32c3 ccbd 72a2 cc3d 4fc2 ccbd
00000310: 4ebb cc3d 2fc3 ccbd 23a2 cc3d 46ac cc3d
00000320: 218a ccbd 11c4 ccbd 91c5 ccbd d6ac ccbd
00000330: 55bf ccbd 87bc ccbd 7ebc cc3d 3dbe cc3d
00000340: eca2 cc3d 12be cc3d 49bf ccbd 4a04 ca3d
00000350: 47c8 cc3d 0ac7 cc3d c4c6 ccbd 86c7 cc3d
00000360: f8c5 ccbd a9c6 cc3d f4b9 cc3d 84c9 cc3d
00000370: f4c9 cc3d f1c5 ccbd 9cc4 ccbd 00cb cc3d
00000380: bec9 ccbd a9ca cc3d 61cb ccbd aaca cc3d
00000390: 60c7 cc3d 39c0 cc3d c3c9 ccbd 4ecb cc3d
000003a0: 57cb cc3d 5cc1 ccbd 7aca ccbd 17cb ccbd
000003b0: 31bf ccbd adb4 ccbd b3c9 cc3d 70ca ccbd
000003c0: 9dbf cc3d 51c6 cc3d d7c9 cc3d 02c5 cc3d
000003d0: 31ca cc3d d4ca cc3d 15c7 ccbd 0dc8 cc3d
000003e0: 5acb cc3d 5ccb cc3d b2cb ccbd 1fcc ccbd
000003f0: fdc9 cc3d c1ca ccbd 3bcc cc3d d3ca cc3d
0.098878145 0.099660486 -0.099247254 0.099161424 0.09971011 -0.09916836 -0.099048376 0.09894022
-0.09922595 0.09962285 0.09391107 0.099641696 -0.09961791 -0.09938337 -0.09706729 0.09908049
0.099866584 0.099769816 -0.099904686 -0.09965555 0.0998475 0.09973885 -0.098792516 0.099801086
0.09917286 0.09931006 0.09780052 0.09896487 0.09804274 -0.0990415 -0.09739373 -0.095818415
-0.09988333 -0.09964511 0.0997504 0.09876172 0.0998968 0.09981581 -0.09898047 -0.09953636
0.09986767 0.099609174 -0.09994397 -0.09880155 -0.09893985 0.099745 -0.09855197 0.09984558
0.09979522 -0.09994783 0.09997477 -0.099905714 -0.09996728 -0.09993096 0.099936694 -0.099948384
0.099443085 -0.09996132 -0.09996348 -0.09996143 0.09955716 0.09995335 0.09955706 0.09993144
-0.0999589 -0.099979185 0.09988571 -0.09998046 0.099964164 0.09984064 0.09991982 -0.09978675
0.09982499 0.099979475 -0.099982224 0.099981025 0.09997235 -0.09996806 -0.09996925 0.09998567
0.099987224 0.09999122 0.09977798 0.099988 0.099983625 0.099976666 -0.0999866 0.099914804
-0.099978186 0.09999525 -0.0999825 0.09999584 0.09998784 -0.09998821 -0.09998924 0.09999309
-0.09999705 0.099994294 -0.09973106 0.09999675 -0.09997831 -0.09999423 0.09948965 0.09999201
0.099993765 -0.09999673 0.09999746 -0.09999732 -0.09988958 -0.099981315 0.09999585 -0.09999509
0.09999603 0.09999679 0.09999568 -0.09998121 0.09999477 0.09999819 -0.09999366 -0.09998591
0.09999917 0.09999915 -0.0999994 0.0999966 0.099997535 0.099998936 -0.09999563 0.099998586
-0.09933065 0.09959101 0.099591054 0.09962217 0.09962702 0.09977556 -0.099694885 0.09848386
0.09928424 0.09953568 -0.0996408 0.09722447 0.099170245 0.098978125 0.097726986 0.099444896
-0.09965835 -0.099690035 -0.09789836 0.0988415 -0.099761024 0.09988749 -0.0997833 0.09957374
-0.09978616 0.09843162 0.09921702 0.09939269 -0.099709526 0.09937465 -0.099198624 0.09934014
0.099800855 -0.09974632 -0.09985998 -0.099880636 -0.099740036 -0.099857256 0.099758334 -0.0997663
0.08646189 -0.09971201 0.09992382 0.0996738 -0.099886976 -0.099876925 0.099909246 -0.09973751
-0.09987651 0.09996512 -0.09984814 0.09995721 0.09987723 -0.09973318 -0.09993531 0.09973336
0.09992101 -0.09997839 0.099527866 -0.099976875 -0.09988948 0.099983245 0.09981588 -0.09984745
-0.0996364 -0.09998168 0.099919215 -0.09997999 0.09996663 -0.09998166 0.099918626 0.09993796
-0.099872835 -0.09998334 -0.0999862 -0.09993903 -0.09997431 -0.09996896 0.099968895 0.099972226
0.099920124 0.099971905 -0.09997422 0.09864099 0.09999137 0.09998901 -0.09998849 0.099989936
-0.09998697 0.09998829 0.09996405 0.099993736 0.09999457 -0.09998692 -0.09998438 0.09999657
-0.09999417 0.09999592 -0.09999729 0.099995926 0.09998965 0.09997601 -0.099994205 0.09999715
0.099997215 -0.09997818 -0.09999557 -0.09999674 -0.09997404 -0.09995399 0.099994086 -0.099995494
0.09997485 0.09998763 0.099994354 0.09998514 0.099995025 0.09999624 -0.099989094 0.09999094
0.09999724 0.09999725 -0.09999789 -0.099998705 0.09999464 -0.0999961 0.09999891 0.09999623

stu.hidden.0.rn_2.weight f4 [8]
00000000: e6c9 8c3f 7067 663f 2367 663f e269 663f
00000010: 2ca8 8c3f 8268 663f dfc7 8c3f 5867 663f
1.0999115 0.90001583 0.90001124 0.90005314 1.0988822 0.90003216 1.0998496 0.9000144

stu.hidden.0.mlp.swiglu.w.weight f4 [32, 8]
00000000: c58a 90be eb57 a03d d03a 553e 2024 a63b
00000010: 6791 80be 806e 833c fbb3 5b3e c843 63bd
00000020: 2a4b fa3d 94d2 39be 30da a3bd a45e 16bd
00000030: 11ca 32be 79ff 933e 59d9 2fbd d066 4bbc
00000040: a505 74bd ea1f 043d 86ff 933d f8b6 283d
00000050: 0072 103c dcd0 a6bd 8609 d23d 2f37 77bd
00000060: de1a 64be 3805 863c 1e98 8e3d 6012 843d
00000070: 1986 743e bc57 71be 5301 613e 5882 82bd
00000080: 9721 f93d 6068 b0bc 606f d9bd c081 42be
00000090: e056 2ebc 31a4 093e fad7 dfbd 641d bb3c
000000a0: 9ecd e63d 575c 88be 48cc 973c 303a 43bd
000000b0: dcbb 833d f4e0 e8bc e624 653e 8108 923d
000000c0: 20c4 a5bb 102b 92bc 2a57 aa3d 54cd 2b3e
000000d0: 9e19 443e f681 0e3d b4e0 ce3c d4ec f03c
000000e0: 3d21 a93d b7bc 31bd 074e 19be 1e27 91bd
000000f0: 95b4 053e 64b8 123e 603e 3abc 6ea0 063d
00000100: b35a 5ebe 50f2 a33d c057 a0bc 4898 a1bc
00000110: 2eb1 e53d d426 d4bd ee8e 21be 92ef 843e
00000120: 7688 2f3e 089e f73c 15b5 babd e5b9 1abe
00000130: d066 5d3e 5a3e 603d b288 31be 55ea 75bd
00000140: b15e cd3d 16a6 83bd 617e 12be 7974 20be
00000150: 2c75 61bd c19a d93d 21ec 143d 9c89 13bd
00000160: 2456 303e 1049 11be 3fc1 b1bd 1a84 2dbd
00000170: d0fa 803b 3d42 443d 7e80 5cbe c612 bebd
00000180: 0b0f 243e 5ed5 813e 9091 6bbd 1620 293e
00000190: 308a 4fbe 789c a1be fad6 a6bd 2dbe ccbd
000001a0: b745 58bd 844b 29be f4ff 06bd a84d 60be
000001b0: 8514 df3d 351a dc3d 8942 9c3d 6632 1dbe
000001c0: 92ba 723e a60c d6be b8cc 11be 17e6 493d
000001d0: 1a13 133d 74d2 edbc e094 a2bd 4c74 39be
000001e0: 7e3c 053d 172d 063e b46f 8d3c a6b0 98bd
000001f0: 493d 8c3e 1052 53bc 8137 90be e9a1 aabd
00000200: c093 8e3c ac4b 6c3e b4a6 2d3e 3411 e5bc
00000210: 625f 0ebd 175e 6bbe abbb bf3d d43d 923c
00000220: d23f 31be bc6e edbd c0be 4cbb e02a 01be
00000230: 1bf5 fc3d e8e3 1f3e 9cac a5bc be08 34bd
00000240: 96a3 adbd d676 aa3d 4c17 ffbc 9b64 c4bd
00000250: 2052 20bc 4feb edbd 2b60 8c3e 6c25 e13d
00000260: dd3f 303d 08bb 523e 640e 6e3e 9a31 8d3e
00000270: f872 85bd 0864 09be 9567 123e 0d6c 3cbe
00000280: a608 ff3d 4d78 0c3e d84f c23c 1e22 e93d
00000290: cfa8 a93d cb52 52be 0291 35be 0c2e cabd
000002a0: 0167 dc3d 747e 2c3e 50f2 263c 0252 0d3e
000002b0: 8ef8 b4bd 64c3 d0bc 1154 c0bd 02bc a0bc
000002c0: 607e 9b3d a176 793e 8087 b6bd dcd9 8ebc
000002d0: 623a 0cbe 0071 16bc 5af2 253e da9b 24be
000002e0: 4c7f de3d 68c4 183e d4d1 333e 9c09 033d
000002f0: a230 2ebd dbd1 72be 5bba 15be 89b0 193d
00000300: c16c 3fbe b082 46bd f90f 503e 9a5d 293e
00000310: 1805 aa3c 693a 23be 4860 65bc 2e6e 33be
00000320: 6edb 7e3d c800 0b3c 7d7e 243e a8b1 3b3c
00000330: 6c49 253e 9ea5 04be 0ce3 e93d 3fba d03d
00000340: 7cc3 0a3e b849 bfbd 28cb 62be b07b 38be
00000350: b0ac f4bd b0ac 3d3e 9afe 083e 9077 373e
00000360: 9045 c2bb 97b7 e1bd 7075 673d f09c d33d
00000370: f8e8 46bc 7d3c 703d 2435 8d3e f8a6 4fbc
00000380: 625a c13d 8b9a c93d 418b 4b3e f49e bfbd
00000390: 0602 8dbd 8083 a83b b0e2 a4bb d780 333e
000003a0: e80f 47be 3ee5 dd3d 1956 8c3d 9539 5b3d
000003b0: 8936 8abd 9d9b b8bd 4d26 1f3e 90ac 603c
000003c0: dc48 62bd 902e aabb 785d d93c 6ebc 39bd
000003d0: 004d 9fbd 773b ba3d 7af5 293d 85ab ddbd
000003e0: 08c7 883e 1067 6dbc 9925 09be 30f0 02bd
000003f0: e764 693d 0c47 7bbd 4894 80bc 7498 48be
-0.28230873 0.07829269 0.20823216 0.0050702244 -0.25110933 0.016043901 0.21455376 -0.055484563
0.12221368 -0.18146735 -0.080006 -0.03671135 -0.17459895 0.28905848 -0.04293189 -0.012414649
-0.059575696 0.032256998 0.072264716 0.041190118 0.008816242 -0.081453055 0.10255723 -0.06035536
-0.22275874 0.01635991 0.06962608 0.06448817 0.23879279 -0.23568624 0.21973161 -0.06372517
0.1216461 -0.021534145 -0.10616946 -0.18994808 -0.01064083 0.1344154 -0.10929866 0.022841163
0.11269687 -0.2663295 0.018530026 -0.047662914 0.06432316 -0.028427579 0.22377357 0.07130528
-0.0050587803 -0.0178428 0.083174065 0.16777545 0.19150397 0.03479191 0.025253631 0.029409803
0.08258293 -0.043392863 -0.14971171 -0.07087539 0.13057168 0.14328152 -0.01136741 0.03286784
-0.21714287 0.08005202 -0.019573092 -0.019725934 0.11215435 -0.103589684 -0.1577718 0.25964028
0.171419 0.030226722 -0.0911657 -0.15109976 0.21621251 0.054746963 -0.17337301 -0.06003793
0.100278266 -0.06428163 -0.14306022 -0.15669431 -0.055043384 0.1062522 0.036358003 -0.036019906
0.1722036 -0.14188027 -0.08679437 -0.04236231 0.003936149 0.047914732 -0.21533391 -0.092809245
0.16021363 0.253581 -0.057511866 0.16516146 -0.20267558 -0.3156469 -0.08146472 -0.09997211
-0.05280086 -0.16532713 -0.03295894 -0.21904624 0.10892586 0.10747186 0.07629878 -0.15351257
0.23703983 -0.41806525 -0.1423825 0.049291696 0.03590689 -0.029031016 -0.07938552 -0.1811077
0.032528393 0.13103138 0.017265178 -0.07455568 0.27390507 -0.012897983 -0.28167346 -0.08331663
0.017404437 0.23075742 0.16958123 -0.027962305 -0.034758933 -0.22985111 0.09361967 0.017851748
-0.17309502 -0.115933865 -0.0031241626 -0.12614012 0.12351438 0.15614283 -0.020223908 -0.04395365
-0.08478467 0.083234474 -0.031139039 -0.095895015 -0.009785205 -0.11617147 0.2741712 0.10993466
0.043029655 0.2057916 0.23247677 0.27576905 -0.06516069 -0.13417065 0.14297326 -0.18400593
0.124528214 0.13717766 0.023719713 0.113834605 0.08284151 -0.20539396 -0.17731097 -0.09872064
0.10761834 0.16845113 0.010189608 0.13800815 -0.088364705 -0.025483795 -0.093910344 -0.0196209
0.075924635 0.2436166 -0.08912563 -0.017437868 -0.13694146 -0.009182215 0.16205731 -0.16075078
0.10864124 0.14918673 0.17560512 0.031991586 -0.04252685 -0.23712866 -0.1462187 0.037521873
-0.1869383 -0.048464477 0.20318593 0.16539612 0.020754382 -0.1594025 -0.014000006 -0.17522499
0.062220983 0.008484073 0.16063876 0.011455931 0.1614129 -0.12953803 0.11420259 0.101917736
0.13551134 -0.093402326 -0.2214781 -0.18015933 -0.11947 0.18522906 0.13378373 0.17916703
-0.0059287027 -0.11021345 0.05650848 0.10332668 -0.012140505 0.058651436 0.27579606 -0.012674086
0.09441067 0.0984393 0.1987734 -0.0935649 -0.068851516 0.005142629 -0.005031906 0.17529617
-0.19439662 0.1083474 0.06852359 0.05352171 -0.06748683 -0.09014056 0.15541954 0.013713017
-0.055245265 -0.005193539 0.026533827 -0.045345716 -0.077783585 0.09093373 0.04149387 -0.108237304
0.2671435 -0.014489904 -0.13393249 -0.031967342 0.056980994 -0.061347052 -0.015695706 -0.19589406

stu.hidden.0.mlp.swiglu.v.weight f4 [32, 8]
00000000: 6a2c 2cbe a823 023e b48e c8bd a2d0 0d3d
00000010: b44b a73d cb05 0bbe ec6f 06be edc3 4a3d
00000020: 0288 8dbd d293 29be 18c5 c9bd 347d 48be
00000030: 4fb7 3b3e b48f dd3d 71d8 c4bd 5454 9b3c
00000040: 4cf3 f4bd 7cbb fcbd df0e 4ebd edfc 7abd
00000050: 320c a23d 0552 d5bd ba4e afbd 9870 c23c
00000060: 5667 1ebe 081d 1a3e 789a 45be 3a1c 0cbe
00000070: 0a4a f93d 1c20 c03d c28c e6bd f004 ae3d
00000080: 2e02 cf3d 5691 4dbd 6e43 babd 45a9 a7bd
00000090: f050 a53d 737e 7d3d 6ea2 c2bd f41f 0ebd
000000a0: 2e6e a4bd 7602 0e3d 411b a83d 722d 363d
000000b0: ea4f ec3d 726c 2ebe 9f68 1e3e e870 233e
000000c0: 98ac 763c 0bf5 7b3d 7047 4dbc 8fb0 ed3d
000000d0: 97fd 923d 7c7e d1bc 2dec fdbd b5c1 ab3d
000000e0: cb19 dcbd fbbe c6bd 32a1 ff3d 4151 153e
000000f0: 9eae f23d 0010 b8bd 8f1a 423d 40c5 b83d
00000100: 8f2a 15be e641 e4bd b676 babd 7002 a1bc
00000110: 29ca 833e 1641 b33d 2940 b6bd 803f 023e
00000120: aba4 b5bd 9e83 743d 416b f93d 424a b93d
00000130: 8566 03be 894d aebd 5bc2 243d e41b 373d
00000140: 87c5 03be 99a3 d03d 6f03 7fbd 52d4 dc3d
00000150: 9d15 943d 126c cebd b65c 0bbe 5493 b3bd
00000160: 7695 ed3d d8a6 e5bc 3cf0 773e dada 103e
00000170: 18bd 853d 14ef 573d 0c74 373d f453 9b3d
00000180: 4122 2fbe 90c0 143d 9306 1c3e 4840 fc3d
00000190: 544b 89bd ca03 17be 1175 de3d 8688 83bd
000001a0: 9077 cebd 4072 3a3d a3be 173e f3f9 aabd
000001b0: ee21 e0bd f0f1 e9bd fe19 2d3d 48de 42bc
000001c0: 2866 423d a89f b8bd 5047 23be 70a3 15be
000001d0: 6ad0 30be 03f6 703d b00c c0bd bdf9 b9bd
000001e0: 7423 e43d 9adb cdbd e20e 2a3d afdf 03be
000001f0: 6603 31be 7bb6 d33d 2ed2 c0bd 06cf 35be
00000200: a2ef 50be a88e 913d 4259 913d 5bf1 b1bd
00000210: abab a0bd 224f a7bd e65e e33d dcd3 85bd
00000220: 8ebc ef3d 16eb 58bd f790 11be c682 9bbd
00000230: 42fe a3bd 22ae 0d3e 8183 94bd c0d8 19bc
00000240: 3163 073e 0517 01be ec59 68bd 506e cabd
00000250: a0e2 f4bc fe6b 873d 1c09 123e 2705 a93d
00000260: 8c20 de3d c087 dfbd 2c18 eebd dad9 b8bd
00000270: f352 3cbe 8459 c63d b72d afbd 2861 a6bd
00000280: b182 ee3d 870f cf3d 173f 073e 876b cdbd
00000290: b1ed ccbd 73d5 c23d ffcd 053e c32a 40bd
000002a0: 7e67 053e c19c d3bd 5521 07be 629d 77bd
000002b0: 1faf ec3d eebe 9bbd 30ec 163e c906 a43d
000002c0: f4f7 333e 6bc3 cabd df42 c3bd 5fe3 f33d
000002d0: 524f c73d 8aa0 383e bab7 19be 8c98 9c3d
000002e0: 9a13 d73d ef6d 1fbe e075 88bd 62f1 4abe
000002f0: 97e4 8ebd bad7 343d 649a 43bd d45e ae3c
00000300: ea3b 07be a025 0a3e 51fd 0a3e 9e46 da3d
00000310: 6852 963d 6da0 4dbe 6a88 18bd f00c a0bd
00000320: d22a e6bd c8bc 87bd ef6b b6bd 7a7f 4cbd
00000330: a671 803d 9415 2bbe fcc2 0d3e 4689 ea3d
00000340: 0870 fbbd 4013 493e f1f5 063e e5f5 813d
00000350: 64df 0b3e c52c d7bd 748a e2bd d6f4 41be
00000360: 7eab 31bd 18ab 693d 6e79 c1bd 1948 0bbe
00000370: c82b cebc cc3c f5bd 9758 a53d c0c0 63bd
00000380: a49c 1a3e 380f bc3d 4ab1 823d a592 153e
00000390: 043e 0bbe adf6 dabd 9c1c d33d 7404 f23c
000003a0: d647 19be 522d 4e3e 1984 4fbd 872e f5bd
000003b0: df86 6c3d 3a21 e2bd 2391 97bd 2c26 03bd
000003c0: 40c8 84bc b0f8 d13c 1b85 493d 1e27 0b3e
000003d0: dec1 a23d a6b0 abbd 3793 573d c2b3 833d
000003e0: ade4 863d 90f4 c9bb cc1c bbbd f48b 8fbc
000003f0: 3419 213e 4090 f13c a7bb 1abe 0b5e 04be
-0.16813818 0.12708914 -0.097928435 0.034622796 0.08168736 -0.13576429 -0.13128632 0.049503256
-0.06910707 -0.16560295 -0.09852046 -0.19579011 0.18331645 0.10818425 -0.096115954 0.01896111
-0.11960468 -0.12340447 -0.05030715 -0.061276365 0.07912482 -0.104160346 -0.08559938 0.02373533
-0.15469107 0.15050137 -0.19297206 -0.13682643 0.12172325 0.093811244 -0.11257316 0.084970355
0.101078376 -0.05018743 -0.090948924 -0.081865825 0.08072078 0.06188817 -0.09503637 -0.03469844
-0.080288276 0.034670316 0.08208323 0.044476934 0.1153868 -0.17033556 0.15469597 0.15961039
0.015055798 0.061512988 -0.012529239 0.116059415 0.07177275 -0.025573008 -0.123985626 0.08386556
-0.10747107 -0.097043954 0.124819174 0.14581777 0.11849712 -0.08987427 0.04738861 0.090219975
-0.14567016 -0.11145382 -0.091046736 -0.019654483 0.25740173 0.087526485 -0.08898956 0.12719536
-0.088692985 0.059695832 0.1217866 0.09047367 -0.12832077 -0.085108824 0.040224414 0.044704333
-0.1286832 0.10187454 -0.062259134 0.107826844 0.07230685 -0.100792065 -0.13609585 -0.08768335
0.11600773 -0.028033659 0.24212736 0.14145985 0.065302074 0.052718237 0.044788405 0.07584372
-0.1710291 0.036316454 0.15236883 0.12316948 -0.06703821 -0.14747539 0.108621724 -0.06422524
-0.100813985 0.045519114 0.14818816 -0.08348455 -0.109439716 -0.11423099 0.042261116 -0.011893816
0.047460705 -0.09014827 -0.15945172 -0.14613128 -0.17267004 0.058828365 -0.0937742 -0.09080837
0.11139575 -0.10051651 0.0415181 -0.12878297 -0.17286453 0.1033754 -0.094150886 -0.17754754
-0.20403913 0.07107288 0.07097103 -0.08688613 -0.07845243 -0.0816939 0.11102085 -0.065345496
0.11705886 -0.05295857 -0.14215456 -0.075933024 -0.0800748 0.13835958 -0.07251645 -0.009390056
0.13221432 -0.12606438 -0.05672638 -0.09884322 -0.02989322 0.06612395 0.14261287 0.08252936
0.108460516 -0.10914564 -0.11625704 -0.09025927 -0.18391018 0.096850425 -0.08553641 -0.08124
0.11646021 0.101103835 0.1320766 -0.10030275 -0.100062735 0.095133685 0.13066863 -0.04691578
0.1302776 -0.10332633 -0.13196309 -0.060452826 0.11556839 -0.07604776 0.14738536 0.08009107
0.17575055 -0.09900554 -0.09534239 0.11908602 0.09731926 0.18029991 -0.15011492 0.076462835
0.105017856 -0.1556928 -0.06663108 -0.19818643 -0.06977194 0.044151045 -0.04775466 0.021285452
-0.13206449 0.13490915 0.13573195 0.106580004 0.073399365 -0.20080729 -0.03723947 -0.07814968
-0.11238636 -0.06627804 -0.089073054 -0.04992626 0.06271677 -0.1670745 0.13843912 0.11451964
-0.12277228 0.1963625 0.13179757 0.06345729 0.13659436 -0.10506586 -0.11061564 -0.18941054
-0.04337644 0.057047933 -0.09446989 -0.13601722 -0.02516736 -0.11974487 0.08073538 -0.055603743
0.15098816 0.0918259 0.063814715 0.14606722 -0.13597876 -0.10691581 0.10308191 0.029543139
-0.1496881 0.20134476 -0.050663088 -0.11971765 0.05774581 -0.11041494 -0.074007295 -0.032018825
-0.016208768 0.025631279 0.049199205 0.13589141 0.079471335 -0.083833024 0.05263063 0.064307705
0.06586585 -0.0061631873 -0.09136352 -0.01752279 0.1573227 0.02948773 -0.15110646 -0.129265

stu.hidden.0.mlp.swiglu.w2.weight f4 [8, 32]
00000000: 3bfc fa3d 1867 e73d 2bbc c4bd 10d9 d43d
00000010: 168f 883d 0728 9e3d 23f2 fa3d 4e82 9fbd
00000020: 95c6 dabd 6bca 8bbd 4805 1ebe afcb 5cbd
00000030: 3ad2 f93d aba7 cd3d adde d6bd fa53 f0bd
00000040: 9686 8dbd 1f50 a13d 583d d6bd 749f b7bd
00000050: 6ff2 003e 1e51 c8bd 7693 f0bd c003 a3bd
00000060: 4d79 cc3d 4e68 fabd 386d d2bd 888f 9ebd
00000070: 6357 b53d a90c 72bd 279c a5bd 9484 a93d
00000080: 32df 273d c80a ebbd 575d 9b3d e1bd 85bd
00000090: 4952 c3bd 016d f2bd 781d eabd 8c46 aebd
000000a0: a65e c63d bef9 e23d cf85 913d eaf0 033e
000000b0: d60d f9bd 800c f0bd 54b0 d2bd c005 953d
000000c0: 2d5e d53d 0d12 b5bd a4ea 923d 0781 fd3d
000000d0: e842 d1bd 2600 c23d 4868 b83d 76d0 cc3d
000000e0: 261d bbbd 44dd e13d 3e27 a73d 9e3d e0bd
000000f0: e6fb dbbd cb57 f23d 39e7 d73d 7e5d e0bd
00000100: ac98 d8bd 7696 14be 6895 c9bd d003 003e
00000110: 44ec c63d 6cb7 a6bd 8444 96bd d4fb b63d
00000120: 0e86 143e 2bee febd 8523 ad3d 007c 9a3d
00000130: fc25 bcbd 5854 8d3d 9e17 873d c009 bc3d
00000140: 6385 b03d 7e09 8b3d f76e b7bd da88 c6bd
00000150: a363 cebd 6982 9fbd 4ba9 afbd b259 d93d
00000160: 2e12 e0bd e29e cc3d 9b49 bdbd 640e 92bd
00000170: b947 92bd 9435 94bd e489 9fbd 4ae8 ae3d
00000180: 0c23 92bd e865 84bd f05b da3d 508c a6bd
00000190: c3eb adbd 5bba d9bd 447a abbd 6941 d2bd
000001a0: b76f 9c3d 4358 803d b0f9 f03d 6a26 d53d
000001b0: d6fa 0abe 3d6f fb3d 188b debd 6af3 b53d
000001c0: 6d13 e63d 7620 c4bd 82d8 ce3d 5fe7 e03d
000001d0: 352d fcbd c96b d63d 346f fa3d e647 053e
000001e0: e772 e6bd 867e d33d 2e30 fb3d 2cfd f63d
000001f0: e59e 87bd 664e cb3d f31a af3d b22e 8bbd
00000200: 0057 0a3e b1a1 d0bd 3c91 e8bd 6155 093e
00000210: aecc e93d a36e dcbd d22c c23d 1a9a f1bd
00000220: e4a1 b9bd 3ca0 03be a744 aebd fdfa e4bd
00000230: 2bc6 103e 42c7 04be 69d8 08be cab7 b13d
00000240: e873 b2bd a29f 9c3d 4c35 e8bd 43c8 b53d
00000250: 7f73 da3d eb5d cbbd 8139 c4bd 9847 9cbd
00000260: a7ce 993d 86f7 e9bd a7d8 d23d 979f 00be
00000270: 36ac c63d 1675 c43d 350a 0abe c518 cabd
00000280: 3ee7 003e 1032 dc3d d62f 46bd 5d26 cdbd
00000290: cae5 edbd e4d9 c0bd 7b98 a83d b49e 893d
000002a0: 9803 fdbd 6295 ab3d 986e 14be cbd0 c3bd
000002b0: c4ec 00be e457 e23d b411 c5bd 1efc fe3d
000002c0: 35de 93bd 36ea f93d feea ebbd 4f66 d9bd
000002d0: a9ab b13d b6fc b7bd 0453 c53d 7007 c53d
000002e0: dc43 d23d 405b 253e cde2 8dbd e141 9ebd
000002f0: b0c0 d73d ec39 87bd 472b b8bd bb28 df3d
00000300: da1e a53d 665c da3d b2b7 8dbd 14e4 9c3d
00000310: fa54 0b3e 3e7e fe3d 5d68 c93d ee1e ac3d
00000320: 01bd b6bd 9ccf 0abe 576c d1bd f6b0 023e
00000330: f23f c8bd 7652 99bd 14fc db3d a403 87bd
00000340: 13c6 a5bd aaa6 d13d 042a 9abd 5294 48bd
00000350: 2634 bb3d b730 be3d 03a8 babd 726e b7bd
00000360: c191 ae3d c44c dcbd d500 07be 3a46 a2bd
00000370: df62 00be 4aa8 b2bd 98e7 05be 53a0 e23d
00000380: 5898 8c3d d2cc fcbd fc49 b13d b0d0 debd
00000390: fc24 8cbd fb88 80bd 76e6 adbd ba5f a0bd
000003a0: 182f bb3d 9519 da3d b9a8 ad3d eade b8bd
000003b0: 03d2 913d de43 a9bd d93a f5bd 6ecd a93d
000003c0: 1e6b ca3d b083 a9bd 0e13 903d 7196 073e
000003d0: aa9a 97bd bc5a de3d 418e aa3d 3991 fb3d
000003e0: 34a9 d0bd 5a50 6b3d a466 033e 841a ac3d
000003f0: 9f93 bb3d 2a14 ce3d 7b86 8c3d c09d babd
0.122551404 0.112989604 -0.09606203 0.10392964 0.066679165 0.07722478 0.12253215 -0.077885255
-0.10682408 -0.068257175 -0.15431702 -0.053905185 0.12198301 0.10041746 -0.10491691 -0.11734767
-0.06910436 0.0787661 -0.10460919 -0.0896596 0.12592481 -0.09781097 -0.11746876 -0.079597
0.09984074 -0.12226926 -0.10274738 -0.0774222 0.08854558 -0.059094105 -0.08086424 0.082772404
0.04098434 -0.11476666 0.075861625 -0.06530357 -0.09537179 -0.11837197 -0.11431402 -0.085095495
0.096860215 0.11082791 0.071056 0.1288487 -0.12160842 -0.11721134 -0.10287538 0.07276487
0.10418353 -0.088413335 0.071736604 0.12378126 -0.102178395 0.094726846 0.09004265 0.10000698
-0.09136419 0.11028531 0.08161782 -0.109492525 -0.10741405 0.118331514 0.10542149 -0.10955332
-0.10575995 -0.14510521 -0.0984295 0.12501454 0.09713033 -0.08140454 -0.07337287 0.08934751
0.14504263 -0.12447771 0.084540404 0.075431824 -0.091869324 0.06900853 0.065963015 0.09181547
0.086191915 0.0678892 -0.08956712 -0.09694071 -0.10077598 -0.07788546 -0.08577212 0.10612811
-0.109409675 0.09991242 -0.09242555 -0.07131651 -0.07142586 -0.07236782 -0.077899724 0.085403994
-0.07135591 -0.064647496 0.10662067 -0.08132231 -0.084922336 -0.106312476 -0.0837293 -0.10266382
0.076384954 0.062668346 0.11766374 0.104077175 -0.13572249 0.122770764 -0.10866374 0.08884318
0.11234174 -0.09576504 0.10099889 0.109816305 -0.1231331 0.10469777 0.122282416 0.13015708
-0.11252385 0.10326867 0.12265049 0.120600075 -0.066221036 0.09927063 0.08550062 -0.06796016
0.1350975 -0.1018709 -0.11355826 0.13411476 0.11415993 -0.1076329 0.09481205 -0.11796971
-0.09064081 -0.12854093 -0.08509188 -0.11180685 0.14138095 -0.12966636 -0.13363804 0.08677633
-0.087135136 0.07647635 -0.113382906 0.088760875 0.106665604 -0.09930023 -0.095812805 -0.07630843
0.07510119 -0.114241645 0.102952294 -0.12560879 0.097008154 0.09592645 -0.13480456 -0.09868006
0.12588212 0.10751736 -0.048385464 -0.10017083 -0.116160944 -0.09416559 0.08232208 0.06719723
-0.12354201 0.08378102 -0.14495313 -0.095613085 -0.12590319 0.1105192 -0.09622517 0.12450431
-0.07220117 0.12202875 -0.115194306 -0.10615217 0.0867532 -0.08983748 0.096349746 0.09620559
0.102668494 0.1614809 -0.069280244 -0.07727409 0.10534799 -0.066028446 -0.089926295 0.108964406
0.08062525 0.10662155 -0.06919803 0.0766069 0.13606635 0.124264225 0.09834359 0.08404337
-0.089227684 -0.13555759 -0.10225742 0.12762818 -0.097778216 -0.07486431 0.107414395 -0.06592491
-0.0809442 0.10236867 -0.07527545 -0.048969574 0.09140806 0.09286635 -0.09114077 -0.08956613
0.08523894 -0.107568294 -0.13183911 -0.07923551 -0.12537716 -0.08723505 -0.13076627 0.11065736
0.06864995 -0.12343754 0.086566895 -0.10879648 -0.06842992 -0.06276127 -0.084912226 -0.078307584
0.09139842 0.10649411 0.08479447 -0.090268925 0.07120135 -0.08264898 -0.11974115 0.08291136
0.09883712 -0.082770705 0.070348844 0.13240983 -0.07402547 0.1085715 0.08327914 0.122835584
-0.10188523 0.057449676 0.12832123 0.08403495 0.09159016 0.1006244 0.068615876 -0.0911212

stu.hidden.1.rn_1.weight f4 [8]
00000000: 6c66 663f 6b66 663f cbcc 8c3f cccc 8c3f
00000010: cbcc 8c3f cccc 8c3f cccc 8c3f cbcc 8c3f
0.90000033 0.9000003 1.0999998 1.0999999 1.0999998 1.0999999 1.0999999 1.0999998

stu.hidden.1.stu.M_u f4 [8, 3, 8]
00000000: 5274 1cbe 5080 42bc 9626 76be 6e9e cf3d
00000010: a10f 98bd 4815 873d 279b d23d d896 afbc
00000020: 53e4 87be 4ef7 883d 3821 163c 82d1 363e
00000030: f26f 49be a841 8cbc 48dc 0dbe a218 4d3e
00000040: e1db cf3d 14d3 31be 80fd 313d ceed 473d
00000050: 0622 59bd f84f 35be d877 7bbc 81b4 f73d
00000060: 5d8d 8a3d e8da be3c 80ed 853d e47c 1f3e
00000070: d8fb 483e 5089 6b3e 7da3 de3d d6b3 363e
00000080: 1e05 1fbe a67d d93d d833 243d 0add a93e
00000090: 1dd3 ffbd 9f20 a43e 091d a3be 42cd 48bd
000000a0: 6bd3 e6bd 72eb 9d3d fd27 a23e 8c41 30bd
000000b0: ac3f 113e 91bf 883d 50da 173d a009 6c3b
000000c0: c428 9abd e819 fe3d 1258 a93d 2473 6b3e
000000d0: b4d6 843d 12c2 95be 6d89 eb3d fbb2 ee3d
000000e0: 8618 2fbe 2c72 07bd 069a 76be fac2 723e
000000f0: b40f 993c 7eca 98be 74d7 eabd a224 603e
00000100: f4e7 50be 0ffb 883d d863 1dbd 2333 153e
00000110: 78fb 02be fa7d 093e 5c13 11be 4860 813e
00000120: 4885 bdbd 9886 023e 669f 22bd b7e2 e63d
00000130: 506d 203e 3278 443d 33df 92be 0813 863e
00000140: 126a 61be 525f 143e 481d 253d 7f63 f83d
00000150: 6386 753e a58b 353e 28b5 80be b069 ae3b
00000160: 90b3 44bd 643a 0d3e 6565 21be 608a 533b
00000170: 64d2 b1bd e8a1 2dbd dca7 97bd 3ee4 5e3e
00000180: 4c91 613e cdc7 f6bd a080 38bb a30e f0bd
00000190: 45bb b23d dd2e bc3d 445c 3d3e 6436 be3c
000001a0: ec69 4a3d 4610 553e f767 a63d c061 883a
000001b0: 918f 6b3e 8d15 9fbd 4c37 e53c 7489 8bbe
000001c0: 5a09 613e 4c58 0e3e 5858 933e 1fdd 6cbe
000001d0: 4cdf 5b3e 2edd 903e a410 9b3e d832 ebbc
000001e0: 3eed aebd e84c 65be 98b9 7dbd 5af7 3abe
000001f0: 97a6 f2bd e9c9 efbd 8b15 d9bd 65ea b93d
00000200: 9f21 92bd 70d7 85be 6010 98bc cae4 17bd
00000210: 7846 89be 8131 8bbe 02e2 513d f18f b3bd
00000220: 149a c23c 9890 a0be a125 3abe 71c8 84bd
00000230: 222a 503d f60d f3bd 1470 b0bc 2939 54be
00000240: c33b 0a3e 78ae 733e 2ef5 68be 9758 85bd
00000250: 0855 5e3e 774e 86be d094 abbe d678 313e
00000260: bbd1 edbd 0c78 a83e ea65 65be 1119 e5bd
00000270: d66f 1d3e 2357 a3bd 484a ffbd bc2e 823d
00000280: e870 aabe e22f 053d 1f16 d43d 1239 243e
00000290: 2e63 c9bd 5762 66be be9d bc3d f2b3 ab3e
000002a0: 4261 19be ecb4 503e 9433 f7bd 7cb6 183e
000002b0: 9a80 a83d c049 abba 0a22 9dbe 8c7b e6bd
000002c0: 6e16 97be a34c ab3e e537 083e 20c2 7c3d
000002d0: 20c3 183e d97a 17be d4fc e6bc c814 2cbd
000002e0: c230 11bd 9557 03be acd8 8ebd 2479 ef3c
000002f0: d736 a43e 5f08 4dbe a6cc 2fbe 40b3 2b3e
-0.15278748 -0.011871412 -0.24038157 0.1013764 -0.07424856 0.06595856 0.10283499 -0.021434233
-0.26541385 0.066877946 0.009163193 0.17853358 -0.1967161 -0.017121151 -0.13853562 0.20028928
0.101493604 -0.17365676 0.043454647 0.048810773 -0.053010963 -0.17706287 -0.015348397 0.12094975
0.06765244 0.023297742 0.0653944 0.15574986 0.19627321 0.230016 0.10871027 0.1784204
-0.15529296 0.10619669 0.040088505 0.33176452 -0.124914385 0.32056138 -0.3185809 -0.049023874
-0.112707935 0.07710923 0.31671134 -0.04303126 0.14184445 0.066771634 0.037073433 0.003601648
-0.07527307 0.12407285 0.08268751 0.22993141 0.06486264 -0.29249626 0.11500821 0.116552316
-0.17099199 -0.033067867 -0.24082193 0.2370719 0.018684246 -0.2984199 -0.11466876 0.21888974
-0.20400983 0.066885106 -0.038425297 0.14570288 -0.1279124 0.13426962 -0.14167541 0.2526877
-0.09253937 0.12746656 -0.039702795 0.11273711 0.156667 0.04796619 -0.28685912 0.26186395
-0.22013119 0.14489487 0.040311128 0.121283524 0.23977046 0.17729051 -0.2513821 0.0053226575
-0.048022807 0.13791806 -0.15761335 0.0032278523 -0.08682707 -0.042390734 -0.074050635 0.21766755
0.22028083 -0.12049828 -0.0028152838 -0.11721542 0.08727125 0.09188626 0.18492228 0.023219295
0.04941742 0.20806989 0.081252985 0.0010405108 0.23003985 -0.07767782 0.02798047 -0.27253306
0.21976224 0.1390087 0.28778338 -0.23131226 0.214719 0.28293747 0.30286133 -0.028710768
-0.08541344 -0.22392619 -0.061944574 -0.1825842 -0.11848181 -0.11708433 -0.10599812 0.0907791
-0.07135319 -0.26140928 -0.018562496 -0.037083425 -0.26811576 -0.27186206 0.05124093 -0.08767689
0.02375511 -0.31360316 -0.18178417 -0.06483544 0.05082143 -0.11867897 -0.021537818 -0.2072493
0.1349936 0.23797023 -0.22749779 -0.06511038 0.21712124 -0.2623174 -0.33511972 0.17331252
-0.116122685 0.32904088 -0.22402158 -0.11186422 0.15374693 -0.079756044 -0.1246534 0.0635657
-0.33289266 0.032516368 0.10355782 0.16037396 -0.0983337 -0.22498451 0.092097744 0.33535725
-0.14978507 0.20381516 -0.120703846 0.14913362 0.08227654 -0.0013068244 -0.30690032 -0.112540334
-0.295093 0.33456907 0.13302572 0.06170857 0.14918184 -0.14792956 -0.02819673 -0.042012006
-0.03544689 -0.12826379 -0.06974921 0.029232569 0.3207309 -0.20022725 -0.17167911 0.16767597
