checkpoints/sssm-Walker2D-v1-model_step-0-2024-11-18-22-01-56.pt (torch, 34442 bytes, 18 tensors)

emb.weight f4 [8, 24]
-0.13647982 -0.098003745 -0.10845944 -0.35175616 -0.14771983 0.09447391 -0.0020008609 0.20358919
-0.20352668 -0.09117921 -0.23768872 -0.16134965 -0.16727139 0.023215234 0.2762207 -0.10464002
-0.09549415 -0.2630679 -0.22108397 -0.27113283 -0.06425611 0.3114368 0.06267891 0.06674244
-0.16325593 -0.1929068 0.16775295 0.19039331 -0.027726606 -0.098933086 0.026759572 0.11432026
-0.16804789 0.029838435 0.18084243 0.049675748 0.055937313 -0.1343934 0.114567876 -0.36687005
0.0052163526 -0.22406536 -0.12187371 -0.032191284 -0.17301375 0.49015057 0.03193733 -0.1679701
-0.04941841 -0.21524723 0.27140465 0.030205384 0.15703127 0.027204573 -0.11396806 -0.100069866
-0.15415044 0.12371444 0.07231177 -0.12787244 -0.047717474 0.5062443 0.007807672 -0.08729691
-0.24760935 0.21536244 0.17235726 0.13427413 -0.37812555 -0.2578216 0.103950694 -0.157136
0.1816194 0.06589468 -0.08294096 0.06463738 -0.2810616 -0.45989174 0.04829885 -0.24186851
-0.2532311 -0.19740431 0.17453587 -0.18016092 -0.3427385 -0.12491975 -0.16855302 0.1345114
0.2259146 0.12314819 -0.2968813 -0.037026517 -0.054417223 0.06882531 -0.052944925 -0.11556309
-0.08860545 -0.09377526 -0.22668925 0.28568166 -0.010245688 0.4440532 -0.004571438 -0.1379561
0.10856276 0.0342135 0.013697602 -0.019063175 -0.1279124 -0.055406496 -0.20082858 -0.07323822
0.3048725 0.12682828 0.40478855 0.13066775 0.24914232 -0.14222015 -0.26522768 -0.27352676
0.058297507 -0.3013135 0.054754615 0.17424032 -0.22209983 0.2523942 -0.13054736 0.062326387
0.27144483 0.041923046 -0.020354375 0.050364785 0.33798352 0.11981896 -0.12568925 0.019712195
-0.052644365 0.34527558 -0.37314495 0.21516947 -0.2730838 0.09125436 0.057434898 0.039387614
-0.040773578 0.066088215 0.3961011 -0.17963088 0.0760913 0.061305214 0.15387392 0.3169646
-0.11461305 -0.01769314 0.06823374 -0.08153777 0.0492995 -0.16279966 -0.06164914 -0.13138898
-0.20176122 0.08765596 -0.16076826 0.003496401 0.16507353 0.021507658 0.01637379 -0.08112981
0.025681324 -0.25776467 -0.1148145 0.18240502 -0.020775087 0.18390119 -0.17629805 0.4686311
-0.020252459 0.16845104 -0.040865846 0.123045176 0.21594402 -0.00074187666 -0.17262575 0.071170874
0.11939777 -0.0016355887 0.066041805 -0.17605674 -0.033058748 0.12723623 0.10052681 -0.0076985955
00000000: 5ec1 0bbe 30b6 c8bd fc1f debd 6219 b4be
00000010: de43 17be 8a7b c13d e020 03bb af79 503e
00000020: 4c69 50be 2abc babd ac64 73be d838 25be
00000030: 3149 2bbe e02d be3c cd6c 8d3e 824d d6bd
00000040: 7092 c3bd d6b0 86be d663 62be ecd1 8abe
00000050: b598 83bd a574 9f3e cd5d 803d 43b0 883d
00000060: 902c 27be 5c89 45be 6ec7 2b3e 77f6 423e
00000070: e822 e3bc 6e9d cabd e436 db3c be20 ea3d
00000080: bf14 2cbe bc6f f43c c22e 393e cc78 4b3d
00000090: 861e 653d 6c9e 09be 90a2 ea3d 64d6 bbbe
000000a0: f0ed aa3b 6471 65be ec98 f9bd 02db 03bd
000000b0: 842a 31be 04f5 fa3e b8d0 023d 5b00 2cbe
000000c0: f56a 4abd c569 5cbe 8df5 8a3e 4871 f73c
000000d0: cecc 203e 20dc de3c 1668 e9bd 6ef1 ccbd
000000e0: 9dd9 1dbe ff5d fd3d 3118 943d fef0 02be
000000f0: 6673 43bd 3a99 013f 80d7 ff3b b9c8 b2bd
00000100: 4e8d 7dbe f987 5c3e 6c7e 303e 287f 093e
00000110: ac99 c1be 3101 84be 1ae4 d43d 42e8 20be
00000120: 70fa 393e caf3 863d f3dc a9bd 9a60 843d
00000130: 4ee7 8fbe ee76 ebbe 04d5 453d 61ac 77be
00000140: 82a7 81be 5b24 4abe 88b9 323e 1b7c 38be
00000150: 6c7b afbe edd5 ffbd 2a99 2cbe 5bbd 093e
00000160: 2856 673e 1e35 fc3d d300 98be 1ea9 17bd
00000170: 98e4 5ebd 49f4 8c3d c7dc 58bd 57ac ecbd
00000180: c676 b5bd 3e0d c0bd 3a21 68be de44 923e
00000190: 88dd 27bc f15a e33e 00cc 95bb 5d44 0dbe
000001a0: 2756 de3d 7423 0c3d e86b 603c 602a 9cbc
000001b0: 78fb 02be ecf1 62bd 02a6 4dbe ebfd 95bd
000001c0: 4018 9c3e 46df 013e 7240 cf3e c4cd 053e
000001d0: 2a1f 7f3e 29a2 11be eccb 87be b30b 8cbe
000001e0: 5ec9 6e3d c345 9abe 6046 603d 0e6c 323e
000001f0: 236e 63be d039 813e 35ae 05be f449 7f3d
00000200: d1fa 8a3e 80b7 2b3d 38be a6bc 4e4b 4e3d
00000210: 2d0c ad3e a563 f53d afb4 00be 787b a13c
00000220: 9ea1 57bd f6c7 b03e db0c bfbe 6355 5c3e
00000230: a4d1 8bbe 91e3 ba3d db40 6b3d e854 213d
00000240: 3202 27bd 4259 873d c3cd ca3e 28f1 37be
00000250: c1d5 9b3d 2d1b 7b3d 2091 1d3e 2f49 a23e
00000260: 3fba eabd 34f1 90bc 22be 8b3d 46fd a6bd
00000270: 46ee 493d f4b4 26be cf83 7cbd d58a 06be
00000280: 7e9a 4ebe f884 b33d 6fa0 24be e023 653b
00000290: 0909 293e d430 b03c 5422 863c 6327 a6bd
000002a0: a461 d23c bbf9 83be dd23 ebbd 62c8 3a3e
000002b0: 8430 aabc 9850 3c3e 7a87 34be 6af0 ef3e
000002c0: 7ce8 a5bc 6e7e 2c3e f262 27bd 1cff fb3d
000002d0: 6e20 5d3e 807a 42ba cec4 30be 09c2 913d
000002e0: d186 f43d 4061 d6ba ed40 873d 3848 34be
000002f0: 9c68 07bd 374a 023e 00e1 cd3d 8044 fcbb

stu.hidden.0.rn_1.weight f4 [8]
0.90000015 0.90000117 1.0999999 0.9000003 1.0999998 1.0999999 1.0999997 0.9000002
00000000: 6966 663f 7a66 663f cccc 8c3f 6b66 663f
00000010: cbcc 8c3f cccc 8c3f cacc 8c3f 6a66 663f

stu.hidden.0.stu.M_u f4 [8, 3, 8]
-0.02359505 -0.32897043 0.11733551 -0.062146038 -0.04954151 -0.062970094 -0.0042920634 -0.14707251
-0.3289343 -0.2949061 0.18589559 -0.17517608 -0.108286984 -0.07663307 0.15663877 0.0012308955
0.099386565 -0.058036968 0.19891945 -0.23693481 -0.12723365 -0.052635 -0.09800284 0.24879257
0.3294766 -0.24144793 -0.09977598 0.037857473 -0.02021747 -0.104559414 -0.14732945 0.11803257
0.14692986 -0.29476476 0.049385734 -0.09580744 0.21472314 -0.044336937 0.09699016 -0.037579678
0.10446886 0.16781883 -0.10361858 0.032248758 -0.197099 -0.25030038 0.015734069 -0.3211431
0.1363276 -0.119338125 -0.08644328 0.051550373 0.075877614 -0.03159354 0.07491905 -0.2383273
0.26999146 0.27259055 -0.25658172 -0.025522247 -0.29302698 0.005021885 -0.2987362 -0.24183083
-0.08794993 0.050638914 -0.2608857 0.21371141 -0.25284004 0.32323012 -0.29767552 -0.025872782
0.056343973 -0.2892873 -0.1180725 0.03761228 0.050223045 -0.11435632 0.24524361 0.120561
0.21114156 -0.06937167 -0.12432021 -0.13431987 -0.29891083 0.10078139 -0.10210905 -0.12310925
0.14529198 -0.022578426 0.23739786 0.11240584 -0.15804276 -0.30161542 0.048517533 -0.049937144
-0.24361496 0.022514947 -0.25472274 0.12821287 -0.20709574 0.055892378 0.19901878 0.029174149
0.13447388 -0.054536693 0.014338106 -0.10826885 -0.07365391 0.071925245 0.23547116 0.3255418
-0.2591266 0.3062755 0.21350628 -0.24547999 -0.25915036 0.19025013 0.13234033 0.25505918
-0.24234915 0.18669361 -0.16159979 0.23545429 0.09949856 0.24385223 0.0067487657 0.24866176
-0.19348946 0.14473152 -0.2336128 0.21762887 -0.091043904 0.12722903 0.01830431 0.05678433
0.09415051 0.024182275 -0.14455158 0.30778322 0.12828213 0.28342605 -0.083481185 -0.02805873
0.18545097 0.32938936 -0.30731618 0.017919682 0.07401212 -0.03903255 0.07682609 0.085330874
0.0036831573 0.2938598 -0.1709585 -0.016002454 -0.23731664 0.02585937 0.04042069 -0.1963996
0.26522148 0.16520363 0.03945744 -0.05011426 -0.30661598 0.09294622 -0.2906885 -0.014156699
0.027998112 -0.12149867 -0.11351552 -0.07351872 -0.08477799 -0.007452287 0.26933536 0.029860608
-0.0018836185 -0.06085159 0.29739678 -0.090481944 0.085607074 -0.0023164898 -0.060529456 0.11388522
-0.29205328 -0.27328402 -0.113856785 0.05179952 0.04438468 -0.18651241 0.2695464 0.18819082
00000000: 684a c1bc d06e a8be 9a4d f03d d88c 7ebd
00000010: 0aec 4abd 77f6 80bd 70a4 8cbb 2d9a 16be
00000020: 146a a8be effd 96be 6a5b 3e3e 5c61 33be
00000030: 91c5 ddbd cdf1 9cbd ea65 203e 0056 a13a
00000040: 2f8b cb3d 2cb8 6dbd 8ab1 4b3e 0a9f 72be
00000050: 8a49 02be cc97 57bd b7b5 c8bd 7bc3 7e3e
00000060: 28b1 a83e 203e 77be 5957 ccbd 7010 1b3d
00000070: 1c9f a5bc 3f23 d6bd 88dd 16be 0fbb f13d
00000080: c874 163e 68eb 96be b248 4a3d b136 c4bd
00000090: 62e0 5b3e a69a 35bd c7a2 c63d 26ed 19bd
000000a0: c5f3 d53d b3d8 2b3e fa35 d4bd 4617 043d
000000b0: 52d4 49be 5f27 80be bce4 803c de6c a4be
000000c0: 7699 0b3e 8c67 f4bd 2d09 b1bd 7c26 533d
000000d0: b965 9b3d 3a68 01bd 296f 993d 120c 74be
000000e0: 523c 8a3e fd90 8b3e ae5e 83be 0814 d1bc
000000f0: a207 96be a08e a43b f4f3 98be 80a2 77be
00000100: 181f b4bd c06a 4f3d cf92 85be 2ad7 5a3e
00000110: 4074 81be 6b7e a53e ed68 98be 28f3 d3bc
00000120: f0c8 663d 771d 94be ffcf f1bd 560f 1a3d
00000130: aeb6 4d3d a533 eabd 2421 7b3e b0e8 f63d
00000140: 7e35 583e bc12 8ebd 989b febd 268b 09be
00000150: d70a 99be 7966 ce3d 8d1e d1bd b420 fcbd
00000160: 6cc7 143e 64f6 b8bc 6d18 733e 0835 e63d
00000170: f6d5 21be 566d 9abe 52ba 463d e48a 4cbd
00000180: 3376 79be 4471 b83c 056b 82be 3c4a 033e
00000190: e810 54be 68ef 643d 94cb 4b3e a0fe ee3c
000001a0: 85b3 093e de61 5fbd 60ea 6a3c 0fbc ddbd
000001b0: dcd7 96bd 8b4d 933d 5a1f 713e 6aad a63e
000001c0: 3eac 84be 24d0 9c3e 64a1 5a3e 1b5f 7bbe
000001d0: 5baf 84be eed0 423e 3984 073e 1e97 823e
000001e0: 602a 78be 9c2c 3f3e 6a7a 25be ee1a 713e
000001f0: e7c5 cb3d 66b4 793e c024 dd3b 30a1 7e3e
00000200: 1a22 46be 8034 143e 3238 6fbe 1ada 5e3e
00000210: 3a75 babd 5448 023e ecf2 953c b096 683d
00000220: fcd1 c03d e819 c63c 5405 14be c395 9d3e
00000230: 645c 033e 381d 913e 2ff8 aabd 6cdb e5bc
00000240: dce6 3d3e b9a5 a83e 8c58 9dbe 4ccc 923c
00000250: ab93 973d 98e0 1fbd ff56 9d3d f4c1 ae3d
00000260: 2061 713b cb74 963e bf0f 2fbe 9417 83bc
00000270: 2203 73be 08d7 d33c 2a90 253d fa1c 49be
00000280: 1ccb 873e 242b 293e 209e 213d 9c44 4dbd
00000290: c5fc 9cbe 965a be3d 20d5 94be 80f1 67bc
000002a0: 4c5c e53c 4bd4 f8bd d37a e8bd fc90 96bd
000002b0: 15a0 adbd 5032 f4bb 53e6 893e 3c9e f43c
000002c0: c0e3 f6ba 843f 79bd 6444 983e 994e b9bd
000002d0: c352 af3d 40d0 17bb bced 77bd a73c e93d
000002e0: 0288 95be e2eb 8bbe bf2d e9bd bc2b 543d
000002f0: b6cc 353d 1cfd 3ebe fc01 8a3e 18b5 403e

stu.hidden.0.stu.M_phi_plus f4 [8, 16, 8]
-0.09997414 -0.099944174 0.09979953 -0.09973847 0.099830255 -0.09995267 -0.099964485 -0.09996735
0.099862084 -0.09995599 0.099886276 -0.099874556 -0.099861175 -0.09998354 -0.09987196 -0.099985406
-0.09998972 0.09999122 -0.099984996 -0.09965539 -0.099929646 0.09999144 -0.099958636 0.09997708
-0.09761299 -0.09997603 0.0999716 0.09977775 0.09982771 -0.09998236 0.09992801 -0.099965215
-0.09999664 -0.09994655 0.0999799 0.099984646 0.0999879 0.099961676 0.09999423 0.099997334
-0.099970356 0.09999414 -0.099995874 0.09999291 -0.09999542 0.09996042 -0.099990875 0.09999674
0.09999857 -0.09996337 -0.09999824 -0.099979416 -0.099998504 0.09999702 -0.09999722 0.09998641
0.09998817 0.09999921 -0.09999957 0.09999917 -0.099998035 0.09999916 -0.09999913 0.09998116
-0.09999755 0.09999955 -0.099999666 0.09999961 0.09999893 -0.09997323 -0.0999995 -0.09999932
-0.09999331 0.099996865 -0.09999807 0.09999945 0.09999972 -0.09999966 -0.09999863 -0.099999584
-0.099999614 -0.09999902 0.09999957 -0.09994229 0.099999845 -0.09999973 0.09999593 -0.09999933
-0.099999756 -0.099999614 0.09999985 -0.09999981 0.0999999 -0.0999998 0.09999931 -0.09999973
-0.099999465 -0.099999845 0.09999991 -0.0999999 0.099999934 -0.0999999 0.0999998 -0.09999984
0.099999845 0.0999999 -0.099999934 0.09999993 -0.09999995 0.09999991 -0.09999987 0.09999959
-0.09999994 -0.09999988 0.099999934 -0.09999993 0.09999995 -0.099999875 0.09999988 0.09999822
-0.09999995 -0.099999875 0.09999994 -0.09999994 0.099999964 -0.09999991 0.09999987 -0.09999959
-0.09994492 0.099970944 -0.099946626 0.09971831 0.0999154 0.09995012 -0.09992926 -0.09993237
0.09985065 -0.09981401 -0.09995154 0.099903464 0.099900775 -0.099955715 -0.09994394 -0.09993062
0.09998457 -0.09994684 -0.0999642 0.09998103 -0.09997294 -0.09998595 -0.0999603 -0.09996754
-0.09981125 0.09990492 -0.09996368 0.09995034 0.099921726 -0.0998283 -0.09994595 -0.099911205
0.099987164 0.09999205 -0.09999101 0.09999396 -0.099989586 -0.099972405 -0.09998229 0.099974595
0.099995404 -0.099996366 0.09999639 -0.09999518 0.09998163 -0.09998698 0.09999365 -0.09997458
-0.099997334 0.0999705 0.0999972 -0.09999706 0.09998937 0.09999691 0.09999606 0.099990815
0.09997809 0.09999068 -0.09999279 0.09999717 -0.09999194 -0.099996574 -0.099992484 -0.09999121
0.099997945 -0.09999874 0.099995255 -0.099996656 0.09994072 -0.09999799 0.09999099 -0.099994026
-0.099998675 0.09999898 -0.09999932 0.09999886 -0.099995226 0.09999832 -0.09999849 0.0999984
0.09999745 0.09999956 -0.09999969 0.09999954 -0.0999982 0.099997886 -0.09999951 -0.09999665
0.09999957 0.09999878 -0.099999584 0.09999761 0.09999755 0.09999838 -0.099999316 -0.099999264
-0.09999915 0.09999965 -0.09999981 0.0999997 0.099999025 0.09999954 -0.09999945 0.099998906
0.09999976 -0.09999985 0.09999989 -0.0999999 0.09999916 -0.09999963 0.09999976 -0.09999952
0.099999525 0.099999815 -0.09999986 0.09999987 -0.09999892 -0.099993646 -0.09999984 -0.09999958
0.09999991 -0.099999115 -0.09999908 -0.099999614 0.099999815 -0.09999972 -0.09999985 -0.09999989
00000000: 3ebf ccbd 88af ccbd b263 cc3d af43 ccbd
00000010: ce73 cc3d fcb3 ccbd 2eba ccbd afbb ccbd
00000020: 7e84 cc3d bab5 ccbd 2d91 cc3d 088b ccbd
00000030: 0484 ccbd 2cc4 ccbd ac89 ccbd 26c5 ccbd
00000040: 69c7 ccbd 32c8 cc3d efc4 ccbd 2018 ccbd
00000050: eaa7 ccbd 50c8 cc3d 1db7 ccbd c9c0 cc3d
00000060: 52e9 c7bd 3cc0 ccbd e9bd cc3d 4758 cc3d
00000070: 7872 cc3d 8dc3 ccbd 0ea7 cc3d 90ba ccbd
00000080: 0acb ccbd c7b0 ccbd 43c2 cc3d c0c4 cc3d
00000090: 75c6 cc3d b5b8 cc3d c6c9 cc3d 67cb cc3d
000000a0: 42bd ccbd bac9 cc3d a3ca ccbd 15c9 cc3d
000000b0: 66ca ccbd 0cb8 cc3d 04c8 ccbd 17cb cc3d
000000c0: 0dcc cc3d 98b9 ccbd e1cb ccbd 02c2 ccbd
000000d0: 04cc ccbd 3dcb cc3d 58cb ccbd adc5 cc3d
000000e0: 99c6 cc3d 63cc cc3d 93cc ccbd 5dcc cc3d
000000f0: c5cb ccbd 5ccc cc3d 58cc ccbd ecc2 cc3d
00000100: 84cb ccbd 90cc cc3d a0cc ccbd 98cc cc3d
00000110: 3dcc cc3d c4be ccbd 8acc ccbd 72cc ccbd
00000120: 4bc9 ccbd 28cb cc3d cacb ccbd 83cc cc3d
00000130: a7cc cc3d 9fcc ccbd 15cc ccbd 95cc ccbd
00000140: 99cc ccbd 49cc ccbd 93cc cc3d 8bae ccbd
00000150: b8cc cc3d a9cc ccbd abca cc3d 73cc ccbd
00000160: accc ccbd 99cc ccbd b9cc cc3d b3cc ccbd
00000170: bfcc cc3d b2cc ccbd 70cc cc3d a9cc ccbd
00000180: 85cc ccbd b8cc ccbd c1cc cc3d bfcc ccbd
00000190: c4cc cc3d bfcc ccbd b2cc cc3d b7cc ccbd
000001a0: b8cc cc3d bfcc cc3d c4cc ccbd c3cc cc3d
000001b0: c6cc ccbd c1cc cc3d bbcc ccbd 96cc cc3d
000001c0: c5cc ccbd bdcc ccbd c4cc cc3d c3cc ccbd
000001d0: c6cc cc3d bccc ccbd bdcc cc3d decb cc3d
000001e0: c6cc ccbd bccc ccbd c5cc cc3d c5cc ccbd
000001f0: c8cc cc3d c1cc ccbd bbcc cc3d 96cc ccbd
00000200: ecaf ccbd 91bd cc3d d1b0 ccbd 1d39 cc3d
00000210: 72a0 cc3d a6b2 cc3d b6a7 ccbd 58a9 ccbd
00000220: 7f7e cc3d 4a6b ccbd 65b3 ccbd 309a cc3d
00000230: c798 cc3d 95b5 ccbd 69af ccbd 6da8 ccbd
00000240: b6c4 cc3d eeb0 ccbd 08ba ccbd dbc2 cc3d
00000250: 9dbe ccbd 6fc5 ccbd fcb7 ccbd c8bb ccbd
00000260: d769 ccbd f39a cc3d c2b9 ccbd c4b2 cc3d
00000270: c3a3 cc3d c872 ccbd 76b0 ccbd 3f9e ccbd
00000280: 12c6 cc3d a2c8 cc3d 16c8 ccbd a2c9 cc3d
00000290: 57c7 ccbd 55be ccbd 84c3 ccbd 7bbf cc3d
000002a0: 64ca cc3d e5ca ccbd e8ca cc3d 46ca ccbd
000002b0: 2bc3 cc3d f9c5 ccbd 79c9 cc3d 79bf ccbd
000002c0: 67cb ccbd 55bd cc3d 55cb cc3d 42cb ccbd
000002d0: 3ac7 cc3d 2ecb cc3d bcca cc3d fcc7 cc3d
000002e0: 50c1 cc3d eac7 cc3d 05c9 ccbd 51cb cc3d
000002f0: 93c8 ccbd 01cb ccbd dcc8 ccbd 31c8 ccbd
00000300: b9cb cc3d 24cc ccbd 50ca cc3d 0ccb ccbd
00000310: b8ad cc3d bfcb ccbd 13c8 cc3d abc9 ccbd
00000320: 1bcc ccbd 44cc cc3d 72cc ccbd 34cc cc3d
00000330: 4cca ccbd ebcb cc3d 02cc ccbd f6cb cc3d
00000340: 77cb cc3d 92cc cc3d a3cc ccbd 8fcc cc3d
00000350: dbcb ccbd b1cb cc3d 8bcc ccbd 0bcb ccbd
00000360: 93cc cc3d 29cc cc3d 95cc ccbd 8ccb cc3d
00000370: 84cb cc3d f3cb cc3d 71cc ccbd 6acc ccbd
00000380: 5bcc ccbd 9ecc cc3d b3cc ccbd a5cc cc3d
00000390: 4acc cc3d 8fcc cc3d 83cc ccbd 3acc cc3d
000003a0: adcc cc3d b9cc ccbd becc cc3d bfcc ccbd
000003b0: 5ccc cc3d 9bcc ccbd adcc cc3d 8ccc ccbd
000003c0: 8dcc cc3d b4cc cc3d bacc ccbd bbcc cc3d
000003d0: 3ccc ccbd 78c9 ccbd b7cc ccbd 94cc ccbd
000003e0: c1cc cc3d 56cc ccbd 51cc ccbd 99cc ccbd
000003f0: b4cc cc3d a7cc ccbd b9cc ccbd becc ccbd

stu.hidden.0.stu.M_phi_minus f4 [8, 16, 8]
0.09806116 0.09810353 -0.099522375 0.09890131 -0.09926393 0.09964136 -0.09919236 0.09962512
-0.098200634 0.09911852 0.0764379 0.099346176 -0.098882295 0.09946275 0.098568395 0.09863821
-0.099401236 -0.09942288 0.09979368 0.09926726 0.09946306 0.09726705 0.09961288 -0.09927145
-0.09918184 0.08428 0.09945684 -0.09936806 -0.099142484 0.09972075 -0.09729895 -0.08772863
-0.09976698 -0.09944541 0.09991319 -0.099886686 0.099607974 -0.09989235 0.09984777 -0.09985614
-0.099780165 -0.09927134 -0.09908659 0.09991965 0.09992366 0.096871525 0.09940394 0.099902086
-0.099848695 -0.099946 0.09979089 -0.09976023 -0.09995143 -0.09980997 0.09991203 0.0999473
0.099973574 -0.09966263 -0.09987172 0.09985065 0.09894882 -0.09977319 -0.09995854 -0.09995374
-0.099973254 0.09997272 -0.09996559 -0.099950284 -0.099956535 0.099971585 -0.09990484 -0.09995081
0.09989333 0.09998225 -0.09998586 0.09998584 0.09998598 -0.09997521 -0.09997215 -0.099925995
0.0998749 -0.09998514 0.09974734 0.09998551 0.099938616 -0.09998012 0.09988125 0.099987715
-0.09998186 0.099992044 0.09993794 -0.09997533 -0.099988 0.09999593 0.09991517 0.09998796
0.09999644 -0.09997057 -0.09999281 -0.099966764 0.09993528 0.0999871 -0.099981666 -0.09999649
0.099972844 0.09998603 -0.09999765 0.09999834 -0.099991314 0.09999468 0.09971743 0.099998474
-0.09999749 -0.099987864 0.099998385 -0.09999716 0.09999193 -0.09998957 0.099994645 -0.099998675
-0.09999939 0.099998616 0.09999645 -0.09999773 -0.099947736 0.09999721 0.09999019 0.099984676
0.099021174 -0.09908588 -0.099295184 0.09862767 -0.09368618 -0.0924924 -0.0993496 0.09844839
0.09817451 0.091389224 0.09926966 -0.09862839 0.099238776 0.09848307 -0.09353347 0.09628155
-0.09961435 0.09812037 0.09886906 -0.09955897 0.09682253 -0.095390394 0.09503703 0.09676392
0.09902947 0.098725095 0.099254645 -0.09692303 0.09892712 0.09925429 -0.095790125 -0.09476484
0.08433051 -0.0997223 0.09992153 -0.09995679 0.09973307 0.09980533 0.0998883 -0.09989161
-0.09953042 0.09883047 -0.099806555 0.09987576 -0.099888645 -0.09990673 0.08746446 -0.09919714
0.099886924 -0.09986775 0.09964295 0.09996069 0.09992209 -0.09993266 0.09987202 -0.09981235
-0.09996137 0.099718355 0.087923236 -0.09996652 -0.09987732 0.09995013 -0.099845715 0.09997605
0.09993941 0.09995103 -0.09995636 0.099970154 0.099945985 -0.09973307 -0.09990519 -0.0999571
-0.09475476 -0.09995945 0.09997619 -0.09998744 -0.099986695 0.099980175 0.09995338 0.09978712
0.09998869 -0.099770404 -0.09998857 0.09998986 0.09996598 -0.099967144 -0.09997544 -0.0999628
-0.09999123 0.09998754 -0.09994826 0.099989824 -0.09998523 -0.099975266 -0.09994618 -0.09996855
-0.09998263 0.09999265 0.09996201 -0.099866286 0.09999619 0.099983856 0.099984355 -0.09998582
0.09999571 0.09999322 -0.09999127 0.09998949 -0.09998022 0.099996895 0.09990687 -0.09999423
0.09999417 -0.09998871 -0.099976785 0.09999803 0.09999751 -0.09999631 -0.09998883 0.0999976
-0.0999986 -0.09999814 -0.09995659 0.09999845 -0.09999858 -0.09997838 -0.09999826 0.099997684
00000000: 4ad4 c83d 81ea c83d 63d2 cbbd c58c ca3d
00000010: e34a cbbd c510 cc3d 5d25 cbbd 4108 cc3d
00000020: 6a1d c9bd a7fe ca3d 798b 9c3d 0276 cb3d
00000030: cd82 cabd 20b3 cb3d 3ade c93d d402 ca3d
00000040: e092 cbbd 399e cbbd a160 cc3d a24c cb3d
00000050: 4ab3 cb3d f233 c73d d601 cc3d d44e cbbd
00000060: d91f cbbd fe9a ac3d 07b0 cb3d 7b81 cbbd
00000070: 370b cbbd 643a cc3d ac44 c7bd 11ab b3bd
00000080: a152 ccbd 09aa cbbd 499f cc3d 6491 ccbd
00000090: 44ff cb3d 5c94 ccbd fd7c cc3d 6081 ccbd
000000a0: 8b59 ccbd c64e cbbd e9ed cabd aca2 cc3d
000000b0: c7a4 cc3d 9464 c63d 4b94 cb3d 7799 cc3d
000000c0: 797d ccbd 7db0 ccbd 2b5f cc3d 174f ccbd
000000d0: 56b3 ccbd 2b69 ccbd ae9e cc3d 2cb1 cc3d
000000e0: f2be cc3d ec1b ccbd 8b89 ccbd 7f7e cc3d
000000f0: aea5 ca3d e355 ccbd 10b7 ccbd 8cb4 ccbd
00000100: c7be ccbd 7fbe cc3d c2ba ccbd bcb2 ccbd
00000110: 03b6 ccbd e7bd cc3d e99a ccbd 03b3 ccbd
00000120: e094 cc3d 7ec3 cc3d 63c5 ccbd 60c5 cc3d
00000130: 73c5 cc3d cebf ccbd 33be ccbd 00a6 ccbd
00000140: 368b cc3d 02c5 ccbd 5548 cc3d 34c5 cc3d
00000150: 9eac cc3d 61c2 ccbd 8a8e cc3d 5cc6 cc3d
00000160: 4ac3 ccbd a1c8 cc3d 43ac cc3d debf ccbd
00000170: 82c6 ccbd abca cc3d 53a0 cc3d 7dc6 cc3d
00000180: efca cc3d 5fbd ccbd 08c9 ccbd 60bb ccbd
00000190: deaa cc3d 09c6 cc3d 30c3 ccbd f6ca ccbd
000001a0: 90be cc3d 7ac5 cc3d 91cb ccbd eecb cc3d
000001b0: 3fc8 ccbd 03ca cc3d a738 cc3d 00cc cc3d
000001c0: 7ccb ccbd 70c6 ccbd f4cb cc3d 50cb ccbd
000001d0: 92c8 cc3d 55c7 ccbd fec9 cc3d 1bcc ccbd
000001e0: 7bcc ccbd 13cc cc3d f0ca cc3d 9ccb ccbd
000001f0: 66b1 ccbd 56cb cc3d a8c7 cc3d c4c4 cc3d
00000200: 9dcb ca3d 8aed cabd 465b cbbd 4efd c93d
00000210: 8ade bfbd a86c bdbd ce77 cbbd 4f9f c93d
00000220: b80f c93d 462a bb3d e44d cb3d aefd c9bd
00000230: b33d cb3d 7eb1 c93d 7a8e bfbd 432f c53d
00000240: 9c02 ccbd 55f3 c83d dd7b ca3d 93e5 cbbd
00000250: e44a c63d 0a5c c3bd c6a2 c23d 292c c63d
00000260: f6cf ca3d 6230 ca3d 0546 cb3d 957f c6bd
00000270: 4d9a ca3d d545 cb3d 9d2d c4bd 1214 c2bd
00000280: 79b5 ac3d 353b ccbd a9a3 cc3d 25b6 ccbd
00000290: da40 cc3d bd66 cc3d 3d92 cc3d f993 ccbd
000002a0: 9bd6 cbbd a167 ca3d 6167 ccbd aa8b cc3d
000002b0: 6b92 ccbd e69b ccbd 9120 b33d df27 cbbd
000002c0: 8491 cc3d 7787 ccbd 9a11 cc3d 31b8 cc3d
000002d0: f4a3 cc3d 7fa9 ccbd b489 cc3d 6b6a ccbd
000002e0: 8cb8 ccbd 2339 cc3d 1911 b43d 3fbb ccbd
000002f0: 7b8c ccbd a7b2 cc3d e97b ccbd 3ec0 cc3d
00000300: 09ad cc3d 20b3 cc3d ecb5 ccbd 27bd cc3d
00000310: 7bb0 cc3d da40 ccbd 189b ccbd 4fb6 ccbd
00000320: c90e c2bd 8ab7 ccbd 51c0 cc3d 37c6 ccbd
00000330: d3c5 ccbd 68c2 cc3d 5cb4 cc3d 315d cc3d
00000340: dfc6 cc3d 6d54 ccbd cfc6 ccbd 7cc7 cc3d
00000350: f7ba cc3d 93bb ccbd ecbf ccbd 4cb9 ccbd
00000360: 34c8 ccbd 44c6 cc3d acb1 ccbd 77c7 cc3d
00000370: 0ec5 ccbd d5bf ccbd 95b0 ccbd 50bc ccbd
00000380: b1c3 ccbd f2c8 cc3d e2b8 cc3d b286 ccbd
00000390: cdca cc3d 56c4 cc3d 99c4 cc3d 5ec5 ccbd
000003a0: 8dca cc3d 3fc9 cc3d 39c8 ccbd 4ac7 cc3d
000003b0: 6ec2 ccbd 2ccb cc3d f99b cc3d c6c9 ccbd
000003c0: bec9 cc3d e1c6 ccbd a1c0 ccbd c4cb cc3d
000003d0: 7fcb cc3d deca ccbd f2c6 ccbd 8bcb cc3d
000003e0: 11cc ccbd d3cb ccbd 0ab6 ccbd fdcb cc3d
000003f0: 0ecc ccbd 77c1 ccbd e3cb ccbd 96cb cc3d

stu.hidden.0.rn_2.weight f4 [8]
0.90001875 0.9000148 1.0999117 0.9000466 1.099687 0.90009755 0.9000066 1.0999236
00000000: a167 663f 5f67 663f e8c9 8c3f 7469 663f
00000010: 8bc2 8c3f cb6c 663f d566 663f 4cca 8c3f

stu.hidden.0.mlp.swiglu.w.weight f4 [32, 8]
-0.051224522 -0.032722116 0.022290155 0.056443915 0.14097239 -0.09171515 -0.11615516 -0.017413616
0.13416067 -0.20836027 -0.013902031 0.16166613 -0.054856036 -0.11547214 -0.038120873 0.1835933
-0.031094335 0.14750753 -0.0046340004 -0.021630406 0.1448906 0.07513467 0.16863632 0.14402616
-0.12741111 -0.028209172 -0.17891945 -0.08834464 0.082402304 -0.09297416 0.015538484 -0.08039375
0.15816177 0.18144318 0.019720286 -0.0908729 -0.03769288 0.30403024 0.20769042 0.062111177
-0.17294228 -0.23564631 0.29307434 -0.11728865 0.11132995 -0.10239726 -0.0032723323 -0.17361847
0.18082896 0.020355709 0.16664168 -0.16053471 0.11130317 -0.030394249 -0.045012183 -0.17214262
-0.080507115 0.015903845 0.1709757 0.0025517568 0.20767105 0.053783964 0.10811724 -0.30726585
0.082788855 -0.17575583 0.0022023842 -0.13741133 -0.08303023 0.08558884 -0.016681418 0.13153021
0.034453772 -0.1114406 -0.08938798 0.093859345 -0.10240217 -0.04058994 0.025654458 0.021885514
-0.03292823 -0.06758725 0.15471347 -0.051094275 0.105496526 0.0014664754 0.064198256 0.06699229
0.0057092607 -0.067904204 -0.18891142 0.042371325 0.06275462 -0.06538828 -0.030366175 0.17341118
-0.06514874 -0.11168104 0.037685968 0.15028958 0.042593952 -0.02057597 -0.17796466 -0.17562282
0.013545729 0.057903945 0.26336846 -0.044444397 0.08852742 0.23277122 0.09460522 -0.17912808
-0.12850066 0.12755853 0.045042276 0.0035228208 -0.19177708 0.19943357 0.015846945 0.27210566
0.08909346 -0.13596666 -0.027915426 0.0008433461 0.09214571 -0.1362024 -0.032935917 0.13577889
0.0092190355 -0.07626867 -0.106928855 0.18396023 0.06268169 -0.10044533 -0.15020937 0.118247606
0.28999478 0.08788666 -0.16690865 0.100587085 -0.13133626 -0.011068918 0.24775752 0.26102087
0.17505957 -0.21582872 -0.0011087656 0.1785984 -0.2694869 -0.26606253 -0.043492917 0.1119391
0.112117045 -0.06958804 -0.05604686 0.09201685 -0.006577097 0.04391957 -0.017001413 0.11624751
-0.021047711 0.0603642 -0.11973959 0.15440081 0.123714454 0.010375023 -0.055004682 0.005561091
-0.1097053 -0.037103437 0.32816082 -0.164844 0.061030213 -0.06399267 -0.022838123 -0.2837959
0.18371794 0.10672714 -0.007239379 -0.14936063 -0.17895514 -0.080306575 0.092212155 -0.23389682
0.10143068 0.072942965 0.007506147 -0.07435169 0.06572715 -0.14541914 0.111161925 0.07814138
0.09157831 0.24334025 0.039580613 0.24678561 0.021160632 0.08168072 -0.009606242 0.043256506
0.111289345 -0.1131285 0.1087124 -0.038079064 -0.1506007 -0.15236402 -0.038810175 -0.13827759
0.117835686 0.2188345 -0.04520862 0.064647734 -0.18128426 -0.05013541 0.088706404 0.06583947
-0.039076358 0.005936064 0.022627406 -0.18560228 -0.22396049 -0.06899584 0.09351541 -0.18633696
-0.21594256 -0.20105973 0.025456697 -0.035097994 0.110152766 -0.13353431 0.090816535 0.068857394
-0.1126478 0.23354852 0.28975147 -0.13971573 0.16848862 -0.14482512 0.19928768 -0.17153777
0.21655218 -0.09368766 0.010095477 -0.0542436 0.05132734 0.041057862 -0.044790413 0.04956663
-0.19113186 0.17637384 0.02163297 -0.074694484 -0.074163415 0.22543827 0.065758705 -0.12190198
00000000: ced0 51bd a007 06bd d899 b63c bc31 673d
00000010: 115b 103e 27d5 bbbd c2e2 edbd 00a7 8ebc
00000020: 6a61 093e 655c 55be 58c5 63bc ce8b 253e
00000030: b9b0 60bd a87c ecbd a224 1cbd e2ff 3b3e
00000040: 8cb9 febc 370c 173e d0d8 97bb 4032 b1bc
00000050: 345e 143e 35e0 993d 00af 2c3e 987b 133e
00000060: 0f78 02be ec16 e7bc a936 37be 09ee b4bd
00000070: 8ac2 a83d 3d69 bebd 2095 7e3c 7aa5 a4bd
00000080: 29f5 213e 3ecc 393e 708c a13c 921b babd
00000090: d963 1abd daa9 9b3e ccac 543e 4a68 7e3d
000000a0: c817 31be 444d 71be d70d 963e 0835 f0bd
000000b0: f500 e43d a8b5 d1bd a074 56bb 0ac9 31be
000000c0: 3a2b 393e 04c1 a63c 1ea4 2a3e 3663 24be
000000d0: ebf2 e33d 5cfd f8bc b25e 38bd 2846 30be
000000e0: eae0 a4bd c848 823c 4114 2f3e 603b 273b
000000f0: b8a7 543e 934c 5c3d 926c dd3d f351 9dbe
00000100: 348d a93d 56f9 33be e055 103b 8eb5 0cbe
00000110: c10b aabd 3449 af3d 78a7 88bc dbaf 063e
00000120: 661f 0d3d f83a e4bd 0c11 b7bd 5439 c03d
00000130: 3bb8 d1bd a341 26bd 4c29 d23c 4049 b33c
00000140: c0df 06bd 2f6b 8abd 356d 1e3e 3b48 51bd
00000150: 900e d83d c036 c03a 607a 833d 4133 893d
00000160: c014 bb3b 5c11 8bbd ff71 41be 8e8d 2d3d
00000170: 7f85 803d 4aea 85bd 7cc2 f8bc b392 313e
00000180: b46c 85bd 07b9 e4bd 9a5c 1a3d 83e5 193e
00000190: ff76 2e3d f08e a8bc 5e3c 36be 78d6 33be
000001a0: e8ee 5d3c b02c 6d3d 3bd8 863e 540b 36bd
000001b0: dd4d b53d 945b 6e3e 62c0 c13d 5a6d 37be
000001c0: ad95 03be b49e 023e 407e 383d 20df 663b
000001d0: 3661 44be 5038 4c3e 74d1 813c 6f51 8b3e
000001e0: a276 b63d d83a 0bbe e4ae e4bc 0014 5d3a
000001f0: e4b6 bc3d a478 0bbe d0e7 06bd 9f09 0b3e
00000200: 700b 173c c032 9cbd 84fd dabd 1260 3c3e
00000210: 425f 803d 48b6 cdbd 7cd0 19be cd2b f23d
00000220: 327a 943e ecfd b33d 1aea 2abe 9a00 ce3d
00000230: 037d 06be 685a 35bc 26b4 7d3e 87a4 853e
00000240: d142 333e 3402 5dbe 0054 91ba 80e2 363e
00000250: 30fa 89be 5939 88be a125 32bd 5440 e53d
00000260: 9f9d e53d 2d84 8ebd 6491 65bd 5573 bc3d
00000270: b084 d7bb 02e5 333d 8c46 8bbc 2d13 ee3d
00000280: 406c acbc 7440 773d 083a f5bd 3f1b 1e3e
00000290: 015e fd3d 00fc 293c 974c 61bd d039 b63b
000002a0: 2cad e0bd c6f9 17bd b204 a83e decc 28be
000002b0: d1fa 793d 970e 83bd 0417 bbbc b24d 91be
000002c0: 8e20 3c3e c293 da3d 5038 edbb fef1 18be
000002d0: 0440 37be c677 a4bd bad9 bc3d a682 6fbe
000002e0: e3ba cf3d 1f63 953d 20f6 f53b b345 98bd
000002f0: f59b 863d c1e8 14be dda8 e33d 9608 a03d
00000300: 698d bb3d 302e 793e 481f 223d 5eb5 7c3e
00000310: 1059 ad3c 3948 a73d 8063 1dbc bc2d 313d
00000320: abeb e33d eaaf e7bd 9ba4 de3d cbf8 1bbd
00000330: 1237 1abe 5005 1cbe 6bf7 1ebd a498 0dbe
00000340: d653 f13d 2716 603e ad2c 39bd 0866 843d
00000350: 95a2 39be ca5a 4dbd b4ab b53d d8d6 863d
00000360: 880e 20bd 5083 c23b 1c5d b93c 860e 3ebe
00000370: e655 65be b14d 8dbd 0285 bf3d 1ecf 3ebe
00000380: 0c20 5dbe 9ae2 4dbe 908a d03c eac2 0fbd
00000390: c697 e13d 38bd 08be 05fe b93d 1b05 8d3d
000003a0: e4b3 e6bd 5827 6f3e 4e5a 943e a411 0fbe
000003b0: 4888 2c3e 094d 14be 1212 4c3e 99a7 2fbe
000003c0: dbbf 5d3e 51df bfbd 8067 253c 8a2e 5ebd
000003d0: 9e3c 523d 4a2c 283d 2776 37bd 6106 4b3d
000003e0: 12b8 43be 589b 343e a037 b13c 6cf9 98bd
000003f0: fde2 97bd 4ad9 663e 80ac 863d bfa7 f9bd

stu.hidden.0.mlp.swiglu.v.weight f4 [32, 8]
0.099832416 -0.030715257 -0.0922829 0.036686063 0.03777643 -0.04389165 -0.056185704 0.059657052
-0.005658038 0.16644868 -0.11042311 0.1694405 -0.06642865 0.10990195 -0.07199269 0.12162764
0.11847616 0.08754389 -0.10775763 0.09813414 -0.07725895 0.062417537 0.13733113 0.13289845
-0.051311582 -0.079681635 -0.097193845 0.106510304 0.041485175 0.14771238 -0.042745333 0.12570448
-0.094647214 -0.103648014 -0.08161007 0.06816313 0.14863715 -0.122704536 -0.17584983 0.04668654
-0.14557661 -0.08236671 0.1329298 -0.08135099 0.10477705 -0.12341119 0.09133186 -0.12794821
-0.027783677 0.18796226 0.077816285 -0.07087463 0.060210757 0.14050369 0.012363836 -0.09622916
0.09043659 -0.05352705 -0.10336976 0.10558657 0.12816913 -0.14060698 -0.15787694 0.13531467
0.1251284 -0.10606743 -0.14255328 -0.0954751 -0.14150259 0.09133444 -0.06292833 0.06862096
-0.1345628 0.15646182 0.04985742 -0.13346608 -0.089701556 0.09805899 0.058965333 -0.029643774
0.07232151 0.0018399656 -0.08395246 0.14499009 0.13327071 -0.07471348 -0.04043689 0.057948936
-0.12012706 0.055916015 -0.11846626 -0.08392838 0.07443841 0.08582524 0.027915552 0.035846204
0.06702007 -0.123305246 -0.058340833 0.12548152 -0.04248041 0.06305187 -0.081648245 0.15433261
0.21859662 0.09665165 -0.10216943 0.12486189 0.099841066 -0.07597428 -0.08594775 0.08205646
0.048658445 -0.116082795 0.1077812 0.032773554 -0.084422976 -0.13689932 -0.17284273 -0.10058463
0.024114601 -0.064686626 -0.08589536 0.07096264 0.062262427 0.06917811 -0.071923696 0.12610598
-0.12411113 0.22787508 0.06542912 -0.17330596 -0.082540154 -0.09008832 0.08876374 -0.07125981
0.1547913 0.06734185 -0.071748495 0.14566043 -0.14232689 -0.0754018 -0.078440934 0.14099596
-0.12502006 0.10068589 -0.10083729 0.14216489 0.1305724 0.16504309 0.07861468 0.1640045
-0.13633117 -0.054122064 0.11501973 -0.05691525 -0.12461953 0.12680954 -0.08789399 -0.09313187
0.07082831 -0.05228422 -0.079355575 0.069333315 -0.1628983 0.014675014 -0.09218177 0.05891645
0.08822877 0.09817167 0.07054794 0.17705087 -0.13133898 -0.14176798 0.092644885 -0.11700465
-0.14054841 0.033512197 -0.08382925 0.15903328 0.123792246 -0.085756384 0.04676078 -0.1607255
0.04556447 -0.104156144 0.07966889 -0.07671083 -0.139359 0.11808702 -0.11978974 0.05388221
0.12214785 -0.12150376 0.09895363 0.06949869 0.13017645 0.0926954 -0.03428056 -0.07690242
-0.19568336 -0.10678669 -0.08022535 0.12829426 0.10077133 0.14265662 -0.2116049 0.13007677
0.07810638 -0.1297098 -0.06456338 0.05898012 0.16666737 0.15823582 -0.15705855 0.08126964
-0.097551875 0.07968812 0.068254486 0.0010831207 0.14703804 0.0620504 0.1900507 -0.07361157
0.056706976 -0.06814429 0.023473479 0.13394688 -0.117673546 0.081149004 -0.08594258 -0.14580984
-0.14002421 0.16231039 0.19029558 -0.106801294 -0.02090671 0.0037274957 0.052355047 -0.13190854
0.055183828 -0.10271424 -0.09197758 0.12403062 -0.11531931 0.10167904 -0.04604793 0.034786373
-0.097235106 0.04514347 0.064614296 -0.07154808 -0.076308295 -0.09648365 0.12613907 -0.11677696
00000000: f074 cc3d 909e fbbc d1fe bcbd 2044 163d
00000010: 75bb 1a3d bbc7 33bd fb22 66bd f45a 743d
00000020: 1067 b9bb 8671 2a3e 8325 e2bd cf81 2d3e
00000030: be0b 88bd 4614 e13d e770 93bd ea17 f93d
00000040: a1a3 f23d 364a b33d 08b0 dcbd 8dfa c83d
00000050: f139 9ebd 88a9 7f3d 88a0 0c3e 8816 083e
00000060: 182c 52bd 2030 a3bd 910d c7bd 1322 da3d
00000070: 5cec 293d ea41 173e bb15 2fbd adb8 003e
00000080: 66d6 c1bd 6945 d4bd 2e23 a7bd 1c99 8b3d
00000090: 5634 183e 844c fbbd fa11 34be 633a 3f3d
000000a0: 0912 15be e1af a8bd c01e 083e 599b a6bd
000000b0: 5a95 d63d 02bf fcbd 330c bb3d db04 03be
000000c0: 989a e3bc 2e79 403e 255e 9f3d b826 91bd
000000d0: 8e9f 763d 33e0 0f3e b091 4a3c cb13 c5bd
000000e0: d236 b93d 2e3f 5bbd 86b3 d3bd c63d d83d
000000f0: c53e 033e 47fb 0fbe 7eaa 21be ee8f 0a3e
00000100: a921 003e e139 d9bd 7df9 11be 7388 c3bd
00000110: 0ee6 10be 8d0d bb3d 91e0 80bd 2589 8c3d
00000120: d5ca 09be 8737 203e 4b37 4c3d 55ab 08be
00000130: 73b5 b7bd 27d3 c83d a285 713d 80d7 f2bc
00000140: 4d1d 943d 002b f13a 44ef abbd 4878 143e
00000150: 1e78 083e 6203 99bd 27a1 25bd dd5b 6d3d
00000160: 2d05 f6bd 3108 653d 709e f2bd a4e2 abbd
00000170: 2a73 983d 25c5 af3d 28af e43c 78d3 123d
00000180: d241 893d 7687 fcbd ccf6 6ebd 3a7e 003e
00000190: f0ff 2dbd 5721 813d 3237 a7bd 5e09 1e3e
000001a0: cbd7 5f3e 4df1 c53d 353e d1bd 97b7 ff3d
000001b0: 7979 cc3d 6798 9bbd 6005 b0bd 380d a83d
000001c0: 144e 473d d1bc edbd 64bc dc3d 903d 063d
000001d0: f4e5 acbd 562f 0cbe affd 30be 51ff cdbd
000001e0: fc8b c53c 6c7a 84bd e8e9 afbd dc54 913d
000001f0: e306 7f3d 41ad 8d3d bb4c 93bd ed21 013e
00000200: fa2d febd 1658 693e b4ff 853d 1e77 31be
00000210: d00a a9bd 3a80 b8bd c4c9 b53d aaf0 91bd
00000220: 9c81 1e3e 86ea 893d e0f0 92bd 0228 153e
00000230: 24be 11be 426c 9abd a4a5 a0bd 3f61 103e
00000240: 4205 00be 6734 ce3d c883 cebd ac93 113e
00000250: c5b4 053e 0e01 293e bc00 a13d ccf0 273e
00000260: 669a 0bbe 19af 5dbd 778f eb3d f71f 69bd
00000270: 8638 ffbd 5cda 013e c401 b4bd ecbb bebd
00000280: 6f0e 913d fa27 56bd 2d85 a2bd a0fe 8d3d
00000290: d0ce 26be 786f 703c ccc9 bcbd 6052 713d
000002a0: 49b1 b43d 3b0e c93d 707b 903d d34c 353e
000002b0: ba7d 06be a02b 11be 9abc bd3d 22a0 efbd
000002c0: eceb 0fbe 1644 093d abae abbd 9fd9 223e
000002d0: ca86 fd3d 0ba1 afbd 3b88 3f3d 3a95 24be
000002e0: cfa1 3a3d d14f d5bd 7129 a33d 911a 9dbd
000002f0: 20b4 0ebe 9cd7 f13d 5354 f5bd 98b3 5c3d
00000300: a728 fa3d f7d6 f8bd 33a8 ca3d 5455 8e3d
00000310: fa4c 053e 16d7 bd3d c669 0cbd 047f 9dbd
00000320: 3861 48be fbb2 dabd 304d a4bd 925f 033e
00000330: 3361 ce3d 9414 123e f4ae 58be d832 053e
00000340: 3df6 9f3d a5d2 04be ce39 84bd 2395 713d
00000350: daaa 2a3e 9208 223e f5d3 20be b270 a63d
00000360: 47c9 c7bd 8633 a33d 02c9 8b3d 80f7 8d3a
00000370: 2491 163e 8f28 7e3d a79c 423e aac1 96bd
00000380: 9345 683d 3c8f 8bbd 744b c03c 5f29 093e
00000390: d4fe f0bd 7331 a63d aa02 b0bd 2d4f 15be
000003a0: 8262 0fbe b234 263e d8dc 423e a3ba dabd
000003b0: 8c44 abbc 0049 743b 3f72 563d 0813 07be
000003c0: 7008 623d d85b d2bd be5e bcbd c403 fe3d
000003d0: 882c ecbd 1a3d d03d c19c 3cbd 287c 0e3d
000003e0: 3323 c7bd 5ce8 383d 8054 843d cd87 92bd
000003f0: 8647 9cbd 3899 c5bd 9a2a 013e c228 efbd

stu.hidden.0.mlp.swiglu.w2.weight f4 [8, 32]
-0.090069436 0.10769542 0.083377235 0.10180325 0.08297657 -0.09611878 -0.154958 -0.08184746
-0.08498145 -0.11001606 0.08511104 0.08137162 0.115983665 -0.120102696 0.085213974 -0.1286915
0.060813796 -0.0794264 -0.106099926 -0.10874564 -0.08733212 0.13045372 -0.07744034 0.13759391
0.092114545 -0.12684268 -0.07279815 0.08883576 0.10923802 -0.11157781 0.097760834 -0.11873765
-0.076556794 -0.099857986 -0.07008255 -0.09894635 -0.08295355 -0.09216503 -0.10856714 0.1449344
-0.081753455 0.08561477 0.121002 -0.10959436 0.119699664 0.074965574 -0.11086322 -0.07451218
0.07563774 -0.1422747 0.0919584 0.101492114 -0.08308341 0.13572916 0.1165066 -0.13217717
-0.07767558 0.102413125 0.10545538 -0.10616515 -0.098357104 -0.1203192 -0.05198935 -0.087539375
0.09615778 0.07925675 -0.13474494 -0.098241545 0.08096478 0.10517961 0.10695313 -0.07653762
-0.11712101 -0.08601768 -0.07352413 0.079640485 -0.09148637 -0.09856118 -0.09798048 0.08236011
-0.12714091 0.11271532 -0.09632875 -0.07432619 0.09617009 -0.1061524 -0.09235563 0.09350478
0.10032392 -0.1266929 -0.094884135 0.04314396 0.061771713 0.1199597 0.10405392 0.05929273
-0.063340686 -0.07890869 0.10810383 0.08659806 -0.11861874 -0.11655391 -0.09082881 0.12918861
0.05385897 0.088612914 0.08093543 -0.10765153 0.10828364 0.09979556 0.1083735 -0.07589862
0.1305304 -0.11159824 0.05345779 0.11036699 -0.09152089 0.06794067 0.078805216 0.08245484
-0.05672707 -0.08842021 -0.1024386 -0.105047315 -0.06806111 -0.120128505 -0.09545514 -0.078474306
0.102394834 -0.11076913 0.15230401 0.100706555 -0.11064763 0.14404595 0.05871639 -0.09666183
0.10551051 -0.09250394 -0.07789051 -0.07654275 -0.07154675 0.080828555 0.088793784 0.054469556
-0.14154452 0.109344415 -0.10962176 0.097998895 0.073185176 -0.07096221 -0.091901034 0.07979488
-0.06634158 -0.08308904 -0.11307623 -0.107856 -0.08859229 0.1053196 0.08379861 0.08690232
-0.11187415 0.08842973 -0.096179545 -0.048493166 0.083832845 -0.09820115 -0.05750855 0.11764855
-0.11376737 0.1055032 0.09935187 0.056580383 0.08561974 0.11105035 -0.113736086 -0.10130227
0.10234093 -0.090292364 0.09573307 0.13642299 -0.04939784 0.10372265 0.11857352 -0.08967541
-0.088758945 0.13129452 0.12081597 -0.08853115 0.07862967 -0.09664457 -0.124969356 -0.08760938
0.09439666 0.077113196 -0.11060978 -0.09629261 0.09894028 0.08360858 0.089580454 -0.106311396
-0.12591684 -0.11609258 -0.11984837 0.095938504 -0.10752049 -0.13715786 0.11223831 0.1032644
-0.05655814 -0.10728502 -0.09484017 -0.10434537 0.109857425 -0.116101354 -0.09757244 -0.113455154
0.089237705 -0.10027711 -0.07778204 0.123938255 -0.118013345 0.13526332 0.13340019 0.09497948
0.13640434 0.12200497 -0.14555916 -0.08885837 0.15055324 -0.1266396 0.10020555 -0.1067547
-0.10512468 -0.102537535 -0.10759764 0.0941715 -0.10994605 -0.11537094 -0.072076306 0.1369203
0.081657626 -0.14994076 0.1297318 -0.08321019 -0.09376347 0.105274454 -0.09976769 -0.08401321
-0.09961353 0.06557831 0.099292606 0.0919106 0.08523372 -0.11657748 0.06414874 -0.07500702
00000000: 5376 b8bd 6b8f dc3d afc1 aa3d 397e d03d
00000010: 9fef a93d ecd9 c4bd 4fad 1ebe a49f a7bd
00000020: c10a aebd 1a50 e1bd b24e ae3d 2aa6 a63d
00000030: d888 ed3d 67f8 f5bd aa84 ae3d b4c7 03be
00000040: e317 793d 4faa a2bd eb4a d9bd 09b6 debd
00000050: 2fdb b2bd a995 053e 0a99 9ebd 6be5 0c3e
00000060: 8da6 bc3d 0ce3 01be 3217 95bd 86ef b53d
00000070: 2fb8 df3d e882 e4bd d536 c83d ba2c f3bd
00000080: cfc9 9cbd 5882 ccbd 7187 8fbd 62a4 cabd
00000090: 8de3 a9bd 05c1 bcbd 7358 debd af69 143e
000000a0: 5b6e a7bd cc56 af3d e6cf f73d 0273 e0bd
000000b0: 1925 f53d 8d87 993d 420c e3bd d899 98bd
000000c0: f6e7 9a3d 75b0 11be b054 bc3d 19db cf3d
000000d0: a327 aabd 96fc 0a3e 039b ee3d 7459 07be
000000e0: 6014 9fbd f9bd d13d fef8 d73d 1d6d d9bd
000000f0: 736f c9bd ea69 f6bd c9f2 54bd d847 b3bd
00000100: 5fee c43d 5d51 a23d 94fa 09be dd32 c9bd
00000110: ddd0 a53d 6868 d73d 3e0a db3d c1bf 9cbd
00000120: 24dd efbd 0a2a b0bd d293 96bd 8d1a a33d
00000130: 355d bbbd 72da c9bd fda9 c8bd 6bac a83d
00000140: 3a31 02be 4ad7 e63d 0248 c5bd 5438 98bd
00000150: d3f4 c43d 6e66 d9bd f324 bdbd 6f7f bf3d
00000160: a176 cd3d c9bb 01be 9d52 c2bd b9b7 303d
00000170: 5604 7d3d 6ead f53d 391a d53d efdc 723d
00000180: c3b8 81bd e19a a1bd 8a65 dd3d 535a b13d
00000190: 62ee f2bd d1b3 eebd 7504 babd 054a 043e
000001a0: 399b 5c3d b07a b53d 7ac1 a53d 6878 dcbd
000001b0: d0c3 dd3d 9d61 cc3d edf2 dd3d bc70 9bbd
000001c0: c3a9 053e 9e8d e4bd 8ef6 5a3d 1708 e23d
000001d0: 4e6f bbbd 7a24 8b3d a164 a13d 15de a83d
000001e0: a55a 68bd a815 b5bd 54cb d1bd 0c23 d7bd
000001f0: a063 8bbd ef05 f6bd fc7d c3bd 23b7 a0bd
00000200: 62b4 d13d edda e2bd 95f5 1b3e 3d3f ce3d
00000210: 3a9b e2bd c880 133e 9980 703d a3f6 c5bd
00000220: e515 d83d b572 bdbd 0f85 9fbd 72c2 9cbd
00000230: 1a87 92bd 7189 a53d 84d9 b53d 781b 5f3d
00000240: 0cf1 10be f7ef df3d 6081 e0bd a5b3 c83d
00000250: 1ce2 953d a354 91bd 9c36 bcbd 7f6b a33d
00000260: 18de 87bd 962a aabd 8394 e7bd 9be3 dcbd
00000270: e06f b5bd cdb1 d73d 9b9e ab3d d8f9 b13d
00000280: 461e e5bd a51a b53d c8f9 c4bd c5a0 46bd
00000290: 8eb0 ab3d af1d c9bd 168e 6bbd b9f1 f03d
000002a0: defe e8bd 1012 d83d fe78 cb3d d5c0 673d
000002b0: 6759 af3d 5e6e e33d 77ee e8bd 9177 cfbd
000002c0: 1f98 d13d 34eb b8bd b30f c43d 78b2 0b3e
000002d0: 6455 4abd 8a6c d43d acd6 f23d bea7 b7bd
000002e0: 40c7 b5bd 1272 063e 5d6e f73d d24f b5bd
000002f0: 9808 a13d 97ed c5bd efef ffbd 8c6c b3bd
00000300: 0953 c13d 86ed 9d3d 6187 e2bd 0f35 c5bd
00000310: 34a1 ca3d fa3a ab3d f575 b73d cab9 d9bd
00000320: 58f0 00be f2c1 edbd 1073 f5bd 687b c43d
00000330: b433 dcbd 1c73 0cbe 33dd e53d 497c d33d
00000340: 82a9 67bd 40b8 dbbd 903b c2bd 06b3 d5bd
00000350: eefc e03d 8cc6 edbd 0fd4 c7bd 2d5b e8bd
00000360: 42c2 b63d 165e cdbd 314c 9fbd 57d3 fd3d
00000370: fbb0 f1bd 7882 0a3e 0f9a 083e 9a84 c23d
00000380: 94ad 0b3e bedd f93d 760d 15be 61fb b5bd
00000390: a12a 1a3e d0ad 01be 9138 cd3d 35a2 dabd
000003a0: 9c4b d7bd 33ff d1bd 275c dcbd fddc c03d
000003b0: 652b e1bd 9947 ecbd be9c 93bd d634 0c3e
000003c0: 1d3c a73d 128a 19be 6ad8 043e 1b6a aabd
000003d0: 1007 c0bd 229a d73d 0153 ccbd 1e0f acbd
000003e0: 2e02 ccbd ec4d 863d ec59 cb3d a03b bc3d
000003f0: 048f ae3d 2dc0 eebd 6a60 833d 489d 99bd

stu.hidden.1.rn_1.weight f4 [8]
1.0999975 0.9000001 0.90000004 0.90000004 0.9000004 0.9000003 1.1 0.9000002
00000000: b8cc 8c3f 6866 663f 6766 663f 6766 663f
00000010: 6d66 663f 6b66 663f cdcc 8c3f 6a66 663f

stu.hidden.1.stu.M_u f4 [8, 3, 8]
0.08976989 -0.04171165 -0.034029283 0.1694023 0.058747977 -0.043949105 -0.08757919 -0.18569128
-0.06670925 -0.2336936 0.073443756 0.20286489 0.2768102 -0.27380887 0.021544121 -0.13726185
0.03963677 -0.25774232 0.12898064 -0.04511758 0.1784643 -0.14086848 0.14999041 -0.17861608
0.22090447 -0.11018445 -0.10766292 0.06054637 0.06524636 0.3092198 0.11416317 -0.18334778
-0.038360663 -0.12014385 -0.27785593 -0.004993774 -0.29464015 0.06800728 -0.16759187 -0.23604028
0.14916787 0.22320516 0.06766883 -0.1109448 0.06587574 0.18707252 0.08272055 -0.21003407
-0.1147146 -0.030856565 -0.19609232 -0.10175435 -0.17265403 0.18404391 0.039298862 -0.021644235
-0.07833078 -0.058784023 0.0053037107 -0.31943506 0.084758975 -0.046002805 -0.08371908 0.3008952
-0.08488245 0.09898553 -0.2584555 -0.2509681 -0.04043024 -0.05180429 -0.09862282 -0.1343604
0.11953192 0.120018154 -0.1289843 0.12508827 -0.09485646 -0.036553003 -0.0109055415 0.04199747
0.05959762 0.047960885 -0.057489358 0.25707376 0.014931217 -0.11141328 0.074151404 -0.20371744
0.100611694 -0.18532988 0.047033228 0.3065741 -0.08321059 0.037589446 -0.11712163 0.24305955
0.27736264 -0.2415615 0.045388125 0.0879331 0.041044652 0.0646274 0.23738247 -0.119857065
0.098360404 0.11193567 -0.09903265 -0.20339057 -0.05334934 -0.017891034 0.108820476 0.21390674
0.1666561 -0.146002 0.17993793 0.21011958 0.04525286 -0.102287814 -0.03023915 0.24889517
-0.29264158 0.1812499 -0.027048737 0.06341262 -0.007707946 0.2430719 -0.025903054 0.1809307
-0.16915491 -0.018069297 0.13089025 -0.30606127 0.23333637 -0.030131795 0.06984092 0.23712
-0.27504212 0.32586202 0.06631881 0.2051924 0.10116332 -0.11187849 -0.25978476 0.3242187
0.25946966 -0.033601798 -0.054246426 -0.24018219 -0.32537845 0.10033984 -0.2833196 -0.3253665
0.119920045 0.11586085 -0.26401338 -0.21746755 -0.12385463 0.3052405 -0.01937855 -0.31341088
0.03613331 -0.09444316 0.004340738 -0.2846932 -0.24791546 0.056986474 -0.25031048 -0.14466934
-0.0055100024 0.032555476 -0.12977064 -0.016528837 -0.11152345 0.09112203 0.2301907 -0.023903377
-0.032944575 -0.06509562 0.00076414645 0.04074376 0.113103636 -0.09499675 0.19800156 -0.33051342
-0.115393095 -0.09654042 -0.049263515 0.062295035 0.04145094 -0.258829 0.32871142 0.017025791
00000000: 47d9 b73d d6d9 2abd 4a62 0bbd cc77 2d3e
00000010: b8a1 703d fa03 34bd b85c b3bd db25 3ebe
00000020: dc9e 88bd 604d 6fbe ae69 963d d0bb 4f3e
00000030: 11ba 8d3e ad30 8cbe 4c7d b03c 5f8e 0cbe
00000040: 2a5a 223d cdf6 83be 8013 043e 36cd 38bd
00000050: 58bf 363e d43f 10be 1697 193e 22e7 36be
00000060: c834 623e 63a8 e1bd 617e dcbd 78ff 773d
00000070: e29f 853d 0f52 9e3e 61ce e93d 85bf 3bbe
00000080: 1220 1dbd fb0d f6bd 2243 8ebe d0a2 a3bb
00000090: 13db 96be 6747 8b3d 349d 2bbe 8bb4 71be
000000a0: 76bf 183e e58f 643e f595 8a3d 0737 e3bd
000000b0: dce9 863d f08f 3f3e 6469 a93d 2c13 57be
000000c0: 7def eabd e8c6 fcbc 6dcc 48be 9664 d0bd
000000d0: 38cc 30be 0276 3c3e d8f7 203d 404f b1bc
000000e0: e36b a0bd 84c7 70bd c0ca ad3b fe8c a3be
000000f0: 1d96 ad3d 706d 3cbd e974 abbd f00e 9a3e
00000100: dad6 adbd edb8 ca3d 4754 84be e47e 80be
00000110: 2e9a 25bd bc30 54bd c3fa c9bd c695 09be
00000120: 27cd f43d 14cc f53d 7614 04be 2417 003e
00000130: 1b44 c2bd 9ab8 15bd 28ad 32bc 8a05 2c3d
00000140: a21c 743d a272 443d f679 6bbd 2c9f 833e
00000150: 10a2 743c a52c e4bd b1dc 973d 4e9b 50be
00000160: 810d ce3d 1ec7 3dbe eaa5 403d 48f7 9c3e
00000170: 506a aabd 64f7 193d 77dd efbd 9ae4 783e
00000180: 7a02 8e3e e65b 77be e6e8 393d 4516 b43d
00000190: 701e 283d 5f5b 843d 6414 733e 9f77 f5bd
000001a0: 2e71 c93d 873e e53d a1d1 cabd 9e45 50be
000001b0: d684 5abd 3890 92bc 45dd de3d 5e0a 5b3e
000001c0: e6a7 2a3e 8c81 15be a641 383e 9629 573e
000001d0: 105b 393d 467c d1bd 18b8 f7bc 60de 7e3e
000001e0: 1ed5 95be 9399 393e 5095 ddbc 7ade 813d
000001f0: f092 fcbb d7e7 783e a432 d4bc e645 393e
00000200: f236 2dbe 1006 94bc 1808 063e 10b4 9cbe
00000210: bbef 6e3e f4d6 f6bc c208 8f3d 96cf 723e
00000220: 52d2 8cbe 63d7 a63e 28d2 873d f51d 523e
00000230: b72e cf3d 8d20 e5bd 8202 85be feff a53e
00000240: 35d9 843e 0aa2 09bd 8031 5ebd 52f2 75be
00000250: 0198 a6be f97e cd3d 440f 91be 7096 a6be
00000260: a498 f53d 7448 ed3d c32c 87be d0af 5ebe
00000270: 7fa7 fdbd 7c48 9c3e c4bf 9ebc 6477 a0be
00000280: 8600 143d 6a6b c1bd c03c 8e3b 4fc3 91be
00000290: 8ddd 7dbe a66a 693d b228 80be 3324 14be
000002a0: 408d b4bb e458 053d 98e2 04be 7c67 87bc
000002b0: 6866 e4bd 309e ba3d 1cb7 6b3e 04d1 c3bc
000002c0: e4f0 06bd da50 85bd 0051 483a eee2 263d
000002d0: e1a2 e73d a88d c2bd ecc0 4a3e 0e39 a9be
000002e0: 3753 ecbd fcb6 c5bd 8ac8 49bd 1429 7f3d
000002f0: 76c8 293d 3c85 84be dd4c a83e ac79 8b3c
