checkpoints/sssm-Walker2D-v1-model_step-875-2024-11-18-16-06-46.pt (torch, 34490 bytes, 18 tensors)

emb.weight f4 [8, 24]
0	0xbec82c04	-0.3909608
1	0x3e668d58	0.22514856
2	0x3ea3b0c4	0.319708
3	0x3ea86a16	0.32893437
4	0x3ec9c8d0	0.3941102
5	0x3aca6e1d	0.0015444193
6	0xbcaffc30	-0.021482557
7	0x3e8bbc0c	0.27291906
8	0x3e27ea51	0.16397978
9	0xbf0144f0	-0.50495815
10	0x3d3f1e4e	0.04665976
11	0x3dad0b1e	0.08449386
12	0xbc87018e	-0.016480234
13	0xbb9ec8ec	-0.004845729
14	0xbe5ae0aa	-0.21374765
15	0x3daf5e4c	0.085629076
16	0xbddc3661	-0.107525595
17	0xbc77bc48	-0.015120573
18	0x3b32487d	0.002720385
19	0x3e68931d	0.2271237
20	0x3e529e61	0.2056823
21	0xbd8ac2f6	-0.06775467
22	0x3e657531	0.22407986
23	0x3e8fe5ef	0.28105113
24	0x3e247035	0.16058429
25	0xbe820aa9	-0.25398758
26	0xbe389712	-0.18026379
27	0x3eaf034f	0.34182212
28	0x3ed3237a	0.41238004
29	0xbd2966b6	-0.04135772
30	0x3e786117	0.24255787
31	0x3e9c6202	0.30543524
32	0x3ec944a2	0.39310175
33	0x3e601cda	0.21886006
34	0xbecec526	-0.40384787
35	0x3d8be356	0.0683047
36	0x3d7d5adf	0.06185424
37	0xbd97f2e2	-0.07419373
38	0x3c504b06	0.0127131995
39	0x3da6d2e1	0.08145691
40	0x3d1d8184	0.038453594
41	0xbecbfd8d	-0.3984188
42	0x3d3b3f72	0.045714803
43	0x3d16d7cf	0.036826905
44	0xbc6d4c95	-0.014483591
45	0xbdf2871b	-0.118421756
46	0x3cce337e	0.025171038
47	0x3dcc0f7f	0.09963893
48	0x3deef776	0.11668293
49	0x3e1ceaa9	0.15323891
50	0xbe3cc81c	-0.1843571
51	0x3d05f4d1	0.03270418
52	0xbe901db7	-0.2814767
53	0xbda17b91	-0.078848965
54	0xb9aba790	-0.00032740505
55	0xbe7b9da4	-0.24571854
56	0xbe32c02d	-0.17456122
57	0xbebf1205	-0.37318435
58	0x3eeb3c6f	0.45944545
59	0xbe8cda5e	-0.2751035
60	0xbae730d7	-0.0017638457
61	0x3eae08c3	0.3399106
62	0xbd1e2e50	-0.038618386
63	0x3e9a24be	0.30106157
64	0x3e22316e	0.15839168
65	0xbe435f37	-0.1907929
66	0x3d56e874	0.05246778
67	0xbdce4298	-0.100712955
68	0x3e31291b	0.17300837
69	0xbd865b2e	-0.0656036
70	0xbdec76d2	-0.11546101
71	0x3dfecc7d	0.12441347
72	0xbd9ac3c7	-0.07556873
73	0xbe80da38	-0.25166488
74	0xbd9ea174	-0.077456385
75	0x3e4133d2	0.18867424
76	0x3dc285c7	0.09498172
77	0x3e2f4f04	0.17119986
78	0x3ddd5458	0.10807103
79	0xbe41da09	-0.1893083
80	0xbcb89fcb	-0.022537133
81	0x3de95a7c	0.11394212
82	0xbe8530f1	-0.26013902
83	0xbc681a8c	-0.0141664855
84	0x3f029d7e	0.51021564
85	0x3e04b8a9	0.12961067
86	0xbeaa216f	-0.33228633
87	0x3e44ac45	0.1920634
88	0x3e3ee4e0	0.18641996
89	0xbdbd6da8	-0.09249431
90	0x3f03982d	0.51404077
91	0xbe5883a9	-0.21143974
92	0x3e826271	0.2546573
93	0xbcd17f68	-0.025573447
94	0x3e55b305	0.20869072
95	0x3bce1d83	0.006290139
96	0xbd68e848	-0.056862146
97	0x3e7cb5b7	0.24678694
98	0xbe1c3c2e	-0.15257332
99	0x3cdec504	0.027193554
100	0xbe029bfd	-0.12754817
101	0x3dc030ea	0.093843296
102	0xbdf71dac	-0.12066206
103	0x3e031941	0.12802602
104	0x3caaa58f	0.020830898
105	0x3d8f3bc2	0.0699382
106	0xbeb4a1be	-0.3527965
107	0x3e2af2e1	0.16694213
108	0xbc267b0d	-0.0101611735
109	0x3e083c94	0.13304359
110	0x3e578fd0	0.21050954
111	0xbda2ff58	-0.07958859
112	0x3e0772b9	0.13227357
113	0x3f14d4d5	0.58137256
114	0xbd72742f	-0.059192833
115	0x3ddda6cb	0.10822829
116	0x3e93635c	0.28786743
117	0x3bdbd3e1	0.0067086075
118	0x3e69c744	0.2282992
119	0x3e5a6b61	0.21330024
120	0x3e3abd4e	0.18236277
121	0x3e33f14d	0.17572518
122	0x3efd2770	0.4944415
123	0xbd76d5f4	-0.060262635
124	0x3e441982	0.19150355
125	0x3e8cd575	0.27506605
126	0x3e54804d	0.20752068
127	0xbd3bf55f	-0.0458883
128	0xbceb4d34	-0.028723337
129	0x3da8ceb1	0.08242548
130	0x3da899e1	0.08232475
131	0x3d5afad6	0.053461872
132	0xbdb5b714	-0.0887281
133	0x3e22b09f	0.15887688
134	0xbe4c7506	-0.19966516
135	0x3e8c56d6	0.2741
136	0x3dbaf167	0.09128075
137	0xbe054da6	-0.13017902
138	0xbe723013	-0.23651151
139	0x3dc2ab8e	0.09505378
140	0x3d40fbca	0.047115125
141	0xbe06a9f2	-0.13150766
142	0x3d0ca78c	0.034339473
143	0xbd8fd953	-0.07023873
144	0x3e4e89a2	0.2016969
145	0x3e290f46	0.16509733
146	0x3dc1268a	0.09431179
147	0x3d0a69e3	0.033792388
148	0x3d941454	0.0723044
149	0xbe9d0fca	-0.3067611
150	0x3c60d3d8	0.0137223825
151	0xbe9ed6db	-0.31023297
152	0xbe59f375	-0.21284278
153	0xbe921131	-0.2852874
154	0x3c42dcf4	0.0118935
155	0xbe624781	-0.22097589
156	0xbe56dafc	-0.20981973
157	0xbdb8f2a0	-0.09030652
158	0x3e9a7424	0.30166733
159	0x3b2ec0ab	0.0026665132
160	0xbca8d546	-0.02060951
161	0x3dc9f3dc	0.098609656
162	0xbe3cff7a	-0.18456832
163	0xbd7b240b	-0.06131367
164	0x3e297a9c	0.16550678
165	0xbd72a167	-0.059235957
166	0xbd9d53aa	-0.07681973
167	0xbd7fdac3	-0.062464487
168	0xbe4fc57c	-0.20290178
169	0x3eaa6cb8	0.3328607
170	0xbe8b65e0	-0.27226162
171	0xbe787a13	-0.24265318
172	0x3f052ad6	0.5201849
173	0x3dc287ff	0.094985954
174	0x3ea1e3c9	0.316191
175	0x3ec46b4e	0.38363117
176	0x3d90cb65	0.070700444
177	0x3e32b30c	0.17451113
178	0xbdbd07db	-0.09230014
179	0xbd4693a7	-0.048480656
180	0xbe9e1652	-0.30876404
181	0xbc8eef50	-0.017448097
182	0xbe3a5469	-0.18196262
183	0x3e787ffd	0.24267574
184	0xbdb9d978	-0.09074682
185	0xbf026f95	-0.5095151
186	0xbf0b5bf7	-0.544372
187	0x3ee4fa04	0.44721997
188	0x3d48d0e5	0.049027342
189	0xbd1144b8	-0.035465926
190	0x3e9d7775	0.307552
191	0xbe89a8b6	-0.2688653

stu.hidden.0.rn_1.weight f4 [8]
0	0x3f2031ae	0.62575805
1	0x3f7796fc	0.9671476
2	0x3f5074a3	0.81427974
3	0x3f552b6f	0.832694
4	0x3f515285	0.8176654
5	0x3f55a005	0.83447295
6	0x3ee078ce	0.43842167
7	0x3f3f40fc	0.74708533

stu.hidden.0.stu.M_u f4 [8, 3, 8]
0	0xbeaa0967	-0.33210298
1	0xbd838e4d	-0.06423626
2	0xbe00add4	-0.1256631
3	0x3e2494e6	0.16072425
4	0x3def4e3d	0.11684845
5	0xbec56f0a	-0.3856128
6	0xbd52b237	-0.05143949
7	0xbe224336	-0.15845951
8	0xbec40e60	-0.38292217
9	0x3e80a319	0.25124434
10	0xbd8d0f40	-0.06887674
11	0x3e0af190	0.13568711
12	0xbcd98718	-0.026553676
13	0x3d8e0d61	0.069361456
14	0x3bd6dbe4	0.0065569747
15	0xbed4d48f	-0.4156842
16	0xbe8ea464	-0.27859795
17	0x3e4787a3	0.19485335
18	0xbe10b5ad	-0.14131804
19	0xbdf1f2e8	-0.11813909
20	0xbded6b32	-0.115927115
21	0xbe867bd5	-0.2626635
22	0xbe65059f	-0.22365426
23	0xbd0709bd	-0.03296827
24	0x3d09811c	0.033570394
25	0xbf12dffb	-0.5737302
26	0xbe199526	-0.14998302
27	0xbe2e5c6a	-0.1702744
28	0x3edcee46	0.43150538
29	0xbe3fdf10	-0.18737435
30	0x3d931d46	0.07183318
31	0x3de8fa6e	0.11375891
32	0x3a9de4c6	0.0012046329
33	0xbeb0f90c	-0.34565008
34	0xbddd1992	-0.10795893
35	0xbb8686b6	-0.0041054143
36	0xbd4e5a71	-0.05037922
37	0x3dc6e526	0.09711675
38	0x3eb96f94	0.3621794
39	0xbd899a0b	-0.067188345
40	0xbd3326f6	-0.043738328
41	0xbe93ccfe	-0.28867334
42	0xbd97d6cd	-0.07414017
43	0x3e14caac	0.14530438
44	0x3e103f84	0.1408673
45	0x3cbd6080	0.023117304
46	0xbdb478c0	-0.08812094
47	0xbc8b7919	-0.017025517
48	0x3da2946e	0.07938467
49	0x3cdcdca1	0.026960673
50	0x3c82b701	0.015956404
51	0xbdbfeef9	-0.09371752
52	0xbdd60a11	-0.10451139
53	0xbe2ec3f9	-0.17066945
54	0xbdf0ddfa	-0.11761089
55	0xbd24e4f2	-0.0402574
56	0x3d97cff5	0.074127115
57	0x3e182f9b	0.1486191
58	0xbdbe19a1	-0.09282232
59	0x3dc008c8	0.09376675
60	0xbca026af	-0.019549696
61	0xbe2576b6	-0.16158566
62	0xbd8a189b	-0.06742974
63	0xbdfb56db	-0.12272426
64	0x3d98be7d	0.07458208
65	0x3e8541e2	0.26026827
66	0xbdc44f54	-0.09585443
67	0x3d8d9e5f	0.069149725
68	0xbd5b0d63	-0.053479563
69	0x3cbe8733	0.023257827
70	0x3cfb3052	0.03066269
71	0x3dba8bdc	0.09108707
72	0xbd2d8413	-0.042362284
73	0x3e36724f	0.17817043
74	0xbe506228	-0.20349944
75	0xbf59b13c	-0.85036063
76	0xbe976fef	-0.29577586
77	0xbe86bdfc	-0.26316822
78	0xbdc888ca	-0.097917154
79	0xbc902ed1	-0.017600449
80	0xbe6103ec	-0.21974152
81	0xbd8bb0e9	-0.06820852
82	0xbccd1f6e	-0.0250394
83	0xbe9d9275	-0.307758
84	0x3da75e2a	0.08172257
85	0xbe1b398e	-0.15158674
86	0x3defa526	0.117014214
87	0x3df51492	0.11966814
88	0x3c627e44	0.013824049
89	0x3e3e54aa	0.18586984
90	0x3dbbeb5f	0.09175753
91	0x3d6c7f66	0.057738684
92	0xbe733380	-0.23750114
93	0xbdd2e5b5	-0.102977194
94	0x3d3004b8	0.04297325
95	0xbca410c8	-0.020027533
96	0x3e0acbf4	0.13554364
97	0x3db13aca	0.08653791
98	0x3e0b5e66	0.13610229
99	0xbc17e55a	-0.00927099
100	0xbe5218a4	-0.20517212
101	0xbea046bf	-0.31303975
102	0x3e3db892	0.18527439
103	0xbd403874	-0.046928838
104	0x3e8908b6	0.26764458
105	0x3da6d261	0.08145595
106	0x3c0227a5	0.007944022
107	0x3e967a97	0.29390404
108	0x3db87731	0.09007109
109	0xbe3404f1	-0.1758001
110	0xbdd03abf	-0.10167455
111	0xbd858039	-0.06518597
112	0x3ea41669	0.32048348
113	0xbe17d8f1	-0.1482885
114	0x3e33c101	0.17554094
115	0x3db5e051	0.088806756
116	0xbda60607	-0.081066184
117	0xbecc0c20	-0.39853
118	0xbd1cbdaa	-0.038266815
119	0xbdf68567	-0.12037163
120	0xbd8c0415	-0.06836716
121	0xbe7660cf	-0.24060367
122	0xbd361089	-0.044449363
123	0x3e205c85	0.15660293
124	0xbc650388	-0.013977893
125	0x3cf034a7	0.029321982
126	0x3bb81665	0.005617904
127	0x3de4218a	0.111392096
128	0x3d481e3c	0.04885696
129	0xbd383de0	-0.044980884
130	0xbdd7b28d	-0.10532103
131	0xbe26003c	-0.16211027
132	0x3e31a0f6	0.17346558
133	0xbe766bcc	-0.24064559
134	0xbd9e7f4e	-0.07739125
135	0xbe3328c7	-0.17496024
136	0xbce77796	-0.028255265
137	0x3d335b75	0.043788392
138	0xbe31f883	-0.17379956
139	0x3d67d426	0.056598805
140	0x3e472d91	0.19450976
141	0x3d2fcbc9	0.042918954
142	0xbe0cf607	-0.13765727
143	0x3e3df3f3	0.1855009
144	0x3e37bee9	0.1794392
145	0xbdf8dfa5	-0.12152032
146	0xbe0d199c	-0.137793
147	0x3e1f1b3c	0.15537733
148	0x3e1ac8b0	0.15115619
149	0xbe53a78e	-0.20669386
150	0xbda7bc4c	-0.08190212
151	0xbc6a1db6	-0.01428931
152	0x3d908cce	0.07058106
153	0xbddd449c	-0.10804102
154	0x3e0b9196	0.13629755
155	0x3a84c031	0.0010128078
156	0x3e0615dd	0.13094278
157	0x3c853898	0.016262338
158	0xbe5b984f	-0.2144482
159	0x3df87166	0.12131004
160	0xbcbda6e1	-0.023150863
161	0xbe17089e	-0.14749381
162	0x3e5bd855	0.21469243
163	0x3e09664f	0.13417934
164	0x3c1351f2	0.008991705
165	0x3cce4a36	0.02518187
166	0xbf0869d5	-0.53286487
167	0xbe8bc3d7	-0.2729785
168	0xbc7392ac	-0.014866512
169	0x3d0cb1b5	0.034349162
170	0xbd1ded2f	-0.038556274
171	0x3d80199b	0.06254884
172	0x3dc62b5e	0.096762404
173	0xbe76555a	-0.24055997
174	0xbdf5d184	-0.120028526
175	0xbef74ed6	-0.48302335
176	0x3df3ee1b	0.119106494
177	0x3d1f7ea6	0.03893914
178	0xbe064e96	-0.13115916
179	0x3e06cd14	0.13164169
180	0x3e108aba	0.1411542
181	0xbe58e668	-0.21181643
182	0xbe2b3558	-0.16719568
183	0xbe8a7d08	-0.27048516
184	0x3ce8f980	0.028439283
185	0x3e87e521	0.26542
186	0x3ce50449	0.027956145
187	0x3e3ab7d3	0.18234186
188	0x3df60cf6	0.12014191
189	0xbe807582	-0.2508965
190	0x3c2eae37	0.010661653
191	0xbdd60f4c	-0.104521364

stu.hidden.0.stu.M_phi_plus f4 [8, 16, 8]
0	0xbd65ce43	-0.05610491
1	0xbe0d1df3	-0.13780956
2	0xbeb9d5da	-0.36295968
3	0xbeb89c5a	-0.36056787
4	0x3e6e48ee	0.23270008
5	0x3e5182de	0.20460078
6	0x3f406bf5	0.7516473
7	0xbeca0770	-0.394588
8	0x3e8f7c02	0.28024298
9	0xbe60005d	-0.21875139
10	0xbf1bb530	-0.60823345
11	0xbea8d015	-0.32971254
12	0xbd74abb8	-0.059734076
13	0x3ed64f25	0.41857257
14	0x3ee969f7	0.45588657
15	0xbecc5eae	-0.39915985
16	0x3f268324	0.65043855
17	0x3f19b9ce	0.6004914
18	0xbf2c3d39	-0.6728092
19	0xbe6cb308	-0.2311517
20	0xbec174b8	-0.37784362
21	0x3f108530	0.5645323
22	0x3c5cca20	0.013475925
23	0xbf00fd6e	-0.50386703
24	0xbdb91afc	-0.0903835
25	0xbf0c9aef	-0.5492391
26	0x3e8acbef	0.27108714
27	0xbea6598f	-0.32490203
28	0xbbca512b	-0.0061742268
29	0xbe2c7946	-0.16843137
30	0x3e8b8558	0.2725017
31	0x3dbc75af	0.09202134
32	0xbf6aa387	-0.9165577
33	0xbf2bb651	-0.6707507
34	0x3f3260a2	0.696787
35	0x3d0fe10c	0.03512673
36	0x3eb2279c	0.34795845
37	0xbf2af34b	-0.66777486
38	0xbf2fd073	-0.68677443
39	0x3f0274fa	0.5095974
40	0xbeec8c05	-0.46200576
41	0xbd1b554c	-0.037923142
42	0x3ef1bbe0	0.4721365
43	0x3ec30aad	0.38094082
44	0x3da71050	0.08157408
45	0xbf23f0a2	-0.6403905
46	0xbf4c15f6	-0.7972101
47	0x3e14d64f	0.14534877
48	0x3f2900a1	0.66016585
49	0x3f7086a4	0.93955445
50	0xbe332368	-0.17493975
51	0x3cbcb67d	0.023036236
52	0x3c1b62a9	0.009483972
53	0x3e8c70cd	0.2742981
54	0xbd0c6d60	-0.034283996
55	0xbeae673f	-0.34063146
56	0x3f155b48	0.5834241
57	0x3f204f60	0.62621117
58	0xbf24b042	-0.6433145
59	0xbe9b9a9c	-0.30391395
60	0x3e20901c	0.15679973
61	0x3f437fbe	0.76366794
62	0x3eda7388	0.42666268
63	0xbe91e906	-0.28498095
64	0x3d2a5101	0.041581158
65	0xbc80f18a	-0.015740175
66	0xbf1cbd54	-0.6122639
67	0xbee3127b	-0.44350037
68	0x3ef9f46a	0.48819286
69	0x3f7fb96f	0.99892324
70	0x3f226362	0.63432896
71	0xbdadfbf4	-0.08495322
72	0xbf5edb30	-0.87053204
73	0xbece78cb	-0.40326533
74	0xbeaa22d5	-0.332297
75	0xbeebecd0	-0.4607911
76	0x3e9c3ddb	0.30515942
77	0x3ee90c5e	0.45517248
78	0x3f2118d3	0.62928504
79	0x3dc83851	0.097763665
80	0xbedeb5ea	-0.43498164
81	0xbe8938f7	-0.26801273
82	0xbeb8f1f0	-0.36122084
83	0xbdab7766	-0.08372383
84	0x3e53d5f9	0.20687093
85	0x3d3f4459	0.04669604
86	0x3ea65202	0.32484442
87	0x3eb03dc1	0.34422114
88	0xbdce19e0	-0.10063529
89	0xbd0c1679	-0.03420112
90	0x3d57f4de	0.052723758
91	0xbcbf43d0	-0.023347765
92	0xbcfaf3d7	-0.03063385
93	0xbd8ba6e1	-0.06818939
94	0xbe49dbf6	-0.19712815
95	0xbe5f4dbd	-0.21806999
96	0x3df5e612	0.12006773
97	0x3e1c57d4	0.15267879
98	0x3c5600d6	0.013061723
99	0x3c845d0b	0.016157648
100	0xbdee0dbd	-0.11623714
101	0xbe101938	-0.1407212
102	0xbd9615ba	-0.07328363
103	0xbeb997d7	-0.36248657
104	0xbe12f2e6	-0.14350471
105	0xbe9c794e	-0.30561298
106	0x3e420b78	0.18949687
107	0xbccb0228	-0.024781302
108	0x3eacfb27	0.33785364
109	0x3b7ea559	0.003885588
110	0x3d59afb1	0.053146068
111	0x3e11f101	0.14252092
112	0x3d46087a	0.048347928
113	0x3e958a70	0.29207182
114	0xbe592e8e	-0.21209165
115	0xbd47aded	-0.048749853
116	0xbe812879	-0.2522619
117	0x3d30b3c1	0.043140177
118	0xbe253bca	-0.16136089
119	0xbd94b486	-0.072609946
120	0xbe5354a4	-0.20637757
121	0x3de832a5	0.11337785
122	0x3c314695	0.010820051
123	0x3ded25d3	0.1157948
124	0xbdb908bb	-0.09034868
125	0xbe4c5bae	-0.19956848
126	0xbe47c479	-0.19508542
127	0xbea0778c	-0.31341207
128	0x3f6b04da	0.9180428
129	0x3e31fa30	0.17380595
130	0x3ea82b46	0.32845515
131	0xbf0fb609	-0.5613714
132	0xbed3e15d	-0.41382876
133	0x3e6edd1d	0.23326536
134	0x3e073ac0	0.13206005
135	0xbe2eca62	-0.1706939
136	0x3f47eae7	0.7809281
137	0x3d32ce5c	0.04365383
138	0x3e21c033	0.15795974
139	0xbf0979d1	-0.537015
140	0xbe98f759	-0.2987621
141	0x3e131603	0.14363866
142	0x3e138d72	0.14409426
143	0xbdc4c85a	-0.096085265
144	0x3e901620	0.2814188
145	0xbe15efc4	-0.14642245
146	0x3ea81668	0.32829595
147	0xbea6c247	-0.32570097
148	0xbeffc77e	-0.49956888
149	0xbd865b88	-0.06560427
150	0x3ef153a5	0.47134128
151	0xbdf1696d	-0.117876865
152	0x3f7f3b84	0.9970019
153	0x3e4c5835	0.19955523
154	0x3d830bf2	0.06398763
155	0xbf0eb9ef	-0.5575246
156	0xbeb6da2c	-0.35713327
157	0x3eec6ca9	0.4617665
158	0x3e5426e1	0.20717956
159	0xbf46af52	-0.7761127
160	0xbee6db0f	-0.45089003
161	0xbf300783	-0.6876146
162	0xbf4f8917	-0.8106856
163	0x3e89aa82	0.268879
164	0x3ef204d3	0.47269306
165	0x3dd7d66a	0.10538943
166	0xbc7448a4	-0.014909897
167	0xbec593e7	-0.38589403
168	0xbf855d3e	-1.041908
169	0x3d214760	0.03937471
170	0xbec492e7	-0.38393328
171	0x3e503fbe	0.20336816
172	0x3f23a6ba	0.6392628
173	0xbe8ddef3	-0.2770916
174	0xbd8293dd	-0.06375859
175	0x3efe26a4	0.49638855
176	0x3e19b1bd	0.15009208
177	0x3eb201f7	0.34767124
178	0x3f36ae32	0.7135955
179	0x3dc2de0a	0.09515007
180	0xbdd77195	-0.10519711
181	0xbe2032fe	-0.15644452
182	0x3e565fe4	0.20935017
183	0x3f0365c8	0.5132718
184	0x3f7495dd	0.95541173
185	0x3e07968f	0.13241027
186	0x3e991d64	0.29905236
187	0x3db3df4f	0.08782827
188	0xbf0f3b5c	-0.5594995
189	0x3e36fc31	0.17869641
190	0x3ec51c51	0.38498166
191	0xbeaf31c3	-0.34217653
192	0xbe6ee58a	-0.2332975
193	0xbe193158	-0.1496023
194	0xbea7c0fc	-0.32764423
195	0xbe0807b8	-0.13284194
196	0x3d7920f1	0.06082243
197	0x3d638fc4	0.055557027
198	0x3d7872da	0.060656406
199	0xbd02f41d	-0.031971086
200	0xbf6c6d07	-0.9235386
201	0xbe8591a6	-0.26087683
202	0x3e6b0d6c	0.22954339
203	0x3e8ff2f9	0.2811506
204	0x3ebd70df	0.37000176
205	0xbedc0330	-0.42971182
206	0xbeb7d0b2	-0.3590141
207	0x3ee8b23d	0.45448485
208	0xbe37be5c	-0.1794371
209	0xbe876ad2	-0.26448685
210	0x3eea757e	0.45792764
211	0x3f1764ea	0.5913836
212	0xbeb76d56	-0.35825604
213	0xbe991eef	-0.29906413
214	0xbee464f0	-0.4460826
215	0x3ea64da7	0.3248112
216	0x3e70686a	0.23477331
217	0xbe1ca131	-0.15295865
218	0x3eb606a8	0.35551953
219	0x3d7114c1	0.058857683
220	0xbef8645f	-0.48514077
221	0xbdaa61aa	-0.08319409
222	0xbd038c52	-0.03211624
223	0xbe35026b	-0.17676704
224	0x3ea063f8	0.3132627
225	0xbe47bd78	-0.1950587
226	0x3ca36c9c	0.01994925
227	0x3d439001	0.047744755
228	0x3e07afb9	0.13250627
229	0x3d3cbadd	0.046076644
230	0xbe30e7a4	-0.17275864
231	0xbe870820	-0.26373386
232	0xbdbcf320	-0.0922606
233	0x3e5d217d	0.21594806
234	0x3e2a64f5	0.16640075
235	0xbe748623	-0.23879294
236	0xbe6dff89	-0.2324201
237	0xbd9e5d6e	-0.07732664
238	0x3e57517f	0.21027182
239	0x3dd05380	0.10172176
240	0x3c8f070a	0.017459411
241	0xbe64a62f	-0.22329019
242	0xbd9da363	-0.07697179
243	0x3de2a526	0.11066656
244	0x3e0c747b	0.13716309
245	0xbc28a451	-0.010293082
246	0x3d00e060	0.03146398
247	0xbb122b91	-0.00223038
248	0xbcfe9d08	-0.031080738
249	0xbefd0dec	-0.49424684
250	0xbd86b5d4	-0.0657765
251	0xbc232180	-0.0099567175
252	0x3e534eb3	0.2063549
253	0x3b5f19c6	0.0034042462
254	0x3e6684dc	0.2251162
255	0x3d286a3f	0.04111695

stu.hidden.0.stu.M_phi_minus f4 [8, 16, 8]
0	0xbee61b2a	-0.449426
1	0xbe33396c	-0.17502373
2	0x3f4e152d	0.8050106
3	0xbf36d21e	-0.71414363
4	0xbec3b5f7	-0.38224766
5	0xbe56f813	-0.2099307
6	0xbc9d9d26	-0.019239973
7	0x3c647325	0.013943468
8	0xbeeaa290	-0.4582715
9	0xbeb44662	-0.35209948
10	0x3ed1ca02	0.40974432
11	0xbdc13f19	-0.09435863
12	0x3f1b8490	0.6074915
13	0xbec63acd	-0.38716736
14	0xbf29c810	-0.66320896
15	0xbeeb1bb9	-0.45919588
16	0xbe8df7f7	-0.27728245
17	0xbe9552f8	-0.29164863
18	0x3dd6e078	0.10492033
19	0xbf048f8c	-0.51781535
20	0x3f18aeb8	0.596416
21	0xbe655d88	-0.2239896
22	0xbada7604	-0.0016667251
23	0xbd138e81	-0.036024574
24	0xbc2c25e2	-0.010507079
25	0x3e2b3082	0.16717723
26	0x3f4abbef	0.79193014
27	0xba5f7f2c	-0.0008525725
28	0xbf079ee6	-0.52976835
29	0xbe1ead1f	-0.15495728
30	0xbeadd66d	-0.33952656
31	0xbf2463c9	-0.6421476
32	0x3ee460d4	0.44605124
33	0x3e9698b5	0.2941338
34	0xbe980563	-0.2969161
35	0x3eb2ef38	0.34948134
36	0x3c56ac2d	0.013102573
37	0xbd9cc7a7	-0.07655268
38	0x3c0719d6	0.008245906
39	0x3d27d90a	0.04097847
40	0x3d793302	0.06083966
41	0x3e0a74c0	0.13521099
42	0xbe8afc01	-0.2714539
43	0xbe342021	-0.17590381
44	0xbdf7df98	-0.12103194
45	0x3e9f3663	0.3109618
46	0x3e86411b	0.26221547
47	0xbd900e4a	-0.070339754
48	0x3ed8d29a	0.42348176
49	0x3e60fa89	0.21970572
50	0x3d84211a	0.06451626
51	0x3eb8a9eb	0.36067137
52	0xbe05bcf7	-0.13060366
53	0x3e9b63f0	0.30349684
54	0xbde168ae	-0.11006294
55	0x3e1962d2	0.14979103
56	0xbe268e1a	-0.16265145
57	0xbe0d0632	-0.13771895
58	0x3e82e83a	0.255678
59	0xbed9a3c1	-0.42507747
60	0x3e773d2e	0.24144432
61	0x3e6c95d9	0.23104037
62	0x3e11f3eb	0.14253204
63	0xbe8a60d9	-0.27027014
64	0xbe5a1391	-0.21296526
65	0x3c7263dd	0.014794317
66	0xbdd10325	-0.10205678
67	0x3e7596d2	0.23983315
68	0xbe2450c8	-0.1604644
69	0xbc84c998	-0.016209409
70	0xbe99be54	-0.3002802
71	0x3eacfa66	0.3378479
72	0xbea4ff0a	-0.3222583
73	0x3cd0af19	0.025474118
74	0xbe468947	-0.19388305
75	0xbe65b576	-0.22432503
76	0x3e93ee9a	0.28892976
77	0x3e4b1147	0.1983081
78	0x3d1c7e6c	0.038206503
79	0xbd9a7e28	-0.07543594
80	0x3e8bc545	0.27298942
81	0xbc68ada1	-0.014201553
82	0x3e0971fd	0.1342239
83	0x3ebc071c	0.36724174
84	0xbd9c1d5f	-0.076227896
85	0xbe3adccd	-0.18248291
86	0xbc8cfae7	-0.017209483
87	0xbd4aa5a3	-0.04947437
88	0x3d7a95c0	0.06117797
89	0xbd551df0	-0.052030504
90	0x3dc739e2	0.09727837
91	0x3dd79f81	0.1052847
92	0xbed5ca90	-0.41756105
93	0xbe09f15a	-0.13470975
94	0x3d5ad861	0.05342901
95	0xbe4ab2ce	-0.19794771
96	0x3ea30e24	0.31846726
97	0x3cb07cf0	0.02154395
98	0x3e51a721	0.20473911
99	0x3ed33160	0.41248608
100	0xbe4bed62	-0.19914773
101	0xbdcaad3c	-0.09896323
102	0xbe0243ee	-0.12721226
103	0x3d959cbc	0.07305285
104	0xbe27422a	-0.16333833
105	0xbd3eeae3	-0.046610724
106	0xbe89a682	-0.26884848
107	0xbd575c1b	-0.052578073
108	0xbdf115f5	-0.11771766
109	0x3e9a1ea5	0.30101505
110	0x3cd71c6a	0.026258666
111	0x3c9d04df	0.019167362
112	0x3e0df1b2	0.1386173
113	0x3dc3e4dd	0.095651366
114	0x3e67b714	0.22628433
115	0x3de6ad18	0.11263484
116	0x3c797f7f	0.015228151
117	0xbf07dfa9	-0.53075653
118	0x3aa5fd1c	0.0012663933
119	0xbe15650c	-0.14589328
120	0x3d835e1b	0.064144336
121	0xbe4faca5	-0.20280702
122	0x3e8779fc	0.26460254
123	0x3d874d40	0.06606531
124	0xbd2309b7	-0.039804187
125	0xbea81858	-0.32831073
126	0x3df81a70	0.121144176
127	0xbdd15626	-0.1022151
128	0xbea02cd7	-0.3128421
129	0x3e66479a	0.22488251
130	0xbe386c8e	-0.1801016
131	0x3ec371e3	0.38172826
132	0x3c82f940	0.015987992
133	0x3d1f5b3a	0.03890536
134	0xbdfb3d33	-0.12267532
135	0x3e483788	0.19552433
136	0xbc8a5927	-0.016888214
137	0xbda5bdab	-0.08092817
138	0xbe233f3d	-0.15942092
139	0x3e90b99d	0.28266612
140	0x3ec0ae43	0.3763295
141	0x3d10bebb	0.035338145
142	0xbe85fe34	-0.26170504
143	0xbd8f31e1	-0.069919355
144	0x3dfcf399	0.1235115
145	0xbd88087f	-0.066422455
146	0x3d946f21	0.07247759
147	0x3eb2eb4d	0.34945145
148	0x3e2149da	0.15750828
149	0x3e157c5d	0.14598222
150	0xbf2f0454	-0.6836598
151	0xbcc1fef1	-0.023681136
152	0xbeaa64b2	-0.3327995
153	0x3d89f8a1	0.06736875
154	0xbec70475	-0.38870588
155	0x3e363489	0.17793478
156	0x3edb54ea	0.42838222
157	0xbe5fd162	-0.21857217
158	0xbf04d5db	-0.5188882
159	0x3e3f719e	0.18695685
160	0x3e35da83	0.17759137
161	0xbd50bc0c	-0.050960585
162	0x3e98414d	0.2973732
163	0xbe2ed829	-0.17074646
164	0xbe57fd29	-0.21092667
165	0xbe8e3da5	-0.27781406
166	0x3d6e42ce	0.05816918
167	0xbde93e75	-0.11388866
168	0x3d5f13d1	0.054462258
169	0xbea3eee7	-0.32018206
170	0x3eaa3328	0.33242154
171	0x3e1dccbe	0.15410134
172	0x3dd51d65	0.10405997
173	0x3e816a31	0.2527633
174	0xbd995738	-0.07487339
175	0xbe1b2da7	-0.15154134
176	0x3e6f6440	0.23378086
177	0xbd3c95db	-0.04604135
178	0xbe6f5067	-0.23370515
179	0x3d901fb2	0.070372954
180	0x3c7c6d95	0.015406986
181	0xbeb247c2	-0.34820372
182	0x3e19c781	0.15017511
183	0xbe1057e9	-0.14096035
184	0xbe33c4f4	-0.175556
185	0x3e90fc51	0.28317502
186	0x3cd52a3c	0.026021115
187	0x3e582539	0.2110795
188	0xbe11b74f	-0.14230083
189	0x3e72cb14	0.2371028
190	0xbe207a33	-0.15671615
191	0x3e4a775b	0.19772093
192	0x3d693b94	0.056941584
193	0x3db5677a	0.08857627
194	0x3e6ad32e	0.22932121
195	0xbcb6e737	-0.022327049
196	0xbd4409bd	-0.04786085
197	0xbe9faa9c	-0.31184852
198	0xbe6adc2c	-0.22935551
199	0x3d353181	0.044236664
200	0x3c6bbb62	0.014387937
201	0x3e2c0af5	0.16801055
202	0x3c834319	0.016023206
203	0xbd26371a	-0.040579893
204	0xbde3a1fa	-0.11114879
205	0xbebc1a14	-0.36738646
206	0xbe4eab95	-0.20182641
207	0x3e91bfba	0.28466588
208	0x3db7a672	0.08967294
209	0x3e6a53bb	0.22883503
210	0x3c082438	0.0083094165
211	0xbe232d83	-0.1593533
212	0xbd05b9aa	-0.032647766
213	0xbe166e5a	-0.14690533
214	0x3e919ad1	0.28438428
215	0x3d635614	0.055502012
216	0xbdfb31d8	-0.12265366
217	0xbde2435c	-0.11048004
218	0xbd584095	-0.052795965
219	0xbe541e11	-0.20714594
220	0x3e815abd	0.2526454
221	0x3c142608	0.0090422705
222	0x3e833d96	0.25632924
223	0x3dde4421	0.10852838
224	0xbde3a34d	-0.111151315
225	0xbe47e465	-0.1952072
226	0xbdf8dced	-0.12151513
227	0xbe3e79e1	-0.1860118
228	0x3eb307fe	0.34967035
229	0xbed076bc	-0.40715587
230	0x3eedebe0	0.4646902
231	0xbe28d621	-0.16487934
232	0x3cff6c3a	0.031179536
233	0xbe9eb3cb	-0.30996546
234	0x3dc1c60d	0.09461603
235	0x3d6ff74e	0.058585458
236	0xbd682409	-0.05667499
237	0x3dbb9716	0.09159677
238	0xbeca97be	-0.39568895
239	0xbd67f595	-0.05663069
240	0xbe44c59a	-0.19216004
241	0x3e1dd09a	0.15411606
242	0x3d93112f	0.07181012
243	0xbe04d75f	-0.12972783
244	0x3e05c7b9	0.1306447
245	0x3a0e3712	0.0005425076
246	0x3df304cf	0.118661515
247	0xbdab96a8	-0.08378345
248	0xbe0eddd1	-0.13951804
249	0xbcf68a08	-0.030095115
250	0xbdd0489c	-0.10170099
251	0xbe36bd47	-0.17845641
252	0xbd0c47d2	-0.03424818
253	0xbdfded3c	-0.123987645
254	0x3d7beea2	0.061506875
255	0xbd823e72	-0.06359567

stu.hidden.0.rn_2.weight f4 [8]
0	0x3f6409ed	0.89077646
1	0x3f8a2efa	1.0795586
2	0x3f282b3e	0.6569098
3	0x3f868a50	1.051096
4	0x3f5e7cac	0.86908984
5	0x3f59a176	0.85011995
6	0x3f43c8d7	0.7647833
7	0x3f7c8837	0.9864535

stu.hidden.0.mlp.swiglu.w.weight f4 [32, 8]
0	0xbd8b3ab9	-0.0679831
1	0x3cffd3cf	0.031228928
2	0x3d428a5e	0.04749524
3	0x3e586172	0.21130922
4	0xbda113d4	-0.0786511
5	0x3e0197d6	0.12655577
6	0xbd58f8bc	-0.052971587
7	0x3e024d6b	0.12724845
8	0xbe7ccf99	-0.24688567
9	0x3e494720	0.19656038
10	0x3d096056	0.03353914
11	0xbe9f83e3	-0.3115531
12	0xbee62afe	-0.44954675
13	0x3e88896b	0.26667342
14	0xbe8e7fe1	-0.2783194
15	0x3e2a3bb5	0.16624339
16	0xbeb10abb	-0.345785
17	0xbc9648d2	-0.01834527
18	0x3d532e9d	0.051558126
19	0xbe23a18d	-0.15979595
20	0x3d9fd320	0.07803941
21	0x3de7be2d	0.1131557
22	0x3e064cd1	0.1311524
23	0xbd9465c0	-0.0724597
24	0x3e3cafce	0.18426439
25	0xbe177f2a	-0.14794603
26	0x3d790f1d	0.06080543
27	0xbda3e577	-0.08002751
28	0x3e22106a	0.15826574
29	0x3d118c8c	0.035534427
30	0x3e484832	0.1955879
31	0x3e28171f	0.1641507
32	0xbe4caa1e	-0.1998677
33	0x3d79de1d	0.06100284
34	0xbe4cb3dd	-0.19990487
35	0xbea34d15	-0.31894746
36	0x3ebf3178	0.3734243
37	0x3e680e9f	0.22661828
38	0x3e6db6a7	0.23214208
39	0x3dea8fac	0.114531845
40	0x3cfa532b	0.030557236
41	0xbe0fb901	-0.14035417
42	0xbc0074db	-0.0078403605
43	0xbf0c545b	-0.54816216
44	0x3ea37f37	0.31932995
45	0x3d32d00b	0.043655436
46	0x3ead75a2	0.3387881
47	0x3e140a9c	0.14457172
48	0x3f23fabb	0.6405446
49	0x3de8b349	0.11362321
50	0xbeb53f76	-0.3539998
51	0xbe90f8f4	-0.28314936
52	0xbe87eadc	-0.2654637
53	0x3f1e2904	0.61781335
54	0x3ebb680f	0.36602828
55	0x3e1df61b	0.15425913
56	0x3e50253c	0.20326704
57	0x3e149f15	0.1451381
58	0xbe064271	-0.13111283
59	0xbe9db277	-0.3080022
60	0x3b8cbc62	0.004294918
61	0x3e2fda20	0.17173052
62	0x3e2930bb	0.16522495
63	0xbe18d462	-0.14924768
64	0xbdf087fc	-0.11744687
65	0x3dcfa3f3	0.10138693
66	0x3e5e9aa0	0.21738672
67	0xbe7ee5a1	-0.24892284
68	0x3e10a3f3	0.14125042
69	0xbe38c875	-0.18045218
70	0xbdf75a5d	-0.12077782
71	0xbe579142	-0.21051505
72	0xbf3ec859	-0.74524456
73	0xbeec95cf	-0.46208045
74	0xbdaaca58	-0.08339375
75	0x3de256ee	0.11051737
76	0xbf2cce82	-0.67502606
77	0xbc899869	-0.016796308
78	0x3c76c1c3	0.015060845
79	0x3ed34398	0.41262507
80	0x3f102683	0.56308764
81	0x3dfb99c5	0.122851886
82	0x3ccef85d	0.025264913
83	0xbc582713	-0.01319291
84	0xbd4979b6	-0.04918834
85	0x3d2e26e5	0.04251756
86	0xbd64d5ec	-0.055868074
87	0xbe8b6923	-0.2722865
88	0xbd081a3b	-0.03322814
89	0xbe31c849	-0.17361559
90	0xbe9b57de	-0.30340475
91	0x3dce0e44	0.10061315
92	0xbe852e5f	-0.2601194
93	0x3e33cc79	0.17558469
94	0x3ecfcd17	0.4058616
95	0xbe2c22ce	-0.16810152
96	0xbdece3c0	-0.11566877
97	0x3ea468cc	0.32111204
98	0xbed4185e	-0.4142484
99	0xbef23227	-0.47303888
100	0xbe1c8771	-0.15286042
101	0x3e7ab957	0.24484764
102	0x3d957365	0.072974004
103	0xbc2f7fe6	-0.010711646
104	0xbe77bc6f	-0.24192975
105	0xbca0cee5	-0.019629905
106	0x3e4c510c	0.19952792
107	0xbd3273f8	-0.043567628
108	0x3e52fcd7	0.20604263
109	0x3de8462d	0.1134151
110	0x3d59de91	0.05319077
111	0x3cee261c	0.029070906
112	0xbddb0e57	-0.106960945
113	0xbec03e23	-0.37547407
114	0x3dba9229	0.09109909
115	0x3ddb027e	0.10693835
116	0xbe170733	-0.1474884
117	0xbe469c3e	-0.19395539
118	0xbe8f10c2	-0.27942473
119	0xbe0b89db	-0.13626806
120	0xbd4a6818	-0.049415678
121	0xbe23f067	-0.16009675
122	0xbdd2ba4e	-0.10289441
123	0x3dcb4964	0.099261075
124	0x3d3460d8	0.04403767
125	0x3e9d4240	0.30714607
126	0x3d884d1b	0.06655332
127	0xbe99a236	-0.3000657
128	0x3dd8968c	0.105755895
129	0x3df1b336	0.1180176
130	0xbe91e7f6	-0.28497285
131	0xbccea054	-0.025222935
132	0xbca6a334	-0.020341493
133	0xbc66b141	-0.014080347
134	0xbe2c3a73	-0.16819172
135	0x3e4f97fe	0.20272824
136	0xbd82008a	-0.06347759
137	0x3eb5c654	0.35502875
138	0x3ebb2987	0.3655512
139	0xbe05064b	-0.12990682
140	0x3e81bda5	0.2534
141	0x3e9eb8ac	0.31000268
142	0x3eb65891	0.35614446
143	0x3e75cd12	0.2400401
144	0xbdc542d4	-0.09631887
145	0x3e0403c7	0.12892066
146	0xbd37b3a8	-0.044849068
147	0xbd7a0796	-0.06104239
148	0xbdf14746	-0.117811725
149	0x3e62224a	0.22083393
150	0xbdb408b7	-0.08790725
151	0xbeb83919	-0.35981062
152	0x3ddc51c5	0.10757784
153	0x3e25e3ed	0.16200228
154	0xbd4c1f72	-0.049834676
155	0x3d6186ff	0.055060383
156	0xbdc27fec	-0.094970554
157	0x3d24461e	0.04010593
158	0xbceae7be	-0.028674956
159	0xbe0d8d73	-0.1382349
160	0x3dac1cd7	0.08403938
161	0x3ea0e4b4	0.31424487
162	0x3dd0e737	0.10200351
163	0x3e9cd01d	0.30627528
164	0xbd4b3439	-0.04961035
165	0xbf03e262	-0.5151731
166	0xbdf4e469	-0.11957628
167	0x3ed9b344	0.4251958
168	0xbe5a7b4f	-0.21336101
169	0xbc5ad022	-0.013355287
170	0xbdebee32	-0.115200415
171	0x3dd2838f	0.10278999
172	0xbc8df8ea	-0.017330606
173	0x3d44b839	0.04802725
174	0xbe692efe	-0.22771832
175	0x3f009976	0.5023416
176	0x3b8a4b44	0.004220398
177	0xbf11e15d	-0.569845
178	0xbe1492d0	-0.1450913
179	0x3e58bb6a	0.21165243
180	0x3f0d095c	0.55092406
181	0xbe53fc43	-0.20701699
182	0x3e07008f	0.13183807
183	0x3e8e732a	0.27822238
184	0x3e34524a	0.17609516
185	0x3e13c54a	0.14430729
186	0xbeab8a4b	-0.33503947
187	0x3e563f63	0.20922618
188	0x3cfa525a	0.030556846
189	0x3f125a85	0.5716937
190	0x3e926a36	0.28596658
191	0xbe2981ce	-0.16553423
192	0x3e398981	0.1811886
193	0xbdcd771c	-0.10032484
194	0x3ebeaa12	0.37239128
195	0xbbc8c5de	-0.006127103
196	0xbe836f06	-0.25670642
197	0xbebf8bba	-0.3741129
198	0x3e12cb48	0.14335358
199	0x3e43ed14	0.19133407
200	0xbb5b02ac	-0.003341834
201	0xbe672e6c	-0.22576302
202	0xbe1ea461	-0.15492393
203	0x3dc1bbb2	0.09459628
204	0xbe8263df	-0.2546682
205	0x3e1fa4f2	0.15590265
206	0xbe32395f	-0.17404698
207	0xbd40e9c1	-0.047097925
208	0xbd83d4dd	-0.06437085
209	0xbe9bfb28	-0.30465055
210	0x3e6a2b8c	0.22868174
211	0x3a68cf3e	0.0008880979
212	0xbedfda2a	-0.43721133
213	0xbede7380	-0.43447495
214	0x3e5167f1	0.20449807
215	0xbe11f22d	-0.14252539
216	0x3dcad31a	0.09903546
217	0xbc940488	-0.018068567
218	0xbd157de5	-0.036497016
219	0x3d3286df	0.043585654
220	0x3e7465fd	0.2386703
221	0xbe01ccb8	-0.1267575
222	0x3c849119	0.01618247
223	0x3d1990c3	0.03749157
224	0xbe820994	-0.25397933
225	0x3b99c3c6	0.0046925275
226	0x3ce1b1f6	0.027550679
227	0x3dd08676	0.101818964
228	0xbe0ecbe0	-0.1394496
229	0x3ea764f7	0.32694218
230	0x3ea5a06d	0.32348958
231	0xbe81478b	-0.25249895
232	0x3da1f27e	0.0790758
233	0xbe46c1e9	-0.19409908
234	0x3eb3a76e	0.35088676
235	0xbe3ecea3	-0.18633513
236	0x3d587861	0.052849177
237	0xbe421431	-0.18953015
238	0x3e791b7e	0.24326894
239	0xbe656c77	-0.22404657
240	0x3e5ed319	0.21760215
241	0xbebb9f32	-0.36644894
242	0x3eb8a93d	0.3606662
243	0xbe30cadd	-0.17264886
244	0x3dd953f9	0.1061172
245	0x3e64a0b9	0.22326936
246	0x3ebfe810	0.37481737
247	0xbed99973	-0.42499885
248	0x3da67d60	0.08129382
249	0x3ec3abf8	0.3821714
250	0xbea3fffe	-0.32031244
251	0xbdd8657e	-0.10566233
252	0x3e083d66	0.13304672
253	0x3e80a546	0.25126094
254	0x3e778c05	0.24174507
255	0xbd26ce40	-0.04072404

stu.hidden.0.mlp.swiglu.v.weight f4 [32, 8]
0	0xbe8320bc	-0.25610912
1	0xbe01d246	-0.12677869
2	0xbd5daf2b	-0.05412213
3	0xbc8704fb	-0.016481867
4	0xbe1804b3	-0.14845543
5	0x3d1fcb47	0.03901222
6	0xbd5aee9b	-0.05345021
7	0xbe224bc4	-0.15849215
8	0xbee768b8	-0.45197082
9	0xbd6bb177	-0.05754229
10	0x3e35761b	0.17720835
11	0xbec22bb8	-0.3792398
12	0xbe99e99c	-0.30061042
13	0x3e6c8751	0.23098494
14	0xbce61d45	-0.028090129
15	0x3e9b94cc	0.3038696
16	0x3c650052	0.013977127
17	0x3d6c7afe	0.057734482
18	0xbd6c9285	-0.05775692
19	0x3e772938	0.24136817
20	0xbe7778c4	-0.24167162
21	0xbe64036a	-0.22266927
22	0xbe2fef3c	-0.17181104
23	0xbd77ab71	-0.060466234
24	0x3defa388	0.11701113
25	0x3e19cbb8	0.15019119
26	0xbc66f592	-0.014096634
27	0x3e63c63c	0.22243589
28	0x3d7d7822	0.061882146
29	0xbd8fc74e	-0.07020436
30	0xbe415c67	-0.18882905
31	0xbe18dfa4	-0.14929062
32	0x3dcfeb73	0.1015233
33	0x3e30575e	0.17220828
34	0x3dd6e2f5	0.10492507
35	0x3eac1e25	0.33616748
36	0xbebaf65b	-0.3651608
37	0xbe91e982	-0.28498465
38	0xbea80609	-0.32817104
39	0xbe54a9f5	-0.20767958
40	0x3dc58b8c	0.09645757
41	0x3e4ee0ec	0.20202988
42	0xbd6c4b95	-0.05768927
43	0x3e9a2bed	0.30111638
44	0xbe977dee	-0.29588264
45	0xbd1966dd	-0.037451614
46	0xbeba26aa	-0.36357623
47	0xbe696ed1	-0.2279618
48	0x3d70b42b	0.05876557
49	0xbeaf45f1	-0.3423305
50	0xbd650bc3	-0.05591942
51	0x3e12bf3f	0.14330767
52	0xbe112795	-0.14175256
53	0xbe83ae47	-0.257189
54	0xbe8cf915	-0.27533785
55	0x3f02412a	0.5088068
56	0x3c61d678	0.0137840435
57	0x3deca24f	0.115543954
58	0x3e6201af	0.22070955
59	0xbd01380a	-0.031547584
60	0x3d8bdb57	0.06828945
61	0xbe335fcc	-0.17517012
62	0xbea54369	-0.32277992
63	0xbe25dea8	-0.16198218
64	0xbe67e9e2	-0.22647813
65	0xbe7f8b15	-0.249554
66	0xbd8ebaf6	-0.06969254
67	0x3df2300f	0.11825573
68	0xbd34808c	-0.044067904
69	0x3d9c451f	0.07630371
70	0xbdf27a5c	-0.118397444
71	0xbccf243e	-0.025285836
72	0xbb740720	-0.0037235692
73	0xbe476bed	-0.19474764
74	0xbe0580a0	-0.13037348
75	0xbecfac65	-0.40561214
76	0x3d8e9b5b	0.069632255
77	0x3f2d1266	0.676062
78	0x3efff268	0.4998963
79	0xbe0b0ba5	-0.13578661
80	0x3e024660	0.12722158
81	0xbc45f8e4	-0.012083266
82	0x3e2f6140	0.17126942
83	0xbcca3f43	-0.024688369
84	0xbd8602db	-0.065435134
85	0x3e98dd11	0.2985616
86	0x3dce0dd9	0.10061235
87	0xbe36abef	-0.17839025
88	0xbc77820e	-0.015106691
89	0xbe91002e	-0.2832045
90	0x3e5da9ef	0.21646856
91	0x3dddd365	0.10831336
92	0xbe5f82cb	-0.21827237
93	0xbe7b964e	-0.24569055
94	0x3c3a1572	0.011357652
95	0x3cc30c80	0.023809671
96	0x3e915878	0.2838781
97	0x3f022e19	0.5085159
98	0xbb3e6d98	-0.0029057022
99	0x3e538aef	0.20658468
100	0xbe22c1db	-0.15894262
101	0xbeb14d41	-0.34629253
102	0xbdc2a9bd	-0.09505031
103	0xbe274017	-0.16333042
104	0xbcbdbbbe	-0.023160812
105	0x3e070672	0.13186052
106	0x3b7f46cf	0.0038952117
107	0xbe1c6e78	-0.15276515
108	0x3e077348	0.1322757
109	0x3e3f94a0	0.1870904
110	0x3e4c0a9e	0.19925925
111	0x3e410ebf	0.18853281
112	0x3dd2f3e9	0.103004284
113	0xbd117466	-0.035511397
114	0xbd141c7c	-0.036159977
115	0x3c11f595	0.008908649
116	0xbe1fe6b1	-0.15615346
117	0x3e156b1b	0.14591639
118	0x3dd97d6d	0.10619626
119	0x3e1b19b1	0.15146519
120	0x3e5651a3	0.2092958
121	0x3d9070b6	0.07052748
122	0x3e3c1335	0.18366702
123	0x3e6b9bed	0.230087
124	0xbe18be1f	-0.14916275
125	0xbdaab456	-0.083351776
126	0xbe7a3b71	-0.24436738
127	0xbe31a321	-0.17347385
128	0x3deb39e9	0.11485655
129	0xbd41d04c	-0.047317788
130	0xbdf24c51	-0.118309624
131	0xbe71c98d	-0.23612042
132	0x3e54618b	0.20740335
133	0xbe7f8be5	-0.2495571
134	0x3db93f26	0.09045248
135	0xbd5c86ee	-0.053839616
136	0xbe517ec6	-0.20458516
137	0x3ea111f1	0.31459
138	0x3e90f582	0.28312308
139	0xbde28215	-0.110599674
140	0x3e2b56a1	0.16732265
141	0xbb089bf4	-0.0020844908
142	0x3e631f26	0.22179851
143	0x3e772482	0.2413502
144	0x3e9b3c09	0.3031924
145	0x3e980749	0.29693058
146	0xbe65b0c1	-0.22430708
147	0xbd75a93a	-0.05997584
148	0x3e196295	0.14979012
149	0xbdb0272b	-0.08601221
150	0x3d56e109	0.052460704
151	0xbd3ecf89	-0.04658464
152	0x3d8a8c7e	0.06765078
153	0x3caba326	0.020951819
154	0xbd07be8b	-0.0331407
155	0xbeb83675	-0.35979047
156	0x3def3555	0.11680094
157	0xbdb4c7cc	-0.08827171
158	0xbdac26f2	-0.08405866
159	0xbdca7895	-0.098862804
160	0xbf26ba0e	-0.65127647
161	0x3cba2c09	0.022726076
162	0xbe6e1412	-0.23249844
163	0xbd901c38	-0.07036632
164	0x3e910990	0.28327608
165	0x3d26ef4f	0.040755566
166	0x3e6912b1	0.22761036
167	0x3effb77c	0.49944675
168	0x3cfbcda0	0.030737698
169	0xbd94d07f	-0.0726633
170	0x3d7294dc	0.059223995
171	0x3e5efd92	0.21776417
172	0xbe94f7e8	-0.29095387
173	0x3ebebff8	0.37255836
174	0xbeb8db1b	-0.36104664
175	0x3e225870	0.15854049
176	0xbe437ce0	-0.19090605
177	0x3ef0d82e	0.47039932
178	0x3ce52e98	0.02797632
179	0xbe0c66f4	-0.13711149
180	0xbe913bba	-0.2836588
181	0x3ebbd443	0.3668538
182	0xbde12969	-0.109942265
183	0x3dcb1231	0.09915579
184	0xbf238a77	-0.63883156
185	0xbef835aa	-0.48478442
186	0xbe7aaf78	-0.24480999
187	0x3e483a6d	0.19553538
188	0x3eaef776	0.34173173
189	0x3e2ecca7	0.17070256
190	0x3e1c9090	0.15289521
191	0x3e763772	0.24044588
192	0xbd5c2908	-0.053750068
193	0x3e269863	0.16269068
194	0xbd75d590	-0.060018122
195	0x3d6d8ca6	0.05799546
196	0xbde40984	-0.111346275
197	0x3f0fce0a	0.56173766
198	0x3dfddae1	0.123952635
199	0xbc636d4c	-0.013881039
200	0xbd143734	-0.03618546
201	0xbea9131e	-0.33022398
202	0x3c6781df	0.014130085
203	0x3e1e4de2	0.15459397
204	0xbe34ec58	-0.17668283
205	0xbbc5a874	-0.006032044
206	0xbe6d877d	-0.23196216
207	0xbe0c5035	-0.13702472
208	0x3e4d70f4	0.2006262
209	0xbdd66145	-0.104677714
210	0xbd017df5	-0.031614263
211	0x3e314941	0.173131
212	0xbd8460e6	-0.064637944
213	0xbdacdc77	-0.08440488
214	0xbe9793fd	-0.29605094
215	0xbd3bc326	-0.045840405
216	0x3cc3ae7e	0.023886915
217	0x3bf3b014	0.0074367616
218	0x3e0ddc72	0.13853624
219	0xbe2ce9de	-0.16886088
220	0xbe23d437	-0.15998922
221	0x3c4c1d57	0.012458167
222	0x3e34111c	0.17584652
223	0x39f75e1c	0.00047181628
224	0xbd8c2606	-0.0684319
225	0xbf220d3f	-0.6330146
226	0x3d0d00a3	0.034424435
227	0x3d93aa0c	0.07210168
228	0xbe947d22	-0.2900172
229	0x3dd0e8ec	0.10200676
230	0x3e2e70f8	0.17035282
231	0xbde4e392	-0.11176218
232	0xbe72870c	-0.23684329
233	0xbe524712	-0.20534924
234	0xbe25d42b	-0.16194217
235	0x3e5ff555	0.2187093
236	0xbdb0df8b	-0.086363874
237	0xbe510011	-0.20410182
238	0xbdef1a16	-0.116748974
239	0x3dcc511e	0.099764094
240	0xbc9468c7	-0.018116368
241	0xbedbbbfa	-0.42916852
242	0x3ea9e438	0.3318193
243	0xbce5b23a	-0.028039087
244	0xbe70c1c8	-0.23511422
245	0xbe079d68	-0.1324364
246	0x3dbf8743	0.09351971
247	0xbe9e7494	-0.30948317
248	0xbd80500f	-0.0626527
249	0xbf129d67	-0.57271427
250	0xbe39e4bc	-0.18153661
251	0xbe0a91de	-0.13532206
252	0x3e0ce4fe	0.13759229
253	0xbb57ab44	-0.0032908479
254	0x3d81d423	0.0633929
255	0x3e81f540	0.25382423

stu.hidden.0.mlp.swiglu.w2.weight f4 [8, 32]
0	0x3d426110	0.047455847
1	0x3ea83a2c	0.32856882
2	0xbe6cbb3a	-0.23118296
3	0x3ac2102c	0.0014805845
4	0xbebdd731	-0.3707824
5	0xbe055041	-0.13018896
6	0x3eb74546	0.3579504
7	0xbe2df82c	-0.16989201
8	0x3dab6cd0	0.08370364
9	0x3e833f12	0.25634056
10	0xbee71942	-0.45136458
11	0xbdc27477	-0.0949487
12	0xbecd9cb6	-0.40158623
13	0x3adea480	0.0016986281
14	0x3da28a0e	0.07936488
15	0xbe7cdf7e	-0.2469463
16	0xbbed9885	-0.0072508478
17	0x3e548766	0.20754775
18	0xbede0b28	-0.43367887
19	0xbdba290e	-0.09089862
20	0xbee20027	-0.4414074
21	0x3d9101d9	0.070804305
22	0x3eb2ed3b	0.34946617
23	0x3f179123	0.59205836
24	0xbdaf8bf0	-0.08571613
25	0xbd931f69	-0.071837254
26	0xbe56ff20	-0.2099576
27	0x3e65ca3b	0.22440426
28	0x3e817c1e	0.25290006
29	0x3d9a69f7	0.075397424
30	0x3e4a1755	0.19735463
31	0x3f09db25	0.53850013
32	0xbe2ba4f1	-0.16762139
33	0xbc380dea	-0.011233786
34	0xbe69694c	-0.22794074
35	0xbea1549f	-0.31509873
36	0xbeb8c491	-0.36087468
37	0xbea7d1a8	-0.32777143
38	0xbe24b316	-0.16083941
39	0xbddfc14c	-0.1092554
40	0xbdc164fa	-0.09443088
41	0x3f168651	0.587987
42	0x3e34b30a	0.17646423
43	0x3cce9182	0.025215868
44	0xbe14be4c	-0.14525717
45	0xbc7b3651	-0.015332774
46	0xbe886f38	-0.26647353
47	0xbea6ce93	-0.3257948
48	0x3e54b482	0.20771983
49	0xbe100a99	-0.14066543
50	0x3d221ae9	0.039576445
51	0x3d259328	0.040423542
52	0xbe4799d0	-0.19492269
53	0x3dd52157	0.1040675
54	0xbf361888	-0.7113118
55	0x3ea61acd	0.32442322
56	0xbe68dbb9	-0.22740068
57	0x3c63cf44	0.013904396
58	0x3e5b3b80	0.21409416
59	0xbeaea4cd	-0.34110108
60	0x3eda284b	0.42608866
61	0xbdb3959b	-0.08768769
62	0x3ec84aff	0.39119717
63	0x3d865922	0.065599695
64	0xbcf5293a	-0.029926885
65	0x3e65c292	0.22437504
66	0x3e6639c5	0.22482975
67	0x3e0d1276	0.13776574
68	0xbd653150	-0.05595523
69	0x3e499268	0.19684756
70	0x3dcbddcf	0.09954416
71	0xbe137b52	-0.14402512
72	0x3e1036b0	0.14083362
73	0xbf1d0fff	-0.61352533
74	0xbaf884b0	-0.0018960442
75	0xbe6985d2	-0.22804955
76	0xbe9801e2	-0.29688936
77	0xbe6826b7	-0.22671019
78	0xbe6a2fb8	-0.22869766
79	0xbc7e5414	-0.0155229755
80	0xbe99d695	-0.30046526
81	0xbed79c9e	-0.42111677
82	0x3d5902a7	0.052981045
83	0x3d09d355	0.033648808
84	0x3e7bdaac	0.24595135
85	0x3e1b5bd1	0.15171744
86	0x3e5902cd	0.21192475
87	0x3eb0295d	0.34406558
88	0xbefc0376	-0.4922139
89	0xbe116139	-0.14197244
90	0x3d99ddbe	0.07512997
91	0x3dfc70a7	0.12326174
92	0x3d83bedc	0.06432888
93	0x3e2f782a	0.17135683
94	0xbe987351	-0.2977548
95	0x3e654ce9	0.2239262
96	0xbd0d9e4e	-0.0345748
97	0x3e970c29	0.29501465
98	0xbebd766c	-0.3700441
99	0xbde72d77	-0.112879686
100	0xbf0d23a2	-0.55132496
101	0xbec53c16	-0.38522404
102	0xbecfa028	-0.40551877
103	0xbe20fb8d	-0.15720959
104	0x3d584403	0.052799236
105	0xbdd7561b	-0.1051447
106	0xbdeb93fa	-0.11502834
107	0xbe7fd1b3	-0.24982338
108	0xbf04df8b	-0.519036
109	0x3e7e9b74	0.24863988
110	0xbdddd89b	-0.1083233
111	0xbe1f8abc	-0.15580267
112	0xbddb2107	-0.10699659
113	0x3e848634	0.2588364
114	0xbeba6b1c	-0.36409843
115	0xbe810f2b	-0.25206885
116	0xbef214b5	-0.47281423
117	0xbdd1a535	-0.10236589
118	0x3e63cc52	0.22245911
119	0x3d7229d6	0.05912193
120	0xbdecd315	-0.11563698
121	0xbd71ab4a	-0.059001245
122	0x3e131258	0.14362466
123	0xbd0ad7be	-0.033897154
124	0x3d324d0c	0.04353051
125	0xbe308d10	-0.17241311
126	0x3e79224d	0.24329491
127	0x3d804fc8	0.06265217
128	0x3e48e38a	0.1961805
129	0x3df6610e	0.120302305
130	0xbb2d5a4b	-0.0026451524
131	0xbdb13804	-0.08653262
132	0xbd814adb	-0.06313106
133	0x3d7a3d5c	0.061093673
134	0xbe62e008	-0.22155774
135	0x3e369b13	0.17832594
136	0xbe24e0fc	-0.1610145
137	0xbdb66687	-0.08906274
138	0x3d1f9296	0.038958155
139	0x3e12d91e	0.14340636
140	0xbdce0e91	-0.10061372
141	0x3da90bac	0.08254179
142	0xbd38ce8c	-0.045118853
143	0x3d3bfa97	0.045893278
144	0xbe0d5d44	-0.1380511
145	0xbb386b6f	-0.0028140207
146	0xbe1979d4	-0.1498788
147	0x3d032d6b	0.032025736
148	0x3dddf73e	0.10838173
149	0x3d17fd7a	0.03710697
150	0x3ebc6c50	0.36801386
151	0x3e403044	0.18768412
152	0x3bd60208	0.006531004
153	0x3e6f8b5e	0.23393008
154	0xbd7b7d0c	-0.06139855
155	0x3d638c92	0.05555398
156	0x3ed4cbb6	0.4156167
157	0xbde45a00	-0.11149979
158	0x3e365c02	0.17808536
159	0xbdff3398	-0.124610126
160	0xbc86110c	-0.01636555
161	0xbd3c5679	-0.045980904
162	0x3e38371a	0.1798977
163	0xbdbd2bb7	-0.092368536
164	0x3e45fd81	0.19334985
165	0xbe453151	-0.19257094
166	0x3eac405c	0.33642852
167	0x3db1698d	0.0866271
168	0x3de6863d	0.11256073
169	0xbe0dabfd	-0.1383514
170	0x3dc7b5af	0.0975145
171	0x3e72e6c7	0.23720847
172	0x3ebd0d11	0.3692403
173	0xbe22cdd8	-0.15898836
174	0xbd75b9ce	-0.05999165
175	0x3e2acf76	0.16680703
176	0xbdc5b001	-0.09652711
177	0x3d1c4888	0.03815511
178	0xbd119d5c	-0.03555046
179	0xbdab1e7d	-0.083554246
180	0x3d495488	0.04915288
181	0xbde8867f	-0.11353778
182	0xbec42314	-0.38308012
183	0xbe8291f2	-0.25501972
184	0x3ded5bc8	0.115897715
185	0x3dabc48a	0.08387096
186	0xbd9e75f2	-0.0773734
187	0x3c1743e7	0.009232498
188	0xbd341254	-0.04396279
189	0x3df65e2b	0.1202968
190	0x3ecdc176	0.4018666
191	0xbe61896d	-0.2202508
192	0xbdde18d2	-0.10844578
193	0x3ea8967a	0.32927305
194	0x3e8455bf	0.2584667
195	0x3e274e18	0.16338384
196	0x3e2930a2	0.16522458
197	0x3ecc1e33	0.3986679
198	0x3dff89cd	0.12477455
199	0x3e98d410	0.2984929
200	0xbd1b456f	-0.037908014
201	0xbded3d7f	-0.11583995
202	0xbca4cddd	-0.020117695
203	0x3cf0837a	0.029359568
204	0x3bb1fa76	0.0054314686
205	0xbd5714d0	-0.052510083
206	0xbd8780ba	-0.066163495
207	0x3d8b3d33	0.06798782
208	0xbd7cf417	-0.06175622
209	0xbcf94cf9	-0.030432211
210	0x3c9ae034	0.018905737
211	0x3da20ece	0.0791298
212	0x3ee0450a	0.43802673
213	0x3e2584b8	0.1616391
214	0x3e707070	0.23480392
215	0x3d9331a6	0.07187204
216	0x3e8d95c4	0.27653325
217	0xbd07599d	-0.033044446
218	0x3da9501b	0.08267232
219	0xbe37ebfb	-0.17961113
220	0x3e95e173	0.29273567
221	0xbd8a38b5	-0.06749097
222	0xbd0183b8	-0.031619757
223	0xbe06f22c	-0.13178319
224	0x3bb02910	0.005375989
225	0xbc88364c	-0.016627453
226	0x3d3a77df	0.045524474
227	0x3da4eaef	0.080526225
228	0x3eaf1075	0.34192243
229	0x3e9869ee	0.29768318
230	0xbe4a9204	-0.19782263
231	0xbe5664a6	-0.20936832
232	0x3ec2347e	0.37930673
233	0x3ebee49c	0.3728379
234	0xbd8116e6	-0.06303196
235	0xbe4c4664	-0.19948727
236	0x3dcf07b0	0.10108888
237	0xbeba4af8	-0.36385322
238	0xbe4d91b2	-0.2007511
239	0x3de2c2b5	0.11072294
240	0x3d3cb9e9	0.046075735
241	0xbe81d171	-0.25355104
242	0xbdef3407	-0.11679845
243	0xbdef494f	-0.116839044
244	0xbd8057f8	-0.06266779
245	0xbf13c411	-0.5772105
246	0xbdd0d9ed	-0.10197816
247	0xbe290d15	-0.16508897
248	0x3c92ac28	0.017904356
249	0xbea1b730	-0.31585073
250	0xbddd26fd	-0.10798452
251	0xbc51ce23	-0.0128054945
252	0xbd56e22c	-0.052461788
253	0x3e8b2aeb	0.2718118
254	0x3ed1977d	0.4093589
255	0xbc5631a1	-0.013073356

stu.hidden.1.rn_1.weight f4 [8]
0	0x3f253d56	0.64546716
1	0x3f3ed037	0.7453646
2	0x3f3e038c	0.7422416
3	0x3f64416a	0.89162314
4	0x3f3dea88	0.7418599
5	0x3f4094e8	0.7522721
6	0x3f4a4dfb	0.7902524
7	0x3f3c2133	0.7348816

stu.hidden.1.stu.M_u f4 [8, 3, 8]
0	0xbefdfb14	-0.4960562
1	0x3dc0527e	0.09390734
2	0xbda3b10c	-0.079927534
3	0x3dc2761e	0.09495185
4	0xbe0ffce4	-0.14061314
5	0x3cca5611	0.024699243
6	0xbdb3caab	-0.0877889
7	0xbd208816	-0.03919228
8	0xbdc2d627	-0.095135026
9	0xbd89d630	-0.06730306
10	0xbe809241	-0.25111583
11	0x3e38ea37	0.18058096
12	0xbd759ceb	-0.0599641
13	0xbd6f0918	-0.05835828
14	0xbd1d340f	-0.038379725
15	0x3e5a356a	0.21309438
16	0xbd223303	-0.03959943
17	0x3d7cc28f	0.061708983
18	0x3db854e2	0.09000565
19	0x3bfa6288	0.0076411404
20	0xbd9b57f3	-0.07585134
21	0x3e256794	0.16152793
22	0x3b956198	0.004558753
23	0xbe1f4f17	-0.15557514
24	0x3e89e83f	0.26935002
25	0xbeb83c99	-0.35983732
26	0xba2cbd5c	-0.0006589496
27	0xbc6c00b5	-0.014404465
28	0x3ea530b9	0.32263735
29	0xbe6cc4ee	-0.23121998
30	0x3e1bc4fe	0.15211865
31	0x3e2f3dcd	0.17113419
32	0xbe077769	-0.13229145
33	0xbf05b4c2	-0.5222894
34	0x3cdfdfe2	0.027328435
35	0x3e11b6cf	0.14229892
36	0xbe817843	-0.25287065
37	0xbdf67aaa	-0.12035115
38	0xbe539605	-0.20662697
39	0xbd9f94e2	-0.07792069
40	0xbd63eba9	-0.055644665
41	0xbe082ad5	-0.13297589
42	0xbd804e42	-0.062649265
43	0x3e368197	0.17822872
44	0x3e24ab42	0.16080955
45	0x3e6b9cff	0.23009108
46	0xbc934eb0	-0.017981857
47	0xbdceb5d7	-0.10093277
48	0xbd7e7c08	-0.062130004
49	0xbc2bd323	-0.010487351
50	0xbe2f00c0	-0.1709013
51	0x3b9becb6	0.0047584428
52	0x3e368949	0.17825808
53	0xbdb9de16	-0.09075563
54	0xbd3d8762	-0.04627169
55	0xbdeeb6aa	-0.11655934
56	0xbdab9056	-0.08377139
57	0x3cefb7b7	0.029262407
58	0xbde8e206	-0.113712355
59	0x3d6ebce5	0.058285613
60	0xbe0aba69	-0.13547672
61	0xbdb3af15	-0.087736286
62	0xbdd6b996	-0.104846165
63	0xbe1ae05a	-0.15124646
64	0x3d7a4b3d	0.06110691
65	0x3da93ec2	0.08263923
66	0xbe84edfc	-0.25962818
67	0xbd87ce01	-0.06631089
68	0xbe3c83a5	-0.18409593
69	0x3dab42ff	0.08362388
70	0xbe1d3056	-0.1535047
71	0xbdecff07	-0.1157208
72	0x3de02848	0.10945183
73	0x3e7eda4a	0.24887958
74	0xbde1a356	-0.11017482
75	0xbef1ab79	-0.47201136
76	0xbd8cf74a	-0.06883104
77	0x3e333a00	0.17502594
78	0xbd75f16f	-0.060044702
79	0xbc91ea52	-0.017811928
80	0x39fe9ed8	0.00048565003
81	0x3e212297	0.15735851
82	0xbd66344f	-0.05620223
83	0xbdf3c76c	-0.11903271
84	0x3de5efe8	0.11227399
85	0xbd29ea3f	-0.04148316
86	0xbdd32c30	-0.103111625
87	0xbd9d2249	-0.07672555
88	0xbdc92f62	-0.09823491
89	0xbd9e4f2d	-0.07729945
90	0x3c8de72a	0.017322142
91	0xbe347bd8	-0.17625368
92	0xbbc88466	-0.0061192987
93	0xbe00fb27	-0.12595807
94	0xbe857f0b	-0.2607349
95	0xbda8bb16	-0.08238809
96	0xbeaeda39	-0.34150866
97	0xbe2cabe6	-0.16862449
98	0x3dc01ce3	0.0938051
99	0x3e0ab32d	0.13544913
100	0xbea759e1	-0.3268576
101	0xbd7c58ff	-0.06160831
102	0x3e187fba	0.14892474
103	0x3e02a354	0.12757617
104	0x3e37a1b4	0.17932779
105	0x3df5107d	0.119660355
106	0x3dae03f9	0.084968515
107	0xbcf34532	-0.02969608
108	0xbeede977	-0.46467182
109	0xbe3c2789	-0.18374456
110	0xbd82f037	-0.063934736
111	0x3d60e44d	0.054905225
112	0xbdd79b18	-0.10527629
113	0xbd34f046	-0.044174455
114	0x3e4b6926	0.1986433
115	0x3bcdd0e0	0.0062810034
116	0xbe0b2204	-0.13587195
117	0xbcdce6c6	-0.02696551
118	0x3e591c33	0.21202163
119	0xbe631d43	-0.22179131
120	0x3e569522	0.20955327
121	0x3bb223e0	0.0054364055
122	0xbc995048	-0.018715039
123	0xbd215f48	-0.039397508
124	0x3db66c48	0.08907372
125	0xbe8c8ce5	-0.27451244
126	0x3c72c380	0.014817119
127	0x3e04c9de	0.12967631
128	0xbd05d273	-0.032671403
129	0xbe4cb402	-0.19990543
130	0xbe5ea866	-0.21743926
131	0x3e09d66a	0.13460699
132	0x3e170be8	0.14750636
133	0xbe700b01	-0.23441698
134	0x3d1d7b8c	0.0384479
135	0x3c05acfe	0.00815892
136	0xbbdcff3c	-0.0067442935
137	0xbe4841a2	-0.19556287
138	0xbb192e36	-0.002337349
139	0x3d0de684	0.034643665
140	0xbe3f273a	-0.18667307
141	0xbd89c153	-0.06726327
142	0x3e4f9194	0.20270377
143	0x3dfe5b56	0.12419765
144	0xbdf237c0	-0.1182704
145	0xbe0b2ad2	-0.13590553
146	0xbd441940	-0.047875643
147	0xbc2798ed	-0.010229331
148	0x3cfe3356	0.031030338
149	0x3dafd9fe	0.085865006
150	0xbf395b9b	-0.72405404
151	0xbc35cdb2	-0.011096405
152	0x3ea71458	0.3263271
153	0x3d6d9933	0.05800743
154	0x3d05b16a	0.0326399
155	0xbb996051	-0.0046806713
156	0xbe14191a	-0.144627
157	0xbdd769ec	-0.1051825
158	0xbe57d89a	-0.2107872
159	0x3e125238	0.14289176
160	0xbd9c96a5	-0.07645921
161	0xbe260a12	-0.16214779
162	0x3dbd9d4f	0.0925852
163	0x3dc07e70	0.09399116
164	0x3dcba718	0.0994398
165	0x3cd9a984	0.02657009
166	0xbe306d1c	-0.17229122
167	0x3d048895	0.032356817
168	0xbe374e2f	-0.17900918
169	0x3daf9e86	0.08575158
170	0x3e0ca295	0.13733895
171	0x3e5792c9	0.21052088
172	0x3d8e0ecc	0.06936416
173	0xbd6b4df2	-0.05744738
174	0xbe2c3e3b	-0.16820614
175	0xbeda71a3	-0.42664823
176	0x3ad52604	0.001626194
177	0x3e5102e2	0.20411256
178	0x3eafe7fc	0.34356678
179	0xbe40e13f	-0.18835925
180	0x3de7c65d	0.11317132
181	0xbb8f197a	-0.0043670507
182	0xbddd3715	-0.10801522
183	0xbe77c236	-0.2419518
184	0xbd4dd229	-0.050249252
185	0x3d5f13a2	0.054462083
186	0x3e092c67	0.13395844
187	0xbd2047f2	-0.039131112
188	0xbdfc0952	-0.12306465
189	0xbe5b422f	-0.21411966
190	0xbe00cfa3	-0.12579207
191	0xbede67bb	-0.43438515
