checkpoints/sssm-Walker2D-v1-model_step-700-2024-11-18-19-37-05.pt (torch, 34490 bytes, 18 tensors)

emb.weight f4 [8, 24]
-0.23013707 0.3442146 -0.5698249 0.24861628 -0.2131947 -0.19566675 -0.24689446 -0.0553178
0.2505409 -0.69811654 -0.1571627 0.19323404 0.040653046 0.17129311 0.24741462 0.081886604
0.31239834 0.37338644 0.2641818 0.30425027 0.30215564 0.043459486 0.18724392 0.5183251
-0.5278044 -0.029458363 -0.19284429 0.030064816 0.21859856 0.30800068 0.16195479 0.26024863
-0.09253864 -0.37132052 0.28859064 -0.2266657 -0.03788878 0.053276148 -0.34821138 -0.1147615
-0.15122393 -0.53770566 -0.14270517 -0.058837395 -0.08527 -0.05210058 0.12950666 0.029655965
-0.22013931 -0.26852283 -0.2692739 0.1319392 0.17863432 0.062181313 -0.04876173 0.11324374
-0.043308727 -0.18446545 0.4049653 -0.34486055 0.116638154 0.480779 0.16609499 0.18008192
0.10577121 0.23681149 0.06171694 0.25152063 0.026865054 -0.036810502 0.10933793 0.21049902
0.05755213 -0.08259299 0.000394966 -0.09665668 -0.24733603 -0.03678456 -0.021399826 -0.1935411
0.20447084 0.0011533473 0.24868937 0.1460362 0.015929272 0.048671205 -0.27297798 0.07868886
0.0005617731 -0.15483311 -0.20457454 -0.024174914 -0.22652276 0.023670688 -0.07481567 -0.13705106
0.1996407 -0.27587938 0.39272642 0.18811746 0.12879978 0.015750142 -0.16337636 0.2177974
0.11714467 0.020929608 -0.4507756 -0.32674804 0.21303532 0.4029306 0.12517999 0.094947
0.097305626 -0.051008474 -0.04478652 0.29756904 0.056605645 0.043812573 0.2686869 0.12763417
0.18971872 -0.2233115 -0.084177695 0.08154285 -0.17936814 0.14730784 0.15889396 0.02452477
-0.26840892 -0.22651842 -0.0079218075 -0.25840566 0.22038785 0.13007331 0.2359879 -0.1275176
-0.12626114 0.21459815 0.35858017 -0.4228043 -0.02168942 -0.052571453 -0.36763015 -0.024655527
0.290518 -0.24155188 0.19618022 -0.22063498 -0.14371103 -0.25220105 0.00944072 -0.10973786
0.04677029 -0.28744882 0.026104042 -0.0251582 0.063850455 -0.46549672 -0.10251391 -0.053117592
0.21776716 0.02679973 0.098331235 -0.52367795 -0.21371996 0.01570345 -0.3349454 -0.3716056
-0.34825975 0.20902665 -0.34166777 -0.1493448 0.33871943 0.1177381 0.0025335616 0.48398477
0.18237953 -0.21393123 -0.44137156 0.27158397 0.17720118 0.062873535 0.28600514 -0.21334566
0.085249305 0.23894387 -0.070704795 0.26048344 0.28539684 -0.017540263 0.31193724 0.24524757
00000000: 0da9 6bbe e53c b03e 0be0 11bf 4495 7e3e
00000010: b64f 5abe dd5c 48be e7d1 7cbe eb94 62bd
00000020: e646 803e c4b7 32bf 42ef 20be 25df 453e
00000030: cf83 263d 7667 2f3e 425a 7d3e 2ab4 a73d
00000040: adf2 9f3e 822c bf3e d642 873e b1c6 9b3e
00000050: 25b4 9a3e 9302 323d dfbc 3f3e f4b0 043f
00000060: 301e 07bf aa52 f1bc f978 45be 7d4a f63c
00000070: 4dd8 5f3e 44b2 9d3e 7ad7 253e 4f3f 853e
00000080: e684 bdbd b91d bebe 27c2 933e 0e1b 68be
00000090: 4431 1bbd 1738 5a3d c348 b2be 1408 ebbd
000000a0: 72da 1abe 14a7 09bf 4e21 12be 7bff 70bd
000000b0: 0aa2 aebd 6b67 55bd 659d 043e 11f1 f23c
000000c0: 336c 61be d37b 89be 45de 89be 121b 073e
000000d0: eaeb 363e d5b1 7e3d 61ba 47bd 55ec e73d
000000e0: 7e64 31bd 83e4 3cbe 9d57 cf3e 9091 b0be
000000f0: fcdf ee3d aa28 f63e ce14 2a3e 6567 383e
00000100: 939e d83d b67e 723e e7ca 7c3d 50c7 803e
00000110: 1a14 dc3c 9cc6 16bd 91ec df3d 0e8d 573e
00000120: c8bb 6b3d 8326 a9bd 7013 cf39 f0f3 c5bd
00000130: a845 7dbe 68ab 16bd b04e afbc a32f 46be
00000140: ce60 513e ea2b 973a 6da8 7e3e 838a 153e
00000150: 1b7e 823c 755b 473d c5c3 8bbe a027 a13d
00000160: f443 133a 928c 1ebe fd7b 51be 780a c6bc
00000170: 95f5 67be 08e9 c13c f538 99bd 1d57 0cbe
00000180: 9d6e 4c3e 1040 8dbe 7013 c93e dda1 403e
00000190: 17e4 033e 7106 813c 224c 27be 4806 5f3e
000001a0: 8be9 ef3d 9274 ab3c 0fcc e6be 854b a7be
000001b0: ee25 5a3e eb4c ce3e 2f2f 003e 9373 c23d
000001c0: 2c48 c73d 43ee 50bd 1272 37bd f85a 983e
000001d0: 52db 673d d074 333d 5491 893e 88b2 023e
000001e0: a045 423e c5ab 64be 5b65 acbd f0ff a63d
000001f0: 48ac 37be ded7 163e 19b5 223e 2ce8 c83c
00000200: e56c 89be 72f4 67be 78ca 01bc bf4d 84be
00000210: 5aad 613e f031 053e d0a6 713e f993 02be
00000220: 9a4a 01be 9ebf 5b3e d297 b73e ce79 d8be
00000230: 03ae b1bc 2a55 57bd 053a bcbe 63fa c9bc
00000240: c6be 943e 6059 77be 78e3 483e 23ee 61be
00000250: fc28 13be 7f20 81be 40ad 1a3c 3ebe e0bd
00000260: 3492 3f3d 7e2c 93be 25d8 d53c 9218 cebc
00000270: 07c4 823d 9655 eebe d0f2 d1bd d591 59bd
00000280: 5bfe 5e3e 1b8b db3c e361 c93d c20f 06bf
00000290: 68d9 5abe 86a4 803c f77d abbe 1743 bebe
000002a0: 1a4f b2be 150b 563e 14ef aebe d8ed 18be
000002b0: a26c ad3e ac20 f13d 1c0a 263b dacc f73e
000002c0: b3c1 3a3e ca10 5bbe 74fb e1be 0e0d 8b3e
000002d0: 3a74 353e d7c3 803d 446f 923e 4977 5abe
000002e0: 3097 ae3d b4ad 743e adcd 90bd 165e 853e
000002f0: 891f 923e 99b0 8fbc 3db6 9f3e 2e22 7b3e

stu.hidden.0.rn_1.weight f4 [8]
0.6247406 0.6372893 0.79503983 0.8747957 0.69492614 0.5641359 0.9578003 0.8408753
00000000: 00ef 1f3f 6425 233f bb87 4b3f 9cf2 5f3f
00000010: aee6 313f 366b 103f 6732 753f 9b43 573f

stu.hidden.0.stu.M_u f4 [8, 3, 8]
-0.47583944 0.00048773177 0.17272954 -0.12688671 0.01595337 -0.013310854 0.025490724 -0.020144865
-0.13665509 -0.21238483 0.14679769 0.02870222 -0.14222647 0.25726494 0.16765057 0.22380996
-0.28531462 -0.19621103 0.1388791 0.087090425 -0.23222843 -0.13063619 -0.027244011 0.24695425
0.032756444 -0.4556193 -0.058856096 0.1511668 0.022438353 -0.2804455 -0.054789167 0.054633416
0.1405169 -0.28080267 -0.06680665 0.19288038 0.14285877 -0.13353363 -0.22780198 0.3422667
0.23236169 -0.15288104 0.061955336 0.21477135 -0.08818573 -0.3436712 0.16138011 0.16754247
-0.13031706 -0.018957786 -0.07876708 0.03903289 -0.19300504 -0.029699316 0.016854336 0.024716873
0.14119735 -0.1572504 -0.19814962 -0.12056237 -0.12163167 0.054904394 0.010171 -0.15518053
-0.045767367 -0.16534935 -0.13285239 0.005945824 0.22557983 -0.0010740357 0.123590074 0.054909453
0.12645105 -0.3308713 0.13045292 -0.10416212 -0.18632127 -0.08706951 0.08197657 -0.103372395
0.2681099 -0.16519912 0.034240488 -0.26206172 0.12480722 0.049324665 0.098304644 -0.24589556
0.25405815 -0.054538112 0.05844412 -0.014672912 -0.17243826 -0.10620819 -0.09336461 -0.19661643
-0.23261657 -0.1528873 -0.26204187 -0.079810254 -0.05791729 0.12280427 -0.057369225 0.31234908
0.052136034 0.01822027 0.17598447 -0.05883705 0.042064898 0.118175656 0.22978798 0.037896704
-0.035794817 -0.12788033 -0.2382404 0.16372088 -0.10774292 0.17204191 0.08074324 -0.1513149
-0.29405174 -0.18547857 0.031262495 0.17790772 -0.1853672 -0.45511007 -0.007171987 0.014646296
-0.08806911 -0.21157812 -0.106733456 -0.15033448 -0.14160827 -0.08895632 -0.17078896 -0.19175066
0.00054107327 0.010311134 0.079370916 -0.059458926 0.06867973 -0.330418 -0.013198255 -0.08672062
0.34305513 -0.07086491 0.02482531 -0.15265578 0.34251994 -0.25935215 -0.4003964 0.039950255
-0.24495625 -0.28792125 0.12744318 0.28686836 0.19603121 0.07097825 -0.048966326 0.069979474
0.07042542 -0.06551804 -0.052628007 -0.03768891 0.094509214 -0.17340629 -0.29808897 -0.037060257
-0.117552936 0.25802603 -0.08666728 -0.00093210675 -0.05431525 -0.09828184 0.23873483 -0.30321366
-0.23086625 0.13248856 -0.12434498 0.017447669 -0.12219722 -0.111622915 0.11775884 -0.022944769
-0.0513563 -0.026817515 0.13628826 -0.075868614 -0.22770016 -0.019775685 0.16686898 -0.10257205
00000000: 3aa1 f3be 40b6 ff39 03e0 303e 97ee 01be
00000010: a4b0 823c c515 5abc ecd1 d03c d806 a5bc
00000020: 50ef 0bbe 697b 59be 2252 163e eb20 eb3c
00000030: d1a3 11be 3bb8 833e 97ac 2b3e 702e 653e
00000040: c214 92be 8beb 48be 5336 0e3e 775c b23d
00000050: 4acd 6dbe 7ec5 05be d52e dfbc 93e1 7c3e
00000060: 9f2b 063d ef46 e9be 1713 71bd 78cb 1a3e
00000070: a3d0 b73c 8d96 8fbe 9b6a 60bd 4ac7 5f3d
00000080: aae3 0f3e 5ec5 8fbe edd1 88bd 6f82 453e
00000090: 9249 123e 0abd 08be ec44 69be 953d af3e
000000a0: 39f0 6d3e d98c 1cbe e1c4 7d3d 05ed 5b3e
000000b0: b89a b4bd acf5 afbe d440 253e 4190 2b3e
000000c0: d671 05be 5c4d 9bbc a350 a1bd f4e0 1f3d
000000d0: 1da3 45be fb4b f3bc 1b12 8a3c 0a7b ca3c
000000e0: 0a96 103e 4006 21be bce7 4abe 67e9 f6bd
000000f0: 061a f9bd 6ee3 603d 44a4 263c a5e7 1ebe
00000100: 9076 3bbd 5751 29be 750a 08be 30d5 c23b
00000110: 66fe 663e a8c6 8cba cb1c fd3d bce8 603d
00000120: 627c 013e f767 a9be 7395 053e f352 d5bd
00000130: 01cb 3ebe 8051 b2bd 55e3 a73d e8b4 d3bd
00000140: b345 893e f529 29be c13f 0c3d f42c 86be
00000150: ee9a ff3d a908 4a3d f253 c93d 0ccc 7bbe
00000160: e913 823e 5b63 5fbd 1a63 6f3d a766 70bc
00000170: a893 30be ae83 d9bd f235 bfbd d155 49be
00000180: 0a33 6ebe 7d8e 1cbe 5a2a 86be 8f73 a3bd
00000190: ae3a 6dbd ce80 fb3d fefb 6abd 38ec 9f3e
000001a0: 988c 553d ad42 953c 4635 343e 1eff 70bd
000001b0: 3e4c 2c3d 1406 f23d 8a4d 6b3e 9339 1b3d
000001c0: 969d 12bd 10f3 02be 4bf5 73be 72a6 273e
000001d0: 52a8 dcbd c12b 303e b65c a53d 4bf2 1abe
000001e0: f38d 96be 18ee 3dbe 1a0d 003d 712d 363e
000001f0: e6d0 3dbe 3004 e9be fd02 ebbb 05f7 6f3c
00000200: 945d b4bd efa7 58be 1297 dabd 48f1 19be
00000210: c201 11be bb2e b6bd 4de3 2ebe 495a 44be
00000220: d0d6 0d3a 08f0 283c 388d a23d 348b 73bd
00000230: f5a7 8c3d 8c2c a9be 7e3d 58bc 959a b1bd
00000240: eca4 af3e 9f21 91bd 735e cb3c cc51 1cbe
00000250: c65e af3e cec9 84be c200 cdbe e1a2 233d
00000260: d0d5 7abe 6a6a 93be 7780 023e 69e0 923e
00000270: 68bc 483e 0b5d 913d ea90 48bd 6651 8f3d
00000280: 343b 903d 522e 86bd 7790 57bd b05f 1abd
00000290: 0c8e c13d 6b91 31be 1e9f 98be 7fcc 17bd
000002a0: 98bf f0bd fd1b 843e 9d7e b1bd a058 74ba
000002b0: ab79 5ebd fd47 c9bd e776 743e d23e 9bbe
000002c0: 3468 6cbe 15ab 073e 95a8 febd 6aee 8e3c
000002d0: 8942 fabd 8e9a e4bd 8c2b f13d abf6 bbbc
000002e0: fc5a 52bd 68b0 dbbc 268f 0b3e 0161 9bbd
000002f0: 3b2a 69be 9e00 a2bc b4df 2a3e 4c11 d2bd

stu.hidden.0.stu.M_phi_plus f4 [8, 16, 8]
-0.09740829 -0.09545484 -0.4687426 -0.1010362 0.3696736 0.36373782 0.19238839 0.06617688
-0.48558325 -0.31559235 -0.80717075 -0.34930268 0.11435732 0.61642396 0.48741555 -0.016323999
-0.011841191 -0.021589985 0.6255424 -0.19186786 0.41448134 0.4983784 1.0183362 -0.25557914
-0.046355072 -0.42563644 -0.8903838 -0.4685284 -0.17502046 0.10682515 -0.16313523 0.01988163
-0.4661826 -0.35429475 -0.31965366 0.4000157 -0.9331386 -0.8733008 -0.776055 -0.08210751
-0.32487783 -0.10757966 0.36146292 0.031801257 -0.54365915 -0.22313169 0.1989708 0.27136385
0.39508837 0.325289 0.61196613 0.13213831 0.2069871 0.539179 0.5850866 0.3234876
0.38918698 0.18369089 0.107733324 0.17738184 0.78952837 0.8254009 0.66294724 -0.22187252
0.042116884 -0.011182901 -0.3243386 0.25535816 0.80502975 0.5931767 0.24035993 -0.46877545
-0.517742 -0.24325545 -0.32116213 0.3263239 0.5483472 0.1182636 -0.22538489 -0.046661604
-0.4066871 -0.33923092 -0.10115678 0.102475785 0.19869865 -0.059328 -0.17919214 -0.14689615
-0.1554912 -0.077038795 -0.08056016 -0.053866334 -0.1728319 -0.26740536 0.18494244 -0.18086337
-0.1879128 0.09336912 -0.067930356 0.06821949 -0.041093376 -0.25460935 0.08190241 0.05004605
0.07632954 -0.100545995 -0.09989526 0.012017397 0.18984242 0.11521757 -0.009925286 -0.2351171
-0.11938 -0.01277828 0.03047359 0.11180583 -0.13444854 -0.111256436 0.04998094 0.2940684
-0.25401446 -0.008031319 0.06876586 -0.0444959 -0.13754775 0.04940146 0.19067375 0.18034299
0.3107819 0.017489837 -0.20507939 -0.5588996 -0.11710308 0.28082764 0.24959108 0.4975451
-0.055881817 -0.39003086 -0.09539231 -0.6279363 0.4461892 0.32070822 0.32688597 -0.1529246
0.39896944 0.4988613 -0.21499784 0.37859598 0.33169457 0.1780465 0.3620424 0.5761301
0.464348 -0.33182254 0.14538534 -0.7128532 -0.09243502 0.13288258 0.06733891 0.115449175
-0.2903788 -0.33880872 0.124326676 -0.046809375 -0.29173967 -0.037491318 -0.085712306 -0.36851782
-0.23619923 -0.21128106 -0.5184501 0.15718074 -0.18046995 -0.1958029 0.27598268 -0.24174431
-0.15808432 0.41661483 -0.23947404 0.223949 -0.0961174 -0.0980718 0.24081767 0.06797834
0.085204884 0.27486074 0.15589377 0.60813624 0.35804135 0.4104834 -0.05453249 0.36990613
-0.21721546 0.06778304 0.20437685 0.63348204 0.39824852 0.60428995 0.2499884 0.13007303
-0.5847217 0.12451057 -0.5082552 0.39281854 0.2990547 0.26171443 0.28592926 -0.443795
0.004839668 -0.15090428 -0.6534211 0.36706585 0.3777513 -0.08209697 -0.19706158 -0.30438578
0.077748775 -0.44889843 -0.09212278 0.47121042 0.2214977 -0.13900605 -0.44146356 -0.37905887
-0.0013926439 -0.32549313 0.40494758 0.43782872 0.14607087 -0.14358842 -0.3888635 -0.2851526
0.0806026 0.12632914 -0.46521726 -0.30699405 0.08982439 0.41340995 0.16383608 0.06586241
-0.037465487 -0.05343926 0.41570625 -0.0071118413 -0.026635546 -0.358414 0.030634059 0.26872274
0.07874728 -0.29744488 0.16043991 0.040863868 0.009722764 -0.17881933 -0.056652334 0.15865369
00000000: ff7d c7bd d47d c3bd 08ff efbe 11ec cebd
00000010: dc45 bd3e d83b ba3e 7601 453e be87 873d
00000020: 5e9e f8be 5295 a1be bea2 4ebf cdd7 b2be
00000030: 2c34 ea3d f6cd 1d3f 888e f93e e8b9 85bc
00000040: 8e01 42bc 7bdd b0bc 8c23 203f 0279 44be
00000050: e636 d43e 742b ff3e d758 823f 45db 82be
00000060: d1de 3dbd 05ed d9be 31f0 63bf f4e2 efbe
00000070: 9038 33be 25c7 da3d ec0c 27be cdde a23c
00000080: 7caf eebe 1f66 b5be a5a9 a3be dcce cc3e
00000090: 2ce2 6ebf a490 5fbf 8aab 46bf fb27 a8bd
000000a0: 6356 a6be ba52 dcbd ab11 b93e 0942 023d
000000b0: 3f2d 0bbf a27c 64be 00bf 4b3e 34f0 8a3e
000000c0: 0649 ca3e 488c a63e d0a9 1c3f 444f 073e
000000d0: 6df4 533e a307 0a3f 3cc8 153f 2ba0 a53e
000000e0: 8443 c73e 7719 3c3e 4aa3 dc3d 96a3 353e
000000f0: 881e 4a3f 794d 533f e9b6 293f 8d32 63be
00000100: c182 2c3d 7d38 37bc b50f a6be 4ebe 823e
00000110: 6e16 4e3f 6eda 173f ea20 763e 5603 f0be
00000120: bd8a 04bf f517 79be 5d6f a4be ed13 a73e
00000130: 7b60 0c3f 3034 f23d 4ccb 66be 3d20 3fbd
00000140: 4b39 d0be adaf adbe 492b cfbd d3de d13d
00000150: a977 4b3e eb01 73bd 257e 37be f26b 16be
00000160: 1639 1fbe 84c6 9dbd bafc a4bd f2a2 5cbd
00000170: d8fa 30be 5be9 88be 8d61 3d3e 3f34 39be
00000180: 376c 40be 4f38 bf3d 121f 8bbd a9b6 8b3d
00000190: 8751 28bd 285c 82be 73bc a73d 16fd 4c3d
000001a0: a952 9c3d 0feb cdbd e395 ccbd 9ee4 443c
000001b0: 0d66 423e 30f7 eb3d ab9d 22bc 89c2 70be
000001c0: 807d f4bd fe5b 51bc c0a3 f93c 74fa e43d
000001d0: e1ac 09be 6ada e3bd d0b8 4c3d 2290 963e
000001e0: 2f0e 82be cb95 03bc 1dd5 8c3d 5541 36bd
000001f0: 51d9 0cbe 2f59 4a3d fb3f 433e d5ab 383e
00000200: ce1e 9f3e d946 8f3c 5500 52be 0b14 0fbf
00000210: bdd3 efbd a4c8 8f3e ce94 7f3e 3bbe fe3e
00000220: 55e4 64bd 20b2 c7be 0b5d c3bd 6fc0 20bf
00000230: e972 e43e de33 a43e 995d a73e 4498 1cbe
00000240: b945 cc3e c06a ff3e 6528 5cbe 55d7 c13e
00000250: dfd3 a93e d251 363e 9f5d b93e 437d 133f
00000260: 05bf ed3e a5e4 a9be e5df 143e 8c7d 36bf
00000270: 924e bdbd 5f12 083e fce8 893d 9e70 ec3d
00000280: 88ac 94be 5678 adbe fc9e fe3d 30bb 3fbd
00000290: e75e 95be 7f90 19bd ef89 afbd 5eae bcbe
000002a0: 36de 71be 105a 58be 25b9 04bf fdf3 203e
000002b0: 1dcd 38be 8e80 48be 9a4d 8d3e d28b 77be
000002c0: dbe0 21be 8a4e d53e af38 75be e352 653e
000002d0: 33d9 c4bd ded9 c8bd e898 763e 3a38 8b3d
000002e0: e67f ae3d 8cba 8c3e 9ea2 1f3e d1ae 1b3f
000002f0: 3251 b73e e12a d23e 765d 5fbd 5664 bd3e
00000300: bb6d 5ebe d6d1 8a3d 2a48 513e e12b 223f
00000310: 3be7 cb3e bfb2 1a3f f6fc 7f3e dd31 053e
00000320: 52b0 15bf 66ff fe3d 031d 02bf 831f c93e
00000330: b31d 993e 6fff 853e 5265 923e 1939 e3be
00000340: 1496 9e3b a786 1abe 9b46 27bf 0ef0 bb3e
00000350: 9e68 c13e 7522 a8bd 83ca 49be 74d8 9bbe
00000360: c03a 9f3d 04d6 e5be deaa bcbd 7e42 f13e
00000370: 4bd0 623e 9a57 0ebe 8307 e2be 0114 c2be
00000380: 6089 b6ba 09a7 a6be 4a55 cf3e 162b e03e
00000390: 9a93 153e d808 13be 1e19 c7be 86ff 91be
000003a0: fa12 a53d 6d5c 013e f530 eebe 532e 9dbe
000003b0: daf5 b73d 78aa d33e a5c4 273e dfe2 863d
000003c0: 6975 19bd 20e3 5abd 73d7 d43e 730a e9bb
000003d0: ca32 dabc 0a82 b7be 47f4 fa3c 0796 893e
000003e0: 4146 a13d b24a 98be 5c4a 243e df60 273d
000003f0: 3a4c 1f3c 6a1c 37be 470c 68bd 1d76 223e

stu.hidden.0.stu.M_phi_minus f4 [8, 16, 8]
0.37128314 -0.09497693 0.39750913 0.2761998 -0.47601807 -0.079631194 -0.6950118 -0.13094144
0.16644242 0.20343447 -0.0019162584 -0.34976867 -0.29976478 -0.1472119 -0.3054243 -0.30756688
-0.017156664 -0.15605706 -0.18108688 -0.22632484 0.11699079 -0.0783728 -0.18202713 -0.047820777
0.05726479 0.049875014 0.5818296 0.19365165 -0.34337834 -0.062451314 -0.561271 -0.43774724
0.020169107 0.18244888 -0.0467406 0.0010423486 0.07870046 0.05133162 0.23452802 -0.12527344
-0.24652666 0.045031045 0.04111702 -0.3021115 -0.05948598 -0.047894053 -0.048676062 0.26624906
0.3456922 -0.18924081 0.06111074 0.17432724 0.1272845 0.21615154 0.20959292 -0.0009643867
-0.04132318 -0.19263239 -0.15176451 0.34600323 0.053131346 0.0667373 -0.028073287 0.11036497
0.06646885 -0.007741941 0.2508448 -0.120698534 -0.1602242 0.08919858 0.26156667 0.087237805
0.21166572 -0.035524886 -0.07074632 -0.011385277 0.13535382 0.016000964 -0.09484075 0.024242694
-0.13520233 0.12014422 -0.15641126 -0.13443665 -0.057380147 -0.005617768 -0.07389475 0.07500824
0.011696286 0.07926727 0.12263548 -0.09116618 -0.22857977 -0.19889972 -0.27142838 0.18298036
-0.079710454 0.23313773 0.18452173 -0.05073717 -0.058260802 -0.1452902 -0.09035151 0.055248056
0.07665144 -0.16248617 0.12642774 0.2666813 0.14183673 0.09362561 0.029825674 -0.19374034
-0.10441079 0.075453065 0.029211404 -0.108148225 -0.13385685 -0.08939789 0.15956227 0.11789277
-0.016370058 -0.08578127 0.06457875 -0.10355174 -0.13896301 -0.056401297 0.08792978 0.1790761
0.24920927 -0.053790234 0.11609351 0.23547629 -0.040497184 0.13989666 -0.479865 -0.29339558
-0.06546161 0.0376442 -0.029137155 0.2486262 0.07793579 -0.073928714 0.07329902 0.042789035
0.121810526 0.2649168 0.15283777 0.021785354 0.3838632 0.1338146 0.13783582 -0.26564002
-0.025713293 -0.3869925 0.19659477 0.36442077 -0.035198987 0.015487504 -0.39548478 -0.35631397
0.042957768 -0.1530435 -0.036746908 0.14099349 -0.4365444 0.16351509 0.28258565 0.28951606
0.20158987 0.21325503 0.2922139 -0.08185803 -0.07394122 -0.2202227 0.17814854 -0.12914175
-0.2581263 0.116415225 0.010909453 -0.16992381 -0.017197965 0.19229451 -0.12291621 0.05930958
-0.084249094 0.057750445 -0.10256477 -0.04052317 0.35937628 -0.2449822 -0.21904443 0.17078014
-0.09402918 -0.035975274 0.09108332 0.17992929 -0.08530501 0.04569175 0.077827215 0.14156328
0.04965458 0.2374659 0.122168064 -0.14926453 0.456471 0.21889906 0.080169156 0.14823425
0.04127277 0.21284579 -0.31021208 0.02716987 0.12350965 0.13861595 0.09253121 0.026712207
0.114651985 0.19437908 -0.12896489 -0.07252755 -0.2261389 -0.22506554 -0.25505567 0.014813051
-0.30492923 0.16353399 0.12766743 0.050734542 -0.12596028 -0.07611752 -0.1603612 -0.079543084
0.012803737 -0.18462025 -0.050078414 0.0105719 -0.19756661 0.2108009 0.12731417 -0.041252743
-0.012331961 -0.0041977847 0.08940965 0.095248535 0.006411598 0.047652543 0.14832118 -0.012909339
-0.1038265 0.076399475 0.05485647 -0.12580413 -0.022945916 0.018296972 0.09904211 0.023537055
00000000: d318 be3e 4483 c2bd 5186 cb3e 0f6a 8d3e
00000010: a4b8 f3be ae15 a3bd 4bec 31bf 8315 06be
00000020: e26f 2a3e 2051 503e f62a fbba e114 b3be
00000030: c57a 99be b7be 16be 9360 9cbe 6879 9dbe
00000040: 228c 8cbc 6ccd 1fbe d76e 39be b3c1 67be
00000050: de98 ef3d eb81 a0bd 5265 3abe b8df 43bd
00000060: 7c8e 6a3d be49 4c3d c9f2 143f 9e4c 463e
00000070: 49cf afbe f3cc 7fbd 75af 0fbf 6820 e0be
00000080: af39 a53c e1d3 3a3e 1273 3fbd 6a9f 883a
00000090: b52d a13d 1b41 523d 1d28 703e ae47 00be
000000a0: 7c71 7cbe 7972 383d 526a 283d 5cae 9abe
000000b0: 92a7 73bd 8e2c 44bd 8d60 47bd cc51 883e
000000c0: 91fe b03e 58c8 41be 414f 7a3d d782 323e
000000d0: de56 023e d456 5d3e 879f 563e e5ce 7cba
000000e0: 7f42 29bd 6d41 45be 2868 1bbe 5627 b13e
000000f0: 41a0 593d 91ad 883d f3f9 e5bc 0807 e23d
00000100: d220 883d 1cb0 fdbb bb6e 803e cb30 f7bd
00000110: d011 24be bfad b63d 11ec 853e bca9 b23d
00000120: e6be 583e 8b82 11bd 72e3 90bd 5089 3abc
00000130: 319a 0a3e 7414 833c de3b c2bd 9d98 c63c
00000140: 7b72 0abe 2c0e f63d 462a 20be c3a9 09be
00000150: 7207 6bbd 4115 b8bb 2156 97bd ec9d 993d
00000160: c7a1 3f3c e156 a23d 4f28 fb3d 56b5 babd
00000170: d110 6abe 5eac 4bbe a9f8 8abe 345f 3b3e
00000180: 3c3f a3bd a8bb 6e3e 44f3 3c3e c7d1 4fbd
00000190: e1a2 6ebd f4c6 14be 360a b9bd c94b 623d
000001a0: 6efb 9c3d c662 26be 4676 013e 748a 883e
000001b0: a63d 113e c9be bf3d f954 f43c de63 46be
000001c0: 53d5 d5bd 2387 9a3d c14c ef3c d17c ddbd
000001d0: c511 09be 3e16 b7bd 4b64 233e c471 f13d
000001e0: 801a 86bc 17ae afbd dd41 843d ef12 d4bd
000001f0: 524c 0ebe 0c05 67bd 8714 b43d ba5f 373e
00000200: b730 7f3e 2653 5cbd 6fc2 ed3d b220 713e
00000210: 60e0 25bd 1241 0f3e deb0 f5be f237 96be
00000220: bd10 86bd ce30 1a3d 0bb1 eebc de97 7e3e
00000230: cd9c 9f3d f067 97bd cc1d 963d 8e43 2f3d
00000240: cc77 f93d 2da3 873e 8181 1c3e 3377 b23c
00000250: b889 c43e b206 093e d524 0d3e f801 88be
00000260: afa4 d2bc e223 c6be 2450 493e 5c95 ba3e
00000270: d02c 10bd 4dbf 7d3c fb7c cabe c96e b6be
00000280: 7cf4 2f3d 6fb7 1cbe ed83 16bd 9960 103e
00000290: bf82 dfbe 8070 273e 11af 903e 733b 943e
000002a0: 936d 4e3e 875f 5a3e 0f9d 953e 2fa5 a7bd
000002b0: 7f6e 97bd 0f82 61be 926c 363e bc3d 04be
000002c0: 2129 84be 1b6b ee3d 90bd 323c 8200 2ebe
000002d0: bfe2 8cbc dae8 443e 7ebb fbbd 9aee 723d
000002e0: ca8a acbd bb8b 6c3d 7a0d d2bd a0fb 25bd
000002f0: 2b00 b83e 9ddc 7abe 2f4d 60be fde0 2e3e
00000300: 5f92 c0bd cf5a 13bd e489 ba3d 623f 383e
00000310: 65b4 aebd 4627 3b3d e063 9f3d f7f5 103e
00000320: 9a62 4b3d 432a 733e 4033 fa3d cdd8 18be
00000330: 91b6 e93e 1327 603e ba2f a43d b8ca 173e
00000340: a30d 293d 3ff4 593e 1ed4 9ebe 5993 de3c
00000350: a1f2 fc3d 57f1 0d3e 0181 bd3d 8fd3 da3c
00000360: a9ce ea3d 4f0b 473e 5f0f 04be 5389 94bd
00000370: f590 67be 9577 66be a896 82be 70b2 723c
00000380: af1f 9cbe 7475 273e 40bb 023e 06cf 4f3d
00000390: bbfb 00be 81e3 9bbd ba35 24be 7ce7 a2bd
000003a0: c4c6 513c 170d 3dbe 061f 4dbd c335 2d3c
000003b0: e74e 4abe 31dc 573e a55e 023e a3f8 28bd
000003c0: fe0b 4abc 928d 89bb 681c b73d aa11 c33d
000003d0: 6218 d23b 502f 433d 82e1 173e b181 53bc
000003e0: fda2 d4bd 5477 9c3d 2eb1 603d ccd2 00be
000003f0: 13f9 bbbc 88e3 953c 97d6 ca3d c8d0 c03c

stu.hidden.0.rn_2.weight f4 [8]
0.91007614 0.7744796 0.7754351 0.8115671 0.786912 0.79176635 0.8259646 0.8886574
00000000: c0fa 683f 4c44 463f ea82 463f ddc2 4f3f
00000010: 1173 493f 33b1 4a3f 6b72 533f 0d7f 633f

stu.hidden.0.mlp.swiglu.w.weight f4 [32, 8]
0.81871414 0.40848374 0.12112093 -0.71000606 -0.19177304 0.108684994 0.2883739 0.56900173
0.7528435 0.3059294 0.37588775 0.29016325 -0.51674896 0.20074743 -0.22218706 0.25568885
-0.23236328 -0.2754134 -0.5408536 -0.15990692 0.5084779 0.09540328 0.0032227298 0.11565559
0.14209442 0.1316595 0.0010266015 -0.07735939 -0.23865083 0.047194537 -0.072257765 0.040556878
0.0017439541 -0.21696359 -0.3904325 -0.009387847 0.59402364 0.44566703 0.15788466 -0.25015864
0.13219163 -0.13590474 0.0050044395 0.113217235 -0.19168872 -0.062143132 -0.51482755 -0.4810377
-0.015280914 0.21995744 0.024557916 0.088864185 -0.13020085 0.048207566 0.19144781 -0.02388917
0.0025995967 -0.18604933 0.3939192 0.15721573 0.3657926 0.3259281 0.39692047 0.027463835
-0.39293382 0.13557947 0.26829645 -0.21671176 0.0056876363 0.17539378 0.6887981 0.60552543
-0.3396696 0.3668184 -0.6897505 -0.095601074 0.24591239 0.14270668 0.049959462 -0.18738566
-0.15747406 -0.39700317 -0.2191349 -0.15796272 0.09255517 -0.32590348 -0.48824212 -0.29031682
-0.015103524 0.45024195 -0.1310314 -0.015815381 0.08998794 0.16316809 -0.20873354 -0.4449725
0.10076167 -0.18439612 -0.4128173 -0.046800107 0.09538619 0.066039495 -0.1033436 0.17900144
0.0383816 -0.19955695 0.31176805 -0.3304982 0.21369039 -0.37142262 0.051024124 0.2789182
-0.17800374 0.21222919 0.1997718 0.20352246 0.42343882 0.00049126055 0.33261123 0.07347778
0.23900041 -0.3445698 -0.04524163 -0.016981812 0.0765971 0.035156745 0.22753309 -0.18988666
-0.10145919 -0.1081324 -0.0011265703 0.038837694 0.08305134 -0.123256825 0.1793447 -0.31711423
0.34249046 0.14644594 0.030183349 -0.03999106 -0.17508371 0.17183866 -0.24672905 0.23600902
0.28166166 -0.100566454 0.061914515 -0.11017783 0.12533984 -0.06114019 -0.122861035 0.0251865
0.07994294 -0.2362249 0.084280595 -0.5153201 -0.18939805 -0.15612316 0.28411275 -0.17338139
0.06980626 -0.19798991 -0.25013623 -0.03528436 0.0187828 0.05445705 0.09688228 -0.052875254
-0.34783158 0.002616601 0.20553492 0.53139657 -0.25799185 0.02114031 0.37149808 -0.16773272
0.19818231 -0.6684101 -0.1101919 -0.112889834 -0.045137767 0.043517303 -0.15123697 -0.5221928
-0.035457183 -0.025177525 -0.07763634 0.4007705 -0.11183365 0.2675899 0.1657265 -0.15933271
0.23509134 -0.24916217 -0.103717536 0.14931943 0.07496698 -0.008969312 -0.44350147 -0.039000757
0.18432501 -0.25582364 0.17887615 0.12532903 -0.1570843 0.3930831 -0.111018956 -0.21309502
0.13718788 0.24302226 -0.04508374 0.34974203 -0.17532726 -0.05215749 0.22899756 -0.1256022
0.5888068 -0.17677048 0.12331911 -0.4809966 -0.23299935 0.0009739869 -0.026748935 0.58161014
0.5018524 -0.1887913 0.20055395 -0.5005461 -0.1504362 0.30690786 -0.08131208 0.21031748
0.2779461 0.15377998 0.15290596 -0.82346 -0.3818322 -0.0606641 0.32492217 0.03756853
0.109135516 0.18388712 -0.12047834 -0.120504625 0.15486798 -0.08912582 -0.04193993 0.1779463
0.19208896 0.22938101 0.073196106 0.16720591 0.0007017881 -0.048472747 0.08584664 0.21852131
00000000: 4097 513f c824 d13e 400e f83d f5c2 35bf
00000010: 2760 44be 3d96 de3d bea5 933e 19aa 113f
00000020: 5aba 403f c7a2 9c3e 5c74 c03e 4790 943e
00000030: a949 04bf bc90 4d3e 0185 63be a6e9 823e
00000040: a4f0 6dbe fc02 8dbe 6275 0abf a4be 23be
00000050: 9c2b 023f cb62 c33d 6f34 533b d7dc ec3d
00000060: 3381 113e bfd1 063e 088f 863a 9a6e 9ebd
00000070: e260 74be 0f4f 413d e1fb 93bd f81e 263d
00000080: 6495 e43a b42b 5ebe c5e6 c7be 7ccf 19bc
00000090: ef11 183f 782e e43e 84ac 213e cb14 80be
000000a0: 3e5d 073e 9d2a 0bbe 48fc a33b 70de e73d
000000b0: 0c4a 44be cc89 7ebd bdcb 03bf 934a f6be
000000c0: cc5c 7abc 863c 613e af2d c93c 6dfe b53d
000000d0: 5f53 05be 4c75 453d e50a 443e 38b3 c3bc
000000e0: ff5d 2a3b b783 3ebe c7af c93e 29fd 203e
000000f0: 2b49 bb3e 0ce0 a63e 2939 cb3e d6fb e03c
00000100: 9f2e c9be 58d5 0a3e 275e 893e b0e9 5dbe
00000110: 5a5f ba3b 6d9a 333e 1355 303f b703 1b3f
00000120: 2ce9 adbe 9fcf bb3e 7d93 30bf 7fca c3bd
00000130: 75d0 7b3e b321 123e 4ba2 4c3d 07e2 3fbe
00000140: e140 21be 0044 cbbe e664 60be fbc0 21be
00000150: 918d bd3d d2dc a6be dffa f9be 68a4 94be
00000160: c574 77bc 1d86 e63e 182d 06be 428f 81bc
00000170: 994b b83d 8915 273e 3fbe 55be 6fd3 e3be
00000180: 225c ce3d 56d2 3cbe ca5c d3be 78b1 3fbd
00000190: d659 c33d b73f 873d cfa5 d3bd 274c 373e
000001a0: 0636 1d3d a858 4cbe 10a0 9f3e 0f37 a9be
000001b0: a7d1 5a3e 1b2b bebe acfe 503d 5ece 8e3e
000001c0: 9d46 36be 9c52 593e fb90 4c3e 3168 503e
000001d0: f9cc d83e f0c7 003a 054c aa3e 857b 963d
000001e0: 86bc 743e 746b b0be 4a4f 39bd 711d 8bbc
000001f0: f1de 9c3d 8500 103d 6ffe 683e a671 42be
00000200: d6c9 cfbd 8574 ddbd 6da9 93ba 4614 1f3d
00000210: d216 aa3d 136e fcbd 23a6 373e cc5c a2be
00000220: e95a af3e edf5 153e 1243 f73c aacd 23bd
00000230: 2549 33be 79f6 2f3e 8aa6 7cbe 59ac 713e
00000240: f535 903e c9f5 cdbd 139a 7d3d eaa4 e1bd
00000250: 1659 003e 236e 7abd 919e fbbd eb53 ce3c
00000260: 20b9 a33d f1e4 71be 4e9b ac3d 05ec 03bf
00000270: 90f1 41be c0de 1fbe 3a77 913e e48a 31be
00000280: 96f6 8e3d debd 4abe db11 80be 5586 10bd
00000290: 63de 993c 5b0e 5f3d 386a c63d b993 58bd
000002a0: fb16 b2be 487b 2b3b bf77 523e 9b09 083f
000002b0: 8217 84be 722e ad3c ff34 be3e 20c2 2bbe
000002c0: 4ef0 4a3e ed1c 2bbf 4aac e1bd c932 e7bd
000002d0: 61e2 38bd 333f 323d dddd 1abe 6dae 05bf
000002e0: 8d3b 11bd 1941 cebc cdff 9ebd ca31 cd3e
000002f0: 0a09 e5bd 8b01 893e 35b4 293e 1d28 23be
00000300: c9bb 703e 5e24 7fbe dc69 d4bd 31e7 183e
00000310: 4a88 993d 05f4 12bc a012 e3be 42bf 1fbd
00000320: b2bf 3c3e 51fb 82be 4f2b 373e 4156 003e
00000330: b5da 20be 3042 c93e e85d e3bd 9535 5abe
00000340: fb7a 0c3e d4da 783e baa9 38bd 6311 b33e
00000350: fd88 33be 18a3 55bd 567e 6a3e dd9d 00be
00000360: 0bbc 163f 5203 35be bb8e fc3d 3045 f6be
00000370: 6297 6ebe 2853 7f3a 9520 dbbc 67e4 143f
00000380: 6679 003f 8252 41be 045e 4d3e ca23 00bf
00000390: f20b 1abe 0723 9d3e f386 a6bd 775d 573e
000003a0: f44e 8e3e 8078 1d3e 6193 1c3e 46ce 52bf
000003b0: 837f c3be eb7a 78bd 335c a63e 75e1 193d
000003c0: 7182 df3d e84c 3c3e 59bd f6bd 21cb f6bd
000003d0: b695 1e3e 9987 b6bd 34c9 2bbd 8e37 363e
000003e0: f8b2 443e dbe2 6a3e d7e7 953d 0738 2b3e
000003f0: 34f8 373a 5c8b 46bd 5dd0 af3d 0dc4 5f3e

stu.hidden.0.mlp.swiglu.v.weight f4 [32, 8]
0.75992894 0.30074614 0.31967968 -0.5792898 -0.4175855 0.014144536 0.22892755 0.45504233
0.18460706 0.2433499 -0.4060541 -0.19460247 -0.45293543 0.13588293 -0.061296217 0.31361017
0.35982263 0.015238607 -0.20751299 0.26180092 0.51547253 0.14882669 0.18251318 0.22645336
0.092213966 -0.057830505 -0.13691086 0.020501176 0.1030089 -0.046923414 -0.11638855 0.23369992
-0.3361424 -0.07611157 0.08503292 -0.3784962 -0.5358402 -0.36617288 -0.2796102 0.058686666
0.15475515 0.043968983 0.024671456 0.40955353 0.123887464 0.045265548 -0.31036073 -0.46800166
0.0940989 0.3102956 -0.15422022 -0.064449765 -0.16363408 -0.115376584 0.052214228 0.04739169
-0.35377124 -0.055804163 -0.21266904 -0.28617144 -0.18107645 -0.37511757 0.2882236 -0.16793802
0.115508415 -0.0516369 0.055590264 -0.21708806 -0.6210583 -0.4907397 -0.016897371 -0.16699019
-0.2530987 0.0861882 0.07485149 0.25876093 0.56282437 0.6440105 0.40587384 0.20719178
-0.24244553 0.07358095 0.05952227 -0.2356532 -0.46524897 -0.14828049 0.24281439 0.5685035
-0.02321815 -0.0936127 0.05320804 -0.13414353 0.14734045 0.3281063 0.22032793 0.11034504
0.026542298 -0.035645463 0.08579819 0.014178799 -0.3490436 -0.13416983 -0.114427015 -0.19271614
0.10272478 0.12497111 -0.29061338 -0.2805726 -0.108873285 0.13846573 -0.26091203 0.087377176
0.070685215 -0.23079339 0.05699764 0.1571482 0.24147733 0.08733639 0.024471315 -0.465711
-0.013524577 -0.17626946 -0.33557642 0.03290666 -0.17411119 -0.07664176 0.061484236 -0.08614699
-0.062246833 -0.17661585 0.17603073 -0.21034943 0.18764083 -0.11610128 -0.13479348 -0.16245104
-0.12204763 -0.34489483 0.055716876 -0.07210947 0.22661786 -0.011214625 0.27605295 -0.05132205
-0.14395148 0.19050936 0.07390815 -0.06704601 -0.17172915 0.047194533 0.1039089 -0.0072534
-0.18207319 -0.18520233 0.40602276 0.2277504 -0.054771587 -0.0978627 -0.14271593 -0.037516847
0.12067896 -0.12289222 0.07549192 0.07567715 -0.13784102 -0.088880785 -0.028811023 -0.26623484
-0.07647069 -0.038291164 -0.012070853 0.42495614 -0.008121474 0.20480339 0.20897135 0.047184415
0.15871012 -0.2080022 -0.2064408 0.1639523 -0.17774916 -0.011448422 -0.066451825 -0.6140616
-0.025890557 0.0880833 0.18077794 -0.25881875 0.2020361 -0.06648724 0.10675501 -0.051007338
-0.24627675 0.25685462 0.18426825 -0.116075054 -0.1485273 0.028051665 0.27517512 -0.022898998
0.203096 -0.12012971 -0.44309646 0.14404604 -0.11507319 -0.09466852 -0.21487343 -0.26311404
-0.19678761 -0.34568954 0.090989985 0.09371075 0.09438625 0.113345 -0.4204823 0.010833694
-0.11536019 0.8470266 -0.14414188 0.110670894 -0.26378053 0.13606288 0.1560457 0.12560356
0.0573545 0.5082182 -0.14235383 -0.0637603 -0.13309598 -0.11909591 0.15568206 0.13278885
0.14183035 0.11228937 0.013392585 -0.4672945 0.04432279 0.24490783 0.46329588 0.65711236
-0.0059499512 -0.15000656 -0.01170816 -0.06981715 -0.087360196 -0.1321837 0.09895496 0.053604063
-0.02206773 -0.20160554 0.24243902 -0.0080783665 -0.047124702 0.2113411 0.033618886 -0.16727479
00000000: b48a 423f 66fb 993e 0ead a33e 564c 14bf
00000010: c4cd d5be 7cbe 673c fc6b 6a3e 4ffb e83e
00000020: a209 3d3e b730 793e 53e6 cfbe df45 47be
00000030: 27e7 e7be e524 0b3e be11 7bbd 8391 a03e
00000040: ac3a b83e 5aab 793c 497e 54be c50a 863e
00000050: 02f6 033f 0666 183e bce4 3a3e 64e3 673e
00000060: adda bc3d aedf 6cbd 5c32 0cbe 15f2 a73c
00000070: 55f6 d23d c432 40bd 1f5d eebd 084f 6f3e
00000080: db1a acbe 62e0 9bbd bd25 ae3d 41ca c1be
00000090: d32c 09bf 037b bbbe 1129 8fbe 6e61 703d
000000a0: 2278 1e3e d218 343d cb1b ca3c 00b1 d13e
000000b0: b6b8 fd3d 5e68 393d 9ae7 9ebe ea9d efbe
000000c0: edb6 c03d 11df 9e3e e8eb 1dbe 3dfe 83bd
000000d0: b18f 27be 8f4a ecbd 96de 553d ca1d 423d
000000e0: 8121 b5be e892 64bd eac5 59be 1085 92be
000000f0: 1b6c 39be 690f c0be 0b92 933e f2f7 2bbe
00000100: ad8f ec3d 3781 53bd 9eb2 633d 554c 5ebe
00000110: adfd 1ebf 3c42 fbbe 5b6c 8abc 7aff 2abe
00000120: 2796 81be 7083 b03d bd4b 993d 507c 843e
00000130: 4215 103f dfdd 243f b2ce cf3e 152a 543e
00000140: a443 78be 9cb1 963d a0cd 733d 134f 71be
00000150: 1d35 eebe d7d6 17be 56a4 783e 7289 113f
00000160: fd33 bebc 04b8 bfbd acf0 593d ec5c 09be
00000170: 6ae0 163e 8dfd a73e a59d 613e 95fc e13d
00000180: 3c6f d93c fa00 12bd f6b6 af3d 324e 683c
00000190: d8b5 b2be d163 09be b658 eabd 6157 45be
000001a0: 5f61 d23d daf0 ff3d 47cb 94be 36a7 8fbe
000001b0: f5f8 debd f6c9 0d3e 4396 85be cef2 b23d
000001c0: 69c3 903d 1a55 6cbe 5b76 693d 75eb 203e
000001d0: d545 773e 6cdd b23d 1178 c83c ac71 eebe
000001e0: 3096 5dbc fb7f 34be acd0 abbe 22c9 063d
000001f0: 344a 32be 5bf6 9cbd e5d6 7b3d d56d b0bd
00000200: 89f6 7ebd c9da 34be 6641 343e d765 57be
00000210: eb24 403e 82c6 edbd 4d07 0abe 9159 26be
00000220: 1cf4 f9bd 0e96 b0be 6137 643d 21ae 93bd
00000230: 830e 683e 8cbd 37bc d056 8d3e 1237 52bd
00000240: 0468 13be e314 433e 285d 973d 6b4f 89bd
00000250: c4d9 2fbe 0e4f 413d 30ce d43d eead edbb
00000260: 6571 3abe aea5 3dbe 37e2 cf3e 6737 693e
00000270: 2c58 60bd 3d6c c8bd 2024 12be 44ab 19bd
00000280: 8826 f73d ebae fbbd 829b 9a3d 9ffc 9a3d
00000290: 3226 0dbe 2107 b6bd 1805 ecbc ef4f 88be
000002a0: aa9c 9cbd 32d7 1cbd d4c4 45bc da93 d93e
000002b0: ee0f 05bc fbb7 513e 96fc 553e 7244 413d
000002c0: e884 223e 87fe 54be 3865 53be 1de3 273e
000002d0: e003 36be 2a92 3bbc e517 88bd 2433 1dbf
000002e0: 6f18 d4bc 0465 b43d da1d 393e e483 84be
000002f0: 8de2 4e3e 762a 88bd 5fa2 da3d 12ed 50bd
00000300: f92f 7cbe 7382 833e d1b0 3c3e c2b8 edbd
00000310: 8a17 18be 9bcc e53c c1e3 8c3e ae96 bbbc
00000320: 66f8 4f3e 9106 f6bd 8add e2be ce80 133e
00000330: 7eab ebbd 92e1 c1bd c807 5cbe e2b6 86be
00000340: b182 49be 38fe b0be f558 ba3d 6ceb bf3d
00000350: 944d c13d 6c21 e83d 7549 d7be ce7f 313c
00000360: f741 ecbd bcd6 583f ee99 13be 6ca7 e23d
00000370: 3e0e 87be 1154 0b3e 72ca 1f3e 389e 003e
00000380: 8dec 6a3d 971a 023f 34c5 11be c394 82bd
00000390: 504a 08be 8ee8 f3bd 1e6b 1f3e cdf9 073e
000003a0: fa3b 113e f8f7 e53d 936c 5b3c 3a41 efbe
000003b0: d08b 353d 1ec9 7a3e 1e35 ed3e 8438 283f
000003c0: cff7 c2bb 529b 19be 95d3 3fbc 4bfc 8ebd
000003d0: e7e9 b2bd 2a5b 07be e6a8 ca3d ef8f 5b3d
000003e0: 62c7 b4bc af71 4ebe ef41 783e 205b 04bc
000003f0: d505 41bd cd69 583e f5b3 093d 154a 2bbe

stu.hidden.0.mlp.swiglu.w2.weight f4 [8, 32]
1.1083355 0.28183842 -0.18980566 0.19971034 -0.21794991 -0.017347205 -0.09213205 -0.028215935
-0.44369018 -0.022929989 0.02296707 -0.16031799 0.037062768 0.11912053 -0.0048571816 0.17319658
0.1675611 -0.10747482 -0.03558367 -0.20803273 -0.106433906 0.31256425 -0.08523767 -0.061234515
0.19270276 -0.11388548 0.23481123 0.20171301 0.3526937 0.6370258 0.00967269 0.18750064
0.056482263 0.43951494 0.17062643 0.26222545 -0.32670322 0.21546602 0.14601845 -0.12039637
0.48227343 -0.17953086 -0.32996982 0.08268932 0.15868646 -0.10978437 0.10769438 0.24265611
0.1389883 -0.21073061 -0.1997996 0.3084832 0.224204 -0.11528852 0.61611056 0.08579712
-0.38505438 0.29262492 -0.24342646 -0.1711601 -0.27080727 0.42543265 -0.16921882 -0.17683277
0.09634841 0.53285754 0.5824145 -0.1757556 -0.4931354 0.057417702 0.1084154 0.2289119
-0.053102314 0.8276472 -0.16180325 0.20719358 -0.23240796 -0.11454402 -0.051071547 -0.013025566
0.013665943 -0.24420576 0.046570368 0.214349 -0.12506643 -0.019147115 0.17273843 -0.124055475
0.039264645 0.11164019 0.043814547 0.30433935 -0.018584987 -0.24131654 0.045136627 -0.11912675
0.08267596 0.014044359 0.2662144 -0.0043730983 -0.14857344 -0.173195 0.14261508 -0.20870736
-0.30312768 0.13760841 -0.013108036 -0.1560786 -0.23488885 -0.27618065 -0.1560394 -0.004628458
-0.09332293 -0.14083719 -0.16274661 0.2833098 -0.09019284 -0.002239082 0.0720107 0.10324453
-0.009784145 -0.22042449 -0.4146717 -0.31202307 -0.2804769 -0.121511705 -0.13177584 0.01702359
-0.15964358 0.26606807 0.09934027 0.0598689 0.41404954 -0.033880312 -0.054588035 0.4103058
0.056490466 -0.015992466 -0.20347908 0.036779076 0.19664678 0.25782177 -0.26641843 0.37598136
0.06689176 -0.19588774 0.038158588 -0.17701194 0.11302635 0.4468964 0.16679887 -0.16703093
0.023029637 0.18088056 -0.037709426 -0.093774885 0.063592516 0.04983093 0.08880146 -0.006469221
0.12681766 -0.29799223 -0.41813064 0.06818131 0.41352907 0.15692842 0.012082689 0.30170688
0.35304752 -0.043904595 -0.050028943 -0.081970684 -0.21327804 -0.20165181 -0.14939281 0.028668704
0.0045101843 0.034752384 0.06409303 0.16874021 -0.058322385 -0.16555941 0.19664273 0.02694977
0.08099056 0.10271235 0.24365962 0.053618703 0.06450004 0.11235834 -0.029191814 -0.020506369
0.021819983 -0.13554902 -0.38851768 -0.1517583 0.36575338 0.5312232 0.32215726 -0.17362393
0.46634546 -0.23976791 -0.6658795 -0.2584449 -0.118187934 -0.060112223 -0.09131657 -0.42675853
0.30450946 0.12990291 -0.16353157 -0.12783353 -0.08755184 -0.17572545 -0.018742146 -0.06608504
-0.41435784 0.0006127937 -0.2751174 0.13207199 -0.31216997 0.23141229 0.23600249 -0.032525618
0.4912146 0.49034193 -0.025533905 -0.019094186 -0.13852715 0.44568557 0.047036864 0.21878695
0.37261033 0.24645694 -0.26440072 -0.10818912 0.07734291 0.12674998 0.25737107 0.040405285
0.042088978 -0.051218938 0.05898943 0.07190993 0.105717964 0.030957699 0.4823276 -0.09343662
-0.11431266 0.20748729 0.025754593 0.33649477 0.049538393 0.34594536 -0.049682684 -0.11221977
00000000: f0dd 8d3f 204d 903e 6a5c 42be de80 4c3e
00000010: 432e 5fbe ba1b 8ebc baaf bcbd 1b25 e7bc
00000020: 5c2b e3be acd7 bbbc 7025 bc3c 662a 24be
00000030: 21cf 173d 77f5 f33d fe28 9fbb 725a 313e
00000040: 2395 2b3e c21b dcbd 2fc0 11bd 8806 55be
00000050: 05fa d9bd 6c08 a03e 1691 aebd 0bd1 7abd
00000060: df53 453e ca3c e9bd 5b72 703e db8d 4e3e
00000070: 4594 b43e 1f14 233f 347a 1e3c 2b00 403e
00000080: f259 673d 1a08 e13e b2b8 2e3e 6a42 863e
00000090: a545 a7be 20a3 5c3e dc85 153e 5f92 f6bd
000000a0: 8bec f63e f0d6 37be cef1 a8be 0559 a93d
000000b0: b47e 223e a1d6 e0bd df8e dc3d d87a 783e
000000c0: f352 0e3e c4c9 57be 4498 4cbe 83f1 9d3e
000000d0: bc95 653e 631c ecbd 6cb9 1d3f 67b6 af3d
000000e0: d925 c5be efd2 953e c944 79be 9844 2fbe
000000f0: 40a7 8abe 4fd2 d93e b347 2dbe a613 35be
00000100: 5152 c53d 5a69 083f 1e19 153f 47f9 33be
00000110: 3e7c fcbe d32e 6b3d e508 de3d e267 6a3e
00000120: d081 59bd b0e0 533f c0af 25be 8e2a 543e
00000130: 5afc 6dbe 0e96 eabd 6630 51bd 2f69 55bc
00000140: 1fe7 5f3c 1311 7abe 92c0 3e3d 4e7e 5b3e
00000150: 6a11 00be 69da 9cbc 58e2 303e cc10 febd
00000160: f7d3 203d 9da3 e43d e276 333d 5ed2 9b3e
00000170: 8b3f 98bc af1b 77be 2fe1 383d baf8 f3bd
00000180: 0452 a93d 501a 663c 414d 883e 354c 8fbb
00000190: a323 18be 085a 31be b009 123e 62b7 55be
000001a0: 8d33 9bbe 38e9 0c3e 16c3 56bc 12d3 1fbe
000001b0: b486 70be 8d67 8dbe cbc8 1fbe 52aa 97bb
000001c0: 1820 bfbd a037 10be 0ca7 26be fb0d 913e
000001d0: 06b7 b8bd 90bd 12bb 597a 933d de71 d33d
000001e0: ae4d 20bc f5b6 61be d94f d4be 7dc1 9fbe
000001f0: ab9a 8fbe 21db f8bd 3ff0 06be 0e75 8b3c
00000200: 9b79 23be 133a 883e e972 cb3d 1739 753d
00000210: 4dfe d33e 15c6 0abd b497 5fbd 9a13 d23e
00000220: 8c62 673d a202 83bc d25c 50be a8a5 163d
00000230: c65d 493e 3701 843e ff67 88be a180 c03e
00000240: 8cfe 883d cc96 48be 2e4c 1c3d 9e42 35be
00000250: 5c7a e73d 9bcf e43e 53cd 2a3e 280a 2bbe
00000260: a6a8 bc3c c138 393e 3375 1abd 0c0d c0bd
00000270: cb3c 823d 841b 4c3d 8add b53d c2fb d3bb
00000280: 7ddc 013e 7092 98be 3815 d6be a5a2 8b3d
00000290: 15ba d33e d8b1 203e 79f6 453c 5379 9a3e
000002a0: a5c2 b43e 4ed5 33bd 26eb 4cbd 3fe0 a7bd
000002b0: 8f65 5abe d07d 4ebe 6efa 18be a1da ea3c
000002c0: 2bca 933b 8458 0e3d 3543 833d 3cca 2c3e
000002d0: 74e3 6ebd 6888 29be b65c 493e c4c5 dc3c
000002e0: 61de a53d da5a d23d e881 793e 499f 5b3d
000002f0: 9918 843d 211c e63d ac23 efbc f9fc a7bc
00000300: d2bf b23c 5dcd 0abe caeb c6be 8766 1bbe
00000310: 0744 bb3e 3efe 073f ccf1 a43e 79ca 31be
00000320: d5c4 ee3e b885 75be 1477 2abf e452 84be
00000330: 840c f2bd 3c38 76bd 2f04 bbbd 1880 dabe
00000340: aae8 9b3e 4505 053e d274 27be cbe6 02be
00000350: 614e b3bd 5ff1 33be 2189 99bc 9857 87bd
00000360: b626 d4be e4a3 203a 30dc 8cbe e13d 073e
00000370: bed4 9fbe 58f7 6c3e a3aa 713e 9539 05bd
00000380: 7b80 fb3e 190e fb3e 7b2c d1bc 696b 9cbc
00000390: 10da 0dbe e630 e43e baa9 403d b009 603e
000003a0: c8c6 be3e 355f 7c3e 885f 87be 4292 ddbd
000003b0: f665 9e3d bfca 013e 24c6 833e 0380 253d
000003c0: 7e65 2c3d f3ca 51bd e79e 713d 8345 933d
000003d0: a982 d83d 009b fd3c a5f3 f63e b35b bfbd
000003e0: c21c eabd 8c77 543e 4cfb d23c 0b49 ac3e
000003f0: c5e8 4a3d c01f b13e 1280 4bbd 7bd3 e5bd

stu.hidden.1.rn_1.weight f4 [8]
0.6312438 0.83951944 0.60160947 0.3723979 0.4960386 0.6483671 0.88083196 0.89300495
00000000: 3299 213f bfea 563f 1403 1a3f f0aa be3e
00000010: c5f8 fd3e 63fb 253f 347e 613f f99b 643f

stu.hidden.1.stu.M_u f4 [8, 3, 8]
-0.34691325 0.02317338 0.25016662 0.15509178 -0.020915123 0.1957184 0.067857616 -0.019654674
-0.29910058 0.19223942 0.16078782 -0.0137576945 -0.16812976 0.10874807 0.0035228292 -0.08489154
-0.35011366 0.12348869 -0.24168938 0.08991112 0.032587964 -0.17111534 0.17174943 0.054551072
0.018407533 -0.7328484 -0.016595691 0.040955372 0.024837099 0.02013038 0.10847986 -0.04462562
0.054311562 -0.12725025 0.1389696 -0.096762724 0.08266677 0.21024683 -0.053282455 -0.08978821
0.06727396 -0.14674005 0.1501825 -0.018981714 -0.00766831 -0.08195074 0.0790629 0.11605235
-0.06059272 -0.12133422 -0.41471842 -0.16517705 -0.13945612 0.24821289 0.020849563 0.01932723
-0.019624878 0.03959657 -0.22809961 -0.0004739631 0.052533843 -0.086548895 0.12582016 0.0031997524
0.15023848 0.22543496 -0.15960088 -0.01243329 -0.11146725 -0.06656503 -0.14504403 -0.16753553
0.09848043 -0.07479563 0.041297335 -0.07460622 0.05514891 -0.025798274 -0.024832804 0.3311265
0.29546943 -0.18568468 0.21916966 0.11805393 -0.020673655 -0.04286219 -0.10558814 0.013396368
0.20430028 -0.23335376 0.32413507 -0.056533225 -0.17763254 0.1460767 0.123506844 0.32540324
-0.2738787 -0.12946549 -0.025725635 -0.1413709 -0.34741405 0.21192558 -0.08527543 -0.21042262
-0.23867619 0.19001696 -0.15138116 0.0076505463 -0.047700305 -0.08423537 -0.024441084 0.12441045
-0.1746207 0.31735808 0.027441692 0.24929714 -0.21425533 0.10374495 -0.06643075 -0.0881585
-0.026093367 -0.022477394 -0.2558301 0.29087967 0.19104455 -0.46624312 0.09412662 -0.04440036
-0.13416055 -0.024014799 0.31257504 -0.075954415 0.052367624 -0.38436872 -0.07038514 -0.027630482
0.17118937 0.08016082 0.14396384 0.14385077 0.011183714 -0.10626064 0.11058698 0.003569237
0.09144433 -0.26268095 0.23537219 0.22263053 -0.06791758 0.07528969 -0.59487206 0.21963929
0.11632257 0.1871101 -0.028348774 -0.10099102 0.22650808 0.007900728 -0.1497688 0.016710356
-0.040970124 -0.11912895 -0.17951743 0.023332795 -0.095144115 -0.006839809 -0.0802844 -0.004413945
0.28084254 -0.13918836 0.05178425 0.11296457 -0.061707746 0.20205173 0.053645186 -0.5824804
-0.056330007 0.19468437 0.13665773 0.09172921 0.062223185 0.2543199 0.029232292 -0.30761832
0.029257087 0.19164374 0.18618128 -0.3619894 0.024037857 0.16015403 -0.101464115 -0.23123688
00000000: 9d9e b1be 1ad6 bd3c d715 803e 61d0 1e3e
00000010: 3156 abbc 676a 483e eff8 8a3d d702 a1bc
00000020: b623 99be 69da 443e 90a5 243e f467 61bc
00000030: 352a 2cbe 4fb7 de3d 44df 663b 9edb adbd
00000040: 1942 b3be a3e7 fc3d 6c7d 77be 5223 b83d
00000050: f57a 053d dc38 2fbe 15df 2f3e f270 5f3d
00000060: 65cb 963c f49b 3bbf b0f3 87bc d2c0 273d
00000070: 2c77 cb3c 77e8 a43c b02a de3d 5bc9 36bd
00000080: cd75 5e3d e44d 02be 0c4e 0e3e 892b c6bd
00000090: 324d a93d f24a 573e b43e 5abd e2e2 b7bd
000000a0: eec6 893d 0643 16be 71c9 193e 8a7f 9bbc
000000b0: 7246 fbbb cad5 a7bd bbeb a13d dbac ed3d
000000c0: 1230 78bd 137e f8bd f955 d4be 2c24 29be
000000d0: 96cd 0ebe 852b 7e3e b4cc aa3c 2454 9e3c
000000e0: 5ac4 a0bc 0330 223d f292 69be 407e f8b9
000000f0: ba2d 573d 8c40 b1bd 00d7 003e f0b2 513b
00000100: 1ed8 193e 6cd8 663e 6a6e 23be ffb4 4bbc
00000110: f148 e4bd 3f53 88bd 6c86 14be 6f8e 2bbe
00000120: 1cb0 c93d 742e 99bd 6527 293d 25cb 98bd
00000130: d3e3 613d e756 d3bc 2a6e cbbc 6a89 a93e
00000140: c547 973e 2024 3ebe 036e 603e 42c6 f13d
00000150: cc5b a9bc 4490 2fbd 983e d8bd 717c 5b3c
00000160: 1834 513e 4af4 6ebe 08f5 a53e 628f 67bd
00000170: 4ee5 35be 2195 153e 28f1 fc3d 419b a63e
00000180: d439 8cbe 9a92 04be 91be d2bc 89c3 10be
00000190: 41e0 b1be 0503 593e e2a4 aebd 0779 57be
000001a0: 8867 74be ce93 423e aa03 1bbe 6fb1 fa3b
000001b0: 6561 43bd 9883 acbd ab38 c8bc e8ca fe3d
000001c0: c5cf 32be c27c a23e 66cd e03c c047 7f3e
000001d0: c065 5bbe 3b78 d43d d80c 88bd 728c b4bd
000001e0: c2c1 d5bc 8322 b8bc 2afc 82be 2eee 943e
000001f0: 2fa1 433e 6bb7 eebe 75c5 c03d 27dd 35bd
00000200: 6261 09be afba c4bc d609 a03e fd8d 9bbd
00000210: 6f7f 563d facb c4be 1626 90bd 5259 e2bc
00000220: 444c 2f3e 5b2b a43d 426b 133e 9e4d 133e
00000230: e53b 373c 2e9f d9bd 6d7b e23d dce9 693b
00000240: 2a47 bb3d 1e7e 86be 6805 713e 42f9 633e
00000250: 5f18 8bbd 7b31 9a3d 8949 18bf 1fe9 603e
00000260: 873a ee3d ca99 3f3e b03b e8bc 61d4 cebd
00000270: bcf1 673e 0e72 013c fe5c 19be 28e4 883c
00000280: 4ad0 27bd e1f9 f3bd 6bd3 37be 6b24 bf3c
00000290: ebda c2bd 7a20 e0bb 266c a4bd dba2 90bb
000002a0: 98ca 8f3e 6587 0ebe b91b 543d f859 e73d
000002b0: 43c1 7cbd a6e6 4e3e 0ebb 5b3d 6f1d 15bf
000002c0: 4bba 66bd 575b 473e 01f0 0b3e 86dc bb3d
000002d0: bddd 7e3d 3836 823e 8f78 ef3c 2680 9dbe
000002e0: 8fac ef3c 423e 443e 4ea6 3e3e ad56 b9be
000002f0: 0aeb c43c 6bff 233e 6bcc cfbd 5cc9 6cbe
