checkpoints/sssm-Walker2D-v1-model_step-1225-2024-11-18-20-20-43.pt (torch, 34514 bytes, 18 tensors)

emb.weight f4 [8, 24]
000000 3c b9 36 bd 79 78 1e be bf 2c 8f bd 80 9b 34 be
       -0.044610247 -0.15475644 -0.069909565 -0.17637444
000010 99 7a fd 3e b4 26 b9 be 2a e9 3d 3e ec 64 0c 3f
       0.49507597 -0.3616234 0.18545976 0.54841495
000020 97 21 99 be 17 c4 81 3e 45 1c 09 bf d3 e8 4d be
       -0.2990844 0.25344917 -0.5355876 -0.20108347
000030 2c 43 95 be a4 f4 bd 3c 3d dc 70 be db 89 0c 3e
       -0.2915281 0.023187943 -0.23521514 0.13724463
000040 1e fe 19 be ad 36 8a be 09 65 01 be db e1 93 3d
       -0.15038344 -0.2699484 -0.12636198 0.07220813
000050 5b 9b 90 3c 32 13 77 bd c0 d6 62 bc f7 00 06 bd
       0.017652204 -0.06032104 -0.013845146 -0.032715764
000060 84 9a 60 3e ad b5 06 be 07 79 ef be c0 c4 55 3d
       0.21933943 -0.13155241 -0.46772024 0.05218959
000070 c7 2c b1 3e 5b 40 ae 3d 55 36 84 be e7 0b 06 3e
       0.34604475 0.085083686 -0.25822702 0.13090478
000080 f0 e9 9b bb 35 92 87 3e 15 58 d2 be 65 1e c6 3d
       -0.004758112 0.26478735 -0.41082826 0.09673766
000090 2e a7 01 be ab 0c 27 be f7 f2 bf 3d e7 6b d0 3d
       -0.1266143 -0.16313426 0.09372514 0.10176831
0000a0 25 f1 ac bd 93 8c cb bd 33 9a 9e 3c 4e c7 6b 3e
       -0.08444432 -0.09938922 0.019360637 0.23025247
0000b0 0a 5d b4 3e f5 d8 37 bd 42 26 4d 3e 0f 1b 3d 3d
       0.35227233 -0.04488464 0.20034125 0.046168383
0000c0 2c 34 9b be 15 4b 48 3d 38 f0 be be a5 fd 9f bd
       -0.3031324 0.04889973 -0.37292647 -0.07812051
0000d0 c8 a7 a6 3e 86 a2 7b bd 9e ea 2b 3e cc c3 3d be
       0.32549882 -0.06143429 0.16788718 -0.18531722
0000e0 4c 74 12 3e 04 97 14 bf d8 f5 21 3e 26 7b 6a be
       0.14302176 -0.5804293 0.15816438 -0.2289854
0000f0 6d f0 77 3d 2b b2 06 bc a7 c1 3d 3d 05 82 83 bc
       0.060532022 -0.0082211895 0.04632726 -0.01605321
000100 6e 82 dc 3d 8a 5d 61 3e 75 b0 3d bd 1e a6 81 bc
       0.10767065 0.22008339 -0.04631086 -0.015826281
000110 bc 5b a4 3e 9b c0 d9 3d c0 e4 11 3e 2e 77 b1 3d
       0.32101238 0.1063244 0.14247417 0.0866531
000120 07 8e 07 bf 9e 9b 36 3f 9e 52 7f be 19 a0 0e 3b
       -0.5295109 0.71331203 -0.2493386 0.0021762906
000130 f7 1b 19 bc f0 02 37 3e 12 32 43 3d f3 e4 11 3e
       -0.009345046 0.17872214 0.047655173 0.14247493
000140 5c e0 91 3e 8e 73 5e be 03 aa 41 be b5 65 4a 3e
       0.28491485 -0.21723768 -0.1891251 0.1976536
000150 07 69 d5 bd 61 f1 04 be 91 c8 05 bd c8 d8 d0 3a
       -0.10420423 -0.12982704 -0.03266198 0.0015933746
000160 90 3d ed bd 0f 1a 16 bd c8 aa 20 3e 18 66 c6 3d
       -0.11584008 -0.036645945 0.15690148 0.096874416
000170 82 a4 72 3e cc 17 99 3c 41 b8 de 3d c3 6f a6 3e
       0.23695567 0.018688105 0.108749874 0.32507142
000180 11 dc a4 3e d8 75 b6 bd a2 02 eb 3d 44 5e 24 bd
       0.32199147 -0.08909196 0.114751115 -0.04012896
000190 95 b4 e6 bd b4 8e 33 be f3 47 e6 bb 36 d3 09 be
       -0.11264912 -0.17534906 -0.00702762 -0.13459477
0001a0 20 d2 18 be 9c b4 c9 3c 27 20 ae bd 56 10 13 be
       -0.14923906 0.024622254 -0.08502226 -0.143617
0001b0 97 a7 7f 3d 14 6e 98 3c 86 32 13 3d 4a 04 80 bd
       0.062415686 0.018607177 0.035936855 -0.06250818
0001c0 63 91 8a 3e 87 0b 58 3e ae 29 02 be 5e 1d 53 3c
       0.27064046 0.21098147 -0.12711212 0.01288542
0001d0 0a aa f9 bc e0 39 12 3d 93 90 e7 3c 5d b7 13 be
       -0.030476589 0.035699725 0.02826718 -0.14425416
0001e0 2c d8 69 3e 37 97 94 3d 63 58 9f 3e d8 bf 03 3e
       0.2283637 0.072554044 0.3112212 0.12866151
0001f0 05 b9 ad bd 3e 41 3a 3e df da d2 3e 13 c5 ad 3d
       -0.08482555 0.1818895 0.4118261 0.084848545
000200 d7 0b 6b bd 09 67 e4 3d 4c b3 fd 3d 9c 8c 23 be
       -0.05738434 0.11152465 0.12387714 -0.15971607
000210 d5 3a 6c 3d cb 30 c5 bd 2c ad 9e bd 75 4f 21 3e
       0.057673294 -0.09628447 -0.07747874 0.15752967
000220 39 f1 87 bd 8f 50 a6 3d c2 98 d3 3d 80 a0 80 3d
       -0.066378064 0.08120834 0.103318706 0.06280613
000230 5f 75 38 3e 4b ef 3c 3d 6e a0 19 3d e3 65 92 3e
       0.18013524 0.046126645 0.037506513 0.28593358
000240 d3 f6 16 be a3 e4 13 3e 08 96 08 be 30 d2 c4 bc
       -0.14742593 0.14442687 -0.13338482 -0.024026006
000250 a5 b0 f9 3c ee e2 15 be 10 cc c0 3c 66 50 88 3e
       0.030479738 -0.14637348 0.023534805 0.2662384
000260 83 39 d7 3e 76 f8 22 be d1 e9 9e 3e 9d eb 22 be
       0.42036065 -0.15915093 0.31037763 -0.15910192
000270 94 2e f4 bb 65 e1 e4 3e f4 d8 53 be de fb 2c 3e
       -0.0074518416 0.44703212 -0.2068823 0.16892955
000280 d5 cb aa 3e 9a a2 12 be 67 dc 79 be ac 4f d7 3b
       0.33358636 -0.1431984 -0.24400483 0.006570777
000290 a2 51 a8 be 5e 56 7f 3b b3 08 a8 3b 7f 73 76 be
       -0.3287478 0.003896139 0.00512799 -0.24067496
0002a0 b4 90 00 bc 54 09 fe 3c d5 c1 d5 3d 4f 3e a6 3c
       -0.007847 0.031010307 0.10437361 0.020293383
0002b0 c2 17 05 3d a0 88 f5 3d 47 e0 e6 3d 4f 8b 37 3e
       0.03249336 0.1198895 0.11273246 0.17924236
0002c0 ad bb a9 3e f8 b2 87 be 65 d0 f8 be 5e 9e f8 bd
       0.33150998 -0.2650373 -0.48596492 -0.12139581
0002d0 87 81 7b 3d bc 53 28 be e7 5b 8d bd e1 5c e5 bd
       0.061402824 -0.16438192 -0.069022946 -0.11199356
0002e0 4d 01 77 3e fc 2d 33 3e b8 64 32 3d eb 94 64 3e
       0.2412159 0.1749801 0.043553084 0.22322433
0002f0 27 e2 66 3e cf 04 53 3d 3d 99 8b 3e c8 55 ac 3e
       0.22547208 0.051518258 0.2726535 0.33659196

stu.hidden.0.rn_1.weight f4 [8]
000000 7a 43 2f 3f dd 5d 41 3f 6f 0f 2e 3f c3 78 03 3f
       0.68462336 0.7553385 0.679923 0.5135614
000010 13 d9 36 3f 47 af 3e 3f e0 84 0a 3f 6b ae 5e 3f
       0.7142498 0.744862 0.54109 0.8698489

stu.hidden.0.stu.M_u f4 [8, 3, 8]
000000 94 95 0b bf 47 4b f3 3c fd 1f df bc 5e 96 5d bd
       -0.54525113 0.029698981 -0.027236933 -0.05409848
000010 d4 45 8b 3e 8f af d1 bd d0 09 1a 3e ee 97 30 3d
       0.27201712 -0.10238563 0.15042806 0.04311364
000020 dd 2d 06 bf de 72 05 bd b4 6b 52 be c7 00 8d bd
       -0.5241373 -0.03258025 -0.20548898 -0.06884914
000030 d6 68 8d 3e 66 f7 53 3e 9c 7c 17 3e 19 e0 15 3e
       0.27619046 0.20699844 0.14793628 0.14636268
000040 fb 92 da be fc 9e fb 3d f2 37 cb bd 45 30 c7 3d
       -0.42690262 0.12286183 -0.0992278 0.097260036
000050 d1 e1 de 3d 45 e9 5d 3e 73 7e 68 3e 27 25 02 3e
       0.10882915 0.21671017 0.22704487 0.12709485
000060 33 6a cb 3b 01 f2 1b bf 8d 47 2e 3e 3b 44 a5 be
       0.0062077283 -0.60916144 0.17019482 -0.32278618
000070 dc 00 e4 3d ba 95 f3 bb b9 51 fb 3c a5 43 49 bc
       0.111329764 -0.0074336203 0.030678617 -0.012284194
000080 26 82 6b 3d 88 bf c8 be fe b7 eb 3d 7a 02 ff bc
       0.057497166 -0.39208627 0.11509703 -0.03112911
000090 b2 b8 8a 3e 1d 97 b4 bc 1d 0a 89 3e c5 b8 88 bd
       0.27094036 -0.022044713 0.26765528 -0.06675867
0000a0 63 a5 c6 3d a3 e1 87 bd 33 11 83 3e 91 53 b5 3c
       0.09699514 -0.06634834 0.2559906 0.022134574
0000b0 8d 30 36 be 1f 97 2b 3e 37 0f d0 bd b7 75 54 3e
       -0.17791958 0.16756867 -0.10159152 0.2074803
0000c0 2f 54 fc 3c a5 5d 17 3e 0b bf 88 be c9 ed 0e bd
       0.03080186 0.14781816 -0.26708254 -0.03489474
0000d0 56 24 a1 bd 0e 61 0a be 1a d9 a4 3e 0d ad 29 3c
       -0.07868259 -0.13513586 0.32196885 0.0103562
0000e0 a5 a4 9c 3d 84 b4 51 3e 47 b0 e3 bd ee 58 b3 3d
       0.07648591 0.20479017 -0.111176066 0.08757196
0000f0 82 e6 74 be c0 18 3f be 50 87 bd 3c 2d af 85 be
       -0.23916057 -0.18661785 0.023135811 -0.2611021
000100 fa f7 e4 3c d3 30 d5 bd 91 5e 89 be 3d 8d c6 3d
       0.027950276 -0.10409703 -0.2682996 0.09694908
000110 3d 32 9b bd 0e 32 74 3d c7 df 08 3e dd 69 04 bc
       -0.075779416 0.05961805 0.13366614 -0.00808188
000120 1f ed c7 3d 0e be b6 3e f4 f8 49 be 68 6e 89 be
       0.09762024 0.35691875 -0.19723874 -0.26842046
000130 64 76 ab be 0b b1 61 be 45 f7 1a bd 0d ce b2 bc
       -0.33488762 -0.22040193 -0.03783347 -0.021826768
000140 9c 4e 85 3d cc 20 70 3e 18 e9 21 be bb 90 b3 3c
       0.06509134 0.23450011 -0.15811574 0.021919599
000150 74 89 9b 3b 9c cc 72 3d c9 c8 0d be 5a 8b 8b 3e
       0.0047466103 0.059277162 -0.13846125 0.27254754
000160 0a 5d 8e bc e2 f9 7e bd 8b 2f c4 3c 62 47 d1 bb
       -0.017378349 -0.062250026 0.023948452 -0.0063866833
000170 02 dd a4 ba d8 aa 59 be a5 d9 e3 bd 08 17 24 3e
       -0.0012578072 -0.21256578 -0.11125497 0.1602441
000180 bc fd d1 3c 92 70 cf bd b9 95 b0 be de 48 f0 bd
       0.025633685 -0.10128893 -0.3448923 -0.11732648
000190 fc 96 14 be 30 9b e6 3d fd 05 f1 bd 89 7f 53 be
       -0.14510721 0.112600684 -0.1176872 -0.2065412
0001a0 aa 64 0f be 32 98 0d be f8 53 de be a6 34 08 3d
       -0.14003244 -0.13827589 -0.43423438 0.033253334
0001b0 43 b5 c0 bd 17 5d 0d be 34 a7 74 bc ee 25 26 bd
       -0.09409573 -0.13805042 -0.014932442 -0.040563516
0001c0 32 86 f5 be 80 f9 45 be cd ec 20 be 04 d3 f7 3c
       -0.47953945 -0.19333458 -0.15715332 0.030251987
0001d0 92 d1 03 bd 00 cf 54 be d1 f2 18 3e 92 2a da bc
       -0.032182284 -0.20782089 0.14936377 -0.026631627
0001e0 98 d1 76 3e b9 21 8c be 9a 5f 3e be ed 6d 81 be
       0.24103391 -0.27369478 -0.18591157 -0.2527918
0001f0 30 47 19 3e f5 02 e4 be 83 7b 80 3e a7 83 5f be
       0.14968562 -0.44533506 0.25094232 -0.21827565
000200 80 e6 95 bd fa 52 73 bd b5 f7 72 be 1c c3 78 be
       -0.07319355 -0.059405304 -0.23727305 -0.24293178
000210 9a 9c 62 3e 72 a3 9e be fa b7 d5 3c 79 a1 17 be
       0.22130051 -0.30984074 0.026088703 -0.1480769
000220 20 bf ac b9 8e 52 d2 3d 8f bd 14 be 0c 89 89 3d
       -0.00032948796 0.10269652 -0.14525436 0.06715593
000230 1d 0f 1e 3c 07 a4 1d be bb 42 10 bc af 06 23 3e
       0.009647158 -0.15394603 -0.008804972 0.15920518
000240 66 8c fd bc 2d 84 af bd 89 da 47 bd 3d fe 4f 3e
       -0.030950736 -0.085701324 -0.048792396 0.20311828
000250 81 fd d3 bd 8f a8 d4 3d 15 69 de be af 80 83 3d
       -0.103510864 0.103837125 -0.43439546 0.06421029
000260 cb fb 37 38 43 40 7a 3d 58 be 8e 3e b0 89 81 3d
       4.38651e-05 0.06109644 0.27879596 0.0632509
000270 52 63 bc 3d 35 65 00 be f1 bd 02 bf 4d 2a a9 bd
       0.09198631 -0.12538607 -0.5107108 -0.08260021
000280 88 c7 6d be bd a7 aa 3d 71 b9 0f 3e 22 2b d1 3a
       -0.23220646 0.08332775 0.14035584 0.0015958289
000290 3c 9a 26 be 59 c3 9e 3e e9 b1 d5 bc 53 0e 2c bd
       -0.16269773 0.31008413 -0.02608581 -0.04200585
0002a0 68 56 91 bd 37 ce a6 be 7f 18 4e be f0 6e 83 bd
       -0.07096559 -0.32579204 -0.20126532 -0.06417644
0002b0 96 17 26 3e 57 e6 74 3d cc fa f4 bc 81 ee b5 be
       0.16219935 0.05978998 -0.029904746 -0.35533527
0002c0 0c 5d f8 3c 8c c2 23 3e c2 a9 cd 3c 47 cd 60 bc
       0.030317806 0.15992182 0.02510536 -0.013720817
0002d0 ea 9a 27 bc a8 5f 7a be de b0 3e 3d 58 28 40 be
       -0.0102298055 -0.24450552 0.046555392 -0.1876539
0002e0 76 dd 0d 3e 76 d5 a2 3c 2d 9d fa 3d 13 c1 e0 bd
       0.13854012 0.019877177 0.1223701 -0.10974326
0002f0 6f 84 3a 3e 2b 67 ab 3d 06 a7 9d bc 91 e1 ab be
       0.18214582 0.08369287 -0.019244682 -0.3357053

stu.hidden.0.stu.M_phi_plus f4 [8, 16, 8]
000000 ec 83 d1 3e 72 4e c6 be b9 4d c6 be ac d9 e4 3c
       0.4092096 -0.38731724 -0.38731173 0.027935825
000010 e0 8a 8a 3d da cc 40 be e2 31 f1 be 82 65 b3 be
       0.067647696 -0.18828145 -0.4710837 -0.35038382
000020 54 69 4a 3d db 9b a8 bd 9b 58 10 be 85 1f 09 3e
       0.049416855 -0.08232852 -0.140963 0.1339093
000030 72 0f d3 be 69 00 0e 3d 38 79 90 3e 42 6e d0 be
       -0.4122272 0.03466836 0.28217483 -0.4070912
000040 02 3b cf be a7 06 ae be 83 30 79 3d 7a 1b 8b 3e
       -0.40474707 -0.3398945 0.06083728 0.271694
000050 c2 72 ee be 4c 23 8c be 50 41 84 3e 72 b5 5b 3e
       -0.46571928 -0.2737068 0.2583108 0.21455935
000060 10 81 08 3e ef ff dd 3c 74 e6 cb 3d f2 9e 7d be
       0.13330483 0.027099578 0.09956065 -0.24767664
000070 1f 58 06 be c1 d6 83 3c 1c 91 18 be 62 18 26 be
       -0.13119553 0.016093614 -0.14899105 -0.16220239
000080 62 9b 5d 3e 14 8a cf 3e 3d d5 91 be ce a4 87 be
       0.21641305 0.40535033 -0.28483 -0.26492923
000090 50 84 18 3e 82 9e 50 be 13 b2 2e be c6 a9 1d 3d
       0.14894223 -0.20372966 -0.17060117 0.038491987
0000a0 e9 6c 06 3e 9c 27 21 3c 2c df 19 be 88 d9 96 3e
       0.13127483 0.009836104 -0.1502654 0.29462838
0000b0 8b 64 56 3e 07 14 1d be be 3b 1c 3c 94 d2 5c be
       0.20936792 -0.15339671 0.009535728 -0.21564704
0000c0 63 23 15 3e 40 cc 19 be be 62 9e 3d 22 f7 e9 3e
       0.1456428 -0.15019321 0.07733677 0.4569636
0000d0 19 18 ba 3e 8c 8a 0e 3e be f7 92 3c 7d a5 5e be
       0.3634651 0.13920039 0.017940398 -0.21742816
0000e0 3e c7 5c 3e 88 dc 83 be 53 93 34 3e 2a 14 ac 3e
       0.2156038 -0.2575419 0.17634325 0.33609134
0000f0 51 bb 27 3e 38 3e 64 bc 74 b3 10 3e a5 a9 a4 3c
       0.1638005 -0.01393085 0.14130956 0.020100424
000100 0b 22 2b 3e d5 5b 69 3e dd ba a8 bd 88 39 2b 3e
       0.16712205 0.22788937 -0.08238766 0.16721165
000110 4c 26 1b 3e f8 bb 65 bd e0 0f c0 bd ee ea 44 3e
       0.15151328 -0.056087464 -0.09378028 0.19230244
000120 1f c8 95 3d d8 97 0d 3f cb 29 38 3d ec 7f d0 3d
       0.07313561 0.5530982 0.044961732 0.10180649
000130 7c 8e b9 bd 53 07 ff bd af df 09 be 69 b3 c8 3e
       -0.0906038 -0.12452569 -0.13464235 0.3919938
000140 9e 58 85 be f4 07 85 3d b4 f6 5d 3e 8b ee 92 3e
       -0.26044172 0.064956576 0.21676141 0.2869762
000150 a5 b8 fc be 9a 92 c9 3d 3c 3a b5 3e 03 2d ed 3e
       -0.49359623 0.09842415 0.35395992 0.46323404
000160 93 5b 4e bc fe c8 58 be c2 a0 ae 3e 37 ac 91 bd
       -0.012595075 -0.21170422 0.34107023 -0.071129255
000170 b2 58 38 be d6 11 b0 3c b8 9a 22 bd d0 d1 81 3d
       -0.18002585 0.02149288 -0.039698333 0.06338847
000180 f0 b4 a3 3d 51 bf 96 3e 81 8c 55 3e 75 01 8e bd
       0.079934955 0.29442838 0.20854379 -0.06933872
000190 0f 20 2b 3d 2e d9 6c 3d b0 cc 38 be c9 d0 0c 3e
       0.04177862 0.057824306 -0.18046832 0.1375152
0001a0 18 83 aa bd f5 06 4d be a3 10 95 3c b1 0a 03 bd
       -0.083257854 -0.20022185 0.01819641 -0.031992618
0001b0 45 0e c8 bd 15 6d 80 3c f2 b9 b0 bd d6 25 8b be
       -0.09768347 0.015677014 -0.08629216 -0.27177304
0001c0 55 ad 74 be fa 16 fc bd 9d 31 5b bd 43 b4 a6 3d
       -0.23894246 -0.1230907 -0.05351411 0.08139851
0001d0 35 38 3c 3e b1 d4 0e bd 19 5d 8a 3c e4 3b 69 3e
       0.18380816 -0.034870807 0.016890096 0.22776753
0001e0 b7 ff e4 be e5 8a db ba b1 d5 5e 3d ab a8 b3 3d
       -0.44726345 -0.0016749768 0.05440301 0.08772405
0001f0 88 ca b5 3d 43 a0 e9 3c 24 83 c3 bc 0e 04 26 3e
       0.088765204 0.028518802 -0.023866244 0.16212484
000200 a0 9d 5c bd d0 c6 16 bf b3 18 57 3e a7 3e 21 bf
       -0.05386126 -0.58897114 0.21005516 -0.62986225
000210 6a 04 ce 3e a0 71 2d be e0 4b bf 3d cb b8 37 3e
       0.40237743 -0.16937876 0.09340644 0.17941587
000220 4d 1c d0 3e 0b 43 06 be ca da 96 3e bd fd 98 be
       0.40646592 -0.13111512 0.29463798 -0.29881087
000230 f9 d1 30 3f c4 78 d0 be a4 fa c2 bb 28 5e cc 3e
       0.6907039 -0.40717137 -0.005950289 0.39915586
000240 f4 d3 f2 3d 62 47 22 bf 50 fa 36 3f d1 f3 a9 3d
       0.11856833 -0.6339017 0.71475697 0.082984574
000250 a9 48 c0 be 88 8a ca ba 59 bf 8f be 2c 94 0d be
       -0.37555435 -0.0015452662 -0.28075674 -0.13826054
000260 a6 02 52 3e 58 2c db be 6b 58 3b 3c 90 37 42 3d
       0.20508823 -0.4280727 0.011434655 0.04741627
000270 68 17 3a 3f 77 35 c3 be ba 9d 90 3e 5f f4 7a bd
       0.72691965 -0.38126728 0.28245336 -0.061268207
000280 c4 6f 80 be 5b 60 63 3f 07 c8 a5 bf 9f c2 00 3f
       -0.2508527 0.888189 -1.2951669 0.5029697
000290 86 5f b9 3e f1 d3 33 3f e2 97 7c bd af de 5a be
       0.3620569 0.7024527 -0.061668284 -0.2137401
0002a0 de 1e 0d bf 7b 57 19 3f 42 71 de be 0e 06 0b 3f
       -0.55125225 0.5989911 -0.43445784 0.54306114
0002b0 0a 92 fc be d5 b2 42 3e ca 5b 91 3e 76 a0 29 3d
       -0.4933017 0.19013532 0.28390342 0.041412793
0002c0 1a c3 a9 be 72 ab c6 bc 48 07 a2 3e d8 58 71 be
       -0.33156663 -0.024251673 0.3164618 -0.23569047
0002d0 e1 9f 9c bf 66 30 9e be 39 79 b0 3d 48 41 04 3f
       -1.2236291 -0.308963 0.086168714 0.5166211
0002e0 4b b2 07 be ae 61 1f bc ba 53 09 3f d1 57 3f bf
       -0.13251607 -0.0097278785 0.5364338 -0.7474337
0002f0 05 4a b6 be b1 e5 8e bd ff e9 08 bf 09 68 7b 3e
       -0.35603347 -0.06977404 -0.5348205 0.24551405
000300 a2 04 22 3e eb 21 cb 3e 7c 1d 0c 3e f2 53 01 bf
       0.1582208 0.39674315 0.13683122 -0.50518715
000310 06 a7 32 3f af db 48 3e 40 1c 42 bf 02 76 7f be
       0.6978611 0.19615053 -0.75824356 -0.2494736
000320 ed 00 59 bc 64 8e 03 3f 24 7b f1 be b7 c6 2e 3b
       -0.01324485 0.51389146 -0.4716426 0.0026668736
000330 02 08 88 3f f7 c2 f3 3e 94 39 72 be 0a de 63 bf
       1.0627444 0.47609684 -0.23654777 -0.8901068
000340 0b 61 b9 be ff 97 93 be e4 c3 98 bd 40 38 58 3e
       -0.3620685 -0.288269 -0.07459238 0.21115208
000350 fb 2a b3 3e 33 b3 1f 3f b1 19 f0 3d 01 87 2e bf
       0.3499373 0.6238281 0.1172365 -0.6817475
000360 89 91 57 3d 32 81 37 bf 86 06 67 3e 51 15 5c bd
       0.052629028 -0.7168151 0.22561082 -0.053731266
000370 7e fa c5 bd 33 cf 25 3e 39 47 60 3e 6a 10 81 3d
       -0.09666918 0.16192321 0.2190217 0.06301959
000380 18 41 a4 3e d9 84 99 be 14 ac 94 3d ef 96 f9 bd
       0.32080913 -0.29984167 0.07259384 -0.121869914
000390 c8 dd ff 3d da 59 45 3d bb 47 2f 3e 40 31 cd 3e
       0.12493473 0.048181392 0.17117207 0.40076637
0003a0 9d 5c de be ca 76 e2 3d 7d 78 17 3e 01 4f d4 bc
       -0.43430033 0.110578135 0.14792056 -0.025916578
0003b0 57 bb 4d be 96 50 62 3d b5 6e 45 be 60 1c f8 be
       -0.20090996 0.055252634 -0.19280513 -0.48459148
0003c0 0b dd 8d 3e a2 4e 1a be e8 d8 d0 3a ce 59 4d bd
       0.27707705 -0.15069059 0.0015933784 -0.050134473
0003d0 4c e9 52 3e df 11 ab bc d8 c2 90 3d 5b d4 9a 3e
       0.20596808 -0.020882545 0.070684135 0.3024014
0003e0 e8 f2 ad 3d 89 68 da be 07 5b 69 3e eb 55 09 be
       0.08493596 -0.4265788 0.2278863 -0.13411681
0003f0 cc 4d 2e 3e 8e 54 d8 bc 7d 8c e7 3d fb ad e7 3d
       0.17021865 -0.026407506 0.11306093 0.11312481

stu.hidden.0.stu.M_phi_minus f4 [8, 16, 8]
000000 93 83 c4 be bc 6f aa 3b d1 e2 6e 3e ad 6c ba bc
       -0.38381633 0.005201308 0.23328711 -0.022756899
000010 0c 98 c0 3b bb 75 93 3c 27 a6 81 3e b5 f3 e6 3d
       0.0058775004 0.018000474 0.25322077 0.11276952
000020 fb 41 44 3e 46 07 30 be a7 e2 47 be 91 40 b4 3e
       0.19165795 -0.17190275 -0.19520055 0.3520551
000030 e9 f6 fd be 5a 07 25 bf 46 6a 82 3e 0a 78 ac 3d
       -0.4960244 -0.6446434 0.25471705 0.08421333
000040 a7 3e 8f 3e 42 ac ea ba 0b 7a ea bd a8 d2 95 3e
       0.27977487 -0.001790412 -0.11449059 0.2926228
000050 60 eb 30 be 87 6b ab be 9a 1e cc 3d 96 72 68 be
       -0.17277288 -0.33480474 0.09966774 -0.22699961
000060 03 18 17 3d 76 39 28 3e 22 e0 7e bd 57 85 94 be
       0.036888134 0.1642817 -0.06222547 -0.2900798
000070 7b 46 fd be ee 3c 05 bf 69 35 82 3e 4e e8 55 be
       -0.49467835 -0.52046096 0.25431374 -0.20889398
000080 ce e7 25 3e e8 66 b2 bc d6 ba 26 bc 2f 99 b2 be
       0.16201708 -0.021777585 -0.010176381 -0.34882495
000090 64 e0 f6 3d 8d 54 d1 bd dd 9f 8f 3e 03 9b 02 3e
       0.12054518 -0.10221205 0.28051654 0.12754445
0000a0 80 9a ad bd a4 59 a5 bd 06 13 8e 3d c6 bf 54 3d
       -0.08476734 -0.08073738 0.06937222 0.051940702
0000b0 0f f9 04 be d1 5f c8 bd 98 dd 17 bd 7e 62 1f 3d
       -0.12985633 -0.097839005 -0.037076563 0.03891229
0000c0 5e 79 2f bd 56 18 02 be 67 12 e6 bd 5d e9 cf bd
       -0.042840354 -0.12704596 -0.11233979 -0.101519324
0000d0 73 0c ab bc d7 41 3e 3e fa e9 9d 3d f0 50 23 be
       -0.02087996 0.18579803 0.07710643 -0.15948844
0000e0 44 84 33 3d 09 6b 51 3e 5d 96 83 3d 58 b8 39 3e
       0.04382731 0.20450987 0.06425164 0.18136728
0000f0 6d de 81 3c 2d f6 0c 3c f2 1a 90 be 8e 0a 01 3d
       0.015853131 0.008603615 -0.28145558 0.031504206
000100 2c b6 21 bd 5e 61 af 3b 88 25 37 be ec fd 26 3d
       -0.039480373 0.0053521832 -0.17885411 0.040769503
000110 70 d1 e9 3d 0c 29 46 3e 77 cb 69 3d 92 ae 82 bd
       0.114169 0.19351596 0.057078805 -0.06380953
000120 59 b7 b2 3d 13 55 9d bd ef cb fe 3c 6b bb 2e 3e
       0.08726377 -0.07682242 0.031103102 0.17063682
000130 cf 23 9f bd 4b be b2 be d6 8b 34 be aa e3 4f 3e
       -0.07770502 -0.34910807 -0.17631468 0.2030169
000140 d3 00 fa 3d 45 7a 40 3d ba b9 69 3d c4 52 2c be
       0.122071885 0.046991605 0.05706189 -0.16828448
000150 ca bd a3 3d c1 5c c7 3d 82 61 ab bd c6 fd 6e bd
       0.07995184 0.09734488 -0.083682075 -0.058347486
000160 35 8c 8c be 10 8e fb bc 7e aa 89 3e 6f 3a 96 3b
       -0.2745072 -0.03070739 0.26887888 0.0045846025
000170 f8 ef a5 bb d4 02 f0 bd a3 0c 96 3e 41 f3 38 3f
       -0.005064007 -0.117192894 0.29306516 0.72246176
000180 bc 6f 66 3c 0c 11 b3 bb ec bc 10 be 9c c7 90 bd
       0.0140647255 -0.0054646786 -0.14134568 -0.070693225
000190 7b 9d 93 3d 58 d3 27 be f5 1e de 3d b1 0b 79 3d
       0.072077714 -0.16389215 0.10845748 0.060802165
0001a0 84 9c f0 bb ee 32 0f bc 36 1d 38 bd 81 f7 49 3d
       -0.007342877 -0.00874017 -0.044949733 0.049308304
0001b0 b8 bc f4 3c a5 bd 0e 3e 75 71 cd bd 16 17 04 be
       0.029875144 0.13939531 -0.10031406 -0.12899432
0001c0 fa a9 1b 3d 13 3f 50 bd 06 a5 98 bd bc 95 b9 3d
       0.0380039 -0.050841402 -0.07453351 0.09061763
0001d0 3a be 7b 3b a8 dd 2a 3d d3 3a d7 3d 81 1f af 3c
       0.0038412944 0.041715294 0.10509267 0.021377327
0001e0 71 90 29 3d ba 9e a7 bc 02 4e 11 3e 2e 31 21 3e
       0.041397516 -0.020461429 0.14189914 0.15741417
0001f0 22 78 34 3c ca 76 10 3e 49 df c7 3c ef 39 43 3d
       0.01101497 0.14107814 0.024398463 0.04766267
000200 70 af e4 3e c0 c1 d5 bd 06 14 b5 3b fb f7 25 3e
       0.44665098 -0.104373455 0.0055260686 0.16207878
000210 ca 3e aa be 88 79 f3 3e 64 6e ab 3e 49 7b 7d 3d
       -0.3325103 0.47553658 0.3348266 0.061885152
000220 3c c2 ff 3c 78 f4 1f be 6f b8 3e bd 49 51 be 3d
       0.031220548 -0.15620601 -0.04656261 0.09292848
000230 03 37 b1 3e c3 0c ee be 45 0a 38 3e 4a a3 1c 3f
       0.34612283 -0.4649411 0.17972668 0.6118666
000240 d4 43 d4 3e fb 1a 6a be e2 50 95 3e f5 5c fb bd
       0.41458 -0.22861855 0.2916327 -0.122735895
000250 15 e3 84 be 11 47 16 3e 0d c3 b7 3d 4c 21 93 3e
       -0.259545 0.14675547 0.0897275 0.2873634
000260 b0 61 84 3b 91 4c c4 be 34 da 9c 3c 30 e4 79 bd
       0.0040399656 -0.38339666 0.019147016 -0.061008632
000270 35 ef 79 bd b1 ed cd be 0a 3b 67 bc bb 67 8e 3e
       -0.06101914 -0.40220407 -0.014113197 0.27813515
000280 25 ab af be 58 b3 e5 3e 9a dd 68 3e 6a 1a 7a be
       -0.3431026 0.4486339 0.22740784 -0.24424139
000290 3e 75 a8 bd 13 3a f8 bd f6 fa 4e be 31 73 03 be
       -0.08225487 -0.12120452 -0.20212922 -0.12836911
0002a0 48 b6 5e 3e 9d 33 ca be 2c 48 53 3e 3c 38 04 be
       0.21749222 -0.39492503 0.20633 -0.12912077
0002b0 ef 56 ea bd 57 d6 5f 3d 24 d1 4b 3e e8 60 60 3e
       -0.114423625 0.05464777 0.19904 0.21911967
0002c0 11 1d ca be 99 d8 8d 3c 65 38 30 3e 2d bb 85 bc
       -0.394753 0.017315196 0.17209013 -0.016324604
0002d0 e9 ea 9e 3e d2 74 7a be de 53 c6 bd 67 5d 39 be
       0.31038597 -0.24458626 -0.09683965 -0.18102036
0002e0 e2 77 7c 3e 36 98 b2 3e f3 3f af be 54 7c 92 be
       0.24655107 0.34881753 -0.34228477 -0.2861048
0002f0 18 42 c7 bc a8 83 a9 3e 43 14 91 bc a4 72 0d be
       -0.024323508 0.33108258 -0.017709857 -0.13813263
000300 50 6d 12 be 53 5c 9d 3e 0b 9b 7c 3d 5f eb 9f 3e
       -0.14299512 0.307345 0.061671298 0.3123426
000310 00 56 38 b7 8f 6f 30 3e 4f c5 b5 be 0d f5 22 be
       -1.0987278e-05 0.17230056 -0.35502097 -0.15913792
000320 0b c0 64 3e 33 40 85 bd a9 05 0b bd 99 a0 d4 3e
       0.22338884 -0.06506386 -0.033940945 0.41528776
000330 62 64 1c 3e 30 97 43 be 97 4c e6 3d c0 ab 8b 3d
       0.15272668 -0.19100642 0.11245077 0.06819868
000340 15 c9 09 3e df 23 2c bd 9b 24 f1 3d 8a 8d 28 3e
       0.13455613 -0.042026397 0.1177456 0.16460243
000350 39 0e 4d 3c 0a 81 6a be 31 98 8f 3d d1 e7 73 3d
       0.012515598 -0.22900787 0.0701145 0.05954725
000360 fa aa 03 3e c8 47 ca be 90 d0 4d 3e 87 b6 a0 3d
       0.12858191 -0.3950789 0.20099092 0.07847314
000370 e6 6e 2b be 12 76 62 bd 28 07 ec 3d 53 f3 16 3f
       -0.16741523 -0.055288382 0.115248024 0.58965033
000380 55 90 6d 3d 83 0b ce be c2 5a c0 3d 59 36 4d be
       0.057998974 -0.40243158 0.09392311 -0.20040263
000390 42 cb d8 3d ec 59 cd be c2 91 55 bd 7f 83 cf bc
       0.10585643 -0.40107667 -0.05214096 -0.025331257
0003a0 98 1f 72 be da 67 10 3e 9e 54 13 be b1 cf 32 3e
       -0.23644865 0.14102116 -0.14387748 0.1746204
0003b0 04 1d ab 3d 2f 88 f7 3d 8c 76 86 3d db 1a 0d 3e
       0.08355144 0.12086522 0.0656558 0.13779776
0003c0 e6 37 27 3d ce 5b e3 bd 28 03 dc 3d 35 6b 89 3e
       0.040824793 -0.11101495 0.107427895 0.26839605
0003d0 2f ad d4 bd 3f 2d 1b 3d 84 a1 aa 3c 2a ef 01 bb
       -0.10384595 0.037884947 0.02082897 -0.001982639
0003e0 b1 1f 2d 3d 0a cd d1 3c 1e 8d 48 bd 87 64 41 bc
       0.04226655 0.025610466 -0.048962705 -0.011803753
0003f0 e7 d1 c0 bc c9 3c 21 3d 1d 34 44 bd 4b 02 d8 3d
       -0.02353759 0.03936461 -0.04790126 0.10547312

stu.hidden.0.rn_2.weight f4 [8]
000000 2d de 6c 3f ea c7 2d 3f 0f f3 79 3f 73 b1 7b 3f
       0.92526513 0.6788317 0.97636503 0.9831764
000010 d2 24 51 3f 8f 30 22 3f 20 73 3d 3f 15 27 61 3f
       0.8169681 0.63355345 0.7400379 0.8795026

stu.hidden.0.mlp.swiglu.w.weight f4 [32, 8]
000000 c5 04 00 3f 99 81 f7 3d f6 72 0c be c7 88 aa 3e
       0.5000728 0.12085266 -0.13715729 0.33307478
000010 28 0e 77 be 0a 50 a1 bb b8 bb e2 3d 3d 63 62 3e
       -0.24126494 -0.0049228715 0.11070961 0.22108169
000020 ae a5 fb bd 5e f8 5e be b6 54 66 be 38 6f 40 3e
       -0.1228746 -0.21774432 -0.22493252 0.18792427
000030 98 5c 02 3e 50 e4 d5 3c 49 74 0a bf 58 2d f5 3c
       0.12730634 0.026109844 -0.5408369 0.029928848
000040 cd ec b5 be d2 c3 b4 3b 63 c1 6f 3e db 84 b2 3e
       -0.35532227 0.0055165077 0.23413615 0.34866986
000050 d5 53 43 3e 09 90 35 3e 10 7c 32 bf 0d 88 af be
       0.19074948 0.17730726 -0.69720554 -0.34283486
000060 62 bc 80 3e 64 32 0e be 17 cc 13 3e 8e 19 01 be
       0.25143725 -0.1388641 0.14433323 -0.12607405
000070 a5 48 ea 3e 22 64 a9 3e 4f 01 6d be 76 3a 3f bd
       0.45758548 0.33084208 -0.2314503 -0.046686612
000080 2b 0a 35 bd 54 c2 03 3e c2 f4 d2 3d af fa ac be
       -0.04419915 0.12867099 0.1030059 -0.33785006
000090 0d cd 8e be b0 03 c3 bd ea fb ba be 2b 5a 9f bc
       -0.27890816 -0.09522188 -0.3652032 -0.019452175
0000a0 98 3c 88 be 54 bd e0 3e c9 82 8f be f4 23 3d bd
       -0.2660873 0.43894446 -0.2802947 -0.046176866
0000b0 4b 9c e3 be a7 8d 40 be 36 75 76 3e 45 15 c5 bd
       -0.4445518 -0.18804036 0.2406815 -0.096231975
0000c0 10 ad 7b 3d fe 0e d4 3e d5 8c 8b bd 55 f4 ae be
       0.061444342 0.41417688 -0.06813971 -0.34170786
0000d0 65 2e 63 3e bd 71 70 3d b6 07 d3 bd 1a 44 1e be
       0.22185667 0.05870222 -0.10304205 -0.15455666
0000e0 0e 0a 5f 3d 84 a0 1e 3d 6f 28 b2 be ed cf 40 be
       0.05445295 0.0387273 -0.34796473 -0.18829317
0000f0 6a fe 62 bd 78 f4 23 be 2a ff 74 bd 28 62 64 3d
       -0.05541841 -0.16011226 -0.059813656 0.05575767
000100 c7 f0 22 3e 58 5d 8c 3c 3b 64 58 be b0 81 36 bd
       0.15912162 0.017134354 -0.21131985 -0.044557273
000110 d3 0a 05 bf 3f aa 81 3e 41 99 02 3e 7d 16 b1 3e
       -0.5196964 0.253252 0.12753774 0.3458747
000120 66 b4 39 bd b5 18 e4 be e3 de 55 3e 0a 6e 10 3f
       -0.045338057 -0.445501 0.20885806 0.56417906
000130 34 1f c9 3d 19 28 91 bd be 0e 01 3d 16 ee 9f 3e
       0.09820405 -0.07087726 0.0315082 0.31236333
000140 fe e3 f0 3e 95 46 d0 be 00 b1 37 be 27 2f e1 3e
       0.47048944 -0.4067885 -0.17938614 0.43981287
000150 06 5b df be 8c 9b 12 be ea 01 a6 3e 42 ed ed 3d
       -0.43624133 -0.14317149 0.32423335 0.11617519
000160 39 38 d0 be 14 d0 2b be 27 a1 59 be 1f 02 f7 be
       -0.40667894 -0.16778594 -0.21252881 -0.48243806
000170 19 6e 90 bd eb 39 07 3d 94 0b 99 be 94 55 8d 3d
       -0.070522495 0.03301422 -0.29891646 0.06901088
000180 ea 36 02 bd 92 5d 56 3d 58 85 17 3e 08 62 2b bc
       -0.03179065 0.05233533 0.1479696 -0.010460384
000190 a0 df e7 3d 96 62 01 3c 6d 25 80 3e 34 f1 da bd
       0.1132195 0.00789704 0.25028554 -0.10690537
0001a0 e6 14 8a 3b 50 24 9d 3e 75 5a 11 be 47 de 98 be
       0.004213917 0.30691767 -0.14194663 -0.29857084
0001b0 7c fb b0 bd aa 16 92 be 7b 0b 31 3e 24 0d 92 3d
       -0.08641717 -0.28532916 0.17289536 0.071314126
0001c0 2a 51 32 3d ac fe 70 3e 2f 07 6f be fe 8f 85 be
       0.043534435 0.2353465 -0.23342584 -0.2608642
0001d0 8e 0b 0f be 27 4b 8b 3d de f9 a0 be 35 61 81 be
       -0.13969252 0.068014435 -0.31440634 -0.25269476
0001e0 2c fc 19 3d 6d 69 1a 3d a1 e7 9b bc c0 fe 64 bf
       0.037594005 0.037698198 -0.019031348 -0.8945122
0001f0 cd 96 06 3f 83 14 12 3e 7e 94 83 3e 65 60 15 3f
       0.52573854 0.14265637 0.25699228 0.5835021
000200 18 07 b2 3e 72 6b 6a 3e 03 a7 10 be 07 75 a4 be
       0.34771037 0.2289255 -0.1412621 -0.32120535
000210 11 83 b2 3d f0 3f 06 bb b0 f4 81 bd 37 24 f3 be
       0.08716405 -0.0020484887 -0.063454986 -0.47488567
000220 02 05 1b 3d 57 d3 bc be 43 6a ce 3e f6 a8 0b be
       0.037846573 -0.3687999 0.40315446 -0.13638672
000230 c6 af 9d 3d 8b 44 0c be 63 ce 1f be 28 43 75 3e
       0.07699542 -0.13698022 -0.15606074 0.239514
000240 5a a8 ad 3e ae 0b c5 bd 46 21 d7 bc 08 51 2f 3d
       0.33917505 -0.09621368 -0.026260983 0.042801887
000250 dd 08 c3 3e dd d7 62 3e 8b d9 a6 3e cc 99 ac 3d
       0.380927 0.22152658 0.32587847 0.08427772
000260 c1 71 7f be 65 4d e3 3d 4b 17 6a 3e 44 22 aa 3d
       -0.24945737 0.11098746 0.22860448 0.08307317
000270 03 37 ba bc f7 26 80 bd 65 ea 0c bd 7d 0b b2 3d
       -0.02273131 -0.06257432 -0.034403224 0.086935975
000280 69 28 9d bd 8e 48 1e bf 63 12 e0 3e ec 2c b2 3d
       -0.07673723 -0.6182946 0.43764028 0.086999744
000290 56 dc 71 3d 10 4b 21 be 24 18 87 be ba c4 03 3f
       0.05904802 -0.1575129 -0.26385605 0.51472056
0002a0 ec 9e 8c 3e 4b 06 9a be 33 4b ad 3e cc 02 e3 3e
       0.27464998 -0.30082926 0.33846435 0.4433807
0002b0 58 02 64 3d d9 f9 59 be 3b 30 2e 3e c7 43 cc 3d
       0.055666298 -0.21286716 0.17010586 0.09973865
0002c0 ce 88 a0 bd 84 34 b7 bd b0 46 69 3d 84 7d 21 bd
       -0.078385934 -0.089455634 0.05695218 -0.03942634
0002d0 30 ad 89 be 8b 8a 10 be f1 86 05 bf 9e 3b 52 3e
       -0.26889944 -0.1411535 -0.5215903 0.20530555
0002e0 70 37 6f bd 65 61 2a bd 1c 7a d1 bd ea 7d e0 3d
       -0.05840248 -0.04159679 -0.10228369 0.10961516
0002f0 cd 25 ce bd 38 d4 90 3e 8b 7d 0c 3e cb 29 e0 3d
       -0.10065804 0.2828691 0.13719766 0.109454714
000300 87 98 e5 bd 57 15 0c 3e 15 0e b8 3d 72 e1 d6 be
       -0.11210733 0.13680016 0.08987061 -0.41968876
000310 21 38 9f 3d 0f 90 85 bd 31 4d 78 3e 4f 7c 2f bf
       0.077743776 -0.065216176 0.24248196 -0.68549055
000320 cf 94 55 bc f1 15 7e be 3f 12 c9 bc e0 2a a1 39
       -0.013035967 -0.24813057 -0.024544833 0.00030740257
000330 c3 d3 f1 bc 4d 58 46 3e 0d 40 a4 bd b3 37 b1 3b
       -0.029519921 0.19369622 -0.08020029 0.005408251
000340 b2 2a 31 3d 1b 81 ae bd 43 90 09 be c4 3a 03 3f
       0.043253608 -0.08520719 -0.13433938 0.51261544
000350 b8 93 41 3f f4 1d 11 3f f4 b4 ee 3e 3c 5e 35 be
       0.75616026 0.5668633 0.4662243 -0.17711729
000360 ac dc 18 3e cf fa ac bd 4e 6d bc be a7 3d 17 be
       0.1492793 -0.084462754 -0.36802143 -0.14769612
000370 2e 26 6c be 6b c8 89 3d 9d 96 bf 3d 22 0d 31 3e
       -0.2306144 0.0672768 0.09354899 0.17290166
000380 a2 bb 68 3b f6 33 8b be e8 fd 95 3e b2 b5 c2 3e
       0.0035512228 -0.2718808 0.29295278 0.38029248
000390 5f 27 12 3e 9d ad a9 3d 89 87 a3 be fe 47 35 be
       0.14272831 0.08285067 -0.31939343 -0.17703244
0003a0 9b 9f 54 bd 04 c0 04 bf af 0d 6b bd 77 ea 42 bd
       -0.051910024 -0.5185549 -0.057386097 -0.047586884
0003b0 3f cf b2 bd 10 6d ac be b4 a7 95 bd e9 48 26 3e
       -0.08730935 -0.33676958 -0.073073775 0.1623875
0003c0 b2 06 d4 3a 1b d0 0d bd e4 c3 62 be 9c 09 de 3d
       0.0016176312 -0.034622293 -0.22145039 0.108416766
0003d0 ce 7d 7a 3d 69 5e 67 be 09 72 3d 3e 16 2d de 3e
       0.061155133 -0.22594608 0.18500532 0.43393773
0003e0 4f df cd 3d 12 b9 5f be 7b 4d 57 be 98 3b 95 be
       0.10052358 -0.21847942 -0.2102565 -0.2914703
0003f0 66 61 8a be 41 c8 a8 be 99 a1 aa 3c fa 55 c4 be
       -0.27027434 -0.32965282 0.020829009 -0.38346845

stu.hidden.0.mlp.swiglu.v.weight f4 [32, 8]
000000 d2 6e c5 3b d6 4d b3 3d be df 0f bd c5 16 ba 3d
       0.0060251737 0.087550804 -0.035125487 0.09086374
000010 30 32 b7 bc e6 2e 29 be b0 e6 09 3f c5 bc 1b 3f
       -0.022362798 -0.16521797 0.53867626 0.60834914
000020 65 4b 32 bd eb 0f 85 3e c9 ee 4e 3e 3c 9e 5b bd
       -0.043528933 0.25988707 0.20208277 -0.0536177
000030 73 b4 4e bd 5f f1 03 3f ae 07 c4 bd b4 2f 38 be
       -0.05046506 0.5154018 -0.09571777 -0.17986947
000040 79 d8 a8 bd db 8f b1 3d 42 70 bd be 3b 07 a1 be
       -0.08244414 0.086700164 -0.36999708 -0.3145083
000050 d2 d5 e3 bd 85 0a 0e bd 80 a1 95 3e b8 1d 3a bc
       -0.11124767 -0.034678 0.29224777 -0.011359625
000060 76 1e 5f bd 1e 8d 2d 3e 52 32 b6 bd 93 af b6 be
       -0.05447241 0.16948363 -0.088963166 -0.35680827
000070 95 fe 33 3e 2c cf 1e be c0 20 39 bc cf 53 58 bd
       0.17577584 -0.15508717 -0.011299312 -0.0528143
000080 fb 15 87 3e cf 12 9a bd a8 d8 cf be 3f 57 97 bd
       0.26383957 -0.07523119 -0.40594983 -0.07389688
000090 bc 4e 1f 3e 07 10 37 bd 63 50 f6 3d fc 3a 9d 3e
       0.15557379 -0.04469302 0.12027051 0.30709064
0000a0 37 60 e3 bd 6f f7 fc 3e f7 b1 0d be 62 16 f9 bd
       -0.11102336 0.49407527 -0.1383742 -0.12162472
0000b0 31 b9 89 be 4b 22 80 bd f3 52 3d bd d7 ff 94 be
       -0.26899102 -0.06256541 -0.046221685 -0.2910144
0000c0 ee 7b 42 be 4b 8f b4 3e 7f 93 b5 3e 5f 35 8e 3e
       -0.18992588 0.35265574 0.35464093 0.27775094
0000d0 1b 94 f2 be bb 28 f4 bd 35 8a 4f bd 87 1d 4f 3e
       -0.4737862 -0.11921831 -0.050668914 0.20226108
0000e0 25 f3 a2 bd 79 87 30 3c 3f fd 5a 3d 31 d6 8b 3e
       -0.079565324 0.010774487 0.05346417 0.27311853
0000f0 56 bd 26 3e 7c 2b b4 3c 50 36 84 bd 2f 63 86 3e
       0.16283163 0.021993391 -0.06455672 0.26247546
000100 24 3f 9b 3d ef 17 4c be d2 3d 18 be 5e 86 01 3e
       0.075804025 -0.19931005 -0.14867333 0.12648913
000110 89 5a 31 be 56 f8 a6 3c 2e 4d 6e 3e ce 23 5f 3e
       -0.17319693 0.020382088 0.23271629 0.21791002
000120 02 0f ec bc 1b f4 59 be 7e b7 17 be 5a f3 95 3d
       -0.02881575 -0.21284525 -0.1481609 0.07321806
000130 cb 39 18 3f c4 dc 46 3e ed a1 98 be 5c 0b 7f bd
       0.59463185 0.19420153 -0.2981104 -0.062266693
000140 76 7b 1d 3e f3 11 7b 3d 1d de cb 3c 0c 18 05 bd
       0.15379128 0.061296415 0.024886185 -0.032493636
000150 3f 84 6c be b0 ec 0a be be c1 ec 3e c3 ad 3f 3f
       -0.23097323 -0.13566852 0.46241564 0.74874514
000160 f7 8c 78 be 28 af 96 be fe 81 81 be 9f 03 66 be
       -0.24272524 -0.2943051 -0.2529449 -0.22462319
000170 ea 55 38 3e 0d 3b 58 3e bc 81 a4 be 3a d8 1e be
       0.18001524 0.21116276 -0.3213023 -0.15512171
000180 c4 77 45 be ef 95 02 3c d0 7f ed 3d 2a f6 eb 3d
       -0.19283968 0.007970317 0.11596644 0.115215614
000190 7c 31 6a 3e 3c 80 d1 3c 2a d4 16 3e b1 40 8b bb
       0.2287044 0.025573842 0.14729372 -0.004249655
0001a0 dc 31 6c be 1a dd 98 3e 88 d9 83 be 18 9c d4 bb
       -0.23065895 0.29856187 -0.257519 -0.0064883344
0001b0 e8 1d 8c bd 8e a7 67 be 6c 29 07 bc bb 27 4c 3e
       -0.06841642 -0.22622511 -0.008249622 0.19937031
0001c0 e1 09 58 bd 64 3b 80 3d 69 4e df be b7 73 e3 bd
       -0.052743796 0.06261328 -0.4361451 -0.11106055
0001d0 cb b7 92 3e 1e 5f df 3e 7a 46 ea bd cb b7 ee bd
       0.28655848 0.43627256 -0.114392236 -0.116561495
0001e0 61 cb 16 3e 72 e7 b8 3c 1e dd dc 3d 80 86 bb 3e
       0.1472602 0.0225713 0.10784362 0.36626053
0001f0 f8 60 f5 be db a1 e5 be 61 6d 8f 3e f3 d1 63 be
       -0.47925544 -0.44850048 0.28013137 -0.22248058
000200 ae d2 24 be e3 54 67 3e 6e d8 0e 3f 0c 2e b0 3e
       -0.16095993 0.22590975 0.55798995 0.3441013
000210 d6 08 5a be 4d 44 e1 3d e8 36 21 bd 45 32 65 3e
       -0.21292433 0.109993555 -0.039359003 0.22382458
000220 dc 59 5f 3e 8e 1c 9a bd ef c7 46 be 01 45 a2 3d
       0.21811622 -0.075249776 -0.19412206 0.07923318
000230 04 09 b5 3d de 87 9a bd 7b e2 d8 3e dc 43 dd bd
       0.0883961 -0.07545446 0.4236029 -0.10803959
000240 b7 f5 83 3e b1 d7 1f 3e ae 44 01 bd fb 62 b5 3e
       0.25773403 0.15609623 -0.03155964 0.3542708
000250 52 90 db 3c c4 fe b3 3d f5 1c 43 3c f0 fc ac 3d
       0.026802216 0.08788827 0.011908759 0.084466815
000260 2b 29 c2 bc 19 84 6e 3c 5f b7 59 3e 91 51 38 3d
       -0.023701271 0.014557862 0.21261357 0.044999663
000270 59 3d 2d 3d 69 81 8e be d2 0b 21 3e e5 9f 66 bd
       0.042294834 -0.27833107 0.15727165 -0.05630483
000280 91 aa b6 be e7 d6 aa be c5 bd 49 bd fb f0 a2 bd
       -0.35677007 -0.33367082 -0.049253244 -0.079561196
000290 c0 ac 18 3e 0e 1d 4d 3e 1e df 1c bf 36 8f 75 3c
       0.14909649 0.20030615 -0.6127795 0.014987757
0002a0 89 5a 89 be f8 08 d4 3b 2f 28 69 3e e4 29 1e bd
       -0.26826885 0.0064707957 0.22769235 -0.03861417
0002b0 ee 0a 24 3e e2 d6 0d 3f 33 e6 38 bf ca 3c 05 bf
       0.16019794 0.5540601 -0.72226256 -0.5204588
0002c0 bc c8 a6 3e 67 95 73 3d 93 76 49 be 15 d3 c3 bd
       0.32575023 0.059468653 -0.19674139 -0.09561745
0002d0 84 18 32 be 8b 2d cf 3c ee 25 42 3d ab 83 86 3e
       -0.17392164 0.025290271 0.047399454 0.2627233
0002e0 ce 6c f0 bd 44 82 05 3e 83 c1 7b 3e 11 77 75 bd
       -0.11739503 0.13037974 0.24585538 -0.059928004
0002f0 81 91 e1 bb 5a 8b 28 3d 9c 72 98 be fb 47 e2 3d
       -0.0068838005 0.04114852 -0.2977494 0.110488854
000300 d0 16 9b 3e e4 39 79 be 2a 3a 8e 3d cd a4 bb 3e
       0.30290842 -0.2433849 0.06944688 0.3664917
000310 d7 c8 d0 be 41 94 8b be fb c6 b4 3e 1d 6a b7 3e
       -0.4077823 -0.27261546 0.3530806 0.35823146
000320 05 59 d9 3c f2 87 89 3e 05 af 2c bd aa a8 3e bd
       0.026531706 0.2686153 -0.0421591 -0.04654757
000330 db 7c 27 3d 06 57 b2 bd 27 61 ab bd bb 99 82 3c
       0.040890556 -0.08708005 -0.0836814 0.015942445
000340 a0 84 f7 be 31 82 6b be e9 3d 9b be 62 90 75 be
       -0.48343372 -0.22998883 -0.3032067 -0.23980859
000350 b7 e1 02 3e 98 98 e6 bd dc ea 76 be 43 d7 1f 3f
       0.12781416 -0.11259574 -0.24113029 0.6243784
000360 8c 90 9b bd fb 09 02 3d ac 84 4f 3e da d6 a9 3d
       -0.075959295 0.0317478 0.20265454 0.08292933
000370 4f 2e 48 3e cf 7f 90 bd fa 59 99 3e 41 22 3b bd
       0.19548915 -0.070556276 0.2995146 -0.045686964
000380 6f 61 96 bd bc f1 c3 3d 1d 05 6f be 78 42 40 be
       -0.07342803 0.095675915 -0.23341794 -0.18775356
000390 99 1a 0e be 71 53 51 3c 8e 57 7f 3e f3 24 81 bc
       -0.13877334 0.012776242 0.24935743 -0.01576469
0003a0 60 64 c4 be 4d 66 13 be 92 03 d1 bd 69 e7 c3 3d
       -0.3835783 -0.14394493 -0.10205759 0.09565622
0003b0 af cc e6 3d dd 12 1b bd ac 57 3e be 44 32 ec 3d
       0.11269509 -0.037859786 -0.18588132 0.11533025
0003c0 3e a1 17 3d b7 97 88 bd 17 89 e8 be a5 23 5f bc
       0.037019007 -0.06669562 -0.4541709 -0.013619338
0003d0 10 5d 2f 3e db 47 4e 3e e1 f1 15 bd 87 80 2e 3e
       0.17125344 0.20144598 -0.036607627 0.17041217
0003e0 0b f3 b5 be 99 78 42 be cf e1 90 3b 80 3b f4 bc
       -0.3553699 -0.18991317 0.0044214497 -0.029813528
0003f0 b5 1b 0f be ca 5e 87 3c 5e b2 ac be 90 f1 13 be
       -0.13975413 0.016524691 -0.33729833 -0.14447618

stu.hidden.0.mlp.swiglu.w2.weight f4 [8, 32]
000000 ae 9d 14 3f ee 89 0e 3e 5b 10 59 bd 81 e7 b9 bd
       0.580531 0.13919804 -0.052994113 -0.09077359
000010 23 c6 b5 3d 70 ef 4e 3e 1d ea df 3d c2 9a 6a be
       0.08875682 0.20208526 0.109333254 -0.22910598
000020 d3 a0 c0 3e f5 cc fa bc 0a b1 61 3f 18 c3 e2 3e
       0.376227 -0.03061531 0.88160765 0.4428947
000030 e9 15 0a be bd f5 4f be 5b 84 69 3e 4d c7 bf 3e
       -0.1348492 -0.20308585 0.22804396 0.37456742
000040 b2 b9 86 be 9a 13 88 3d fd 1c 24 3e 90 02 a4 be
       -0.2631355 0.06644364 0.16026683 -0.32033205
000050 6c a8 2d be 26 39 e6 be 96 24 df 3d 7a 90 f3 3c
       -0.16958779 -0.44965476 0.1089565 0.029731978
000060 e4 46 2d bc 8d 64 ea bd c9 04 86 3e 96 e9 b2 3d
       -0.010575984 -0.1144496 0.26175526 0.08735959
000070 04 7b bd be 86 85 98 be d8 48 f1 bd 58 f4 ae 3d
       -0.37007916 -0.2978937 -0.11781472 0.085426986
000080 90 a6 d6 3e 90 2b 8a be 12 41 bb 3d c9 5c e5 3c
       0.41923952 -0.2698636 0.091432706 0.027998345
000090 35 df ed be 0c fa 91 3d cd a1 8c 3e aa e3 97 3d
       -0.46459356 0.07127771 0.27467194 0.0741647
0000a0 94 0f 1d 3e 67 d8 03 3f b1 19 9b bd 5c fc 47 3e
       0.15337974 0.5150208 -0.075732596 0.19529861
0000b0 87 37 9c bd 4d 8a 49 be bf 62 a9 bd 75 82 24 be
       -0.076277785 -0.19681664 -0.082707874 -0.1606539
0000c0 fc 7c ec 3d a5 78 dc bd 46 b8 bc 3e 61 46 ef bc
       0.115472764 -0.107651986 0.3685934 -0.029208364
0000d0 78 49 9e 3e ae c3 b3 be b0 c4 4f be a4 1f f9 bc
       0.30915427 -0.3511023 -0.20289874 -0.030410595
0000e0 47 1f 69 be a4 1b 84 bc 57 bd c8 3e b8 55 cf bd
       -0.22765838 -0.016126461 0.39206955 -0.101237714
0000f0 d3 96 06 be 51 b0 a8 3e 99 71 b1 3e 04 97 cd 3e
       -0.13143472 0.3294702 0.3465698 0.40154278
000100 fd a9 2c 3e 9f dc 9e be b4 d4 dd 3e 87 db 57 3e
       0.1686172 -0.31027696 0.43326342 0.21079837
000110 c5 4b 40 3e 0a 84 b1 3e 98 04 5a bd 49 72 0b 3e
       0.18778904 0.3467105 -0.053227037 0.13617815
000120 21 f5 69 3d 74 9f f9 be 7a d1 94 bc cf 26 a2 3e
       0.05711854 -0.48754466 -0.018166292 0.31670234
000130 90 15 ff 3d c1 b1 5b 3d 57 11 f8 3e bb a3 6e be
       0.124552846 0.053636316 0.4845073 -0.23304646
000140 28 1d 0d be 56 57 89 3e d8 17 84 be f2 73 04 be
       -0.13780653 0.26824445 -0.2579944 -0.12934855
000150 2f 70 ca be 72 90 a6 be 5d ee 18 3e d0 fc bc 3e
       -0.39538714 -0.32532078 0.14934678 0.3691163
000160 48 ae 92 be 4a 96 24 3e 01 e3 b3 3e d0 0b 10 be
       -0.2864859 0.16072956 0.35134128 -0.14067006
000170 ef 88 d2 3e 66 2e 08 3d ac 52 41 bd 07 2f fc bd
       0.41120097 0.033247374 -0.047197983 -0.12313657
000180 f2 01 85 3d 4f a7 07 be 01 5a 12 3e d0 35 64 3c
       0.06494512 -0.13247417 0.14292146 0.0139288455
000190 2c 53 c2 bd 1e ab 4f 3d 45 bf 1d be 1f f1 9d bd
       -0.0948852 0.0507003 -0.15404995 -0.07712006
0001a0 f4 85 47 3d 67 0d 15 be d6 22 b9 3d 44 d2 97 3e
       0.048711732 -0.14555894 0.090398476 0.29652607
0001b0 0c f4 1c 3e f1 a8 97 3d af 05 51 3e 19 49 ca be
       0.15327471 0.0740527 0.20412324 -0.39508894
0001c0 85 ec 48 be b2 b5 d5 bd 44 32 21 3e 4c 5e 8c 3d
       -0.19621475 -0.10435046 0.15741831 0.06853923
0001d0 43 20 d5 bd cd b8 c4 bd 27 3f cd 3d 51 60 57 bd
       -0.10406544 -0.096055605 0.10021811 -0.05258209
0001e0 4f 51 df be c7 51 96 3c 57 46 31 be c9 26 05 be
       -0.4361672 0.018349541 -0.17311989 -0.13003077
0001f0 2c dc 59 bc f1 f1 eb 3c 1c 81 78 bd ea f2 4a 3e
       -0.013297122 0.02880189 -0.060670003 0.19819227
000200 61 b6 63 3d ee f9 86 3d 69 77 6c 3e 77 78 b0 be
       0.055593852 0.06590639 0.23092426 -0.34466907
000210 c8 ca 78 be e9 b8 c4 3e ad b5 04 3f b2 d4 bb 3d
       -0.24296105 0.38422325 0.51839715 0.09171428
000220 99 0b 90 be 12 42 ee 3d 4f 59 91 3e 48 44 c7 be
       -0.28133848 0.11633696 0.2838845 -0.38919282
000230 60 01 61 bd 4e 1d af bc 84 3d 3c be b0 24 ed 3e
       -0.054932952 -0.021376278 -0.18382841 0.46317053
000240 89 68 b3 3e 2a ec 22 3e 28 03 c0 bd c1 3d 8b 3c
       0.35040691 0.15910402 -0.09375602 0.01699722
000250 aa d5 f9 bd fc 2f 53 be d4 ac 41 be 01 f8 fc 3d
       -0.12198956 -0.20623773 -0.18913585 0.123519905
000260 37 44 8b 3e 61 6e 63 bc 13 77 be 3d dd 68 b0 3c
       0.2720048 -0.013881297 0.09300055 0.021534378
000270 d7 02 d1 3e 64 d8 2f bc 59 5c 27 bd 38 88 d3 bc
       0.4082248 -0.010732744 -0.040859554 -0.02582179
000280 99 89 87 3d 08 83 d8 be 61 e5 db 3e 86 c4 7f 3d
       0.066180415 -0.4228747 0.4294844 0.06244328
000290 c0 dc 9d be 6f ea 7e 3e fc 84 9e 3e be 4d dd 3e
       -0.3083248 0.24894117 0.30960834 0.43223375
0002a0 37 12 0d 3e e4 32 2c be a2 da 36 be bc 53 03 be
       0.1377648 -0.16816288 -0.1785684 -0.12824911
0002b0 42 81 f5 3d 0e 88 5e 3d de 37 f6 be 36 b1 0b 3e
       0.119875446 0.05432897 -0.48089498 0.1364182
0002c0 ee e5 e0 3e d5 21 cc 3d 67 48 7b be 99 d5 a2 bd
       0.43925422 0.099673904 -0.24539338 -0.07950897
0002d0 2d 3a f2 bd 60 f1 84 be a9 6d bf bd 8a 71 f4 bd
       -0.118275024 -0.25965405 -0.09347088 -0.11935718
0002e0 9c 06 5c be 4e bf 9c ba a9 f3 0e 3f 79 02 f3 bd
       -0.21486896 -0.0011958869 0.55840546 -0.11865706
0002f0 5c 34 3a 3e 78 24 15 3e 1d a0 d7 3e 97 f7 71 3e
       0.18184036 0.14564693 0.42114344 0.23629604
000300 8d 8c 2b 3d fc e4 8a 3e ef 51 52 be c8 d0 27 3d
       0.041882087 0.27127826 -0.20539068 0.040970594
000310 2f c0 92 be 42 1d 51 be 0d 89 98 bd f5 80 28 3e
       -0.2866225 -0.20421317 -0.07448015 0.16455443
000320 67 dd 8c be 37 8a 33 3e b2 77 6e be df 4e e2 3d
       -0.27512667 0.17533194 -0.23287848 0.110502
000330 65 00 0c be f4 9d 81 be 66 a6 2d 3e da 73 06 3e
       -0.13672026 -0.2531582 0.16958007 0.13130131
000340 10 97 33 3e 0a d3 77 3d 7a ae db 3c e3 dc 2f be
       0.17538095 0.060503997 0.026816595 -0.17174105
000350 4c b8 30 3e 20 b4 49 be a0 b9 06 bf 73 b9 eb bd
       0.17257804 -0.19697618 -0.5262699 -0.11509981
000360 b0 4e 89 3d 94 eb 3c 3e ec 03 c8 3e 50 f1 48 3e
       0.067044616 0.18449241 0.39065492 0.19623303
000370 40 cb a6 be a4 07 09 3d c6 15 21 bd ae 47 8d 3d
       -0.32576942 0.033454552 -0.039327405 0.068984374
000380 f8 98 24 3c d5 bf 25 3e 77 f3 9d 3e 73 11 91 3e
       0.010046236 0.1618646 0.3084981 0.28333625
000390 90 f0 f8 bd f9 11 3c 3e 9a 59 bf be ea 89 3b 3d
       -0.12155259 0.18366231 -0.37373048 0.045785822
0003a0 c3 df e6 3d 11 13 be be df 8c 98 3e 1e 4e 13 bd
       0.11273148 -0.37123922 0.29794976 -0.03596317
0003b0 d9 9f 25 3d 27 db 6c be e9 27 17 3e 0a e2 16 3e
       0.040435646 -0.23130475 0.14761318 0.14734665
0003c0 19 2a e7 bd 60 19 0d 3e d1 7b 7e be 00 9c b0 3d
       -0.11287326 0.13779211 -0.2485192 0.08623505
0003d0 a9 d6 be be 91 2d 82 be fa 5b 85 3d fe d0 d4 bd
       -0.37273148 -0.2542539 0.06511684 -0.103914246
0003e0 10 4e 10 bf b3 71 a2 3d ed d1 f3 3e f9 fe 10 3d
       -0.56369114 0.07931843 0.47621098 0.03539941
0003f0 ce 20 09 3e 42 a5 70 be 5f 93 8d 3d 67 de f0 3d
       0.1339142 -0.23500541 0.069128744 0.1176117

stu.hidden.1.rn_1.weight f4 [8]
000000 43 ca 2c 3f b8 a6 22 3f 28 59 0e 3f eb 6d 45 3f
       0.67496127 0.6353564 0.5560479 0.77120847
000010 ce e0 21 3f 6a 9f f7 3e 17 19 0c 3f 37 70 66 3f
       0.6323365 0.4836381 0.54725784 0.90014976
