checkpoints/sssm-Walker2D-v1-model_step-2100-2024-11-18-19-37-05.pt (torch, 34514 bytes, 18 tensors)

emb.weight f4 [8, 24]
00000000: c363 90be 713b aa3e b889 08bf 7321 4b3e
00000010: c1c4 67be b825 a4be 5fca 88be 0919 3dbd
00000020: 82fb 7e3e af9f 04bf b2a1 9ebe 8130 643e
00000030: 8618 8c3d f59e 333e d3bf 8c3e 6cb8 7c3d
00000040: 29a3 673e 9b67 a13e d28a 5a3e 26f6 9d3e
00000050: 670d 523e 6139 08bd 3dc9 0e3e e0f1 eb3e
00000060: 9920 24bf d46f 79bd cb05 1dbe eb11 28bd
00000070: b8c4 583e f870 743e 0a17 463e 19fd 843e
00000080: db8f 85bd adbc acbe f0ad 7b3e 71ee 3abe
00000090: ab44 43bd d1fc 993d 215b 5dbe cb59 e6bd
000000a0: 8e05 0abe d93e 23bf 5d6b 6fbe 5a6b 49bb
000000b0: b244 a9bd a37f 373d 8745 a73d 3dfa 1fbc
000000c0: 0392 8bbe a808 75be b3ee 8bbe 4867 043e
000000d0: a2d5 3f3e 0d6a de3c 5374 b6bd 79dd 1c3e
000000e0: 2e3f 7cbd ed4f eabd e811 953e 4c55 a0be
000000f0: 16c7 b53d ca4d e33e ee7b 0f3e 55b3 3f3e
00000100: bce6 a03c 2233 8a3e cb3f 5d3c d447 513e
00000110: d416 67bb ca84 59bc 75ec 183d d682 223e
00000120: 787e bc3d 3af9 f6bc ce33 4cbc 64b3 05bd
00000130: 5f48 51be 60e4 9abd 45b2 67bc 2ce2 95bd
00000140: 6e35 353e 9b48 933d bab5 8d3e 19f8 da3d
00000150: bf4e ffbc 0226 1f3d 3215 84be c534 f93d
00000160: 9cf8 8bbd 9774 20be 508f 19be 6b7b acbd
00000170: 77cc 85be 15f2 da3c 33b2 89bd 0392 69be
00000180: 64cf 933e ffef 5dbe a064 b33e c20a 073e
00000190: 00bd 113e 6711 533d 56d5 febd a133 403e
000001a0: d3e1 013e f44c 523d 392c d5be b83d a3be
000001b0: d128 3d3e c0a3 cf3e 6507 f83d b5fa 8a3d
000001c0: 3652 243e 87aa acbd b10d c8bc 3206 9a3e
000001d0: 8ac7 f93d 6af6 19bd e70a 8d3e 74a0 243e
000001e0: 7355 883e dad5 37be 675c cdbd 3856 5c3d
000001f0: 39d8 21be fc00 c73d 9fe3 423e 2508 ee3c
00000200: 05e3 acbe d2ca 1ebe 0d91 59bd 5ea9 5ebe
00000210: 3372 443e 9ea9 df3d 0acc 233e e5b2 9abd
00000220: ce9a 0ebe a066 503e 1b16 af3e 941d ddbe
00000230: 0c2c b5bb 9110 9e3c dcd2 ccbe d2da f8bc
00000240: e30e b23e 1ee9 2abe 2596 1b3e 3011 71be
00000250: 9891 0ebe 301f 5bbe c6de 733d 87c7 92bd
00000260: be59 d7ba ccea 82be ea86 463d 4499 60bd
00000270: 9e15 a03c 5081 f2be ebbd 18be a68a b1bd
00000280: 3d13 333e 12c8 833d a182 4f3e 0a1b 14bf
00000290: cba0 47be b57e cb3c 29e9 b2be a095 b1be
000002a0: 9b32 cabe 431e 253e f805 a1be c9a1 f7bd
000002b0: 4a26 933e 1761 b03d 813d 9cbd f74b e23e
000002c0: 1d55 133e 4437 45be 688f f9be ef17 893e
000002d0: 779f 1f3d 1b93 6c3d 7f1f 793e bdeb 83be
000002e0: 4c70 853d 830b 6d3e 1f11 edbd 0b82 813e
000002f0: 24af 543e 8404 e5bc 1f7e 973e 54dd 7a3e
-0.28201112 0.33248475 -0.5333514 0.19836979 -0.2263365 -0.32060027 -0.26716897 -0.046166454
0.2490063 -0.5180616 -0.3098274 0.22284128 0.06840615 0.17541106 0.274901 0.061699316
0.22620834 0.31524357 0.21342018 0.3085186 0.20512925 -0.033257846 0.13943954 0.46082973
-0.6411224 -0.060897663 -0.15334241 -0.041032713 0.21168792 0.23871219 0.19344726 0.25974348
-0.06521579 -0.33737698 0.2457807 -0.1825502 -0.04767291 0.07518924 -0.21616794 -0.112475954
-0.13478681 -0.6376777 -0.233808 -0.0030734153 -0.08265056 0.04479946 0.08167558 -0.009764251
-0.27259836 -0.23929083 -0.2733055 0.12930024 0.18733838 0.027150178 -0.08908906 0.1531886
-0.06158369 -0.11441026 0.29115224 -0.31315076 0.08875863 0.44395286 0.14012119 0.18720753
0.019641273 0.26992136 0.013503979 0.20437557 -0.003526141 -0.013276288 0.037334878 0.15870222
0.092038095 -0.030148137 -0.012463523 -0.032641783 -0.20437764 -0.0756309 -0.014141624 -0.073185295
0.17696163 0.07191583 0.2767771 0.10691852 -0.031165479 0.038854606 -0.2579742 0.12168268
-0.06834528 -0.15669475 -0.14996076 -0.084219776 -0.26132557 0.026726762 -0.06723442 -0.22809605
0.28869164 -0.21673582 0.35037708 0.13187698 0.14232254 0.051530268 -0.12443034 0.18769695
0.12683801 0.05134292 -0.41635302 -0.31883025 0.18472601 0.4055462 0.121107854 0.067861
0.16046986 -0.08430963 -0.024420591 0.30082852 0.12196262 -0.037588514 0.2754738 0.16076833
0.26627693 -0.17952672 -0.1002739 0.053793162 -0.15805139 0.09716985 0.19032143 0.029056618
-0.33766952 -0.15507057 -0.053116847 -0.21744296 0.19184189 0.10921024 0.15995803 -0.07553653
-0.13926241 0.20351648 0.34196553 -0.4318663 -0.0055289324 0.019295009 -0.40004623 -0.03037778
0.34776983 -0.1669049 0.15193994 -0.23541713 -0.13922727 -0.21398616 0.059538625 -0.07166963
-0.0016429943 -0.2556976 0.048468508 -0.054833665 0.019541558 -0.47364283 -0.14916198 -0.08669023
0.17487808 0.06434645 0.20264675 -0.5785376 -0.19494931 0.024840692 -0.34943512 -0.34684467
-0.39491734 0.16124825 -0.31449866 -0.12091405 0.2874015 0.086122684 -0.076289184 0.44198582
0.14387937 -0.19259363 -0.48742223 0.26776072 0.038970437 0.05775748 0.24328421 -0.25765792
0.065155596 0.23148923 -0.11575531 0.25294527 0.20769936 -0.027956255 0.2958841 0.24498492

stu.hidden.0.rn_1.weight f4 [8]
00000000: c358 283f f2c7 183f 0cfa 4c3f 21ce 5a3f
00000010: 93fb 0a3f 446b 083f e91b 6f3f 06e9 5e3f
0.6576044 0.5968009 0.8006904 0.8547078 0.5429012 0.53288674 0.9340196 0.87074316

stu.hidden.0.stu.M_u f4 [8, 3, 8]
00000000: 554f 00bf 7f1e 483c 43b1 0d3e e5c8 0abe
00000010: fd89 333d 4391 06bc e3f6 993c 9b8e adbd
00000020: a60e 20be 277b 44be 6a60 003e e517 f63c
00000030: ddbc dcbd 772e 763e 40a4 183e 6d61 153e
00000040: c14a 91be 5243 36be daa2 f73d 991d 863d
00000050: b993 4bbe 06ba 0dbe c220 bbbc aa8b 273e
00000060: 5090 db3d fca5 07bf f054 94bd 209a 743d
00000070: cddc 463d e66e 51be fcc2 88bc 7ec7 823d
00000080: 186c 2d3e 34fa 8fbe 42a1 e2bd 1c6a c53d
00000090: ddfd 203e cb8b c5bd 507f 48be b88c ad3e
000000a0: 47ce 703e 93e4 d8bd 8a18 69bc 4823 ed3d
000000b0: 8175 93bd 5ce5 a0be de70 413e 7077 313e
000000c0: bb8e febd 1eb4 d3bc 35d3 53be 3407 253d
000000d0: c509 35be 216d 74bc ce2f 9e3c 297e 9cbb
000000e0: 0de0 113e 87d8 02be 44f6 96be cc66 bebd
000000f0: 4564 9fbd d2b4 983d 803f d53c ef6d 3fbe
00000100: 9abf bcbc 2c4e 02be 7fe6 56be acb8 13bd
00000110: 6f7b 883e 79ff a73c c655 1a3e a989 1e3c
00000120: fae8 673d b3b7 b1be 431f c13d 6ab2 50be
00000130: be61 4bbe 1ed4 02bd d877 c23d ecea 28bd
00000140: 3a20 563e c385 46be 7c09 0fbb e838 abbe
00000150: 0693 db3d 80a1 c43d eee2 093e f2e0 3ebe
00000160: f01e 413e 1ee6 c9bd 071c 543d 2493 62bd
00000170: eea2 23be bb4f b4bd 826d 3cbd 68e7 0abe
00000180: 1cef 7bbe e5d1 1bbe 59dd 84be 535f acbd
00000190: a02f 19be b0c8 683a 6d4e 13be d107 8f3e
000001a0: f6b3 213d 9144 3fbc b45c 3f3e d6e8 80bd
000001b0: 7470 013a 648a 163d 33ef 163e 3b4d db3c
000001c0: a6b3 14bd ebee 29be d617 5fbe 2548 0e3e
000001d0: 24f3 1cbe 23f7 9c3d a9ae 34bc 873c 29be
000001e0: 47e2 9cbe 6f44 03be 2942 753c b438 5e3e
000001f0: 2660 55be 0c9b 04bf c525 63bc 01da 723c
00000200: 71e5 b5bd c285 1cbe d6ca efbd 0ed5 d2bd
00000210: 4811 22be 2430 dfbd ebeb 23be 5d14 56be
00000220: a333 77bc 2ae2 353d c905 943d f01e e2b9
00000230: 8e2b 763d 9155 9dbe f350 093b 1e62 dcbd
00000240: eabf a93e e96d 86bd 85c6 023d 75da 1abe
00000250: 5d38 933e fba4 9cbe ea87 f1be 9099 9b3d
00000260: 6071 71be 7f83 84be b8c0 013e 4cb6 923e
00000270: 908d fc3d 9e5c 573d 990b afbd fd12 af3d
00000280: d60a 823d 445e 1ebd 0589 13bd 6668 4b3c
00000290: 76ac 823d 9d3e 28be 66ad 9dbe b0ea dbbc
000002a0: 33a2 84bd 882a 953e 7e2e 83bd 0476 6c3b
000002b0: eafe c6bc 2c29 adbd 4642 603e 010d bdbe
000002c0: 11c8 3ebe 19d5 293e b241 e0bd 50ec 063d
000002d0: 35c3 c2bd 5e09 d2bd 3a3c 8c3d ca1d a0bd
000002e0: 0499 ef3a 888a 9d3c d034 103e 8d4f a1bd
000002f0: 1b11 58be fcb2 373b 8029 113e ba96 18be
-0.5012105 0.012214302 0.13837151 -0.13553198 0.043832768 -0.008213344 0.018794483 -0.084744655
-0.15630588 -0.19187604 0.12536779 0.03004069 -0.1077821 0.24041162 0.14906406 0.14587946
-0.28377345 -0.17799118 0.12091608 0.06548614 -0.1988057 -0.13840494 -0.022842769 0.16361871
0.10720885 -0.5298765 -0.07242763 0.059717298 0.048550416 -0.2045246 -0.016694538 0.06385706
0.16935766 -0.28120577 -0.11065914 0.096393794 0.15721841 -0.09645804 -0.19579816 0.33896422
0.23516189 -0.10590472 -0.014227042 0.11578995 -0.072001465 -0.31424987 0.18890712 0.17330718
-0.124295674 -0.025842723 -0.20686038 0.040290073 -0.17679508 -0.0149185965 0.019309904 -0.0047757817
0.14245625 -0.12777911 -0.2948476 -0.09296951 -0.07782797 0.07456364 0.026031256 -0.1869428
-0.023040581 -0.12725133 -0.20986365 -0.03606479 0.26656672 0.020507561 0.15071782 0.009676375
0.05661867 -0.34710464 0.09429791 -0.2038056 -0.19861504 -0.031940572 0.09495515 -0.041239664
0.20910731 -0.19386964 -0.0021825721 -0.33441854 0.10721402 0.09601116 0.13465473 -0.18640497
0.18859458 -0.098583445 0.05178454 -0.055316105 -0.15980121 -0.0880427 -0.046002872 -0.13564837
-0.24602932 -0.15216787 -0.25950125 -0.08416619 -0.14959574 0.00088800024 -0.14385386 0.2793565
0.039478265 -0.011674062 0.18687707 -0.0629441 0.00049377163 0.036753073 0.14739685 0.026770225
-0.03630414 -0.16595046 -0.21786436 0.13894708 -0.15327126 0.07664325 -0.01102797 -0.16526996
-0.30641386 -0.12819074 0.014969387 0.21701318 -0.20837459 -0.5179908 -0.013863985 0.014822484
-0.08881653 -0.152854 -0.1170861 -0.10294543 -0.15826905 -0.10897854 -0.16007964 -0.20906205
-0.015087995 0.04440514 0.07227666 -0.0004312913 0.06010013 -0.30729344 0.002095279 -0.10760902
0.3315423 -0.065639324 0.031927604 -0.15122397 0.2875394 -0.3059462 -0.47174007 0.07597649
-0.23578405 -0.25881574 0.12671173 0.28654706 0.123316884 0.05257856 -0.08547134 0.085485436
0.06349723 -0.038664117 -0.036019344 0.012415027 0.063805506 -0.16430135 -0.30796355 -0.026845306
-0.064762495 0.2913401 -0.06405352 0.0036081085 -0.024291474 -0.084551185 0.21900281 -0.36923984
-0.18631007 0.16585197 -0.109500304 0.03294021 -0.09509889 -0.10255693 0.06847425 -0.07818182
0.0018279855 0.019231096 0.14082646 -0.07876501 -0.21100275 0.0028030267 0.14175987 -0.14901248

stu.hidden.0.stu.M_phi_plus f4 [8, 16, 8]
00000000: 3a30 213c 0646 43be 663d 81bf 1433 09be
00000010: f0a2 cc3e 8f57 f23e 37a8 8e3d 7fae 853c
00000020: c682 3fbf 6b1f c8be 6dae babf 56f1 62be
00000030: 6061 ab3e 199d 4f3f d2f0 1d3f 2ab3 81be
00000040: 0f7a d6bd 8eb3 713d d5b8 0e3f f003 7fbd
00000050: 1d36 403f 00c7 453f ab83 c03f 3987 91be
00000060: 9655 d7bd dc49 19bf 87c8 cfbf 07ba d4be
00000070: 01a7 49be 7c18 b73d 6248 b8be c81e 18be
00000080: adb3 2dbf 8d61 11bf 2c7f 63be af72 bc3e
00000090: a947 c6bf e9bf bcbf 1ed9 c9bf 3175 a0be
000000a0: 713f d7be 9f86 b7bd a8d1 243f 84d6 28bd
000000b0: df8d 48bf b726 cebe 572f 503d f767 ac3e
000000c0: 057f 173f 9af6 ed3e d175 6e3f bfce a83d
000000d0: 6c26 6a3e ce14 1c3f adac 333f ba2b ff3e
000000e0: 4899 333f 9032 193e 753d 113e be18 863e
000000f0: 5fe6 7e3f c787 8e3f 2055 6a3f 4032 5abe
00000100: f5fc e03d 71f9 5cbd 858e 0dbf 427b e53e
00000110: a5ff 843f 3785 4d3f a911 b53e c2b9 17bf
00000120: 5a9d 17bf 4bb5 7abe 9ef8 d8be e245 e13e
00000130: c5b8 263f 04ff 3e3e aca6 43be 68e1 1cbe
00000140: 5cec debe 5b5c bfbe deff 01be 81a5 013e
00000150: 4b8c 903e 64f0 14bc 421b 1ebe 404e 4ebe
00000160: 4fc7 15be 750d f4bd 446d a8bd 9c91 2ebd
00000170: 0ed0 d7bd fff7 50be 4edc 423e a808 53be
00000180: 2fe9 38be cf03 513d f50b 57bd 930f 953d
00000190: fa3a bbbb 6e9e 3dbe 7376 f73c 5ed2 243d
000001a0: 1043 853d ff07 85bd 6579 edbd d9a2 193d
000001b0: b65f 2d3e 3f50 a63d aacc 3e3d a1d1 54be
000001c0: ffc8 edbd 0049 55bc 6c4a ee3c ff07 b63d
000001d0: 7ca7 d2bd 3bad edbd 5eac c03c a666 6a3e
000001e0: 7d9c 8bbe 8ecd 863b 1652 2a3d 5a60 61bd
000001f0: 6706 dbbd 0a39 4a3d 2701 393e e782 e33d
00000200: f73b 0f3f 1b60 09bd 33b8 29bf 5f47 09bf
00000210: 0e5a b5bd a276 d33e 7c6d 2e3e ba2c 0b3f
00000220: 52b2 6abe bd1f e4be 0e09 2cbf 8e7e 0cbf
00000230: 3d47 363f f03a 073f 5f22 eb3e eb39 b1be
00000240: 1acc e53e 289a 0a3f 7c9e 35be 077f e13e
00000250: 9d9f 2e3f 7d43 8c3e 2ace 253f e362 123f
00000260: c610 123f 42da dcbe bd1e a2be fc61 27bf
00000270: cad5 c9bd 68d3 0b3e 1aa9 b7bd b048 773d
00000280: c63e 2bbf 3c97 dabe 5caa b73e 6b32 aebd
00000290: d47b 33bf f8e3 cebe 0472 1bbf 7bd5 28bf
000002a0: f4a0 bebe e1be 6abe bd22 27be 42a7 70bb
000002b0: 2c4a 19bf 5462 0abf 7fe9 273e 2ef3 8abe
000002c0: 300a da3a ee67 f83e 002f a83c 331b 403e
000002d0: 7bc3 edbd 4f83 75bd f900 de3e 7dff 8f3e
000002e0: b8d1 9a3e 0fc0 6f3e 89ba 533e 93d9 393f
000002f0: e8b3 103f 97b2 2b3f b988 023e 268a d33e
00000300: 558a 2abe 6802 81bc 0e8a 123e 450e 4c3f
00000310: bfe7 303f 3d54 643f 0a28 bd3e e8cc 8a3b
00000320: 44ab 1ebf a243 1c3e 9204 27bf 780d 043f
00000330: 1880 be3e dd62 a13e a74f a13e c561 11bf
00000340: f77b 3b3d 0fd5 05be 9ee9 27bf 0329 cd3e
00000350: e6d5 da3e 9616 27bd 14a4 3dbe fb6f a0be
00000360: 8e52 233e 8a9e 0abf 3d48 f1bc bf1d e83e
00000370: 63d2 7d3e 4c86 a1bd 2751 d9be c061 bcbe
00000380: 8f6e 3b3d dad7 cdbe 6fa7 ef3e 820b df3e
00000390: 9bc9 073e 40bc b2bd 4b10 bfbe c915 97be
000003a0: 7aa8 b63d 82eb e73d 1123 ebbe 7b8d 9abe
000003b0: 3473 ca3d c5e6 b73e 6022 0e3e abd1 8a3d
000003c0: 38f4 3fbd 8109 6cbb 9a35 b63e 726d 9cbd
000003d0: 11ce 50bc 2bab a3be ee88 803d 867d 8b3e
000003e0: 1879 093e 019a abbe 3a33 063e d127 4fbd
000003f0: 9dd5 093d 18e7 e6bd 61a5 a0bc e2f0 293e
0.009838158 -0.1906968 -1.0096862 -0.13398391 0.3996806 0.47332427 0.06965678 0.016318558
-0.7480892 -0.3908647 -1.458448 -0.22162375 0.3347273 0.81099087 0.6169559 -0.25332004
-0.104724996 0.059009127 0.5575078 -0.062259614 0.7508257 0.77256775 1.5040182 -0.2842348
-0.10514371 -0.59878325 -1.6233071 -0.41548178 -0.19692613 0.08940217 -0.35992724 -0.14855492
-0.6785229 -0.56789476 -0.22216481 0.36806247 -1.5490619 -1.4746066 -1.5769384 -0.3133941
-0.4204059 -0.08961224 0.6438241 -0.041220203 -0.7834148 -0.40263912 0.050826397 0.3367307
0.5917819 0.46477205 0.93148524 0.08242559 0.2286622 0.60969245 0.7018536 0.49838048
0.70155764 0.14960694 0.141836 0.26190752 0.9957027 1.1135186 0.9153614 -0.21308231
0.10985748 -0.053948823 -0.5529559 0.448206 1.0390517 0.80281395 0.35365036 -0.5926782
-0.59224474 -0.2448322 -0.4237718 0.4399863 0.65125686 0.18651968 -0.19106549 -0.1532036
-0.43539703 -0.3737515 -0.12695262 0.12660791 0.28232035 -0.009090517 -0.15440086 -0.20147038
-0.14626811 -0.11916629 -0.08223966 -0.042619333 -0.1053773 -0.20407103 0.19029352 -0.20608771
-0.18057702 0.051029023 -0.052501637 0.07278361 -0.0057138177 -0.18517467 0.030207848 0.040239684
0.06506932 -0.06495666 -0.1159542 0.03750882 0.16931042 0.081207745 0.0465819 -0.20783092
-0.116106026 -0.013017893 0.029088221 0.08888244 -0.10285851 -0.11605307 0.023519691 0.2289072
-0.2726783 0.0041138595 0.04158219 -0.05502353 -0.106945805 0.049370803 0.18066846 0.11108952
0.55950874 -0.03353892 -0.6629669 -0.5362453 -0.08855067 0.41301447 0.17033952 0.5436512
-0.22919586 -0.44555464 -0.67201316 -0.5488061 0.7120245 0.52824306 0.4592466 -0.346145
0.4488228 0.54141474 -0.17736238 0.44042227 0.682123 0.2739524 0.64767706 0.5718214
0.57056844 -0.43135267 -0.31664076 -0.6538389 -0.0985523 0.13654864 -0.089678004 0.060372055
-0.6689266 -0.42693508 0.3587216 -0.0850571 -0.7011082 -0.404083 -0.6072085 -0.65950745
-0.37232172 -0.22924377 -0.16321845 -0.0036720787 -0.598788 -0.54056287 0.16397665 -0.27138656
0.0016635116 0.48516792 0.020530224 0.18760376 -0.116095506 -0.05993968 0.43360117 0.2812461
0.30238128 0.23413108 0.20676626 0.72597617 0.56524515 0.6706938 0.12747468 0.41316336
-0.16654332 -0.015748218 0.14310476 0.79709274 0.69103616 0.8919104 0.3694461 0.0042358525
-0.6198008 0.15260175 -0.6524135 0.5158305 0.37207103 0.3152074 0.31506082 -0.5678981
0.04577252 -0.13069557 -0.65590847 0.40070352 0.42741317 -0.040793024 -0.18519622 -0.31335434
0.15949461 -0.5414816 -0.029453391 0.45335194 0.24787287 -0.07886943 -0.42444727 -0.36793327
0.045759734 -0.40203744 0.4680743 0.43563467 0.132605 -0.08727312 -0.37317118 -0.29508808
0.08918853 0.113242164 -0.4592519 -0.30186066 0.098852545 0.3591825 0.138803 0.06778272
-0.046863765 -0.0036016407 0.3558777 -0.076380625 -0.012744443 -0.31966528 0.06276117 0.27244204
0.134251 -0.33515933 0.13105479 -0.05057508 0.033650983 -0.112745464 -0.019610109 0.16595796

stu.hidden.0.stu.M_phi_minus f4 [8, 16, 8]
00000000: d7af a13e 209b b0be 7485 413f 185d fe3e
00000010: e6c8 33bf 5c2d 9dbe 6cd3 b0bf c441 87be
00000020: 5221 6e3c 7e7d dc3d 083b 15be 14d5 70be
00000030: b92e e4be 799e a1be 948e adbe 00ac cbbe
00000040: 8af3 83bd aa2f 64be 4110 92be 8e7b f3bd
00000050: 2160 793e 0cd6 12bc 1082 bdbd 8491 5bbc
00000060: c808 ad3d 9b7e e9bd f626 5c3f 6986 653e
00000070: cb6d 05bf ef1d 82be 2d95 83bf 5ce2 18bf
00000080: 2711 463e 0092 213e 93f0 98bd a1b9 b0be
00000090: 19ba 6a3e d687 6e3e dfe4 dc3e 1658 b6bd
000000a0: 2eed 93be 0144 3c3e 98bd bb3d f009 27be
000000b0: aaee ecbd ef12 19be 6687 103c be8b c33e
000000c0: aaa8 063f 6c06 72be ee3e e33c d154 ea3d
000000d0: 2807 983e e2da d73e 84ff 7b3e 6755 97bc
000000e0: 563d 44be 1fdf 82be 377e 35be db70 183f
000000f0: bed1 333e fc7d 8d3c d234 c3bd 91e1 003d
00000100: e9d8 973c e02d 89bc b2f1 453e fa99 8cbe
00000110: 1321 bbbe 0c37 843d 757d a63e bdce 963d
00000120: d5c2 673e 4489 9a3d f07c 6fbd ee77 f83d
00000130: d5d0 533e b0a0 99bd 6f3d 4fbe 481e 293d
00000140: c3da 613b 604b 443d 0d51 e5bd 0cc1 96be
00000150: 0f42 843c d540 0b3e d3d4 2cbc 9445 023e
00000160: 6d6d 2fbd 1d7b 9f3d ce3d 683e e761 86bd
00000170: ad22 e2be 1c27 acbe 5075 acbe 5a9a 4a3e
00000180: 71ab b5bd 3f65 8e3e 1641 0e3e bb64 02be
00000190: 0036 70bd 35be 01be c3e1 f5bd 1cef 753d
000001a0: c8bd d93d 1286 88be b98d 1a3e 9734 783e
000001b0: 81a4 ae3d ab1d de3d 1473 bfbc 5c5c 32be
000001c0: 05e1 babd 2903 403c c452 723d b654 10be
000001d0: 0a61 bdbd b3ba 63bb c2ca 6f3e 1364 013e
000001e0: b06c ebbc 81a1 00be d495 f53d 87c0 a6bd
000001f0: 3db6 0ebd f45a 0abc fc58 f13d da86 3d3e
00000200: 9165 ad3e 0d06 31be 82be b03e 01f1 cf3e
00000210: 76d2 85be e313 973d 3e7f 71bf 98d5 bebe
00000220: d09a fcbd d842 f23d 067d 023c 7032 223e
00000230: 837f 2abe 7b02 51be d1fe 4d3d 92d1 f9bd
00000240: 895d 3f3e 9ac0 c63e 93a4 063e 3106 46bd
00000250: f41b b43e 7b10 0c3e ac88 4c3e 6d3c c1be
00000260: ea1c 55bd 0721 f4be ac77 ec3e 722d 933e
00000270: bcc2 67be 1b89 acbd b773 47bf f4e0 d0be
00000280: 9265 d73c bb23 54be 16c0 41bd 1da2 973c
00000290: 7443 7ebe ad46 a93e a6b0 e83e fac3 dc3e
000002a0: d3f0 7c3e b1a1 be3e 1ea6 943e 8818 38bd
000002b0: 2022 33be eaba 99be 2a5a 443e 1b44 23be
000002c0: d199 30be baac 8d3d f61e bd3c 340e 4fbe
000002d0: a941 f63d 028c 993e 88d9 febd 5d74 863d
000002e0: eca9 abbd 7084 07bc e82a 04be 8565 903d
000002f0: fa69 db3e 290c 3cbe 28b9 70be 04a2 803d
00000300: af6f 59be 3efa 9cbb 827b 8d3d c9ce 2c3e
00000310: 51c6 29be 28de 02bd 7578 073e 0f25 643e
00000320: ac9d be3d 735e 8b3e 11e9 bb3d 1153 14be
00000330: 67e2 cf3e b39d e23d eabc a43c a9e0 b73d
00000340: 0904 d33d 6fd1 293e 9869 77be f244 d3bb
00000350: 079c 843e 0e43 733e 3c66 0c3e 534e 163e
00000360: d18a 133e 7b95 623e f080 e4bc 124e bcbc
00000370: 9b22 cfbe a699 92be c14b 90be c2a0 a6bc
00000380: f65e 9cbe 0460 8b3e fc50 033e 4767 a53c
00000390: 2859 14be 1bb5 c3bd 3e67 2dbe 84ce 89bc
000003a0: 08aa ebbc c2a3 9cbe 7173 c43c ec17 a13c
000003b0: 1d75 2bbe ec08 583e 76fb b93d de62 83bc
000003c0: a3f9 1c3d 8016 47bc 4268 cf3d 0faf 4b3d
000003d0: ee01 813d bd60 ad3d 4c98 303e 8ec0 263d
000003e0: 70c9 b2bd 40e7 3aba 6d0e 993d ab84 85bd
000003f0: 4a7f fabc af73 a63d ddeb ef3d 81a7 2a3d
0.31579468 -0.3449335 0.7559426 0.496804 -0.7022842 -0.3069867 -1.3814521 -0.26417363
0.014534311 0.10766123 -0.145733 -0.23518783 -0.44566897 -0.31566218 -0.3389784 -0.39779663
-0.06442936 -0.22283807 -0.28528026 -0.118888006 0.24353077 -0.008962166 -0.09253323 -0.013401393
0.084489405 -0.11401101 0.8599695 0.22414555 -0.52120656 -0.25413463 -1.02799 -0.59720397
0.1934248 0.15778351 -0.07467761 -0.34516624 0.22922553 0.23294005 0.43143365 -0.0890352
-0.2889189 0.18385316 0.091670215 -0.16312385 -0.11568959 -0.14948629 0.008821344 0.38192552
0.5260111 -0.23635262 0.027739968 0.11441959 0.2969296 0.42159182 0.2460919 -0.01847334
-0.19164023 -0.25560853 -0.17723928 0.59547204 0.17560479 0.017271988 -0.09531559 0.031465117
0.018536048 -0.016745508 0.1933048 -0.27461225 -0.3654867 0.06455812 0.3251759 0.07363651
0.22632916 0.075457126 -0.05846876 0.1213225 0.20685132 -0.07501352 -0.20238279 0.041288644
0.0034462668 0.047923446 -0.111971 -0.29444158 0.01614478 0.1359895 -0.010548788 0.12721854
-0.042828966 0.07787154 0.22679827 -0.06561642 -0.4416708 -0.33623588 -0.33683252 0.19785443
-0.088705905 0.2781162 0.13892016 -0.12733738 -0.05864525 -0.12670214 -0.12005951 0.060042486
0.10631901 -0.26664788 0.15093125 0.24238811 0.085274704 0.108455025 -0.023370303 -0.17418045
-0.0912495 0.011719503 0.059160963 -0.14094815 -0.09247024 -0.0034748733 0.2341719 0.12635832
-0.02873835 -0.12561609 0.11991468 -0.081421904 -0.034841765 -0.0084445365 0.117845505 0.18508473
0.33866552 -0.17287464 0.34520346 0.4061356 -0.2613713 0.0737684 -0.9433478 -0.37272334
-0.12334216 0.11829156 0.007964378 0.15839553 -0.16650204 -0.20411102 0.05029184 -0.121981755
0.18688025 0.38818818 0.13148718 -0.04834575 0.35177577 0.13678162 0.19974011 -0.37741414
-0.052029528 -0.47681448 0.46185052 0.2874561 -0.22632879 -0.08424588 -0.7791094 -0.40796626
0.02629355 -0.20716755 -0.047302328 0.018509919 -0.24830419 0.33061734 0.45447272 0.43118268
0.24701242 0.37232736 0.29032987 -0.04494527 -0.17493486 -0.30025417 0.1917502 -0.15943949
-0.17246176 0.069177106 0.023086052 -0.20220262 0.120242424 0.2998963 -0.124438345 0.06565163
-0.083820194 -0.008271322 -0.12906992 0.07050613 0.4285429 -0.18364014 -0.23508132 0.06280902
-0.2123401 -0.0047905734 0.06908323 0.16875757 -0.16579558 -0.031950146 0.13229544 0.22279762
0.09307417 0.27220497 0.09175313 -0.14484812 0.4060242 0.11065235 0.020109612 0.089783974
0.10303504 0.16583799 -0.24161375 -0.006447428 0.2590029 0.23756048 0.13710874 0.14678316
0.14408423 0.22127335 -0.027893513 -0.022986446 -0.4045609 -0.2863285 -0.28182796 -0.020340327
-0.305412 0.27221692 0.12823862 0.020190848 -0.14487135 -0.095560275 -0.16933915 -0.016822107
-0.0287676 -0.30593687 0.023980828 0.019664727 -0.16743894 0.21097153 0.090811655 -0.016038354
0.03832401 -0.0121513605 0.101273075 0.049727496 0.06299196 0.08465717 0.17245597 0.04071098
-0.087298274 -0.0007129796 0.074734546 -0.06519445 -0.030578274 0.08127534 0.11714909 0.04166365

stu.hidden.0.rn_2.weight f4 [8]
00000000: fb4e 653f 2d3c 493f 3d5b 383f dbfc 553f
00000010: 4ce6 4d3f 9912 3c3f f02d 4a3f 0cb6 553f
0.8957364 0.78607446 0.7201422 0.8358895 0.8042953 0.7346588 0.78976345 0.83480906

stu.hidden.0.mlp.swiglu.w.weight f4 [32, 8]
00000000: 66e6 533f b8b4 da3e 0645 0e3e 777e 10bf
00000010: 08a7 49be 5213 043e 8f30 e63e eb3b 0d3f
00000020: 2550 2b3f b3f6 ac3e 5494 be3e f5f3 c43e
00000030: c6d9 08bf 8343 523e 394c 59be 2574 893e
00000040: 00f5 71be fd5a b9be 561f f3be 7b01 3bbe
00000050: b431 003f b513 ec3d 460b ee3b 1a46 b93d
00000060: 6221 903e 5bee 363e 03b4 b63d 49d8 10be
00000070: 6f9b a1be 6a91 3e3d 127e 03be 5018 303e
00000080: 0709 58bd a98c 8cbe 8f8b a3be e40a 383c
00000090: eb87 163f 4f98 db3e a69e cb3d 334a 7bbe
000000a0: b476 ad3d c063 debd 1a58 62bb 68b2 2d3e
000000b0: a837 53be db20 c4bd 077c 01bf 4cad f2be
000000c0: 78c2 293d cb68 a83e 9ad3 8b3d f67d 3b3e
000000d0: 6515 09be 56da 2a3d a06b 7d3e f19b 30bd
000000e0: e16e 83bd 0df7 73bd 0acf ae3e a486 203e
000000f0: 1f46 073f dc55 893e 3656 b93e 56d1 c33c
00000100: 9d44 a0be 94bf 7e3e 260d 9d3e 7d3a 51be
00000110: 59ca c63c 23ee 363e cc61 393f 2053 203f
00000120: 7864 c4be 1140 ec3e c479 33bf e81d 0dbe
00000130: 9b34 823e e970 363e 3efa 793d ec6b 8dbe
00000140: 71f4 afbe 1ffa cdbe 152e adbe a39d 80be
00000150: 9002 5a3d 5082 9cbe 29af d9be 5354 7ebe
00000160: 81ca 19bd d646 ce3e 3496 c5bd 9516 0d3d
00000170: 629e b13d 8e98 123e cfb9 67be c768 e9be
00000180: 960b 0d3e 5955 69be e5e5 ffbe a7c0 fdbd
00000190: b724 0c3e 898a a53d c037 cdbd 68b6 a03e
000001a0: cf8b 0f3e 88c9 9dbe 59cb 993e 6947 9fbe
000001b0: 6dfd c53e ee7e d5be 3bdc c8bc 7fef 7e3e
000001c0: 5f3a 4cbe 4779 123e fb28 863e e213 753e
000001d0: 5e0f e23e 0bda 62bd 5798 723e 3b43 6f3d
000001e0: 449f 8f3e f948 92be 287f 3abc a996 803d
000001f0: 2488 883d 8e7c f53c 0caf 8a3e 432d 2abe
00000200: 16d9 a3bd b47c d9bd 49c3 263d fa31 51bc
00000210: fa36 a03d 12f8 f8bd 6220 303e 2ee1 7abe
00000220: cfef c23e 950a 2f3e 8141 313d 253e 06bc
00000230: c1a5 86be 977c e13d 26af cbbe c65e 403e
00000240: 532a 703e b37b 18be 0341 593d d54e e1bd
00000250: 39e0 f13d 01ca 90bd a640 2abe dadd ef3c
00000260: 9626 3a3e cd2b 66be 538a 1f3e 9676 2fbf
00000270: 0019 6cbe 3713 1fbe 283c 8d3e 3f42 24be
00000280: 9f73 093e 2edf 7ebe 90c7 9dbe 45c0 7dbd
00000290: 7ad5 4c3d 8249 ed3d 9ce4 7c3e 6f52 6abd
000002a0: c3f3 a2be 3780 0a3e 3861 ac3e 8cec 0b3f
000002b0: cbbe c1be 72b0 123e ff9e df3e 183f 75be
000002c0: 9999 6f3e 0ec8 15bf ae8f ebbd e2ca 30be
000002d0: 5efd 30bd 976d 5c3d e4c7 c339 3a0c f8be
000002e0: 45d4 093d d8d5 8b3c a08b 6aba 3db8 ea3e
000002f0: 8ea6 c9bd 3e03 9f3e 35b5 6a3e 22c5 f2bd
00000300: 4597 1e3e fda6 c7be aed0 bfbd f42d 1c3e
00000310: abec 143e b103 2a3d 4465 04bf ae3a f7bc
00000320: 5860 0e3e 01bb 72be d94b 073e c66b 3a3e
00000330: ebbc 1dbe d9d0 ca3e c1d4 17bc e702 48be
00000340: 2afc 843e 51b3 ca3e 6c39 b0bd 66d1 bc3e
00000350: 58a1 1ebe 9435 f4bd ee54 803e 12ba 0bbe
00000360: 0864 193f 1b3b 3abe 35f4 2a3e 7c31 c5be
00000370: fe48 87be 18e0 373d 783d e13b 8e08 1b3f
00000380: 6846 123f 3d49 bdbe 5722 593e 2f59 dbbe
00000390: 317e 78bd a0a8 d13e 20b1 71be 0de3 0a3e
000003a0: 313a 883e 1cdb 7d3d 4e57 e93d d5bb 50bf
000003b0: 39bc e7be 311a f5bd 286e 3d3e f3bd 133d
000003c0: 0f11 e03d 4bcf 2a3e 7b39 fabd d217 0abe
000003d0: 603b e63d e56f 01be a1e5 cebd b5a5 403e
000003e0: 99e9 943e 081c 283f 386b adbc f5b8 433e
000003f0: 5ee0 a2bd 04e4 cbbd 7a9d 953b 98c3 f33e
0.82773435 0.42716002 0.13893518 -0.5644297 -0.19692624 0.12897995 0.44958922 0.5516955
0.66919166 0.33781967 0.3722254 0.38467374 -0.53457296 0.20533566 -0.21220483 0.26846424
-0.23628616 -0.3620223 -0.47484845 -0.18262284 0.5007584 0.11527196 0.0072645275 0.09046574
0.2815047 0.17864363 0.08921053 -0.14145006 -0.315639 0.046525396 -0.12841061 0.17196774
-0.052742984 -0.27451065 -0.31942412 0.011233065 0.58801144 0.4288964 0.09942369 -0.24540024
0.084699064 -0.108588696 -0.0034537376 0.16962588 -0.206267 -0.09576579 -0.50579876 -0.4739784
0.041445225 0.3289245 0.06827469 0.18309769 -0.13387068 0.041712128 0.24748087 -0.043117467
-0.06417633 -0.059561778 0.34142333 0.15676361 0.5284137 0.26823318 0.36198586 0.02390353
-0.31302348 0.24877769 0.30674094 -0.20432468 0.024266409 0.1786428 0.7241485 0.6262684
-0.38357902 0.4614263 -0.70107675 -0.1378094 0.2543076 0.1781651 0.061029665 -0.276214
-0.34366181 -0.4022989 -0.3382422 -0.25120267 0.0532251 -0.3056817 -0.4251645 -0.24836855
-0.03754664 0.4028842 -0.096477896 0.034445364 0.08672787 0.14316007 -0.22629474 -0.4558775
0.13773951 -0.22786464 -0.49980083 -0.12390261 0.1368588 0.08083064 -0.10020399 0.31389165
0.14018176 -0.3081782 0.30037954 -0.3110917 0.3866991 -0.41698402 -0.024519077 0.24896048
-0.19944142 0.14304076 0.2620314 0.23933366 0.4415235 -0.055383723 0.23690926 0.058413725
0.28051198 -0.285713 -0.0113828555 0.06278736 0.06666592 0.029966619 0.27086675 -0.16618828
-0.0800039 -0.10619488 0.040713582 -0.012768263 0.07822986 -0.12156691 0.17199853 -0.24499962
0.38073584 0.1709388 0.04327536 -0.008193527 -0.26298335 0.11010092 -0.39782065 0.18786153
0.23453645 -0.14890938 0.053040516 -0.11001364 0.11810345 -0.07069779 -0.16626224 0.029280592
0.18178782 -0.22477646 0.1558011 -0.6854032 -0.23056412 -0.15534674 0.27584958 -0.16040896
0.13423012 -0.24889824 -0.30816317 -0.06195094 0.050008275 0.11586286 0.24696583 -0.05720752
-0.318266 0.13525473 0.33667922 0.54657817 -0.37840876 0.14325121 0.43675992 -0.2394985
0.23398437 -0.58508384 -0.11502014 -0.17264894 -0.04321038 0.05381545 0.00037342228 -0.48446828
0.0336497 0.017069742 -0.00089471973 0.45843688 -0.09846221 0.3105716 0.22920687 -0.11854006
0.15487392 -0.3899459 -0.09365974 0.15251905 0.14543407 0.041507427 -0.5171702 -0.030179348
0.1390394 -0.23704149 0.13212527 0.18205175 -0.15404098 0.39612463 -0.009267033 -0.19532357
0.25973636 0.39589933 -0.08604702 0.36878508 -0.15491235 -0.11924282 0.25064796 -0.13645199
0.5991826 -0.1818661 0.1669472 -0.38514316 -0.26422876 0.044891447 0.0068737827 0.6055993
0.5713868 -0.3696994 0.21204506 -0.4284148 -0.06066722 0.40948963 -0.23602724 0.13563175
0.26606897 0.061976537 0.11393605 -0.8153661 -0.4526079 -0.11967886 0.18499053 0.03606982
0.10940754 0.16680638 -0.12217995 -0.13485649 0.11241794 -0.1264034 -0.10102392 0.18813212
0.2908447 0.6566777 -0.02116929 0.19113524 -0.07952951 -0.099556 0.004565892 0.47610164

stu.hidden.0.mlp.swiglu.v.weight f4 [32, 8]
00000000: 51ef 603f 9c98 873e f3f2 9b3e 2d0f 10bf
00000010: 929a d2be 095e d63d 9055 993e d2d2 e13e
00000020: 974f 723e 3359 923e 8fff c7be b34b 3dbe
00000030: 6b11 03bf 94bf f93d 632f e3bd 7772 8e3e
00000040: c5e6 8e3e 53ed bdbd a69d 98be a648 a43e
00000050: 0c2b 133f 90c9 2c3e ee82 433e 4c9e 263e
00000060: 9e5b e13d 06c1 df3d ccee 90be 62b8 a2bc
00000070: 18de 443e 2b84 07be af81 48be 9fbf 973e
00000080: 9f14 81be 66be 4bbd 9371 fa3d 7d51 e3be
00000090: c1fb 0fbf 59c3 abbe a26a 96be 36c6 6e3d
000000a0: 80c2 2a3e 923f 943d d9bf 8a3d edc0 f43e
000000b0: 70a2 383e f50d 223d a85e 5cbe e661 ddbe
000000c0: cefe 713e 8d71 c13e bb65 00be 3020 9abd
000000d0: d440 25be d065 c5bd 1159 3d3d a64b 323d
000000e0: 0f41 97be 80a0 95bd 99e6 02be fdbb 92be
000000f0: 014a 8dbe 22c4 9ebe 7749 9a3e 50e1 80be
00000100: 35cf 573e ed96 04bd 2bbf ce3d d677 abbe
00000110: 4c09 17bf 039b e6be 7bd4 39be dc29 5fbe
00000120: 0ff2 89be 01c3 c13d edd7 663d a523 b23e
00000130: e2c7 2e3f d873 283f 7572 b63e 6360 323e
00000140: b491 80be 1c2c 073e f82e b13c 2f81 a5be
00000150: 24e4 13bf dc0f 7dbe 6f49 683e d19e 003f
00000160: 4e86 07bd 8ca1 14be f2a8 6b3c d116 07be
00000170: c3b5 cc3d d191 843e e404 353e adfa d73d
00000180: 2d05 ee3d f008 763d 2eeb 593e 2670 e63d
00000190: 1d40 c5be 470d 4fbd 67e5 f6bd 65de 53be
000001a0: 479e 903d 1831 1b3e 9a8c aebe ac75 dfbe
000001b0: d4cc 1dbe 98ef bf3d 02e0 82be aa18 d93d
000001c0: e12b 8a3d 1d52 57be c3b7 bf3d adf2 0d3e
000001d0: 0cae 803e 4a49 bb3d 6d58 353c 2eaf dabe
000001e0: bb45 9b3b 41cb 3bbe 93ac 81be d423 7f3d
000001f0: e5b4 1dbe c5d2 4f3c fb9d 7d3e ef4d 84bd
00000200: 9930 d0bd 7cf6 52be 3708 2c3e 5562 3fbe
00000210: cf3f 223e 3b9c e4bd 2d8c 24be 9862 18be
00000220: 6582 0ebe ebf1 b8be c1b1 793d 58a5 34be
00000230: c6b5 723e 0aa2 c93c 64fb a43e 090e 91bd
00000240: 760e c3bd 73f1 463e f9ad 073d 988a cebd
00000250: 8937 e9bd afb9 313e e0a3 003e bab3 b43a
00000260: 3acd 77be 7218 0ebe 2e1d e13e 20a6 ab3e
00000270: ceb3 14be d90e b0bd 955f 1fbe 11fd 9dbc
00000280: 9251 743d fed3 4abe ec78 373e ae8a 633e
00000290: 2947 febd ec36 9ebb 6c00 a8bd abe8 adbe
000002a0: 2384 aebd bf77 8e3c c3bf 853d 67ab 103f
000002b0: 5a64 e23c 7526 623e 5d92 863e c57a 30bd
000002c0: 956a 243e c9ef 33be 3b6d 66be 7830 223e
000002d0: 1bcb f6bd 0f05 cf3c 131f a83d 4be8 0fbf
000002e0: 3290 21bd 02da ca3c 9191 263e 2d12 b7be
000002f0: 96cc 793e 61d9 b4bd 1364 de3d dc60 23bd
00000300: 2308 13be 6a4f cc3e 57fe f43d dee4 0dbe
00000310: 8ca8 3abe 08f9 29ba 8568 993e 3443 78b8
00000320: c912 7c3e c5ab 03be 8efa f2be 2a84 c73d
00000330: 8a2b a7bd 2977 19bd c23c ddba 463c 69be
00000340: 8ba4 cdbe b694 ffbe 4cdd d93d d845 dc3d
00000350: d1f4 0f3e e22e 363e 44d1 b6be bbf2 443d
00000360: 933b bdbd 4bc5 513f eca8 25be f876 d23d
00000370: 8f73 63be 9695 9a3e da65 8e3e 60af 463d
00000380: cf85 6d3e f009 0a3f 6962 08be a2d3 3abe
00000390: 3b18 08be 72e7 ccbb 65b6 2d3e 2145 633e
000003a0: d91c 3a3e 7e9f 423e 4538 c5bd 22fb 0ebf
000003b0: 89cd 063e b24d 913e 0aaf 1f3f 0d13 213f
000003c0: 8204 a1bc cac8 58be ebbd 9a3c cc91 2cbe
000003d0: 1e6c 6c3c 4a24 3dbd a9f7 213e ce62 01bd
000003e0: 94cc 85bd ea00 0abf 9a65 9b3e 49e6 c93d
000003f0: 4841 72bb 3a29 b73e 9eee 3c3e 2b39 8bbe
0.8786517 0.2648362 0.30458793 -0.56273156 -0.41133553 0.104671545 0.29948092 0.44106156
0.23663174 0.2858368 -0.39062163 -0.18485908 -0.5119845 0.12194744 -0.11093023 0.27821705
0.27910438 -0.092737816 -0.29807776 0.32086676 0.5748756 0.16873765 0.19092914 0.16271323
0.11003803 0.10925488 -0.28307188 -0.019863311 0.19225347 -0.13234012 -0.1958072 0.29638383
-0.25211045 -0.049742125 0.12228694 -0.44398108 -0.5624352 -0.33547476 -0.2937823 0.058294497
0.16675758 0.072386876 0.06774873 0.4780344 0.18030715 0.03956409 -0.21520483 -0.43238753
0.23632357 0.37781945 -0.12538807 -0.075256705 -0.16138011 -0.0963856 0.04622752 0.043529175
-0.29541823 -0.073060036 -0.12783279 -0.2865905 -0.27595523 -0.31009012 0.30134174 -0.251719
0.21075137 -0.032370497 0.10095056 -0.33489865 -0.5899856 -0.4504014 -0.18147461 -0.21793312
-0.2694249 0.09461022 0.056358267 0.3479282 0.68273747 0.65801764 0.356342 0.17419581
-0.25111163 0.1320042 0.021628842 -0.32325122 -0.5776999 -0.24713081 0.22684263 0.50242335
-0.033087067 -0.1451475 0.014383541 -0.13192298 0.09995606 0.258925 0.17677647 0.105458595
0.11622081 0.060067117 0.2128112 0.11251859 -0.38525477 -0.05054977 -0.12055474 -0.20690306
0.07061439 0.15155447 -0.34091645 -0.43644464 -0.15410167 0.09371871 -0.2556153 0.106004074
0.067466505 -0.21027417 0.09361222 0.13862105 0.25132787 0.09144838 0.011068446 -0.42711776
0.004738537 -0.18339254 -0.25326976 0.062290028 -0.15401037 0.012684529 0.24767296 -0.06460177
-0.10165519 -0.20601839 0.16800009 -0.18689854 0.15844654 -0.11162611 -0.16069098 -0.1488136
-0.13916929 -0.3612207 0.060960535 -0.17641199 0.23702154 0.024613399 0.32223046 -0.07082755
-0.095242426 0.19428043 0.033124898 -0.100850284 -0.113875456 0.17355989 0.12562513 0.0013786473
-0.24199381 -0.13876513 0.43967575 0.3352518 -0.14521715 -0.08596582 -0.15563805 -0.01928571
0.059648104 -0.19807431 0.17917222 0.22220871 -0.124159165 -0.0048283245 -0.082032055 -0.33966574
-0.08521297 0.017391084 0.06530716 0.5651154 0.027635742 0.22084983 0.2628354 -0.043085832
0.16056283 -0.1757194 -0.22502606 0.15838802 -0.12050458 0.025270967 0.08209052 -0.56213826
-0.039444156 0.024762157 0.16266467 -0.35756055 0.2439445 -0.08830524 0.108589314 -0.039887294
-0.14358573 0.39904338 0.11962574 -0.13856837 -0.18228358 -0.0006483947 0.29962555 -5.9190395e-05
0.24616541 -0.12858494 -0.47456783 0.09742005 -0.08162601 -0.037467156 -0.0016879069 -0.22776899
-0.401646 -0.49918145 0.10637912 0.10755509 0.14058234 0.17791322 -0.35706532 0.04808305
-0.092398785 0.8194167 -0.1617772 0.10276598 -0.22212051 0.3019225 0.27812082 0.048507094
0.23195575 0.53921413 -0.1331879 -0.18244794 -0.13290493 -0.0062531764 0.16964109 0.2219434
0.18175067 0.19006154 -0.09629873 -0.5585195 0.13164343 0.2837959 0.62376463 0.62919694
-0.01965547 -0.21170345 0.018889388 -0.16852492 0.014430074 -0.046177186 0.15817131 -0.031588368
-0.06533161 -0.53907645 0.30350953 0.098583765 -0.003696518 0.3577364 0.184504 -0.27192053

stu.hidden.0.mlp.swiglu.w2.weight f4 [8, 32]
00000000: c32f 923f 06d2 793e f9cd 7bbe aff9 763e
00000010: d2fd 49be 374d 38bd 3a65 4bbe 86be f33c
00000020: 69df f1be 7850 853d 1f58 413e 4c30 17be
00000030: 7853 8d3d f79a ab3e 0c6f f7bb 6460 113e
00000040: c3ce 0d3e 233f 99bd e240 703c d2d8 b8be
00000050: ca67 46be ffd8 0a3f 8baa 47be 5330 f3bd
00000060: 36ca 8d3e ad31 60be 0442 483e 2331 353e
00000070: fba6 d33e 6421 2f3f 4c15 343d b045 7a3e
00000080: 080b 12bd 56b4 073f 6adf 683e 94c6 8e3e
00000090: 86ef 96be d0eb 253e a628 683e e4f5 94bd
000000a0: 00c4 fb3e 762f 89be 7891 dcbe 17d7 483d
000000b0: b236 f13d b0e2 1ebe c956 973d 3a8f 9e3e
000000c0: 14fc 4a3e 5d41 d9be 945e 41be c66a a63e
000000d0: 3f1d 8a3e 6418 22be bbf5 233f 09d0 ca3d
000000e0: 6c7d d8be 9997 8b3e 3cc3 d1be d627 25bd
000000f0: b6d7 d1be a19b 903e d390 4abe c9d9 2ebf
00000100: 6ade d43d 7c30 133f 1729 2b3f 3c93 adbe
00000110: 9219 00bf b83a 0e3d 953f a33d 23f2 673e
00000120: 0f2c 0dbd fb2c 673f e210 15be 4443 193e
00000130: 839a 96be c985 d1bd 2be8 40bd 6132 7ebd
00000140: 9325 ca3a c67a 78be d33a 463d 12dd 8e3e
00000150: a1bf 40be 66bc cbbd 6c62 d03d c69a 75bd
00000160: 4f00 903d c342 103d ba12 1ebb b0aa 7b3e
00000170: 3b16 2f3c 6f2c bdbe 5d16 b73d d42d 0d3e
00000180: 3201 1a3e 8ca1 f43c 323d 803e 20e5 32bd
00000190: 982b 10be 8b25 34be 47ca 0f3e d39b 56be
000001a0: 78e7 9dbe 85c6 e53d d41f d93c b3f3 37be
000001b0: 83ba 91be d09f 96be a8bb 01be 3b8e 7abd
000001c0: c5d3 c7bd bfa5 26be 71d8 35be 2ba9 aa3e
000001d0: eb0e 2abe 7aac cbbd f60e aa3c 578f 2a3e
000001e0: fe00 90bc 1eef 74be 23c2 f6be feaf b4be
000001f0: 41c5 7cbe 8376 1bbe 201f 04be cf8d 653d
00000200: de50 05be 2b78 663e 61f5 863d 9bea 0b3e
00000210: 8e12 e33e db3e 3fbe 39bb 31be cf22 e23e
00000220: 2838 0c3d e2b4 c03c d63a 10bd 4c84 e23d
00000230: 66ed a53e dad4 be3e 16ce 8ebe e7a5 c43e
00000240: 9129 7ebd c158 d7bd 44ea 083e 02ad ffbd
00000250: f937 5b3e d295 ee3e b504 ae3d 318a 50be
00000260: cf1e 163e e860 2d3e 8e27 b83d fad4 36be
00000270: a2cc d73d 1248 563d 3157 a23d 995c 8b3d
00000280: 8f45 3d3e 489b ddbe 8e49 e0be db9d cd3d
00000290: 072e ee3e c9b1 da3d 4f2e 08be 249c 923e
000002a0: f833 b53e be15 74bd 0aa9 6f3b 2d4b 27bd
000002b0: 028c 45be 0f10 1cbe fef8 1bbe c9a8 87bb
000002c0: 0daa b8bd 8e70 213e add4 903d 1f6d 413d
000002d0: 3d74 bebc c275 06be aa3b de3d 28d0 ee3c
000002e0: 6cb6 243e ba05 9fbc a729 973e e7b3 59bc
000002f0: bc12 2c3e f62e 433e 013f 4bbd 8493 1c3e
00000300: 69c9 76bd 4e73 65be b95b a9be 3990 6bbe
00000310: ab60 bb3e 44be 043f 63b6 b03e 0a8b 30be
00000320: c7d6 fe3e d81c 2cbe 42d4 38bf 7a27 42be
00000330: 66e9 4ebe 0209 e13d 41f3 dbbd 5360 b5be
00000340: 39f4 5b3e f544 5f3e 9944 e9bd 152c 6bbe
00000350: 0e39 04be c2ab dabd dae4 00bd 8258 27be
00000360: 3ec4 cfbe 0d63 8d3b ccd6 afbe 0f95 dc3d
00000370: 5808 9bbe d042 8f3e 02c3 353e 1306 93bd
00000380: 6c05 023f 3df4 f73e c361 00be 63a9 0ebc
00000390: c9a9 98bd 35d8 de3e 37d0 983c 3555 883e
000003a0: c1da b23e ad37 a73e 093a 4bbe 7f8a 0dbe
000003b0: 20bc 4b3e 7361 463e abff 8f3e 3aec 583d
000003c0: e457 fb3c 7c77 1bbd be17 4e3d 3137 29bc
000003d0: 7210 d23d 76ba 0d3e 1467 e63e 1c94 dfbd
000003e0: 6a10 c2bd 0831 1e3e bd28 dfbc f52c af3e
000003f0: 0ca8 863d 0eb0 bc3e 0a75 c6bc 8f38 023d
1.1420826 0.24396524 -0.24590291 0.24118684 -0.19725731 -0.044995513 -0.19862834 0.029753935
-0.4724076 0.06509489 0.18881272 -0.14764518 0.06900686 0.33516666 -0.0075510796 0.14196926
0.13848405 -0.074827455 0.014663907 -0.3610292 -0.1937553 0.5423736 -0.1949865 -0.118744515
0.27693337 -0.2189395 0.19556433 0.17694525 0.41338333 0.68410325 0.043965623 0.24440646
-0.03565505 0.53009546 0.22741476 0.27885878 -0.29479617 0.16203237 0.22671756 -0.072734624
0.49172974 -0.26794022 -0.43079734 0.04903325 0.117780104 -0.15516162 0.073896 0.30968648
0.19822723 -0.4243268 -0.18883735 0.32503337 0.26975438 -0.15829617 0.6404683 0.09902961
-0.4228319 0.27264097 -0.40969265 -0.040321194 -0.40984887 0.28243735 -0.19781809 -0.68301064
0.103939846 0.57495856 0.66859573 -0.33901393 -0.5003902 0.034723967 0.07971112 0.22650962
-0.034465846 0.9030301 -0.14557222 0.14967066 -0.29414758 -0.102305956 -0.047096413 -0.062059764
0.0015422575 -0.24265584 0.048395943 0.27903038 -0.188231 -0.099480435 0.101750225 -0.059962057
0.07031309 0.03521992 -0.0024120049 0.24576831 0.0106864525 -0.36947963 0.08939812 0.13787013
0.15039518 0.029862188 0.25046688 -0.043675542 -0.1407913 -0.17592447 0.14042006 -0.2095788
-0.3084066 0.11219505 0.026504435 -0.17964058 -0.2846261 -0.29418802 -0.12669241 -0.061170798
-0.09757189 -0.16274165 -0.17758347 0.3333219 -0.16607253 -0.09945007 0.020759087 0.16656242
-0.017578598 -0.23919341 -0.4819499 -0.3529052 -0.24684621 -0.15181927 -0.12902498 0.056043442
-0.1301913 0.22506778 0.06589771 0.13663714 0.44350094 -0.18676321 -0.17356576 0.44167182
0.034233242 0.023523752 -0.03521236 0.1106039 0.32407683 0.37271768 -0.27891606 0.38407823
-0.06205136 -0.10514975 0.13370615 -0.124841705 0.2140807 0.4659868 0.084969915 -0.20365216
0.1466019 0.16931498 0.089919195 -0.17854682 0.105370775 0.052314825 0.07926787 0.06804771
0.18483566 -0.43282533 -0.43806118 0.10039874 0.4651949 0.10678441 -0.13298915 0.2863475
0.35391212 -0.059591047 0.003656926 -0.040843178 -0.1929169 -0.15240501 -0.15231702 -0.004139994
-0.090168096 0.15765592 0.07071815 0.047223207 -0.023248786 -0.13130859 0.10851224 0.029151991
0.16085213 -0.01941191 0.29523966 -0.013287521 0.16804022 0.19060883 -0.049620632 0.15290648
-0.060250673 -0.22407266 -0.3307779 -0.23004235 0.3659719 0.5185282 0.3451415 -0.17240539
0.49773237 -0.16807878 -0.7219888 -0.18960372 -0.20206222 0.10988046 -0.107397564 -0.35425052
0.21479882 0.21803649 -0.11390037 -0.22966035 -0.1291239 -0.106772915 -0.03146825 -0.16342357
-0.40579408 0.0043147863 -0.34343565 0.10770618 -0.30279803 0.2798066 0.17750171 -0.07178893
0.50789523 0.48428527 -0.12537293 -0.008707377 -0.07454259 0.43524328 0.018653972 0.26627508
0.3493252 0.32659665 -0.19846357 -0.13822363 0.19895983 0.19373111 0.28124747 0.05295966
0.030681558 -0.037955746 0.05031561 -0.0103281 0.10257043 0.1384066 0.45000517 -0.109169215
-0.09475787 0.15448391 -0.027241105 0.34213987 0.06575021 0.3685307 -0.02422573 0.03179222

stu.hidden.1.rn_1.weight f4 [8]
00000000: 2bfe 213f 26d9 4e3f 3f78 113f a71e 6d3e
00000010: 5b41 d13e b4d2 113f 8852 573f 2acc 583f
0.63278455 0.8080009 0.56824106 0.23156224 0.40870175 0.5696213 0.8411031 0.8468653

stu.hidden.1.stu.M_u f4 [8, 3, 8]
00000000: c2c0 d9be 0a83 15bc e7f2 873e 9fbc 4f3e
00000010: 92d9 3e3d d33a 683e 50f1 f33c 164f 333c
00000020: cf8d 99be 4693 4d3e 6bf2 193e 9bdc e4bc
00000030: 800a 07be 44d8 923d 9d17 e8bc 8e4a 7bbd
00000040: ab40 91be 5fec 1b3e 6bcb 82be d2ad a13d
00000050: 53f2 153d fd6e 20be bdbf 043e 1225 af3d
00000060: 0457 453c b34d 50bf ed0b 8abc 92fc 973d
00000070: f50d 363d 705b 263c b215 ec3d 401e aebc
00000080: 46f9 e23c 21b2 efbd 32c2 c73d aa7f 6abd
00000090: 9033 e03d 6bc1 1c3e f544 52bd d203 a3bd
000000a0: 7f4e 723d c392 e0bd 7898 7e3d df92 253d
000000b0: abf4 403d b0e2 17be 3be5 823d c61f c53d
000000c0: 70b0 36bd 460d 2cbe 4bff e6be fa15 1cbe
000000d0: c197 c3bd 099b 803e 9cfd 943c 0e8a 0d3d
000000e0: 1173 0dbd ad6d d83c c767 5ebe 8de8 283c
000000f0: 56c2 cb3d dff3 adbd ba81 cf3d 2a47 393d
00000100: b9fd ef3d f6c4 563e 85de 0bbe 1f1c 713b
00000110: bcc2 76bd ed3e 3fbd 625a 2abe cd28 f9bd
00000120: e647 d93d 112e b0bd c41e a83c 8816 1cbe
00000130: 51dd 083d b6d7 24bd b219 42bb 6c14 a23e
00000140: 5149 963e 61bd 40be 8814 553e cb97 5d3d
00000150: 5e19 1fbd 3d89 81bd d7c3 a7bd 6488 23ba
00000160: 26ad 463e d2a4 72be 3b40 a33e 65c2 dfbd
00000170: ef2b 3abe 6e7b 003e 2d48 173e 47d3 9b3e
00000180: cf78 89be ad47 12be 0ad5 35bd 4de7 30be
00000190: b6bb c9be 5f98 6c3e a1cd a0bd 4f2f 4fbe
000001a0: abef 6ebe e51f 2d3e 3aae 25be 7d13 a1bc
000001b0: 3fd7 88bd 485d 98bd 7a04 8bbc f6e4 063e
000001c0: e88f 23be 4071 903e 36d4 743c 17f3 623e
000001d0: 55ca 5cbe d009 e03d d1c0 5abd 462f b0bd
000001e0: 6e40 633c d7ba a13d 41fd 8ebe 2629 8f3e
000001f0: cfa7 333e a532 07bf 35a4 bd3d f25a 8dbd
00000200: 93ea e1bd 6c98 2b3d c97b 893e d11b a8bd
00000210: 795b 233d 33fe bfbe 696c 9bbd 6341 47bd
00000220: a415 243e 1243 1c3e f26e d73d b4f4 ec3d
00000230: 4275 a5bb b49f 76bd fb30 9e3d fb10 043c
00000240: a853 af3d cff4 4cbe 0cd6 793e f7bc 2e3e
00000250: 4555 d7bd 37a9 9c3d 7b93 1fbf b99b 753e
00000260: 7ad2 023e df8f 583e f0f2 2fbd ad22 ffbd
00000270: 4154 393e 848e 683c c63b dfbd 53a5 133b
00000280: 512a 19bd 83c6 d5bd 001c 36be efd9 2a3b
00000290: be3b d0bd 2820 4b3c d56e 35bd a4d4 02bc
000002a0: 5b4d 793e b468 26be a3fb e33c 0eae 113e
000002b0: b9d5 50bc 163a 4e3e 9ee2 773d 131e 18bf
000002c0: c12b bebd 047b 3f3e 4110 e73d 29f8 cf3d
000002d0: 25ab de3d 9077 6f3e ac5f 6e3c ca87 83be
000002e0: 9f9e 29bb fbd7 453e f6d5 1e3e 2f39 adbe
000002f0: 27fe 7e3d 2a9c 253e 886c c2bd 12aa 2dbe
-0.42529875 -0.00912548 0.26552507 0.20286797 0.04659421 0.2267869 0.029778153 0.0109441485
-0.29991004 0.20075712 0.15033881 -0.027937224 -0.13187599 0.07170156 -0.028331572 -0.061350398
-0.2836965 0.15226887 -0.2554582 0.07894482 0.03660805 -0.15667339 0.12963767 0.085519925
0.012044672 -0.8136856 -0.01685139 0.07421221 0.044446904 0.010153636 0.115275756 -0.021254659
0.027706753 -0.11703897 0.09753837 -0.057250656 0.10947335 0.15308158 -0.051335294 -0.07959713
0.05915689 -0.109654926 0.062157124 0.04042327 0.047108334 -0.14832568 0.063913785 0.09625201
-0.044601858 -0.16801938 -0.45116648 -0.15242758 -0.09550429 0.25118282 0.018187337 0.034555487
-0.034533564 0.026419485 -0.21719275 0.010309351 0.09949176 -0.0849378 0.10132165 0.045233883
0.11718316 0.20973572 -0.13659103 0.0036790443 -0.060244307 -0.04669087 -0.16636041 -0.12165985
0.10609417 -0.086025365 0.020522483 -0.1524297 0.03341419 -0.04024478 -0.0029617366 0.31656206
0.2935281 -0.18822242 0.20808613 0.05409984 -0.03884255 -0.06325004 -0.0819165 -0.00062382803
0.19401988 -0.23695686 0.3188494 -0.1092575 -0.18180822 0.12547085 0.14773627 0.3043463
-0.26849982 -0.14285155 -0.044392623 -0.17275734 -0.39401025 0.23105 -0.078517206 -0.2023289
-0.23333614 0.16906698 -0.16179743 -0.019662613 -0.0668168 -0.07439667 -0.016969908 0.13173279
-0.15972865 0.28211403 0.014943173 0.22163044 -0.21561559 0.109393716 -0.05340654 -0.08602767
0.013870342 0.07896965 -0.27927592 0.2796108 0.17544483 -0.5281165 0.09259836 -0.06902112
-0.110310696 0.041893408 0.26852253 -0.082084306 0.039882157 -0.37498626 -0.07589037 -0.048646342
0.1602388 0.1525996 0.10519208 0.11570111 -0.0050493786 -0.0602109 0.07724186 0.008060689
0.08560878 -0.20015262 0.24398059 0.17064272 -0.10514311 0.07649463 -0.6233441 0.23985185
0.12775603 0.21148632 -0.042956293 -0.12457786 0.18098547 0.014194135 -0.10900073 0.002252896
-0.03739387 -0.10438254 -0.17784119 0.002606984 -0.10167645 0.012397803 -0.04429515 -0.007985268
0.24345915 -0.16250879 0.02782995 0.14226553 -0.012746268 0.20139346 0.060518853 -0.5942089
-0.09285689 0.1869927 0.11282397 0.10154755 0.10872487 0.23385453 0.014549177 -0.25689536
-0.00258819 0.19320671 0.15511307 -0.3383269 0.062254097 0.16172853 -0.09493357 -0.16959408
