checkpoints/sssm-Walker2D-v1-model_step-175-2024-11-18-20-20-43.pt (torch, 34490 bytes, 18 tensors)

emb.weight f4 [8, 24]
000000 e9 64 0a bd c9 0f 13 be e0 34 66 bd 1a a3 ba be
       -0.03378764 -0.1436149 -0.05620277 -0.36452562
000010 59 73 d8 3e 34 b4 e4 be 63 a3 8e 3e 56 7c f0 3e
       0.42275503 -0.44668734 0.2785903 0.4696986
000020 f4 f2 b9 be 1e 7c 0c 3e f1 c9 09 bf a9 ff 39 be
       -0.3631817 0.13719222 -0.53823763 -0.18163933
000030 ea 73 22 be 96 11 ba 3d a7 bc 68 be 33 07 f8 3d
       -0.1586453 0.090853855 -0.22728215 0.12110748
000040 88 e2 26 be 31 98 4b be ad 62 89 be 03 22 d6 3c
       -0.16297352 -0.19882275 -0.26833096 0.026139265
000050 67 8d 0e 3e aa 25 80 bd d2 a2 bc bd 84 c1 20 3b
       0.13921128 -0.06257184 -0.09210743 0.0024529407
000060 36 36 6d 3e 68 2c 1a be 15 66 cf be 4a 2f c7 bb
       0.23165211 -0.15056002 -0.4050757 -0.0060786353
000070 2a 38 ac 3e 36 04 62 3d ad d5 6d be 4b 92 0b 3e
       0.336366 0.055179797 -0.23226042 0.13630025
000080 8a eb d2 bc 6e 65 48 3e 8b 43 ce be e5 2b c0 3d
       -0.02574708 0.19569942 -0.40285906 0.09383372
000090 a8 98 c6 bd 48 ae 0e be 1e 35 aa 3d 03 de 76 3e
       -0.096970856 -0.1393367 0.083109125 0.24108128
0000a0 9c 9d c2 bd 46 bc 18 bd 9e d4 9e bc b2 f4 71 3e
       -0.09502718 -0.037288927 -0.019388493 0.236285
0000b0 3c 35 b6 3e 54 f2 aa bd f4 c1 5f 3e 88 f6 be 3d
       0.3558749 -0.08347002 0.21851331 0.09324366
0000c0 21 8b a1 be 44 4a 30 3d f3 2a cd be ac d9 3e be
       -0.3155146 0.043039575 -0.4007183 -0.18637723
0000d0 9c 0b c9 3e c9 ae 8e 3d 78 30 2a 3e 4a 3a 7f be
       0.3926667 0.069669314 0.16620052 -0.2492458
0000e0 38 17 17 3e 11 94 27 bf 52 15 bc 3e 56 8b 98 be
       0.14754951 -0.65460306 0.36735016 -0.29793805
0000f0 50 41 84 3c d4 f8 c4 bd 04 1c 17 3d dc 65 88 3c
       0.016144425 -0.09617773 0.036891952 0.016650133
000100 d0 c0 c3 3d 0d 25 59 3e f3 03 09 be 86 0e 13 3d
       0.095582604 0.2120554 -0.13380413 0.035902523
000110 18 9c 94 3e cf 68 5c 3e 2f be 84 bc e4 a7 9c 3d
       0.2902534 0.21524356 -0.016203968 0.0764921
000120 f0 80 ff be da 8b 4b 3f ff 4c 97 be c6 f3 af 3d
       -0.4990306 0.7951027 -0.2955093 0.08591418
000130 f3 c1 7b bd 61 de 77 3e 43 6e 03 3e c1 6e 5e 3e
       -0.06146426 0.24205925 0.1283503 0.21721937
000140 af bc 95 3e 5b d0 4f be 1e 49 30 be ae 23 63 3e
       0.29245517 -0.20294325 -0.17215392 0.2218158
000150 7c bd 57 bc c7 40 0d be 77 6a 3d 3d b0 66 ea bb
       -0.013167735 -0.13794242 0.04624411 -0.0071533546
000160 2e c4 3c be 09 36 0e be ee e0 56 3e e0 53 0a 3d
       -0.18434212 -0.138878 0.20984241 0.033771396
000170 95 2e cc 3e 6f 97 c4 3c 1c df cd 3d 96 d1 a9 3e
       0.3987929 0.02399799 0.1005232 0.33167714
000180 ed 29 71 3e d6 91 bf bd 78 e1 e9 3d 65 7e c3 bd
       0.2355115 -0.09353988 0.11419958 -0.09545592
000190 32 e9 2b be a5 6d 00 be 34 fc 3d 3c d6 61 02 be
       -0.16788176 -0.12541826 0.011595774 -0.12732634
0001a0 fa 6c 23 be 39 44 02 bc 5e 15 eb bd 33 ed b2 bc
       -0.1595954 -0.007950836 -0.11478685 -0.021841621
0001b0 4d 92 59 bd fc 9c a0 3c df 74 6a 3d ce e6 3e be
       -0.05311804 0.019606106 0.057240363 -0.18642733
0001c0 3b dc ad 3e de a6 73 3e a0 5d 5b be c2 e5 84 bd
       0.33957085 0.23794124 -0.21422434 -0.06489135
0001d0 21 88 d7 bc 6a d8 1d 3e d6 10 48 3e dd 94 5f be
       -0.026310029 0.15414587 0.19537672 -0.2183413
0001e0 5a d0 33 3e 86 8c 3b bc c4 dd 98 3e 50 c7 21 3e
       0.17559949 -0.011447078 0.29856694 0.15798688
0001f0 9f 3b aa bc e9 d7 ea 3d 81 c0 e0 3e f2 72 1b 3c
       -0.020780383 0.11466963 0.4389687 0.009487854
000200 67 ed 12 bd f9 30 68 bd b2 90 13 3e 4c a1 82 be
       -0.035870936 -0.05668733 0.14410666 -0.25513685
000210 6f c4 2c 3d 4f 26 2f be cb f9 1d bc cd 03 bb 3e
       0.04217952 -0.17104457 -0.009642075 0.36526337
000220 e6 a0 fe bd 86 df de 3d 2f c6 22 3e 02 f1 ca 3d
       -0.12433033 0.108824775 0.15895914 0.0990925
000230 08 ca 2b 3e b3 40 c3 3d ae 8b 85 ba 73 c7 b3 3e
       0.16776288 0.09533825 -0.0010188723 0.35113105
000240 c2 69 a3 bd e2 45 37 3e 6b 4d 1b be 8d a5 8d 3c
       -0.07979156 0.17897752 -0.15166251 0.017290855
000250 54 b7 26 3e 15 db 5b be 2c 4e 1e 3d f2 7c f3 3e
       0.16280872 -0.21470292 0.03864877 0.47556263
000260 e3 3f b7 3e 9b 35 c6 bd 38 f0 e5 3e 0c eb 8c be
       0.3579093 -0.09678193 0.44909835 -0.27523077
000270 62 52 08 be 56 7d 03 3f 33 54 3c be 80 68 8a 3e
       -0.13312677 0.5136312 -0.18391494 0.27032852
000280 2b da 8e 3e 51 46 91 be e4 20 2a be 8f 0d ee bd
       0.27900824 -0.2837396 -0.1661411 -0.1162368
000290 2b 26 94 be a7 ce 0d 3d cc 21 05 bd 3d 07 8b be
       -0.2893537 0.034620907 -0.032502934 -0.2715396
0002a0 7d aa 9a 3c cc 31 87 3d e5 19 08 3e 25 ab e4 bb
       0.018880123 0.06601295 0.13291128 -0.00697841
0002b0 52 cd 1d bd f9 f7 02 3d 9e cc dd 3c 66 d6 ce 3d
       -0.038525887 0.031974766 0.027075108 0.10099487
0002c0 bc 8d 91 3e d1 d2 4a be 2b e0 12 bf 19 a5 14 be
       0.28428447 -0.19806983 -0.57373303 -0.14516105
0002d0 de 5a e4 3d a6 13 4b be 6b 21 d5 bc dc 70 1e be
       0.11150144 -0.19831714 -0.026016911 -0.1547274
0002e0 8c 48 8a 3e bc 76 2b 3e 20 0f 56 3e 1b b4 21 3e
       0.27008474 0.16744512 0.20904207 0.15791361
0002f0 a7 5c 55 3e f0 84 92 3d 66 f0 7b 3e f8 67 a6 3e
       0.20836125 0.07154262 0.24603423 0.32501197

stu.hidden.0.rn_1.weight f4 [8]
000000 bf d7 5c 3f fb 9f 45 3f e3 14 28 3f 18 74 07 3f
       0.862667 0.77197236 0.6565687 0.5291152
000010 4a b3 4c 3f f8 15 58 3f 9d 17 30 3f 9a 4b 49 3f
       0.79961073 0.8440852 0.6878603 0.78630984

stu.hidden.0.stu.M_u f4 [8, 3, 8]
000000 f1 f6 02 bf 50 21 e3 3d dc c5 80 bd 1e 6c 71 bd
       -0.5115805 0.11090338 -0.06287739 -0.058941
000010 c7 32 b4 3e c9 30 89 bd ce 97 16 3e 2e 04 77 3d
       0.3519499 -0.06698758 0.14706346 0.06030672
000020 ef 68 06 bf ed 1b 04 3d c0 1c 5a be 6c 8d aa bd
       -0.52503866 0.032253195 -0.2130003 -0.08327755
000030 9f 48 b0 3e db b8 8c 3e 22 29 0a 3e 3c 11 23 3e
       0.34430405 0.27484784 0.13492253 0.15924543
000040 f1 26 e1 be 07 9d 3b 3e d8 7a 6b bd 72 b9 77 3d
       -0.43975022 0.1832162 -0.0574902 0.06047959
000050 48 4e 15 3e 44 42 9e 3e c8 fc 48 3e 63 8a 09 3e
       0.14580643 0.30909932 0.19627678 0.13431697
000060 09 5b 99 3d 2b 99 05 bf cd 41 7e 3d 95 42 81 be
       0.07488067 -0.5218684 0.06207447 -0.2524611
000070 3c 7b cf 3c 48 89 90 3c 7e 60 0b 3d 6d a7 23 3e
       0.025327317 0.017643586 0.03402757 0.15981837
000080 1b a0 15 3e c9 96 c1 be 30 86 7d 3d 1e d5 34 3d
       0.14611857 -0.37810352 0.06189555 0.044148557
000090 f7 d8 98 3e 7a 75 9a bd dd 5e 97 3e d8 b0 05 3d
       0.2985303 -0.07541938 0.29564562 0.032639354
0000a0 5f 00 49 3e 0c e8 5b bd 71 45 8c 3e 19 8f ca 3d
       0.19629048 -0.053688094 0.2739673 0.09890575
0000b0 cd 46 e8 bd 41 34 ff 3d cc fc 19 be bb 20 90 3e
       -0.11341629 0.124611385 -0.1503784 0.2814997
0000c0 93 aa 1f 3e 22 73 61 3d 1f 6d 21 be cf da 48 bd
       0.15592413 0.05504144 -0.15764283 -0.049036797
0000d0 aa fa cd bd 15 20 ba bd c5 ab bc 3e e4 aa fd 3c
       -0.10057576 -0.090881504 0.368498 0.030965276
0000e0 42 ab 16 3e a4 c4 1a 3e 00 7e 9b ba f3 25 95 3d
       0.14713767 0.15114075 -0.0011863112 0.07282629
0000f0 f8 32 8a be 4b ab 6a be b2 c7 52 3d a1 22 8f be
       -0.2699201 -0.22916906 0.051459976 -0.27956107
000100 f0 fc be 3d d5 cd 16 be 22 bd 33 be 84 f0 e3 3d
       0.09325588 -0.14726956 -0.17552617 0.11129859
000110 13 e5 dc bd 7f c3 77 3b cc 5f 1d 3e b6 4a 82 bb
       -0.1078588 0.0037805734 0.15368575 -0.0039761914
000120 68 80 46 3e 38 43 89 3e d5 87 78 be 01 2d 39 be
       0.1938492 0.26809096 -0.24270566 -0.18083574
000130 fa 4a af be 58 07 47 be d3 b4 52 bd 61 fb 7f bd
       -0.3423689 -0.19436395 -0.05144198 -0.062495593
000140 28 1e 1c 3e 5b 06 3b 3e 2d 5f 49 be eb e4 c3 3d
       0.15245879 0.18264143 -0.19665213 0.09565147
000150 7d 0c ff 3c 36 01 a2 3c 47 bd 23 be a7 53 59 3e
       0.031133885 0.019775968 -0.15990172 0.21223317
000160 52 83 a3 3d a4 a8 a5 bd 62 19 97 bc 0f cb 93 3d
       0.07984032 -0.08088806 -0.01844472 0.07216465
000170 43 ec 0b 3d da d5 81 be 5d 93 14 be c4 a1 df 3d
       0.034160864 -0.25358468 -0.1450934 0.10919526
000180 0c f2 be bd 05 bc a3 bd fa 91 98 be 6c 45 02 be
       -0.093235105 -0.07994846 -0.2979887 -0.12721795
000190 ec 16 c3 3c b8 bd de 3d 12 94 d2 bd 23 02 5f be
       0.023814641 0.1087603 -0.102821484 -0.21778159
0001a0 0a 43 81 be fd a3 0e be 93 ea d6 be f9 49 2b 3d
       -0.2524646 -0.13929744 -0.4197584 0.041818593
0001b0 a5 70 c0 bb d6 40 c2 bd da 65 55 3c 96 58 07 bd
       -0.0058728033 -0.09485023 0.013024772 -0.033043467
0001c0 ee ca 14 bf ff 51 6c be 52 85 23 be d2 69 31 3d
       -0.58122146 -0.23078154 -0.15968826 0.04331381
0001d0 ba 79 07 3d 60 13 1f be 8c 2d 46 3e 6a 56 c2 bc
       0.033075072 -0.15534735 0.19353312 -0.023722846
0001e0 ff 19 4a 3e bb aa 75 be 9f ef ca bd a5 8f 8c be
       0.19736479 -0.2399091 -0.09908985 -0.27453342
0001f0 de 0e d9 3d 19 b8 9e be 4b e3 aa 3e 97 63 25 be
       0.10598539 -0.3099983 0.33376536 -0.16151272
000200 44 15 f7 bd 9c d3 98 bd be 69 fc bd 1f f1 85 be
       -0.12064603 -0.07462236 -0.12324856 -0.26160523
000210 d7 0a 62 3e 84 49 8d be 38 94 0b 3e b8 34 fe bd
       0.22074448 -0.2759515 0.1363076 -0.12412399
000220 67 b8 ca bd 8b 05 e4 3d 4b ee fc bc aa 01 4d 3d
       -0.09898453 0.1113387 -0.030875346 0.050050415
000230 f6 23 bb 3c 4c 0b 3d be 41 b3 76 3d ba b9 4e 3e
       0.022844296 -0.1846134 0.060229544 0.20188037
000240 26 3e 90 bc 93 c4 d3 bd 9b 7f e2 bd e6 1f 22 3e
       -0.01760776 -0.10340228 -0.11059495 0.15832481
000250 c4 b1 db bd db 46 21 bc 80 a9 b0 be d8 1d b5 3c
       -0.107272655 -0.009843553 -0.34504318 0.022108957
000260 22 70 2b bc 2f 03 b5 3d d3 da 59 3e cd 9b db 3c
       -0.010463746 0.08838498 0.21274881 0.02680769
000270 7e be b8 3d 18 7b 45 be fc 86 01 bf 60 cc 00 be
       0.090207085 -0.19285238 -0.50596595 -0.12577963
000280 09 ea 83 be cc 97 04 3e 52 d5 a9 3d 06 74 44 bd
       -0.25764492 0.12948531 0.08292641 -0.04796221
000290 e0 29 4d be 9e 7f 89 3e 5b 96 db bc a0 34 86 bd
       -0.20035505 0.26855177 -0.026805094 -0.06553006
0002a0 67 b3 8e bc 54 1a be be ff ec 42 be de 13 c0 bd
       -0.01741953 -0.37129462 -0.1903572 -0.09378789
0002b0 a0 68 21 3e 12 d0 9f 3d f8 6c 2c bd 8d 5c 16 be
       0.15762568 0.07803358 -0.04209611 -0.14683743
0002c0 43 2b b3 3d 8d b0 c4 3d 44 21 de 3c 20 8f 41 bd
       0.08748486 0.09603987 0.027115472 -0.047255635
0002d0 a9 63 84 bc 51 89 84 be 32 c8 1f 3d 74 fd be bc
       -0.016160803 -0.25886014 0.03900928 -0.023314215
0002e0 36 c9 43 3e df 27 21 bd 54 99 f6 3d a0 0e 00 be
       0.19119725 -0.039344665 0.12040964 -0.12505579
0002f0 06 9a 41 3e 71 dc a4 3d b6 57 86 bd 49 cc 64 be
       0.18906412 0.08049858 -0.06559698 -0.22343554

stu.hidden.0.stu.M_phi_plus f4 [8, 16, 8]
000000 cf 78 d8 3e 14 a5 ae be 42 7f 98 be fb a0 71 bd
       0.4227967 -0.3411032 -0.2978459 -0.058991414
000010 6b ca 9a 3e 30 09 2a be e1 1e b4 be 3e 5d 00 bf
       0.30232558 -0.16605067 -0.3517981 -0.50142276
000020 3e f6 13 3e 5a 2e 44 3d b1 df f1 bd 1c a5 be bd
       0.14449403 0.047895767 -0.11810244 -0.09308836
000030 59 38 b4 bd 07 e8 84 bd c4 ef 7d 3e b6 2b cc be
       -0.0879981 -0.06489568 0.24798495 -0.398771
000040 03 95 ba be fb f7 36 be 65 48 98 3d 28 fd 9e 3d
       -0.36441812 -0.17868035 0.07435683 0.077631295
000050 00 df c5 be 96 a2 aa be 9c b6 28 3e 6a 78 f6 3e
       -0.38646698 -0.33327168 0.1647591 0.48138744
000060 48 df 10 3e 3d 3d 86 3d 24 79 b8 3d 22 90 ad be
       0.14147675 0.06554649 0.09007481 -0.33899027
000070 9f 95 fa 3d b7 94 a3 bd a6 9c 19 bd e7 99 ac be
       0.12235569 -0.079873495 -0.037502907 -0.33711168
000080 49 bd 58 3e d0 f7 ad 3e 2c 29 5e be f5 29 e1 3b
       0.21165957 0.33978128 -0.21695393 0.0068714567
000090 c0 c0 0f 3e 89 e5 c8 bc 8c 69 27 be 75 65 66 be
       0.14038372 -0.024523513 -0.16348857 -0.2249964
0000a0 c6 fa c5 3c 4e 5d d5 bc 77 05 cb bd 15 75 ca 3e
       0.02416743 -0.026045468 -0.09913152 0.39542452
0000b0 68 08 6a 3c 73 c8 5b be e8 ba 36 bb 7c 24 df bd
       0.014284231 -0.21463184 -0.00278824 -0.10895631
0000c0 68 fc e7 3d e9 b5 cb bd c6 3d 89 3c 25 85 af 3e
       0.113274395 -0.09946806 0.016753089 0.3428127
0000d0 0a 4c e4 3d 29 23 66 3d 97 de 6d bd f6 2a 3f 3d
       0.11147316 0.056185875 -0.058073606 0.04667183
0000e0 8b f5 77 3e 8f c7 98 3d e8 32 d6 3d c5 0b 54 3e
       0.24214761 0.07459938 0.10458928 0.20707615
0000f0 a0 41 28 3e a2 f3 91 bd 96 85 e2 3d f3 2c 26 3e
       0.16431284 -0.071265474 0.11060636 0.16228084
000100 fd 17 dc 3d d5 68 79 3e 83 63 fe bd 69 af 2c 3e
       0.10746763 0.24356396 -0.12421324 0.16863789
000110 e4 29 5d 3e da 0b 5e bd 5b 3b a4 bc c9 7f e8 3d
       0.21598011 -0.05421052 -0.020047834 0.11352498
000120 f1 f3 92 3d 7f 77 67 3e 51 5d 3a 3c c0 70 c0 3d
       0.071754344 0.22604178 0.011374787 0.09396505
000130 98 02 d7 bd db d3 72 3c cb c4 e8 bd 92 73 20 3e
       -0.104985416 0.014821018 -0.1136566 0.15669087
000140 e7 f5 7d be 44 23 d7 3c 02 14 65 3e a6 68 0c 3e
       -0.24800836 0.026261933 0.22370914 0.13711795
000150 c8 2a be be 32 5e 57 3e d7 d3 8f 3e 95 77 cc 3e
       -0.37142015 0.21032026 0.28091308 0.39934984
000160 ab 50 c3 bd fc 2e f0 3c 32 f5 aa 3e 0e b0 4f be
       -0.095368706 0.029319279 0.33390194 -0.20282003
000170 ec 9f 79 bd 2f da e7 bc 8b 17 a0 bc 7c 1e e2 3d
       -0.06094353 -0.02830228 -0.019542476 0.11040971
000180 88 56 2c 3d f0 97 9e 3e c5 62 44 3e 08 b1 6d bd
       0.04207471 0.30975294 0.19178303 -0.05803016
000190 fc 6c c6 3d 51 33 e6 3c 1b f9 d7 bd b4 bd ef 3d
       0.09688756 0.028100641 -0.1054556 0.11706105
0001a0 6a cb f9 bd 28 80 17 be a6 07 1a bd 9f bc 69 bd
       -0.12197001 -0.14794981 -0.03760495 -0.05706465
0001b0 bb f4 00 be a5 2e 94 bd e0 75 c3 bd 19 ff 4f be
       -0.12593357 -0.07235459 -0.09543967 -0.20312156
0001c0 42 06 68 be 90 54 cb bd 06 fc 02 3b 47 8e 84 3d
       -0.22658637 -0.099282384 0.0019986643 0.0647245
0001d0 5c 99 69 3e 76 cd 9b 3d 94 19 95 bc b2 e7 4f 3e
       0.22812408 0.07607548 -0.018200673 0.20303228
0001e0 94 f0 d7 be 20 59 90 3d 6e fb 23 3d 89 47 9e 3d
       -0.42175734 0.07048249 0.040034704 0.07728488
0001f0 7a 93 26 3e f8 3d ae 3d 8e ca 10 bd f6 b8 30 3e
       0.16267195 0.08507913 -0.03534942 0.17258057
000200 7b fe b1 bd 06 35 c7 be 79 90 92 bd e4 0e 1a bf
       -0.086911164 -0.3890764 -0.07156462 -0.6017897
000210 48 9c 1c be de e6 8f bd 9b 21 c0 bb 9f a8 cf 3e
       -0.15293992 -0.07026456 -0.005863381 0.40558335
000220 79 41 6b 3d 29 28 81 bd f7 3c 92 3d bb b2 51 bd
       0.057435486 -0.06306488 0.07140534 -0.05119584
000230 ec af 81 bd 6a 95 96 be b0 24 60 3e 3c 95 bf 3e
       -0.063323826 -0.2941087 0.21888995 0.37418544
000240 f9 d0 47 bd 44 93 ea be aa 79 de 3e fc 78 8f 3e
       -0.048783276 -0.4581548 0.43452197 0.2802199
000250 c3 fd 43 be 36 19 13 be 8a f2 3a be 1a bd 5b be
       -0.19139771 -0.14365086 -0.18256584 -0.21458855
000260 9a e8 fe 3d 13 6c 90 be d3 9e d3 bd 60 26 75 3d
       0.12446709 -0.28207454 -0.10333028 0.05985105
000270 a4 60 f6 3b 63 c8 77 be 51 86 a2 3e 62 e4 6e 3e
       0.0075188447 -0.24197535 0.317431 0.23329309
000280 e4 f5 ec 3d d8 64 13 3f e6 4b 3e bf 4f 1c a9 3e
       0.115703374 0.5757575 -0.7433456 0.3302941
000290 68 4d a6 3e 68 1a bf 3e 2a a8 49 3d 9a 49 2e 3e
       0.3248093 0.37324834 0.04923264 0.17020264
0002a0 1e 46 f9 be 4b f1 63 3e 85 c1 7b be 0c 70 c8 3e
       -0.48686308 0.22260015 -0.2458554 0.39147985
0002b0 c3 c8 67 be da a9 95 3e 2b 5d 7f 3d 10 2d f7 bd
       -0.22635178 0.2923115 0.06234471 -0.12069142
0002c0 54 36 9b be 98 54 1d be bc cf 15 3e 98 56 69 be
       -0.30314887 -0.15364301 0.14630026 -0.22786939
0002d0 65 11 14 bf 42 34 c3 3c a7 09 53 be c6 fa bf 3c
       -0.5783904 0.02382863 -0.20609151 0.023435008
0002e0 f9 b8 cb bd dd ce c9 3c 88 65 aa 3e 12 d9 10 bf
       -0.0994739 0.024634773 0.33280587 -0.56581223
0002f0 ed eb c2 bd 1f a7 d3 3c 9c cc f8 be e9 52 8c bd
       -0.095176555 0.025836525 -0.48593605 -0.06851751
000300 d6 87 56 3e 35 c4 a0 3e 88 20 75 3e 43 d4 7e be
       0.20950255 0.31399694 0.23938191 -0.24885659
000310 6a ce f2 3e 8b 38 c2 3d e7 00 07 bf 03 5b 29 be
       0.47423106 0.09483441 -0.5273575 -0.16538624
000320 ea f4 96 3d c4 52 09 3f a9 8e c1 bd a0 a4 13 3e
       0.073709324 0.53641915 -0.094510384 0.14418268
000330 b8 6c 33 3f 08 49 3a 3e d2 b7 80 bd 19 26 8d be
       0.70087767 0.18191922 -0.06285061 -0.2756813
000340 fb e7 aa be 90 48 7a 3b 70 36 92 3c 05 2f ae 3e
       -0.33380112 0.0038190223 0.017848223 0.34020248
000350 0f c8 54 3e 0e 50 b9 3e 0b 1b 66 3e 64 4a 8d be
       0.20779441 0.3619389 0.22471254 -0.27595818
000360 c6 0e 6a 3c 66 08 0a bf 08 a7 25 3e 4d e5 b1 3d
       0.014285749 -0.53919065 0.16176999 0.08686314
000370 ed 46 30 be 33 2f f1 3d 53 8f bd 3e 7c 9d 43 3e
       -0.17214556 0.11776581 0.3702341 0.19103044
000380 45 5f 87 3e 2f 11 9a be 42 9d a4 3d fa 00 a6 bd
       0.26439872 -0.30091235 0.08037807 -0.08105655
000390 a0 b0 18 bd 1a 78 a3 3d 33 76 9c 3e 0d a5 c8 3e
       -0.037277818 0.07981892 0.3055893 0.39188424
0003a0 2c ac d8 be db 78 c6 3d 98 f3 69 3b 61 9c c1 bb
       -0.42318857 0.0969102 0.0035698172 -0.0059085344
0003b0 2e e5 af bd 20 d9 15 3d ee e1 2e be 81 db e2 be
       -0.085886344 0.03658402 -0.17078373 -0.44308093
0003c0 6d dc b0 3e 6c 0b 10 be 97 30 ab 3d 73 8e 8c bc
       0.34543172 -0.14066857 0.08358877 -0.017157769
0003d0 90 52 59 3e e7 f5 6b bd 6a 97 b1 3c 3e 4c a8 3e
       0.21222901 -0.057607558 0.021678645 0.32870668
0003e0 0b b1 23 3e f3 cf b6 be a8 b7 1e 3e b7 26 8a bd
       0.15985505 -0.35705528 0.15499747 -0.067456655
0003f0 37 9c f5 3d ce d0 be bc 06 85 dc 3d 70 13 83 3e
       0.11992686 -0.023292925 0.1076756 0.25600767

stu.hidden.0.stu.M_phi_minus f4 [8, 16, 8]
000000 39 20 cc be f8 f1 00 3e 3b 82 59 3e 13 32 0e be
       -0.39868334 0.12592304 0.21241085 -0.1388629
000010 00 d6 44 bd 27 96 1a 3c 17 87 91 3e 87 d8 51 3e
       -0.04805565 0.009435213 0.28423378 0.20492755
000020 d9 b3 db bc 7d 0e c2 bc a8 10 54 be 22 7b 3d 3e
       -0.026819156 -0.02368855 -0.20709479 0.18504003
000030 4d cf 8d be 4f 5c 9f be 94 53 f5 3d 8a 5c d0 3c
       -0.2769722 -0.31125113 0.11978832 0.025434751
000040 3e 95 68 3e d3 a2 ec 3d e9 0a b5 bd 4b 17 61 3e
       0.22713181 0.11554494 -0.088399716 0.21981542
000050 9d 69 b4 bd 46 78 e8 bd 2f d9 84 3c 2b 48 97 be
       -0.08809207 -0.11351065 0.016216842 -0.29547247
000060 5d 73 cf bd 25 3c 5d 3e ec ed cc bc f4 ef 9c be
       -0.10129426 0.21604975 -0.025015794 -0.3065182
000070 57 76 83 be 9b 2a 84 be f7 0b 23 3e 22 d3 46 be
       -0.25676224 -0.25813755 0.15922533 -0.19416478
000080 d0 88 06 3e 77 5e e1 bd f4 b6 7c 3b 44 04 25 be
       0.13138127 -0.11004346 0.0038561197 -0.16114908
000090 13 29 c2 3d bd 83 1f be db 5c 4c 3e f6 45 57 3d
       0.094804905 -0.15577598 0.19957297 0.052556954
0000a0 6a ee 32 bd 92 cc 6a bc 25 87 0d 3d 80 94 01 bd
       -0.0436844 -0.014331 0.034552712 -0.03163576
0000b0 bf 75 cb bd 92 7c cb bd 1a 82 e8 bc e3 01 57 3d
       -0.09934568 -0.09935869 -0.02838235 0.052492034
0000c0 3a 88 62 bd 4c f0 34 be 08 e9 85 bd 21 64 52 3d
       -0.055305697 -0.17669791 -0.06538588 0.05136502
0000d0 6a f0 05 3c 37 bf 19 3e 3a 15 9c 3d 50 5e 5e be
       0.008174995 0.15014349 0.07621236 -0.21715665
0000e0 36 83 8f 3d 0c b8 33 3e 00 f1 71 3d 9f b5 5b 3d
       0.070074484 0.17550677 0.059067726 0.053640004
0000f0 e7 15 4c bd 55 8d 65 3d 82 5a 7a be 45 c4 d6 3d
       -0.049825575 0.056042988 -0.24448588 0.10486654
000100 a3 99 a6 bd 29 36 37 3d 81 a7 2a be dc db a6 3d
       -0.08134773 0.044729386 -0.1666546 0.081474036
000110 fc 56 50 3e 2d bf 04 3e 98 d9 77 3c 69 fc 08 be
       0.20345682 0.12963553 0.015127562 -0.13377537
000120 25 e9 cf 3d 6b a9 64 bd 66 f4 69 bc 88 a3 2f 3d
       0.10151891 -0.055825632 -0.014279461 0.042880565
000130 fd 45 3a be 7d 57 a5 be e1 7b c5 bd 09 a6 af 3e
       -0.18190761 -0.3229331 -0.09642769 0.34306362
000140 14 f3 17 3d e3 b7 2b 3d 5a a9 bb 3d c0 63 01 be
       0.03709705 0.041923415 0.091631606 -0.12635708
000150 a1 1a b2 3c a7 88 af 3d ac f9 ca bd fe f7 d7 bd
       0.021741213 0.08570986 -0.099109024 -0.10545348
000160 67 76 62 be 62 ea 8e bd b5 d9 87 3e 29 a8 20 be
       -0.2211548 -0.06978299 0.26533285 -0.15689148
000170 4f 91 57 bd de d2 39 be ee 5a 9e 3e 07 eb 4c 3f
       -0.05262881 -0.18146846 0.3092875 0.80046123
000180 23 c6 74 bd 11 40 82 3c b2 ea ed bd 90 a3 0c bd
       -0.05975927 0.01589969 -0.1161703 -0.034335673
000190 bc fe d9 3d 98 ce f4 bd 3d 8b 4f 3d 39 9c c2 3c
       0.1064429 -0.11953467 0.050669897 0.023756133
0001a0 1d e4 88 bd 62 84 66 3b da 9f e1 bb 04 11 04 3e
       -0.06684134 0.003517412 -0.006885511 0.12897116
0001b0 25 30 33 3d 21 d4 fe 3d 8e ca d8 bd ab 98 46 be
       0.043747086 0.12442804 -0.10585509 -0.19394176
0001c0 95 f8 23 bd 9b 22 a3 3c 3b 4a 92 bd c0 00 c1 3d
       -0.04003199 0.019913962 -0.071430646 0.09423971
0001d0 fb ca c6 3d 39 74 9b 3d 01 a8 06 3d 14 37 00 bc
       0.09706684 0.07590527 0.032875065 -0.007825632
0001e0 ea e7 ca 3d 3e b5 58 bd 70 97 06 3e 66 1b e8 3d
       0.09907515 -0.05290722 0.13143706 0.11333351
0001f0 78 19 3e bc 6a d5 b4 3d 08 79 63 3d e7 9a 79 3d
       -0.011602752 0.08829768 0.055535346 0.060938742
000200 fd 4e ad 3e fe 94 0f 3d 1c 1e cd 3d b7 4a 44 3e
       0.33849326 0.0350542 0.100155085 0.19169126
000210 2d c7 57 be e5 b9 13 3e a9 ae 21 3e f8 f3 06 3e
       -0.21072073 0.14426382 0.15789284 0.13179004
000220 aa f2 36 be 71 aa 80 be 29 e1 75 3e 49 ef 64 3e
       -0.17866006 -0.25130036 0.24011673 0.22356905
000230 2b 47 b6 3e 35 38 a5 be 87 dc 4e 3e 6c 67 c1 3e
       0.35601172 -0.32269445 0.20201312 0.37774217
000240 21 58 50 3e 1d 55 95 be 55 d3 d9 3e 71 0e 19 3e
       0.20346119 -0.291665 0.42544046 0.14946915
000250 98 61 7f be cf c1 5e 3e ee 55 d4 bc ec be aa 3d
       -0.24939573 0.2175362 -0.02591988 0.08337197
000260 b7 83 33 3c ff db 68 be a6 d3 5f 3e 40 4c 0d 3e
       0.010956696 -0.22740172 0.21858081 0.13798618
000270 c0 17 35 3e d2 5d a1 be c6 42 76 bb c0 2b ac 3e
       0.17684841 -0.31516892 -0.003757642 0.3362713
000280 12 a3 dd bd 36 eb c5 3e 53 e7 62 3d d6 ea 91 be
       -0.10822119 0.38656014 0.05539639 -0.28499478
000290 ba cf 40 bd 54 df 5a 3d 9d e9 a4 bd 23 44 ee bd
       -0.047073103 0.05343564 -0.08052371 -0.1163409
0002a0 86 dd aa 3c 66 1d de be 34 ec 66 3e cb c0 48 bb
       0.020857584 -0.43381804 0.22551042 -0.0030632492
0002b0 42 9b 47 bd c3 a3 ad bd b6 fe 4a 3d 6b 97 52 3d
       -0.04873205 -0.08478501 0.049559318 0.051413935
0002c0 ca f2 55 be 81 3b f6 3d c2 17 f1 3c 99 83 50 be
       -0.20893398 0.12023068 0.029430274 -0.203627
0002d0 13 e4 85 3e 0a 00 40 bd d5 d3 72 3d 35 d9 9f 3b
       0.2615057 -0.046875037 0.05928405 0.004878188
0002e0 83 df 0f 3e 69 c5 33 3e ba 27 58 be 66 13 54 bd
       0.14050107 0.17555775 -0.21108904 -0.051776312
0002f0 86 54 07 be 99 f6 56 3e c9 af e3 bd f0 fa 16 be
       -0.13215837 0.20992507 -0.11117513 -0.14744163
000300 57 bf 1b 3d de 0e ef 3e 34 fe 96 3d 7c 70 20 3e
       0.038024273 0.4669103 0.07372704 0.1566791
000310 02 99 52 3e e8 df c1 3d 7b cb 6b be f1 5d 41 be
       0.2056618 0.09466535 -0.2302684 -0.18883492
000320 18 16 b5 3d 48 0b 41 be 53 22 d2 bc f2 97 14 3f
       0.08842105 -0.1885196 -0.025651133 0.5804435
000330 40 fe 23 3d 37 0b 2b be 9e d1 4a 3d e4 ce 87 3d
       0.040037394 -0.16703497 0.049516313 0.06631258
000340 13 1d 33 3e 9c 2c d9 3c 41 19 15 3e 87 af e0 3b
       0.1749156 0.02651053 0.14560415 0.006856862
000350 aa 48 d3 bc 33 7a 25 be 51 a7 29 3e 1e 91 aa 3d
       -0.025791485 -0.16159897 0.16567732 0.0832846
000360 9d 0b 2b 3d 79 d3 d9 be 53 bc 99 3e 8c 83 30 bb
       0.041759122 -0.42544153 0.30026492 -0.0026933877
000370 ae be e8 bd 65 15 91 be 38 b8 b4 bc b9 57 e0 3e
       -0.11364494 -0.28336635 -0.022060499 0.43816927
000380 ee 82 3d 3d a6 cc 9a be d4 fe c9 bc d1 53 4b be
       0.046267442 -0.3023426 -0.024657644 -0.19856192
000390 90 6f fe 3d 67 d2 3f be 84 c5 af 3c 94 25 23 bc
       0.124236226 -0.18732606 0.021456487 -0.00995769
0003a0 8e 19 3e be 96 cd 38 3e e1 62 d8 bd 5b 02 39 3c
       -0.18564436 0.18047175 -0.10565735 0.0112920655
0003b0 6c 55 28 3e a3 b7 41 3e 8f a9 0e 3e 6e 4d 77 3e
       0.16438836 0.18917708 0.13931869 0.24150631
0003c0 bf cc cb 3d 2e 87 67 3b 91 49 83 3c 40 ef b6 3d
       0.099511616 0.0035328376 0.01602629 0.08932352
0003d0 88 5d 95 bd bb c7 33 3e a6 f1 e7 3d 4e 59 cb 3c
       -0.0729323 0.1755666 0.11325388 0.024822857
0003e0 ae 61 69 bc 45 c3 18 be e9 50 4f 3c bf ad c5 3d
       -0.01424448 -0.1491824 0.012653568 0.0965228
0003f0 dd 8f f1 bd 71 5e 95 bd 8d a1 bd bd b4 d5 6a 3d
       -0.11795018 -0.07293404 -0.09259329 0.05733271

stu.hidden.0.rn_2.weight f4 [8]
000000 f2 01 81 3f ba 51 19 3f 77 7f 85 3f 71 ac 81 3f
       1.0078719 0.5989033 1.0429524 1.013075
000010 e9 10 46 3f 3c d2 44 3f 94 8f 51 3f 5c 59 74 3f
       0.7736955 0.7688329 0.8185971 0.9544885

stu.hidden.0.mlp.swiglu.w.weight f4 [32, 8]
000000 16 04 e3 3e 35 58 4e 3e 99 59 00 be ea 8b 93 3e
       0.44339055 0.20150836 -0.12534179 0.28817683
000010 d1 0f 70 be aa d2 f8 bd 84 77 0b 3e 0a 5a 6b 3e
       -0.23443533 -0.12149556 0.1361981 0.22983566
000020 5a e8 ac bd 9e 75 8f be da 42 83 bd f8 ed 23 3e
       -0.08442755 -0.28019422 -0.06409235 0.16008747
000030 ec 30 77 3d 50 a7 1c bc 05 64 02 bf 64 62 0b 3d
       0.06034939 -0.009561375 -0.5093387 0.03402938
000040 a1 64 bf be 85 18 0d 3d f9 f3 8d 3e 66 42 b9 3e
       -0.3738146 0.03444721 0.277252 0.3618347
000050 1a 84 fb 3d 16 c4 77 3e 2f bc 4a bf ee 47 a6 be
       0.12281056 0.24195895 -0.79193395 -0.32476753
000060 2a 82 4b 3e 74 76 a4 bc 36 10 93 3d 3c 81 9f bd
       0.19873872 -0.020076014 0.07180826 -0.077883214
000070 55 79 84 3e 34 77 ec 3e f3 87 6a be 2a d0 9d bc
       0.2587382 0.46184695 -0.22903423 -0.0192643
000080 3d e9 df 3c ef 2c 27 3e b6 90 b5 3c bf 6c 8b be
       0.027332896 0.16325735 0.02216373 -0.27231404
000090 33 7a b2 bd 44 c2 ac bd 63 51 01 be 3e a6 36 3e
       -0.08714714 -0.08435491 -0.12628703 0.17836854
0000a0 09 44 90 be 41 c4 b7 3e 1d 55 f0 bd 40 90 d5 bd
       -0.28176907 0.35891917 -0.11734984 -0.10427904
0000b0 36 35 ea be 9c 08 2e be cb bf 41 3e 6b 30 46 be
       -0.45743722 -0.16995472 0.1892082 -0.19354407
0000c0 5e b9 ac 3c 5a c6 90 3e ac 31 8f bd 2e 87 89 be
       0.021084484 0.2827633 -0.06991896 -0.26860946
0000d0 f1 81 dc 3d 2c 00 cc 3c 83 47 8c 3d 60 fd b7 bd
       0.10766972 0.024902426 0.06849577 -0.08983874
0000e0 e9 ea 21 3e f7 84 1a 3d 28 7c 60 be 2f 0a 04 be
       0.15812267 0.03772446 -0.21922362 -0.1289451
0000f0 d3 75 a8 bd 4b 3e 43 be 24 19 bf 3d 35 5f 1c 3c
       -0.08225598 -0.19066732 0.09330967 0.0095441835
000100 cb fa 71 3e 4f 18 94 3d 21 e9 a2 be 94 bd 43 bd
       0.23630826 0.07231199 -0.31818488 -0.047788218
000110 6f d3 07 bf f4 3c 7b 3e 2d 49 07 3e 3f 5d 92 3e
       -0.53057 0.2453497 0.13211508 0.28586766
000120 67 91 b9 bd f5 17 87 be 60 e9 f1 bc 3a 39 04 3f
       -0.090609364 -0.26385465 -0.029530227 0.5164982
000130 25 a8 24 3e d6 27 2c 3c b7 9b 3d bc b5 49 5f 3e
       0.16079767 0.0105075445 -0.01157277 0.21805461
000140 f5 44 d6 3e 11 21 29 be bc 55 b2 be de 9f d2 3e
       0.41849485 -0.1651652 -0.34831035 0.41137594
000150 6a 00 c2 be a5 1e 2e be f3 e5 a0 3e 6c 14 bc bb
       -0.3789094 -0.17003877 0.31425437 -0.005739739
000160 77 42 a6 be 98 97 7b bd c8 e9 78 be c7 92 f7 be
       -0.32472584 -0.061423868 -0.2430793 -0.4835417
000170 6c 20 1a bc 20 ce 40 3e fa 55 8e be ed 8f c5 3d
       -0.009407144 0.1882863 -0.2779997 0.09646592
000180 fe b0 91 bb 53 7b 5b 3d 53 d0 44 3e 34 04 30 bd
       -0.004446148 0.053584408 0.19220094 -0.04297276
000190 ba a4 e4 3d 59 6a 5b 3c 6b 56 36 3e 41 85 e2 bd
       0.111642316 0.0133920545 0.17806403 -0.110605724
0001a0 54 1b 95 3c 09 dd 4b 3e ee f4 f5 bd bf 7a 8f be
       0.018201508 0.19908537 -0.12009607 -0.28023335
0001b0 e2 16 b1 bb 82 47 a6 be a6 bd 6f 3e d4 0d 4c 3d
       -0.005404339 -0.3247643 0.23412189 0.049817875
0001c0 c4 a8 70 3d 54 cc 08 3e 21 e2 4a be d3 af 9b be
       0.058754697 0.13359195 -0.19812824 -0.3040758
0001d0 71 3d 09 be ec 02 10 bb fa 26 b8 be d3 d8 82 be
       -0.13402344 -0.0021974398 -0.35967237 -0.2555605
0001e0 eb 52 08 be 95 b3 00 3e bd f3 a4 bd 42 c5 39 bf
       -0.1331288 0.12568505 -0.08054302 -0.72566617
0001f0 cb 87 ca 3e 7c d3 85 3e 21 29 94 3e 46 7e f3 3e
       0.39556727 0.26137912 0.2893763 0.47557276
000200 98 bb 4d 3e fb e7 6c 3e 6c 5f 0b be 5b 16 6e be
       0.20091093 0.23135369 -0.1361062 -0.23250715
000210 28 5b d6 3a 13 0d ba 3d f1 6a e8 3d 13 74 99 be
       0.0016354071 0.09084525 0.113485225 -0.2997137
000220 0b d0 ce 3d 72 5f 81 be 01 43 15 3e c0 2f 9a 3d
       0.10098275 -0.25268131 0.14576341 0.07528639
000230 ac 03 1a 3e 69 7c 68 bc ed ea 0b be 67 27 c7 3e
       0.15040463 -0.014189818 -0.13663836 0.3889725
000240 73 cf 91 3e 91 93 89 bc 91 33 04 bd ee c8 fd 3d
       0.28478584 -0.016793998 -0.03227574 0.1239184
000250 48 45 ac 3e 13 3e c6 3e 35 f4 83 3e 4a 93 cc 3c
       0.33646607 0.38719234 0.25772253 0.024972577
000260 0e a4 ed bd 72 8c f1 bd 99 04 ab 3d d6 dc 0c 3d
       -0.116035566 -0.11794366 0.08350486 0.034390293
000270 01 9c 21 bc 37 6c 04 bd a0 cf 6a 3c 34 f7 7a 3d
       -0.009863854 -0.032329764 0.014331728 0.061270908
000280 40 1c a5 3d 37 59 ca be c4 1d 9e 3e b1 22 e0 3d
       0.08062029 -0.3952119 0.30882084 0.10944117
000290 f3 25 14 3e b9 d3 6b bd e4 da d4 bd e6 ae 26 3f
       0.14467601 -0.05757496 -0.103933126 0.65110624
0002a0 ad 96 9b 3e 6b 8c 8b be a6 9b bc 3e 1a 16 c6 3e
       0.30388394 -0.27255568 0.368375 0.38688737
0002b0 87 ac 91 3d f3 0d 7a be 22 6f d8 3d a8 c6 99 3e
       0.07112985 -0.24419384 0.10568072 0.30034375
0002c0 c0 2d 2c bd 78 f7 c1 b9 61 aa 34 3b 82 5d 93 bd
       -0.042035818 -0.00036996207 0.0027567374 -0.071955696
0002d0 43 e8 7f be a2 2c cc bd c5 c5 f3 bd d4 c3 57 3e
       -0.24990945 -0.099694505 -0.11902956 0.21070796
0002e0 80 10 b2 3c 9c 62 c8 bd b3 e8 88 bd 7d 52 d5 3d
       0.021736383 -0.09784433 -0.06685009 0.10416124
0002f0 6d 41 d7 bd ea 95 70 3e d1 e4 1c 3e 1e 70 1d 3d
       -0.10510526 0.23494688 0.15321662 0.038437
000300 dd 3a 38 be 26 ce 1c 3e 02 eb 6a bd 84 19 04 bf
       -0.17991205 0.15313014 -0.057353027 -0.51601434
000310 2c 7a 18 3e 91 91 8e 3d 2c b6 32 3e 16 37 42 bf
       0.14890355 0.06961358 0.17452306 -0.75865304
000320 e6 14 17 bd be 62 5f be 5e 96 52 3c cf d7 dc 3c
       -0.036885165 -0.21815011 0.012853233 0.026958374
000330 b1 43 01 bd e4 f7 62 3e 52 ad d6 bd 04 b1 c8 bd
       -0.031558696 0.22164875 -0.10482277 -0.09799388
000340 54 00 30 3c 2a c0 8c bd db 02 b5 bd 2a 76 fe 3e
       0.010742266 -0.0687259 -0.08838435 0.49699527
000350 8c 96 24 3f 8a 9e ef 3e cc 02 2b 3f ef 21 82 be
       0.64292216 0.46800643 0.6680114 -0.25416514
000360 44 bd 51 3d cf bf cb bd 58 9c b3 be 0a 68 0f be
       0.05120589 -0.09948694 -0.35080218 -0.14004532
000370 4f d1 66 be b7 10 b0 3d 51 8e bf 3d 9a 7d 24 3e
       -0.22540782 0.08596938 0.093533166 0.16063538
000380 36 35 ca 3b 3b e1 4a be e9 79 9d 3e 3f e8 d7 3e
       0.006170894 -0.19812481 0.30757073 0.42169377
000390 b9 45 16 3e b6 7b 4c 3e dc 06 cf be ac 9c 9a be
       0.14675035 0.19969067 -0.4043492 -0.30197656
0003a0 d1 75 72 bd 1f f9 e6 be a4 ed 65 bd 8e b6 f4 bd
       -0.05919439 -0.4511194 -0.056134835 -0.11948882
0003b0 46 b3 ff bd e5 1a 8d be 7c c6 53 bb b8 f9 e1 3d
       -0.124853656 -0.2755958 -0.003231435 0.11033958
0003c0 05 7e ab 3b 6f 27 fc 3d 47 62 1a bd 7f d2 2c 3e
       0.0052335286 0.12312209 -0.03769138 0.16877173
0003d0 9e b7 58 bc eb 20 a5 3c 7c 83 67 3e ea f5 7c 3e
       -0.0132273715 0.020157298 0.22608751 0.24703184
0003e0 60 aa 34 3e 4c c0 35 be fc c3 a5 be 4a 02 74 be
       0.17643118 -0.17749137 -0.32376087 -0.23828998
0003f0 a8 af 33 be 10 f4 73 be cc 88 8e 3c 7e f0 99 be
       -0.17547476 -0.23823571 0.017399214 -0.30066293

stu.hidden.0.mlp.swiglu.v.weight f4 [32, 8]
000000 f7 32 96 3d 7b d0 36 3e cc 42 93 bd 67 e8 0f 3e
       0.073339395 0.17852966 -0.07190475 0.14053498
000010 a3 47 05 be e6 54 7e bd 53 f0 ae 3e 53 ad f1 3e
       -0.13015608 -0.062092684 0.34167728 0.47202548
000020 f5 7c 8b 3d b0 f1 42 3e 4c d0 ab 3d 2d df 0a 3d
       0.06810943 0.19037509 0.08389339 0.033904243
000030 42 ac 71 bd f5 44 dd 3e c0 bb 29 be cb 3f 6e be
       -0.05900217 0.43216673 -0.16575527 -0.23266523
000040 41 7c 2f be 72 9e 90 3c 5b 3f aa be ad 79 b7 be
       -0.17137243 0.017653678 -0.3325146 -0.3583502
000050 8c 50 e5 bc c0 c9 bc bc 5f 96 3b 3e 00 cc 70 bd
       -0.02799251 -0.02304542 0.18319081 -0.0587883
000060 6b 2f 0e be a8 05 24 3e 1d 7c c8 3b 00 5b 47 be
       -0.13885276 0.16017783 0.006118311 -0.19468307
000070 00 4f a3 3d 2e 98 fa bd 2c 7b 42 bc 7f 43 e8 bd
       0.079740524 -0.12236057 -0.011870187 -0.11340999
000080 6a 6b 62 3e 4f c1 30 bd e6 a8 8a be 9e 27 f2 bb
       0.22111288 -0.043153103 -0.27081984 -0.0073899766
000090 27 a2 38 3e 0e 8d f2 bc 41 f8 64 3d 78 db 3b 3e
       0.18030606 -0.029608276 0.055900816 0.1834544
0000a0 cd df 86 bd 3b 69 c4 3e 9f a9 bf bb 40 9f e5 bd
       -0.06585655 0.38361534 -0.005849078 -0.11212015
0000b0 31 85 6b be 92 52 c9 bd c6 a5 96 bd ef 87 cb be
       -0.23000027 -0.09830202 -0.073558375 -0.39752147
0000c0 21 7f 56 be 66 c4 7e 3e 00 0b bc 3e 32 29 4f 3e
       -0.20946933 0.24879608 0.36727142 0.20230559
0000d0 44 a8 a8 be ce 19 06 be 16 ba 0e be ac 26 b9 3d
       -0.32940876 -0.13095781 -0.13938174 0.09040579
0000e0 f4 eb 51 3c 5e b4 8b bc 3a 3e 33 3d 75 11 6f 3e
       0.012812603 -0.01705378 0.043760516 0.23346503
0000f0 87 25 00 3e 98 00 12 bb 74 a4 24 be f3 21 3b 3e
       0.12514316 -0.0022278186 -0.16078359 0.1827467
000100 70 96 4d 3e 19 2f 0d be 73 d8 7a be e8 88 f1 3d
       0.20076919 -0.13787498 -0.24496631 0.11793691
000110 5c cd 17 be 11 06 1e bd 61 5f 72 3e 64 08 2f 3e
       -0.14824432 -0.038580004 0.23669197 0.17093045
000120 fe d0 a4 bd 25 5a 25 be a3 3c 8c bd 18 07 02 3e
       -0.080476746 -0.16147669 -0.06847503 0.12698019
000130 23 3a d9 3e 75 f4 87 3e b6 52 a3 be 85 a5 4e 3d
       0.42427167 0.26553693 -0.3189904 0.05045082
000140 9b 42 8b 3e 96 2a 61 3e 3e 7d ad bd e0 c4 88 3c
       0.27199253 0.21988901 -0.08471154 0.01669544
000150 fa 72 8f be 5c 4d 2c 3d 89 b9 86 3e 7e 1a 2f 3f
       -0.28017408 0.042065963 0.26313427 0.683998
000160 89 45 37 be ae 46 6b be b4 96 b1 be cb c1 37 be
       -0.1789762 -0.22976181 -0.3468529 -0.1794502
000170 0f be 01 3e c4 79 79 3e 24 03 93 be f8 da 98 bd
       0.12670158 0.24362856 -0.28713334 -0.0746364
000180 46 f0 c9 bd ee 5a 8d 3c 87 04 2b 3d 73 2e 02 3e
       -0.09860282 0.017255273 0.041752364 0.12713031
000190 6a b8 9f 3e 2c 15 7e 3c 33 84 0e 3e 23 7f ef 3c
       0.31195384 0.015507977 0.13917617 0.029235428
0001a0 78 72 dd bc 50 48 3b 3e f2 8b 9d be 40 70 78 3a
       -0.027032122 0.18289304 -0.30770832 0.0009477176
0001b0 cd 41 c7 3d bc 1e a9 be 3a 06 0d bc 99 f1 24 3e
       0.097293474 -0.3303126 -0.008607442 0.16107787
0001c0 23 9b 27 be a0 dc 1e 3e 62 eb bd be 99 25 e5 bd
       -0.16367774 0.1551385 -0.37093645 -0.11188812
0001d0 7d 63 00 3e fd 8f c1 3e c2 c0 80 be 5c ca 2e be
       0.12537952 0.37805167 -0.25147063 -0.17069381
0001e0 c9 96 29 3e 60 a2 d3 3d d9 36 20 3e c7 5d 84 3e
       0.16561426 0.10333705 0.15645923 0.25852796
0001f0 f4 c6 96 be 6b 0e e2 be 5a 60 bc 3d dd 62 82 be
       -0.29448664 -0.44151625 0.09198065 -0.25466052
000200 d7 f2 61 bd a2 e3 b2 3d 72 dc c6 3e 0b e9 97 3e
       -0.05516323 0.08734824 0.3884006 0.29669985
000210 b4 8b 85 bd 9a 82 2d bd 64 63 60 bd 77 0c 31 3e
       -0.06520787 -0.04236088 -0.054782286 0.17289911
000220 1f af 3f 3e d0 a6 1b bd ef 72 34 be 04 bd 7a 3d
       0.18719147 -0.03800088 -0.17621969 0.061215416
000230 aa 1c 54 bc 99 e4 2c be fe 53 dc 3e cd 29 f3 bd
       -0.012946287 -0.16884078 0.4303283 -0.11873207
000240 01 38 5a 3d e9 6c 0f 3e f9 d7 19 3d c7 55 91 3e
       0.053276066 0.1400639 0.037559483 0.28385755
000250 b2 27 93 3b 98 22 8d 3d 95 17 d7 bd be 1f f8 bd
       0.004490816 0.06891364 -0.10502545 -0.12115429
000260 44 25 84 bd f9 04 b2 bd 8b de ed 3d c8 b1 cf 39
       -0.0645242 -0.08692355 0.11614712 0.00039614574
000270 c4 39 d7 3d 83 7a 35 be 76 ce 1d 3d e7 36 16 3e
       0.10509065 -0.17722516 0.038526975 0.14669381
000280 7c 7c a0 be fd c0 c1 be 48 ca d1 3c 5e fa ec bc
       -0.31344974 -0.3784255 0.02560915 -0.028927978
000290 eb ca 31 3e 3e de 89 3e 1c 92 1c bf d6 89 e4 bb
       0.17362563 0.2692737 -0.61160445 -0.006974439
0002a0 c8 bc 9f be 55 0c 27 bd a5 b1 4c 3e 1f 87 8d bd
       -0.31198716 -0.040783245 0.19989641 -0.06910538
0002b0 9a 91 48 3e 1a ea 07 3f ce 63 24 bf 12 bc f7 be
       0.19586793 0.53091586 -0.6421479 -0.48385674
0002c0 d5 5a 28 3e d5 07 d3 3c a7 21 d2 bd f2 33 1d bd
       0.164409 0.02576057 -0.10260325 -0.038379617
0002d0 93 03 23 be a5 69 9b 3d 4e c2 c0 3c ed d6 7f 3e
       -0.15919332 0.075885095 0.023530152 0.24984331
0002e0 92 8e b9 bd 9c 04 3e 3e 3a 14 4d 3e b2 54 8c 3d
       -0.09060396 0.18556446 0.20027247 0.06852092
0002f0 d2 d4 0f bd b2 a2 4b 3e 3a cf 27 be c8 a1 87 3d
       -0.03511507 0.19886282 -0.16387644 0.06622654
000300 7f e8 a9 3e e4 ea 9a be ea 60 41 3e e3 f9 ac 3e
       0.33185193 -0.30257332 0.18884626 0.33784398
000310 09 cc f6 be 75 9e ca be 61 80 c9 3e e2 33 92 3e
       -0.4820254 -0.39574018 0.39355758 0.28555208
000320 c0 bf 80 bc fb b5 86 3e 95 96 92 bd 2c 77 92 3a
       -0.015716434 0.26310715 -0.071576275 0.0011174432
000330 24 ea f2 3d 61 6a f3 bb da 11 ad bd 44 2f 73 bd
       0.11861065 -0.007428453 -0.084506705 -0.059371248
000340 a8 70 c3 be 3c 12 af be 92 c3 2e be 43 54 64 be
       -0.38171887 -0.341936 -0.17066792 -0.22297768
000350 63 60 20 3e 80 99 de bd 28 c3 4f be 34 66 02 3f
       0.15661769 -0.108691216 -0.2028929 0.509372
000360 b4 c2 d4 bd f3 c7 97 3d 4f 52 2b 3e 6e e3 9b 3d
       -0.10388699 0.07411184 0.16730617 0.07611738
000370 38 51 5a 3e 22 ee 19 bd 7f 91 5e 3e 00 6d c2 bd
       0.21320045 -0.037580617 0.2173519 -0.09493446
000380 a5 f5 0c be 45 53 19 3d b7 52 80 be 4d 21 75 be
       -0.13765581 0.037432928 -0.25063106 -0.23938484
000390 29 3b 1c be 0a 13 3a bd 83 1b 9a 3e 36 39 5f 3d
       -0.15256943 -0.045428313 0.30099115 0.05449792
0003a0 30 b3 8a be ce 38 31 be b0 80 3d 3d c1 52 f0 3c
       -0.27089834 -0.17306826 0.046265304 0.029336335
0003b0 e5 30 06 3e 54 f5 f4 bd ee 02 42 be 0a af 5f 3e
       0.1310459 -0.11960855 -0.1894643 0.21844116
0003c0 10 95 b6 3b 5f 21 9f bc 3e 85 82 be 70 cb bb bc
       0.005571969 -0.019425092 -0.2549228 -0.022924155
0003d0 c7 d6 e6 3d df 8f 18 3e ea 57 92 bd 13 fc 01 3d
       0.11271434 0.14898632 -0.071456745 0.031734537
0003e0 a8 b5 ab be d3 cc 2a be e2 9c d9 bc 17 75 95 3c
       -0.3353703 -0.16679697 -0.026564065 0.01824431
0003f0 0f 85 a9 bd f0 e8 e7 3d 07 75 bb be 6a 9e fe bb
       -0.08277332 0.11323726 -0.36612722 -0.0077703493

stu.hidden.0.mlp.swiglu.w2.weight f4 [8, 32]
000000 7c 11 dc 3e 09 68 ec 3d a4 d8 f5 bd 0d 51 3b bd
       0.4298209 0.11543281 -0.120042115 -0.045731593
000010 19 38 2a 3d 2b f2 34 3e 1e 16 18 3b bd f5 79 bd
       0.041557405 0.17670505 0.0023206542 -0.06102537
000020 10 73 e6 3e f7 ae c0 3b 48 40 39 3f 82 36 85 3e
       0.4500966 0.0058802324 0.7236371 0.2601815
000030 e2 84 b1 bd c0 28 3a be 91 f4 05 3d e0 79 b8 3e
       -0.086679235 -0.18179607 0.03270394 0.36030483
000040 b6 52 51 be 2a 85 55 3c 48 2e 39 3d ac 4f cc bd
       -0.20441708 0.013032237 0.045210153 -0.09976134
000050 a1 0b bb bd 5e eb 59 be 64 14 a2 3d 28 2f 28 bd
       -0.091330774 -0.21281192 0.079140455 -0.041060597
000060 8b e3 95 3d d8 fd 0e be 4c 73 87 3e ee 40 15 3d
       0.07318791 -0.13964021 0.26455152 0.036438875
000070 19 62 cd be 8d 86 86 be bd 2e 3b 3d b2 e0 b5 bc
       -0.40113905 -0.2627453 0.04569887 -0.02220187
000080 3f f7 ad 3e 4b c2 46 be 47 b6 1f 3e f2 ad 71 bc
       0.33977696 -0.19410054 0.15596877 -0.014750944
000090 31 6c 94 be 5a f7 3c bc 87 01 a4 3e e7 69 a8 3c
       -0.28988793 -0.011533583 0.32032415 0.02055831
0000a0 05 3a b8 3d 44 f9 f6 3e f3 fc 83 bd 3b 41 22 3e
       0.08995441 0.4823705 -0.064447306 0.15845196
0000b0 47 2a 9b bd c6 88 8e be 53 d5 ce 3c 1f 90 fc bd
       -0.07576423 -0.27838725 0.025248205 -0.123321764
0000c0 04 4c d8 bc af da 99 3d c8 0d dd 3e a8 09 a8 bd
       -0.026403435 0.07512414 0.43174577 -0.08204967
0000d0 88 7d b4 bc 6b 54 db be 6e 21 10 bb 54 2f 5e 3d
       -0.022032514 -0.42837843 -0.0021992582 0.054244354
0000e0 a5 03 80 be 5b 52 0e 3e a1 94 9d 3e 6d e8 45 bd
       -0.2500278 0.13898604 0.30777457 -0.04831736
0000f0 ab a8 ef bd 7a b7 89 3e 10 af 13 3e 63 db 83 3e
       -0.11702093 0.26897794 0.1442225 0.25753316
000100 e0 68 68 3e 20 c9 cb be 02 2a ee 3e dd 03 4e 3e
       0.22696257 -0.39801884 0.46516424 0.20118661
000110 12 99 91 3c b0 9c ed 3e 4f b6 7b bb 5f 72 2d 3e
       0.017773185 0.46408606 -0.0038408225 0.1693816
000120 f4 80 df 3d 13 8a f9 be 91 52 07 3d e3 b2 ba 3e
       0.10913268 -0.48738155 0.033037726 0.36464605
000130 6d 77 f1 3d 83 bd 4b 3e 3d c9 df 3e c6 39 85 be
       0.11790357 0.19896512 0.4370822 -0.2602064
000140 7a d3 f5 3c ab 85 80 3e 9f 4a 16 be 2e 67 b4 bd
       0.030008066 0.2510198 -0.14676903 -0.088087425
000150 48 a3 cf be 65 0d ac be 53 99 a7 3d 81 40 96 3e
       -0.4055426 -0.3360397 0.08183541 0.29346088
000160 b8 d3 b3 be 77 93 a2 3d f0 0c 95 3e ef fb 09 be
       -0.35122466 0.07938283 0.29111433 -0.13475011
000170 43 f0 d8 3e a2 cc af 3d 52 b5 e0 3c 7e 65 be bc
       0.42370805 0.085839525 0.02743021 -0.023241755
000180 2f a0 8f 3d 14 db e1 bd 02 12 ab 3d 6a 6c 10 3d
       0.070129745 -0.11028114 0.08353044 0.03525964
000190 de d9 c7 3c d8 9a ea 3b a3 cd 2c be e2 e1 22 bd
       0.02439588 0.007159572 -0.16875319 -0.0397662
0001a0 57 5e 81 3d 3a 2a c7 bd 83 71 bc 3d 63 e3 9c 3e
       0.06316822 -0.09724851 0.09201338 0.30642232
0001b0 02 29 1b 3e 0f a6 31 3c 6b 91 5e 3e 00 e7 af be
       0.15152362 0.010842814 0.2173516 -0.34355927
0001c0 02 d9 42 bd ed 43 27 bb 6f 57 a7 3d 1a ef a4 3d
       -0.047570236 -0.0025522665 0.081709735 0.080534175
0001d0 40 79 d9 bd f2 99 a0 bd 1a 36 d5 3d b9 36 46 bc
       -0.1061883 -0.07841863 0.1041071 -0.012098008
0001e0 4a e4 cc be 8e 15 95 3d 84 20 7f be c2 4b 00 be
       -0.4001792 0.07279502 -0.24914747 -0.125289
0001f0 e3 9d 1e bd 3c c6 e6 3d d6 ac 83 bd f3 a0 76 3e
       -0.03872479 0.11268279 -0.0642945 0.24084835
000200 cf d2 fd 3d 4f 01 77 bd a4 c1 a0 3e da 33 56 be
       0.12393724 -0.060303982 0.31397736 -0.20918217
000210 b4 33 69 be cc 14 b3 3e 40 7f 94 3e 81 61 31 3e
       -0.2277363 0.34976804 0.29003334 0.17322351
000220 f3 e7 15 be 7c 32 46 3d fa 0b a4 3e 14 b0 90 be
       -0.14639263 0.04838799 0.32040387 -0.28259337
000230 0e 99 70 bc 03 b8 33 bd 16 81 03 be a9 4a 6d 3e
       -0.014684929 -0.04387666 -0.12842211 0.23173012
000240 fd 2a 3f 3e 6a ae d3 3d 0d d5 e5 bd 5b 79 b2 3d
       0.18668742 0.10336001 -0.11222277 0.08714553
000250 ce c8 55 be 20 72 90 be 29 5d 47 be ab 66 a0 3d
       -0.20877382 -0.2821207 -0.19469132 0.07832082
000260 fb 35 48 3e 8f eb a9 bd ca 87 16 3e 74 d1 03 be
       0.19551842 -0.08296882 0.14700237 -0.12872869
000270 50 3d 01 3f 99 c4 8a 3d 24 21 84 bd 9d cb bb 3d
       0.5048418 0.06775779 -0.064516336 0.091696955
000280 97 54 a6 3d 2e 86 92 be 94 ef c6 3e 5b 95 09 3e
       0.08121603 -0.28617996 0.3885466 0.13435881
000290 6f 5d 74 be d0 94 74 3d 43 25 34 3e 67 c4 ab 3e
       -0.23863767 0.05971223 0.17592339 0.3354828
0002a0 86 29 0c 3e bc cb 34 be 5a 3b 1a be 58 9e 92 3d
       0.13687715 -0.17655843 -0.15061703 0.07159108
0002b0 20 43 51 3e ad db 92 3d 0f 1b a7 be 53 b9 21 be
       0.20435762 0.07170806 -0.32637832 -0.15793352
0002c0 52 22 b3 3e 6d f8 21 3e 69 e7 6c be 1b 25 a6 bd
       0.34987122 0.15817423 -0.23135151 -0.08112546
0002d0 f5 68 8b bd 94 4e 78 be 66 d1 05 3d 4e a3 8b bd
       -0.06807128 -0.24248725 0.0326704 -0.06818257
0002e0 86 be 51 be 99 2d 11 3d f1 f4 e3 3e 07 0f ed bd
       -0.20482835 0.035443876 0.44522813 -0.11575132
0002f0 92 0a f2 3d c9 67 a0 3d bf be 98 3e d0 7f f2 3d
       0.118184224 0.078322954 0.29833028 0.118407845
000300 e6 32 20 3d 90 4b 58 3e 71 61 75 be ae 62 ac 3d
       0.03911104 0.21122575 -0.23962952 0.08417259
000310 2f df 29 be d5 af 58 be a7 69 fa bd d2 68 67 3d
       -0.16589044 -0.21160825 -0.12227183 0.05649645
000320 90 e7 a8 be e7 9b 89 3d d1 13 98 be f8 86 97 3d
       -0.32989168 0.06719189 -0.2970262 0.0739879
000330 19 38 b0 bd bb 31 df bd 38 f5 16 3e f4 99 3d 3e
       -0.0860445 -0.10898157 0.14741981 0.1851576
000340 29 a1 3a 3d 2b 93 73 3d f4 70 85 3c 74 2d 14 be
       0.04556385 0.059466522 0.016289212 -0.14470464
000350 be a8 a4 3d a6 90 4b be a1 44 b7 be be ff 01 be
       0.080399975 -0.19879398 -0.35794547 -0.12695214
000360 8c 28 c1 3c 5b 36 27 3e 56 ed 0d 3e 8d 73 0c 3e
       0.023578905 0.16329329 0.13860068 0.13715954
000370 08 a0 ac be 26 55 05 3d f8 84 56 bd 22 ea 0a 3e
       -0.33715844 0.032551907 -0.052372903 0.13565877
000380 c8 a7 02 bd 89 96 37 3e 27 10 96 3e b4 96 53 3e
       -0.03189829 0.17928518 0.29309198 0.20662957
000390 3e 91 81 bd 7b 13 cd 3d 1d 4e 8e be b7 40 00 3e
       -0.06326531 0.10013481 -0.2779397 0.12524687
0003a0 e6 e4 3b 3d d2 c6 7e be 28 1e c1 3e 2f 96 4d 3d
       0.04587259 -0.24880531 0.3771832 0.050192054
0003b0 ba 60 10 3e 4c 25 5d be 96 3e 84 3e 2c 28 73 3d
       0.14099398 -0.21596259 0.25829 0.059364483
0003c0 93 d5 f0 bd 62 7c 64 3e 73 1e 5a be bb 7c d5 3d
       -0.11759486 0.22313073 -0.21300678 0.10424181
0003d0 5a 16 e6 be c0 e5 71 be 3c 88 85 3d 84 4f 2e be
       -0.44938928 -0.23622799 0.06520125 -0.1702252
0003e0 c2 38 1e bf 8f 70 d3 3d 45 4e cf 3e 87 97 1c 3d
       -0.61805356 0.10324203 0.40489402 0.038230445
0003f0 98 5e 52 3d e2 3e 7d be b4 50 a3 bd 0b 60 05 3e
       0.051359743 -0.24731019 -0.07974377 0.13024919

stu.hidden.1.rn_1.weight f4 [8]
000000 49 7d 39 3f 3f a4 40 3f 6b fa e3 3e 31 61 40 3f
       0.72456795 0.7525062 0.4452699 0.751483
000010 fe 9a 35 3f da 8d 1b 3f f3 e4 3d 3f 4c f5 47 3f
       0.70939624 0.60763323 0.74177474 0.7810867
