checkpoints/sssm-Walker2D-v1-model_step-0-2024-11-18-16-25-27.pt (torch, 34442 bytes, 18 tensors)

emb.weight f4 [8, 24]
-0.48098367 0.25003886 0.34421808 0.27802786 0.28456968 -0.030037494 0.0006247128 0.1692305
0.11441575 -0.20899694 -0.042423397 0.12719558 -0.0054251626 -0.07307734 -0.15428582 0.004425062
-0.0785866 -0.022800894 -0.01780193 0.18168929 0.112134956 -0.015668191 0.1459643 0.16866595
0.14999843 -0.22512597 -0.17035349 0.4682044 0.38403606 -0.093325265 -0.0608476 0.19867152
0.41581836 0.24348783 -0.3519317 -0.023831025 0.121092595 -0.15761401 -0.0964386 -0.06925737
-0.022984575 -0.48879957 0.13501635 0.085180506 0.013947236 0.008581274 0.08249388 -0.001140473
0.12733316 0.114814155 -0.15049759 0.005904127 -0.32355127 -0.123109706 0.07724382 -0.25295085
-0.20150927 -0.3344049 0.39327967 -0.2800429 -0.015676001 0.33648908 0.011042179 0.20678173
0.12207139 -0.25665432 0.037134163 -0.13541767 0.15931615 -0.0146130305 -0.12437644 0.06791532
-0.07161549 -0.2652357 -0.07403926 0.1869612 0.016981818 0.22752474 0.07621981 -0.25977865
-0.014403848 0.13392495 -0.41930667 -0.028536648 0.40047026 0.23139022 -0.27318916 0.19205527
0.20878494 -0.07212456 0.37131497 -0.24424882 0.24062714 -0.048596725 0.14988019 0.049375683
-0.10799455 0.22751711 -0.11338697 -0.04311879 -0.11669421 0.07275434 -0.14408772 0.02187914
0.035606105 0.10418155 -0.4228769 0.21701147 -0.032536812 0.15646172 0.1778164 -0.05115587
0.06878658 0.5382593 -0.0763179 0.11382335 0.21492828 -0.050653514 0.22284915 0.21281528
0.19262125 0.2360861 0.43801093 -0.14892143 0.21368085 0.29522803 0.20538634 -0.011835476
-0.079527535 0.1251487 0.1186546 0.054736994 -0.070071444 0.13794799 -0.3264943 0.17433809
0.114814326 -0.055241693 -0.119187884 0.12843947 0.058908887 -0.0061060404 0.09353847 -0.08619008
0.35877362 0.15427503 0.060385104 0.113150455 0.067159995 -0.33238402 -0.024052054 -0.21910651
-0.21102184 -0.30360204 0.20688511 -0.21181752 -0.093346 -0.028051874 0.34271872 -0.0025124224
-0.014616279 -0.038365863 -0.091411255 -0.031068943 0.26857907 -0.048844345 -0.0481914 -0.0864621
-0.2919996 0.3116498 -0.23449343 -0.2883758 0.48108912 0.09998173 0.22178005 0.2762998
0.08890841 0.21727507 -0.0891951 -0.023674456 -0.22729425 -0.03848982 -0.27902445 0.15362205
-0.0548513 -0.5896892 -0.55719537 0.43314162 -0.122109324 -0.018144898 0.27024147 -0.33677748
00000000: 7e43 f6be 1805 803e 5a3d b03e ab59 8e3e
00000010: 1eb3 913e 3111 f6bc c4c3 233a c34a 2d3e
00000020: ce52 ea3d 4b03 56be 28c4 2dbd 8f3f 023e
00000030: 90c5 b1bb 93a9 95bd 1afd 1dbe 1c00 913b
00000040: 03f2 a0bd f1c8 babc 5ad5 91bc c20c 3a3e
00000050: 03a7 e53d 945a 80bc aa77 153e c4b6 2c3e
00000060: 3099 193e 6c87 66be 2571 2ebe 7db8 ef3e
00000070: 60a0 c43e 5121 bfbd 553b 79bd 8c70 4b3e
00000080: 25e6 d43e e054 793e 6430 b4be 4839 c3bc
00000090: 65ff f73d 9165 21be 9a81 c5bd cfd6 8dbd
000000a0: 264a bcbc f043 fabe ba41 0a3e 1e73 ae3d
000000b0: f382 643c 7998 0c3c 8df2 a83d ec7b 95ba
000000c0: a063 023e af23 eb3d 0a1c 1abe 6877 c13b
000000d0: 83a8 a5be f120 fcbd 0232 9e3d c682 81be
000000e0: 7258 4ebe 1e37 abbe f45b c93e c861 8fbe
000000f0: f56a 80bc 4c48 ac3e 41ea 343c 97be 533e
00000100: 9100 fa3d 3268 83be fe19 183d eeaa 0abe
00000110: c623 233e 7e6b 6fbc 13b9 febd 3017 8b3d
00000120: 24ab 92bd f9cc 87be e5a1 97bd c272 3f3e
00000130: 741d 8b3c 3ffc 683e 2219 9c3d b501 85be
00000140: 1efe 6bbc 9f23 093e 5daf d6be b0c5 e9bc
00000150: 700a cd3e 8ff1 6c3e 73df 8bbe 23aa 443e
00000160: b8cb 553e 0bb6 93bd ff1c be3e 5d1c 7abe
00000170: f666 763e 5c0d 47bd 317a 193e 283e 4a3d
00000180: 3f2c ddbd 3ffa 683e 6d37 e8bd 549d 30bd
00000190: 60fd eebd 3a00 953d bb8b 13be e23b b33c
000001a0: b5d7 113d 235d d53d 5283 d8be 4138 5e3e
000001b0: 5245 05bd 8037 203e 8115 363e d188 51bd
000001c0: fadf 8c3d 5dcb 093f 8f4c 9cbd 371c e93d
000001d0: 2916 5c3e 0f7a 4fbd 9132 643e 40ec 593e
000001e0: 813e 453e 8ec0 713e f842 e03e dc7e 18be
000001f0: 27cf 5a3e 2128 973e cc50 523e 96e9 41bc
00000200: 55df a2bd fb26 003e 2f01 f33d e633 603d
00000210: 9e81 8fbd 3d42 0d3e 432a a7be af85 323e
00000220: c623 eb3d 1d45 62bd c718 f4bd a385 033e
00000230: 724a 713d 2e15 c8bb 1991 bf3d 6d84 b0bd
00000240: 2db1 b73e 46fa 1d3e 5f56 773d 6dbb e73d
00000250: 2e8b 893d 3d2e aabe d008 c5bc 755d 60be
00000260: 1c16 58be ba71 9bbe b1d9 533e b1e6 58be
00000270: 302c bfbd 0bcd e5bc d478 af3e 74a7 24bb
00000280: 1e79 6fbc 8625 1dbd d335 bbbd 4c84 febc
00000290: 3283 893e 0211 48bd 5864 45bd 0b13 b1bd
000002a0: f980 95be 9090 9f3e 0c1f 70be fea5 93be
000002b0: 5051 f63e 39c3 cc3d 4f1a 633e 2b77 8d3e
000002c0: 9d15 b63d 5b7d 5e3e ecab b6bd eff0 c1bc
000002d0: d3bf 68be 80a7 1dbd 4bdc 8ebe 194f 1d3e
000002e0: c2ab 60bd dff5 16bf 5ba4 0ebf bdc4 dd3e
000002f0: 7414 fabd 9ca4 94bc 175d 8a3e 196e acbe

stu.hidden.0.rn_1.weight f4 [8]
0.72041905 0.9100198 0.7641715 0.83010906 0.82304025 0.8996981 0.37700525 0.7111926
00000000: 626d 383f 0ff7 683f bea0 433f 0782 543f
00000010: c4b2 523f 9d52 663f d506 c13e b810 363f

stu.hidden.0.stu.M_u f4 [8, 3, 8]
-0.41590574 -0.15179574 -0.020795904 0.16138232 0.19535467 -0.37739506 -0.051850684 -0.073009625
-0.4252804 0.18175854 0.030772435 0.15114252 0.05523049 0.08359815 -0.014575537 -0.30864847
-0.3196971 0.10748798 -0.047969345 -0.14894406 0.013829943 -0.25397465 -0.16435589 0.0816289
0.038601145 -0.6279382 -0.043876477 -0.24929236 0.35964704 -0.23108666 0.15065345 0.08900466
0.009505609 -0.40023258 -0.0014550933 -0.054021683 -0.13943464 0.05283654 0.3912461 -0.09234257
-0.014738568 -0.32840905 0.03213024 0.059190843 0.053092584 -0.017180882 -0.035047103 -0.06141095
0.052756496 -0.06739555 -0.061409194 -0.19364963 -0.0063514006 -0.17285675 -0.08463012 -0.04796324
0.06932802 0.120324075 -0.13201427 0.0678321 0.05149952 -0.14689179 -0.0894758 -0.10676311
0.06137188 0.25695696 -0.10370549 0.058063988 0.035590082 0.024858944 0.022898262 0.12013988
-0.06402265 0.20540512 -0.20180282 -0.9533598 -0.2660155 -0.22042207 -0.0010174882 0.022301592
-0.15763317 -0.043369327 -0.003538202 -0.22923595 0.027857065 -0.058569197 0.009160602 0.1274291
0.028377311 0.21826947 0.11225333 0.11928752 -0.21167332 -0.021685394 -0.010431805 -0.03611389
0.12227857 0.06833911 0.10595952 -0.008656735 -0.29923943 -0.27164856 0.19984838 -0.012323313
0.24843939 0.091616 -0.019007873 0.28075403 0.044236768 -0.12388503 -0.08323687 -0.03388819
0.26196596 -0.1534145 0.13982305 0.059948936 -0.103268914 -0.34268495 0.011178021 -0.10104261
-0.10454348 -0.21576609 -0.05812613 0.20718648 -0.043903913 0.007492391 -0.0045875534 0.030447168
0.03760988 -0.046841532 -0.12563637 -0.04139323 0.11955134 -0.22853853 -0.11636364 -0.20287737
0.0023839856 0.058127943 -0.17254041 0.13762198 0.1803167 0.057332005 -0.15693714 0.13965102
0.10781388 -0.26653922 -0.14020701 0.08665253 0.162972 -0.2720644 -0.1857013 -0.04480549
0.012190468 -0.20389694 0.1304102 -0.050977852 0.15736762 -0.029919585 -0.28828847 0.12778334
-0.07504818 -0.20596428 0.21263485 0.082807265 0.023975708 -0.015030138 -0.57588136 -0.23838183
0.004804349 0.038558442 -0.022456722 0.019613907 0.09627547 -0.21061711 -0.033699542 -0.5282979
0.14481005 0.040164903 -0.1262329 0.093190126 0.14938219 -0.17762358 -0.06872002 -0.26806048
0.07077322 0.2543332 0.042335115 0.12011832 0.15426987 -0.20682609 0.11169703 -0.08114123
00000000: 99f1 d4be 5870 1bbe 2c5c aabc 6841 253e
00000010: 0e0b 483e ed39 c1be 6261 54bd 1286 95bd
00000020: 5abe d9be e91e 3a3e 7916 fc3c 1bc5 1a3e
00000030: 5e39 623d 8235 ab3d 3cce 6ebc 2c07 9ebe
00000040: 57af a3be a822 dc3d 817b 44bd cb84 18be
00000050: fc96 623c f708 82be e94c 28be 0d2d a73d
00000060: 3c1c 1e3d 8fc0 20bf d2b7 33bd 7f46 7fbe
00000070: a823 b83e fba1 6cbe e644 1a3e 1348 b63d
00000080: 6abd 1b3c 49eb ccbe d4b8 beba d745 5dbd
00000090: f4c7 0ebe 216b 583d 6951 c83e 1a1e bdbd
000000a0: 097a 71bc 3b25 a8be 009b 033d 1972 723d
000000b0: 9c77 593d ecbe 8cbc 8d8d 0fbd 0c8a 7bbd
000000c0: 3217 583d ae06 8abd 3588 7bbd 174c 46be
000000d0: 691f d0bb 5c01 31be 8e52 adbd 1a75 44bd
000000e0: d9fb 8d3d 786c f63d c02e 07be 8eeb 8a3d
000000f0: 29f1 523d cd6a 16be 173f b7bd 9ea6 dabd
00000100: 1561 7b3d dd8f 833e 8b63 d4bd 81d4 6d3d
00000110: e8c6 113d fca4 cb3c 2395 bb3c e60b f63d
00000120: 4f1e 83bd b855 523e 66a5 4ebe 630f 74bf
00000130: 2f33 88be 53b6 61be 3d5d 85ba d4b1 b63c
00000140: 976a 21be 09a4 31bd 2ee1 67bb d4bc 6abe
00000150: 8034 e43c 41e6 6fbd 5a16 163c c67c 023e
00000160: 8977 e83c 0882 5f3e 13e5 e53d 044d f43d
00000170: e4c0 58be 91a5 b1bc 29ea 2abc 29ec 13bd
00000180: 306d fa3d 60f5 8b3d 4e01 d93d fad4 0dbc
00000190: e935 99be 8515 8bbe 0ea5 4c3e b9e7 49bc
000001a0: e566 7e3e 2ba1 bb3d 66b6 9bbc febe 8f3e
000001b0: 9d31 353d 6fb7 fdbd 1878 aabd 58ce 0abd
000001c0: 6720 863e b118 1dbe c62d 0f3e 048d 753d
000001d0: a77e d3bd 6774 afbe 0524 373c 6eef cebd
000001e0: e41a d6bd c9f1 5cbe aa15 6ebd b128 543e
000001f0: 97d4 33bd bb82 f53b 3053 96bb 576c f93c
00000200: d10c 1a3d e8dc 3fbd d2a6 00be f38b 29bd
00000210: 55d7 f43d 0106 6abe 0f50 eebd 16bf 4fbe
00000220: a43c 1c3b 9117 6e3d 6fae 30be c7ec 0c3e
00000230: f1a4 383e f7d4 6a3d 21b4 20be ad00 0f3e
00000240: 86cd dc3d d477 88be 6d92 0fbe e276 b13d
00000250: 22e2 263e 064c 8bbe 7b28 3ebe f685 37bd
00000260: 87ba 473c 5cca 50be 408a 053e 27ce 50bd
00000270: fa24 213e eb19 f5bc 8c9a 93be a3d9 023e
00000280: dcb2 99bd 4de8 52be f3bc 593e db96 a93d
00000290: b468 c43c f840 76bc f66c 13bf 5e1a 74be
000002a0: cd6d 9d3b 75ef 1d3d 29f7 b7bc 58ad a03c
000002b0: 132c c53d 03ac 57be 8808 0abd 883e 07bf
000002c0: 1649 143e f483 243d 3343 01be 77da be3d
000002d0: a5f7 183e f5e2 35be 15bd 8cbd 393f 89be
000002e0: 8df1 903d f637 823e 9667 2d3d 9800 f63d
000002f0: ecf8 1d3e 38ca 53be 6ac1 e43d 602d a6bd

stu.hidden.0.stu.M_phi_plus f4 [8, 16, 8]
-0.58671933 -0.6130993 -0.524965 -0.71102166 0.6997656 0.40892354 1.2817566 0.018908905
0.22511414 -0.5056503 -0.96391654 -0.7703431 0.25432009 0.76254123 0.95536494 -0.42973313
1.5315275 0.99032515 -0.82586086 -0.44793215 -0.3821528 0.8261887 0.08865037 -1.3060156
-0.74551606 -1.2154948 0.1694765 -0.62760234 0.43789998 -0.051177483 0.5530721 0.5473642
-1.2322936 -0.91106415 1.0178448 0.28156552 0.07062881 -0.9677661 -0.992008 0.7868922
-0.3096127 0.14435796 0.854694 1.0701218 -0.3609621 -1.018093 -1.3504738 0.027551766
1.3532507 1.4970045 -0.12908117 0.2518809 -0.25062883 0.25027063 -0.13553937 -0.86027145
0.73683375 0.7082523 -0.7742685 -0.42461577 0.2703773 0.9480694 0.59894925 -0.47191158
-0.088189006 -0.15472652 -0.88857234 -0.92805636 0.8191025 1.3774135 0.973167 0.0041275127
-1.2185779 -0.56950223 -0.39768368 -0.55900985 0.37444845 0.60727817 0.6837124 0.28039837
-0.43361482 -0.29276562 -0.3736491 -0.120677516 0.18766592 0.116327256 0.35452473 0.3193101
-0.06582555 -0.029475503 0.041599665 -0.049514633 -0.03465629 -0.02919342 -0.13169603 -0.2969923
0.13819073 0.15669023 -0.002495753 0.0072906422 -0.07600083 -0.111224174 0.02473554 -0.39996484
-0.13108335 -0.27902272 0.14881001 0.0067321197 0.23423791 -0.0010022776 -0.0668522 0.08814472
0.017495537 0.231502 -0.121155076 -0.0844348 -0.13737345 0.041884888 -0.099083014 0.04202211
-0.27429384 0.031169318 0.1153226 0.11054785 -0.0021242395 -0.19303553 -0.18562847 -0.2162922
1.4112952 0.25894994 0.28519827 -0.5054038 -0.4096131 0.39379698 0.21677849 -0.45045093
1.0476978 0.18061884 0.23965208 -0.46946087 -0.36003697 0.056640986 0.16694146 -0.14239945
0.3226869 -0.11301654 0.65381503 -0.30055106 -0.66440564 -0.21532837 0.20275724 -0.26108372
1.2753017 0.22538483 -0.026396291 -0.61058414 -0.28665513 0.5466743 0.31471074 -0.9704807
-0.5555156 -0.9735687 -1.0094333 0.13363248 0.60932773 0.33336732 0.11622646 -0.2871282
-1.3576639 -0.142433 -0.33947402 0.10921912 0.6281464 -0.34413397 -0.09402598 0.5913649
0.116149426 0.45797688 0.90168554 0.22413303 -0.2012348 -0.2833625 0.15946917 0.5269709
1.1870703 0.43872687 0.31083736 0.36005396 -0.6626301 0.1989141 0.17450957 -0.44343916
-0.20484084 -0.20316726 -0.41132662 -0.2423324 0.112211086 -0.05230438 0.03632324 -0.08751536
-1.00276 -0.3930977 0.19757499 0.1165577 0.44161475 -0.40976 -0.28429645 0.5219413
-0.18814237 -0.22331591 0.49338272 0.5836178 -0.39796454 -0.29135525 -0.40677655 0.35710463
0.20639855 -0.15410507 0.34382302 0.05843036 -0.46144754 -0.21067944 0.07154834 -0.19498545
0.18366177 -0.24631998 -0.011253793 0.115304455 0.23557782 -0.038599707 -0.15196995 -0.16267699
-0.002739944 0.2440034 0.11818644 -0.25885898 -0.27842036 -0.060219605 0.22031406 -0.0027864706
0.0077567333 -0.2629185 0.044562206 0.063718386 0.10044513 -0.04306768 0.047403086 0.0069822813
-0.025994461 -0.54813945 0.04636406 -0.08498156 0.1330187 -0.040507417 0.29025316 0.018880986
00000000: 3d33 16bf 13f4 1cbf 1b64 06bf 8405 36bf
00000010: d723 333f 6d5e d13e 9a10 a43f d9e6 9a3c
00000020: 5284 663e 4c72 01bf 3cc3 76bf 3535 45bf
00000030: 3e36 823e e735 433f cc92 743f fb05 dcbe
00000040: 1809 c43f f385 7d3f 9e6b 53bf 5d57 e5be
00000050: 88a9 c3be 1a81 533f 538e b53d 852b a7bf
00000060: 24da 3ebf 5595 9bbf 3f8b 2d3e 8caa 20bf
00000070: 6d34 e03e 7b9f 51bd 2296 0d3f 0f20 0c3f
00000080: ccbb 9dbf 803b 69bf bd48 823f 5b29 903e
00000090: d6a5 903d 85bf 77bf 3cf4 7dbf c471 493f
000000a0: 8e85 9ebe 93d2 133e 3acd 5a3f c0f9 883f
000000b0: 06d0 b8be df50 82bf 53dc acbf 3eb4 e13c
000000c0: 5237 ad3f d89d bf3f db2d 04be 89f6 803e
000000d0: 6c52 80be 7923 803e d5ca 0abe c03a 5cbf
000000e0: 23a1 3c3f 0650 353f 7636 46bf 3d67 d9be
000000f0: e56e 8a3e adb4 723f bd54 193f 659e f1be
00000100: 709c b4bd a170 1ebe 7a79 63bf 1a95 6dbf
00000110: b4b0 513f 164f b03f 7921 793f 1640 873b
00000120: 5cfa 9bbf e6ca 11bf 329d cbbe 451b 0fbf
00000130: b5b7 bf3e 9576 1b3f c707 2f3f 6090 8f3e
00000140: c302 debe 60e5 95be ef4e bfbe c625 f7bd
00000150: 7f2b 403e fc3c ee3d 4484 b53e 9d7c a33e
00000160: 8ccf 86bd 9c76 f1bc 6964 2a3d dbcf 4abd
00000170: c1f3 0dbd 0a27 efbc 53db 06be 600f 98be
00000180: df81 0d3e 6773 203e ca8f 23bb 57e6 ee3b
00000190: 53a6 9bbd 80c9 e3bd 30a2 ca3c 31c8 ccbe
000001a0: b73a 06be 11dc 8ebe a761 183e 1d99 dc3b
000001b0: 10dc 6f3e db5e 83ba cee9 88bd 3885 b43d
000001c0: cd52 8f3c dc0e 6d3e 2720 f8bd 27ec acbd
000001d0: a0ab 0cbe 7d8f 2b3d 09ec cabd 601f 2c3d
000001e0: 3e70 8cbe cc56 ff3c 412e ec3d e966 e23d
000001f0: d336 0bbb 1bab 45be 6415 3ebe b47b 5dbe
00000200: 52a5 b43f 1695 843e 8205 923e 2562 01bf
00000210: cfb8 d1be c29f c93e 2efb 5d3e 81a1 e6be
00000220: f61a 863f 25f4 383e 5b67 753e 2d5d f0be
00000230: c456 b8be 6100 683d b4f2 2a3e 29d1 11be
00000240: 3837 a53e 3775 e7bd 6c60 273f d4e1 99be
00000250: 7d16 2abf 0a7f 5cbe 989f 4f3e c4ac 85be
00000260: 163d a33f 48cb 663e 093d d8bc 3e4f 1cbf
00000270: 76c4 92be d9f2 0b3f c421 a13e 6c71 78bf
00000280: 4536 0ebf cc3b 79bf 1c35 81bf f4d6 083e
00000290: e7fc 1b3f 1faf aa3e 2308 ee3d 7802 93be
000002a0: eec7 adbf f5d9 11be 8acf adbe 46ae df3d
000002b0: 34ce 203f 5432 b0be b190 c0bd b163 173f
000002c0: c0df ed3d f27b ea3e ddd4 663f 2183 653e
000002d0: 7f10 4ebe e414 91be e34b 233e 91e7 063f
000002e0: ebf1 973f cfa0 e03e 1326 9f3e fe58 b83e
000002f0: 20a2 29bf 23b0 4b3e a3b2 323e 750a e3be
00000300: ccc1 51be 140b 50be 6799 d2be fc25 78be
00000310: edce e53d 1e3d 56bd adc7 143d 413b b3bd
00000320: 715a 80bf 1a44 c9be 1951 4a3e ceb5 ee3d
00000330: 541b e23e 10cc d1be 4e8f 91be f29d 053f
00000340: 65a8 40be edac 64be a99c fc3e fa67 153f
00000350: 02c2 cbbe 842c 95be 0445 d0be 6bd6 b63e
00000360: 245a 533e b8cd 1dbe 9209 b03e ac54 6f3d
00000370: da42 ecbe 5abc 57be f087 923d 44aa 47be
00000380: d511 3c3e 4e3b 7cbe d461 38bc be24 ec3d
00000390: 503b 713e ba1a 1ebd 039e 1bbe cc94 26be
000003a0: a290 33bb 07dc 793e bb0b f23d 2a89 84be
000003b0: 1d8d 8ebe d5a8 76bd 029a 613e 389d 36bb
000003c0: 322c fe3b 419d 86be dc86 363d c97e 823d
000003d0: 2db6 cd3d bc67 30bd bd29 423d 9fcb e43b
000003e0: 56f2 d4bc de52 0cbf 3ee8 3d3d d00a aebd
000003f0: 0e36 083e 1beb 25bd 109c 943e 4cac 9a3c

stu.hidden.0.stu.M_phi_minus f4 [8, 16, 8]
-1.2031752 -0.46155676 1.1653763 -0.6576563 -0.68443793 -0.25229448 -0.31239057 0.26847017
-1.1936566 -0.73884916 0.44515494 -0.35500658 1.1548188 -0.583695 -0.96561116 -0.32835618
-0.45014128 -0.37778217 0.0973993 -0.6582331 0.87446254 -0.35861716 -0.13012154 0.034424424
-0.26359838 -0.03293282 1.1376817 -0.08754505 -0.66473556 -0.51935464 -0.4945148 -0.5634965
0.9525186 0.5338234 -0.3089579 0.41491285 -0.10005896 -0.21655256 0.13510822 -0.07164588
0.3403651 0.25141275 -0.30944696 -0.10422119 -0.0854501 0.41826797 0.18221557 -0.10592809
0.38636342 0.21725841 0.041876297 0.31292298 -0.2208573 0.42340195 0.068912305 0.13318706
-0.44330525 -0.3218483 0.23427348 -0.7862996 0.539019 0.16639894 0.3050193 -0.24303378
-0.06421328 0.1765926 -0.13468012 0.58430463 -0.4118217 0.25208315 -0.48960677 0.41085124
-0.3324153 -0.07704089 -0.13667196 -0.41132006 0.3480656 -0.0021096978 0.086469635 -0.15183155
0.34478393 0.022119736 0.104331054 0.39367998 -0.01168468 -0.17133357 0.04867541 -0.09904939
0.08667713 0.075870894 0.16917971 0.3058202 -0.5452018 -0.25889772 -0.1594592 -0.12680043
0.3286775 -0.08633499 0.25561193 0.4741457 -0.23611858 -0.26512513 -0.12588981 0.08619703
-0.20391352 -0.06425657 -0.26880386 -0.11392753 -0.16777003 0.32262954 0.17683052 0.0016909754
0.14068928 0.1596196 0.30711034 0.20256409 -0.02227982 -0.7129754 0.014561794 -0.14255968
0.05674597 -0.20221034 0.23696122 0.10889997 -0.066359654 -0.26344007 0.02896374 -0.0800854
-0.16567138 0.2338498 -0.29008716 0.29060307 0.19006535 0.09878613 -0.014270265 0.15446678
0.060534295 -0.029095896 -0.28744948 0.36837518 0.3979548 0.06852333 -0.39003903 -0.013691653
0.08980884 -0.10144899 0.041624907 0.525358 0.13220382 0.24482304 -0.92704123 0.102395184
-0.21788731 0.057850547 -0.6657175 0.259296 0.5835949 -0.003059314 -0.5854622 0.22713962
0.17725588 0.054051746 0.18630646 0.008036086 -0.37101898 -0.12252377 -0.05017152 -0.0202425
-0.26674515 -0.52765834 0.49940473 -0.13482706 0.22775288 0.013480905 0.06451458 -0.1608648
0.41341212 0.07777358 -0.36844867 0.2952864 -0.1000329 -0.22293018 -0.05461989 -0.11798523
-0.18855405 0.27889913 0.22102028 0.1456674 -0.12892962 0.031661514 -0.14279601 0.13370277
0.16388488 0.122681215 0.13260338 0.05968612 -0.09204096 -0.1989224 -0.19095303 0.04945882
-0.040322863 0.113963164 0.05399741 -0.17093016 -0.04134008 -0.35433578 -0.059853353 0.23490737
0.0740753 0.28307518 -0.09671644 -0.0453399 -0.04515081 -0.03620462 0.23594154 0.1405286
-0.30789623 -0.30362853 -0.005494115 -0.270873 0.34470245 -0.10064505 0.20351619 0.15160413
-0.21976937 -0.22538462 -0.11633365 -0.101718895 0.36230788 -0.49036616 0.40923205 -0.15466283
0.08941524 -0.26388165 -0.00803018 -0.01891469 0.015239021 0.21871021 -0.28445175 -0.0663018
-0.14937833 0.14707951 0.07872611 -0.06191773 0.09925718 -0.062068775 0.04757944 -0.113367125
-0.10402929 0.019493382 -0.06066684 -0.16090134 -0.079183586 -0.1408009 0.02057849 -0.07368504
00000000: a501 9abf 2b51 ecbe 0d2b 953f 2a5c 28bf
00000010: 5337 2fbf be2c 81be a8f1 9fbe ec74 893e
00000020: bdc9 98bf 3825 3dbf 59eb e33e 6cc3 b5be
00000030: 1ad1 933f 096d 15bf 4b32 77bf 4d1e a8be
00000040: eb78 e6be aa6c c1be 4979 c73d f781 28bf
00000050: c7dc 5f3f ab9c b7be 953e 05be a000 0d3d
00000060: 5ef6 86be 91e4 06bd 8e9f 913f d24a b3bd
00000070: 1c2c 2abf 6df4 04bf 0b31 fdbe 4e41 10bf
00000080: 42d8 733f a6a8 083f bb2f 9ebe 756f d43e
00000090: b6eb ccbd f4bf 5dbe cf59 0a3e 13bb 92bd
000000a0: 5644 ae3e 2cb9 803e d56f 9ebe eb71 d5bd
000000b0: 7600 afbd 3827 d63e b896 3a3e d4f0 d8bd
000000c0: 6dd1 c53e fd78 5e3e 7b86 2b3d 7137 a03e
000000d0: 6b28 62be 24c8 d83e e521 8d3d 3062 083e
000000e0: e8f8 e2be 4dc9 a4be 63e5 6f3e ee4a 49bf
000000f0: 26fd 093f 7c64 2a3e 7d2b 9c3e d9dd 78be
00000100: 4182 83bd b1d4 343e 96e9 09be fd94 153f
00000110: 4bda d2be 0b11 813e bdad fabe 185b d23e
00000120: 5732 aabe 9dc7 9dbd bcf3 0bbe 8b98 d2be
00000130: a835 b23e db42 0abb fe16 b13d bb79 1bbe
00000140: 8587 b03e 7334 b53c 85ab d53d 6c90 c93e
00000150: 1a71 3fbc 1172 2fbe de5f 473d 68da cabd
00000160: c783 b13d 3362 9b3d 723d 2d3e 7794 9c3e
00000170: 5892 0bbf 3e8e 84be 4649 23be f9d7 01be
00000180: 6b48 a83e 66d0 b0bd 91df 823e 3ac3 f23e
00000190: 12c9 71be 7bbe 87be 42e9 00be 1288 b03d
000001a0: b5ce 50be f398 83bd a9a0 89be d652 e9bd
000001b0: e8cb 2bbe b32f a53e 0f13 353e b8a3 dd3a
000001c0: da10 103e 5273 233e 913d 9d3e f66c 4f3e
000001d0: 2b84 b6bc 8e85 36bf 9794 6e3c 2afb 11be
000001e0: 766e 683d 3a10 4fbe f6a5 723e f306 df3d
000001f0: 92e7 87bd 9ee1 86be 5e45 ed3c d003 a4bd
00000200: c2a5 29be 5276 6f3e 4e86 94be edc9 943e
00000210: 7ea0 423e 6250 ca3d d4cd 69bc 8a2c 1e3e
00000220: cff2 773d 845a eebc 942c 93be ac9b bc3e
00000230: bbc0 cb3e f655 8c3d 32b3 c7be f452 60bc
00000240: b2ed b73d 7dc4 cfbd e17e 2a3d dd7d 063f
00000250: 7060 073e e4b2 7a3e 9352 6dbf 91b4 d13d
00000260: da1d 5fbe b2f4 6c3d 766c 2abf 72c2 843e
00000270: 7a66 153f c67e 48bb dae0 15bf 4a97 683e
00000280: 9182 353e 5d65 5d3d 1fc7 3e3e caa9 033c
00000290: 33f6 bdbe beed fabd a780 4dbd 99d3 a5bc
000002a0: d292 88be 9e14 07bf fab1 ff3e 1b10 0abe
000002b0: 0d38 693e 04df 5c3c 3820 843d beb9 24be
000002c0: c1aa d33e c147 9f3d 4ea5 bcbe c72f 973e
000002d0: 0dde ccbd cf47 64be 1bb9 5fbd 3ea2 f1bd
000002e0: 5014 41be decb 8e3e 2453 623e d629 153e
000002f0: 2006 04be 81af 013d 1e39 12be 61e9 083e
00000300: 70d1 273e 4a40 fb3d 2ec9 073e 6f79 743d
00000310: f97f bcbd 50b2 4bbe 3189 43be 5595 4a3d
00000320: 9629 25bd 8565 e93d 632c 5d3d 5108 2fbe
00000330: 3754 29bd 806b b5be ca28 75bd 8f8b 703e
00000340: cab4 973d 3bef 903e 4513 c6bd 55b6 39bd
00000350: 0ef0 38bd 4c4b 14bd a99a 713e bbe6 0f3e
00000360: 93a4 9dbe 3375 9bbe fa07 b4bb deaf 8abe
00000370: d77c b03e fe1e cebd 8c66 503e 1d3e 1b3e
00000380: 390b 61be 3acb 66be 5640 eebd ff51 d0bd
00000390: 6b80 b93e 4611 fbbe dd86 d13e ef5f 1ebe
000003a0: 561f b73d 7f1b 87be 0491 03bc fbf2 9abc
000003b0: 16ad 793c 92f5 5f3e a9a3 91be 3dc9 87bd
000003c0: a2f6 18be 039c 163e 283b a13d 729d 7dbd
000003d0: 5947 cb3d d43b 7ebd a9e2 423d 062d e8bd
000003e0: 4f0d d5bd 96b0 9f3c cb7d 78bd 52c3 24be
000003f0: 012b a2bd 1c2e 10be 3994 a83c 2fe8 96bd

stu.hidden.0.rn_2.weight f4 [8]
0.9535025 0.9919608 0.58722764 1.0492269 0.7379337 0.811495 0.8010015 0.8725852
00000000: bd18 743f 25f1 7d3f 8d54 163f 114d 863f
00000010: 39e9 3c3f 23be 4f3f 6f0e 4d3f be61 5f3f

stu.hidden.0.mlp.swiglu.w.weight f4 [32, 8]
-0.1304798 0.088416785 0.038433168 0.22787839 -0.13222094 0.18458198 -0.0043912907 0.1548492
-0.29167855 0.18166815 -0.028978221 -0.3419882 -0.4107291 0.27054834 -0.31352064 0.15162793
-0.38217124 -0.005645372 0.037821174 -0.15182957 0.10352551 0.11171845 0.1000923 -0.052877378
0.2558298 -0.17408669 0.15086192 -0.101043336 0.048791077 0.01269321 0.28112805 0.14473963
-0.20189671 0.052972488 -0.15969943 -0.2788005 0.3203317 0.15629388 0.14344205 0.10895137
0.09490394 -0.11579262 0.009277012 -0.54203683 0.3501775 0.0060389456 0.40447608 0.14161263
0.6278958 0.050257955 -0.37257516 -0.37915033 -0.24720767 0.61321366 0.39435115 0.2084792
0.1757127 0.083515376 -0.12297735 -0.32358086 -0.01226667 0.120428436 0.17969495 -0.15742521
-0.14501414 0.12521875 0.053145748 -0.35110882 0.17425598 -0.20129162 -0.1990486 -0.28936562
-0.9621071 -0.4656176 -0.029791523 0.2018963 -0.52265537 -0.08486768 0.0049104625 0.392307
0.72442377 0.07624429 -0.013120614 -0.014290391 -0.10607439 0.020107357 -0.09512445 -0.2662212
-0.05038894 -0.14994219 -0.31478372 0.05285815 -0.34680694 0.13929008 0.3647842 -0.13809477
-0.09759625 0.2773556 -0.46443093 -0.488121 -0.16719478 0.24294345 0.02727213 -0.01597398
-0.45768684 -0.031570356 0.26032788 -0.057744153 0.22409125 0.14108326 0.058695108 0.23539005
-0.09920801 -0.32835335 0.109232165 0.1354565 -0.27192774 -0.24165781 -0.40993327 -0.12193615
-0.10538205 -0.12387123 -0.10628932 0.10788552 0.038120348 0.2747756 0.02715821 -0.17955987
0.10378762 0.14577538 -0.2571236 -0.055896703 -0.08601971 -0.041454434 -0.1720327 0.1869469
-0.069307454 0.34873477 0.37506947 -0.22135785 0.22347617 0.45870638 0.46202928 0.28895625
-0.13337243 0.09057122 -0.030233977 -0.087667115 -0.061003096 0.20451169 -0.055949688 -0.32403675
0.15666556 0.14287217 0.019784702 0.09962676 -0.14236546 -0.07701586 -0.07728462 -0.04162258
0.1075251 0.37800297 0.15061083 0.39528996 -0.16898993 -0.559033 -0.28228915 0.42553473
-0.24236964 -0.029370077 -0.078317456 0.13795207 0.00816401 0.06430679 -0.2628166 0.5469869
-0.024618125 -0.6767486 -0.24261211 0.17753465 0.61909604 -0.17666979 0.16064455 0.3129881
0.19506632 0.16607116 -0.38041052 0.20648691 0.02145318 0.50533324 0.2409673 -0.04270256
0.19059037 -0.023332994 0.35145473 0.027993083 -0.22833247 -0.35124958 0.12862422 0.22102731
0.015315409 -0.25349247 -0.2193783 0.10141179 -0.23115578 0.1683753 -0.12504618 -0.06268827
-0.0858281 -0.26659104 0.17217647 -0.03785993 -0.3920484 -0.38972017 0.25625953 -0.14206964
0.104753636 8.018172e-05 -0.028429478 0.04942436 0.23363732 -0.119979955 0.016017692 0.04456541
-0.21547467 0.06111841 -0.030554324 0.051816966 -0.21161069 0.34276477 0.2910103 -0.10524522
-3.9391045e-05 -0.20964816 0.3333875 -0.15911917 0.08837103 -0.21006373 0.23703867 -0.20844308
0.16743413 -0.34998453 0.35917556 -0.2939435 0.14214782 0.24900788 0.46597597 -0.50056505
0.02218737 0.32297525 -0.37685546 -0.06856094 0.18858469 0.21108046 0.19648468 0.050990973
00000000: 7f9c 05be dc13 b53d 196c 1d3d f458 693e
00000010: ed64 07be 0f03 3d3e d1e4 8fbb ca90 1e3e
00000020: e456 95be 3707 3a3e bc63 edbc 1419 afbe
00000030: 164b d2be 5085 8a3e c785 a0be 5a44 1b3e
00000040: f3ab c3be d0fc b8bb 60ea 1a3d 3679 1bbe
00000050: 2f05 d43d a5cc e43d 31fd cc3d f395 58bd
00000060: 20fc 823e c843 32be 8c7b 1a3e cfef cebd
00000070: 27d9 473d 2ef7 4f3c 04f0 8f3e a036 143e
00000080: 03be 4ebe aef9 583d 3f88 23be f0be 8ebe
00000090: 8402 a43e 810b 203e 79e2 123e e521 df3d
000000a0: ff5c c23d ae24 edbd 9cfe 173c edc2 0abf
000000b0: 774a b33e 59e2 c53b 7d17 cf3e e702 113e
000000c0: c7bd 203f 49db 4d3d 2cc2 bebe fe1f c2be
000000d0: 0224 7dbe 92fb 1c3f 65e8 c93e 927b 553e
000000e0: 08ee 333e 1c0a ab3d 8ddb fbbd 64ac a5be
000000f0: 25fa 48bc 2fa3 f63d f401 383e 1334 21be
00000100: 967e 14be 5839 003e 5baf 593d 89c4 b3be
00000110: 2970 323e 641f 4ebe 65d3 4bbe bb27 94be
00000120: a74c 76bf 6e65 eebe 5a0d f4bc e7bd 4e3e
00000130: becc 05bf 1bcf adbd f2e7 a03b 77dc c83e
00000140: d673 393f f725 9c3d d8f7 56bc 3e22 6abc
00000150: 883d d9bd 2fb8 a43c 9cd0 c2bd 254e 88be
00000160: a264 4ebd 728a 19be 552b a1be ca81 583d
00000170: ae90 b1be 0fa2 0e3e ffc4 ba3e b768 0dbe
00000180: 8be0 c7bd 8e01 8e3e e4c9 edbe ffea f9be
00000190: 1c35 2bbe 2bc6 783e cd69 df3c dddb 82bc
000001a0: ee55 eabe eb4f 01bd b249 853e 2285 6cbd
000001b0: 2d78 653e 2178 103e 486a 703d 170a 713e
000001c0: 922d cbbd ee1d a8be 1db5 df3d 1cb5 0a3e
000001d0: 1d3a 8bbe 2575 77be c6e2 d1be a9b9 f9bd
000001e0: 8bd2 d7bd 33b0 fdbd 37ae d9bd 15f3 dc3d
000001f0: 1524 1c3d 63af 8c3e e57a de3c 8bde 37be
00000200: 9b8e d43d 2446 153e b4a5 83be f1f3 64bd
00000210: 1a2b b0bd 20cc 29bd 5729 30be 026f 3f3e
00000220: 11f1 8dbd 5d8d b23e 1b09 c03e a2ab 62be
00000230: f0d6 643e 90db ea3e 1a8f ec3e 13f2 933e
00000240: c892 08be 677d b93d 3fad f7bc d18a b3bd
00000250: 62de 79bd 836b 513e 802b 65bd 25e8 a5be
00000260: f06c 203e 154d 123e 8713 a23c 1d09 cc3d
00000270: 40c8 11be 7eba 9dbd 6647 9ebd 707c 2abd
00000280: 1f36 dc3d 9b89 c13e ba39 1a3e 7263 ca3e
00000290: b20b 2dbe c91c 0fbf 3488 90be b0df d93e
000002a0: bf2f 78be 8499 f0bc e764 a0bd 4f43 0d3e
000002b0: 57c2 053c 47b3 833d e68f 86be 5507 0c3f
000002c0: f3ab c9bc 653f 2dbf 4f6f 78be a5cb 353e
000002d0: 147d 1e3f ede8 34be 0180 243e fa3f a03e
000002e0: 77bf 473e 8f0e 2a3e 2bc5 c2be 4e71 533e
000002f0: 94be af3c 855d 013f 22c0 763e e1e8 2ebd
00000300: 1f2a 433e d624 bfbc e0f1 b33e c051 e53c
00000310: fdcf 69be fcd6 b3be 11b6 033e fc54 623e
00000320: 7bed 7a3c c4c9 81be b4a4 60be fcb0 cf3d
00000330: 1ab4 6cbe 936a 2c3e 1b0c 00be b562 80bd
00000340: a5c6 afbd 9f7e 88be 074f 303e 0413 1bbd
00000350: 91ba c8be 6789 c7be 7334 833e b47a 11be
00000360: 1389 d63d 3c27 a838 f0e4 e8bc 3371 4a3d
00000370: 9f3e 6f3e 0db8 f5bd 8937 833c 388a 363d
00000380: 64a5 5cbe 4c57 7a3d 104d fabc 073e 543d
00000390: 79b0 58be dd7e af3e 4dff 943e ce8a d7bd
000003a0: d037 25b8 02ae 56be c4b1 aa3e 23f0 22be
000003b0: dffb b43d f21a 57be 44ba 723e 1a72 55be
000003c0: da73 2b3e 2c31 b3be dce5 b73e c37f 96be
000003d0: 338f 113e ecfb 7e3e 6794 ee3e 0825 00bf
000003e0: 4ac2 b53c 035d a53e 33f3 c0be ae69 8cbd
000003f0: 581c 413e 7a25 583e 4833 493e e9db 503d

stu.hidden.0.mlp.swiglu.v.weight f4 [32, 8]
-0.28519508 -0.056317285 -0.07786247 -0.062350523 -0.2076693 0.10790279 -0.030314814 -0.1743419
-0.49157894 -0.07261402 0.12828553 -0.39241585 -0.27576008 0.23709175 -0.07517138 0.27647507
-0.032756932 0.059002463 -0.08595341 0.2438415 -0.30234498 -0.2437279 -0.21361741 -0.024753649
0.2475863 0.19896734 -0.056554306 0.24683385 0.1411777 -0.108056374 -0.19318914 -0.11097153
0.1310547 0.17897394 0.11147088 0.34860486 -0.35618517 -0.2792667 -0.3131266 -0.19538963
0.12483078 0.2027061 -0.037422013 0.34798694 -0.360284 -0.07355394 -0.45742974 -0.16651283
0.06788765 -0.27352923 -0.07717656 0.20094264 -0.13939352 -0.26622432 -0.30820987 0.52897674
0.015600559 0.08790244 0.19414394 -0.001272204 0.12864059 -0.17899744 -0.3601161 -0.11519576
-0.38170496 -0.21536288 -0.004255281 0.10673343 0.066319406 0.095447265 -0.11017582 0.015994038
-0.008881266 -0.17791133 -0.075045735 -0.4140439 0.092038035 0.8027497 0.5858417 -0.16901143
0.06585477 0.03983264 0.16556141 -0.0057970565 0.040304415 0.28658476 0.15693289 -0.17032027
0.007896057 -0.22531612 0.22330719 0.11850792 -0.17014453 -0.21601348 0.045974538 -0.012178914
0.31815103 0.51487607 0.015390095 0.21159019 -0.17950596 -0.36110756 -0.088477515 -0.064180106
0.14122654 0.11702485 0.031207668 -0.1996576 0.035307936 0.3450591 0.24239591 0.2697979
0.29464447 -0.025026493 0.15347274 0.09592942 -0.26388043 0.037735958 0.10213218 0.014206339
0.16133769 0.042931747 0.11599465 0.22080193 -0.13221441 -0.035723988 -0.25398007 -0.1691543
0.21568324 -0.060901567 -0.119109355 -0.22964512 0.1214073 -0.2780847 0.062267132 -0.020172201
-0.34763673 0.34281152 0.31244797 -0.11564074 0.17678513 0.03207102 0.23954968 0.32744026
0.25468662 0.25359455 -0.1439441 0.005448735 0.11049789 -0.13437608 -0.004324569 0.0065468093
0.046383876 -0.010842742 -0.02456941 -0.41428733 0.11854298 -0.111190885 -0.025748964 -0.1188925
-0.8212018 -0.17817236 -0.34993833 -0.1369564 0.45903328 0.077130735 0.33416495 0.3841852
-0.04156665 -0.05513957 0.061038174 0.1368508 -0.22501725 0.49597335 -0.32145897 0.19592214
-0.2591329 0.5149034 0.12599257 -0.1772978 -0.35616967 0.3578351 -0.11303241 0.070774116
-0.6423886 -0.4810839 -0.20202164 0.23703003 0.22163276 0.13641125 0.10006944 0.18033794
-0.11615778 0.11943649 -0.06683067 -0.010636217 -0.12225534 0.5197644 0.14110869 -0.004181545
-0.09763198 -0.35033667 0.048886623 0.18079056 -0.12553538 -0.011058859 -0.17436421 -0.15538199
0.16684751 -0.14028618 -0.080359235 0.08468095 -0.010698373 -0.009455343 -0.22885692 -0.018555447
0.059915997 -0.058873642 0.12285933 -0.17419605 -0.11810098 -0.04039797 0.17649293 -0.0065431665
-0.04450022 -0.63631475 0.048657514 0.07194486 -0.31918982 0.09119618 0.16217715 -0.116508566
-0.21372665 -0.13917062 -0.22050816 0.27389774 -0.021585943 -0.125498 -0.12913641 0.10750719
-0.08901134 -0.42029408 0.28489003 -0.18445484 -0.1412451 -0.055461362 0.17796654 -0.42509812
-0.14387631 -0.5271092 -0.17670688 -0.152583 0.07991747 0.0013766141 0.07876624 0.2202428
00000000: 1705 92be f4ac 66bd 5c76 9fbd 4363 7fbd
00000010: 43a7 54be 23fc dc3d c656 f8bc af86 32be
00000020: 3cb0 fbbe a9b6 94bd 485d 033e bbea c8be
00000030: 6d30 8dbe 2ec8 723e 74f3 99bd 248e 8d3e
00000040: 222c 06bd 91ac 713d 5708 b0bd 96b1 793e
00000050: f6cc 9abe ce93 79be 86be 5abe 2ac8 cabc
00000060: 4387 7d3e 18be 4b3e 7da5 67bd 03c2 7c3e
00000070: e390 103e a94c ddbd 60d3 45be 0b45 e3bd
00000080: 3433 063e f244 373e d84a e43d 567c b23e
00000090: e75d b6be 0bfc 8ebe 2152 a0be 3814 48be
000000a0: 48a7 ff3d 3092 4f3e d347 19bd 582b b23e
000000b0: 2577 b8be 73a3 96bd 3b34 eabe 5782 2abe
000000c0: ae08 8b3d 060c 8cbe bf0e 9ebd e8c3 4d3e
000000d0: 2dbd 0ebe 8e4e 88be afcd 9dbe 056b 073f
000000e0: 7d99 7f3c 3206 b43d abcd 463e 15c0 a6ba
000000f0: 5cba 033e 1b4b 37be 2361 b8be c1eb ebbd
00000100: d56e c3be 1688 5cbe e26f 8bbb 0e97 da3d
00000110: 78d2 873d db79 c33d dca3 e1bd ee05 833c
00000120: bb82 11bc 632e 36be 94b1 99bd 90fd d3be
00000130: 707e bc3d 0181 4d3f b9f9 153f 5511 2dbe
00000140: dede 863d 8d27 233d ee88 293e 3cf5 bdbb
00000150: 3e16 253d 3dbb 923e 04b3 203e 7068 2ebe
00000160: 775e 013c 45b9 66be a4aa 643e 48b4 f23d
00000170: 5e3a 2ebe a332 5dbe cc4f 3c3d 118a 47bc
00000180: b1e4 a23e ebce 033f bd26 7c3c 19ab 583e
00000190: 69d0 37be 17e3 b8be b333 b5bd dc70 83bd
000001a0: b19d 103e b9aa ef3d 39a7 ff3c 0b73 4cbe
000001b0: 0e9f 103d 96ab b03e a236 783e f322 8a3e
000001c0: a4db 963e 5c04 cdbc f527 1d3e a576 c43d
000001d0: 561b 87be 0591 1a3d ad2a d13d b4c1 683c
000001e0: b535 253e 33d9 2f3d 9a8e ed3d e719 623e
000001f0: 3763 07be 5153 12bd ad09 82be c936 2dbe
00000200: 11dc 5c3e ec73 79bd 9bef f3bd 1728 6bbe
00000210: 64a4 f83d 1e61 8ebe d20b 7f3d 2c40 a5bc
00000220: 71fd b1be fe84 af3e 2ef9 9f3e 0dd5 ecbd
00000230: 2907 353e e75c 033d 834c 753e 40a6 a73e
00000240: 4966 823e 25d7 813e 1566 13be 4d8b b23b
00000250: b84c e23d e299 09be 1db5 8dbb 9e86 d63b
00000260: 05fd 3d3d c2a5 31bc ca45 c9bc 781d d4be
00000270: a9c6 f23d 0cb8 e3bd 7eef d2bc e97d f3bd
00000280: 483a 52bf d172 36be 1e2b b3be 4c3e 0cbe
00000290: 6906 eb3e b8f6 9d3d ab17 ab3e ecb3 c43e
000002a0: cb41 2abd 08da 61bd 2a03 7a3d 9e22 0c3e
000002b0: ec6a 66be 38f0 fd3e 4596 a4be d09f 483e
000002c0: 11ad 84be b6d0 033f 3204 013e 8e8d 35be
000002d0: df5b b6be 2a36 b73e 897d e7bd 05f2 903d
000002e0: 9473 24bf a150 f6be c3de 4ebe 00b8 723e
000002f0: b3f3 623e 64af 0b3e 35f1 cc3d 82aa 383e
00000300: 21e4 edbd 1e9b f43d 85de 88bd 8743 2ebc
00000310: 0261 fabd 480f 053f cc7e 103e 5805 89bb
00000320: 47f3 c7bd 545f b3be 573d 483d 2921 393e
00000330: 598c 00be 3730 35bc 888c 32be 751c 1fbe
00000340: 13da 2a3e 2ea7 0fbe 6293 a4bd 356d ad3d
00000350: 3b48 2fbc 95ea 1abc 7859 6abe 9801 98bc
00000360: 7a6a 753d 7d25 71bd ac9d fb3d 7360 32be
00000370: edde f1bd 5778 25bd 90ba 343e 0f68 d6bb
00000380: dd45 36bd 86e5 22bf 1a4d 473d d457 933d
00000390: d96c a3be 10c5 ba3d c411 263e 0b9c eebd
000003a0: 29db 5abe be82 0ebe e4cc 61be 533c 8c3e
000003b0: 01d5 b0bc 8c82 00be 563c 04be bb2c dc3d
000003c0: 944b b6bd c930 d7be 1bdd 913e bbe1 3cbe
000003d0: 8ea2 10be 742b 63bd dc3c 363e 76a6 d9be
000003e0: 5054 13be a1f0 06bf a6f2 34be b83e 1cbe
000003f0: c5ab a33d 816f b43a 3250 a13d 5487 613e

stu.hidden.0.mlp.swiglu.w2.weight f4 [8, 32]
0.09523187 0.3056864 -0.2664117 0.004084865 -0.40115386 -0.10835037 0.37169585 -0.147697
0.13139893 0.23523353 -0.38305676 -0.12634093 -0.38467032 -0.05244912 0.081830144 -0.1961822
-0.0073701343 0.18735573 -0.34398177 -0.090693444 -0.5733706 0.020992512 0.3871206 0.49742454
-0.11649503 -0.060374673 -0.16816275 0.21312061 0.15159144 0.14045943 0.15948348 0.4559898
-0.19260782 -0.035452574 -0.21292795 -0.32901132 -0.33753484 -0.31208873 -0.14042296 -0.096347384
-0.060032524 0.5945822 0.24566206 0.06414348 -0.15682472 -0.059176784 -0.28013182 -0.28506878
0.22947638 -0.2953647 0.07577919 0.008988358 -0.26747495 0.10491974 -0.583662 0.2806077
-0.19472232 0.108179346 0.1861458 -0.39314768 0.4574653 -0.10015944 0.45582163 0.058728274
0.02296282 0.20729639 0.37629485 0.09599411 0.012239862 0.2724886 0.13299602 -0.1519527
0.1268033 -0.70153564 0.061039023 -0.21447863 -0.3247128 -0.30151656 -0.2372832 0.04790495
-0.2810978 -0.45388222 0.096151285 0.04577285 0.36857504 0.10241118 0.18265083 0.33486387
-0.41403323 -0.070056885 0.0355393 0.106363416 0.031817947 0.1668196 -0.32566345 0.207251
-0.113186955 0.25861683 -0.31493822 -0.13601883 -0.50877696 -0.33415502 -0.42755663 -0.14159437
0.050804753 -0.12760034 -0.10979492 -0.19611463 -0.53218794 0.12743881 -0.08483083 -0.17438942
-0.13489248 0.14607932 -0.31304383 -0.2630119 -0.5084691 -0.10199394 0.17955984 0.03303446
-0.08676425 -0.013912698 0.07691952 -0.08082942 0.062448487 -0.15403096 0.2812484 0.01089709
0.24361573 0.2690343 -0.09242178 -0.19524488 -0.057826813 -0.035977837 -0.23776422 0.15113589
-0.21883567 0.036729187 -0.01336946 0.13734986 -0.15969022 0.21016344 -0.036538918 0.019405812
-0.11768218 -0.01701901 -0.16240132 0.019444803 0.040222198 0.0629737 0.4550546 0.17829102
0.019084396 0.3293037 -0.08724558 0.025451671 0.52037776 -0.12851557 0.1938006 -0.15704334
-0.08953425 -0.036514122 0.15440546 -0.08021405 0.16648169 -0.23351696 0.24351087 0.02988518
0.141425 -0.23175395 0.18352893 0.16911356 0.3666018 -0.19550139 -0.04964614 0.1720989
-0.09502389 0.037299283 0.021775125 -0.12484713 0.03967744 -0.20039622 -0.39854947 -0.35744524
0.15355529 -0.012780211 -0.09221912 -0.0070396005 -0.06595505 0.1316113 0.3606805 -0.24091282
-0.028545698 0.36721772 0.28303233 0.30342934 0.23859835 0.5029723 0.21370517 0.28145418
0.16607791 -0.1982586 -0.02243575 -0.052184775 0.010945589 -0.12560147 -0.12514687 0.13327678
-0.09056195 -0.1607903 -0.03580455 0.03589762 0.44623968 0.19240084 0.38741526 0.04304645
0.270522 -0.12716265 0.08853978 -0.08765808 0.17828661 -0.07732514 -0.1486842 -0.086059265
-0.03246526 -0.08680579 0.08021752 0.1874715 0.42578456 0.39597246 -0.21899769 -0.26133916
0.4271787 0.31730047 -0.119646505 -0.23646745 0.11663693 -0.56439507 -0.27488327 0.06935784
0.08493861 -0.3989371 -0.166162 -0.12456502 -0.10039437 -0.64433473 -0.1093256 -0.18576987
0.03700604 -0.25636163 -0.15529962 -0.011514468 0.00079389464 0.24758853 0.49176288 -0.023528388
00000000: ed08 c33d ee82 9c3e 1d67 88be 55da 853b
00000010: 0a64 cdbe cce6 ddbd eb4e be3e e23d 17be
00000020: 718d 063e 0fe1 703e 0420 c4be 845f 01be
00000030: 82f3 c4be e3d4 56bd 9096 a73d fde3 48be
00000040: 2b81 f1bb 2eda 3f3e 611e b0be 7cbd b9bd
00000050: 6ac8 12bf 7df8 ab3c ac34 c63e 6eae fe3e
00000060: f294 eebd 6f4b 77bd db32 2cbe 4a3c 5a3e
00000070: c93a 1b3e 99d4 0f3e a34f 233e 7f77 e93e
00000080: fc3a 45be b836 11bd c909 5abe 2c74 a8be
00000090: 5ed1 acbe 18ca 9fbe 09cb 0fbe c751 c5bd
000000a0: aae4 75bd 8a36 183f d68e 7b3e a85d 833d
000000b0: a996 20be 5b63 72bd 706d 8fbe 89f4 91be
000000c0: dbfb 6a3e 0b3a 97be 1f32 9b3d e843 133c
000000d0: 7af2 88be 29e0 d63d df6a 15bf d0ab 8f3e
000000e0: 4a65 47be 228d dd3d 019d 3e3e a74a c9be
000000f0: e438 ea3e 6420 cdbd 7461 e93e 0f8d 703d
00000100: 861c bc3c 8145 543e b8a9 c03e 8f98 c43d
00000110: b489 483c a083 8b3e 1c30 083e 7d99 1bbe
00000120: b9d8 013e d797 33bf 0e04 7a3d 49a0 5bbe
00000130: c240 a6be 6160 9abe 5efa 72be fb37 443d
00000140: 0dec 8fbe 4063 e8be f7ea c43d 507c 3b3d
00000150: deb5 bc3e f4bc d13d d208 3b3e 4773 ab3e
00000160: 2afc d3be fc79 8fbd a891 113d 10d5 d93d
00000170: 8953 023d c2d2 2a3e 5cbd a6be 9b39 543e
00000180: 90ce e7bd 6d69 843e 953f a1be 8548 0bbe
00000190: 353f 02bf 5e16 abbe b4e8 dabe 1dfe 10be
000001a0: a518 503d aaa9 02be 29dc e0bd 46d2 48be
000001b0: 783d 08bf 527f 023e c9bb adbd 2493 32be
000001c0: 4121 0abe d195 153e 4847 a0be 7fa9 86be
000001d0: 082b 02bf 33e2 d0bd 89de 373e 244f 073d
000001e0: 75b1 b1bd 16f2 63bc fb87 9d3d e589 a5bd
000001f0: fcc9 7f3d 4bba 1dbe caff 8f3e b589 323c
00000200: 6776 793e ddbe 893e a147 bdbd 46ee 47be
00000210: cfdb 6cbd 7f5d 13bd 7778 73be 5ec3 1a3e
00000220: 7516 60be 5871 163d 940b 5bbc 71a5 0c3e
00000230: d585 23be 1635 573e d5a9 15bd f0f8 9e3c
00000240: 5b03 f1bd 736b 8bbc 884c 26be b54a 9f3c
00000250: 08c0 243d 5bf8 803d ebfc e83e ec91 363e
00000260: e156 9c3c 7f9a a83e d0ad b2bd 0680 d03c
00000270: 7a37 053f 9699 03be aa73 463e f8cf 20be
00000280: bc5d b7bd d58f 15bd 771c 1e3e 4447 a4bd
00000290: 2d7a 2a3e 121f 6fbe ea5a 793e c4d1 f43c
000002a0: b7d1 103e e850 6dbe 02ef 3b3e 1b2c 2d3e
000002b0: 3bb3 bb3e 8431 48be c059 4bbd b23a 303e
000002c0: e39b c2bd 22c7 183d bf61 b23c daaf ffbd
000002d0: d084 223d ab34 4dbe ad0e ccbe 1003 b7be
000002e0: 993d 1d3e 1764 51bc 61dd bcbd 73ac e6bb
000002f0: 7113 87bd 1dc5 063e 1dab b83e dab1 76be
00000300: abd8 e9bc f603 bc3e 9de9 903e 175b 9b3e
00000310: 2053 743e cbc2 003f 87d5 5a3e c31a 903e
00000320: 5410 2a3e 4d04 4bbe 2ecb b7bc b4bf 55bd
00000330: 2155 333c ac9d 00be 8026 00be b579 083e
00000340: 8b78 b9bd 36a6 24be cba7 12bd 6209 133d
00000350: 8779 e43e ba04 453e 4b5b c63e 7951 303d
00000360: dc81 8a3e ed36 02be 5854 b53d 1486 b3bd
00000370: c490 363e a55c 9ebd ac40 18be d73f b0bd
00000380: 4bfa 04bd 3cc7 b1bd 1549 a43d 87f8 3f3e
00000390: 6f00 da3e e7bc ca3e ee40 60be 3fce 85be
000003a0: 2bb7 da3e 3575 a23e 3a09 f5bd 8624 72be
000003b0: 58df ee3d 327c 10bf 80bd 8cbe 7c0b 8e3d
000003c0: 4bf4 ad3d 7c41 ccbe 5f26 2abe f21b ffbd
000003d0: 909b cdbd 1ff3 24bf 1ae6 dfbd 753a 3ebe
000003e0: a593 173d d541 83be dd06 1fbe 2ea7 3cbc
000003f0: 5e1d 503a d987 7d3e 58c8 fb3e 9bbe c0bc

stu.hidden.1.rn_1.weight f4 [8]
0.6507101 0.72066414 0.67003715 0.86549395 0.63866293 0.6780851 0.8120316 0.67364323
00000000: f094 263f 727d 383f 8e87 2b3f 0391 5d3f
00000010: 6a7f 233f fc96 2d3f 4ee1 4f3f e273 2c3f

stu.hidden.1.stu.M_u f4 [8, 3, 8]
-0.5517492 0.09255584 -0.09216725 0.08624873 -0.113513045 -0.04166432 -0.0515209 -0.056870606
-0.07819003 -0.053955313 -0.27883142 0.185372 0.018944232 -0.123997554 0.011503966 0.24550043
0.008787933 0.029628754 0.02523525 0.041650962 0.033912666 0.09292395 0.056249954 -0.06809749
0.23280993 -0.39755654 0.06099983 0.011494966 0.3516384 -0.25942123 0.16942665 0.1494323
-0.1507958 -0.47715905 0.08167207 0.1424407 -0.21023671 -0.19075331 -0.1675939 -0.08817664
-0.06915393 -0.09795261 -0.047152266 0.18708305 0.20502363 0.15056676 0.019053843 -0.07751536
-0.016613558 -0.039454274 -0.3321126 0.037362933 0.12942879 -0.0878079 -0.059325334 -0.10476987
-0.029500382 -0.0069304975 -0.1853683 0.078719996 -0.1427455 -0.06307192 -0.09783903 -0.13467531
0.107061096 0.039141934 -0.2913495 -0.04377613 -0.17190999 0.098381914 -0.13313518 -0.113976665
0.109676264 0.2615022 -0.102242775 -0.54406005 -0.10461438 0.14536543 -0.051789403 -0.006574968
0.047728673 0.16710088 -0.03496086 -0.10419422 0.10741755 -0.069203585 -0.079709396 -0.08493074
-0.035337918 -0.07119826 0.035710216 -0.12445913 0.022146955 -0.16353048 -0.2131943 -0.07319574
-0.34308085 -0.15957034 0.12795548 0.09805266 -0.449855 -0.0636963 0.118687645 0.16889293
0.16228431 0.11269975 0.0999421 -0.056938242 -0.4831429 -0.18002366 -0.09760868 0.09465114
-0.11702927 -0.054156885 0.19935167 -0.016335217 -0.11321049 -0.047485065 0.18922974 -0.18956405
0.1364283 0.045053504 -0.030785915 -0.054482687 0.07046243 -0.3674728 0.013422064 0.15589705
-0.09245575 -0.17255254 -0.24046771 0.11897848 0.12005948 -0.27771404 0.027245494 0.052488286
-0.051122714 -0.16493064 -0.012608728 0.024347307 -0.20118445 -0.06876529 0.17004384 0.1635179
-0.13926335 -0.14972425 -0.006768717 -0.024446815 0.040664952 0.12038842 -0.77220875 -0.013208178
0.28737807 0.047714364 0.09508474 -0.0033575378 -0.1530157 -0.089914456 -0.18320163 0.14535251
-0.10183971 -0.152513 0.18042774 0.061114565 0.070098914 0.040567815 -0.122193515 0.04096348
-0.20377609 0.032247826 0.1332447 0.23497954 0.04520442 -0.02735438 -0.1685429 -0.5816811
-0.0070779026 0.16405626 0.30198318 -0.14909898 0.07167724 0.035701238 -0.09067019 -0.28039068
-0.013639391 0.01301063 0.08733199 -0.030659411 -0.13723211 -0.11676345 -0.14044872 -0.40533838
00000000: 703f 0dbf eb8d bd3d 2fc2 bcbd 2da3 b03d
00000010: 8779 e8bd 35a8 2abd 9407 53bd 27f1 68bd
00000020: 1822 a0bd 3f00 5dbd fec2 8ebe 28d2 3d3e
00000030: ef30 9b3c 6ef2 fdbd 217b 3c3c 7764 7b3e
00000040: 43fb 0f3c 00b8 f23c 28ba ce3c 339a 2a3d
00000050: 02e8 0a3d e94e be3d 5a66 663d b276 8bbd
00000060: ba65 6e3e 888c cbbe f5da 793d 6255 3c3c
00000070: f309 b43e dcd2 84be 2e7e 2d3e c804 193e
00000080: 376a 1abe 314e f4be b043 a73d fadb 113e
00000090: 4b48 57be d654 43be bc9d 2bbe f495 b4bd
000000a0: 93a0 8dbd 619b c8bd bc22 41bd b392 3f3e
000000b0: b7f1 513e 2c2e 1a3e ce16 9c3c 60c0 9ebd
000000c0: 2819 88bc ce9a 21bd aa0a aabe e009 193d
000000d0: fb88 043e a1d4 b3bd 1fff 72bd 9691 d6bd
000000e0: c9aa f1bc 3a19 e3bb 30d1 3dbe f337 a13d
000000f0: e02b 12be da2b 81bd d45f c8bd 53e8 09be
00000100: d942 db3d 4b53 203d c32b 95be 994e 33bd
00000110: 2c09 30be 757c c93d 9754 08be 996c e9bd
00000120: f39d e03d 9ee3 853e a964 d1bd 8547 0bbf
00000130: 1040 d6bd adda 143e 2021 54bd d472 d7bb
00000140: 247f 433d 7e1c 2b3e 1e33 0fbd c763 d5bd
00000150: bcfd db3d 9cba 8dbd ae3e a3bd 2bf0 adbd
00000160: 7ebe 10bd 65d0 91bd e044 123d 6ee4 febd
00000170: 886d b53c 8974 27be 9b4f 5abe a6e7 95bd
00000180: 4ba8 afbe 6866 23be c306 033e d5cf c83d
00000190: 6553 e6be 3573 82bd 8212 f33d 45f2 2c3e
000001a0: dc2d 263e 20cf e63d 72ae cc3d 1338 69bd
000001b0: 825e f7be 1f58 38be 0fe7 c7bd 75d8 c13d
000001c0: 0bad efbd 9cd3 5dbd d822 4c3e 6fd1 85bc
000001d0: e7da e7bd b37f 42bd 71c5 413e 141d 42be
000001e0: dcb3 0b3e 068a 383d be32 fcbc 3d29 5fbd
000001f0: 9b4e 903d 6525 bcbe 37e8 5b3c 7aa3 1f3e
00000200: 7159 bdbd 9db1 30be 2b3d 76be fdaa f33d
00000210: bfe1 f53d 8930 8ebe f131 df3c f5fd 563d
00000220: 0d66 51bd 94e3 28be d794 4ebc 0174 c73c
00000230: 4c03 4ebe d1d4 8cbd f91f 2e3e 3d71 273e
00000240: 0d9b 0ebe 5051 19be 1dcc ddbb b044 c8bc
00000250: 4b90 263d 348e f63d 79af 45bf 1d67 58bc
00000260: 3823 933e 2370 433d cabb c23d 230a 5cbb
00000270: 26b0 1cbe 1225 b8bd 3599 3bbe 4ad7 143e
00000280: 5691 d0bd 5e2c 1cbe 0dc2 383e 4453 7a3d
00000290: 0590 8f3d 702a 263d 9840 fabd 52c9 273d
000002a0: aeaa 50be 4c16 043d 4c71 083e 7a9e 703e
000002b0: 4528 393d 4b16 e0bc 8396 2cbe 0de9 14bf
000002c0: c0ed e7bb 5dfe 273e 8a9d 9a3e 67ad 18be
000002d0: 84cb 923d 763b 123d 4bb1 b9bd 5e8f 8fbe
000002e0: c177 5fbc 8a2a 553c 1ddb b23d 7229 fbbc
000002f0: 9386 0cbe ad21 efbd cad1 0fbe 8388 cfbe
