checkpoints/sssm-Walker2D-v1-model_step-700-2024-11-18-15-48-05.pt (torch, 229946 bytes, 18 tensors)

emb.weight f4 [24, 24]
000000 98 74 92 be b8 5c 52 3d 70 ed db bd fe 78 9c 3d
       -0.2860458 0.051357955 -0.10738647 0.07640265
000010 a0 73 91 ba 83 51 10 3e 23 19 d1 be 7e 38 8e bc
       -0.0011097081 0.14093594 -0.4083949 -0.017360922
000020 c4 3a 14 bd 9b 0c 43 be 54 e0 89 be e4 9a 53 3e
       -0.036188856 -0.19047777 -0.2692896 0.20664555
000030 0e 6c 34 3d 53 73 fa 3d 1a 12 8b 3e 6f c6 49 be
       0.04404836 0.122290276 0.27162248 -0.19704603
000040 12 c6 22 3e 43 b7 55 3d e5 81 b3 3b 0a 70 f3 bd
       0.1589587 0.052176725 0.005478131 -0.11886604
000050 29 70 78 3c 00 3c 5c be c4 79 42 bc a1 97 c6 bd
       0.01516346 -0.21507263 -0.0118698515 -0.0969689
000060 b4 ee 6f bd 04 fb 3b 3b a1 0d 34 3e c2 ad 45 3d
       -0.058577254 0.0028683553 0.17583324 0.04826141
000070 3f 1a 5d bd 05 b5 67 be 2e 63 0e be 17 0a 65 be
       -0.05398011 -0.22627647 -0.13905022 -0.2236713
000080 6f 79 7f 3d 62 0e 56 3d 98 5d ca be ed 95 1e bd
       0.062371667 0.05225981 -0.3952453 -0.0387172
000090 5e 26 87 be 91 87 41 3d 03 c8 41 3e 52 db ae bd
       -0.2639646 0.047248427 0.18923955 -0.08537926
0000a0 07 2e 55 bd f4 48 d0 bd 42 b6 55 3e f6 e0 38 3d
       -0.05204585 -0.10170165 0.20870307 0.045136414
0000b0 ff 0a 08 3e fb c7 66 bd 95 fd 72 3d ae 6c 93 3c
       0.13285445 -0.05634306 0.059323866 0.017996158
0000c0 ea f1 24 b9 da 0c fe bd 3d db 26 3e d8 fb b4 3e
       -0.00015730379 -0.12404795 0.1629457 0.35348392
0000d0 5c cf 44 be 39 d7 82 3e 35 67 1a be 81 f9 ca be
       -0.19219726 0.25554827 -0.15078433 -0.3964348
0000e0 63 81 88 bd 80 89 3a 3d e3 c7 5d 3f 16 94 92 bd
       -0.066653036 0.045541286 0.8663313 -0.071571514
0000f0 ab 13 ee bc 4c 5c e5 3d df 3e c6 be e0 23 06 3e
       -0.029062113 0.11199245 -0.38719842 0.13099623
000100 08 4a 0f 3e 9c 5c 6d be 42 a2 4a be eb 8e 8d 3d
       0.13993084 -0.23179859 -0.19788459 0.06912025
000110 63 7f d3 bc d5 a7 44 3e 7b 59 68 bd 86 38 3b be
       -0.025817579 0.19204648 -0.05672596 -0.1828328
000120 3e 64 8e 3b 69 31 1d be e2 02 e9 bd b2 f0 46 bc
       0.004345446 -0.1535088 -0.11377503 -0.012142347
000130 ec c7 9f be 42 a3 6f be 2b 26 85 be fd b1 92 be
       -0.31207216 -0.23402122 -0.26005682 -0.2865142
000140 1f 66 17 be a9 fa 68 be 80 23 16 be db 79 03 be
       -0.1478505 -0.2275187 -0.1466198 -0.12839453
000150 f9 8e 74 be c6 63 bb 3c 76 b0 37 3e 2b 8b db 3d
       -0.23882665 0.022874724 0.17938408 0.107199036
000160 7e f2 9d 3c fe 3e 63 3e 4c 06 14 3e c3 bd 23 be
       0.019280668 0.22191998 0.14455527 -0.15990357
000170 35 cb 33 3e 58 f4 86 3c 69 77 85 be 62 44 1b 3e
       0.17557986 0.016473934 -0.26067665 0.15162805
000180 7e 85 2f bd 30 46 b9 be 69 e7 01 3f 99 14 cc 3d
       -0.042851917 -0.3618636 0.5074373 0.09964866
000190 02 31 c8 bd 60 72 84 be f6 47 54 3e d8 b6 08 be
       -0.097749725 -0.2586851 0.20730576 -0.13351
0001a0 87 10 93 be 90 54 12 3e 5e 96 0c 3e d2 5d e4 bd
       -0.28723547 0.1429007 0.13729236 -0.11150707
0001b0 86 76 e4 3c 0f b3 32 be 9d e9 2d 3e 84 c5 cc be
       0.027888548 -0.17451118 0.16983648 -0.39994442
0001c0 b7 bf 6d be 8c 3b f0 bd 73 10 46 3e c8 a2 e8 bd
       -0.23217665 -0.11730108 0.19342212 -0.11359173
0001d0 a7 c5 13 be f5 62 81 be 53 61 fa bd e5 47 61 be
       -0.14430867 -0.2527081 -0.12225594 -0.22000082
0001e0 f8 97 d5 bc 61 24 f6 3d 34 19 6f be e4 93 69 bd
       -0.02607344 0.120186575 -0.23349458 -0.057025805
0001f0 6e 3a a4 3c ac 9b 1a bd cd c6 94 3d 10 3a f1 3c
       0.020047393 -0.037746117 0.07264481 0.029446632
000200 04 0c 8a 3c f5 5a 65 3d c0 36 bc be 91 6a a7 3d
       0.016851433 0.055994947 -0.3676052 0.08174623
000210 c3 86 06 be 6d ad 1e 3e 1d 20 2b be 5b fa 75 3d
       -0.13137345 0.15495844 -0.16711469 0.06005321
000220 e1 2d bd bd bf 7b 0a be 6d ae c8 bd 3a 3a 0a bd
       -0.09237266 -0.13523768 -0.09798894 -0.033746935
000230 13 36 8e bd 8d 3a e8 bd 43 25 09 3e 22 f9 67 be
       -0.069439076 -0.11339293 0.1339312 -0.2265363
000240 04 e1 b8 3c 43 68 77 3e 06 e4 8a bc 43 d7 b9 3c
       0.022568233 0.24160866 -0.016954433 0.022685653
000250 d4 77 16 be 28 18 ce 3d 66 63 76 3e 68 a6 6e be
       -0.14694148 0.10063201 0.24061355 -0.23305666
000260 f7 c7 08 3d 2e 17 a0 3d c5 5c ca 3d 77 38 9a 3b
       0.033393826 0.07816921 0.09880976 0.004706438
000270 68 cd 4d 3d bc ef 2f be b8 07 c6 be f3 a8 79 be
       0.05024472 -0.17181295 -0.38677764 -0.24380855
000280 01 22 1e be 02 28 49 3e 53 9a 70 be d7 49 79 bc
       -0.15442659 0.19644168 -0.2349637 -0.015215359
000290 73 ec a7 be e9 25 3b bd 76 74 38 be 70 0a 95 be
       -0.32797584 -0.04569045 -0.18013176 -0.29109526
0002a0 72 0b 25 bd aa 4d aa 3d 9d e4 50 3e f4 a0 3a 3e
       -0.04029412 0.083155945 0.20399709 0.18225461
0002b0 1a 7d 18 3e 87 8d 04 be 2b a0 9c 3b e2 40 02 be
       0.14891472 -0.12944613 0.0047798357 -0.12720063
0002c0 ec af 57 be 64 55 81 bd cd f4 4e bd b9 1b c4 be
       -0.21063203 -0.06315115 -0.05052643 -0.383024
0002d0 cd 61 4a 3e 12 4c 95 be 44 23 cc bd aa e4 1c bf
       0.1976387 -0.291596 -0.09967664 -0.61286414
0002e0 e6 d0 40 be 20 e4 f9 3d 05 03 6f 3d 9f fb fe 3d
       -0.18829688 0.122017145 0.05835249 0.12450337
0002f0 5f 97 a7 3d fb f6 ec 3c c8 f2 8e bd 05 64 ad 3b
       0.081831686 0.028926363 -0.069799006 0.0052914643
000300 26 57 88 3d 3e a4 e5 3d a6 e1 82 3d 02 6d c4 bc
       0.06657247 0.11212967 0.06390695 -0.02397776
000310 36 1a 00 be c0 b8 c1 bd 6b 0e 5a 3e 1f c6 f6 bb
       -0.12509999 -0.094590664 0.21294563 -0.007530942
000320 16 69 b1 3d 17 a7 27 be 80 b5 dd 3e 61 6d 41 bd
       0.08662622 -0.16372333 0.43302536 -0.047223452
000330 36 bb 9a bd 37 b9 8e be c3 80 95 3c ee 9c b1 3e
       -0.07555239 -0.27875683 0.018249875 0.3469004
000340 7d 96 5c be 5f 2f f5 bd d4 b8 a3 3b b4 48 e8 bd
       -0.21541782 -0.11971926 0.0049963985 -0.11341992
000350 64 e5 6c 3e 0a fa ab bc 19 fe 51 bd 58 04 04 bd
       0.2313438 -0.020993251 -0.051267717 -0.032230705
000360 58 a8 51 be 5d 03 ca ba ba f5 69 3e ac 81 46 be
       -0.20474374 -0.0015412379 0.22847643 -0.19385403
000370 bc d6 28 3e 98 bb 6a be 4d ae 0d bd 90 d6 16 3e
       0.16488165 -0.22923124 -0.034590054 0.14730287
000380 fe 79 14 be 11 c7 bd 3d 20 70 67 3e 76 6c 5a bd
       -0.14499661 0.092664845 0.22601366 -0.053326093
000390 4c 0e 0c be 83 e5 8d be 0d c5 f0 3d b3 2a 62 be
       -0.13677329 -0.27714166 0.117563345 -0.22086601
0003a0 2f 10 d9 be a8 fc b5 be fb b3 ab be 11 5d f9 bd
       -0.4239516 -0.35544324 -0.33535752 -0.12175954
0003b0 12 f3 07 be cb f9 6a be 58 02 85 be 4f f8 56 bd
       -0.13276318 -0.22946851 -0.2597835 -0.0524829
0003c0 1d 62 8b be 75 f4 43 3e 91 a0 99 3d 33 9e ad 3e
       -0.27223292 0.19136222 0.07501329 0.3390976
0003d0 3e 2f 92 3e 22 00 fa 3b e1 4e 95 3e 12 6e 2d 3d
       0.28551668 0.0076294104 0.29161742 0.0423413
0003e0 2c 3f 11 3e 16 4f 8a be 72 24 ed 3e b6 49 92 be
       0.14184254 -0.27013463 0.46316868 -0.28571862
0003f0 dc 83 72 bd d4 42 a3 be 1a 5f 9b bc 7c cc 13 bd
       -0.059207782 -0.31886923 -0.018966246 -0.036083683

stu.hidden.0.rn_1.weight f4 [24]
000000 2e de dc 3e 96 69 10 3f 00 25 e7 3e 00 23 0c 3f
       0.4313826 0.5641111 0.45145416 0.54740906
000010 0e d1 de 3e 70 39 c1 3e ed 7d 35 3f 2c a2 05 3f
       0.4351887 0.37739134 0.7089527 0.5220058
000020 87 ba cd 3e 36 9f 17 3f 1c cd a2 3e 17 e1 15 3e
       0.40181372 0.5922731 0.3179711 0.14636646
000030 a9 51 26 3f e6 73 0b 3f 26 5a ca 3e 8e 8c b3 3e
       0.64968354 0.5447372 0.39521903 0.35068172
000040 5f 7b 06 3f 19 59 ef 3e f6 1c bc 3e 27 da 16 3f
       0.52532 0.46747664 0.36740845 0.58926624
000050 ec b1 cf 3e ef 0b 02 3d e4 31 44 3f b6 19 fd 3e
       0.4056543 0.031749662 0.7663863 0.49433678

stu.hidden.0.stu.M_u f4 [24, 3, 24]
000000 60 c0 87 3d 2f a4 88 bd e4 8a 07 bd a1 d7 d1 bd
       0.066284895 -0.066719405 -0.03309144 -0.10246206
000010 d7 00 a4 be 75 c5 f7 3d 95 f0 25 3e d8 ba 36 3e
       -0.3203189 0.12098209 0.16205056 0.17844713
000020 12 84 b3 3e 25 2b f2 3e 12 60 0a 3f 7d 13 c3 3e
       0.350617 0.47298542 0.5405284 0.38100806
000030 ec 44 1d be 68 66 1e 3e e7 04 be bd b0 18 4d 3c
       -0.15358323 0.15468752 -0.09278279 0.012518093
000040 0a df 8d 3e 1c 0c 9b bd f7 f6 80 be fc 95 a6 be
       0.27709228 -0.07570669 -0.2518842 -0.32536304
000050 e3 a8 d9 be a2 ff 40 3e b5 36 8d be 36 70 5a be
       -0.42511663 0.18847516 -0.275808 -0.21331868
000060 23 26 17 3e fd 37 b0 be 62 53 6d 3d 10 25 85 be
       0.14760642 -0.34417716 0.05794085 -0.2600484
000070 0b ac 9a be d2 6b dc 3b d8 49 9f 3e 9a 4f 78 3e
       -0.30209383 0.0067267204 0.31111026 0.24249116
000080 2b 74 d8 3d c9 13 43 3e 1b 8d 8c 3d 9e 82 03 3d
       0.10569032 0.19050516 0.06862851 0.032106988
000090 34 12 9a 3e 16 48 fa bd ca 60 35 be a9 2d 4e be
       0.30092013 -0.122207806 -0.17712703 -0.20134605
0000a0 f8 ba d2 bd a2 1b 24 3e 22 2b b6 be c7 61 fb bd
       -0.10289568 0.16026166 -0.35579783 -0.12274509
0000b0 d3 0e f8 bd 73 06 e8 bc 88 0c 1a be cb 28 46 be
       -0.121122025 -0.028323388 -0.15043843 -0.19351499
0000c0 48 17 32 3d 3e 86 2d be 48 0e 75 be d8 cc 88 be
       0.043479234 -0.1694574 -0.23931229 -0.26718783
0000d0 44 d0 dc bd 64 2a 38 be 7a 93 82 3d af 74 82 3e
       -0.10781911 -0.1798492 0.06375785 0.25479648
0000e0 33 2f 5f be ff 4e 21 3e c0 ee 15 be 03 56 4d be
       -0.21795349 0.15752791 -0.14641857 -0.20052342
0000f0 b9 23 27 3d 1f 33 3d bd c8 82 3f be 1b 8c ac 3e
       0.040805552 -0.04619133 -0.18702233 0.33700642
000100 64 df b5 3c 64 f2 73 3e 1b 10 d8 3d 2c bb 63 3d
       0.022201248 0.23822933 0.10549947 0.055598423
000110 ce 11 12 3e 66 94 2b 3d e4 a2 bf 3d a2 1f 57 3d
       0.14264604 0.04188957 0.09357241 0.0525204
000120 cb 58 16 3d a8 d1 c7 be 28 6c d4 bc 20 59 d6 be
       0.036705773 -0.39027143 -0.02593048 -0.41864872
000130 37 fd ab bd c9 ea 9a 3d 60 0b aa 3d 32 17 71 3c
       -0.08397906 0.07564313 0.08302951 0.014715003
000140 57 66 04 3c 03 a8 06 be c4 28 8a be 16 40 b1 bd
       0.00808104 -0.13150029 -0.26984227 -0.086548015
000150 61 2e c3 3c c1 0f de 3d 88 e7 60 be 5e f4 3a 3e
       0.023825826 0.108428486 -0.21963322 0.18257281
000160 4a 69 56 bc 95 a9 b1 3d ec 51 84 3d 4f e6 b1 bd
       -0.013086626 0.08674923 0.06460938 -0.08686506
000170 29 f3 97 bc 01 a7 45 be 0b 17 cd bd 59 b5 a7 be
       -0.018548565 -0.19301988 -0.10014161 -0.32755545
000180 cb c3 0b 3e 61 db 82 be 5f ce 63 3b ae f4 bd 3c
       0.13648908 -0.25557998 0.0034760458 0.023187961
000190 92 72 16 3c 23 0d 19 3d 84 c8 62 be f6 c1 66 3e
       0.009182589 0.037366044 -0.22146803 0.22534928
0001a0 c8 ac 11 bd ea 03 82 be 5a f4 f4 3d 81 4d 3f 3e
       -0.035565168 -0.2539361 0.11960669 0.18681909
0001b0 16 98 73 3e ae fd 2c 3e 72 04 7c be 1d 76 b4 bd
       0.23788485 0.16893646 -0.24611071 -0.08811591
0001c0 88 2d 85 3e 51 e3 7f bd c4 60 34 bd 65 ed 96 3e
       0.260113 -0.062472645 -0.044037595 0.29477993
0001d0 39 2b 79 3e 9b e8 16 3e bb cd 50 3d 07 46 8f be
       0.24332894 0.1473717 0.05097745 -0.27983114
0001e0 80 66 bc 3d 59 c6 81 be e2 e7 81 be c7 5d 59 be
       0.09199238 -0.2534664 -0.25372225 -0.2122718
0001f0 c5 18 8f 3e 47 82 26 3d 64 66 54 bd a2 d4 00 3e
       0.27948585 0.040651586 -0.05185546 0.12581113
000200 9c ee b2 3e 1a 39 8a bc 96 e6 1d 3e e2 79 65 3e
       0.3494767 -0.016872931 0.15419993 0.22409776
000210 3a 32 c1 3d 15 a2 ec 3d f8 68 0a be 31 d3 0e 3e
       0.09433408 0.11554352 -0.13516605 0.1394775
000220 68 02 4a 3d 98 25 45 3c 70 f0 ba 3d 30 74 1a 3d
       0.0493187 0.012032889 0.09127891 0.03770846
000230 35 8a 30 bd e2 43 ff 3d 3d 9a 45 3e 54 76 46 be
       -0.043100554 0.124641195 0.19297118 -0.19381076
000240 26 ba 97 3a 4a 06 8e 3e 9e 31 de be 35 90 77 3e
       0.0011575862 0.27739173 -0.4339723 0.24176104
000250 f7 09 13 3e 42 71 a9 be 77 77 c6 bc be 3c 49 3e
       0.1435927 -0.3309422 -0.024226887 0.19652078
000260 d7 ef 3d 3d 6e 13 44 be 53 01 1d 3d 71 59 76 3c
       0.046371307 -0.19148037 0.03833134 0.015035973
000270 05 c5 7d 3e 45 b4 22 3d 06 20 11 3e 7e cb 8c 3e
       0.24782188 0.0397227 0.14172372 0.27499002
000280 d6 54 34 be f1 9c b7 bd 92 6e 19 bd be d3 05 3e
       -0.17610487 -0.08965481 -0.037458964 0.13069054
000290 07 e2 61 3e 5c c9 f6 bd 26 07 4d bc 12 41 f3 3d
       0.22058879 -0.12050125 -0.012513911 0.118776456
0002a0 de 10 d4 3d ca fd a1 3d 6d 0b cf bd 81 66 01 3e
       0.1035478 0.079097345 -0.10109601 0.12636758
0002b0 5c 7d 56 3e 70 18 a1 3d 9f 81 32 3d b0 41 1e 3d
       0.20946258 0.07865989 0.043580648 0.038636863
0002c0 e7 d3 73 3d e5 41 89 be 40 7c 7c 39 9f 94 b1 3e
       0.059528258 -0.26808086 0.0002407888 0.346837
0002d0 03 77 a7 be 7e 2b 80 3e fd 54 2d 3e 94 db a4 3e
       -0.32707986 0.25033182 0.16926952 0.32198775
0002e0 13 3f 82 3d ea 69 5a bd 55 c1 13 3e 8c 96 54 3c
       0.06359687 -0.053323664 0.14429219 0.012975346
0002f0 a9 57 37 3e 9b b0 ed be d9 13 2d bd 7b cc 7d 3d
       0.17904533 -0.46423802 -0.042255256 0.061962586
000300 b7 b8 9a be bd 9d 03 bd a7 22 b2 be 27 38 f2 bc
       -0.3021905 -0.032132853 -0.34792063 -0.029567791
000310 ee c5 8a 3e 5e c5 ea bd 36 84 60 3e 36 c6 20 3e
       0.27104133 -0.11463426 0.21925434 0.15700611
000320 ab c5 48 3e 38 73 0d 3f d3 10 0c 3d 53 e4 72 3e
       0.19606654 0.55253935 0.034195732 0.23719911
000330 42 06 85 3c b6 11 a8 3c 59 03 ef 3e 7d f8 90 3e
       0.016238336 0.020516258 0.46682242 0.28314582
000340 dd 86 1c 3e e0 36 60 bc ac b9 a1 be a2 7b 26 be
       0.15285821 -0.013684958 -0.3158697 -0.162581
000350 e8 ca a2 3d f3 58 a9 be 60 34 19 3e 5c e9 8d be
       0.079488575 -0.33075675 0.14961386 -0.27717102
000360 58 9e bb 3d 3f 1a 34 be a4 94 1a be ce f2 45 3e
       0.09161061 -0.17588137 -0.15095764 0.19330904
000370 20 c4 95 be e4 2d 1f 3e 98 a7 32 3e 35 6c 8b 3e
       -0.29251194 0.1554485 0.17446744 0.27230993
000380 5f 19 ac 3d 91 b0 36 3e 2b 73 a5 3d 19 b6 9a 3e
       0.08403277 0.17840792 0.08078607 0.30217054
000390 a3 03 8d 3e 59 7e 81 be cc 5b c6 bd 9d bf 8c be
       0.27541837 -0.25291708 -0.096854776 -0.2748994
0003a0 54 f7 5f 3e 56 ad 9c 3d 5c f6 43 be 95 ba 6a 3e
       0.21871692 0.07650249 -0.19136947 0.22922738
0003b0 62 6f 63 be 62 00 af 3c 68 4b 30 3e 78 22 60 3e
       -0.22210458 0.021362487 0.17216265 0.21888149
0003c0 6e d7 1d be 0f 6d 95 be 4b 61 9c bd 8e ff 11 be
       -0.15414211 -0.29184768 -0.07635745 -0.14257643
0003d0 ac 28 c0 bd 3f 65 02 3e 73 2b 89 3e 5f f2 e6 3d
       -0.093827575 0.12733935 0.26790962 0.11276697
0003e0 c2 22 bf 3c 35 0a 28 3c 5e 70 8c 3e b8 0f a2 bd
       0.023332004 0.01025634 0.2742948 -0.07913154
0003f0 d3 56 ed bb a9 14 87 bd ca 88 cc be 29 80 6d be
       -0.0072430163 -0.065957375 -0.39948112 -0.2319342

stu.hidden.0.stu.M_phi_plus f4 [24, 16, 24]
000000 1f 35 f2 3d a9 37 b6 3e ff 5b 4e bd 16 62 2e be
       0.11826538 0.3558934 -0.050380703 -0.17029604
000010 77 77 5f 3e b2 69 94 be 32 23 38 3c e2 bc 0d 3c
       0.21822916 -0.2898689 0.01123886 0.00865099
000020 c1 c7 39 be d5 e7 87 be b9 76 e6 be 12 c3 cf 3d
       -0.18142606 -0.2654406 -0.45012453 0.101446286
000030 67 0a fa 3e 49 6b 8e be b8 56 3a 3e 3c 90 29 be
       0.4883606 -0.27816227 0.18197143 -0.16558927
000040 60 dd 9f 3e 63 70 17 3f db 4b be be 50 5f 9a bb
       0.31223583 0.59155864 -0.37167248 -0.004711069
000050 79 a6 66 be b4 53 51 be 19 df 6d 3e 13 2c 4e 3f
       -0.22524442 -0.20442086 0.23229636 0.80536
000060 57 28 89 3d 42 bc 19 3f b4 16 4c bc 17 46 22 3e
       0.06697147 0.60052884 -0.012456585 0.1584705
000070 21 ee ac 3c 48 2c 9c be ff 4b 6c be 48 6a 4b 3e
       0.021109642 -0.30502534 -0.23075865 0.19864762
000080 6a c4 76 bd ad 64 86 be 4e f2 05 3d cd 75 be 3d
       -0.06024591 -0.26248685 0.032701783 0.092998125
000090 81 83 25 3f f1 ed c8 be 03 20 ad 3b fe 98 50 3b
       0.64653784 -0.39244035 0.005283357 0.0031829472
0000a0 22 d9 1c 3e 9e c6 05 3f 92 ef b5 3d 53 51 66 bd
       0.15317205 0.5225619 0.08883585 -0.0562299
0000b0 2b 31 2b bf c8 50 eb be 7d 66 c5 bd 9e 7e c9 3e
       -0.668719 -0.4596007 -0.09638689 0.39354414
0000c0 19 db 34 3d 2c 37 1a 3e 3f a6 95 be ff 4a f5 be
       0.04415426 0.15060109 -0.29228398 -0.4790878
0000d0 14 e7 65 3e b0 97 7e be c5 f0 ff 3d 3e 9e 7c 3e
       0.2245143 -0.24862552 0.12497095 0.2466974
0000e0 18 4b 92 bb 81 46 09 3f d3 d0 c1 3e 73 e9 d4 3c
       -0.0044645183 0.53623205 0.37854633 0.025990224
0000f0 b4 6d f8 3c 0e aa b1 ba 84 a8 05 bf 3f 51 21 3e
       0.030325748 -0.0013554709 -0.5221026 0.15753649
000100 73 15 67 3e 2f 5a de bb 19 bd 80 bd fc c3 47 3c
       0.22566776 -0.006785653 -0.062860675 0.012192722
000110 82 9d 9c bd 8b 82 77 3e 35 c4 3e be fb f1 4f 3e
       -0.0764723 0.24170892 -0.18629535 0.20307152
000120 43 46 7d 3c 8e 61 0d 3f a3 cc 72 bc b5 ec 20 3e
       0.015458646 0.5522698 -0.014819297 0.15715297
000130 2f ff ba bd 56 a6 ca bd ae dd 9a bd 86 ad 09 3e
       -0.09130704 -0.09895007 -0.07561813 0.134451
000140 ee 43 a3 3d 7a 47 ab be 10 f6 b4 3d 85 a6 6f 3e
       0.07971941 -0.3345297 0.08835995 0.23403366
000150 5d c6 9f 3e 62 16 a2 bd b7 93 22 3e af 83 19 be
       0.31206027 -0.079144254 0.15876661 -0.1499164
000160 9a b0 30 3e 30 82 1c 3f 7f 72 3d 3e fc 31 10 3d
       0.17254868 0.6113615 0.18500708 0.03520392
000170 30 97 9c be 9e 74 01 be cf ce 25 bd 19 39 c9 3e
       -0.30584097 -0.12642142 -0.04048043 0.39301375
000180 41 c6 70 3d ba 37 ba bd 39 74 14 be 55 f2 6a 3d
       0.05878282 -0.0909266 -0.1449746 0.057360012
000190 06 79 8c be 7e b4 77 3e 77 ca 70 3e 54 c5 14 be
       -0.27436084 0.24189946 0.23514734 -0.145284
0001a0 82 d6 5f bd c5 95 e3 3d 3a 68 31 be 76 05 0f bf
       -0.05464793 0.11112551 -0.17324916 -0.5586771
0001b0 cf bc 48 be 7a c3 3b 3e d0 d3 b2 3a aa a3 c6 bd
       -0.19603275 0.18336287 0.0013643447 -0.09699185
0001c0 01 56 e7 be c4 f0 c6 3d ab ec 84 be 88 88 61 be
       -0.45182803 0.09713891 -0.25961813 -0.22024739
0001d0 a0 d0 1b 3f 28 4c d8 bd 20 f7 d0 3e 0d 46 9b be
       0.6086521 -0.10561401 0.4081354 -0.30326882
0001e0 60 f5 09 be 3a b3 f8 be 35 d0 2d be 41 38 19 bd
       -0.1347251 -0.4857424 -0.16973956 -0.037407164
0001f0 31 e4 c4 bd 79 b2 26 3f fe 45 2d 3e cd b9 6e 3d
       -0.096138366 0.6511608 0.16921231 0.058282662
000200 3e 44 8d be 88 e7 21 3e e0 15 49 3d 9e 57 e9 be
       -0.27591127 0.15810978 0.049093127 -0.4557466
000210 26 31 0d be 86 84 09 3e bd 82 62 bd b0 33 7c bc
       -0.1378828 0.1342946 -0.055300463 -0.015393183
000220 06 28 f9 be 66 c8 a8 be c8 85 8d be 1b ce 5e bd
       -0.48663348 -0.32965392 -0.2764113 -0.054395776
000230 42 05 14 3f db 9e 5e bc 84 1a 03 3f 09 78 b3 be
       0.5782052 -0.013587679 0.51212335 -0.35052517
000240 75 1d ee bc 25 7d a8 be c2 c6 7d 3e 08 84 a2 3e
       -0.02906678 -0.32907978 0.24782851 0.31741357
000250 21 6f 2f bd 29 c1 f2 3d cf 23 23 3e 6a ee e6 bd
       -0.04283059 0.118532486 0.15931629 -0.112759426
000260 f5 11 b4 be d8 8a 87 bd 72 fa 56 be af d0 5d bd
       -0.3516995 -0.06618279 -0.20993975 -0.054154094
000270 c6 3a d4 bd e8 a1 ba 3c 8c bc d4 bc b3 09 57 3e
       -0.10362773 0.022782281 -0.025968812 0.20999794
000280 75 f9 d6 3c 03 c3 3f be 96 79 61 be f3 d5 30 3e
       0.026241997 -0.18726735 -0.22019038 0.17269115
000290 07 c6 62 3e 12 83 68 3d 6c 89 a4 3c 45 93 8e be
       0.22145854 0.056765623 0.02008506 -0.27846733
0002a0 c3 6d 90 bc 32 41 e1 3c 0c 4f dc 3d fa 81 2a 3d
       -0.017630463 0.027496908 0.107572645 0.04162786
0002b0 cf 50 86 3e 7a ad f3 be e8 c5 05 be 88 0d a0 be
       0.26233527 -0.4759329 -0.13063776 -0.31260324
0002c0 bb 24 1d be 99 d5 05 3e c2 f3 58 be 06 e1 cd 3d
       -0.15346043 0.13069762 -0.21186736 0.100526854
0002d0 50 8d a5 be 7a 5e 7b bd 5c c9 8d be 43 8a 2d 3e
       -0.32334375 -0.061369397 -0.27692688 0.16947274
0002e0 c2 02 ad 3e 21 ce 6e be 95 2d 16 3d 74 82 90 bd
       0.33791167 -0.2332082 0.036664564 -0.07056132
0002f0 7a 6b f0 bd 39 bd 04 3d ee e5 15 3e 8c a0 49 bd
       -0.117392495 0.03240702 0.14638492 -0.049225375
000300 77 66 86 bd eb 22 ef 3c d2 e1 8b be 95 d5 20 3e
       -0.06562512 0.029191455 -0.27320725 0.15706475
000310 c9 7b 36 3f bb bb d2 be 04 5c 25 be b9 86 50 be
       0.7128263 -0.41158852 -0.16148382 -0.20363893
000320 bc 1c 27 3e c9 1c 0b 3e 3d fe 22 3d 9c 71 24 be
       0.16319555 0.135852 0.03979324 -0.16058964
000330 30 5e 83 be 3f c2 e0 3c a4 bc a9 3d 3d 8f b8 3e
       -0.25657797 0.027436374 0.082879335 0.36046782
000340 19 d0 8a 3e 76 f7 fa be a9 8f 6e bd d8 44 d8 bc
       0.2711189 -0.49016923 -0.058242474 -0.026400015
000350 92 c2 f5 be c8 6b c5 be ce 5c 2e 3b dc b8 b3 3c
       -0.48000008 -0.38558793 0.002660561 0.021938734
000360 cb 97 95 3b a9 f9 2c be da 8d 04 bd a8 ca f9 bc
       0.0045652143 -0.16892113 -0.032361843 -0.030492142
000370 36 a9 05 3f 92 70 0f 3d dd e4 6f be 88 e7 16 be
       0.5221132 0.035019465 -0.23427148 -0.1473676
000380 c6 f6 06 3e 94 36 2b be 03 53 14 be 24 6d 92 be
       0.13180074 -0.16720039 -0.14484791 -0.28598893
000390 77 f4 74 bb b9 14 f1 3d b1 21 bb 3e 8e 90 1b 3e
       -0.0037377158 0.11771531 0.36549142 0.15191862
0003a0 d0 a2 a8 3d a6 17 b7 bd cb 5d 69 bd fa 78 17 3d
       0.08234179 -0.089400575 -0.056974214 0.036980607
0003b0 d6 c3 3b be 96 c8 ab be 76 30 53 3d 85 92 0e be
       -0.18336424 -0.33551472 0.051559888 -0.1392308
0003c0 cb 05 e0 3d d3 bf cb bd fc dc 50 be 12 08 2e be
       0.10938605 -0.09948697 -0.20396799 -0.16995266
0003d0 a5 bc 89 3d fb bb 90 3c a1 d7 be bd d9 78 a5 3d
       0.06725434 0.017667761 -0.09318472 0.080796905
0003e0 51 65 1f bd 9b 03 8f 3d d3 e1 05 be 08 2b 2d be
       -0.038914982 0.069831096 -0.13074426 -0.16910946
0003f0 15 6b 4a be 87 d6 c5 bc f7 14 6b 3e eb 50 70 3e
       -0.19767411 -0.024150146 0.22957216 0.23468368

stu.hidden.0.stu.M_phi_minus f4 [24, 16, 24]
000000 ee cd aa 3d d9 69 b4 be 91 f7 71 be f4 dc df 3d
       0.08340059 -0.35237005 -0.23629595 0.10930815
000010 cd c7 d4 3e 30 f5 fc bb 21 05 bf 3d d7 19 8b be
       0.41558686 -0.0077196583 0.0932715 -0.27168152
000020 d9 0c 3d 3e 23 9f 0a 3d cf 10 61 3d 45 d9 1d 3e
       0.18461932 0.03384317 0.05494767 0.15414913
000030 d4 da ad 3d c5 38 88 3e fa a2 c4 3d 60 64 ee bd
       0.08489004 0.26605812 0.09601398 -0.11640239
000040 73 ea 73 3d 86 b9 94 3e 38 d6 6a be b9 47 b3 3e
       0.05954976 0.29047793 -0.2293328 0.35015658
000050 56 a0 8b 3e 41 08 74 be 3d 20 25 3e 7d 8b 46 3d
       0.27270764 -0.23831274 0.16125579 0.04847287
000060 7a e8 3a bc 8e 4e 48 3e 01 a0 1a be d0 9f 49 be
       -0.011407966 0.19561216 -0.15100099 -0.1968987
000070 26 4e 18 3b 59 24 68 be a4 50 63 bd b3 dc af 3d
       0.002323994 -0.22670116 -0.055496827 0.08587017
000080 96 52 41 3e 4e 6c d6 3e 7c 71 48 3e 71 24 99 3d
       0.1887916 0.41879505 0.19574541 0.07477654
000090 2d bc aa 3e f7 a2 96 be 39 9e 4d 3d 77 27 b3 be
       0.33346692 -0.29421207 0.05019972 -0.34991047
0000a0 b2 62 7c 3d 88 bd 0f 3e 4c 8a 30 be 46 c7 bf 3d
       0.06161756 0.14037144 -0.17240256 0.0936418
0000b0 73 37 1a 3e 49 50 a2 3e 52 11 bf 3d 7a 75 5d be
       0.15060215 0.31701878 0.093294755 -0.21626845
0000c0 2b b6 a6 bc 7d 79 35 be a6 ad 27 3e 5b 49 b6 bd
       -0.020350536 -0.17722125 0.16374835 -0.0890071
0000d0 82 bb 3a 3c 59 f9 c5 3d 45 cb ed 3d f2 62 40 bb
       0.011397244 0.096667 0.11611036 -0.002935585
0000e0 68 5a 02 3f 58 49 37 3e 27 40 12 be c4 a1 6f bd
       0.509192 0.17899072 -0.14282285 -0.05850388
0000f0 7c eb a6 3e bd cb 0d be 1b 18 0f 3e 56 d0 a9 be
       0.32601535 -0.13847251 0.1397404 -0.3316676
000100 0d df 86 bd 52 85 67 3e bc 45 8c bc 9b 81 36 3d
       -0.06585512 0.22609451 -0.017123096 0.044557195
000110 f8 ff 2b 3e 61 44 01 3e 45 1e 3f be 37 a5 8d be
       0.16796863 0.1262374 -0.1866389 -0.2766511
000120 e4 15 f9 bd 3c 55 33 3e fb 6c 96 bd be 16 66 bd
       -0.121623784 0.17512983 -0.07345005 -0.056174032
000130 ba ba a3 3d 39 74 7d be 43 0e ae bd 62 42 05 be
       0.079946 -0.24751367 -0.08498814 -0.13013604
000140 0b 62 d5 3e 6d 29 cb 3e dd b2 6c 3e 54 c2 1e 3e
       0.41676363 0.39680043 0.23115106 0.15503818
000150 bd 61 0b 3d 77 96 2d bd c8 c6 89 3e f0 22 b7 be
       0.034028757 -0.042379823 0.2690947 -0.35768843
000160 b4 1e b5 3e e8 4d e0 3d 25 43 0a be 2d 38 38 3e
       0.35374987 0.109523594 -0.13502176 0.1799018
000170 e0 cb 80 be 29 26 cb 3d 4c e0 51 3d ea 5a 48 be
       -0.25155544 0.09919388 0.051239297 -0.19565931
000180 d5 b9 51 3d 9d 3d 76 3d 0e 39 d2 3d 21 8c 95 3e
       0.051202614 0.060117353 0.102647886 0.29208472
000190 7f c0 43 3c 81 48 09 3e 4d f9 20 be a6 64 a0 3d
       0.01194775 0.13406564 -0.157201 0.07831697
0001a0 e2 0b 6b be fb 12 7e be 87 53 d3 3d 0b f6 62 be
       -0.22953752 -0.24811928 0.10318666 -0.2216417
0001b0 f9 cc 88 3d f6 73 b1 3d 3f 5f cf bd c2 68 d2 3d
       0.066797204 0.08664696 -0.101255886 0.10273887
0001c0 01 b0 7e 3d 25 a2 47 be 0c ad 1b 3e cb 96 4c be
       0.06217957 -0.19495447 0.15202731 -0.19979398
0001d0 5e e7 25 3d 6c d9 96 3c 40 c1 cf bd 38 39 0c be
       0.040503852 0.018414222 -0.101442814 -0.13693702
0001e0 82 80 54 bd 58 36 8c be 0c 78 ff 3d 96 a9 2d be
       -0.051880367 -0.2738521 0.12474069 -0.16959223
0001f0 54 12 e3 bb 5c 0e 21 3e a7 4c 98 3e e5 70 04 3e
       -0.006929675 0.15728134 0.2974598 0.12933691
000200 de eb 40 3e ef 7c b2 3c 19 2e 5c be 40 76 e4 3d
       0.18839976 0.021788089 -0.2150196 0.11155367
000210 92 3f ea bd a8 91 ec 3c c6 12 31 bc ca 85 71 3d
       -0.11437906 0.028878048 -0.010807699 0.05896548
000220 bb ef f0 be f1 c5 5b 3e bd 4e c3 bd ad b8 b0 3d
       -0.470579 0.21462227 -0.095365025 0.08628974
000230 5f 7a de 3d e3 04 b8 3d 46 23 7d 3d ad 68 b0 bd
       0.10863184 0.08985307 0.061801217 -0.08613715
000240 7b e8 ee 3d eb 8b 5d 3e 0a 05 5b 3d dc 11 b8 bd
       0.11665436 0.21635406 0.053471602 -0.089877814
000250 28 c4 6e be d0 94 f6 bd 27 f5 38 be 8d 48 d1 3d
       -0.23317015 -0.120401025 -0.18062268 0.10218916
000260 4a 5c b4 be 57 c8 89 bc 9c 01 eb bb f7 31 88 bd
       -0.3522666 -0.016819162 -0.0071718227 -0.06650155
000270 22 99 5d bd 3c cd 72 bd 7a 86 ef bc 01 28 0a 3e
       -0.054101117 -0.059277758 -0.029238928 0.13491823
000280 b7 85 ae 3e 5e 68 82 be 20 c1 a3 3e 19 63 f7 3c
       0.3408639 -0.2547025 0.3198328 0.03019862
000290 34 30 4a be 1c 0d 64 bd ce 73 86 3d ce 72 e4 3d
       -0.1974495 -0.055676565 0.06565057 0.1115471
0002a0 d0 a5 32 bc 0d 6a 34 bc 3c 72 5f bd 6f 04 db 3d
       -0.010903791 -0.011011613 -0.0545523 0.10694205
0002b0 62 a9 58 3e 45 8b 47 3d d4 8c ae bc 2c 16 10 be
       0.21158364 0.048716802 -0.021307386 -0.14070958
0002c0 42 50 a2 3d 40 53 c2 3c 82 f8 7a bd 81 d3 e5 bc
       0.07925464 0.023721337 -0.06127215 -0.028054954
0002d0 92 d0 56 bd 64 a3 66 3e 6a 22 2c 3e ae 9f 9f bd
       -0.052445002 0.22523266 0.16810003 -0.07794128
0002e0 90 9c 57 be 98 64 4b 3e 94 91 a9 be 37 62 91 bb
       -0.21055818 0.19862592 -0.3311888 -0.004436757
0002f0 ae b3 1f bd 58 13 34 be 44 68 9f 3d c0 11 0d 3e
       -0.038989715 -0.17585504 0.07783559 0.13776302
000300 b6 88 91 be da 94 b3 3d 57 92 49 3e 45 2c b5 bd
       -0.28424615 0.087686256 0.1968473 -0.08846334
000310 f3 e2 15 be fb ef d7 bd a0 1a 26 3c 33 af 04 be
       -0.14637356 -0.105438195 0.010138184 -0.12957458
000320 0f 13 c7 bd cc 04 c5 3a d1 2b 8f bb 8c b6 98 bd
       -0.09720432 0.0015031337 -0.004369237 -0.07456693
000330 06 04 f1 3d b8 fd 50 be 25 85 d4 bd 71 a4 a2 bd
       0.117683455 -0.20409286 -0.10376958 -0.07941521
000340 bc b0 aa 3d de 21 ad 3d ad 93 1b 3d 2e c4 16 bd
       0.08334491 0.08453725 0.03798263 -0.036808185
000350 8f d8 a4 3d 3f 71 01 3e 2c 79 9d bc 0c 4c 97 bd
       0.08049118 0.12640856 -0.019222818 -0.07387552
000360 6c 39 bf 3d 96 18 31 bd 31 c5 6a be 1b 5f 38 be
       0.09337124 -0.043236338 -0.22926785 -0.1800503
000370 c2 54 67 bc 59 8b 66 be d6 8e b3 3d a1 a9 4a 3d
       -0.014119329 -0.22514094 0.08767478 0.049478177
000380 8b f8 01 be bf 13 5a 3e 44 62 1f bc c7 96 87 be
       -0.12692468 0.21296595 -0.009728018 -0.2648222
000390 26 df 99 be 45 3e 3b 3e 6b 9f 3b bd a6 c6 00 3e
       -0.3005306 0.18285473 -0.04580633 0.12575778
0003a0 b0 86 57 3d 81 8a c4 bd f0 55 85 bd 33 31 16 bc
       0.052618682 -0.0959673 -0.06510532 -0.009167003
0003b0 da 36 96 bc 45 56 0a bd 35 52 6f 3e 29 ab 28 be
       -0.018336702 -0.03377368 0.23371203 -0.16471542
0003c0 f1 3e 5e 3c 0e 5d e8 3d d4 0c 27 3d b8 97 a7 3e
       0.013564811 0.11345874 0.04078372 0.3273294
0003d0 f0 d9 0c 3d 4d 2e d6 3d 73 3b 0f bf 4c ff 31 3d
       0.03438753 0.1045805 -0.5595009 0.04345636
0003e0 72 ea 1a 3d 83 39 01 be c5 78 66 3e f2 5c 77 3b
       0.03782124 -0.12619595 0.22507007 0.0037744609
0003f0 25 c6 02 bd 4f fc 28 3e a9 93 bd bd 8f c4 0f bd
       -0.031927247 0.16502498 -0.092566796 -0.035099562

stu.hidden.0.rn_2.weight f4 [24]
000000 c7 2f 63 3f ed 3b 4a 3f 9c 6b 07 3f ba 9d fe 3e
       0.8874478 0.7899769 0.52898574 0.4972971
000010 e6 b1 db 3e b1 b1 8a 3f 94 47 3c 3f d0 3f 47 3f
       0.42909163 1.0835477 0.7354672 0.77831745
000020 30 b7 03 3f 2d 32 58 3f d9 37 4b 3f 22 42 2c 3f
       0.51451397 0.8445156 0.7938209 0.6728841
000030 29 21 66 3f 0f de 55 3f 8b b0 9d 3e cf 78 45 3f
       0.8989435 0.8354196 0.30798754 0.77137464
000040 2a 5e 3e 3f 17 fb 1f 3f b3 7e 47 3f 1b 41 4e 3f
       0.7436243 0.6249251 0.779277 0.80568093
000050 c8 de 38 3f cd 7b b0 3e ca e0 19 3f d0 71 07 3f
       0.7221494 0.34469453 0.60108626 0.5290804

stu.hidden.0.mlp.swiglu.w.weight f4 [96, 24]
000000 65 cb 94 bd ca 4b 37 3e e8 e8 83 be f8 01 37 3e
       -0.07265357 0.17900005 -0.2576363 0.17871845
000010 dc eb fb bd 1b 29 0f 3d 0c ea 37 3e d4 ca f3 bb
       -0.12300846 0.03495131 0.17960376 -0.0074399505
000020 24 c1 13 be 38 96 00 3e ea 2d c4 3b 50 03 04 3e
       -0.14429146 0.12557304 0.0059869187 0.12891889
000030 77 0d 2b 3d 6d 99 04 3e af d1 40 be 75 58 96 bd
       0.041760888 0.12949152 -0.18829988 -0.073410906
000040 a4 bc 36 3c c7 77 91 3e d7 85 24 be be 7d 56 be
       0.011153374 0.28411695 -0.16066681 -0.20946404
000050 4a c2 9f bd b2 63 c7 bb a8 f9 08 bd 22 43 6b 3e
       -0.078007296 -0.0060848827 -0.033441216 0.22974828
000060 56 40 23 be 31 9b b2 3d f3 82 93 3c 23 59 7b be
       -0.15942511 0.08721007 0.018006777 -0.24545722
000070 37 2c 58 3c e3 33 31 be d9 e7 83 3c 45 97 c2 be
       0.013194135 -0.1730495 0.016101765 -0.38006034
000080 0f 00 d9 bd 3a 67 b9 bc 24 af 05 be 30 b5 19 be
       -0.10595714 -0.02263223 -0.13055092 -0.15010524
000090 26 c4 c6 3c cc 48 0b be 4d eb fe bd 00 97 93 3c
       0.024263453 -0.13601989 -0.12447224 0.018016338
0000a0 b8 de 31 3e cc 1c cd 3d 0e 6f d1 3d da 1a 32 be
       0.17370117 0.10015258 0.1022626 -0.17393056
0000b0 e3 a6 5a be ea bc 68 bb 55 e3 0a 3e d2 3b 2e 3d
       -0.21352725 -0.0035512992 0.13563283 0.042537518
0000c0 a9 af 57 3d 63 68 4b be 4f 3a 77 bd 0f ea fa bb
       0.052657757 -0.19864039 -0.06035834 -0.0076572965
0000d0 ca 2d 8b be 99 d6 10 3d f3 2e 89 3d 7f 77 14 3d
       -0.27183372 0.035360906 0.06698408 0.036246773
0000e0 40 c8 87 3e 5f 5d 77 be 35 48 f6 3d 4b e9 de 3d
       0.26519966 -0.24156712 0.12025491 0.10884341
0000f0 1e 7b ad 3d f5 2a 7c 3e 2a c4 7d 3e eb 24 80 be
       0.08470748 0.24625762 0.24781862 -0.25028166
000100 92 ed a8 bd 04 99 06 3e bc 33 29 3e 2b f9 7a bd
       -0.08248438 0.13144308 0.16523641 -0.06127278
000110 60 5e af 3d 74 9d 64 be a3 96 8b bd 4e 37 90 3d
       0.085629225 -0.22325689 -0.06815841 0.070417985
000120 8d 89 65 3e 69 5a 83 3d 2a 51 58 be 7f c4 54 bd
       0.22415753 0.06413729 -0.21124712 -0.051945206
000130 0b 49 20 bd d6 21 96 be 36 8b 9d bd 24 78 0f bf
       -0.03913216 -0.2932269 -0.07692568 -0.56042695
000140 58 68 bc bc 92 d5 0f be dc 59 13 bf df 91 d0 3c
       -0.022998974 -0.14046314 -0.5755899 0.025460182
000150 f3 88 f8 3d 2e 49 a0 bd 0c 4f 21 3e 5b e9 fe 3c
       0.12135496 -0.07826458 0.1575281 0.031117132
000160 b6 ef ac 3d af 43 1d bc 77 fc fa bd cd 68 60 3e
       0.08444159 -0.009598657 -0.12255185 0.21914978
000170 52 b9 b8 3e 06 9c f3 3d 00 ca 9d 3e 96 6b b0 bd
       0.36078888 0.118949935 0.30818176 -0.086142704
000180 e2 da b1 bc d6 23 6e 3d a8 e8 29 be a9 79 74 3c
       -0.021710817 0.058139645 -0.16592658 0.014921584
000190 02 d3 bd bd b3 83 3b 3d 8d d5 bf bc 29 46 d0 3d
       -0.09268762 0.045779895 -0.023417259 0.10169632
0001a0 cd ce ec bd a1 b1 7c 3d aa 23 12 3e 6f ae 62 bd
       -0.115628816 0.061692838 0.14271417 -0.055342134
0001b0 4a fa 00 be 1e 48 b7 bb e1 39 b1 bd 00 fc b3 bd
       -0.12595478 -0.005593314 -0.08653618 -0.087882996
0001c0 b9 c6 26 3e 22 2a 1a 3e 7c 51 38 bd 42 81 bb bd
       0.16286744 0.15055135 -0.044999585 -0.09155513
0001d0 07 d6 1a be aa aa eb 3d 47 22 f7 3d 96 7f 1b bd
       -0.15120707 0.11507161 0.12067085 -0.037963472
0001e0 c8 ac 13 3e 67 cc 84 be ca ad 8f 3e 23 b6 9f 3e
       0.1442138 -0.25937197 0.28062278 0.31193647
0001f0 81 43 06 bd 1c 5f 50 3e 4c be 8d be 83 fb 7f 3d
       -0.03277922 0.20348781 -0.27684247 0.06249572
000200 c2 a4 81 3e 19 7c 81 3b 32 a8 16 3e 50 9f 2e 3e
       0.25321013 0.003951561 0.14712599 0.1705296
000210 24 ef 37 3e ce b1 f9 bd 1d 99 7d 3c 87 62 01 be
       0.17962319 -0.12192117 0.0154784 -0.12635241
000220 94 03 09 3e eb 22 51 3d 5c ec 0d 3e 6b 78 31 be
       0.13380271 0.05105869 0.13859695 -0.17331092
000230 cc 51 90 bd 24 eb 98 3e 1e 4b a4 be 09 41 93 be
       -0.070468515 0.29866898 -0.3208856 -0.28760555
000240 2d 16 7f 3e d8 7b d4 3d 57 08 05 be 50 c5 2a 3e
       0.24910803 0.10375184 -0.12991463 0.16676831
000250 57 ed 53 be 55 2a 89 be 95 46 72 bc 1d a3 61 3e
       -0.20696007 -0.2679011 -0.014787336 0.22034879
000260 1c 97 2d bf 93 1a 5d 3e 4b 2a c3 3e 9b 05 95 3e
       -0.678087 0.21592169 0.38118204 0.2910584
000270 00 ba 6e 3e 35 82 51 be 7b f6 4b be 45 74 8e be
       0.23313141 -0.20459826 -0.19918244 -0.27823082
000280 03 6d 39 bd 27 8a 26 3e 5d 8f 36 bd 2d b8 53 be
       -0.045269977 0.16263638 -0.044570316 -0.20675726
000290 54 0d 68 bd dd b0 ef 3d 59 e8 92 bd 72 8f 51 be
       -0.056653336 0.11703656 -0.07173223 -0.20464876
0002a0 31 c1 6c 3e 5e 35 07 3e 2b 3b 55 bd 5e 01 43 bc
       0.23120572 0.13203952 -0.05205838 -0.011902181
0002b0 eb be ff bd 42 c2 20 be b8 d5 77 bd 76 c0 d4 3d
       -0.124875866 -0.15699103 -0.060506552 0.103882715
0002c0 c0 a0 a0 bc 77 fd 15 be 86 ab 4f bd d5 b5 c2 3d
       -0.019607902 -0.1464747 -0.050700687 0.09507338
0002d0 6c f6 05 3e aa 7b 15 3e cd 1e 3b be 19 23 dd 3d
       0.13082284 0.14597955 -0.18273468 0.1079771
0002e0 12 b6 81 3e b7 88 fc 3c e9 7b 96 3d 88 45 ae be
       0.2533422 0.03082691 0.07347853 -0.34037423
0002f0 3d eb f3 3d 6e 53 02 3e 33 52 0a bc ab c2 45 be
       0.119101025 0.12727138 -0.008442449 -0.19312541
000300 1d 68 29 3e a1 71 ad 3d 52 ce 40 3e ab 9d c9 3d
       0.16543622 0.084689386 0.18828705 0.09844526
000310 45 10 66 3e 6a 1d 17 be 23 21 47 3c f2 f9 5d be
       0.22467144 -0.14757314 0.0121538965 -0.21677378
000320 0c f3 00 3e 31 6f e0 bd d2 e5 0f be c0 fc 67 bd
       0.12592715 -0.10958708 -0.14052513 -0.056637526
000330 56 6b ad bd f5 53 f2 3d c5 37 53 bd bb e3 8e 3e
       -0.08467738 0.1183242 -0.051566858 0.2790812
000340 be 59 4e 3c bf 76 d8 3b 69 22 bb 3e 81 b1 27 be
       0.012594638 0.0066059525 0.3654969 -0.16376306
000350 e3 2b 8e 3e 2b be 57 3d c2 88 8a be 32 1e 81 be
       0.27767858 0.052671593 -0.27057463 -0.2521835
000360 a3 e1 a3 bd 23 f4 59 3e b7 ce df bd e9 b4 11 3e
       -0.08002021 0.21284537 -0.109280996 0.14229168
000370 26 4d 0d be 0a 44 8c bd e2 ef 32 be e9 31 43 be
       -0.13798961 -0.06848915 -0.1747432 -0.19062008
000380 81 d9 84 bd 55 d0 8a 3e ba c9 23 be 0b 51 d4 3b
       -0.06486798 0.2711207 -0.15994921 0.0064793876
000390 86 69 34 be 0b 33 5a be 00 1d e1 bd cf 1e d0 3d
       -0.17618379 -0.21308534 -0.109918594 0.10162126
0003a0 ce 62 1c 3e 7c c8 11 3e 87 13 9c be 18 0a 85 3d
       0.15272066 0.14236635 -0.30483648 0.06496066
0003b0 6a 8d f0 3c 5f 84 97 3e 6b 51 ef 3d 45 aa b4 bd
       0.029364306 0.2959318 0.11685451 -0.08821539
0003c0 16 b3 56 be dd af 87 3d f9 8d a6 bd e4 74 50 3d
       -0.20966753 0.0662534 -0.08132548 0.050892726
0003d0 65 7e fe be ec e8 52 be 68 dc b9 3e fe 19 2c 3e
       -0.49705806 -0.20596665 0.3630097 0.1680679
0003e0 ca 29 9c be 01 2b a1 3e ec 08 1f be a7 d9 6b bd
       -0.30500633 0.31478122 -0.15530747 -0.057580616
0003f0 96 7c 48 bd 02 f6 9b 3c ae 44 63 bd 7f 0a 6f 3d
       -0.04894694 0.019038204 -0.05548542 0.05835962

stu.hidden.0.mlp.swiglu.v.weight f4 [96, 24]
000000 75 12 a1 3e 5a 98 c7 bd b7 a0 42 bc 59 95 53 be
       0.31459394 -0.09745856 -0.011879138 -0.2066244
000010 1d ba 86 bd 94 f8 b8 bd f0 35 1f 3d e1 ce 0f 3e
       -0.06578467 -0.090317875 0.0388698 0.14043762
000020 f8 86 a8 3e c4 ec 89 3d 01 bb 53 3e e6 c2 e9 3d
       0.32915473 0.067346126 0.20676805 0.11414127
000030 70 f9 45 3e c2 c1 aa bd 54 80 7e 3d c0 80 eb bd
       0.19333434 -0.083377376 0.062134102 -0.114991665
000040 14 6c 29 be 4f 33 91 bd 7d 03 d6 3c c8 c2 03 3e
       -0.16545135 -0.070898645 0.02612471 0.12867272
000050 54 26 aa bd 12 58 50 3d d6 01 a9 3e 58 84 3e be
       -0.08308092 0.05086524 0.33009213 -0.18605173
000060 54 67 13 bd 72 41 05 bc 2f 06 87 bd 7b 46 35 3c
       -0.035987213 -0.008133279 -0.06592976 0.011064167
000070 6e 4d 0e be d4 1c 80 be 90 6d 80 39 36 cf f5 3d
       -0.13896725 -0.25021994 0.00024495693 0.12002413
000080 a0 cd 20 39 a8 d2 ce 3c bd b6 c9 bc 9a 72 57 bd
       0.0001533539 0.025246933 -0.02462327 -0.052599527
000090 3d d6 5e 3c 5c a5 49 3e 5c 2e 31 3e 54 5e 99 bd
       0.013600883 0.19691986 0.17302841 -0.07488695
0000a0 ca b3 26 bd 07 74 28 3b bc 2c 8b bc f2 3e f8 3c
       -0.040698804 0.0025703923 -0.016989104 0.030303452
0000b0 95 aa f5 bd b0 1e 86 be 70 93 59 3d f3 40 71 3c
       -0.119954266 -0.26195288 0.053119123 0.014724958
0000c0 aa 1e 11 be e9 bc b6 be 1e 87 e8 3c b4 d9 21 3e
       -0.14171854 -0.35691002 0.028384741 0.15805703
0000d0 6e 63 66 bd 4f 7a e2 bb 61 c1 d4 3d 9d d9 cd bd
       -0.056247167 -0.006911553 0.103884466 -0.10051272
0000e0 7e 48 66 bd 5c 82 26 3e 39 dc d0 bd c6 4d 7d bd
       -0.056221478 0.16260666 -0.10198254 -0.06184175
0000f0 4b 88 e1 bd f1 63 02 3e 63 ca ca 3d 50 6b b0 3d
       -0.11012324 0.12733437 0.099018835 0.08614218
000100 96 98 97 bd 59 5f 9d 3d 51 80 2e be 56 4f 2c 3e
       -0.0740215 0.07684202 -0.17041136 0.1682714
000110 c1 f0 b4 bc cd 7f d4 bd 3d 38 5d 3e 56 ca 04 3e
       -0.022087457 -0.103759386 0.21603484 0.1296781
000120 22 d6 32 3d e5 5b 1d be 08 da cc 3e ae f3 00 be
       0.043661244 -0.15367086 0.40010095 -0.12592956
000130 ce 2f 8b 3e 79 27 80 3d fb 3b 94 bd b7 4a 52 3c
       0.2718491 0.06257529 -0.07238003 0.012835196
000140 0b 9e bc 3e 96 c8 f3 bd 33 e3 9d 3e 6f 7c 7c 3d
       0.36839327 -0.11903493 0.30837402 0.061642107
000150 79 98 a6 3e 25 22 9a 3c 72 a6 84 3d 24 0b 28 bd
       0.32538202 0.01881511 0.064770594 -0.04102625
000160 5a e8 08 bd 01 e0 b5 bd 49 b1 72 3e 6f f2 55 3d
       -0.033424713 -0.08880616 0.23700441 0.052233156
000170 9b 1e 80 3d b6 83 f9 bc 32 bf ee bd 07 6a 10 be
       0.062558375 -0.030458312 -0.11657561 -0.14102946
000180 52 0a d6 3d a6 12 82 3e a8 b9 53 3e 1b f6 8d 3e
       0.10451187 0.25404853 0.20676291 0.27726826
000190 4f 3e 2d bd 18 49 fc 3d ec f1 d5 bd 66 04 f6 3d
       -0.04229575 0.12318629 -0.104465336 0.12012558
0001a0 0c 92 e3 3d 1f b1 e2 bd 69 3b 89 3d c1 93 80 bc
       0.111118406 -0.110689394 0.06700785 -0.015695455
0001b0 79 4b d2 3d af e9 1b be 33 f4 09 be a5 eb b1 bd
       0.102683015 -0.15225862 -0.13472061 -0.08687524
0001c0 11 d4 8f 3d b8 79 96 3d ab f0 c2 3d 00 12 8c bd
       0.0702287 0.07347435 0.0951856 -0.06839371
0001d0 81 4c ee 3d 5f 36 62 3e c8 e5 e0 bd ca 6c cc bd
       0.11635686 0.22091053 -0.10981327 -0.09981687
0001e0 24 6f f8 3d 86 e0 73 bb bc 09 ef 3d 65 ce cf bd
       0.121305734 -0.0037212684 0.116717786 -0.101467885
0001f0 b2 8b f2 3d 9e 35 b6 bd b3 d3 7a bd 75 88 2d 3e
       0.11843051 -0.088969454 -0.06123705 0.16946585
000200 52 4d 4e 3d 54 09 3f bc fa 4b 6c 3e 97 68 85 3e
       0.050366707 -0.011659939 0.23075858 0.26056358
000210 33 a0 66 3e cc 45 9c be 2d 70 02 bd 71 d9 7e bd
       0.22522049 -0.30522 -0.03184526 -0.062219087
000220 2f ad 10 3e e6 b0 db 3d d9 b1 4e 3d 97 6a b0 be
       0.14128564 0.107271 0.050462577 -0.34456322
000230 d5 dc 88 3d 77 c2 2e 3e 21 3a 18 be 8f ad e2 bd
       0.06682745 0.1706637 -0.14865924 -0.1106826
000240 17 ec 80 bc 71 9f 1e be 85 50 45 3e 7a b6 20 3e
       -0.015737576 -0.1549051 0.19268997 0.1569461
000250 39 93 91 bd ed 69 59 3e 76 b4 2c be ba 5e 0c 3e
       -0.071081586 0.21231814 -0.16865715 0.1370801
000260 ea 73 49 3d 69 4f 21 3e 1b c0 e2 3d d6 89 30 3e
       0.04918281 0.15752949 0.110717975 0.1724008
000270 35 f1 5d 3e 49 0e 37 be 14 40 5e be 2f 12 77 be
       0.21674044 -0.17876543 -0.21704131 -0.2412803
000280 92 ba 2c 3e cf c3 99 3d cf 70 fa 3d f1 d6 8f be
       0.16868046 0.07508051 0.12228548 -0.28093675
000290 49 d6 1a be 57 d1 1f 3d 89 af 5f be 5c 63 72 bd
       -0.15120806 0.039018 -0.21844305 -0.059176788
0002a0 9e 49 98 bd 2f d1 33 3e 49 d3 43 bd fd 0c fc 3b
       -0.07435916 0.17560266 -0.04780892 0.007691978
0002b0 2e d5 b9 bc b9 24 a8 be ee 77 8c 3d 5d 96 18 be
       -0.02268466 -0.32840517 0.06858812 -0.14901109
0002c0 31 0a e8 bd 88 cb 3f ba 8f 97 4b be 3b 26 be bd
       -0.11330069 -0.00073164003 -0.19882034 -0.09284636
0002d0 99 92 2f be a6 e8 a9 bd 4d 27 e1 3d b1 59 8b bd
       -0.17145766 -0.08296327 0.10993824 -0.06804217
0002e0 eb c0 6c 3d 99 d8 04 3e a0 3d 11 be 92 e4 3b 3e
       0.05780117 0.1297325 -0.14183664 0.18348911
0002f0 df 53 05 be 5c 25 ad 3d 48 2d b4 3b b0 40 bb 3e
       -0.13020276 0.08454391 0.005498562 0.3657279
000300 cc ab 4f 3e 2d 19 66 3e f9 6d 00 bb 89 4b 95 3e
       0.20280379 0.22470541 -0.0019596799 0.2915919
000310 98 62 04 be 7c 67 17 3e 84 7a 49 3e 92 20 e4 be
       -0.12928236 0.1478557 0.19675642 -0.445561
000320 11 f4 bf bd d7 a1 28 3e 53 14 94 be b6 7a 60 be
       -0.09372724 0.16467987 -0.28921756 -0.2192181
000330 aa 09 b4 be 44 58 9e 3e 92 36 14 3e 6a 1f 35 bd
       -0.35163623 0.30926716 0.14473942 -0.044219412
000340 51 fc 4a be 4a a7 38 3e a1 ca c3 bd f0 65 a9 3d
       -0.19822814 0.18032566 -0.09560133 0.08271396
000350 01 57 55 be b8 8d 19 3e 72 7a 49 be 77 d1 5c 3e
       -0.2083397 0.14995468 -0.19675615 0.2156428
000360 d6 17 9f bd fd 56 02 bd 76 eb bb ba ac b0 43 3e
       -0.07768218 -0.03182124 -0.0014337141 0.19110364
000370 cd 2f 42 be 99 f2 2f bd 17 11 01 be fc dc 69 be
       -0.18963547 -0.04295597 -0.12604176 -0.22838205
000380 02 f1 59 be 30 da 3b 3e 32 b8 8e bd 0e 00 30 3d
       -0.21283343 0.1834495 -0.06968726 0.042968802
000390 47 50 1f be d1 e1 f8 3c 0c 14 45 3e cb ff 9c 3c
       -0.15557967 0.030381115 0.19245929 0.01916494
0003a0 b9 53 00 3e b0 25 a8 bc 35 bd 1b be d8 d7 14 3e
       0.12531938 -0.020525783 -0.15208896 0.14535463
0003b0 ff 2d 9a be a4 9a 7d 3e d1 1d c4 3d 2a 2b 1d bc
       -0.30113217 0.24766022 0.095759995 -0.009592811
0003c0 c1 ea 76 be ce 1d 5f be c8 9e 28 3e fa 72 43 bd
       -0.24112989 -0.21788713 0.1646682 -0.047717072
0003d0 d9 98 70 3e b1 84 2c 3e 60 70 d0 3d b7 78 db 3d
       0.23495807 0.16847493 0.10177684 0.10716384
0003e0 77 38 84 3e 63 74 b7 bc 74 fd 14 3e 89 96 42 3e
       0.2582433 -0.022394365 0.1454981 0.19002737
0003f0 0f ef 06 3e 3f 38 40 bd 77 13 75 3e 87 bc af bd
       0.13177131 -0.04692864 0.23933206 -0.085808806

stu.hidden.0.mlp.swiglu.w2.weight f4 [24, 96]
000000 08 53 f7 3d 02 a6 ab bc d8 b5 40 bc cd 89 d1 3d
       0.12076384 -0.020953182 -0.011762105 0.102313615
000010 d9 01 df 3d 91 5d fa 3d 12 bd 5e 3e d8 86 07 be
       0.10889024 0.122248776 0.21751812 -0.13235033
000020 1b a9 44 3e 70 59 71 bc d6 bd 56 3c 02 70 8c 3e
       0.19205134 -0.014730796 0.013106784 0.27429205
000030 f8 37 00 bd 57 e1 0a 3e 04 98 34 be 54 7c cd bd
       -0.031303376 0.13562523 -0.17636114 -0.10033479
000040 86 52 ea 3d a8 69 1b be a9 55 10 3e 9a a3 07 3e
       0.11441521 -0.15177023 0.14095177 0.13246003
000050 5e 78 ac 3d 5e 2a a4 3b 85 a3 19 bc 1c 07 93 be
       0.08421396 0.0050099334 -0.009377365 -0.28716362
000060 33 1b 4c 3d d8 f3 50 be 98 2a cb 3c 2f 7e 10 be
       0.049830627 -0.20405519 0.024800584 -0.14110635
000070 a4 87 a1 be 77 8b a8 bc 78 d2 d2 3d b7 69 fb bc
       -0.31548798 -0.020574315 0.1029405 -0.030690057
000080 7a 93 23 3d ed ed 05 3d b2 37 08 be 18 56 14 be
       0.039935566 0.032697607 -0.13302496 -0.14485967
000090 6d c0 aa be 7d 97 03 3d c7 82 ec bd a9 7e 88 3d
       -0.33349934 0.032126892 -0.11548381 0.066647835
0000a0 bb 14 90 3e 39 fa 7c be 14 f7 ac be 7a 02 e8 3d
       0.28140816 -0.24704827 -0.33782256 0.11328597
0000b0 72 8d ce 3d 3c 04 3c 3d 4f 87 8a 3c 8f a0 7a 3e
       0.10085572 0.045902476 0.016910223 0.2447531
0000c0 8d ab a2 3d 1e 95 a3 bd 47 4e e9 bd b1 1c a7 bd
       0.07942877 -0.07987426 -0.11391883 -0.08159769
0000d0 e4 6e 27 be f9 98 83 bd 11 30 d7 3d 3b 67 be bd
       -0.16350895 -0.064256616 0.10507215 -0.092970334
0000e0 a8 35 4d 3e 32 36 87 bd f3 08 fd 3e d7 9e 91 bd
       0.2004 -0.06602134 0.4942089 -0.071103744
0000f0 cb d4 2e 3e c6 70 50 3d fe d0 b7 3d c2 e5 f4 3d
       0.17073362 0.0508888 0.08975409 0.11957885
000100 6b 4c 26 3e 98 e7 bf 3d d7 34 17 3d 8c 12 4e 3e
       0.16240089 0.09370345 0.036915626 0.20124263
000110 79 16 8e 3e 32 b4 e6 3c d1 7e 90 3e 93 9d 04 be
       0.2775152 0.028162096 0.28221753 -0.12950735
000120 3b 22 00 be af a7 f1 3d 05 72 c0 bd 07 70 ea bd
       -0.12513058 0.11799561 -0.093967475 -0.11447149
000130 48 ef b9 bc 16 2f 39 bd a6 2c 85 3c c5 be ae 3d
       -0.022697106 -0.04521092 0.016256642 0.0853248
000140 a0 ce 1a be 6d 60 2a 3d 8f c5 25 be e3 eb d6 bd
       -0.15117884 0.041595865 -0.16188644 -0.104942106
000150 ca 05 fd 3c 03 a9 8f 3d 4f 2e af 3d 57 20 f4 bc
       0.03088655 0.07014658 0.085537545 -0.029800577
000160 19 ee e1 3c 49 68 70 3d 64 ea 2b be 30 f3 93 be
       0.027579354 0.058693204 -0.16788632 -0.28896475
000170 1f d3 bf 3c b3 86 57 bd 74 22 90 bd 0b 99 b5 3e
       0.0234161 -0.052618694 -0.070378214 0.35468325
000180 77 c6 ef 3a 13 33 06 3d 94 5f 74 3d ce ff a4 3d
       0.00182934 0.032763552 0.059661463 0.08056603
000190 b5 ba 12 3d e8 b5 dd be 77 f9 83 bd 2e 8d 54 3d
       0.03582259 -0.43302846 -0.06444066 0.051892452
0001a0 f2 e4 27 be 74 d5 0b be f0 47 0d 3e ae 7d e6 3d
       -0.1639593 -0.13655645 0.13796973 0.1125444
0001b0 9c 63 0f be a6 d8 14 bd e5 0d d9 3c 3a c7 cf be
       -0.14002842 -0.036339425 0.026495883 -0.40581685
0001c0 f0 88 3d be 13 43 0d 3e bc 8d 3e 3e 9d bd ff bd
       -0.18509269 0.13795118 0.18608755 -0.12487338
0001d0 82 a3 01 be a6 72 1c 3c 3a b4 0a be a3 25 ec 3c
       -0.1266003 0.009548819 -0.13545313 0.02882654
0001e0 20 4c 37 3c c8 65 3a 3d 71 c3 d2 be a3 6b a2 3c
       0.011187583 0.045507222 -0.41164735 0.019826716
0001f0 98 94 85 be 9f 8c 44 be f7 f5 88 bd fe 04 06 3e
       -0.2608993 -0.19194268 -0.06687539 0.13087842
000200 9e 10 94 be c3 75 55 be 48 75 b5 bd 58 74 3e 3e
       -0.28918928 -0.20845704 -0.0886026 0.18599069
000210 af 0f a5 3e 3b 04 05 3f 3d df d7 3d e8 75 6d bd
       0.32238528 0.5195958 0.10540626 -0.057973772
000220 ee e7 c3 bb da 0c d1 3c 00 ce 7c be 12 c9 b7 3d
       -0.005978576 0.025518823 -0.24687958 0.08973898
000230 28 78 08 be 09 99 d5 bc 4f e2 b7 bd fd e1 31 be
       -0.13327086 -0.02607395 -0.08978712 -0.17371364
000240 fc 0e dd 3d bd 39 53 3e 5c b7 64 3d 93 aa 41 3e
       0.10793874 0.20627494 0.055838928 0.18912725
000250 92 16 94 3e 00 47 36 bc 99 d5 2e 3e 48 5b 2b bc
       0.2892347 -0.011125326 0.17073669 -0.010458775
000260 43 fd a6 3d a1 4b 03 bd 73 f9 f0 bb c3 49 c1 bc
       0.081537746 -0.032054547 -0.0073539554 -0.023594743
000270 59 57 11 bd bf 2f c9 be d5 d1 48 bd 14 fb 33 3e
       -0.03548369 -0.3929424 -0.049028236 0.17576247
000280 7e a5 90 be 6c 56 8e bd 7a f5 5f 3d 2a d6 86 3d
       -0.2825126 -0.069500774 0.054677464 0.06583817
000290 08 66 69 be a0 9b 15 3e 0b c8 a7 3d 9c 8f 23 bd
       -0.22792828 0.14610147 0.08192452 -0.03993188
0002a0 a2 79 9b be 4c f3 57 3e 17 c9 78 be c8 61 07 3e
       -0.30366236 0.21088904 -0.2429546 0.13220894
0002b0 b1 0d 8d bd be 2a d8 3d 55 7b 83 3d 81 c5 0a be
       -0.06887377 0.105550274 0.06420008 -0.13551904
0002c0 0d 48 19 3e 67 ea 02 3d f4 5d 40 bc c1 9f a6 3e
       0.14968891 0.031961825 -0.01174115 0.32543758
0002d0 db 7f 9d 3d 01 61 87 be 88 e3 17 be 9b c0 ff bd
       0.07690402 -0.26441196 -0.1483289 -0.124879085
0002e0 f3 9e 0f 3e d9 ed 76 be 67 38 f0 3a e4 9c bc 3d
       0.14025478 -0.24114169 0.0018327356 0.09209612
0002f0 ff 61 a7 3d c0 79 18 3e 0c 1b 23 3e ba 60 ba be
       0.08172988 0.14890194 0.15928286 -0.36401922
000300 7b c9 ce bd 4a 01 29 be d7 61 d5 3e 91 62 1b be
       -0.10097023 -0.16504398 0.41676208 -0.15174319
000310 b2 9b e9 bd 42 14 5e be 0f d9 8b be 39 33 8c bd
       -0.1140665 -0.21687415 -0.2731404 -0.068457074
000320 ea b2 15 3e c9 77 ce 3c 9a 42 88 3d 5b 49 54 be
       0.14619032 0.025203602 0.06653328 -0.20731108
000330 02 f2 fe bd ba 46 07 3d 20 99 b0 3e 0a 95 35 be
       -0.12448503 0.033026434 0.34491825 -0.17732635
000340 81 83 b7 3e e3 a3 59 bc b3 33 49 3e 8a a0 3b bd
       0.35842517 -0.013283703 0.19648628 -0.0458074
000350 8c 3d ac 3e e3 45 93 3b 62 ee 42 be 20 df 58 3c
       0.33640707 0.004494415 -0.19036248 0.013236791
000360 e2 29 4a be 23 a9 a4 3d 81 4f 5b bd 79 45 95 3e
       -0.1974254 0.08040073 -0.053542618 0.29154566
000370 22 ef a5 3e cb 6a 0f be 1f ab 6f bc 9e 66 9e 3c
       0.32409006 -0.14005582 -0.014628201 0.019336041
000380 00 ab 07 3c b8 4c f4 3c 76 5f c7 bd ea e8 0d be
       0.008280516 0.029821739 -0.097350046 -0.13858381
000390 1d ba 3d 3e a8 24 0b be c7 90 d3 bd d9 9d 07 3e
       0.18528028 -0.13588202 -0.103303485 0.13243808
0003a0 16 5a c3 3d 19 aa aa 3d 8e af 57 3e e0 9a 4f 3e
       0.09538667 0.08333225 0.21063063 0.20273924
0003b0 19 98 1e 3d 79 17 ba 3e fd 62 96 3c 07 a2 11 3d
       0.03871927 0.36346033 0.018357748 0.035554912
0003c0 75 75 76 3e 21 6a 80 3d 4c e5 e4 bc 09 55 23 be
       0.24068244 0.062702425 -0.027941369 -0.15950407
0003d0 1b 2b 4e be 53 05 a7 bd b4 fa 8b 3d 4a 13 af bd
       -0.20133631 -0.081553124 0.06834927 -0.08548601
0003e0 bc 69 85 3e ce f8 e9 bc 88 b2 84 be e8 66 68 3e
       0.2605723 -0.028561022 -0.2591746 0.22695506
0003f0 a5 41 07 be d8 3f cc bd f5 d8 26 be 05 f8 b1 bd
       -0.13208635 -0.09973115 -0.162937 -0.08689884
