checkpoints/sssm-HalfCheetah-v1-model_step-1155-2024-11-19-13-01-52.pt (torch, 239784 bytes, 26 tensors)

spectral_ssm.hidden.0.rn_1.weight f4 [32]
0	0x3f816e9d	1.0111881
1	0x3f66cdbb	0.9015767
2	0x3f81df83	1.0146335
3	0x3f80a3e5	1.0050017
4	0x3f804996	1.0022457
5	0x3f7eebcc	0.9957855
6	0x3f6a5089	0.91529137
7	0x3f6f33f8	0.93438673
8	0x3f7bd7f7	0.9837641
9	0x3f70b9a7	0.94033283
10	0x3f648aa8	0.8927407
11	0x3f726b70	0.94695187
12	0x3f6a3cda	0.914991
13	0x3f71614d	0.94289094
14	0x3f6a9e40	0.9164772
15	0x3f7777e8	0.9666734
16	0x3f6eaabb	0.93229264
17	0x3f8224b7	1.0167454
18	0x3f735db1	0.95064837
19	0x3f83d6cb	1.0299925
20	0x3f677b64	0.90422654
21	0x3f804b64	1.0023007
22	0x3f7bd2f8	0.9836879
23	0x3f6ea338	0.932178
24	0x3f65d7f3	0.8978264
25	0x3f7a21c5	0.9770778
26	0x3f82bae3	1.0213283
27	0x3f71ad58	0.94405127
28	0x3f7011f3	0.9377739
29	0x3f6e8a3d	0.93179685
30	0x3f793aca	0.9735533
31	0x3f86b884	1.052506

spectral_ssm.hidden.0.rn_2.weight f4 [32]
0	0x3f772fb5	0.9655717
1	0x3f7fa687	0.99863476
2	0x3f7e9be4	0.9945662
3	0x3f6e252d	0.93025476
4	0x3f7755ac	0.966151
5	0x3f7f4243	0.9971048
6	0x3f86b441	1.0523759
7	0x3f7cc8f1	0.9874411
8	0x3f7cb893	0.9871914
9	0x3f8073d8	1.0035353
10	0x3f80111f	1.0005225
11	0x3f837b6e	1.0272043
12	0x3f859317	1.0435513
13	0x3f83455b	1.0255541
14	0x3f88fada	1.0701554
15	0x3f7e8f1a	0.99437106
16	0x3f75843d	0.95904905
17	0x3f78ede8	0.97238016
18	0x3f84c6ad	1.0373131
19	0x3f77d7cb	0.9681365
20	0x3f72e4d0	0.9488039
21	0x3f7127e8	0.9420152
22	0x3f7ff545	0.99983627
23	0x3f84dfb7	1.0380772
24	0x3f813250	1.0093479
25	0x3f7ff976	0.9999002
26	0x3f7c3f47	0.98534054
27	0x3f81fb98	1.0154905
28	0x3f812a14	1.0090966
29	0x3f89059f	1.070484
30	0x3f82bc05	1.0213629
31	0x3f81b27e	1.0132596

spectral_ssm.hidden.0.stu.M_inputs f4 [32, 32]
0	0xbdac5fc6	-0.08416705
1	0xbd4ffc98	-0.050778
2	0x3e17c5a4	0.14821488
3	0xbd93a3ed	-0.07209001
4	0xbe1754be	-0.1477842
5	0x3a645a46	0.00087109616
6	0x3d1d3bf5	0.038387258
7	0xbe400e46	-0.18755445
8	0x3e4040d9	0.18774737
9	0xbe4d85aa	-0.2007052
10	0x3db9435b	0.0904605
11	0xbe8ce49d	-0.27518168
12	0x3eb6187e	0.3556556
13	0x3d9b8b39	0.07594914
14	0xbea8a864	-0.32940972
15	0xbd59605b	-0.053070407
16	0x3dd6278c	0.10456762
17	0xbe2cb5e5	-0.16866262
18	0xbd91649e	-0.07099269
19	0xbe32588d	-0.17416592
20	0x3e439a22	0.19101766
21	0x3ea71215	0.32630983
22	0xbce181c5	-0.0275277
23	0x3e1c7e6d	0.15282603
24	0x3e3a84fd	0.18214794
25	0x3dbdf47a	0.09275146
26	0xbe1aeafe	-0.15128705
27	0xbccef7e3	-0.025264686
28	0x3d833962	0.06407429
29	0xbe5d9f49	-0.21642794
30	0xbea85512	-0.32877403
31	0xbe0eb8d1	-0.1393769
32	0x3d227748	0.039664537
33	0xbd5cba89	-0.05388883
34	0x3dfce62c	0.12348589
35	0xbda7262e	-0.08161579
36	0x3cc2f606	0.023798954
37	0xbc4adb73	-0.012381422
38	0x3dddbcbd	0.108270146
39	0xbe5e0320	-0.2168088
40	0xbd3f7da5	-0.046750683
41	0x3e2db5ee	0.16963932
42	0xbe88beee	-0.26708168
43	0xbe3dbbc2	-0.18528655
44	0x3e0c0600	0.13674164
45	0xbbff4621	-0.0077903424
46	0xbdcc6779	-0.09980673
47	0xbdd87db5	-0.10570852
48	0x3df2c88a	0.11854656
49	0xbd00a080	-0.031403065
50	0xbe095357	-0.13410698
51	0x3d997f1f	0.074949495
52	0xbcf8b24b	-0.030358454
53	0xbdb1673b	-0.08662268
54	0x3dfaf4d9	0.12253732
55	0xbc98f03b	-0.018669238
56	0xbd8cd591	-0.06876672
57	0x3b515eb1	0.003194731
58	0xbe3c86a3	-0.18410735
59	0xbceaca23	-0.02866084
60	0xbe064437	-0.1311196
61	0x3d942df2	0.07235326
62	0xbd272bfa	-0.040813424
63	0x3cbbfc77	0.022947533
64	0x3d2a2af2	0.041544862
65	0xbe21bc22	-0.15794423
66	0xbe33a125	-0.1754194
67	0xbdc1d538	-0.094644964
68	0x3d86b34c	0.06577167
69	0x3da8e14c	0.08246097
70	0x3e2a27b9	0.16616715
71	0xbd88c64e	-0.066784486
72	0xbe32950d	-0.17439671
73	0x3b84bd98	0.0040509216
74	0xbe248d5a	-0.16069546
75	0xbd5d594a	-0.05404023
76	0x3d8ccd12	0.068750516
77	0xbe9f05e3	-0.3105918
78	0xbd052e6f	-0.032514986
79	0xbd1f2587	-0.03885415
80	0xbdd7dab3	-0.105397604
81	0xbccb9685	-0.024852047
82	0x3b8f8400	0.0043797493
83	0x3e529ba4	0.20567185
84	0x3d247050	0.040146172
85	0x3e13120c	0.14362353
86	0x3d58e153	0.05294926
87	0x3ccad3a0	0.024759114
88	0xbd9a7f71	-0.07543839
89	0x3da68cd3	0.08132329
90	0xbeb3fc09	-0.35153225
91	0x3e2b774a	0.16744724
92	0xbdcdcdbb	-0.100490056
93	0x3cf4dbb0	0.029889911
94	0x3dc0dc88	0.09417063
95	0x3e00986c	0.12558144
96	0x3e14a32f	0.14515375
97	0x3c97996c	0.018505774
98	0xbe3290ab	-0.17437999
99	0xbedaf0f1	-0.4276195
100	0xbe9e91d8	-0.30970645
101	0x3cbe5116	0.023232024
102	0x3bfd9da5	0.00773974
103	0xbd5618d1	-0.05226976
104	0x3ec506d8	0.38481784
105	0xbe34c73a	-0.17654124
106	0xbe3332fc	-0.17499918
107	0x3e37f8fc	0.17966074
108	0xbd0b1c6b	-0.03396265
109	0x3e746d85	0.23869903
110	0xbc6dbbcc	-0.014510106
111	0x3dea869b	0.11451455
112	0x3e27b058	0.16375864
113	0xbcb4de6a	-0.022078712
114	0x3e8c0491	0.27347234
115	0xbea22cb9	-0.31674746
116	0x3ca8a9d5	0.020588795
117	0xbb8a204b	-0.0042152754
118	0xbe709b8e	-0.2349684
119	0xbcab0ace	-0.020879176
120	0xbd119dc6	-0.035550855
121	0x3dbf9632	0.09354819
122	0xbde65504	-0.11246684
123	0xbce81ca7	-0.028333975
124	0xbe24802e	-0.16064522
125	0xbe2d6202	-0.16931918
126	0xbd0c88c8	-0.034310132
127	0x3d5dbc87	0.05413487
128	0x3de4d950	0.111742616
129	0xbe832cc3	-0.25620088
130	0xbe922098	-0.28540492
131	0xbe4b064b	-0.1982662
132	0x3e8a8107	0.27051565
133	0x3e02df4f	0.12780498
134	0x3e2fc6d3	0.17165689
135	0xbd55a971	-0.052163545
136	0x3e746f37	0.2387055
137	0xbd91c11d	-0.071169116
138	0x3e28ba1c	0.16477245
139	0x3cb0f4c3	0.021601086
140	0x3e2a3d75	0.16625006
141	0xbcd28183	-0.025696522
142	0xbdf4331d	-0.119238116
143	0x3e0139fd	0.12619777
144	0x3cd8d4a6	0.026468586
145	0x3c39a625	0.011331116
146	0xbe37f002	-0.1796265
147	0xbdb82d52	-0.08993019
148	0xbe3e15b4	-0.18562967
149	0xbdc12490	-0.09430802
150	0x3eafd09d	0.34338847
151	0x3cfe4837	0.031040294
152	0xbe267fef	-0.1625974
153	0x3e528402	0.2055817
154	0xbddfa5b4	-0.10920277
155	0xbdd3e566	-0.10346489
156	0xbc8955e9	-0.016764598
157	0xbbd76730	-0.00657358
158	0xbdc8d944	-0.09807065
159	0xbe3205a1	-0.1738496
160	0x3dc8f668	0.09812623
161	0xbe3adf95	-0.18249352
162	0x3e176545	0.14784725
163	0xbd9c1e41	-0.07622958
164	0x3d480680	0.048834324
165	0xbe75b345	-0.23994167
166	0xbda5f645	-0.08103613
167	0xbda6a992	-0.08137812
168	0xbe740693	-0.23830633
169	0x3c8706ba	0.0164827
170	0x3df2ede4	0.1186178
171	0xbcb8199a	-0.022473145
172	0xbd8d5712	-0.06901373
173	0xbd898295	-0.0671436
174	0x3e306d2d	0.17229147
175	0xbdc42f54	-0.095793396
176	0xbdc2bca1	-0.09508634
177	0x3e9c1006	0.30480975
178	0x3e2d1728	0.16903365
179	0x3dbf748c	0.093484014
180	0xbcdb5ae5	-0.02677674
181	0xbd9e8d13	-0.077417515
182	0x3d6f0468	0.05835381
183	0x3d97b3e7	0.074073605
184	0xbb9046a7	-0.0044029537
185	0xbe300b9d	-0.1719193
186	0x3af42d4a	0.001862922
187	0xbe280871	-0.1640947
188	0x3d4860c7	0.04892042
189	0xba231e28	-0.000622245
190	0x3cd0e77d	0.025501007
191	0x3e9ef2d5	0.3104464
192	0x3d206289	0.03915647
193	0xbc7e1db9	-0.015510016
194	0x3e536d66	0.20647201
195	0xbc8c00a7	-0.017090155
196	0xbdfac789	-0.122450896
197	0x3e0cc9ba	0.13748828
198	0xbd9b4524	-0.07581547
199	0x3e73793b	0.23776715
200	0x3ea82f9d	0.32848826
201	0xbdf753ba	-0.120765164
202	0xbe254474	-0.16139394
203	0x3ec8d37e	0.39223856
204	0x3dd74e34	0.10512963
205	0xbd87aa9b	-0.06624337
206	0x3bf457d1	0.0074567576
207	0x3c34e189	0.0110401
208	0xbe5d7b5c	-0.21629089
209	0xbec03486	-0.37540072
210	0xbc1ae0c8	-0.009453006
211	0x3e400911	0.18753459
212	0x3e2079a5	0.15671404
213	0xbd86373a	-0.065535024
214	0xbd9fcee2	-0.07803132
215	0xbd0bf8e6	-0.034172915
216	0xbe04e003	-0.12976079
217	0x3e41cf3c	0.1892671
218	0x3deb340d	0.11484537
219	0xbd9b6424	-0.0758746
220	0xbd0697be	-0.032859556
221	0x3cfff73d	0.031245822
222	0xbd84a298	-0.06476325
223	0xbe0f80ef	-0.14014028
224	0x3b80c8d5	0.003930191
225	0x3e231bba	0.15928546
226	0x3debdd16	0.11516778
227	0x3ea22662	0.3166991
228	0xbe2b73c2	-0.16743377
229	0xbe017d86	-0.1264554
230	0xbe479e4b	-0.19493978
231	0x3dfe49c4	0.124164134
232	0xbd75aa96	-0.059977137
233	0x3b8064d9	0.003918272
234	0x3dccb975	0.099963106
235	0x3ea6ed82	0.3260308
236	0xbdefd6ec	-0.11710915
237	0x3e3795ad	0.1792819
238	0x3d737776	0.0594401
239	0xbd74a38e	-0.05972629
240	0x3c08eb40	0.008356869
241	0xbdc0113f	-0.093782894
242	0xbd18baa5	-0.037287373
243	0x3bd6ed6e	0.0065590655
244	0xbd9a1726	-0.075239465
245	0xbc28960a	-0.010289678
246	0xbd0db148	-0.034592897
247	0x3d67260a	0.05643276
248	0x3e6848f1	0.22684075
249	0xbd583712	-0.052786894
250	0x3d9c9700	0.076459885
251	0x3e00d2e4	0.12580448
252	0x3dc1b787	0.09458833
253	0x3e5d0a4c	0.21585959
254	0x3e677fe7	0.22607385
255	0x3e683d44	0.22679621

spectral_ssm.hidden.0.stu.M_filters f4 [16, 32]
0	0xbd829a48	-0.06377083
1	0x3dc90002	0.098144546
2	0x3ddf91a9	0.10916454
3	0xbe02d9a6	-0.12778339
4	0x3e46aa65	0.19400938
5	0xbe0c2e95	-0.13689645
6	0x3e8ef137	0.27918407
7	0xbde555b0	-0.11197984
8	0x3ddbb87a	0.107285455
9	0xbe0a1984	-0.13486296
10	0x3da36580	0.07978344
11	0xbe78ae63	-0.24285273
12	0x3db9a943	0.09065487
13	0x3e3e4ab3	0.18583183
14	0x3dddaafe	0.1082363
15	0x3c59ddc2	0.0132975
16	0x3e8143a9	0.25246933
17	0xbd5ce97f	-0.053933617
18	0x3d3047f6	0.043037377
19	0xbc3b0c8b	-0.011416565
20	0x3b00d089	0.0019655547
21	0x3e31af93	0.17352132
22	0x3e337e59	0.17528667
23	0xbe0a35c5	-0.13497074
24	0x3e973da2	0.2953921
25	0x3e6e46c0	0.23269176
26	0x3e380895	0.17972024
27	0x3e0178ef	0.12643789
28	0xbcc9e49c	-0.024645142
29	0x3e9788d1	0.2959657
30	0xbe6986e9	-0.2280537
31	0xbd9dce15	-0.07705323
32	0x3dde95ea	0.108684376
33	0x3d8952c8	0.067052424
34	0x3d3bc127	0.0458385
35	0xbe08fb08	-0.13377011
36	0x3eeff150	0.46863794
37	0xbcbae462	-0.02281398
38	0x3e08d08e	0.13360807
39	0x3dc2245f	0.094795935
40	0x3da58709	0.080823965
41	0x3d363d57	0.044492092
42	0x3de4f20b	0.111789785
43	0x3da82d3a	0.08211751
44	0x3cc1f0fd	0.023674482
45	0x3e970a63	0.29500112
46	0x3df7c2ae	0.12097679
47	0x3d7bab0f	0.06144243
48	0x3e8b903f	0.2725849
49	0xbdca0c31	-0.098656066
50	0xbe43c2d1	-0.19117285
51	0xbe038951	-0.12845351
52	0x3d767a07	0.060174968
53	0xbeaddf91	-0.3395963
54	0x3e5304e8	0.2060734
55	0x3e0930db	0.13397543
56	0x3dde6d32	0.10860671
57	0x3e9170df	0.28406426
58	0xbe13a020	-0.14416552
59	0xbe9723fd	-0.29519644
60	0x3de83258	0.11337727
61	0x3d7ee86d	0.062233377
62	0x3e2a5021	0.16632129
63	0x3d8eb347	0.06967788
64	0x3e128894	0.14309913
65	0xbbdb741b	-0.0066971905
66	0xbe830fbe	-0.25597948
67	0x3cd1a956	0.025593441
68	0x3f041b5c	0.5160425
69	0x3e19b26b	0.15009467
70	0xbe95b54a	-0.29239875
71	0xbe1a7651	-0.15084197
72	0xbe6c90c8	-0.23102105
73	0xbe1607e7	-0.14651452
74	0x3e9df5bf	0.30851552
75	0xbe456653	-0.19277315
76	0xbe2e9e86	-0.1705266
77	0x3e5d6795	0.21621545
78	0x3e658843	0.22415261
79	0xbc63647f	-0.013878941
80	0xbd0c4478	-0.034244984
81	0xbe828817	-0.25494453
82	0xbdc58087	-0.09643655
83	0xbe15e656	-0.14638647
84	0x3e42c87b	0.1902179
85	0xbe08d0ab	-0.1336085
86	0xbe4c98c6	-0.19980153
87	0x3e30d600	0.17269135
88	0xbe68dcab	-0.22740428
89	0x3e43432d	0.19068594
90	0x3e815e9a	0.25267488
91	0x3d56bcdb	0.0524262
92	0xbe53fe8f	-0.20702575
93	0x3d2275e3	0.039663207
94	0xbd188c44	-0.037243143
95	0x3e475aca	0.19468227
96	0x3e5b3486	0.21406755
97	0xbca172be	-0.019708034
98	0x3eaae681	0.33378986
99	0xbe2ffd7f	-0.17186545
100	0xbd8d04a1	-0.068856485
101	0xbddcc229	-0.107792206
102	0x3d9633bf	0.073340885
103	0x3cec9738	0.0288807
104	0xbd64b1eb	-0.05583374
105	0x3de241a0	0.11047673
106	0x3eaef69b	0.3417252
107	0xbc800acb	-0.015630146
108	0x3e80d3e8	0.25161672
109	0xbd7c1206	-0.061540626
110	0xbe2dc7c1	-0.16970731
111	0xbe3b6eea	-0.18304029
112	0x3eda7439	0.42666796
113	0x3d91b621	0.071148165
114	0xbe007759	-0.12545528
115	0xbc45e4bb	-0.012078459
116	0xbe8886b6	-0.26665276
117	0xbda8f601	-0.082500465
118	0xbe030ab7	-0.12797056
119	0xbe8fb9e7	-0.2807152
120	0x3dfc9ccb	0.123345934
121	0xbe7830c5	-0.24237354
122	0xbebf0a9a	-0.37312776
123	0x3d47940e	0.04872518
124	0x3c645370	0.013935909
125	0x3eafd49d	0.343419
126	0xbe1024b7	-0.14076506
127	0x3eadfebc	0.3398341
128	0x3dc42b9d	0.09578631
129	0xbd8238c7	-0.06358486
130	0xbe297fcb	-0.16552655
131	0x3d842c7d	0.06453798
132	0x3e257dc5	0.16161259
133	0xbd480e3b	-0.048841696
134	0xbdd70288	-0.1049853
135	0x3e35ea5d	0.17765184
136	0xbd2704cd	-0.040776063
137	0x3e9fce15	0.31211916
138	0x3e934353	0.28762302
139	0x3e438dbe	0.19097039
140	0x3d760bf7	0.060070004
141	0xbe87fa5d	-0.265582
142	0x3e648808	0.22317517
143	0xbc9d8104	-0.019226559
144	0xbe0f2f74	-0.13982946
145	0xbeaf2a0b	-0.34211764
146	0x3e8ba3d5	0.2727343
147	0x3db62806	0.088943526
148	0xbd0485e5	-0.032354254
149	0xbe59fd6a	-0.21288076
150	0xbcdaec27	-0.026723934
151	0x3de10c5f	0.10988688
152	0xbc89eb66	-0.01683588
153	0xbe19999f	-0.15000008
154	0xbeecc2a5	-0.46242252
155	0x3e49627a	0.19666472
156	0xbaf97153	-0.0019030966
157	0x3dc3e96a	0.095660046
158	0x3de2c4dd	0.11072705
159	0xbddf6bfe	-0.1090927
160	0x3ea59359	0.3233898
161	0xbd892ba6	-0.066977784
162	0x3d2b1202	0.04176522
163	0xbe6010ee	-0.21881458
164	0x3d8e7f61	0.06957889
165	0x3b4cf9d1	0.0031276832
166	0xbdff49be	-0.12465237
167	0x3cfd2d4f	0.030905394
168	0xbe34a415	-0.17640717
169	0x3c482358	0.012215458
170	0x3e60264e	0.21889612
171	0x3d5963ce	0.053073697
172	0x3e3efdc9	0.18651499
173	0xbd32e40d	-0.043674517
174	0xbd1974d9	-0.03746495
175	0xbae28ed4	-0.0017284998
176	0xbd8b8ede	-0.06814359
177	0xbe586b43	-0.21134667
178	0x3ea9c92f	0.33161303
179	0x3e1c0475	0.15236075
180	0xbd3f866b	-0.04675905
181	0xbe9c56a4	-0.30534852
182	0xbcdcfb06	-0.026975166
183	0x3ddbc0a6	0.10730104
184	0x3d13cf24	0.036086217
185	0x3e3a776a	0.18209615
186	0x3c901099	0.01758604
187	0x3e021a90	0.12705445
188	0xbdbcb6d4	-0.09214559
189	0xba3fb0dd	-0.00073124265
190	0x3e07c97a	0.13260451
191	0xbe5e9c0e	-0.21739218
192	0xbdfe9627	-0.12430983
193	0x3a16659d	0.00057371875
194	0x3c8fd738	0.017558679
195	0x3edf627a	0.4362982
196	0xbe9d1b10	-0.3068471
197	0x3d8fb674	0.07017222
198	0x3e2d770f	0.16939948
199	0x3ddb9268	0.10721284
200	0x3e06f7de	0.13180491
201	0x3e402593	0.18764333
202	0x3e3759ed	0.17905398
203	0x3e7df474	0.24800283
204	0xbde442a4	-0.11145523
205	0xbe4837d3	-0.19552545
206	0x3e234462	0.15944055
207	0xbcbee499	-0.023302363
208	0xbd5e11c6	-0.05421617
209	0x3e573e60	0.21019888
210	0x3e0c112b	0.13678424
211	0xbee9957a	-0.45621854
212	0x3e3c1470	0.18367171
213	0x3d131096	0.03590449
214	0xbe9b52d3	-0.30336627
215	0x3e069de4	0.13146168
216	0x3e4d82bb	0.20069401
217	0x3d0528b4	0.03250952
218	0xbe2351dd	-0.15949197
219	0x3e829b66	0.25509185
220	0x3dd02b6a	0.101645306
221	0x3e620154	0.22070819
222	0x3d5d2608	0.053991348
223	0x3d93c9f5	0.072162546
224	0x3e1a7b23	0.15086035
225	0x3e37ae12	0.17937496
226	0xbda86b5e	-0.08223604
227	0x3d194afb	0.037425023
228	0xbe5e89c7	-0.21732245
229	0xbe2d275e	-0.16909549
230	0x3d648087	0.055786636
231	0x3ebcf9eb	0.36909422
232	0x3d0e7235	0.034776885
233	0xbdb266c3	-0.087110065
234	0x3edd2b30	0.43197012
235	0xbec056f6	-0.37566346
236	0x3e9ab73a	0.30217916
237	0x3d6e46f9	0.058173154
238	0xbe7291b0	-0.23688388
239	0x3e59e0bf	0.2127714
240	0x3eec94f8	0.46207404
241	0xbca95aa1	-0.020673098
242	0x3e390f41	0.18072225
243	0xbeb0f290	-0.3456006
244	0xbdb6afdb	-0.089202605
245	0xba2eaa74	-0.0006662973
246	0xbe47b8d9	-0.19504108
247	0x3ef3cbf6	0.47616547
248	0x3eb04464	0.34427178
249	0xbdbb0ee1	-0.09133697
250	0xbe4a0be7	-0.19731103
251	0x3db00945	0.08595518
252	0xbe2ab5ee	-0.16670963
253	0x3c0cbe0d	0.0085902335
254	0x3d8f190b	0.069871984
255	0xbcb77a0e	-0.022397067

spectral_ssm.hidden.0.mlp.fc_1.weight f4 [256, 32]
0	0x3cb78429	0.022401886
1	0x3dd2907a	0.10281463
2	0xbc66db5b	-0.014090384
3	0x3c0056a8	0.00783316
4	0xbd47a710	-0.048743308
5	0x3de1ccd9	0.110254
6	0xbb76134b	-0.003754812
7	0xbd813d75	-0.0631055
8	0xbd8f0635	-0.06983606
9	0xbda578d7	-0.08079689
10	0xbc328d2f	-0.010897919
11	0xbc2fa926	-0.0107214805
12	0xbcd8cce5	-0.026464889
13	0x3be4fdeb	0.006988277
14	0x3d84a08c	0.064759344
15	0xbcb4fd02	-0.0220933
16	0xbc196008	-0.009361275
17	0x3c92c748	0.01791729
18	0x3d915083	0.070954345
19	0xbd410046	-0.0471194
20	0x3df005c7	0.11719852
21	0x3b4e15be	0.0031446065
22	0x39d4b536	0.00040570804
23	0xbd8f48bc	-0.06996295
24	0x3df71fea	0.12066634
25	0xbc876b95	-0.016530791
26	0x3da89757	0.08231991
27	0xbc1df347	-0.009640521
28	0xbd803d9f	-0.06261753
29	0xbd054d6d	-0.032544542
30	0xba547399	-0.00081043836
31	0xbd893b34	-0.06700745
32	0xbd2003c9	-0.03906611
33	0x3d59d024	0.053177014
34	0x3d066fee	0.03282159
35	0xbd1a0345	-0.037600774
36	0x3df2a2cb	0.118474565
37	0x39e3a488	0.000434194
38	0xbd182313	-0.037142824
39	0xbcd75aa8	-0.026288345
40	0xbd2c09db	-0.042001586
41	0xbdb67db6	-0.08910696
42	0xbdc519ba	-0.096240476
43	0x3d6bdc49	0.057583127
44	0x3d8d8a72	0.06911172
45	0x3dd1c0e2	0.102418676
46	0x3d9089b5	0.070575155
47	0xbddfc7da	-0.109267905
48	0xbd40ca9f	-0.047068235
49	0xbd1346c7	-0.03595617
50	0xbc6a9e9e	-0.014320044
51	0x3d3327c9	0.043739114
52	0xbc9bf866	-0.019039344
53	0x3d056b83	0.032573234
54	0x3d015680	0.031576633
55	0xbca2b615	-0.019862214
56	0x3d55373e	0.052054636
57	0xbe1b339a	-0.15156403
58	0xbde22a72	-0.11043252
59	0xbbbd9b58	-0.0057863407
60	0x3da43964	0.08018759
61	0x3d03ea6d	0.032205988
62	0xba31291a	-0.0006758139
63	0xbddbb170	-0.10727203
64	0x3d1b6fdb	0.03794847
65	0xbd3c03a0	-0.045901895
66	0xbd2e474d	-0.042548466
67	0xbd94aa06	-0.07258992
68	0x3d1fcf3d	0.039015997
69	0xbd70cf17	-0.058791246
70	0x3ccaf287	0.02477385
71	0xbc90d1c8	-0.017678156
72	0xbd7f0197	-0.062257376
73	0xbbe875c8	-0.0070941187
74	0xbcd9148e	-0.026499059
75	0x3d2d7daf	0.04235619
76	0xbc706674	-0.014672864
77	0x3d0a4d9f	0.03376543
78	0xbd934e52	-0.07192673
79	0xbd778dcd	-0.060437966
80	0x3d389bd0	0.04507047
81	0xbb26ba1c	-0.002544052
82	0x3d16efd4	0.03684981
83	0xbd39429a	-0.04522953
84	0x3d4757e9	0.048667822
85	0xbd74e2e1	-0.05978668
86	0x3d8a9696	0.06767003
87	0x3d132edf	0.03593337
88	0x3b610349	0.0034334233
89	0x3d33738b	0.043811362
90	0xbc8cb0bc	-0.017174117
91	0xbbce8e52	-0.006303587
92	0x3da29151	0.07937873
93	0xbd67ec11	-0.056621615
94	0x3d174099	0.03692684
95	0x3daf3962	0.08555867
96	0xbbd63cf4	-0.006538028
97	0xbcf49ce1	-0.029859962
98	0xbc98d46a	-0.018655974
99	0x3c02f082	0.007991912
100	0x3d2eef09	0.04270843
101	0x3caf15eb	0.021372756
102	0x3d7a22fa	0.061068512
103	0xbdc78803	-0.09742739
104	0xbd5ec914	-0.05439098
105	0x3d856af6	0.06514542
106	0x3cde88b5	0.027164796
107	0xbd0c2175	-0.034211595
108	0xbc6c27c8	-0.014413781
109	0xbd4c98fb	-0.04995058
110	0xbdd71afe	-0.10503195
111	0xbd1bb932	-0.038018413
112	0x3c81dc09	0.015851991
113	0x3d261218	0.0405446
114	0x3cccf8ca	0.025020976
115	0x3c0fd70b	0.008779298
116	0xbc8d0643	-0.0172149
117	0x3d0c6531	0.03427619
118	0x3a538047	0.0008068126
119	0x3da7020b	0.081546865
120	0x3cb7ed0e	0.022451904
121	0xbd7a1e54	-0.06106408
122	0xbd0137d2	-0.031547375
123	0x3c287627	0.010282076
124	0x3d7aec88	0.06126073
125	0x3d545677	0.05184027
126	0xbcd83e73	-0.026396966
127	0xbce8419b	-0.028351596
128	0x3e0aea80	0.13566017
129	0xbc83991f	-0.016064225
130	0x3e00088b	0.12503259
131	0xbd5b7388	-0.053576976
132	0x3d353110	0.044236243
133	0x3c0658f4	0.008199919
134	0xb7e75bb2	-2.7580045e-05
135	0xbd1b5e8f	-0.037931975
136	0x3d2dc1db	0.042421203
137	0xbc6c810a	-0.014435062
138	0xbdb20983	-0.086932205
139	0xbbd36b2c	-0.006451985
140	0x3c807f5c	0.01568573
141	0x3d311ec3	0.043242227
142	0xbc171469	-0.009221175
143	0xbd032e08	-0.03202632
144	0xbdfc0a9e	-0.123067126
145	0xbce7d84f	-0.028301386
146	0x3e02f8e8	0.12790263
147	0x3de49f5e	0.111632094
148	0x3c6ba761	0.014383168
149	0xbd133eb0	-0.035948455
150	0x3b869a87	0.0041077766
151	0x3dbe0d68	0.09279901
152	0xbb4c0f98	-0.0031137224
153	0xbc890576	-0.016726237
154	0xbd2def80	-0.042464733
155	0x3d0bbe8b	0.034117263
156	0xbd0e9762	-0.03481234
157	0x3daecc3b	0.085350476
158	0xbd52b34f	-0.051440533
159	0x3d3abb71	0.045588914
160	0x3d0f012d	0.03491323
161	0xbc5fe92c	-0.013666432
162	0x3d09dc4f	0.03365737
163	0xbdf2bd6e	-0.11852537
164	0x3dc0664e	0.09394513
165	0x3dc4e747	0.09614425
166	0xbc929f32	-0.017898176
167	0xbe31d407	-0.17366038
168	0x3d9bfd54	0.07616678
169	0x3d96689a	0.0734417
170	0xbd946d7a	-0.072474435
171	0x3c6d56ff	0.0144860735
172	0xbc6ff1fa	-0.014645094
173	0x3cc5c77d	0.024142975
174	0x3dcc40c8	0.099732935
175	0xbcd0c2e7	-0.025483562
176	0x3d7f1717	0.06227788
177	0x3da308e9	0.07960684
178	0xbd279508	-0.04091361
179	0xbcbd3a3d	-0.02309906
180	0xbd319e08	-0.0433636
181	0xbd90b32b	-0.070654236
182	0xbd7c7e79	-0.06164405
183	0x3df88594	0.12134853
184	0x3da2e1a4	0.07953194
185	0x3a2c2bd9	0.0006567813
186	0x3de76e2a	0.11300309
187	0x3e4ea8d3	0.20181589
188	0x3d610b85	0.054942627
189	0x3dd47b81	0.10375119
190	0xbdd035f6	-0.10166542
191	0xbe28ada5	-0.1647249
192	0x3cee8cb0	0.02911982
193	0x3d4cd7a0	0.050010324
194	0xbc9a1b10	-0.018811733
195	0xbdebc2cd	-0.11511765
196	0x3d67fe85	0.056639213
197	0xbd8ac71e	-0.0677626
198	0x3d7071a7	0.058702137
199	0xbdba4f9d	-0.09097216
200	0xbd9a6715	-0.075391926
201	0x3d813aed	0.06310067
202	0x3ba09ae4	0.004901277
203	0x3d011a1a	0.031519033
204	0x3d16af61	0.036788348
205	0xbcd3ab7c	-0.025838606
206	0xbdf4392d	-0.11924968
207	0xbbceaeb9	-0.0063074497
208	0xbcbefdbe	-0.023314353
209	0xbd6a98b8	-0.05727455
210	0xbd1147b3	-0.03546877
211	0x3d0d15c7	0.034444597
212	0x3cfd6b5b	0.03093498
213	0xbb4a9d12	-0.0030916375
214	0x3df2643b	0.11835524
215	0x3e40f7f2	0.18844584
216	0x3dd83abc	0.10558078
217	0x3ceaf41b	0.028680852
218	0xbcbe84e7	-0.023256732
219	0x3d8c7a47	0.0685926
220	0x3ca45f1d	0.020064885
221	0x3dc2a912	0.09504904
222	0xbca6668a	-0.020312566
223	0x3d861bce	0.06548272
224	0xbcb8cb6b	-0.022557935
225	0x3d65cd1e	0.056103818
226	0xbcdce7a8	-0.026965931
227	0x3da70da6	0.081569
228	0xbd8344a0	-0.064095736
229	0xbdab14bd	-0.08353565
230	0xbc1e758e	-0.009671582
231	0x3cc12e0e	0.02358153
232	0x3bcfc659	0.0063407836
233	0xbd4e28a7	-0.050331738
234	0x3d810135	0.06299058
235	0x3d13b2ae	0.036059074
236	0x3d2e3d84	0.042539135
237	0x3d699d2f	0.057034668
238	0x3d61bf5c	0.055114135
239	0x3d47c660	0.04877317
240	0x3de9584f	0.11393797
241	0xbcadb3a3	-0.021203822
242	0x3dbeb856	0.09312503
243	0xbd1b95fa	-0.037984826
244	0x3c78da73	0.015188801
245	0x3d5cd83f	0.053917166
246	0x3c071052	0.008243637
247	0xbe00ed4a	-0.12590519
248	0x3e3761f1	0.17908455
249	0x3db87e28	0.090084374
250	0xbd6acc38	-0.057323664
251	0xbc3ec951	-0.011644677
252	0x3def9fd8	0.1170041
253	0xbcfd57c3	-0.030925637
254	0x3c6c8f02	0.014438393
255	0x3ca4ef67	0.020133687

spectral_ssm.hidden.0.mlp.fc_2.weight f4 [32, 128]
0	0xbc83559f	-0.016032038
1	0x3d2a2274	0.041536763
2	0x3c810bc3	0.015752679
3	0x3c08d619	0.008351826
4	0xbd41926a	-0.047258772
5	0x3ddd01fc	0.10791394
6	0xbc419577	-0.01181542
7	0xbc988a10	-0.01862052
8	0x3b238019	0.0024948178
9	0xbc19737f	-0.009365915
10	0xbd2286ff	-0.039679524
11	0xbde6b09f	-0.112641566
12	0xbb972fef	-0.0046138684
13	0x39f99bc2	0.0004760903
14	0x3b8c35c2	0.0042788694
15	0xbc069960	-0.008215278
16	0xbbb92946	-0.005650672
17	0xbcb0cd1d	-0.02158218
18	0xbcb5ace1	-0.022177162
19	0xbd76dbf4	-0.060268357
20	0x3d8ec59d	0.069712855
21	0xbd0f6b1d	-0.03501426
22	0x3d0da59d	0.03458177
23	0x3d2b2101	0.04177952
24	0x3bfb9f8a	0.0076789306
25	0xbd6da374	-0.05801721
26	0x3cd93ae9	0.026517348
27	0x3cd6ff04	0.026244648
28	0x3cfc480d	0.030796075
29	0x3cddfa79	0.027096974
30	0x3c639ac3	0.013891879
31	0xbd4da6c0	-0.050207853
32	0xbd36d9a5	-0.044641156
33	0xbd6e7b16	-0.058222853
34	0xbb72d4b4	-0.003705305
35	0x3ddaceb9	0.106839605
36	0xbcc8e3b6	-0.024522644
37	0x3d954e05	0.07290272
38	0x3d82915b	0.063753806
39	0xbd316fad	-0.043319393
40	0xbc8f87fc	-0.017520897
41	0x3c631676	0.013860336
42	0xbc05ed3a	-0.008174235
43	0x3d3653d9	0.044513557
44	0xbce5dfa2	-0.028060738
45	0x393b0137	0.00017834162
46	0x3d6b817b	0.05749653
47	0xbcdd3890	-0.02700451
48	0x3d4fdb3e	0.050746195
49	0x3d3f43c3	0.046695482
50	0x3ca3e7e2	0.020008031
51	0xbd616842	-0.05503107
52	0x3dbc130e	0.09183322
53	0x3ce127b9	0.027484762
54	0x3d1e3242	0.03862215
55	0xbd2a672e	-0.041602306
56	0x3d0fbcba	0.035092093
57	0xbc87c056	-0.016571205
58	0xbb7c60d3	-0.003850986
59	0xbd7ed422	-0.062214024
60	0x3d380a13	0.044931483
61	0x3ca70410	0.02038768
62	0x3c4ee909	0.012628802
63	0xbd0fb034	-0.03508015
64	0x3c1f3c35	0.009718944
65	0x3d0cb0a6	0.034348153
66	0xbbe44f72	-0.0069674784
67	0x3c845038	0.016151533
68	0xbbdfdca1	-0.006831721
69	0x3c6907b2	0.014223026
70	0xbba25f97	-0.004955243
71	0x3c5a4893	0.013322967
72	0xbd3e032a	-0.046389736
73	0x3d4ccf7b	0.050002556
74	0xbd97118c	-0.07376394
75	0x3c1a5a38	0.009420924
76	0xbd1a433f	-0.037661787
77	0x3c0c57cf	0.008565857
78	0x3b9e7e34	0.004836822
79	0x3c9cceb6	0.019141536
80	0x3d9e6602	0.077343
81	0x3c6347d1	0.013872103
82	0xbda8ab43	-0.082357906
83	0xbd0505f2	-0.032476373
84	0xbd01dfff	-0.03170776
85	0x3b587cdd	0.0033033409
86	0xbcd9e034	-0.026596166
87	0x3dd2c7f9	0.10292048
88	0x3d03f230	0.03221339
89	0x3c8fda77	0.017560227
90	0x3c000783	0.007814291
91	0xbdc13959	-0.09434766
92	0xbda67458	-0.081276596
93	0xbb28bb6a	-0.0025746473
94	0x3d72df8b	0.05929522
95	0x3dae65e5	0.085155286
96	0x3b705add	0.0036675252
97	0xbd181391	-0.037128035
98	0x3cc23a90	0.023709565
99	0x3c378f0f	0.011203541
100	0x3b0b0008	0.0021209735
101	0x3cf3dd8d	0.02976873
102	0xbd106111	-0.03524882
103	0x3a86bbbb	0.0010279337
104	0xbbb1c5c1	-0.0054251854
105	0x3d81deff	0.06341361
106	0x3d5569bb	0.052102786
107	0xbd27d900	-0.04097843
108	0x3a3166a8	0.0006767311
109	0x3cfd8931	0.030949207
110	0x3b8d5cdf	0.0043140496
111	0x3d502ddf	0.050824996
112	0x3d2cee44	0.042219415
113	0x3d4afcf5	0.049557645
114	0x3d1ba689	0.038000617
115	0x3d7c96fd	0.06166743
116	0xbd0cf002	-0.034408577
117	0x39f4573b	0.00046604298
118	0xbcb710e8	-0.022346929
119	0xbbdf2c7f	-0.0068107243
120	0xbd1a4b96	-0.03766974
121	0xbcc09992	-0.023510728
122	0x3d985b5d	0.07439301
123	0xbd2f72b0	-0.042833984
124	0x3d801838	0.06254619
125	0x3d70426a	0.058657087
126	0x3aa021b1	0.0012217072
127	0xbbc8860c	-0.0061194953
128	0x3d8d901d	0.06912253
129	0x3d26cc5f	0.040722247
130	0xbc39faeb	-0.011351327
131	0x3c914a92	0.017735753
132	0x3d2d52bc	0.04231523
133	0xbd0a14ea	-0.03371135
134	0x3d3c4936	0.045968257
135	0x3c176c65	0.009242152
136	0xbd11b001	-0.03556824
137	0xbd37563c	-0.044759974
138	0x3c96d411	0.018411668
139	0x3d01515b	0.031571727
140	0x3d193b0e	0.037409835
141	0xbd10b02f	-0.03532427
142	0xbc2b425b	-0.010452832
143	0xbc663fd7	-0.014053307
144	0x3d374beb	0.044750135
145	0x3cc57a1f	0.024106083
146	0xbc85d81b	-0.016338399
147	0x3c92327a	0.017846335
148	0x3c18e678	0.009332292
149	0xbd5a8434	-0.053348735
150	0xbcb5a9d0	-0.0221757
151	0x3c5ba979	0.013407105
152	0x3b515bc1	0.0031945559
153	0x3c6c3ea0	0.014419228
154	0xbd00f3a6	-0.03148236
155	0xbcf2e3d8	-0.02964966
156	0x3c0fec4f	0.008784368
157	0x39cbb27b	0.00038852156
158	0xbbd73125	-0.006567138
159	0x3d43ffcf	0.04785138
160	0x3cc4ae0f	0.024008779
161	0x3d86e82e	0.065872535
162	0xbbbc448a	-0.005745475
163	0xbce6426e	-0.028107848
164	0x3c5eeec6	0.013606733
165	0xbcded2d5	-0.027200142
166	0xbb4f1acb	-0.0031601663
167	0x3d19e5f6	0.037572823
168	0xbc32a7ea	-0.010904292
169	0x3d8a68ca	0.06758268
170	0xbddb8e76	-0.10720532
171	0xbd622c02	-0.05521775
172	0xbd92cabe	-0.07167576
173	0xbd596e68	-0.053083807
174	0x3d06245e	0.032749526
175	0xbb857203	-0.004072429
176	0xbd5fedac	-0.05467002
177	0xbae1a073	-0.0017213955
178	0xbcefa70f	-0.029254464
179	0x3d36ca69	0.044626627
180	0xbbf79c53	-0.007556477
181	0x3d278a15	0.04090317
182	0x3c12c968	0.008959152
183	0x3c941dca	0.01808061
184	0xbd2493ae	-0.0401799
185	0x3d8db774	0.069197565
186	0xbc121c73	-0.008917916
187	0x3d04a149	0.032380376
188	0xbd1b12bd	-0.037859667
189	0x3c826b3e	0.015920278
190	0x3c49b0e7	0.012310243
191	0x3b60aca3	0.0034282587
192	0x3952600b	0.0002006294
193	0xbaa8307e	-0.0012831835
194	0x3c060899	0.008180761
195	0xbd402bcb	-0.046916764
196	0xbb6c6f56	-0.0036077104
197	0x3c9104c0	0.01770246
198	0xbc79e404	-0.015252117
199	0xbd9d8ebb	-0.07693239
200	0xbcc32aef	-0.023824183
201	0x3d4fd3c9	0.050739083
202	0x3da3c912	0.079973355
203	0x3cae9a37	0.02131377
204	0x3d215fd3	0.039398026
205	0x3d352c68	0.044231802
206	0xbccb9d80	-0.024855375
207	0xbd18b15f	-0.03727853
208	0xbc4577c9	-0.012052485
209	0xbc417371	-0.0118073085
210	0x3d17d573	0.037068795
211	0xbc8a32f3	-0.016869998
212	0xbc21a896	-0.009866854
213	0xbcfa9103	-0.030586725
214	0xbc8fdc63	-0.017561143
215	0xbbc9baf1	-0.0061563184
216	0x3c58c5ce	0.013230754
217	0xbc9b65f4	-0.018969513
218	0xbbb1ed5d	-0.0054299072
219	0xbd4fa661	-0.05069578
220	0x3cf37557	0.029719038
221	0x3cfc01aa	0.030762512
222	0xbd968940	-0.07350397
223	0x3c44d7ee	0.012014372
224	0xbd1caf44	-0.038253084
225	0x3cae7ecf	0.021300701
226	0x3be4651c	0.006970061
227	0x3d32832f	0.043582138
228	0xbd0e15d8	-0.0346888
229	0xbd1b0404	-0.037845626
230	0x3d14b893	0.036308836
231	0x3bc92ff9	0.006139752
232	0x3bdbb381	0.006704748
233	0x3ce7d074	0.02829764
234	0x3c4e1ded	0.012580377
235	0x3be94cdd	0.0071197585
236	0x399d3af5	0.000299893
237	0xbca3e9d6	-0.020008963
238	0x3c5aea15	0.013361474
239	0xbb3c2268	-0.002870703
240	0x3d10d879	0.035362694
241	0xbd7f435b	-0.062320095
242	0xbd5f6e17	-0.05454835
243	0xbd1c8eb8	-0.038222045
244	0xbc5cc04e	-0.013473583
245	0x3c9b70b9	0.018974649
246	0x3c89311a	0.016747046
247	0xbc9a655d	-0.018847162
248	0xbd6e9875	-0.058250863
249	0x3c95321f	0.018212376
250	0x3c554074	0.013015855
251	0xbaef44a7	-0.0018254713
252	0x3c9fd3d9	0.019510197
253	0xbd22275b	-0.039588314
254	0xbd4c8d26	-0.049939297
255	0x3bc289c8	0.005936835

spectral_ssm.hidden.1.rn_1.weight f4 [32]
0	0x3f8595ff	1.04364
1	0x3f7a1050	0.9768114
2	0x3f872986	1.0559547
3	0x3f6da86e	0.9283513
4	0x3f68556c	0.90755343
5	0x3f8982e8	1.0743074
6	0x3f7c5bb3	0.9857742
7	0x3f762c35	0.96161205
8	0x3f8570a8	1.0425005
9	0x3f6eddaa	0.9330698
10	0x3f860f65	1.0473448
11	0x3f81392c	1.0095572
12	0x3f82e2d8	1.0225477
13	0x3f860a7f	1.0471953
14	0x3f80693f	1.0032119
15	0x3f73fe80	0.9531021
16	0x3f7d7485	0.9900592
17	0x3f81ade2	1.013119
18	0x3f84f91f	1.0388526
19	0x3f81819f	1.0117682
20	0x3f871e89	1.0556194
21	0x3f80a0e7	1.0049103
22	0x3f86a265	1.0518309
23	0x3f80b7ef	1.0056132
24	0x3f70dba1	0.9408513
25	0x3f6a5373	0.91533583
26	0x3f75b095	0.9597257
27	0x3f6d62c7	0.9272885
28	0x3f83eaa3	1.030598
29	0x3f85dba7	1.0457658
30	0x3f7b8807	0.98254436
31	0x3f882482	1.0636141

spectral_ssm.hidden.1.rn_2.weight f4 [32]
0	0x3f81ebec	1.0150123
1	0x3f7bef7d	0.98412305
2	0x3f80d2df	1.0064353
3	0x3f858c63	1.0433468
4	0x3f792de3	0.9733564
5	0x3f80f53b	1.0074838
6	0x3f845303	1.0337833
7	0x3f7fd416	0.9993299
8	0x3f7aaa9e	0.9791659
9	0x3f83992d	1.028112
10	0x3f863ba5	1.0486952
11	0x3f836fa3	1.0268444
12	0x3f76c897	0.96399826
13	0x3f82de6c	1.0224128
14	0x3f7cb724	0.9871695
15	0x3f80d645	1.006539
16	0x3f818e4c	1.012155
17	0x3f82346f	1.0172251
18	0x3f86eca8	1.0540972
19	0x3f809572	1.0045607
20	0x3f6b7f52	0.9199115
21	0x3f7c4b07	0.9855198
22	0x3f835746	1.0261009
23	0x3f81e8b1	1.0149137
24	0x3f8589a0	1.0432625
25	0x3f8205fa	1.0158074
26	0x3f80ac32	1.005255
27	0x3f8075c7	1.0035943
28	0x3f78a662	0.9712888
29	0x3f83840c	1.0274673
30	0x3f79944e	0.9749192
31	0x3f8117a1	1.0085336

spectral_ssm.hidden.1.stu.M_inputs f4 [32, 32]
0	0x3d8517b7	0.06498664
1	0xbbd7125a	-0.006563467
2	0x3d0d324b	0.03447179
3	0x3ebe6fac	0.37194574
4	0xbe915a58	-0.2838924
5	0x3d27ca28	0.040964276
6	0xbd3edec0	-0.04659915
7	0x3ec1cd48	0.3785193
8	0xbd7de5ef	-0.06198686
9	0xbdd78e87	-0.10525232
10	0x3e50c92e	0.20389244
11	0xbef8e9f9	-0.48616007
12	0xbe71e009	-0.23620619
13	0x3e181776	0.148527
14	0x3e2d5bb4	0.16929513
15	0xbd4cbfee	-0.049987726
16	0x3dd18c94	0.10231891
17	0xbe536aad	-0.20646162
18	0xbd29e112	-0.04147441
19	0x3d798177	0.060914483
20	0x3e3ca3ae	0.18421814
21	0xbe20b381	-0.15693475
22	0xbea18a22	-0.315507
23	0xbe83d1e4	-0.2574607
24	0xbefe39f4	-0.4965359
25	0xbe198ca0	-0.1499505
26	0x3da7b127	0.08188086
27	0x3e222f62	0.15838388
28	0x3dfd748e	0.12375747
29	0xbe18dfbe	-0.14929101
30	0x3e63972d	0.22225638
31	0x3df8ad6d	0.12142453
32	0x3c0aa5c3	0.008462372
33	0x3e809743	0.25115404
34	0xbe277364	-0.16352612
35	0x3cb04cdb	0.021521023
36	0xbccdd57b	-0.02512621
37	0x3e533a7b	0.20627777
38	0x3cf218de	0.029552873
39	0xbe89d861	-0.26922897
40	0xbe565be9	-0.20933498
41	0x3d2b78e2	0.04186333
42	0x3da90e28	0.08254653
43	0x3c7e7a69	0.015532115
44	0xbd92914d	-0.0715662
45	0xbe0d518a	-0.13800636
46	0xbd571dbb	-0.052518588
47	0xbc9d31cb	-0.019188782
48	0x3ea8857f	0.3291435
49	0x3cf2deab	0.029647192
50	0xbe32855e	-0.17433688
51	0x3bb5eaad	0.005551657
52	0x3e71970c	0.23592776
53	0x3c3fc93d	0.011705694
54	0xbd96dd18	-0.07366389
55	0xbe4628dc	-0.19351524
56	0xbe350cf0	-0.17680717
57	0xbd4727e2	-0.04862202
58	0x3ea63338	0.32460952
59	0x3e004deb	0.12529723
60	0xbc9f4779	-0.01944326
61	0x3c8a217f	0.016861675
62	0xbe7734fc	-0.24141306
63	0x3dbadbb2	0.09123935
64	0x3e073cb1	0.13206746
65	0x3ddd0b88	0.10793215
66	0x3eaba414	0.3352362
67	0xbc92feb7	-0.017943723
68	0xbe5d427e	-0.21607396
69	0xbe2753d2	-0.16340569
70	0xbdedac19	-0.11605091
71	0xbdb34055	-0.08752505
72	0xbcb17d8d	-0.021666313
73	0xbd42e301	-0.04757977
74	0xbe0cc1a2	-0.1374574
75	0xbe85905f	-0.2608671
76	0x3dbb6e85	0.09151939
77	0x3d87e422	0.0663531
78	0x3dcee553	0.10102334
79	0x3dc6b9b4	0.09703389
80	0xbde9e15a	-0.114199355
81	0x3c73c60f	0.014878764
82	0x3d9df5a3	0.07712867
83	0x3e3256d8	0.17415941
84	0x3e31de4e	0.17369959
85	0xbe334b4c	-0.17509192
86	0x3e4e58c3	0.20151047
87	0x3e0e3523	0.13887458
88	0x3e092112	0.13391522
89	0x3e622cbe	0.2208738
90	0x3dd967d7	0.10615509
91	0xbe859add	-0.26094714
92	0x3e3b2355	0.18275197
93	0xbda891af	-0.08230912
94	0x3cd25324	0.02567441
95	0x3cd9ee05	0.026602754
96	0x3ca3bc2f	0.019987194
97	0x3ca110f4	0.019661404
98	0xbe249a05	-0.16074379
99	0xbe1737dc	-0.14767402
100	0xbdec9673	-0.115521334
101	0xbe2f92e1	-0.17145874
102	0x3cb849e3	0.02249617
103	0x3e2845e9	0.16432919
104	0xbe5ed2ce	-0.21760103
105	0x3e184149	0.14868654
106	0x3d11c76b	0.03559057
107	0x3df44162	0.11926533
108	0xbe4150ec	-0.18878525
109	0xbdc2f20b	-0.09518822
110	0xbd22e8ca	-0.039772786
111	0xbda4e131	-0.08050764
112	0xbde0033a	-0.109381154
113	0x3aa3a7f5	0.0012485968
114	0xbe7aa77c	-0.24477953
115	0xbd3195ad	-0.043355633
116	0xbc5caefb	-0.013469453
117	0xbd8edb7b	-0.06975456
118	0xbdb81ccf	-0.0898987
119	0xbde0c275	-0.1097459
120	0xbe7d3d0a	-0.24730316
121	0x3e2c98f4	0.16855222
122	0xbe82977a	-0.25506192
123	0xbe2f9a88	-0.17148793
124	0xbea37bf3	-0.31930503
125	0xbcc075c8	-0.023493662
126	0x3cbdc44b	0.023164889
127	0x3c5289f6	0.012850275
128	0x3cfb7168	0.030693725
129	0x3e4e676f	0.20156644
130	0x3df18a07	0.11793905
131	0x3e37dd9c	0.17955631
132	0x3d610c3b	0.054943305
133	0x3e646d78	0.22307384
134	0xbe47ebf7	-0.19523607
135	0x3dfbe5e8	0.122997105
136	0xbe1a82d6	-0.15088972
137	0xbc365c25	-0.011130367
138	0xbe5fe26f	-0.21863721
139	0xbe16c23f	-0.14722537
140	0x3d2c5fc6	0.042083524
141	0xbd9c8f6f	-0.07644545
142	0x3e041279	0.12897672
143	0x3d0bfd0a	0.034176864
144	0x3e05325b	0.1300749
145	0xbcde91a7	-0.027169062
146	0x3e12634e	0.14295694
147	0xbdd82cd7	-0.105554275
148	0xbe12bba2	-0.14329389
149	0xbd1b56c6	-0.03792455
150	0x3cdd6f94	0.027030744
151	0x3d7a8f20	0.06117165
152	0xbd612d0c	-0.0549746
153	0xbe5ab522	-0.21358159
154	0x3e45470e	0.19265386
155	0xbea6d23a	-0.32582265
156	0xbe634573	-0.22194462
157	0x3cf84572	0.030306552
158	0xbe880136	-0.26563424
159	0x3e271a15	0.16318543
160	0x3d44f45b	0.048084598
161	0xbd375f0b	-0.044768374
162	0xbe615ab3	-0.22007255
163	0x3e483fe2	0.1955562
164	0x3d194ef6	0.03742882
165	0x3f052c76	0.52020967
166	0xbdfc184a	-0.1230932
167	0x3cc64a6a	0.024205405
168	0xbdbb2a8b	-0.09138974
169	0xbd24252b	-0.04007451
170	0x3e433903	0.19064717
171	0xbe2a1361	-0.16608955
172	0x3dfab0ed	0.12240777
173	0xbe0f4c37	-0.13993917
174	0xbd2d3b7b	-0.042293053
175	0x3e3cbde1	0.18431808
176	0xbe028eab	-0.12749736
177	0xbd5adfae	-0.053435974
178	0x3da64bcb	0.08119925
179	0xbd655d04	-0.05599691
180	0xbe7b3e5c	-0.24535507
181	0xbd7a0836	-0.061042987
182	0xbe400e40	-0.18755436
183	0xbe1532a0	-0.14570093
184	0x3d8026de	0.06257413
185	0xbe79fa1c	-0.24411815
186	0xbe8f79fd	-0.28022757
187	0xbe15a3e2	-0.14613298
188	0x3d883875	0.06651393
189	0xbdc7ff2f	-0.09765469
190	0xbcf1ec0c	-0.029531501
191	0xbd6a2c2b	-0.057171028
192	0xbe3a25e5	-0.18178518
193	0xbe66ce54	-0.22539645
194	0xbcb8dea9	-0.02256711
195	0xbdbbd955	-0.09172312
196	0xbdbb3fb6	-0.09143011
197	0xbd72fdb5	-0.059323985
198	0xbc92cdad	-0.01792034
199	0xbe76a234	-0.24085313
200	0xbdd176d6	-0.10227744
201	0x3e82cdc3	0.2554761
202	0xbdb1792a	-0.08665688
203	0xbd2eee88	-0.04270795
204	0x3df6ae56	0.12044971
205	0xbe45d954	-0.19321185
206	0xbd9fb72f	-0.077986114
207	0xbd365e34	-0.044523433
208	0x3e1ed458	0.1551069
209	0x3dd68034	0.104736716
210	0xbdf45e9b	-0.11932107
211	0xbe28751d	-0.16450925
212	0xbc3ace5d	-0.01140174
213	0xbc57d1dd	-0.013172594
214	0x3dab6a38	0.08369869
215	0x3e4de26c	0.20105904
216	0xbd9d9aa3	-0.0769551
217	0x3e5388f0	0.20657706
218	0xbe6d497e	-0.23172566
219	0x3ce532d5	0.02797834
220	0xbe1206b5	-0.14260371
221	0x3d354362	0.044253714
222	0xbe0c42de	-0.13697383
223	0x3d5c996c	0.053857252
224	0xbd30a189	-0.043122802
225	0x3e85c0bb	0.26123604
226	0x3d6cb96b	0.057794016
227	0xbc8826e6	-0.01662011
228	0x3da3cb22	0.07997729
229	0xbd8165ce	-0.06318246
230	0x3d0c9774	0.034324124
231	0x3c2fd7b3	0.010732579
232	0x3eb20ee5	0.3477699
233	0xbd293b07	-0.04131606
234	0xbdb144ed	-0.08655725
235	0xbe3ab9f2	-0.18234995
236	0xbd968bff	-0.07350921
237	0x3d91560b	0.070964895
238	0xbdc1f432	-0.09470405
239	0xbea5a129	-0.32349518
240	0xbe1dc802	-0.15408328
241	0xbe14edaf	-0.14543794
242	0x3dcf37fd	0.10118101
243	0xbe6191c3	-0.2202826
244	0x3dd83ff7	0.10559075
245	0x3db58332	0.08862914
246	0xbda85572	-0.082194224
247	0xbe90f13d	-0.2830905
248	0xbdeda603	-0.1160393
249	0xbdc38c28	-0.09548217
250	0x3e8950b0	0.26819372
251	0xbe11748d	-0.14204617
252	0x3e9e72c7	0.30946943
253	0x3d6d1646	0.05788257
254	0x3d08510c	0.033280417
255	0xbe3eac66	-0.18620452

spectral_ssm.hidden.1.stu.M_filters f4 [16, 32]
0	0x3cc70e3e	0.024298783
1	0x3da1fe70	0.07909858
2	0xbeab6f46	-0.33483332
3	0xbe089654	-0.13338596
4	0x3d6b9f26	0.057524823
5	0xbe87a4a3	-0.26492795
6	0xbef78003	-0.48339853
7	0xbdf7f342	-0.121069446
8	0xbe74ea69	-0.23917545
9	0xbdaa21b6	-0.08307211
10	0x3e85f740	0.261652
11	0x3c992dec	0.018698655
12	0x3e278d15	0.16362412
13	0xbe8af01a	-0.27136308
14	0xbcd2a65e	-0.025714096
15	0x3db5d66f	0.088787906
16	0xbdca4f87	-0.0987845
17	0xbdb46713	-0.08808722
18	0x3e96ff44	0.29491627
19	0xbdc128a5	-0.094315805
20	0x3e236e53	0.15960054
21	0x3e93bd9a	0.28855592
22	0x3d0c8bca	0.034313
23	0x3dc251bf	0.09488248
24	0xbe74ce45	-0.2390681
25	0x3b98409b	0.0046463734
26	0x3decdd10	0.11565602
27	0x3e6f3bb4	0.23362619
28	0x3e1f9f0f	0.1558802
29	0x3e398c6a	0.1811997
30	0x3d90f4ba	0.07077928
31	0x3daccb93	0.08437266
32	0x3d53dee7	0.051726248
33	0xbdbc4392	-0.091925755
34	0x3e81b8fc	0.25336444
35	0xbc477f5f	-0.012176364
36	0x3de43f55	0.11144892
37	0x3e178e15	0.14800294
38	0xbd44254b	-0.047887128
39	0xbebdc435	-0.37063757
40	0x3e7290cc	0.23688048
41	0xbed5d8a1	-0.41766837
42	0x3e00716b	0.12543266
43	0xbe1a680f	-0.15078758
44	0xbe1c8436	-0.1528481
45	0x3e869e3a	0.26292592
46	0x3ebd13d2	0.36929184
47	0xbe4ecc4d	-0.20195122
48	0x3e3054bf	0.17219828
49	0xbeaa13aa	-0.33218127
50	0xbe104955	-0.14090474
51	0xbd7b2c60	-0.061321616
52	0xbeb66324	-0.35622513
53	0x3d7e1988	0.062036067
54	0xbde787e6	-0.113052174
55	0xbe86a46f	-0.26297328
56	0x3e833deb	0.25633177
57	0xbe280678	-0.16408718
58	0xbd7ffee3	-0.06249894
59	0xbead84f0	-0.33890486
60	0xbc745663	-0.014913174
61	0x3e746f2b	0.23870532
62	0xbd9e0b51	-0.07717002
63	0xb9e34db1	-0.000433547
64	0xbcecddb4	-0.02891431
65	0xbd4f2d5f	-0.05058038
66	0x3d01a2e5	0.03164949
67	0xbdbdeab9	-0.092732854
68	0xbcee2aab	-0.02907308
69	0x3e6fd435	0.23420794
70	0x3e700204	0.23438269
71	0x3e945818	0.2897346
72	0x3d9f5747	0.07780319
73	0x3df9c070	0.12194908
74	0xbe0a6116	-0.13513598
75	0x3d1f458b	0.03888468
76	0x3dd2159e	0.102580294
77	0x3e7330b5	0.23749049
78	0xbe462d16	-0.19353136
79	0xbe9cabf5	-0.30599943
80	0xbdcc871b	-0.09986707
81	0xbd2a0217	-0.0415059
82	0x3e11315e	0.14178988
83	0x3e18d31c	0.14924282
84	0xbed08fb0	-0.40734625
85	0x3e3ddb88	0.18540776
86	0x3dcf3965	0.10118369
87	0x3d0e3a63	0.03472365
88	0x3d83226d	0.064030506
89	0x3cccbe89	0.024993198
90	0xbe99a0ce	-0.30005497
91	0x3cb19b4d	0.021680498
92	0xbd1f9503	-0.038960468
93	0xbe5ed7f3	-0.21762066
94	0xbdd241cb	-0.10266455
95	0x3cdba4f3	0.026812052
96	0xbd91eb97	-0.07125013
97	0xbc162f0f	-0.009166493
98	0x3dd86d37	0.10567706
99	0xbeba0862	-0.3633452
100	0xbe091ed5	-0.13390668
101	0xbd9dc91c	-0.07704374
102	0x3e942b1b	0.28939137
103	0xbc7cb0f2	-0.015423046
104	0x3deb2608	0.11481863
105	0xbde8728b	-0.11349972
106	0xbe042571	-0.12904908
107	0xbeab2095	-0.33423296
108	0xbebebea5	-0.37254825
109	0x3d677882	0.05651141
110	0x3d9cfae8	0.07665044
111	0xbe6fd835	-0.2342232
112	0x3da09b03	0.07842066
113	0xbed4c837	-0.41559002
114	0x3de82969	0.11336023
115	0x3e910f30	0.283319
116	0xbd79b38a	-0.060962237
117	0xbe688018	-0.22705114
118	0x3dd73b7c	0.105093926
119	0xbe454b38	-0.19266975
120	0x3e1ea4f0	0.15492606
121	0xbe1098c8	-0.14120781
122	0x3d22ff00	0.03979397
123	0x3cfa9159	0.030586885
124	0xbe91df51	-0.2849069
125	0x3dbf47e2	0.093398824
126	0xbe50cd00	-0.20390701
127	0xbdefdfce	-0.11712609
128	0x3e4f51fa	0.20246115
129	0x3e8bc800	0.27301025
130	0xbe9d9ed4	-0.3078524
131	0x3e50105a	0.20318738
132	0xbd87e9fe	-0.06636427
133	0x3c0a4c8e	0.008441104
134	0x3e5a00c8	0.2128936
135	0x3d7d0ee7	0.06178179
136	0xbc247c86	-0.010039454
137	0x3d0a054d	0.03369646
138	0xbe933626	-0.2875225
139	0x3e74cf68	0.23907244
140	0x3e9b42d7	0.30324432
141	0xbcbbc0fc	-0.02291917
142	0xbe46421f	-0.1936116
143	0xbe080d78	-0.13286388
144	0xbde9aa27	-0.11409407
145	0xbe05b6fa	-0.13058081
146	0x3dcdbb8d	0.10045538
147	0xbc9580b6	-0.01824985
148	0x3e1f5201	0.15558626
149	0x3e1c914c	0.15289801
150	0x3e691c90	0.22764802
151	0x3e3899a1	0.18027355
152	0xbeb7d515	-0.35904756
153	0x3d732cc1	0.059368853
154	0x3e7bd552	0.24593094
155	0xbddd1ca3	-0.10796478
156	0x3e05b9a7	0.13059102
157	0x3dccebe6	0.100059316
158	0x3cb39c07	0.021924986
159	0x3f019e96	0.5063261
160	0xbdea62c5	-0.1144462
161	0xbc2befc7	-0.010494179
162	0xbc7ea576	-0.015542379
163	0xbd4317df	-0.047630187
164	0x3e11398b	0.14182107
165	0x3bf3f2b2	0.007444703
166	0xbe21c4e6	-0.15797767
167	0x3d56b1ad	0.05241554
168	0xbde773d1	-0.11301387
169	0xbe173bb7	-0.14768873
170	0xbe43ea74	-0.19132406
171	0xbde4bc3c	-0.11168715
172	0x3d6b59a7	0.057458546
173	0xbe26969e	-0.16268393
174	0x3db4b86f	0.088242404
175	0xbe95ec8a	-0.29282027
176	0x3e49a4ce	0.19691774
177	0x3e288485	0.16456802
178	0xbcca7ccd	-0.024717713
179	0x3cf94dda	0.03043263
180	0xbdb2b55c	-0.08725998
181	0x3d33bf3c	0.043883547
182	0x3e1eb2cb	0.15497892
183	0x3cc89b0f	0.024488
184	0xbefa7eac	-0.48924768
185	0xbd3f0b35	-0.046641547
186	0xbbc04caf	-0.0058685164
187	0x3dbb77f1	0.091537364
188	0xbdf670f4	-0.12033263
189	0x3e1d641f	0.15370224
190	0xbe027a65	-0.12742002
191	0xbd8325ed	-0.06403718
192	0xbe4f05ef	-0.20217107
193	0x3cd7f0b2	0.02635989
194	0x3e2aa0ac	0.16662854
195	0x3da3d704	0.07999995
196	0xbe9b93a2	-0.30386072
197	0xbda9dcf3	-0.08294096
198	0xbe8710bf	-0.26379964
199	0xbe4acafe	-0.19803998
200	0x3e9a2094	0.3010298
201	0x3d4c5ee1	0.04989517
202	0xbe6ef11e	-0.23334166
203	0xbe192ac2	-0.14957717
204	0x3d8233a4	0.06357506
205	0xbd203367	-0.03911152
206	0xbd5ab8fb	-0.053399067
207	0x3d844cc2	0.06459953
208	0x3de3560b	0.11100396
209	0xbc889104	-0.016670711
210	0xbeb6ed15	-0.35727754
211	0x3d8c811d	0.06860564
212	0xbd4f3903	-0.05059148
213	0xbebe64e3	-0.37186345
214	0x3bb0545e	0.005381151
215	0x3e0f243d	0.13978668
216	0xbe73cbbf	-0.23808192
217	0xbe35d619	-0.17757453
218	0xbdb1f16a	-0.08688624
219	0x3d2ec556	0.042668663
220	0xbeb30c3c	-0.34970272
221	0x3dbd987d	0.092576005
222	0xbd24a918	-0.040200323
223	0xbebedbff	-0.3727722
224	0x3cbe4d67	0.023230268
225	0x3eb6df49	0.35717228
226	0xbebf1141	-0.3731785
227	0x3c6dc9b8	0.0145134255
228	0x3e71f4ab	0.2362849
229	0x3d86bfb8	0.06579536
230	0x3da83e49	0.08215005
231	0x3de52336	0.111883566
232	0x3e1ca5d4	0.15297633
233	0xbe09f07c	-0.13470644
234	0xbe6b4a75	-0.22977622
235	0xbd329814	-0.043602064
236	0xbdc4db0c	-0.096120924
237	0x3d601ea8	0.054716736
238	0x3e4baca9	0.19890083
239	0xbe580ebf	-0.21099375
240	0x3e165e2d	0.14684363
241	0xbe8042d4	-0.25050986
242	0xbe081f13	-0.13293104
243	0xbdf4d48d	-0.11954603
244	0xbdb27dd0	-0.08715403
245	0xbea77532	-0.327066
246	0x3ea34a01	0.31892398
247	0xbdaeb8b8	-0.08531326
248	0xbe752f1c	-0.23943752
249	0x3e2fe980	0.17178917
250	0xbdcc15eb	-0.09965118
251	0x3e6a0e87	0.22857104
252	0xbe0fd4f9	-0.14046086
253	0xbd6f558f	-0.058431204
254	0xbeab4548	-0.33451295
255	0x3e2118c5	0.15732105
