checkpoints/sssm-Walker2D-v1-model_step-2450-2024-11-18-16-25-27.pt (torch, 34514 bytes, 18 tensors)

emb.weight f4 [8, 24]
-0.5067274 0.24915268 0.37696654 0.3628378 0.24575412 -0.04376884 -0.0004742446 0.050188906
0.09279329 -0.13011004 -0.09677251 0.083695024 -0.03723066 -0.09512325 -0.12547053 -0.024468238
-0.057852797 -0.022567851 -0.01894792 0.15976596 0.15108341 0.0004330698 0.12738831 0.1044386
0.14656492 -0.20386334 -0.18066154 0.42357948 0.31787562 -0.1139784 -0.08777875 0.0981065
0.44210756 0.3037663 -0.31388006 -0.045578614 0.040706024 -0.24642092 -0.099621326 -0.08051361
-0.06351877 -0.4872171 0.15962043 0.09316191 0.06470582 -0.005465557 0.10884813 -0.050624166
0.1305951 0.080039024 -0.12948559 -0.026613457 -0.33262634 -0.123539396 0.07324445 -0.24543947
-0.19715019 -0.32085678 0.3789848 -0.2568414 0.008246866 0.3709137 0.042303283 0.16387229
0.15028296 -0.31881472 0.02479517 -0.13923351 0.17679009 -0.0017923941 -0.12363946 0.05101279
-0.08243 -0.30277595 -0.04754297 0.15071882 0.021749247 0.27612108 0.14396387 -0.28859553
-0.0012490287 0.11733792 -0.4180519 -0.100757025 0.3289921 0.19796076 -0.25046712 0.11953306
0.169272 -0.12375473 0.30632827 -0.2483641 0.2687472 -0.032203794 0.17684326 0.022479622
-0.118440494 0.21883237 -0.08384822 -0.048631582 -0.106039226 0.056692965 -0.13911445 -0.02649937
0.0076901196 0.1744453 -0.42066947 0.19621128 -0.063122466 0.14833245 0.17306481 -0.02778581
-0.022557138 0.50776386 -0.07821264 0.07621085 0.20108443 -0.01706792 0.19265658 0.20472302
0.19286019 0.26791695 0.39270994 -0.123147465 0.1947264 0.26361218 0.15477403 -0.018068096
-0.1228044 0.13362272 0.06636901 0.07700433 -0.016663274 0.13599218 -0.36613348 0.08975234
0.095120445 0.01679731 -0.12800138 0.110116616 0.022114199 -0.01756809 0.10744167 -0.069432504
0.43635505 0.1311667 0.04228106 0.0998792 0.031357966 -0.3476517 -0.03632309 -0.16523123
-0.18916434 -0.2892291 0.2788981 -0.14060621 -0.074794434 0.06558209 0.39631537 0.0054293144
0.036860712 -0.074481875 -0.09896584 -0.011711747 0.308376 -0.04009091 -0.020068312 -0.055170234
-0.31296724 0.2950129 -0.19594514 -0.3172726 0.47607765 0.11836909 0.19169433 0.23502603
0.06632835 0.24380428 -0.04246309 -0.044563282 -0.22253536 -0.048808258 -0.3759399 0.10277596
-0.06531983 -0.6525143 -0.53270006 0.38138548 -0.12633935 0.00019188365 0.23830077 -0.35900038
00000000: e3b8 01bf e121 7f3e c201 c13e e0c5 b93e
00000010: f8a6 7b3e f546 33bd 08a4 f8b9 e292 4d3d
00000020: 690a be3d 913b 05be aa30 c6bd 4c68 ab3d
00000030: 2d7f 18bd facf c2bd 597b 00be 9d71 c8bc
00000040: 0ef7 6cbd 37e0 b8bc ab38 9bbc b099 233e
00000050: 9cb5 1a3e a50d e339 1572 023e e8e3 d53d
00000060: 1d15 163e 8dc1 50be 57ff 38be 69df d83e
00000070: 98c0 a23e 826d e9bd 58c5 b3bd 10ec c83d
00000080: ec5b e23e 4287 9b3e e3b4 a0be a4b0 3abd
00000090: 5cbb 263d c455 7cbe 4406 ccbd 52e4 a4bd
000000a0: 2116 82bd 8574 f9be 8a73 233e accb be3d
000000b0: 7c84 843d 6a18 b3bb c5eb de3d 495b 4fbd
000000c0: b9ba 053e 80eb a33d df97 04be 7704 dabc
000000d0: 004e aabe 3902 fdbd 3001 963d 7c54 7bbe
000000e0: bde1 49be 5747 a4be 4c0a c23e b780 83be
000000f0: dd1d 073c 67e8 bd3e 3546 2d3d 23ce 273e
00000100: c7e3 193e af3b a3be 3e1f cb3c 3b93 0ebe
00000110: 7608 353e c4ee eaba af36 fdbd caf2 503d
00000120: 0fd1 a8bd 7305 9bbe 6bbc 42bd 0956 1a3e
00000130: 7a2b b23c be5f 8d3e 446b 133e cbc2 93be
00000140: 73b6 a3ba dd4e f03d e60a d6be b359 cebd
00000150: a771 a83e 3ab6 4a3e 3a3d 80be c0cd f43d
00000160: a455 2d3e 1f73 fdbd 0fd7 9c3e 2953 7ebe
00000170: 3c99 893e 20e8 03bd 6616 353e 2f27 b83c
00000180: ee90 f2bd 9815 603e 9eb8 abbd e931 47bd
00000190: 182b d9bd e236 683d 0574 0ebe 3515 d9bc
000001a0: 66fd fb3b caa1 323e fd61 d7be 9ceb 483e
000001b0: 5a46 81bd 76e4 173e e737 313e 119f e3bc
000001c0: bfc9 b8bc d0fc 013f f32d a0bd 6f14 9c3d
000001d0: 14e9 4d3e 06d2 8bbc c447 453e e9a2 513e
000001e0: 247d 453e 692c 893e 4711 c93e bd34 fcbd
000001f0: 5b66 473e 2df8 863e 157d 1e3e 8b03 94bc
00000200: e080 fbbd 65d4 083e 7aec 873d 72b4 9d3d
00000210: 6b81 88bc 8941 0b3e d975 bbbe 13d0 b73d
00000220: 82ce c23d 839a 893c cb12 03be d284 e13d
00000230: d628 b53c f5ea 8fbc 610a dc3d a132 8ebd
00000240: ee69 df3e 9050 063e e82e 2d3d 778d cc3d
00000250: 3671 003d 67ff b1be 85c7 14bd 6032 29be
00000260: 4cb4 41be d615 94be bbcb 8e3e 13fb 0fbe
00000270: d32d 99bd e74f 863d d9e9 ca3e 64e8 b13b
00000280: 42fb 163d f489 98bd 9aae cabd a1e2 3fbc
00000290: 76e3 9d3e 5e36 24bd 4d66 a4bc 2ffa 61bd
000002a0: 3e3d a0be ee0b 973e d8a5 48be 8e71 a2be
000002b0: 73c0 f33e 7e6b f23d 854b 443e aaaa 703e
000002c0: 28d7 873d d4a7 793e c7ed 2dbd fd87 36bd
000002d0: 4fe0 63be 2beb 47bd 327b c0be 347c d23d
000002e0: 67c6 85bd 2d0b 27bf 085f 08bf f544 c33e
000002f0: 1a5f 01be 6034 4939 1e05 743e e6ce b7be

stu.hidden.0.rn_1.weight f4 [8]
0.7545166 0.8541465 0.78050625 0.79585177 0.8216406 0.9677267 0.2977151 0.6800611
00000000: 0028 413f 58a9 5a3f 42cf 473f f1bc 4b3f
00000010: 0a57 523f f0bc 773f 1d6e 983e 7c18 2e3f

stu.hidden.0.stu.M_u f4 [8, 3, 8]
-0.43077275 -0.16390689 6.7679415e-05 0.16860889 0.29141906 -0.33329272 -0.067230985 -0.01323008
-0.4296498 0.17311658 0.04234982 0.14518234 0.11683942 0.13382655 -0.012451273 -0.27676004
-0.32147947 0.08082982 -0.04405343 -0.15990399 0.029640865 -0.22383982 -0.14549114 0.09962253
0.06370396 -0.65278625 -0.014803791 -0.2193127 0.30484554 -0.2303441 0.15905048 0.0512804
0.03298052 -0.37803924 0.018014587 -0.00625165 -0.14223571 0.058882337 0.35977036 -0.11458566
0.00013975921 -0.30977163 0.05146129 0.05704807 0.04572804 -0.035157043 -0.02198551 -0.087478966
0.029371105 -0.10332771 -0.0898513 -0.22210798 0.06753988 -0.18689239 -0.09418738 -0.049962524
0.057095923 0.12099288 -0.14216685 0.07274185 0.07152861 -0.16380957 -0.10471774 -0.110930756
0.049488977 0.24422896 -0.10145655 0.061012145 0.015428402 -0.025479924 -0.0028672928 0.11858979
-0.058151573 0.16857164 -0.22428064 -0.9712353 -0.28782973 -0.23086682 0.0009650077 0.09331766
-0.13393952 -0.025745 0.01895911 -0.18326841 0.04379941 -0.008391929 -0.052117545 0.13399641
0.043823052 0.2181827 0.108854115 0.14970991 -0.10296205 0.05979717 -0.07358216 -0.01389783
0.14697108 0.06339654 0.10139228 -0.033737354 -0.32629535 -0.24172175 0.24385157 0.03273751
0.2568176 0.08491185 -0.02643916 0.25690624 0.020270064 -0.090369046 -0.036726832 -0.0055503817
0.26025754 -0.17190214 0.12271706 0.04801874 -0.10490145 -0.29920432 0.0516486 -0.08489164
-0.14142688 -0.21549138 -0.043002456 0.22820427 -0.07434154 -0.052680217 -0.029696545 -0.0077656577
0.007162359 -0.07275488 -0.10405433 -0.036216415 0.110834524 -0.2501478 -0.14587441 -0.25311697
-0.0055751177 0.0333564 -0.16330673 0.14382808 0.2169996 0.049867377 -0.19930683 0.1013962
0.124918446 -0.29822937 -0.13914718 0.103719585 0.15630521 -0.30501705 -0.23062462 -0.083712086
0.027770327 -0.2162117 0.13005204 -0.018697154 0.1581895 -0.050485916 -0.3242215 0.11869461
-0.06556501 -0.20817704 0.21546377 0.10809946 0.016844444 -0.040239505 -0.5938757 -0.2149075
-0.017274383 0.020218473 -0.005445679 -0.014851938 0.0764928 -0.20789178 0.01249283 -0.5792514
0.12502617 0.01588601 -0.1364195 0.055300053 0.1290547 -0.1731376 -0.015480927 -0.28965968
0.051134575 0.21533097 0.03967793 0.06606744 0.09879977 -0.21675125 0.17469525 -0.10520297
00000000: 3f8e dcbe 35d7 27be 1cef 8d38 cfa7 2c3e
00000010: e134 953e 58a5 aabe 66b0 89bd fac2 58bc
00000020: 0ffb dbbe 7945 313e 0177 2d3d aeaa 143e
00000030: 8149 ef3d d409 093e 6d00 4cbc 7eb3 8dbe
00000040: f598 a4be 1b8a a53d 5f71 34bd dfbd 23be
00000050: 66d1 f23c 4436 65be a1fb 14be e606 cc3d
00000060: 3977 823d 001d 27bf 9a8b 72bc 8293 60be
00000070: b714 9c3e 53df 6bbe 21de 223e 660b 523d
00000080: 9516 073d 5c8e c1be 5493 933c a4da ccbb
00000090: 3da6 11be 9b2e 713d d233 b83e e3ab eabd
000000a0: 548c 1239 639a 9ebe 13c9 523d 3dab 693d
000000b0: 534d 3b3d d500 10bd f51a b4bc 2c28 b3bd
000000c0: ac9b f03c 7a9d d3bd f503 b8bd 4670 63be
000000d0: 5952 8a3d b860 3fbe 50e5 c0bd 81a5 4cbd
000000e0: 6add 693d 1dcb f73d 3094 11be aef9 943d
000000f0: 987d 923d b2bd 27be 4176 d6bd aa2f e3bd
00000100: f4b4 4a3d 2817 7a3e 74c8 cfbd dfe7 793d
00000110: 69c7 7c3c 46bb d0bc 31e9 3bbb 34df f23d
00000120: 5830 6ebd 0b9e 2c3e d3a9 65be e0a2 78bf
00000130: 6b5e 93be 5a68 6cbe 92f8 7c3a 541d bf3d
00000140: 7127 09be 2ee7 d2bc 2350 9b3c b7aa 3bbe
00000150: 0367 333d 4d7e 09bc 3579 55bd 5b36 093e
00000160: cd7f 333d 496b 5f3e e8ee de3d 8e4d 193e
00000170: c4dd d2bd e1ed 743d 3eb2 96bd b9b3 63bc
00000180: 967f 163e 0cd6 813d c1a6 cf3d 2e30 0abd
00000190: 2f10 a7be e885 77be 3ab4 793e c417 063d
000001a0: 997d 833e 44e6 ad3d f096 d8bc 3789 833e
000001b0: 680d a63c 6813 b9bd e06e 16bd fadf b5bb
000001c0: 7a40 853e 1d07 30be 1553 fb3d 4caf 443d
000001d0: 92d6 d6bd 4f31 99be 7b8d 533d abdb adbd
000001e0: 35d2 10be c6a9 5cbe 5823 30bd 61ae 693e
000001f0: 6140 98bd 36c7 57bd 2b46 f3bc 0f77 febb
00000200: 39b2 ea3b 8300 95bd 701a d5bd aa57 14bd
00000210: 36fd e23d 5f13 80be 1a60 15be 8c98 81be
00000220: 7aaf b6bb b8a0 083d e139 27be ab47 133e
00000230: 2535 5e3e bc41 4c3d 1717 4cbe d0a8 cf3d
00000240: 3ed5 ff3d 85b1 98be 997c 0ebe ef6a d43d
00000250: 790e 203e 322b 9cbe dc28 6cbe 3e71 abbd
00000260: 997e e33c 9a66 5dbe 5d2c 053e c62a 99bc
00000270: 6efc 213e 52ca 4ebd 5c00 a6be 2916 f33d
00000280: f346 86bd 5d2c 55be 89a2 5c3e 4063 dd3d
00000290: 5cfd 893c 2ed2 24bd 3d08 18bf b610 5cbe
000002a0: 0283 8dbc 36a1 a53c ab71 b2bb 8b55 73bc
000002b0: 42a8 9c3d 95e1 54be baae 4c3c d249 14bf
000002c0: dc06 003e 6123 823c 8eb1 0bbe 4f82 623d
000002d0: ea26 043e fc4a 31be b7a3 7dbc 464e 94be
000002e0: 7d72 513d b97f 5c3e 5385 223d 5e4e 873d
000002f0: 8957 ca3d 0af4 5dbe 50e3 323e a874 d7bd

stu.hidden.0.stu.M_phi_plus f4 [8, 16, 8]
-0.77021563 -0.7240686 -0.6808889 -0.8941568 1.0579054 0.5617284 1.5711629 0.18847986
0.2013092 -0.5633177 -1.1891407 -1.0823773 0.5037534 1.0062857 1.2522578 -0.46180394
1.8721346 1.16842 -0.85671324 -0.6000146 -0.38278314 1.0072865 0.17702475 -1.7319553
-1.0395495 -1.4308093 0.08409119 -0.8202449 0.7517151 0.041304126 0.7296388 0.7330569
-1.3710792 -1.0625933 1.1545461 0.40383464 0.01588753 -1.2072852 -1.1210011 0.9264743
-0.21448226 0.17985816 1.0399457 1.5040975 -0.59293264 -1.2584571 -1.7152164 -0.035898153
1.8103093 1.718625 -0.11679724 0.3154597 -0.3511607 0.26855332 -0.16656734 -1.1375654
0.7649307 0.7423903 -0.83985674 -0.4681521 0.37425315 1.0591266 0.6785272 -0.47929916
-0.16841201 -0.20115194 -1.0540712 -1.1736417 1.0239068 1.5494258 1.1732507 0.08378086
-1.325544 -0.6500292 -0.42305803 -0.5862808 0.32113552 0.6299846 0.7001471 0.2524011
-0.4019824 -0.27582362 -0.3785523 -0.115593754 0.13722217 0.12216215 0.34599757 0.25615254
-0.027589934 0.0050393846 0.024275174 -0.03108989 -0.041037325 -0.013898024 -0.14598586 -0.34030378
0.16931774 0.19163232 -0.046309967 0.023640992 -0.03617817 -0.08459056 0.008508911 -0.4181677
-0.15021771 -0.2968179 0.19440463 0.0012047684 0.18622121 -0.0121544 -0.05229154 0.078890525
0.024201067 0.2275706 -0.13404113 -0.09019921 -0.1052956 0.05969683 -0.09913673 0.06736894
-0.28362048 0.01950035 0.13027462 0.11342501 0.07615551 -0.15370163 -0.19441652 -0.1661064
1.7969786 0.36722246 0.20687608 -0.5560707 -0.4332678 0.5802574 0.27302858 -0.6501453
1.1722932 0.2835867 0.37614056 -0.494302 -0.39845765 0.08569637 0.1046793 -0.21495454
0.24547383 -0.19235624 0.8116723 -0.436737 -0.6966541 -0.27435434 0.16451892 -0.47778913
1.4436691 0.29343623 -0.03157026 -0.69047964 -0.29557896 0.6458454 0.36453936 -1.057475
-0.64279157 -1.119461 -1.0972326 0.12679757 0.7002598 0.4103543 0.24484023 -0.23195368
-1.4547244 -0.13804191 -0.38099596 0.08041889 0.69396484 -0.35824582 -0.09521047 0.66933006
0.15802304 0.48739094 0.95069975 0.31789684 -0.34055573 -0.39069766 0.0665514 0.48963922
1.2154288 0.45268628 0.39060858 0.4869311 -0.7065504 0.16840106 0.060902253 -0.49433717
-0.2606237 -0.25099707 -0.41401577 -0.3380928 0.20637077 -0.07569602 0.07675449 -0.05325884
-0.9885467 -0.36304876 0.13156585 0.015129637 0.42141432 -0.29951584 -0.22283097 0.5305173
-0.15118816 -0.1094933 0.52931845 0.55671173 -0.44515625 -0.29284158 -0.40552887 0.26946068
0.21087839 -0.14062057 0.38816625 0.0023377556 -0.41829616 -0.31797355 0.09773565 -0.23676427
0.1923357 -0.24731599 -0.040776152 0.10887441 0.32373413 -0.03444948 -0.1980728 -0.1341412
0.00150837 0.23709369 0.13824049 -0.23429179 -0.3116442 -0.076156236 0.2497123 -0.05016748
0.0102151 -0.23896952 0.058299847 0.06631366 0.10993657 -0.05254894 0.031119537 0.0034401694
-0.0052351286 -0.55904835 0.07319095 -0.05800828 0.095340185 -0.04278926 0.2910317 -0.012577829
00000000: da2c 45bf 8f5c 39bf bc4e 2ebf 76e7 64bf
00000010: 7269 873f 6fcd 0f3f de1b c93f dd00 413e
00000020: 0024 4e3e 9735 10bf c335 98bf 578b 8abf
00000030: fcf5 003f f8cd 803f fc49 a03f 9171 ecbe
00000040: 1ba2 ef3f c98e 953f 8f51 5bbf 8f9a 19bf
00000050: 27fc c3be c4ee 803f fa45 353e b6b0 ddbf
00000060: f50f 85bf c224 b7bf 0038 ac3d 92fb 51bf
00000070: 6770 403f 842e 293d 9cc9 3a3f 9ea9 3b3f
00000080: 867f afbf 0f03 88bf 2bc8 933f 6ac3 ce3e
00000090: 9126 823c 5288 9abf f77c 8fbf 6b2d 6d3f
000000a0: 3da1 5bbe bd2c 383e f11c 853f 4486 c03f
000000b0: 6fca 17bf 1f15 a1bf 368c dbbf f109 13bd
000000c0: 37b8 e73f e7fb db3f 6433 efbd ef83 a13e
000000d0: 56cb b3be d27f 893e a190 2abe be9b 91bf
000000e0: 80d2 433f 4a0d 3e3f da00 57bf a2b1 efbe
000000f0: 1c9e bf3e 7691 873f f5b3 2d3f b366 f5be
00000100: 3374 2cbe c6fa 4dbe ceeb 86bf e439 96bf
00000110: 610f 833f 9653 c63f 142d 963f 4d95 ab3d
00000120: 6dab a9bf 5068 26bf 109b d8be 8016 16bf
00000130: e06b a43e ac46 213f d73c 333f b83a 813e
00000140: a3d0 cdbe c138 8dbe 9bd1 c1be 6bbc ecbd
00000150: f883 0c3e 2630 fa3d 9826 b13e 6d26 833e
00000160: 4904 e2bc 6c21 a53b bbdc c63c 3ab0 febc
00000170: c116 28bd 8ab4 63bc 517d 15be 4c3c aebe
00000180: a161 2d3e 433b 443e 85af 3dbd c1aa c13c
00000190: 902f 14bd d13d adbd f668 0b3c 141a d6be
000001a0: acd2 19be 84f8 97be 0212 473e 52e9 9d3a
000001b0: c6b0 3e3e 4023 47bc a72f 56bd 5b91 a13d
000001c0: 5141 c63c 4408 693e 1442 09be 5dba b8bd
000001d0: 38a5 d7bd aa84 743d 3308 cbbd baf8 893d
000001e0: b436 91be 33bf 9f3c b666 053e 5f4b e83d
000001f0: 6cf7 9b3d f663 1dbe 2015 47be cc17 2abe
00000200: 6503 e63f 9504 bc3e 53d7 533e a65a 0ebf
00000210: 47d5 ddbe c08b 143f 67ca 8b3e ec6f 26bf
00000220: b40d 963f 4732 913e 7f95 c03e 2715 fdbe
00000230: a402 ccbe 9481 af3d 1a62 d63d 0b1d 5cbe
00000240: 7e5d 7b3e 09f9 44be c1c9 4f3f fe9b dfbe
00000250: ec57 32bf 2c78 8cbe a677 283e c7a0 f4be
00000260: 26ca b83f 463d 963e d14f 01bd 46c3 30bf
00000270: 2056 97be 2056 253f e7a4 ba3e 575b 87bf
00000280: fd8d 24bf 804a 8fbf 1e72 8cbf 39d7 013e
00000290: 3a44 333f f519 d23e 66b7 7a3e 4485 6dbe
000002a0: 6934 babf dc5a 0dbe e711 c3be a9b2 a43d
000002b0: aea7 313f ff6b b7be b5fd c2bd 3759 2b3f
000002c0: cbd0 213e 4e8b f93e 0f61 733f 60c3 a23e
000002d0: 525d aebe 8609 c8be 1a4c 883d feb1 fa3e
000002e0: 2c93 9b3f 7fc6 e73e d9fd c73e 084f f93e
000002f0: 7de0 34bf 5471 2c3e a474 793d c319 fdbe
00000300: 7870 85be b082 80be e0f9 d3be 801a adbe
00000310: dc52 533e 8406 9bbd 7531 9d3d f125 5abd
00000320: 6611 7dbf 87e1 b9be 33b9 063e 4ce2 773c
00000330: 9ec3 d73e 245a 99be cd2d 64be fbcf 073f
00000340: 12d1 1abe 063e e0bd 6a81 073f a984 0e3f
00000350: 85eb e3be 55ef 95be 7ba1 cfbe c0f6 893e
00000360: 81f0 573e d7fe 0fbe babd c63e 0835 193b
00000370: ea2a d6be 6ecd a2be a129 c83d 5572 72be
00000380: a6f3 443e 6740 7dbe e504 27bd 8cf9 de3d
00000390: 7bc0 a53e e61a 0dbd 99d3 4abe 505c 09be
000003a0: 80b4 c53a b0c8 723e ea8e 0d3e 30ea 6fbe
000003b0: d48f 9fbe cdf7 9bbd 95b4 7f3e 6a7c 4dbd
000003c0: 3c5d 273c 6db4 74be d2cb 6e3d 75cf 873d
000003d0: 6d26 e13d 8f3d 57bd 66ee fe3c 7774 613b
000003e0: 718b abbb cb1d 0fbf 23e5 953d 179a 6dbd
000003f0: b741 c33d cb43 2fbd 1b02 953e 3d13 4ebc

stu.hidden.0.stu.M_phi_minus f4 [8, 16, 8]
-1.6388593 -0.6016467 1.3037289 -0.6941029 -0.6169982 -0.4216267 -0.41168368 0.527454
-1.5379882 -0.92096883 0.40953854 -0.34962794 1.250673 -0.74180526 -1.1372691 -0.16774386
-0.47322118 -0.41565388 -0.040606953 -0.37899378 0.8955281 -0.3648395 -0.34788108 0.2381967
-0.39408606 -0.28557628 1.252911 -0.2640388 -0.6434545 -0.8148625 -0.51344734 -0.5119322
1.3024684 0.6935585 -0.31231332 0.74319667 -0.17160483 -0.029952599 -0.004978394 -0.07251368
0.3122469 0.093109034 -0.32407296 -0.30831897 -0.19259073 0.25743717 0.309674 -0.2410646
0.37565592 0.39106455 0.06660014 0.5066925 -0.04565389 0.57499975 0.034973405 0.2800185
-0.4840607 -0.5057278 0.1537776 -0.9536005 0.4864411 0.08068312 0.408719 -0.2945519
-0.04634149 0.28920436 -0.07893796 0.6135774 -0.4123582 0.41702214 -0.55502754 0.42327318
-0.3225124 -0.16413681 -0.14542058 -0.38434628 0.26665625 -0.17871064 0.12340364 -0.20961694
0.40353182 0.08356389 0.1170242 0.3988577 0.06498317 0.02642199 0.02921502 -0.11024817
0.1352207 0.19055186 0.17632431 0.460256 -0.5586386 -0.3888988 -0.24904722 -0.03823603
0.3316271 -0.244291 0.28585958 0.40188125 -0.39320046 -0.3750141 -0.10544182 -0.035610948
-0.22645174 -0.041260663 -0.23863676 -0.0556206 -0.21956295 0.24419318 0.1743155 -0.027660446
0.18754677 0.24777606 0.32421997 0.31688938 0.02307195 -0.75013864 -0.044729285 -0.09879722
0.05020591 -0.14024852 0.21883762 0.12127376 -0.04851897 -0.15878838 0.04332436 -0.07971162
0.038759403 0.31196657 -0.5062825 0.25842038 0.16932935 0.23437467 0.04758228 0.06202919
0.023756243 -0.01611765 -0.26502135 0.47497654 0.28087685 0.022315474 -0.6004332 0.06433922
0.04419031 -0.060365148 0.11831833 0.708806 0.032482278 0.32765275 -1.196082 0.17567308
-0.18576445 0.07749654 -0.7959658 0.27835876 0.5532669 0.24579684 -0.5807162 0.185158
0.035479754 0.17629275 0.18207173 0.09478283 -0.25048298 0.08794556 -0.075861394 0.12320486
-0.39051792 -0.71380156 0.56281847 -0.28732383 0.1513394 -0.30017886 0.08285527 -0.1862532
0.45934987 0.18953572 -0.4034932 0.42268252 -0.09224983 -0.09148895 -0.16812728 -0.04615062
-0.09516726 0.16297194 0.3227393 0.057210874 -0.23400392 -0.14165246 -0.10472757 -0.016034368
0.20859936 0.25459638 0.063525386 0.16208296 -0.011060534 -0.017110627 -0.17124236 0.070833646
-0.050818425 0.07547147 0.08187452 -0.22037359 0.022234235 -0.39556897 -0.05210402 0.25135747
0.0049002147 0.28988957 -0.10267553 -0.029002186 -0.15976824 -0.017126294 0.24828552 0.10644212
-0.3724513 -0.43591037 0.041523293 -0.28993836 0.38978064 -0.17175815 0.2017122 0.17036936
-0.2593403 -0.22731291 -0.11771168 -0.061777584 0.32045427 -0.5215261 0.37953827 -0.1677181
0.081435785 -0.2700132 -0.009233639 -0.08361393 -0.115758725 0.2219297 -0.19481748 -0.16210976
-0.13275063 0.114987575 0.053572718 -0.038395658 -0.0011462135 -0.10652735 -0.007368193 -0.16656837
-0.06058576 0.041139957 -0.056619756 -0.1490017 -0.07771313 -0.18279085 0.03830676 -0.07884338
00000000: 24c6 d1bf 8505 1abf 97e0 a63f bab0 31bf
00000010: 98f3 1dbf 74df d7be 34c8 d2be 3a07 073f
00000020: ccdc c4bf 9dc4 6bbf 09af d13e 6f02 b3be
00000030: 0e16 a03f f3e6 3dbf 0992 91bf 0cc5 2bbe
00000040: 0c4a f2be 96d0 d4be 7a53 26bd 790b c2be
00000050: 5441 653f 3ecc babe 781d b2be d6e9 733e
00000060: a6c5 c9be 0e37 92be 635f a03f 1830 87be
00000070: 6fb9 24bf d49a 50bf 4971 03bf fd0d 03bf
00000080: 49b7 a63f 0d8d 313f 88e7 9fbe 2342 3e3f
00000090: 2db9 2fbe 275f f5bc cc21 a3bb 0d82 94bd
000000a0: d3de 9f3e f3af be3d e4ec a5be fcdb 9dbe
000000b0: 8136 45be cece 833e 978d 9e3e a3d9 76be
000000c0: f955 c03e 9d39 c83e a765 883d 9ab6 013f
000000d0: 93ff 3abd 2f33 133f 4640 0f3d 965e 8f3e
000000e0: ced6 f7be 6177 01bf e077 1d3e 2a1f 74bf
000000f0: cf0e f93e 313d a53d 9e43 d13e 82cf 96be
00000100: 93d0 3dbd 9812 943e 3aaa a1bd 6913 1d3f
00000110: 9d20 d3be ed83 d53e 4916 0ebf 43b7 d83e
00000120: 5820 a5be 7b13 28be 22e9 14be 09c9 c4be
00000130: 2b87 883e ecff 36be 0cbb fc3d d3a5 56be
00000140: b99b ce3e 8b23 ab3d 62aa ef3d 1437 cc3e
00000150: e515 853d ee72 d83c 5654 ef3c cbc9 e1bd
00000160: 4c77 0a3e 0720 433e 5c8e 343e ada6 eb3e
00000170: f002 0fbf be1d c7be 3c06 7fbe 629d 1cbd
00000180: 07cb a93e 6b27 7abe 305c 923e 61c3 cd3e
00000190: 9251 c9be d901 c0be e2f1 d7bd c9dc 11bd
000001a0: f7e2 67be f100 29bd 325d 74be 6dd2 63bd
000001b0: 1cd5 60be c70d 7a3e c37f 323e 2998 e2bc
000001c0: 430c 403e 02b9 7d3e 2900 a63e 533f a23e
000001d0: 6301 bd3c 1609 40bf 0e36 37bd 3256 cabd
000001e0: b6a4 4d3d 4f9d 0fbe f816 603e 615e f83d
000001f0: d4bb 46bd 6c99 22be e274 313d d93f a3bd
00000200: 2ec2 1e3d 15ba 9f3e bb9b 01bf ad4f 843e
00000210: ac64 2d3e eaff 6f3e a3e5 423d 5212 7e3d
00000220: 749c c23c 2909 84bc e1b0 87be 2030 f33e
00000230: 17cf 8f3e f1ce b63c fdb5 19bf 48c4 833d
00000240: e600 353d 7241 77bd e150 f23d 4f74 353f
00000250: 230c 053d 1ac2 a73e 3719 99bf a5e3 333e
00000260: 0939 3ebe 82b6 9e3d 6ac4 4bbf 0a85 8e3e
00000270: e6a2 0d3f 2bb2 7b3e d1a9 14bf 0f9a 3d3e
00000280: 3853 113d 1686 343e 0371 3a3e 801d c23d
00000290: 4e3f 80be cd1c b43d 385d 9bbd d452 fc3d
000002a0: f7f1 c7be b3bb 36bf df14 103f 1c1c 93be
000002b0: b7f8 1a3e 0bb1 99be 06b0 a93d 29b9 3ebe
000002c0: e82f eb3e a715 423e a996 cebe d869 d83e
000002d0: 7bed bcbd 8f5e bbbd 8f29 2cbe 6f08 3dbd
000002e0: 0de7 c2bd 1ee2 263e 163e a53e f355 6a3d
000002f0: b99e 6fbe 580d 11be 697b d6bd 825a 83bc
00000300: 129b 553e 755a 823e 9919 823d 13f9 253e
00000310: 3e37 35bc 962b 8cbc 285a 2fbe 3b11 913d
00000320: fb26 50bd c990 9a3d d4ad a73d 9da9 61be
00000330: 9224 b63c 0488 cabe 066b 55bd edb1 803e
00000340: fb91 a03b 686c 943e 8c47 d2bd fe95 edbc
00000350: 499a 23be 714c 8cbc 8f3e 7e3e 54fe d93d
00000360: f0b1 bebe a52f dfbe 5414 2a3d cd72 94be
00000370: 5491 c73e 5ee1 2fbe a58d 4e3e 4e75 2e3e
00000380: 40c8 84be b7c4 68be d212 f1bd 7e0a 7dbd
00000390: 9512 a43e bc82 05bf d752 c23e 4bbe 2bbe
000003a0: cec7 a63d 2c3f 8abe b048 17bc c83d abbd
000003b0: e912 edbd 8a41 633e 3c7e 47be 1a00 26be
000003c0: c8ef 07be 9b7e eb3d 116f 5b3d c444 1dbd
000003d0: 8b3c 96ba 032b dabd e270 f1bb e690 2abe
000003e0: c628 78bd 5f82 283d 1eea 67bd e793 18be
000003f0: 1028 9fbd 862d 3bbe 8de7 1c3d a378 a1bd

stu.hidden.0.rn_2.weight f4 [8]
0.9859775 0.92589986 0.5439654 1.0165558 0.6866022 0.80706763 0.77951 0.8929242
00000000: 0569 7c3f c607 6d3f 5141 0b3f 801e 823f
00000010: 29c5 2f3f fc9b 4e3f f88d 473f ae96 643f

stu.hidden.0.mlp.swiglu.w.weight f4 [32, 8]
-0.20037879 0.22750081 0.10253764 0.24906915 -0.18035531 0.1865724 0.036979295 0.15401922
-0.30026454 0.14429612 -0.049241386 -0.35038158 -0.3810125 0.2740516 -0.3215997 0.07393922
-0.40878272 -0.027269231 0.05268346 -0.12977545 0.09647245 0.090858914 0.076555215 0.0069140256
0.31833947 -0.17098895 0.1257391 -0.08597132 -0.048188373 -0.006908379 0.34455353 0.17422174
-0.20041923 0.0076536913 -0.17135091 -0.25317815 0.30644968 0.1282318 0.09010008 0.15317464
0.13379452 -0.11093592 -0.037195724 -0.5337186 0.3698317 -0.016826821 0.4583731 0.19032395
0.61129117 0.0692512 -0.35092458 -0.4193836 -0.26480898 0.61395144 0.41036525 0.22537425
0.13262403 0.06806564 -0.102621056 -0.32052246 0.027527109 0.086695194 0.14135985 -0.17476499
-0.16758187 0.091475345 -0.046965364 -0.41133425 0.2238451 -0.14874485 -0.32455388 -0.39422145
-1.0143213 -0.4351187 -0.052308094 0.23179545 -0.39627963 -0.11680354 0.029199196 0.4036399
0.8990473 0.029025432 -0.028646078 0.023888933 -0.102197185 -0.017803878 -0.10031569 -0.3443426
-0.05589128 -0.1503298 -0.30707493 0.03207501 -0.37077317 0.14245051 0.33296576 -0.13994458
-0.10595886 0.19749124 -0.4948581 -0.49813813 -0.18143909 0.26429102 -0.03395172 -0.02332237
-0.53196275 -0.07026992 0.32418498 -0.07003067 0.15642786 0.13897735 0.06372931 0.35084006
-0.10901188 -0.42230508 0.15856035 0.20099615 -0.3749834 -0.29200765 -0.6037783 -0.14538662
-0.13425004 -0.11238511 -0.120728604 0.119772665 0.037933365 0.2653853 0.011036446 -0.12067745
0.093626894 0.14887632 -0.30121744 -0.08037098 -0.09712469 -0.050539665 -0.1506017 0.18110687
-0.063909575 0.3707466 0.38767788 -0.23824857 0.23069438 0.53225577 0.56749874 0.2603492
-0.22442548 0.068916574 -0.032082826 -0.14038803 -0.025389163 0.20835815 -0.034599915 -0.32048586
0.121301405 0.13917777 0.013394484 0.108760975 -0.14681153 -0.03911047 -0.039559115 -0.02741184
0.09894554 0.23435661 0.13070469 0.3987268 -0.22202188 -0.5608935 -0.30162755 0.46312043
-0.28022683 -0.09341618 -0.09303288 0.08539296 0.058303643 0.09240691 -0.2589351 0.5657702
-0.021195916 -0.70882523 -0.27744067 0.16153298 0.6235511 -0.13177642 0.17288166 0.30055198
0.15811215 0.14218183 -0.39419746 0.19312026 0.028752478 0.51001173 0.26333457 0.0039060526
0.19661435 0.023834506 0.3218753 0.024294633 -0.24746573 -0.3360419 0.18655309 0.2758922
0.094926104 -0.2978063 -0.21884006 0.13499317 -0.29918402 0.18356706 -0.1351055 -0.07691925
-0.082058795 -0.27473432 0.13619842 -0.06573813 -0.37879515 -0.3474148 0.27275383 -0.14967492
0.063384816 0.037669726 0.0150196925 0.06742488 0.29829603 -0.14554447 0.00025943952 0.047207132
-0.19134411 0.068889 -0.05368792 0.023633892 -0.24688455 0.39693484 0.29781067 -0.11473808
-0.0033447605 -0.22344045 0.32844892 -0.13145255 0.072658345 -0.26311743 0.24642023 -0.18839997
0.20290218 -0.35488075 0.34810382 -0.29358757 0.20987383 0.24377523 0.48579866 -0.5381932
-0.017555078 0.2996473 -0.38358346 -0.020941727 0.22531334 0.19009359 0.17388375 0.058172744
00000000: 1930 4dbe f9f5 683e 41ff d13d fc0b 7f3e
00000010: 10af 38be d60c 3f3e 9a77 173d 37b7 1d3e
00000020: 46bc 99be 5dc2 133e 56b1 49bd 3765 b3be
00000030: 1214 c3be 7e50 8c3e b7a8 a4be 726d 973d
00000040: f84b d1be b963 dfbc 9dca 573d dbe3 04be
00000050: 5993 c53d 3d14 ba3d fbc8 9c3d 0d8f e23b
00000060: 64fd a23e ba17 2fbe c0c1 003e bb11 b0bd
00000070: 2c61 45bd af5f e2bb 5269 b03e 2f67 323e
00000080: b33a 4dbe d1cb fa3b 9d76 2fbe 91a0 81be
00000090: f9e6 9c3e 324f 033e 6486 b83d d0d9 1c3e
000000a0: 6e01 093e 5f32 e3bd 8b5a 18bd c8a1 08bf
000000b0: 955a bd3e 67d8 89bc e1af ea3e 48e4 423e
000000c0: 947d 1c3f 93d3 8d3d 63ac b3be 72b9 d6be
000000d0: 0b95 87be ec2b 1d3f 651b d23e 82c8 663e
000000e0: 98ce 073e 0066 8b3d fd2a d2bd 851b a4be
000000f0: 8880 e13c 408d b13d a3c0 103e 98f5 32be
00000100: 959a 2bbe 6d57 bb3d c15e 40bd 679a d2be
00000110: a637 653e 9250 18be ed2b a6be 65d7 c9be
00000120: 48d5 81bf e1c7 debe 0341 56bd c95b 6d3e
00000130: 2ae5 cabe b236 efbd 2733 ef3c e4a9 ce3e
00000140: f727 663f bec6 ed3c 2eab eabc b9b2 c33c
00000150: c24c d1bd 70d9 91bc 5072 cdbd ac4d b0be
00000160: 41ee 64bd 0ef0 19be ed38 9dbe 1661 033d
00000170: fbd5 bdbe 8cde 113e 7d7a aa3e a24d 0fbe
00000180: f500 d9bd 253b 4a3e 0a5e fdbe f60b ffbe
00000190: 2bcb 39be 2751 873e f510 0bbd 8e0e bfbc
000001a0: b62e 08bf ade9 8fbd 93fb a53e 3d6c 8fbd
000001b0: a02e 203e 1450 0e3e 8384 823d 4fa1 b33e
000001c0: 9f41 dfbd 5f38 d8be a55d 223e efd1 4d3e
000001d0: d3fd bfbe 0782 95be 3791 1abf 3be0 14be
000001e0: d878 09be 2a2a e6bd 8f40 f7bd 5f4b f53d
000001f0: 0460 1b3d 95e0 873e 36d2 343c bd25 f7bd
00000200: 75bf bf3d 0973 183e 2c39 9abe 8a99 a4bd
00000210: 4fe9 c6bd ae02 4fbd 5537 1abe 1474 393e
00000220: 06e3 82bd 80d2 bd3e b77d c63e 6ff7 73be
00000230: 263b 6c3e ea41 083f 9947 113f 7e4c 853e
00000240: cbcf 65be 2224 8d3d 4869 03bd e1c1 0fbe
00000250: effc cfbc d75b 553e a4b8 0dbd b916 a4be
00000260: df6c f83d 9e84 0e3e 8a74 5b3c 13be de3d
00000270: c355 16be 4d32 20bd bd08 22bd cc8e e0bc
00000280: f6a3 ca3d 2efb 6f3e 73d7 053e eb25 cc3e
00000290: b459 63be b796 0fbf ed6e 9abe 1f1e ed3e
000002a0: e479 8fbe fb50 bfbd 0688 bebd 81e2 ae3d
000002b0: cdcf 6e3d d63f bd3d 2493 84be 51d6 103f
000002c0: 0fa3 adbc 9275 35bf b40c 8ebe e768 253e
000002d0: 0ba1 1f3f 66f0 06be e407 313e f3e1 993e
000002e0: 27e8 213e 1d98 113e 40d4 c9be 51c1 453e
000002f0: 518a eb3c 2190 023f cad3 863e b0fc 7f3b
00000300: 4655 493e 9540 c33c d7cc a43e 8a05 c73c
00000310: a867 7dbe af0d acbe c607 3f3e be41 8d3e
00000320: 9e68 c23d 117a 98be 9c17 60be a63b 0a3e
00000330: a62e 99be 01f9 3b3e 1959 0abe d787 9dbd
00000340: 710e a8bd faa9 8cbe 9977 0b3e b6a1 86bd
00000350: 70f1 c1be 5ae0 b1be 64a6 8b3e 6244 19be
00000360: e6cf 813d 924b 1a3d 2815 763c 0e16 8a3d
00000370: 42ba 983e 9c09 15be 6205 8839 445c 413d
00000380: b6ef 43be ad15 8d3d dde7 5bbd dd9b c13c
00000390: 4ecf 7cbe 0b3b cb3e a47a 983e ccfb eabd
000003a0: c533 5bbb 93cd 64be 752a a83e 7f9b 06be
000003b0: e6cd 943d 54b7 86be 9655 7c3e eceb 40be
000003c0: 97c5 4f3e eeb2 b5be aa3a b23e 1c51 96be
000003d0: 2ae9 563e 37a0 793e 9aba f83e 08c7 09bf
000003e0: abcf 8fbc 5f6b 993e 0d65 c4be fc8d abbc
000003f0: 8ab8 663e e5a7 423e 950e 323e 8b46 6e3d

stu.hidden.0.mlp.swiglu.v.weight f4 [32, 8]
-0.19200177 -0.0004191051 -0.151812 -0.09496621 -0.22586358 0.22160731 -0.033757072 -0.21303184
-0.5035394 -0.095554166 0.11302036 -0.39689767 -0.24953917 0.25803524 -0.07585283 0.21053271
-0.061007842 -0.009617331 -0.0812479 0.2196657 -0.31731 -0.25388235 -0.22319211 -0.027710631
0.3453503 0.25734356 -0.08035826 0.25737405 0.2327377 -0.06827846 -0.13656719 -0.13450988
0.13782918 0.19582023 0.1269661 0.33702427 -0.3450806 -0.26463437 -0.28776285 -0.2318055
0.1178992 0.214983 0.019625774 0.35473382 -0.38438156 -0.05669125 -0.47616455 -0.21294959
0.1217155 -0.2481149 -0.11696303 0.2077167 -0.13898884 -0.24147068 -0.27912933 0.529479
0.025341328 0.086900905 0.15825538 0.0056326035 0.14556454 -0.16456844 -0.29523408 -0.114397764
-0.48032165 -0.22956002 0.029359356 -0.013688156 0.042075545 0.120815255 -0.12336182 0.08491906
0.010142054 -0.12458993 -0.03228697 -0.41718867 0.12291653 0.9277917 0.5983348 -0.18980987
0.028383473 0.17258449 0.15830542 -0.0436737 0.11075717 0.33102825 0.25270385 -0.16674842
0.03309441 -0.20321162 0.1802871 0.09316779 -0.18963908 -0.1905843 0.116774395 -0.029287914
0.32031566 0.53785473 -0.0003511667 0.2094275 -0.18632114 -0.36114308 -0.021914482 -0.033630222
0.16575627 0.18666944 0.07509208 -0.19743775 -0.03289887 0.40398496 0.32382625 0.33192593
0.53661215 0.004788637 0.23582572 0.20528159 -0.35504174 -0.054848794 0.089278094 -0.09861248
0.16449243 0.075414315 0.06921927 0.20523831 -0.10340548 -0.01352947 -0.21887925 -0.19100426
0.21013579 -0.06493569 -0.13310786 -0.28422895 0.060080647 -0.2760932 0.0663067 0.034914542
-0.4068181 0.35037503 0.39935905 -0.096728586 0.18195954 0.014864755 0.29957148 0.3642626
0.31761116 0.24983917 -0.12147508 0.037064888 0.107439615 -0.155424 0.007819136 0.00075837027
0.072626755 -0.02888755 -0.053756032 -0.4076015 0.1303265 -0.12768117 -0.057674676 -0.14552414
-0.92112577 -0.22157833 -0.38235855 -0.13558936 0.5088085 0.06565661 0.31686902 0.37717798
-0.07560327 -0.058262154 0.045733675 0.1373412 -0.19304897 0.51770395 -0.32678095 0.23997056
-0.34194294 0.5019521 0.1532961 -0.17792614 -0.37542903 0.3615033 -0.15984365 0.09062381
-0.662063 -0.48515198 -0.16975737 0.24068046 0.12749904 0.13292518 0.029301342 0.2123962
-0.12736474 0.0733032 -0.051843908 -0.02879493 -0.13769692 0.5098729 0.08305919 -0.022189492
-0.080759205 -0.43035007 0.02853829 0.17101145 -0.18219338 0.023209568 -0.1987366 -0.16874649
0.11603196 -0.14195065 -0.09711385 0.05792445 -0.002866249 0.027787603 -0.16925466 0.002913801
0.11427489 -0.1841207 0.13576053 -0.14621688 -0.14219145 -0.10986007 0.14076257 -0.04124858
0.005227953 -0.69071573 0.029385991 0.11432219 -0.40753904 0.08845249 0.11260179 -0.12582017
-0.18095708 -0.10715668 -0.2388199 0.35851312 0.025418984 -0.10733828 -0.16285947 0.115775295
-0.08336762 -0.46618015 0.20404033 -0.20688295 -0.08968899 -0.047328237 0.18541904 -0.4603332
-0.17782722 -0.5107818 -0.15856253 -0.1704934 0.05177223 0.0036733116 0.05093234 0.27089962
00000000: 1d9c 44be 56bb dbb9 9b74 1bbe a57d c2bd
00000010: c848 67be 07ed 623e db44 0abd 0525 5abe
00000020: f5e7 00bf e7b1 c3bd 3877 e73d 2c36 cbbe
00000030: 3287 7fbe 321d 843e bb58 9bbd e395 573e
00000040: 5ce3 79bd 0392 1dbc 4d65 a6bd 0cf0 603e
00000050: 7576 a2be defc 81be 798c 64be 6801 e3bc
00000060: c1d1 b03e 89c2 833e df92 a4bd 88c6 833e
00000070: cb52 6e3e 94d5 8bbd 45d8 0bbe f5bc 09be
00000080: 1823 0d3e 1985 483e 6703 023e 728e ac3e
00000090: 68ae b0be 287e 87be a755 93be 6c5e 6dbe
000000a0: 2375 f13d 8124 5c3e 3bc6 a03c ac9f b53e
000000b0: a9cd c4be 1635 68bd d7cb f3be 750f 5abe
000000c0: fa45 f93d d511 7ebe 508a efbd b0b3 543e
000000d0: 1753 0ebe 1744 77be 0aea 8ebe f08b 073f
000000e0: 9e98 cf3c 1af9 b13d b30d 223e b491 b83b
000000f0: df0e 153e a184 28be ec28 97be 6049 eabd
00000100: b8ec f5be c811 6bbe 0883 f03c 4a44 60bc
00000110: 6857 2c3d fd6d f73d 1fa5 fcbd 0bea ad3d
00000120: dc2a 263c 0129 ffbd 583f 04bd c199 d5be
00000130: a9bb fb3d c283 6d3f 782c 193f 855d 42be
00000140: 7584 e83c fdb9 303e d11a 223e 32e3 32bd
00000150: a8d4 e23d 897c a93e 6662 813e 19c0 2abe
00000160: 018e 073d b516 50be 2e9d 383e c1ce be3d
00000170: bf30 42be 8828 43be 6a27 ef3d 35ed efbc
00000180: 6a00 a43e d9b0 093f cc1c b8b9 2a74 563e
00000190: f8ca 3ebe bfe7 b8be 0086 b3bc d8bf 09bd
000001a0: 03bc 293e 4626 3f3e e0c9 993d 1f2d 4abe
000001b0: f7c0 06bd 1ed7 ce3e 8ecc a53e 32f2 a93e
000001c0: 6a5f 093f 00ea 9c3b 4c7c 713e 5635 523e
000001d0: 08c8 b5be 21a9 60bd 6fd7 b63d 57f5 c9bd
000001e0: b470 283e d272 9a3d d5c2 8d3d fe29 523e
000001f0: 41c6 d3bd b6aa 5dbc e221 60be 9f96 43be
00000200: d62d 573e 01fd 84bd 6d4d 08be 7586 91be
00000210: 2017 763d 175c 8dbe cfcb 873d 8d02 0f3d
00000220: 764a d0be 5b64 b33e ca78 cc3e a319 c6bd
00000230: 9a53 3a3e 4d8b 733c 6f61 993e a180 ba3e
00000240: ee9d a23e d7d5 7f3e edc7 f8bd 5ad1 173d
00000250: 4d09 dc3d 7827 1fbe d51b 003c 5ecd 463a
00000260: 56bd 943d 95a5 ecbc 492f 5cbd 25b1 d0be
00000270: 4f74 053e dabe 02be 483c 6cbd 4804 15be
00000280: e6ce 6bbf 6ee5 62be 80c4 c3be f0d7 0abe
00000290: 4641 023f f976 863d a83c a23e 791d c13e
000002a0: e3d5 9abd 4ca4 6ebd 3c53 3b3d 2ca3 0c3e
000002b0: a1ae 45be 3f88 043f d54f a7be d8ba 753e
000002c0: 2513 afbe ef7f 003f a7f9 1c3e 4532 36be
000002d0: 3c38 c0be f616 b93e 0eae 23be fa98 b93d
000002e0: f67c 29bf d765 f8be e0d4 2dbe f074 763e
000002f0: 1c8f 023e 8a1d 083e 5e09 f03c 647e 593e
00000300: e76b 02be fd1f 963d 475a 54bd 58e3 ebbc
00000310: 6c00 0dbe 0887 023f f01a aa3d bdc6 b5bc
00000320: 1565 a5bd d856 dcbe 22c9 e93c a01d 2f3e
00000330: e790 3abe fe21 be3c 9b81 4bbe e1cb 2cbe
00000340: 2aa2 ed3d 835b 11be a0e3 c6bd 3042 6d3d
00000350: aed7 3bbb d4a2 e33c 1851 2dbe 78f5 3e3b
00000360: f408 ea3d 238a 3cbe cf04 0b3e e1b9 15be
00000370: a39a 11be 51fe e0bd 1024 103e 45f4 28bd
00000380: 404f ab3b bfd2 30bf e4ba f03c c121 ea3d
00000390: f5a8 d0be 9426 b53d c49b e63d 01d7 00be
000003a0: d04c 39be f674 dbbd 348d 74be 088f b73e
000003b0: 793b d03c 2cd4 dbbd a2c4 26be 991b ed3d
000003c0: a5bc aabd 2aaf eebe f3ef 503e 20d9 53be
000003d0: dcae b7bd 41db 41bd 7dde 3d3e cbb0 ebbe
000003e0: 5718 36be 99c2 02bf 375e 22be d295 2ebe
000003f0: 1e0f 543d f1bb 703b 6e9e 503d 5bb3 8a3e

stu.hidden.0.mlp.swiglu.w2.weight f4 [8, 32]
0.16492723 0.2691249 -0.27970156 0.035917107 -0.43002895 -0.11793006 0.40516344 -0.14259769
0.13317043 0.25238416 -0.45568836 -0.14215066 -0.38308507 -0.06992996 0.17741531 -0.2097984
0.015894769 0.16143155 -0.32467583 -0.07886981 -0.6334123 -0.058175877 0.33721802 0.4684758
-0.13637201 -0.099746615 -0.1472568 0.2232075 0.13451268 0.21124472 0.12547028 0.45497072
-0.28688276 -0.059081033 -0.1720196 -0.279852 -0.35474357 -0.30607364 -0.07985967 -0.092279375
-0.054935314 0.554137 0.270422 0.065443724 -0.18572523 -0.09269709 -0.3043006 -0.25998005
0.25393528 -0.37516287 0.07796192 -0.0118490355 -0.26228756 0.08873862 -0.5529647 0.293463
-0.1642522 0.22684266 0.19634844 -0.42031708 0.47950515 -0.060237996 0.38736266 0.09653095
0.0035586443 0.19867618 0.40226567 0.07693476 0.04235601 0.31629393 0.106811255 -0.1397271
0.087028965 -0.73632437 0.05845467 -0.2016014 -0.34002012 -0.33922523 -0.2703022 0.046157338
-0.25784826 -0.5220289 0.08739463 0.06466747 0.4148667 0.09419689 0.2132718 0.34475362
-0.41152638 -0.019081987 0.019686075 0.084764 0.052758068 0.17198907 -0.367509 0.17489053
-0.12703772 0.26286745 -0.29012996 -0.10828435 -0.5000133 -0.32648826 -0.3975371 -0.08463001
0.10040876 -0.055733677 -0.083054975 -0.13858305 -0.5519201 0.071703 -0.18763863 -0.16098927
-0.1124712 0.09287704 -0.3153018 -0.2489998 -0.4844093 -0.13472214 0.16737768 0.036420546
-0.036390744 0.0060751652 0.024586566 -0.103275016 0.08904222 -0.17034757 0.26797265 0.014024909
0.24417302 0.3164096 -0.063510105 -0.26892775 0.0006661987 0.0008417286 -0.20582041 0.1339146
-0.22773977 0.090845086 -0.017217845 0.1484692 -0.17289616 0.2527727 0.00066468306 0.038153984
-0.122837655 -0.045066264 -0.18742225 0.0037016368 -0.02269632 0.11939465 0.5059156 0.17287053
0.026386807 0.3924324 -0.09408884 -0.012764619 0.55920565 -0.16290267 0.24439418 -0.19306068
-0.10888532 -0.060810775 0.15897349 -0.11677349 0.14796656 -0.2948722 0.18965822 -0.03169029
0.091633946 -0.26686794 0.2556862 0.14041176 0.35802123 -0.20378545 -0.08882094 0.16714908
-0.102932945 0.04345479 0.097307324 -0.15226902 0.03968362 -0.2723646 -0.4568705 -0.39928356
0.18646762 -0.10991152 -0.084809564 -0.033897948 -0.06339585 0.15000269 0.35919625 -0.21442302
-0.080686025 0.39197084 0.29692793 0.3383569 0.24300265 0.5135932 0.20720755 0.22939226
0.24678095 -0.27952033 0.02696686 -0.09457127 -0.014889534 -0.2456903 -0.26712033 0.12691395
-0.10430046 -0.2526144 -0.04380714 0.029677898 0.41037548 0.2125459 0.40746984 -0.0064118053
0.26373035 -0.16751239 0.09039297 -0.06650996 0.17678222 -0.07167562 -0.15870948 -0.10959198
-0.044594195 -0.088721894 0.042588066 0.25210372 0.42452165 0.39209694 -0.2833497 -0.30325758
0.542197 0.293763 -0.16218677 -0.27683133 0.085187465 -0.64164484 -0.32718015 0.05222231
0.0937907 -0.40692282 -0.22760779 -0.16645302 -0.19765528 -0.66221267 -0.09534734 -0.1863618
-0.011285424 -0.16226679 -0.1564816 0.00808925 -0.038919076 0.21124227 0.58023554 -0.034459118
00000000: afe2 283e bdca 893e 0b35 8fbe d11d 133d
00000010: c12c dcbe 5185 f1bd 9571 cf3e 2105 12be
00000020: d45d 083e 7f38 813e fc4f e9be f18f 11be
00000030: ba23 c4be 7037 8fbd 5cac 353e 64d5 56be
00000040: bf35 823c 504e 253e e93b a6be 7f86 a1bd
00000050: 4f27 22bf d449 6ebd d7a7 ac3e 0fdc ef3e
00000060: 1ba5 0bbe f447 ccbd 7dca 16be 8290 643e
00000070: b1bd 093e 8950 583e 487b 003e ecf1 e83e
00000080: 4ce2 92be f4fe 71bd e825 30be c348 8fbe
00000090: f3a0 b5be afb5 9cbe 778d a3bd f8fc bcbd
000000a0: da03 61bd ecdb 0d3f c174 8a3e 5c07 863d
000000b0: c12e 3ebe f9d7 bdbd 4acd 9bbe 1b1c 85be
000000c0: ce03 823e 5915 c0be 80aa 9f3d 7522 42bc
000000d0: 8e4a 86be 98bc b53d 188f 0dbf c840 963e
000000e0: bb31 28be 7149 683e 910f 493e cd33 d7be
000000f0: b381 f53e 1ebc 76bd 6654 c63e 05b2 c53d
00000100: 2538 693b c571 4b3e c4f5 cd3e f98f 9d3d
00000110: 7f7d 2d3d 47f1 a13e dcbf da3d 9f14 0fbe
00000120: 3e3c b23d c17f 3cbf 2a6e 6f3d 9970 4ebe
00000130: 1e17 aebe eeae adbe 0d65 8abe 7a0f 3d3d
00000140: b004 84be b0a3 05bf f5fb b23d 6170 843d
00000150: 6869 d43e 4dea c03d ec63 5a3e 8c83 b03e
00000160: 96b3 d2be d451 9cbc b144 a13c bf98 ad3d
00000170: d818 583d e71d 303e 242a bcbe 8116 333e
00000180: 2d16 02be 9096 863e ea8b 94be 2fc4 ddbd
00000190: df00 00bf 7829 a7be fc89 cbbe 8052 adbd
000001a0: 1ca3 cd3d ff48 64bd ba18 aabd b7e8 0dbe
000001b0: a34a 0dbf 06d9 923d 5724 40be 5fda 24be
000001c0: 4d57 e6bd 5136 be3d 3d6f a1be cef9 7ebe
000001d0: 7f04 f8be 9af4 09be 0e65 2b3e b62d 153d
000001e0: 760e 15bd 2e12 c73b c469 c93c da81 d3bd
000001f0: c45b b63d 986f 2ebe b633 893e bbc8 653c
00000200: 7e08 7a3e 7000 a23e 9611 82bd e6b0 89be
00000210: d7a3 2e3a 73a7 5c3a 96c2 52be e920 093e
00000220: 9d34 69be fd0c ba3d 700c 8dbc 4f08 183e
00000230: b10b 31be 6c6b 813e 203e 2e3a 5a47 1c3d
00000240: 4f92 fbbd 6797 38bd 9eeb 3fbe 2997 723b
00000250: a2ed b9bc 2f85 f43d af83 013f f904 313e
00000260: 2529 d83c e6ec c83e a6b1 c0bd b122 51bc
00000270: 1a28 0f3f f5cf 26be 7842 7a3e b3b1 45be
00000280: 44ff debd b814 79bd f2c9 223e f126 efbd
00000290: 8c84 173e 7df9 96be c435 423e adcd 01bd
000002a0: 94aa bb3d eaa2 88be 4de9 823e 1ac8 0f3e
000002b0: 8f4e b73e 22ad 50be c1e7 b5bd 2129 2b3e
000002c0: 82ce d2bd a6fd 313d 1049 c73d 69ec 1bbe
000002d0: 4b8b 223d 5f73 8bbe eeea e9be e56e ccbe
000002e0: 5ef1 3e3e 4a19 e1bd a3b0 adbd 93d8 0abd
000002f0: afd5 81bd 4e9a 193e 92e8 b73e b591 5bbe
00000300: b73e a5bd 67b0 c83e f006 983e 1e3d ad3e
00000310: b0d5 783e d87a 033f 372e 543e cee5 6a3e
00000320: 25b4 7c3e 4a1d 8fbe 9be9 dc3c 95ae c1bd
00000330: 3bf3 73bc 3d96 7bbe ffc3 88be bbf5 013e
00000340: 7b9b d5bd ad56 81be 1e6f 33bd 101f f33c
00000350: bc1c d23e a2a5 593e e39f d03e 1f1a d2bb
00000360: aa07 873e 5e88 2bbe f31f b93d 6036 88bd
00000370: 6606 353e abca 92bd bd84 22be c371 e0bd
00000380: 67a8 36bd d3b3 b5bd d370 2e3d bd13 813e
00000390: e75a d93e eec0 c83e 3613 91be 9444 9bbe
000003a0: 6ccd 0a3f 1b68 963e 4a14 26be d6bc 8dbe
000003b0: c476 ae3d d642 24bf 2884 a7be 10e7 553d
000003c0: 5715 c03d 3058 d0be 0412 69be a972 2abe
000003d0: 2566 4abe c586 29bf 7745 c3bd a1d5 3ebe
000003e0: 80e6 38bc 4429 26be b63c 20be c688 043c
000003f0: 9c69 1fbd e54f 583e 518a 143f 0125 0dbd

stu.hidden.1.rn_1.weight f4 [8]
0.67100763 0.7121422 0.6415557 0.8371374 0.5746516 0.61899024 0.8344601 0.6432098
00000000: 28c7 2b3f f44e 363f ff3c 243f a34e 563f
00000010: 5e1c 133f 2576 1e3f 2d9f 553f 66a9 243f

stu.hidden.1.stu.M_u f4 [8, 3, 8]
-0.5947999 0.09247343 -0.028043378 0.081823476 -0.036729988 -0.048613213 -0.021172311 -0.045183342
-0.08987374 -0.050318796 -0.22780812 0.1816437 0.054759044 -0.14195685 0.027471162 0.2510464
0.0075302613 0.010025706 0.054735783 0.046181493 0.024370238 0.052996594 0.07184402 -0.059582915
0.19877407 -0.4044536 0.065875754 0.019800266 0.38629425 -0.2752179 0.15774484 0.1560837
-0.15613961 -0.4568266 0.065758295 0.1415202 -0.19768389 -0.22821748 -0.19794 -0.086118005
-0.061333615 -0.0887068 -0.08490088 0.18713532 0.21043743 0.11909195 -0.028676456 -0.074761786
-0.0117463125 -0.031487662 -0.4143617 0.052233785 0.13460208 -0.10503798 -0.06368219 -0.10070455
-0.023893517 0.008146605 -0.20821075 0.08897514 -0.13771234 -0.07430147 -0.08450085 -0.13350348
0.1121101 0.053637818 -0.29602173 -0.03727472 -0.17411238 0.07490328 -0.115688086 -0.12433975
0.09458778 0.26051125 -0.08785834 -0.5811078 -0.08309048 0.16683514 -0.036497343 0.019044746
0.07837922 0.14314516 -0.023655258 -0.10062894 0.06465624 -0.06469847 -0.06700515 -0.09075042
0.0022972184 -0.09605084 0.04798098 -0.11246321 -0.024626061 -0.15976565 -0.20238529 -0.09146489
-0.33578524 -0.15998784 0.12266362 0.105775476 -0.50312734 -0.017978905 0.10295275 0.1736729
0.16440232 0.105838336 0.08908942 -0.0407176 -0.52501124 -0.17361532 -0.11946808 0.09041364
-0.11699463 -0.05511224 0.18674983 -0.007846785 -0.14073896 -0.065202825 0.16022168 -0.19418955
0.1282693 0.0629197 -0.048726723 -0.058896504 0.039194394 -0.42417613 -0.0220491 0.15661569
-0.093076706 -0.17050141 -0.25280148 0.11189216 0.119137906 -0.29103515 0.00069441355 0.0671118
-0.055111878 -0.15974385 0.0013095043 0.015501027 -0.17322661 -0.04668765 0.15171054 0.1795327
-0.12096972 -0.16242208 -0.0768697 -0.014412535 0.035936728 0.09688426 -0.84011525 -0.053243432
0.28443298 0.04023015 0.06714219 0.010071491 -0.13160537 -0.10036377 -0.1799545 0.12639566
-0.10009128 -0.13995586 0.1901648 0.05371429 0.07436422 0.027938643 -0.09941847 0.03268694
-0.20251371 0.026902536 0.12844838 0.21843894 0.04375593 -0.04598998 -0.174073 -0.64495444
-0.0009974622 0.15349363 0.26539442 -0.16069692 0.08777793 0.031252522 -0.0853825 -0.25997812
0.0076037897 -0.0017526577 0.058726016 -0.05849476 -0.11377761 -0.08466683 -0.13009101 -0.3641226
00000000: ce44 18bf b662 bd3d 3abb e5bc 1193 a73d
00000010: 2f72 16bd a61e 47bd 8e71 adbc 2b12 39bd
00000020: b90f b8bd 151b 4ebd 8846 69be ce00 3a3e
00000030: 054b 603d 235d 11be 340b e13c 2789 803e
00000040: 69c0 f63b dc42 243c a132 603d ce28 3d3d
00000050: 18a4 c73c f512 593d f522 933d 370d 74bd
00000060: 6e8b 4b3e 8b14 cfbe dee9 863d 2b34 a23c
00000070: 5cc8 c53e 5ce9 8cbe dd87 213e 68d4 1f3e
00000080: 10e3 1fbe 2de5 e9be 49ac 863d acea 103e
00000090: a56d 4abe d8b1 69be c9b0 4abe a35e b0bd
000000a0: f538 7bbd e9ab b5bd 83e0 adbd 67a0 3f3e
000000b0: e97c 573e 7be6 f33d e3ea eabc b51c 99bd
000000c0: 9b73 40bc 35f9 00bd 3727 d4be 18f3 553d
000000d0: 21d5 093e 271e d7bd cf6b 82bd 303e cebd
000000e0: 56bc c3bc 5779 053c 3335 55be 9938 b63d
000000f0: 7704 0dbe 5e2b 98bd c80e adbd 23b5 08be
00000100: fb99 e53d 54b3 5b3d 2990 97be 60ad 18bd
00000110: 844a 32be e466 993d e0ed ecbd d7a5 febd
00000120: 3db7 c13d bb61 853e 13ef b3bd 7bc3 14bf
00000130: 572b aabd d5d6 2a3e 3d7e 15bd ba03 9c3c
00000140: 4985 a03d a594 123e acc8 c1bc 8c16 cebd
00000150: 7e6a 843d a280 84bd ff39 89bd 5bdb b9bd
00000160: ee8c 163b 4eb6 c4bd b487 443d 1d53 e6bd
00000170: 98bc c9bc 9b99 23be 173e 4fbe f251 bbbd
00000180: 0bec abbe dad3 23be 1037 fb3d d0a0 d83d
00000190: f4cc 00bf 7f48 93bc e4d8 d23d 4fd7 313e
000001a0: 1559 283e c5c1 d83d 8474 b63d 80c7 26bd
000001b0: 2367 06bf 37c8 31be aeab f4bd c92a b93d
000001c0: e19a efbd 5fbd 61bd 593b 3f3e cd8f 00bc
000001d0: e01d 10be 0f89 85bd 2711 243e a0d9 46be
000001e0: 0759 033e 0bdc 803d ac95 47bd 763d 71bd
000001f0: 4d8a 203d 9d2d d9be 50a0 b4bc dd5f 203e
00000200: 009f bebd ec97 2ebe 326f 81be b727 e53d
00000210: 93fe f33d 8f02 95be 4e09 363a e971 893d
00000220: febc 61bd e493 23be aca3 ab3a 05f8 7d3c
00000230: 5162 31be 8d3b 3fbd 025a 1b3e 6cd7 373e
00000240: f9be f7bd f951 26be dc6d 9dbd 8e22 6cbc
00000250: 6432 133d 416b c63d cb11 57bf c915 5abd
00000260: 33a1 913e 5fc8 243d d881 893d e502 253c
00000270: 8fc3 06be 858b cdbd fe45 38be dd6d 013e
00000280: a8fc ccbd 9750 0fbe 90ba 423e 8403 5c3d
00000290: 454c 983d 95df e43c e99b cbbd bee2 053d
000002a0: c15f 4fbe b562 dc3c f987 033e 75ae 5f3e
000002b0: 6b39 333d fd5f 3cbd 3140 32be bc1b 25bf
000002c0: 47bd 82ba 6f2d 1d3e c7e1 873e bc8d 24be
000002d0: eac4 b33d a502 003d 05dd aebd da1b 85be
000002e0: 3629 f93b 6fb9 e5ba b18a 703d 3498 6fbd
000002f0: 3c04 e9bd ce65 adbd 9436 05be 476e babe
