checkpoints/sssm-Walker2D-v1-model_step-875-2024-11-18-15-48-05.pt (torch, 229946 bytes, 18 tensors)

emb.weight f4 [24, 24]
00000000: 641a 92be ffc1 503d 4cda e1bd 999f b13d
00000010: 5c00 bbbc 985b 243e d4e9 c2be 9293 1cbd
00000020: bc83 aabc 8ccb 32be 39b4 8abe 3978 553e
00000030: b0eb 3f3d bc7f fb3d 9cf0 843e f73e 66be
00000040: 604f 383e 039d 463d 1e07 383d 069c e1bd
00000050: 80d1 c83b 3713 51be a293 b83c 46a5 c0bd
00000060: 6003 6ebd 1cf0 533c e9e9 2c3e e4bd 693d
00000070: 46fb 3cbd 3f6d 69be 0da2 c6bd 55ea 4cbe
00000080: 2429 913d 0d38 643d 7eaa b6be d004 67bd
00000090: 7234 87be 4734 4e3d 21d9 263e df55 c4bd
000000a0: 550e 87bd b69c d3bd f821 5f3e 8ac5 8b3d
000000b0: e444 f93d 6b8e 73bd 01a4 983d 70c7 5f3b
000000c0: 1e80 91bb 3602 01be 2dec 293e 028d ab3e
000000d0: 1677 46be 0bf0 8b3e f652 1fbe 2865 c3be
000000e0: 535f 3fbd 5574 133d eca4 593f 49c0 4bbd
000000f0: 0e83 26bc 8b3e 0a3e 2771 d1be f53d 023e
00000100: 1e5c 293e 6ae6 76be a300 46be b9a9 ae3d
00000110: 2874 30bd a3dd 433e 50d3 bfbc 2080 38be
00000120: b14a 153c 5532 18be 47d6 f0bd 52b4 15bb
00000130: ca07 97be 5a34 6dbe b796 6ebe def5 8abe
00000140: 36ab 14be dc84 7dbe 00c0 23be 51b2 e3bd
00000150: 80fd 5cbe a1ff 233d 526c 2a3e c511 063e
00000160: 604f e93c 1194 613e ffc7 123e 9681 0fbe
00000170: 9492 2f3e 3734 c23b 1df5 8fbe 084f 1c3e
00000180: d903 3dbd b2b1 b3be aad6 ff3e c3ab b13d
00000190: 2987 a7bd d342 91be df40 473e 1241 e9bd
000001a0: 7111 99be 5d89 0c3e 9e21 143e fe59 07be
000001b0: a0b0 483c bae7 41be c2b5 433e c438 c2be
000001c0: 5c34 7cbe ea84 f9bd 63e1 413e 3466 03be
000001d0: 7201 11be 91a4 5fbe de54 24be ae9f 68be
000001e0: 0c41 c0bc f5b8 073e 95ec 7ebe 5ccc 8ebd
000001f0: a424 ec3c 85b6 efbc c5d7 893d 91f3 a03b
00000200: e5fc 133c 4542 8b3d e884 b7be 750a 983d
00000210: 33bc 07be 54c7 083e 4ec2 1bbe 822b 533d
00000220: 735e e7bd 1ed4 fdbd a8d6 97bd cbdb 6dbd
00000230: 1e49 40bd 6180 d0bd a8fc 063e 5160 5dbe
00000240: 3578 953c 1b0b 723e b2e0 81bc cdd8 d8bb
00000250: 4af0 19be dca5 e83d 5053 6b3e bb1e 77be
00000260: ce30 523d 265a 683d a68c c43d 3cab 8c3c
00000270: a686 a53c 1a47 29be 4069 c6be c070 69be
00000280: 944b 13be 8093 413e 247c 59be 2b98 2fbc
00000290: 34a6 b3be 1814 01bd c835 31be 1868 94be
000002a0: 01f7 f1bc 284f b53d 9d81 503e 3c8e 523e
000002b0: 1528 293e 5738 04be c0fb b73a df61 edbd
000002c0: ad87 58be ccc7 59bd e764 4bbd a983 bebe
000002d0: 898f 6d3e fd15 92be 5a2f 00be b0d4 14bf
000002e0: 43d2 3ebe 27ba f03d adf8 903d 1904 0b3e
000002f0: 3d55 933d 00eb c33c 6317 92bd 7c76 eeba
00000300: 76d1 8c3d 3f2d ff3d 3e39 643d e590 0fbc
00000310: d557 13be 2ec8 a9bd 9f96 6e3e 8dcb 733b
00000320: 7982 c23d 01bd 0cbe 398a d73e ffa3 afbc
00000330: cf6b 4bbd 99ca 8cbe 9951 1b3d 0ffc a43e
00000340: 0949 4cbe b657 17be feeb 4ebc ed97 c7bd
00000350: a117 653e 30b6 a33b e4b7 16bc 8121 4fbd
00000360: 07fa 56be 5b87 d13c 7187 513e 9f7d 1ebe
00000370: 0498 223e 003b 6bbe 1649 f5bc 01b3 f13d
00000380: 7c3a 22be 7014 ba3d 1807 703e dcbd 26bd
00000390: 5aec 1cbe f5a6 8cbe 1da4 053e 1209 3ebe
000003a0: 1b0a debe 5aec b6be 02fb 92be 2a7a 05be
000003b0: 622c 03be f1ac 33be 7bdf 7cbe f494 2ebd
000003c0: 0a0c 8ebe a902 333e e38e b23d 7615 b53e
000003d0: 3b1f 9b3e 1622 48bb 1771 963e d850 9b3d
000003e0: 7e44 1a3e c280 89be 0598 ed3e 4171 8fbe
000003f0: a84e 01bd 856d 9bbe e2c3 69bd 8748 8dbc
-0.2853576 0.05096626 -0.11027965 0.08673019 -0.02282732 0.16050565 -0.38069022 -0.03822667
-0.020814769 -0.1746046 -0.27090624 0.20846643 0.04685563 0.12280223 0.2596482 -0.22484957
0.17999029 0.04848958 0.044928662 -0.11016087 0.00612849 -0.20417486 0.022531334 -0.094065234
-0.058108687 0.0129356645 0.16886105 0.05706586 -0.04613807 -0.2279558 -0.096988775 -0.20011266
0.07087925 0.055717517 -0.3567695 -0.056401074 -0.264072 0.050342824 0.16293766 -0.09586691
-0.065945305 -0.103326246 0.21790302 0.06824787 0.12171343 -0.059461992 0.07453156 0.0034145974
-0.0044403216 -0.125985 0.16594 0.33506018 -0.19381365 0.27331576 -0.15558991 -0.38163114
-0.046721768 0.035999615 0.85017276 -0.049743924 -0.010163082 0.13500421 -0.4090664 0.12718947
0.16539046 -0.24111333 -0.1933618 0.08528466 -0.043079525 0.19127516 -0.023416191 -0.18017626
0.009112046 -0.1486295 -0.1175962 -0.0022843075 -0.2949813 -0.23164502 -0.2329968 -0.27140707
-0.14518437 -0.24757713 -0.15991211 -0.111179955 -0.21581078 0.04003871 0.16642883 0.13092716
0.028480232 0.22029139 0.14334105 -0.14014277 0.17145759 0.0059266347 -0.28116694 0.15264523
-0.046146248 -0.35096508 0.49968463 0.08675339 -0.08180077 -0.28371295 0.1945834 -0.11389364
-0.2989612 0.13724275 0.14465949 -0.13217923 0.012249142 -0.18936053 0.19112304 -0.37933934
-0.24629349 -0.121835545 0.18933634 -0.12831956 -0.14160708 -0.21840121 -0.16048 -0.22717163
-0.023468517 0.1325415 -0.24894936 -0.06972572 0.028826065 -0.029261837 0.06730608 0.004911848
0.009032463 0.06799749 -0.35843587 0.074238695 -0.13255386 0.13357288 -0.1521084 0.051555164
-0.11297312 -0.12393974 -0.07413989 -0.05807094 -0.04694473 -0.10180736 0.13182318 -0.21618773
0.018245796 0.23637049 -0.015854213 -0.0066176415 -0.15033069 0.1135976 0.22981 -0.24132816
0.051316075 0.056726597 0.09597139 0.017171495 0.020205807 -0.1653103 -0.38752174 -0.22796917
-0.143843 0.18903923 -0.21238762 -0.010717432 -0.3508774 -0.031513304 -0.17305672 -0.28985667
-0.029536726 0.088529885 0.20361944 0.2056207 0.16519196 -0.12912117 0.0014036819 -0.11590933
-0.21145506 -0.053169057 -0.049656775 -0.37209824 0.23199286 -0.285324 -0.12518063 -0.58137035
-0.18634896 0.11754256 0.07078681 0.13575782 0.07193992 0.023915768 -0.07133367 -0.001819327
0.06875889 0.12459802 0.055718653 -0.008762573 -0.14388974 -0.08290134 0.23299645 0.0037200183
0.09497542 -0.13743974 0.42097643 -0.021440504 -0.04966336 -0.2749832 0.037919614 0.32223555
-0.19949736 -0.14779553 -0.012629507 -0.097457744 0.22372295 0.0049960837 -0.009199116 -0.05056906
-0.20993815 0.025577238 0.20461823 -0.15477608 0.15878302 -0.22971725 -0.029942077 0.118017204
-0.15842623 0.090859294 0.23440206 -0.040708408 -0.15324536 -0.27471128 0.13050885 -0.18558148
-0.43367085 -0.35727197 -0.2870713 -0.13034883 -0.128099 -0.1754644 -0.24694626 -0.04262252
-0.2774356 0.17481484 0.0871866 0.35367936 0.30297264 -0.0030537895 0.29383156 0.07583779
0.1506519 -0.26856047 0.46405044 -0.28016093 -0.031569153 -0.30356994 -0.057071574 -0.017246498

stu.hidden.0.rn_1.weight f4 [24]
00000000: 3f5d d43e 2241 0c3f ddee dd3e c8b2 023f
00000010: e6c1 d53e ec64 b53e b735 2f3f 00bc 023f
00000020: 6438 c33e 5b1d 133f a2d6 9d3e e509 253e
00000030: af10 263f 8822 013f 3260 bf3e 7a7e ad3e
00000040: 1ac7 013f b5ee f13e 8af3 b73e 0864 103f
00000050: 7b53 c43e 7442 383d 7260 403f 35b2 f53e
0.4147739 0.54786885 0.433463 0.5105405 0.41749495 0.3542856 0.6844134 0.51068115
0.3812896 0.5746667 0.30827814 0.16117056 0.6486921 0.50443316 0.3737808 0.33885556
0.5069443 0.47252432 0.35927993 0.56402636 0.3834494 0.04498525 0.75147164 0.47987524

stu.hidden.0.stu.M_u f4 [24, 3, 24]
00000000: cf0e 653d b846 98bd 9411 e5bc f681 c8bd
00000010: 5f9e a3be 44bf ee3d 63a1 3c3e 9dee 293e
00000020: 9017 b53e 2764 ee3e eb0b 0b3f c9ef c23e
00000030: f4f5 26be acf7 173e b038 b6bd 2c29 d83c
00000040: 51c9 8b3e f91e 88bd 6618 81be 8cbc aabe
00000050: 77bb ddbe b503 303e 951f 8bbe 75be 57be
00000060: b2a5 0c3e d6b8 aebe 4450 863d 0973 82be
00000070: 2983 99be f9c8 593b 359a ac3e 998f 6c3e
00000080: ce73 d83d 412c 3f3e 09d4 893d 4976 183d
00000090: 09a8 943e e298 fbbd dcb9 2dbe f896 41be
000000a0: 93b6 cbbd b548 293e 19fe b4be 654d febd
000000b0: 8753 06be 1b84 2abd 39e9 0fbe 58d2 42be
000000c0: cde9 173d 7125 21be 163c 69be 9762 84be
000000d0: f590 d4bd 513d 3dbe 8d0c ba3d 3603 7a3e
000000e0: a8e6 66be e924 1c3e cfc2 19be c2f0 44be
000000f0: 556a 033d bfc7 41bd 2154 36be f27a b23e
00000100: 0637 053d afc0 753e f0e7 e23d 97e4 6b3d
00000110: 3640 063e 9431 f53c 0973 d23d 004a 713d
00000120: 0deb 213d 35a5 d5be fe20 f5bc ae16 d8be
00000130: f971 a4bd d85b 9c3d fa02 b03d 91b1 3abc
00000140: 1951 a23b db8f f2bd 9f2f 87be 4743 aebd
00000150: 2dbe f03b 08a9 eb3d f92a 5ebe 748d 433e
00000160: 86cf 21bd cb29 9c3d d27c 873d 949c dfbd
00000170: 0ee6 e9bb 49e6 42be 9834 d4bd 98de aabe
00000180: a489 093e 8c9c 8bbe d4a4 2e3b 882b d03c
00000190: 9e6e 853c 4cc8 343d a3b8 58be a0bc 5c3e
000001a0: 00ea 2abd 135e 77be af43 033e 1a3c 403e
000001b0: ccf7 653e 8aee 2f3e 6ae2 7ebe 1e09 a0bd
000001c0: 516c 6f3e 3ae7 88bd 49e2 21bd 0868 8e3e
000001d0: 6e63 7f3e df83 173e 9328 263d 4e72 90be
000001e0: 6374 b53d b221 88be 45eb 7bbe 951d 59be
000001f0: 2148 923e d24f 563d f0f3 30bd b923 ef3d
00000200: 0034 b03e f791 7fbb ad29 263e 3cf4 663e
00000210: fd73 a23d 9677 f73d 054b 10be 695f 163e
00000220: 8b22 d73c 18a1 95ba d487 c53d 5f4b c23c
00000230: d050 14bd 33f3 043e 0227 403e e725 4ebe
00000240: e082 de3b ce3c 8f3e af65 dfbe 95c3 7f3e
00000250: 29b7 063e 4174 abbe 78b3 6bbc e5e4 5b3e
00000260: 0b8f 083d da38 27be bd48 e23c 00c7 a53c
00000270: a912 833e a39e 343d 5e84 033e e55d 8e3e
00000280: c0e3 2bbe 42ff debd fc89 d5bc 75e9 053e
00000290: e82b 763e dadf c8bd 49bf 2dbc 8cda e73d
000002a0: eab3 dd3d 4c55 973d 2229 d6bd b286 0b3e
000002b0: f26c 493e e14d 933d 488b 583d 0b4a 593d
000002c0: 8d88 2e3d 7b68 73be 50e0 aabb fa9d b23e
000002d0: 0b1b a3be bc1f 803e 264d 233e c868 a53e
000002e0: 66f9 853d 2d53 87bd 1dcf 163e b479 113c
000002f0: 4615 4e3e 2478 e2be 2143 22bd e48b 6a3d
00000300: 84e3 9bbe 740d 26bd b222 b6be 6a7e c4bc
00000310: 3947 843e e9ca f5bd 9968 663e bae1 303e
00000320: 928a 323e 23cf 153f f64b 013d ba12 703e
00000330: 1770 c43c 35bd a63c 3762 eb3e 4a63 913e
00000340: 7a3a 1a3e 2462 aebc 2c40 9fbe dc90 26be
00000350: 59cf ce3d 6748 9ebe f79b 1a3e 5d99 8cbe
00000360: 2d6d a83d d16c 4abe 0754 24be 97ce 473e
00000370: 93be 8dbe b0f0 263e bb5a 3d3e 8a34 7b3e
00000380: b34f 773d 8a2b 453e 94ff 8f3d df79 963e
00000390: 5f4f 8a3e 94b2 79be c8df ddbd 07a2 88be
000003a0: f4ac 483e 3a5c 843d 87a8 3dbe 55b1 583e
000003b0: 18ee 63be fa79 f63c 402a 363e bddf 613e
000003c0: 9918 24be 56b2 99be ab07 9fbd 6e32 18be
000003d0: 7609 a6bd f95e 053e 047c 8c3e 1be1 b13d
000003e0: c68d 3a3b 3ce5 bf3c d4fd 843e 6f26 acbd
000003f0: f668 e7bb 70b2 64bd 09dd d1be 99e1 65be
0.055922326 -0.074353635 -0.027962483 -0.09790413 -0.31956765 0.11657575 0.18420939 0.1659493
0.3536954 0.46560785 0.5431506 0.38073567 -0.16304761 0.14840573 -0.08897531 0.02638682
0.2730203 -0.066465326 -0.25213927 -0.33346975 -0.43307087 0.17188914 -0.27172533 -0.21068747
0.13735083 -0.34125394 0.06558278 -0.2547839 -0.2998288 0.0033231361 0.337114 0.23101653
0.10568963 0.18669225 0.067298956 0.03722218 0.2903445 -0.122850195 -0.16965431 -0.18905246
-0.09946933 0.16531642 -0.3535011 -0.124171056 -0.131178 -0.04162989 -0.14053811 -0.19025552
0.037088204 -0.15736939 -0.22776827 -0.25856468 -0.10379211 -0.18480422 0.09084425 0.24415287
-0.22548926 0.15248455 -0.1501572 -0.19232467 0.032083828 -0.047309633 -0.1780553 0.34859425
0.032523178 0.23999284 0.11079395 0.057591047 0.13110432 0.029930867 0.102758475 0.058908463
0.039530803 -0.41727605 -0.029922958 -0.42204803 -0.08029551 0.07634705 0.08594318 -0.011394874
0.0049535153 -0.118438445 -0.2640352 -0.08508926 0.0073468895 0.115068495 -0.2169608 0.19096929
-0.03950455 0.07625159 0.066156045 -0.10918537 -0.0071380204 -0.1903316 -0.10361594 -0.3337295
0.13431412 -0.27267873 0.0026648538 0.025411382 0.016288098 0.04413633 -0.21164183 0.2155633
-0.041727066 -0.2415698 0.12818788 0.18772927 0.22457808 0.17180839 -0.24891058 -0.07814239
0.23381163 -0.06684728 -0.039522443 0.27813745 0.24940273 0.14796399 0.04056604 -0.28212208
0.0886009 -0.26588207 -0.24601467 -0.21202691 0.28570655 0.052322216 -0.043201387 0.116767354
0.34414673 -0.0038996914 0.16226836 0.22554106 0.07932279 0.12083356 -0.14091118 0.14684834
0.026261589 -0.0011415808 0.09645048 0.02371758 -0.03620988 0.12983398 0.1876488 -0.20131646
0.006790504 0.27976078 -0.43632266 0.24976952 0.13155808 -0.33487132 -0.01438605 0.21474035
0.03333954 -0.16330281 0.027622575 0.020236492 0.25600174 0.0440966 0.12843463 0.2780601
-0.16786098 -0.1088853 -0.026066773 0.13077338 0.24040186 -0.09808321 -0.010604688 0.113209814
0.108253315 0.07389316 -0.10457064 0.13625601 0.19670466 0.071925886 0.052867204 0.05304913
0.042610694 -0.23770325 -0.0052147284 0.34886152 -0.3185657 0.2502421 0.15947399 0.32306504
0.065417096 -0.066076614 0.14727445 0.008879114 0.20125303 -0.44232285 -0.0396148 0.057262316
-0.30447018 -0.040540174 -0.35573345 -0.02398606 0.2583559 -0.12001593 0.22500838 0.17273608
0.17435673 0.5851919 0.031566583 0.23444644 0.02397923 0.020353893 0.4597337 0.28396064
0.1506137 -0.021287031 -0.31103647 -0.16266197 0.10098142 -0.30914614 0.15098558 -0.27460757
0.08223949 -0.19768073 -0.16047679 0.19512402 -0.2768446 0.16302752 0.18491642 0.24531761
0.06037874 0.1925489 0.070311695 0.29389855 0.2701368 -0.24384528 -0.108336985 -0.26686117
0.19597226 0.06462903 -0.1852132 0.21161397 -0.22258794 0.03008746 0.17789555 0.22058006
-0.16025008 -0.30018872 -0.077651344 -0.14862987 -0.08107273 0.1302451 0.27438366 0.086855136
0.0028465851 0.023424737 0.25974905 -0.08405768 -0.007062073 -0.055834234 -0.4098895 -0.2244934

stu.hidden.0.stu.M_phi_plus f4 [24, 16, 24]
00000000: 01a1 d53d 9cb8 b13e 94c7 88bd 08d5 24be
00000010: 8cdf 793e 80fc a6be 2ead 0e3c be1f 4cbc
00000020: 86f5 34be 78bf 9ebe 32a6 eebe 514d fd3d
00000030: e3a2 ef3e 1b98 a8be f3fe 5a3e a015 16be
00000040: c4a4 953e 8eaa 1e3f d4e8 c8be 02aa d1bb
00000050: 07e5 6abe 6fa3 4fbe 8905 8b3e 54b6 603f
00000060: 3b84 b73d ee7b 123f 1dc6 8dbc 229b 2b3e
00000070: b2e2 bb3c 1705 a1be 38df 60be fbee 333e
00000080: 41a0 8bbd cc10 8fbe cf46 7cbc 823c 903d
00000090: e192 283f c3a6 d7be 25cc dfbc f080 3f3c
000000a0: 2d61 ee3d 10df 003f 9d14 bb3d 44dc e4bd
000000b0: 2425 25bf 41be f6be 1094 a5bd 5e5d c63e
000000c0: 4f9d 013d 9308 053e eff5 8fbe b64c 02bf
000000d0: b05e 7b3e 20c4 94be 5acc 2d3e 3ef9 823e
000000e0: c81c c4bc 13cd 093f 5029 be3e 4e44 843d
000000f0: abb8 823d b80c edbc 579f 07bf 65a2 2e3e
00000100: 35be 873e 3541 233d 873b aabd 619a 1b3d
00000110: fd72 09be e314 643e 240e 2ebe 4d06 663e
00000120: acd5 e13c 7e0e 0c3f 4e73 d9bc 5459 253e
00000130: dca9 c6bd 3674 b8bd 94bb a8bd b760 0f3e
00000140: 738f b83d 63b4 acbe 031a 803d 526f 4c3e
00000150: 10c4 9f3e 52fa bfbd ae50 3a3e d7bf 13be
00000160: ff1f 253e fd60 233f 6972 433e a790 e03c
00000170: f0a1 82be db3e 00be 98d5 98bc 10b7 da3e
00000180: c2ff 8c3d 954a e2bd 7501 d1bd 817e b33d
00000190: 8017 91be 3d10 683e 5c3d 923e dc2b 2abe
000001a0: cc00 44bd 0d17 ab3d 3fee 27be 964b 17bf
000001b0: 5445 81be 0f17 3c3e 7a6e 2e3b 06c7 d3bd
000001c0: 4f63 ecbe 32df da3d af96 9bbe 516b 5dbe
000001d0: e67f 293f aafe eebd e145 e23e ce06 a4be
000001e0: 33c1 1cbe 1179 ffbe 0d63 18be 8c8e c4bc
000001f0: f312 d7bd 7926 203f 4a80 713e e3ed b73c
00000200: 483a 8dbe cdde 013e fdb5 143d 4842 e9be
00000210: 28ab 2abe 6652 123e 49a2 64bd 9fbb 1ebd
00000220: 6013 02bf 8eab aabe deac 9abe a7e7 1dbd
00000230: f281 163f 9e30 51bc 7a69 0d3f 36cc b4be
00000240: c3b5 61bd d559 a4be 0db3 753e 36a1 ae3e
00000250: 37c5 0bbd 9487 e63d 2d7c 263e 551e febd
00000260: f210 b3be de95 a7bd 0299 43be 900f a6bc
00000270: d0da dbbd e682 053d 2231 44bd cac2 483e
00000280: 8e3d 43bc c204 4abe 2a9a 55be e395 323e
00000290: 5a70 573e e366 ae3d 2eb7 f83c 3c76 94be
000002a0: ebcb 1abd 66c7 773d 10fd e93d fb63 983d
000002b0: a26b 923e 3f29 ffbe fe24 1abe 4acb 9dbe
000002c0: a608 28be 242d ef3d 3838 30be 49c0 103e
000002d0: af5a 9fbe 9b13 87bd b476 9dbe 6aaf 273e
000002e0: 1fe3 a63e d96b 64be b219 283d 3ff9 97bd
000002f0: 61aa 14be a78f 303d e42b 1c3e f88f 5dbd
00000300: 82c0 a1bd 84dc 413d 1d67 85be d9f0 2c3e
00000310: aaaf 3e3f 541c ddbe 97d9 33be 231f 4abe
00000320: 0146 213e 6d12 fa3d 290f 9d3d 1cdc 23be
00000330: 12e2 78be 9aab 483c b0df 763d 7ba4 bc3e
00000340: 3c1b 813e 22a8 f5be bd12 7abd c21d c2bc
00000350: 7237 00bf 12e1 cdbe 39ba df3b e75a be3c
00000360: fecb 833b 4052 2ebe f97e f3bc 505a 09bd
00000370: 92ce 0b3f 6764 113d 083e 85be ccda 0fbe
00000380: 7a9a 093e 12ad 31be 4a9b f1bd 1bb5 a6be
00000390: 5447 353b f0b5 dc3d 5aca b63e 85a7 243e
000003a0: 14c5 693d 8183 bcbd f87d 56bd ead4 143d
000003b0: e4b8 35be 32de b1be e5d9 533d 4a6c 17be
000003c0: f1ea cd3d cc3e d2bd 94c4 3fbe 75ff 2fbe
000003d0: d6db a93d 6a3c 463c d09b d0bd e5c6 a43d
000003e0: 830f 2cbd df96 8f3d e55c f4bd 9929 3dbe
000003f0: 4997 4abe b5c1 05bd 1cc7 6f3e 982b 783e
0.104311 0.34711158 -0.066786915 -0.1609689 0.24401683 -0.32614517 0.008708281 -0.01245874
-0.17671785 -0.31005454 -0.46611172 0.123682626 0.4680396 -0.32928547 0.21386318 -0.14656687
0.2922727 0.61978996 -0.39240134 -0.0063984403 -0.2293893 -0.20277189 0.2715266 0.8777821
0.08960768 0.5722035 -0.017306382 0.16758397 0.022935245 -0.31449196 -0.21960151 0.17571633
-0.068176754 -0.27942502 -0.015397741 0.07042791 0.6584912 -0.42119417 -0.027319023 0.011688456
0.116396286 0.50340366 0.09134791 -0.11174825 -0.645098 -0.48192027 -0.08084881 0.3874311
0.03164416 0.12991552 -0.2811732 -0.508983 0.24547839 -0.29055882 0.16972485 0.25580782
-0.023939505 0.53828543 0.37140894 0.064583406 0.06382879 -0.028936729 -0.5297751 0.17054136
0.26512304 0.03985711 -0.08312135 0.037989024 -0.13422771 0.22273593 -0.16997582 0.22463341
0.027567707 0.54709613 -0.02654424 0.16147357 -0.09700367 -0.090065405 -0.08238903 0.14001738
0.09011736 -0.33731374 0.06254961 0.1996434 0.3120427 -0.09373917 0.1819484 -0.1442865
0.16125487 0.6381987 0.19086613 0.027412726 -0.25514174 -0.12523977 -0.018656537 0.4271779
0.068847194 -0.11049382 -0.10205356 0.08764363 -0.28338242 0.22662444 0.28562438 -0.16618294
-0.047852322 0.08354006 -0.16399477 -0.5909971 -0.25248206 0.18368171 0.0026616142 -0.10340695
-0.46169516 0.106871024 -0.303884 -0.21622969 0.6621078 -0.11669667 0.44193938 -0.32036442
-0.15308075 -0.49897054 -0.14881535 -0.023993753 -0.10501661 0.62558705 0.23584095 0.0224523
-0.27583528 0.12682648 0.03630637 -0.4555838 -0.16666853 0.14289245 -0.05581883 -0.03875315
-0.50810814 -0.3333401 -0.30210012 -0.038551 0.5879203 -0.012767939 0.5523907 -0.3531205
-0.055104982 -0.32099786 0.23994084 0.3410737 -0.034123626 0.11256328 0.16258307 -0.12408129
-0.34973866 -0.08182882 -0.19101337 -0.020271093 -0.107350945 0.032595538 -0.04789842 0.19605556
-0.011916531 -0.19728377 -0.2085959 0.1743999 0.21038952 0.08515718 0.030360784 -0.28996456
-0.037792128 0.060492896 0.11425221 0.07440945 0.28597742 -0.49836156 -0.15053174 -0.3081916
-0.16409549 0.11678532 -0.17208946 0.14135851 -0.31123874 -0.06595536 -0.30754626 0.16375509
0.32595155 -0.22306766 0.04104013 -0.07420587 -0.1451812 0.043105748 0.15251118 -0.054092377
-0.07898046 0.04732944 -0.26055232 0.16888751 0.7448679 -0.43185675 -0.17563473 -0.1973844
0.1574936 0.12210546 0.07668907 -0.16001934 -0.24304989 0.012247944 0.06027192 0.3684424
0.2521609 -0.47979838 -0.061053026 -0.02369583 -0.500846 -0.40210778 0.0068276194 0.023236705
0.0040221205 -0.17023563 -0.029723631 -0.033533394 0.54612076 0.03549614 -0.2602389 -0.14048308
0.13437834 -0.17351177 -0.11797197 -0.32560048 0.0027660923 0.10776889 0.35701257 0.16079529
0.057072714 -0.0920477 -0.052366227 0.036335863 -0.17746311 -0.34739834 0.051721472 -0.14787403
0.10054577 -0.10265884 -0.18727332 -0.17187293 0.082938835 0.012099365 -0.10185969 0.080457486
-0.04200698 0.07011198 -0.11931781 -0.184729 -0.19784273 -0.032655437 0.23415798 0.2423538

stu.hidden.0.stu.M_phi_minus f4 [24, 16, 24]
00000000: bc82 923d 14c9 a2be 3920 42be f29b de3d
00000010: d28c f73e bd1c 8bbc 3674 e23d d590 95be
00000020: 8b93 6a3e dc2a 29bc 347d 523d ab3f 2e3e
00000030: b696 dd3d 917e 8b3e 692d 203e 996e d6bd
00000040: 5cc3 ef3d 3e90 a03e 9856 80be 99f9 b53e
00000050: 246d 923e e885 83be a3a6 353e a1c4 973d
00000060: e8b1 00bc 4795 4c3e 37ce 21be f72e 34be
00000070: acb0 e73b 9247 6bbe 104e 3cbd a8bb a63d
00000080: c7fa 573e 5c13 d93e bae3 1a3e 7795 af3d
00000090: 9ddc ad3e d98f 9fbe 51e9 5d3d bf61 c5be
000000a0: b21a 703d 6ca6 0f3e 7f43 5dbe 8273 b23d
000000b0: 2ec0 2f3e 0284 9a3e 6022 d63d 952f 75be
000000c0: 4235 0bbd fb48 29be cef6 243e b6df e4bd
000000d0: d2d9 043d 0939 923d 6dae b73d 8558 85bc
000000e0: 8036 0c3f 6f26 433e 811a 1dbe 0249 4abd
000000f0: 5067 b13e 663d 09be e5b5 053e b4d1 abbe
00000100: f50f 81bd a9a6 633e 401c d0bc 00b5 013d
00000110: 486f 463e 4da6 e13d 07c3 4fbe fd40 91be
00000120: 523b 1abe f30f 3d3e 4972 46bd 4f93 e7bc
00000130: fb7a de3d 755a 72be 9a57 6dbd b498 06be
00000140: 3521 dc3e 6095 b33e 7db6 533e df3f 303e
00000150: 54bc 1e3b 5ef6 83bd b61a 953e 6ba3 b9be
00000160: 5e54 d23e 7a2c e83d 8c51 36be 2537 3e3e
00000170: 4300 7bbe dedb 013e f1eb 453d 881d 51be
00000180: e3ad 563d c2be 613d f96e cf3d 9f97 8b3e
00000190: 34e0 913c c74f 123e 5463 61be 15e6 813d
000001a0: a625 88be 6e0e 80be 1c0a d63d 3fc0 60be
000001b0: 53ec 8b3d 43c8 ad3d e93b 0fbe 89a6 c13d
000001c0: 8e2c a73d 6f55 53be e74c 403e f5f2 4abe
000001d0: 8a07 903c b23b d03c 2c12 bebd 4563 16be
000001e0: d537 6cbd 3dc3 8fbe 51f6 eb3d 2175 31be
000001f0: bb7a 2abc 3dd5 0f3e ae0a b63e 27c8 1a3e
00000200: 8399 593e dd77 093d 21e9 58be 8799 ed3d
00000210: 97db dabd 1d13 153d 7375 fbbb 179d 9a3d
00000220: ea2f 0bbf 5680 5e3e 23d8 f6bd 9b6a b23d
00000230: e5eb e03d 06ae 9c3d bb2d 413d cf4b a7bd
00000240: 7e89 ed3d 5d18 6f3e 81c3 323d 44ab 99bd
00000250: 96b1 78be cbc9 d5bd d16b 68be bfe1 bb3d
00000260: febb c1be d95d b2bc 5065 83bb e203 a1bd
00000270: bcd4 6fbd a80f 96bd 3284 1dbd 7a4b f83d
00000280: 5cc4 c83e f6d0 80be b799 b33e 700d d93c
00000290: 7288 62be 56bc 1cbd 0e0b 913d 1abd ef3d
000002a0: 2871 27bb f038 53bc f9fb 29bd 673d c83d
000002b0: 023f 563e b63e ed3c ca2e 663c a35b fcbd
000002c0: 5e07 ca3d b645 c03c d5a8 89bd 816d 94bc
000002d0: e7e4 11bd 780b 773e bcf8 353e 18b2 96bd
000002e0: b730 74be 08cd 543e 295f b6be 505b 7bbb
000002f0: 0776 94bb d17f 4abe 501c a23d 42b6 083e
00000300: a3cc 94be 092e 993d df78 473e a68b a5bd
00000310: b376 19be 6270 aabd f8e8 dabb 823c 14be
00000320: 37b0 f0bd 0de6 ba3a 5aa6 ec3b c0a9 a3bd
00000330: c3bd a73d 2aca 59be 0744 cebd 8d07 b1bd
00000340: f82f d73d 762b a63d cc61 573d 99a5 12bd
00000350: b14b 9d3d 6f31 1f3e 41d6 4fbc a76d 91bd
00000360: a7c4 d23d 9e53 50bd ad8f 62be 512b 45be
00000370: 81ee e73b 386e 6cbe 91d3 c53d 09b4 523d
00000380: 788f cebd 58be 5d3e 0af4 5bbc f78a 81be
00000390: 0670 8dbe d164 473e 05c7 f5bc 5b84 0b3e
000003a0: 66ce f83c 32ba d1bd 062f 94bd 5e99 30bc
000003b0: 5cb9 48bb a481 50bd cd87 5c3e 7795 36be
000003c0: a815 003c f75c f33d 1826 0b3d 6ea5 ab3e
000003d0: 874d 0f3d 0770 043e ae41 16bf 0e1f 173d
000003e0: 25a8 313c 783a fdbd 1d81 713e fef6 35bc
000003f0: 1b06 5abd 3bd0 1c3e b947 f5bd 7b6b 0bbd
0.07153842 -0.31794035 -0.18957604 0.10869588 0.48349625 -0.016981477 0.11057322 -0.2921206
0.22907846 -0.01032516 0.051388934 0.17016475 0.108197615 0.27245 0.15642323 -0.104703136
0.11707184 0.31360048 -0.25066066 0.3554199 0.28598893 -0.256881 0.17739348 0.07410551
-0.007854916 0.1997882 -0.15801321 -0.1759604 0.0070706215 -0.2297652 -0.045972884 0.08141261
0.21091758 0.42397583 0.15125933 0.0857343 0.33957377 -0.31164435 0.054177586 -0.38551137
0.05861921 0.14028329 -0.21607779 0.087134376 0.17163154 0.3017884 0.10455775 -0.23943932
-0.033986337 -0.16531746 0.16109774 -0.11175482 0.032434292 0.07139785 0.08968816 -0.016277561
0.5477066 0.1905763 -0.15342142 -0.049386032 0.34649134 -0.13402328 0.13057669 -0.33558428
-0.06301872 0.22231545 -0.025404096 0.031666756 0.19378388 0.110180475 -0.20289241 -0.28369895
-0.15061691 0.18463115 -0.048448835 -0.028268484 0.108633004 -0.23667319 -0.05794487 -0.13144189
0.42994085 0.35074902 0.20675083 0.17211865 0.002422114 -0.06443475 0.2912194 -0.3625749
0.41079992 0.11336608 -0.17804545 0.18575723 -0.24511819 0.12681529 0.048320714 -0.20421422
0.052411925 0.05511356 0.10128588 0.27264115 0.017807104 0.14288245 -0.22010547 0.06342713
-0.26591223 -0.2501101 0.10451147 -0.21948336 0.06832185 0.084854625 -0.13987698 0.09455592
0.08162795 -0.20638059 0.18779336 -0.19819243 0.01758172 0.02541909 -0.0928081 -0.14686306
-0.057670433 -0.28078642 0.115215905 -0.17329837 -0.010405238 0.14046188 0.35555023 0.15115415
0.21249966 0.033561576 -0.21182682 0.11601549 -0.10686415 0.03639518 -0.007673913 0.07549494
-0.54369986 0.21728644 -0.120529436 0.0871174 0.10982493 0.0765038 0.047162753 -0.08168756
0.1159849 0.23349138 0.04364348 -0.075033695 -0.24286494 -0.104388796 -0.22697379 0.09173917
-0.3783874 -0.021773266 -0.00400988 -0.07862069 -0.05855249 -0.07327205 -0.03845615 0.12123771
0.3921231 -0.25159425 0.35078213 0.026495665 -0.22122362 -0.03826555 0.07082187 0.1170599
-0.0025549624 -0.012891993 -0.041500065 0.097773366 0.20922473 0.028960567 0.014049241 -0.12322166
0.098646864 0.02347074 -0.06721655 -0.018118622 -0.03561869 0.24125469 0.17770666 -0.073581874
-0.23846708 0.20781338 -0.35619476 -0.0038353987 -0.0045306715 -0.1977532 0.079155564 0.13350776
-0.29062375 0.07479484 0.19479702 -0.080832765 -0.14986686 -0.083222166 -0.006680604 -0.14476207
-0.1175236 0.0014259234 0.007221979 -0.079913616 0.08190491 -0.21268526 -0.10071569 -0.08644018
0.10507196 0.08113758 0.0525835 -0.035802457 0.076804526 0.15546201 -0.012685359 -0.07100993
0.10291415 -0.050860994 -0.2212512 -0.19254805 0.0070779924 -0.2308892 0.09659494 0.051441226
-0.10085958 0.21654642 -0.013424883 -0.25301334 -0.2762453 0.19472052 -0.030002126 0.13624708
0.030371856 -0.10240592 -0.072355315 -0.010778753 -0.003062806 -0.050904885 0.21536179 -0.17830454
0.007817663 0.11882966 0.033971876 0.3352465 0.034986045 0.1293336 -0.5869397 0.03689485
0.010843311 -0.12364668 0.23584409 -0.011106251 -0.05322848 0.15313809 -0.11976571 -0.03403805

stu.hidden.0.rn_2.weight f4 [24]
00000000: 5777 633f b759 4b3f 6124 ff3e 7394 f83e
00000010: 522e d43e d86f 8a3f 253f 3d3f 4185 453f
00000020: 65b5 023f 17df 553f 3fe4 4a3f 21ab 2b3f
00000030: 72eb 6a3f 9b7b 503f c472 8b3e 556c 483f
00000040: 2df1 363f ac52 203f 364f 453f fd42 4b3f
00000050: f0a1 383f c5ed ab3e 4473 163f 23d8 053f
0.88853973 0.7943377 0.49832442 0.48550758 0.4144159 1.0815382 0.73924476 0.77156454
0.51058036 0.83543533 0.79254526 0.67057997 0.9176551 0.81438607 0.27235997 0.782903
0.71461755 0.6262615 0.7707399 0.7939909 0.72122097 0.3357984 0.5876963 0.52282923

stu.hidden.0.mlp.swiglu.w.weight f4 [96, 24]
00000000: 5f6b 87bd 25d6 503e 7d88 75be 9fbc 2e3e
00000010: 30d2 f4bd 7589 d03c a6d2 4d3e 15bd adbc
00000020: 34ca 02be 7061 ee3d f206 ee3c ce9d 123e
00000030: 60a3 223b a2af 003e a365 4cbe 7124 80bd
00000040: 331b 283c 3a3f 923e f28c 2dbe f6d8 66be
00000050: f562 a2bd 03b0 413c e4c4 4bbd 8b12 803e
00000060: d9f4 28be 744f 903d fc00 083d a819 75be
00000070: 1c36 2bbc bf30 29be 1584 b43c 520f bcbe
00000080: 852b d0bd d62e 7cbc 8ea5 15be 0407 1cbe
00000090: 1a57 043d 4102 e9bd bb23 ecbd fae6 2e3c
000000a0: e295 2b3e 1451 da3d b15a d53d a27f 29be
000000b0: ca92 52be 7c4b 8cbc be02 143e bbc8 333d
000000c0: e863 4d3d b8ee 29be b317 6ebd 838c 88bc
000000d0: f9e3 84be 7886 2b3d bbe3 0f3d 6d60 0b3c
000000e0: 9a45 8b3e 4676 76be 4135 c73d 15ff e63d
000000f0: 9d36 df3d c4cc 763e 4854 793e e9da 86be
00000100: 2d61 dbbd 4465 f23d 966f 3d3e f652 d1bd
00000110: 7a10 9b3d df58 56be f5e8 b1bd aed6 993d
00000120: 4358 563e e4da 543d 3c7d 60be 6cb8 5ebd
00000130: d7ea 1abd 3d3f 98be 1959 90bd 400a 11bf
00000140: 9c31 4dbc 8c86 00be c912 16bf 831d 173d
00000150: c3f1 043e f44e bebd 61c1 163e 5093 8d3d
00000160: 1b43 b93d beef 92bb 1ff6 fabd 65c4 4a3e
00000170: 6351 be3e 4cf4 e43d 24d8 9e3e 8dad 81bd
00000180: d423 8cbc 2c01 923d af9b 29be 0775 413c
00000190: 6abe adbd 642c 323d 51f1 9fbc 3a4a c93d
000001a0: f439 e2bd ea52 713d c60e 1e3e 6591 59bd
000001b0: 5aa2 0bbe 39cd 65bc e87b adbd 1766 a8bd
000001c0: 8ac6 263e 727c 153e a6d9 33bd 58e3 d6bd
000001d0: 255a 27be 3891 ff3d 054e ec3d 530c 24bd
000001e0: 66e2 203e 9952 7bbe d4fa 873e 796c 953e
000001f0: 7069 2fbd bcf3 5c3e 1320 91be 568c 743d
00000200: 1fce 863e 3657 17bc 222e 133e b4cd 363e
00000210: f7f5 3f3e 8112 febd 13c4 7a3c cee2 02be
00000220: e000 053e e7d7 3d3d 2e39 163e e85a 47be
00000230: cefd 8bbd ccfc a03e d66d abbe 9a20 90be
00000240: cc77 803e aae5 ef3d acef 03be 1a7c 363e
00000250: a028 4cbe 6741 8abe d5c5 86bc 5748 613e
00000260: 37f9 31bf b78d 5d3e 4c8c c83e 4d76 923e
00000270: fce1 753e d05e 4abe 6293 3fbe 6c0a 8ebe
00000280: 08cc 5cbd 8fcf 193e 73a3 57bd f793 4dbe
00000290: 4ad2 6ebd b075 da3d e3e3 a1bd 43eb 5bbe
000002a0: 3bdf 753e d123 033e 5a1e 77bd 6caf 2abb
000002b0: 1019 01be fef0 22be f3e9 68bd bb8c e03d
000002c0: cf07 cfbc 9147 11be e06c 30bd aa8f de3d
000002d0: e16c f43d d456 1a3e 2105 3bbe c02e db3d
000002e0: 4c6e 853e 6ab9 bd3c 0854 b23d 37f5 abbe
000002f0: 052a e93d a06d 043e 8af8 40bc 3532 45be
00000300: e1f1 1e3e 1db4 bb3d 50dd 463e 9b78 ba3d
00000310: 3b8f 5f3e 573b 12be ce83 953c 8f06 5ebe
00000320: 734e 2e3e 7d9d 07be e46a febd ddc6 c2bc
00000330: c888 bcbd cafb cb3d fa41 73bd fb49 a23e
00000340: d58f 153d 4c24 c23c 8800 b33e f474 08be
00000350: b65e 9e3e 957e 933d 5139 82be ba5a 62be
00000360: 1cbb 96bd c6ff 573e b148 e8bd bd00 0b3e
00000370: 60c2 05be 588e 77bd f877 2ebe d700 45be
00000380: 1a6e 6cbd 944d 863e e5c5 16be f12f 01bb
00000390: fdf8 36be 1de9 66be babb fbbd 2937 d43d
000003a0: 67dc 243e fb72 1a3e 6486 97be 8db0 863d
000003b0: 4a50 fd3c 97a7 9a3e 7105 fd3d 4f3f b4bd
000003c0: 185a 55be 7ee1 de3d b9d7 8dbd 04cd 0f3d
000003d0: 1181 f4be 6a61 53be c2fd b03e 57fe 103e
000003e0: cd28 9ebe b353 9f3e d8c4 29be 4c67 9cbd
000003f0: 8620 0ebd 04e5 653c 8878 99bd f364 6c3d
-0.06612276 0.2039419 -0.23977847 0.1706414 -0.119541526 0.02545617 0.20099887 -0.021208325
-0.12772447 0.116396785 0.029056046 0.1431801 0.0024816617 0.12566999 -0.19960646 -0.06256951
0.010260391 0.28563863 -0.16948298 -0.22543702 -0.07929031 0.01182175 -0.049748316 0.25014147
-0.16499652 0.070464045 0.033204064 -0.23935568 -0.010449912 -0.16522501 0.022035638 -0.36730438
-0.10164551 -0.015392026 -0.14613935 -0.15237051 0.03230963 -0.11377383 -0.115302525 0.010675186
0.16756395 0.10659996 0.10417689 -0.16552594 -0.20563808 -0.017125838 0.14454171 0.043892603
0.050144106 -0.1659497 -0.05812807 -0.016668564 -0.2595518 0.041876286 0.03512929 0.008506876
0.2720154 -0.24068555 0.09726954 0.11279122 0.108990885 0.2410155 0.24348557 -0.2633889
-0.10711894 0.11835721 0.18499598 -0.10220902 0.07571502 -0.20932339 -0.08687011 0.0751165
0.20932107 0.051966563 -0.21922773 -0.054375097 -0.037821617 -0.29735747 -0.07048244 -0.56656265
-0.012524035 -0.12551326 -0.58622414 0.03689338 0.1298285 -0.09292403 0.14722206 0.06912863
0.090460025 -0.004484146 -0.12253975 0.19801481 0.37171468 0.111794084 0.31024277 -0.0633193
-0.017106928 0.0712913 -0.16563295 0.011807687 -0.08483584 0.043499365 -0.019524248 0.09828611
-0.1104621 0.058916964 0.15435323 -0.053117175 -0.13636151 -0.01402598 -0.08470899 -0.08222597
0.16286674 0.14598253 -0.043908738 -0.10492581 -0.16342981 0.1247887 0.115383185 -0.040050816
0.15711364 -0.24543227 0.26558554 0.2918432 -0.042825162 0.21577352 -0.28344783 0.059704147
0.26329133 -0.009237101 0.14373067 0.17851907 0.18746172 -0.12405873 0.015305537 -0.12781832
0.12988615 0.04634848 0.1467025 -0.19468272 -0.06835519 0.3144287 -0.33482236 -0.28149873
0.25091398 0.11713727 -0.12884396 0.17820778 -0.19937372 -0.27003023 -0.016451756 0.22000252
-0.69520897 0.21636091 0.39169538 0.2860588 0.24011987 -0.1976273 -0.18708566 -0.27742326
-0.053905517 0.15020584 -0.05264611 -0.20075975 -0.058306016 0.10666978 -0.07904794 -0.21476464
0.24010937 0.12806632 -0.06033168 -0.00260445 -0.12607217 -0.15912244 -0.056863736 0.10964342
-0.025272278 -0.14187457 -0.04307258 0.108672455 0.119348295 0.15072185 -0.18263675 0.10702276
0.26060712 0.023159701 0.08707434 -0.33585522 0.11384968 0.12932444 -0.011778006 -0.19257434
0.15521957 0.09165213 0.19420362 0.09105035 0.21831982 -0.14280449 0.018251326 -0.2168219
0.17022114 -0.13243671 -0.124227315 -0.023776466 -0.092057765 0.09960134 -0.059389092 0.31697068
0.036514122 0.023698948 0.34961343 -0.13325864 0.30931634 0.07201878 -0.25434354 -0.22104922
-0.07359907 0.21093664 -0.1134199 0.135745 -0.1306243 -0.060438484 -0.17037952 -0.19238602
-0.05772219 0.26231062 -0.14723928 -0.0019712413 -0.17868419 -0.22549863 -0.122916654 0.103620835
0.16099702 0.15082924 -0.2959472 0.06576643 0.030922074 0.30205986 0.123545535 -0.08801138
-0.2083515 0.10882853 -0.069259115 0.035107628 -0.4775472 -0.2064263 0.34568602 0.14159523
-0.30890504 0.31118545 -0.16578996 -0.0763689 -0.034698986 0.014031652 -0.07493693 0.05771346

stu.hidden.0.mlp.swiglu.v.weight f4 [96, 24]
00000000: 1d74 a63e 318f e0bd 8556 a9bc f011 55be
00000010: ae50 97bd 76ca c6bd de86 4b3d eeac 123e
00000020: 6208 ad3e 0055 843d addf 683e ce5b 003e
00000030: 6140 293e e7e0 b6bd e2ce 4c3d da6c dfbd
00000040: 4b29 23be c5a0 64bd ba20 cf3c 533e f33d
00000050: a943 bbbd 4762 833d b475 a73e 48af 32be
00000060: 6ecb f5bc 1e7a 663c f509 adbd 7872 abb9
00000070: 278e c7bd f1fe 80be 2474 f3bb 4261 cb3d
00000080: 4422 ecbb 4f8c 9f3c 674e d9bc 587c 96bd
00000090: af8c b33c da99 373e af3a 1c3e 76d9 a6bd
000000a0: 6e42 25bd 42d3 9d3b 24ea bfbc b1d9 06bc
000000b0: 67b4 05be 092f 72be 0dff 243d 660c 5c3c
000000c0: 4e98 0ebe 4975 afbe bf17 053d 2ba5 253e
000000d0: 7f15 58bd a05f 35bb 02a9 bf3d 57ec e4bd
000000e0: 602b 8ebd a4dd 213e 997c cabd ff1a 7ebd
000000f0: fdbd cabd 19d8 023e aecf cf3d eb15 9f3d
00000100: 21d7 afbd c2f9 a23d a49b 25be dc6c 273e
00000110: d23c cbbc d744 d5bd 7800 5b3e 65c2 d73d
00000120: d858 5a3d ae2f 20be 0f3d ce3e 3a5a f4bd
00000130: 66bf 893e 2672 783d 57d7 8abd 6efd 823d
00000140: 4b74 ba3e 4a74 e5bd b593 a13e 94b2 653d
00000150: b00c a83e 3a3e 3e3d 29d4 953d 21e1 ddbd
00000160: ea8f cebc 79dc c8bd f597 703e 336c 263d
00000170: 41dc 503d 2158 4fbd 511d 00be 124b 23be
00000180: c998 e23d 0fd6 733e 08f3 553e 4308 8f3e
00000190: 9114 72bd 085b 003e 1ca2 b8bd 8be0 073e
000001a0: 89cf f83d f1e4 dcbd b51b 973d 9a76 b03a
000001b0: ea8b b43d b88b 12be 943e 0abe a83c b9bd
000001c0: 3fce 9d3d 3ac4 a23d 306c aa3d 7204 73bd
000001d0: 2b4a 003e 2d7c 6b3e 07fa e8bd 34e6 b5bd
000001e0: 55b2 003e 146d dfbb 6613 c73d d4ef e9bd
000001f0: 2b3d ba3d 9872 88bd e73c 67bd 75e0 2c3e
00000200: d612 583d a938 18bc 6539 763e 0b50 853e
00000210: 1429 5d3e a2fe 9bbe a9d6 a5bc 01b9 96bd
00000220: e710 0e3e d3a4 ce3d 75e4 3b3d bde0 b2be
00000230: 582f 873d b141 373e bf2e 1bbe 2543 d9bd
00000240: 734e 46bc 4eda 14be c135 4e3e 9999 353e
00000250: a9b8 80bd 0dbc 623e a03f 37be 97a9 003e
00000260: ff14 473d a213 2f3e bad1 d03d 8511 2c3e
00000270: fe03 5b3e 1106 31be 4f32 58be afdc 70be
00000280: 4e30 2a3e af08 8c3d e945 f43d 5275 94be
00000290: 5568 1cbe eb1e 213d 2b8f 60be 3180 90bd
000002a0: 3f55 9fbd ce4f 403e f202 18bd 95cd 94ba
000002b0: a50e aabc 88af a4be 59ba 923d 871f 1dbe
000002c0: 8bc9 d9bd 15ba ecbb 6e9e 55be b91a c3bd
000002d0: 1b8c 30be 798b aebd 5b83 ed3d 06d9 8fbd
000002e0: 85e5 553d ccb4 043e 3918 19be 99c1 3a3e
000002f0: a894 fdbd 12ff b73d 6449 5d3b 7474 b93e
00000300: 6ecd 473e 898d 5d3e 4cd4 08ba 8ceb 903e
00000310: a91e 0fbe 1b94 173e 8e2f 5c3e ccbc dfbe
00000320: 732d b3bd d46e 333e 6b6b 90be c8c9 5bbe
00000330: e3d7 cbbe 431d 953e fe69 ff3d 2b66 bbbc
00000340: bc34 4bbe fb4a 4c3e 3162 d2bd 3428 be3d
00000350: d460 4fbe e037 263e bee6 41be a66a 633e
00000360: a3e0 96bd a3b4 1abd 2507 debb b51d 413e
00000370: 22dd 39be b90d 2dbd b949 03be 8879 64be
00000380: 78bf 56be cd2b 353e d0b5 72bd adf0 393d
00000390: 8632 1ebe 29dd b83c 19f0 403e 07e1 0d3d
000003a0: 44e0 093e de4d 6abc b707 13be f4bc 213e
000003b0: a81e 9cbe 8958 803e 9d8d ce3d 5dd9 45bc
000003c0: 652a 82be 8331 53be 4f87 373e 768c 90bd
000003d0: 4dde 663e 41b0 3d3e 5240 e63d c999 c93d
000003e0: 219a 7c3e 9ff1 cdbc 06c6 253e 5ba6 363e
000003f0: 77ae 003e 7e8c 8fbd 2e8f 803e 99cb aebd
0.32510462 -0.109648116 -0.020671139 -0.20807624 -0.07388435 -0.09706585 0.049689166 0.1432378
0.33795458 0.06461525 0.22741576 0.1253502 0.16528465 -0.089296155 0.050001986 -0.10909434
-0.15933721 -0.055817384 0.02528416 0.11877122 -0.091437645 0.06415229 0.32706988 -0.17449677
-0.03000423 0.014067201 -0.08449165 -0.00032700947 -0.0974391 -0.25194505 -0.0074296165 0.0993066
-0.007206233 0.019476084 -0.026526643 -0.073479354 0.02191767 0.17929783 0.15256761 -0.08146946
-0.040346555 0.0048164437 -0.023427077 -0.008230613 -0.130571 -0.23650755 0.040282298 0.01343069
-0.13925287 -0.3426917 0.03249335 0.16176288 -0.052754875 -0.0027675405 0.093584076 -0.11177891
-0.06941867 0.15807205 -0.09887046 -0.062037464 -0.09899519 0.12777747 0.10147034 0.077678524
-0.085859545 0.07957794 -0.16172653 0.1635012 -0.024809275 -0.10413521 0.21386898 0.10535125
0.053307384 -0.15643188 0.4028096 -0.11931272 0.26903838 0.060655735 -0.06779354 0.06395994
0.3641685 -0.11203821 0.31558004 0.05607851 0.3282218 0.046446063 0.07315857 -0.108339556
-0.025215108 -0.09807677 0.23495467 0.04063053 0.0509913 -0.050621156 -0.12511183 -0.15946606
0.11064298 0.23812126 0.2089349 0.2793599 -0.059101645 0.12534726 -0.09015295 0.1326925
0.12148959 -0.107858546 0.073783316 0.001346308 0.08815749 -0.14311111 -0.13500434 -0.090447724
0.07705354 0.079475835 0.083214164 -0.05933041 0.12528293 0.22996588 -0.11375814 -0.088817984
0.12568028 -0.006818423 0.09720497 -0.11422697 0.09093698 -0.06662482 -0.056454565 0.16882499
0.05275234 -0.009290853 0.24045332 0.2603763 0.21597701 -0.30467707 -0.02024396 -0.073595054
0.13873635 0.100900315 0.04587217 -0.34937087 0.06600827 0.17896153 -0.15154551 -0.1060851
-0.012103665 -0.14536402 0.20137693 0.17734374 -0.06285221 0.22142048 -0.17895365 0.12564693
0.048604008 0.17097333 0.10196252 0.16803558 0.21388242 -0.1728747 -0.21112941 -0.23521684
0.1661999 0.06837594 0.11927397 -0.28995758 -0.15274175 0.039336126 -0.21929614 -0.070557006
-0.07779931 0.18780443 -0.037112184 -0.0011352772 -0.020758936 -0.3216517 0.07164449 -0.15344058
-0.106341444 -0.007224331 -0.20861217 -0.09526581 -0.17240946 -0.08522696 0.1159732 -0.07023816
0.05222084 0.12959594 -0.14950646 0.18237914 -0.123818696 0.08984198 0.0033765668 0.3622166
0.19511959 0.21636023 -0.0005219623 0.28304708 -0.1397654 0.14802592 0.21502516 -0.43698728
-0.08748903 0.17522746 -0.28206953 -0.21463692 -0.39813146 0.29123887 0.12471388 -0.022875866
-0.19844335 0.19950478 -0.10272635 0.09285012 -0.20251781 0.16232252 -0.18935677 0.22208652
-0.07367065 -0.037769925 -0.006775754 0.18858989 -0.18150762 -0.042249415 -0.12821092 -0.22311985
-0.20971477 0.1769249 -0.05925542 0.045395542 -0.1544896 0.022566395 0.1884159 0.03463843
0.13464457 -0.014300792 -0.14358412 0.15794736 -0.3049214 0.25067547 0.10085604 -0.012075749
-0.2542297 -0.20624356 0.1792271 -0.07058041 0.22545739 0.18524267 0.11242737 0.09843785
0.2466817 -0.025139628 0.16188821 0.17836897 0.12566553 -0.07009219 0.25109237 -0.08534927

stu.hidden.0.mlp.swiglu.w2.weight f4 [24, 96]
00000000: 46a7 003e 3f2a 8dbc dad6 89bc 6e74 f23d
00000010: d698 e63d 06f4 083e ca56 6e3e d2c4 0dbe
00000020: ca0d 333e 352d cfbc 3e50 223c 526a 973e
00000030: acc9 99bc d06b 043e e8b6 46be 78d5 cabd
00000040: 7e29 ba3d e4f0 21be d8fa 113e 1d8d 163e
00000050: acac ad3d 4458 973c c9ed 41bc 8960 91be
00000060: 956d 893d d441 45be a2f9 a93c a57c 0dbe
00000070: caed a1be e850 a5bc 1e0e ce3d d876 18bd
00000080: 2dd1 d13c 67ea e73c c0ab 19be 57fe 17be
00000090: a4f3 a6be d0f7 a93c e8a3 dbbd 0197 8c3d
000000a0: 54e4 8f3e 7576 82be f0a8 aabe bf7b f33d
000000b0: ea36 de3d 4677 6b3c da38 323c 456c 833e
000000c0: 4441 a63d 4dd7 a4bd d753 eebd e5c4 9ebd
000000d0: bb50 20be 3f36 82bd 5a5b d83d 6c5d cdbd
000000e0: 9bb0 483e e79f aabd 6d71 fc3e fb33 81bd
000000f0: 7dd2 483e f371 433d 48de ae3d bdeb f13d
00000100: c023 193e d3de c63d 2478 203d 2490 553e
00000110: 999a 8c3e 7da7 363d 82dc 8e3e a649 0dbe
00000120: 2ebc fabd bb50 fa3d 8ff4 c1bd 040e e9bd
00000130: f163 09bd 891f 23bd ac40 553c 5c1c de3d
00000140: c2d1 27be 3d85 503d 0e2c 27be 8654 d5bd
00000150: 2bda 0d3d c61b 4e3d 3886 ca3d f4da 54bc
00000160: 4e6d ff3c 472e 853d f8b9 32be 6ddd 93be
00000170: 9d83 cd3c 1838 c0bd 57ae 41bd adcb b33e
00000180: fd86 833b cd45 c93c 93cf 553d 026c bd3d
00000190: b60a 1e3d 54d7 ddbe a133 83bd 3303 363d
000001a0: 9fa1 22be 4632 0fbe 7955 df3d b2ec 033e
000001b0: 8bb7 debd d079 21bd 3d1d a43c e37f c6be
000001c0: 6eb4 51be edca 123e aee0 393e 589a e5bd
000001d0: 994f fbbd d6ef ba3c 309e 0dbe aada 0b3d
000001e0: 549e b03c 63ae 053d d6ae cfbe 9469 c93c
000001f0: 2590 85be ead0 38be 4a2c 88bd 5caf 073e
00000200: e16d 94be ebbf 57be a910 dcbd b33f 323e
00000210: 7e54 a93e 41c5 0a3f 6210 da3d 7802 4ebd
00000220: 4599 78bb f1c6 b63c b422 79be f52a bd3d
00000230: 5d6e 0cbe 1b43 c7bc cdd3 b5bd 67a3 22be
00000240: aa2f db3d 6d2f 553e 2fad c43c 1b3c 383e
00000250: 7ffd 8f3e f17d 45bc 9a75 333e 7cd6 81bc
00000260: e100 ab3d da1c 60bd 46f2 b9bb abed 02bd
00000270: 1cb0 e5bc b13f dfbe 8326 57bd a807 313e
00000280: 1025 92be 1fd5 8fbd b259 363d a933 873d
00000290: bad8 63be 53f8 1b3e 6f9e a43d 12b6 3fbd
000002a0: a895 b4be 229e 4f3e 6d90 78be a0b9 043e
000002b0: cbe7 96bd 5e90 e13d 1444 823d 5e9e 17be
000002c0: dc19 373e 71cd ea3c 8de1 34bc 8eb9 9f3e
000002d0: e6f6 823d cd36 90be 02c8 0abe dd24 eebd
000002e0: d833 013e f8d2 7ebe 04f8 f93a 0ab6 d23d
000002f0: cbe9 9d3d 6072 e53d d260 293e d5e7 b2be
00000300: 3489 ddbd b5a8 2fbe 7a91 d03e 4ab1 2cbe
00000310: 7388 debd 8dca 5bbe fcc4 8dbe ed79 8cbd
00000320: a84b 0f3e 414e d03c dfc5 643d c396 36be
00000330: 8408 b0bd 2c86 fa3c 1bdf c43e 8708 35be
00000340: d561 b23e 371c a7bb ef61 373e ef5f 1dbd
00000350: c355 af3e d067 07bb dff9 44be 6662 453c
00000360: fb00 51be 4d07 983d 2f58 62bd 86cd 983e
00000370: 18fb a43e fe0b 19be f467 afbc ca6e 193c
00000380: eb95 bd3c 20a5 243d 3dff afbd 3db7 0ebe
00000390: fea9 383e 1272 16be 9955 cbbd 4378 0a3e
000003a0: aae6 b23d 60ad 9f3d b561 5d3e 5a9c 6e3e
000003b0: 4ab0 b83c fd93 be3e f243 833c 2489 ec3c
000003c0: 37fb 723e bb70 8f3d 8a63 01bd 2f0b 1fbe
000003d0: 2d83 4dbe fb61 adbd 5058 8d3d 331b 97bd
000003e0: 1a85 853e b5be 00bd 5bbb 83be bc29 623e
000003f0: 44ec f3bd a2a2 a1bd 51da 23be 765c aabd
0.1256381 -0.017232059 -0.016826082 0.118386135 0.1125962 0.13374338 0.23275295 -0.13844612
0.17485729 -0.025290111 0.009906827 0.29573303 -0.018772922 0.12931752 -0.1940571 -0.09903997
0.09089945 -0.15814549 0.14255846 0.14702268 0.084802 0.018474706 -0.011836478 -0.28393963
0.06710354 -0.19263393 0.020748917 -0.1381708 -0.3162673 -0.02018018 0.100612864 -0.037222713
0.025612438 0.028310014 -0.15006924 -0.14843117 -0.32607758 0.020748049 -0.10724622 0.06864739
0.28103888 -0.25481 -0.33332014 0.11888837 0.10850318 0.014371699 0.010877812 0.2566854
0.08117917 -0.08048878 -0.11637085 -0.077523984 -0.15655796 -0.06358003 0.10564299 -0.100275844
0.1959862 -0.0833128 0.49305287 -0.063087426 0.19611545 0.047716092 0.085384905 0.11812542
0.14955044 0.09710469 0.039177075 0.20855767 0.274617 0.044593323 0.2790261 -0.13797626
-0.12242924 0.12222429 -0.09470474 -0.113796264 -0.033542577 -0.039824996 0.013015907 0.10845253
-0.1638861 0.050908316 -0.163254 -0.10416512 0.03463189 0.050319456 0.098888814 -0.012991656
0.03118005 0.06502967 -0.17453754 -0.28879872 0.025087172 -0.09385699 -0.047285404 0.3511633
0.0040138946 0.024569416 0.05219991 0.092491165 0.038584433 -0.43328345 -0.06406332 0.044436645
-0.15881966 -0.13984022 0.109049745 0.12883261 -0.10874852 -0.03942281 0.020033473 -0.38769445
-0.20478985 0.14335223 0.18152115 -0.11211079 -0.122710414 0.02281944 -0.13829875 0.03414408
0.021559872 0.03263701 -0.40563077 0.024586476 -0.26086536 -0.18048444 -0.066490725 0.13250488
-0.2899008 -0.21069305 -0.10745365 0.17407112 0.33072275 0.54207236 0.10647656 -0.050295323
-0.0037933153 0.02231166 -0.24329644 0.09236709 -0.13713975 -0.02432399 -0.088782884 -0.15882646
0.107024506 0.20818873 0.024008362 0.17991678 0.2812309 -0.012053953 0.1752533 -0.015849344
0.08349777 -0.054715015 -0.005674633 -0.03196494 -0.028038077 -0.4360328 -0.052526962 0.17288077
-0.285439 -0.070230715 0.044519134 0.0660165 -0.22250643 0.15231447 0.08038031 -0.046804495
-0.3527043 0.20275167 -0.24273844 0.12961435 -0.0736843 0.11013864 0.06360641 -0.14806506
0.17880958 0.028662415 -0.011040104 0.31196254 0.063947484 -0.2816681 -0.1355286 -0.11628125
0.12617433 -0.24885166 0.0019071107 0.102886274 0.07710608 0.11203456 0.1654084 -0.349425
-0.10817185 -0.171542 0.4073599 -0.16864505 -0.108658694 -0.21463986 -0.2768935 -0.06859193
0.13993704 0.02542794 0.055852767 -0.17830949 -0.08595374 0.030581556 0.38451466 -0.17679034
0.34840265 -0.005099799 0.17908452 -0.038421568 0.34245118 -0.0020661242 -0.19235943 0.012047386
-0.2041053 0.074232675 -0.05525988 0.29844302 0.3222282 -0.14945981 -0.021411873 0.009364793
0.023142776 0.040196538 -0.08593605 -0.13937087 0.18033597 -0.14691952 -0.09928436 0.13522439
0.08735402 0.077967405 0.21619304 0.23301831 0.022544999 0.3722228 0.01602361 0.028873987
0.23728643 0.070039235 -0.03158907 -0.1553161 -0.20069571 -0.08465954 0.0690161 -0.07378235
0.2607811 -0.031431872 -0.25728878 0.22086233 -0.119102985 -0.07892348 -0.1600125 -0.08318417

stu.hidden.1.rn_1.weight f4 [24]
00000000: f9c5 373f 6e4a 973e 00ce d33e dfba f63e
00000010: 5df5 813e 41b4 173f 54cf 033f 6ac5 c03e
00000020: a984 b03e 7095 373f f104 173f dc0b ed3e
00000030: 89da 2c3f 3eaf b73e c654 c23e d3d9 2a3f
00000040: a858 6f3e 30a8 e73e 86c4 293f 91c5 533f
00000050: e1c5 f53e a793 d03e 7784 073f 80f3 123f
0.7178646 0.29548973 0.41368103 0.48189446 0.2538251 0.5925942 0.5148823 0.37650615
0.34476212 0.717124 0.58991915 0.4629811 0.6752096 0.35875887 0.37955302 0.66738623
0.23373663 0.45245504 0.66315496 0.8272334 0.48002532 0.4073765 0.529365 0.574028
