checkpoints/sssm-HalfCheetah-v1-model_step-616-2024-11-19-13-01-52.pt (torch, 239754 bytes, 26 tensors)

spectral_ssm.hidden.0.rn_1.weight f4 [32]
1.0047832 0.9066231 1.0128727 1.011082 0.98607904 0.98377943 0.92567855 0.9313126
0.97585 0.9228812 0.90860844 0.9625151 0.91560835 0.9453439 0.9324244 0.985155
0.9476506 1.0094509 0.9706794 1.0255921 0.90382195 1.0152172 0.9947088 0.92470664
0.8790166 0.9793415 1.0152059 0.95746624 0.93235785 0.9632693 0.9771685 1.0381913
00000000: bc9c 803f 7418 683f d0a5 813f 236b 813f
00000010: ad6f 7c3f f8d8 7b3f 45f9 6c3f 816a 6e3f
00000020: 4ed1 793f f141 6c3f 909a 683f 6467 763f
00000030: 4f65 6a3f 0f02 723f 5eb3 6e3f 1e33 7c3f
00000040: 3b99 723f b035 813f 727e 783f 9a46 833f
00000050: e060 673f a3f2 813f 3ca5 7e3f 93b9 6c3f
00000060: 3b07 613f 20b6 7a3f 44f2 813f 821c 753f
00000070: 01af 6e3f d198 763f b727 7a3f 74e3 843f

spectral_ssm.hidden.0.rn_2.weight f4 [32]
0.9657344 1.000169 0.9938085 0.91943145 0.97910374 0.98518455 1.040148 0.980027
0.98569846 0.99873525 0.99467015 1.0138298 1.041623 1.0078502 1.0523384 0.98998106
0.96147835 0.9854872 1.034825 0.96674144 0.9410372 0.9505602 1.0023353 1.028493
0.9814818 1.001224 0.9811495 1.0098369 1.002551 1.0580454 1.0094613 1.0095919
00000000: 5f3a 773f 8a05 803f 3c6a 7e3f dc5f 6b3f
00000010: 8ba6 7a3f 0e35 7c3f 9223 853f 0de3 7a3f
00000020: bc56 7c3f 1dad 7f3f b4a2 7e3f 2dc5 813f
00000030: e753 853f 3c01 813f 06b3 863f 666f 7d3f
00000040: 7223 763f e448 7c3f 2575 843f 5e7c 773f
00000050: d0e7 703f ea57 733f 864c 803f a9a5 833f
00000060: 6442 7b3f 1c28 803f 9d2c 7b3f 5642 813f
00000070: 9753 803f 086e 873f 0736 813f 4f3a 813f

spectral_ssm.hidden.0.stu.M_inputs f4 [32, 32]
-0.09459317 -0.051282708 0.1478318 -0.07227193 -0.15208063 0.0072750887 0.03388546 -0.17899428
0.20140852 -0.19962277 0.1065892 -0.1687917 0.35029104 0.07610497 -0.3356226 -0.05542074
0.11218151 -0.1827923 -0.06558883 -0.17763881 0.19807282 0.341176 -0.01973704 0.15055045
0.18796794 0.083854385 -0.16567919 -0.022973176 0.077881396 -0.16760999 -0.2660402 -0.14729042
0.031044496 -0.029689167 0.110396825 -0.07783655 0.03658663 0.0019957132 0.11964514 -0.22752574
-0.05562082 0.1908162 -0.26453623 -0.1639257 0.13926494 -0.008519284 -0.116676904 -0.11362456
0.11439041 -0.04490554 -0.15020844 0.07435727 -0.016129507 -0.082321465 0.14166896 -0.0034989908
-0.072865434 -0.008068941 -0.18516168 -0.0062851473 -0.14445785 0.0943587 -0.019952852 0.014595257
0.048356686 -0.1625385 -0.16665396 -0.09104765 0.064673126 0.08460957 0.16618457 -0.07499467
-0.17677812 0.0034773676 -0.16238154 -0.066074 0.065017395 -0.31113476 -0.0274835 -0.041452475
-0.111205555 -0.021432575 -0.002421847 0.21357808 0.043966014 0.15828377 0.04989459 0.030645145
-0.076398596 0.08515147 -0.36476162 0.17287593 -0.103371605 0.03383379 0.09318235 0.12876493
0.15223664 0.023347367 -0.18173541 -0.42736235 -0.32465503 0.033218034 0.007739533 -0.060901847
0.40251914 -0.17378934 -0.16560926 0.23060575 -0.031015709 0.25088078 -0.02173714 0.12119382
0.16716707 -0.033018745 0.29265094 -0.325996 0.029247124 0.0006766567 -0.2607532 -0.020732706
-0.042634502 0.091483474 -0.115181066 -0.03557122 -0.17524356 -0.14225557 0.019453835 0.053704873
0.11731783 -0.27553657 -0.27993557 -0.19754514 0.26485494 0.13240854 0.17106496 -0.056271862
0.25136462 -0.07052151 0.16880096 0.024149597 0.16967069 -0.017803546 -0.11937504 0.12726282
0.03565243 0.01004838 -0.16177104 -0.094992466 -0.1977053 -0.09428469 0.32721582 0.024083069
-0.17199093 0.21085306 -0.1086848 -0.13366745 -0.022842353 0.005045141 -0.08810877 -0.18365958
0.103342816 -0.17577595 0.13340363 -0.087229595 0.06365822 -0.23080026 -0.061241414 -0.085447714
-0.24297972 0.010588988 0.10377926 -0.053902224 -0.054478284 -0.082068115 0.16508554 -0.109046206
-0.11175537 0.31077713 0.17480378 0.08480261 -0.016856108 -0.08584923 0.06395032 0.08443567
-0.01836146 -0.16532527 0.01663662 -0.16018403 0.0387528 -0.05094758 0.0045664017 0.30123135
0.029841525 -0.010814676 0.19279963 -0.03278416 -0.11632781 0.15731068 -0.061235663 0.25552505
0.34917164 -0.13683693 -0.19747369 0.40346512 0.10591635 -0.05065779 0.0066803987 -0.0016046796
-0.22036079 -0.3927175 -0.00035299067 0.18515329 0.16975091 -0.06845241 -0.078890875 -0.030697893
-0.1317105 0.18810312 0.13301788 -0.08050276 -0.031245792 0.023625428 -0.071048744 -0.16223069
0.0007199063 0.14994134 0.13410155 0.315736 -0.17553295 -0.15420535 -0.21101409 0.13780671
-0.062118214 -0.0026136842 0.089096226 0.28704444 -0.12559779 0.17891395 0.0782531 -0.057409745
0.016941644 -0.08254816 -0.04842097 0.008323907 -0.095244825 -0.01606734 -0.018829321 0.051543023
0.24690872 -0.049877357 0.075167574 0.13375182 0.112619996 0.18188123 0.16773383 0.2465102
00000000: 10ba c1bd d10d 52bd 3861 173e 4e03 94bd
00000010: 06bb 1bbe de63 ee3b 7bcb 0a3d 474a 37be
00000020: 093e 4e3e e969 4cbe 704b da3d bbd7 2cbe
00000030: 5959 b33e ecdc 9b3d bad6 abbe dc00 63bd
00000040: 6bbf e53d e82d 3bbe 7053 86bd f3e6 35be
00000050: 9ad3 4a3e 9fae ae3e 93af a1bc e629 1a3e
00000060: ab7a 403e d9bb ab3d cea7 29be 3e32 bcbc
00000070: 4880 9f3d f4a1 2bbe 6c36 88be 4dd3 16be
00000080: 0751 fe3c b236 f3bc bb17 e23d c568 9fbd
00000090: dddb 153d 83ca 023b 8308 f53d 82fc 68be
000000a0: a8d2 63bd 5265 433e 4b71 87be 24dc 27be
000000b0: 789b 0e3e 7894 0bbc 4df4 eebd feb3 e8bd
000000c0: 8545 ea3d dfee 37bd 3ed0 19be a048 983d
000000d0: 0722 84bc 2898 a8bd ab11 113e 534f 65bb
000000e0: 793a 95bd 9733 04bc 069b 3dbe a3f3 cdbb
000000f0: c2ec 13be 223f c13d 2a74 a3bc f220 6f3c
00000100: a911 463d 7e70 26be 56a7 2abe 3177 babd
00000110: 5873 843d c847 ad3d 4a2c 2a3e ce96 99bd
00000120: 5305 35be 8ce4 633b 5947 26be ce51 87bd
00000130: d727 853d 0e4d 9fbe 1425 e1bc 12ca 29bd
00000140: bdbf e3bd 5e93 afbc dab7 1ebb 36b4 5a3e
00000150: b515 343d 2415 223e 455e 4c3d 870b fb3c
00000160: de76 9cbd e563 ae3d 09c2 babe 6306 313e
00000170: 7eb4 d3bd 4d95 0a3d 63d6 be3d f4da 033e
00000180: ece3 1b3e fa42 bf3c d918 3abe 3dcf dabe
00000190: 2f39 a6be a20f 083d e99b fd3b 3774 79bd
000001a0: fd16 ce3e d5f5 31be 7995 29be ea23 6c3e
000001b0: a814 febc 7273 803e 1612 b2bc 7734 f83d
000001c0: d82d 2b3e aa3e 07bd 58d6 953e f3e8 a6be
000001d0: aa97 ef3c aa61 313a 7281 85be a3d7 a9bc
000001e0: 84a1 2ebd b05b bb3d 0de4 ebbd 21b3 11bd
000001f0: 0c73 33be 72ab 11be a65d 9f3c a4f9 5b3d
00000200: 5544 f03d 2113 8dbe b753 8fbe 4649 4abe
00000210: 119b 873e 1b96 073e a72b 2f3e 537d 66bd
00000220: ddb2 803e 956d 90bd 29da 2c3e 60d5 c53c
00000230: 27be 2d3e bed8 91bc e77a f4bd 2f51 023e
00000240: 4808 123d f6a1 243c 4fa7 25be 698b c2bd
00000250: 4273 4abe 5518 c1bd d588 a73e db49 c53c
00000260: 641e 30be dde9 573e 2396 debd 1fe0 08be
00000270: e31f bbbc b651 a53b 5f72 b4bd 4211 3cbe
00000280: 66a5 d33d 9cfe 33be f69a 083e 6ea5 b2bd
00000290: 3e5f 823d e756 6cbe 47d8 7abd 36ff aebd
000002a0: adcf 78be 6f7d 2d3c 388a d43d 94c8 5cbd
000002b0: 9f24 5fbd 5413 a8bd 2f0c 293e 9e53 dfbd
000002c0: 00e0 e4bd 2e1e 9f3e c3ff 323e feac ad3d
000002d0: d215 8abc b9d1 afbd 63f8 823d 9cec ac3d
000002e0: c66a 96bc 074b 29be 8549 883c 4807 24be
000002f0: 42bb 1e3d 69ae 50bd c1a1 953b ff3a 9a3e
00000300: 3776 f43c 0a30 31bc 446d 453e af48 06bd
00000310: 463d eebd 0d16 213e 3fd2 7abd 2ed4 823e
00000320: a0c6 b23e fb1e 0cbe 8b36 4abe fb92 ce3e
00000330: acea d83d 8b7e 4fbd 3fe7 da3b 1d54 d2ba
00000340: 42a6 61be 4512 c9be 9b11 b9b9 d398 3d3e
00000350: 2fd3 2d3e c730 8cbd 8a91 a1bd 267a fbbc
00000360: 1edf 06be 1b9e 403e d735 083e a2de a4bd
00000370: 2df7 ffbc 1d8a c13c 0182 91bd cd1f 26be
00000380: 18b8 3c3a 398a 193e eb51 093e 26a8 a13e
00000390: e9be 33be 02e8 1dbe 1414 58be 341d 0d3e
000003a0: ab6f 7ebd 584a 2bbb 1578 b63d 7df7 923e
000003b0: b59c 00be 3835 373e 2943 a03d 7b26 6bbd
000003c0: 34c9 8a3c 020f a9bd 1155 46bd ff60 083c
000003d0: b80f c3bd a79f 83bc f33f 9abc c71e 533d
000003e0: a4d5 7c3e 334c 4cbd 75f1 993d 3df6 083e
000003f0: 50a5 e63d 133f 3a3e 6bc2 2b3e 2b6d 7c3e

spectral_ssm.hidden.0.stu.M_filters f4 [16, 32]
-0.065890394 0.10138473 0.112779014 -0.13200352 0.20043051 -0.14142874 0.2884137 -0.11566521
0.11082791 -0.13931683 0.082413144 -0.25088987 0.09365172 0.19197544 0.11181709 0.013736888
0.26082537 -0.055709932 0.044461187 -0.011796904 0.0020297063 0.17923856 0.18107717 -0.1394295
0.3051533 0.24038363 0.18565539 0.13061903 -0.025458466 0.30576995 -0.23559797 -0.07960927
0.112274885 0.06926629 0.04735408 -0.13819207 0.4841514 -0.023579048 0.13802122 0.0979438
0.083485104 0.045958374 0.11547463 0.08484224 0.024457823 0.30475143 0.12497885 0.06347215
0.2816042 -0.10191911 -0.19749708 -0.1326718 0.062158428 -0.35086632 0.21287547 0.13840324
0.112192065 0.29345748 -0.14893726 -0.3049506 0.11712177 0.06435453 0.17180006 0.07196729
0.14785941 -0.0069432794 -0.2644553 0.02643383 0.5331151 0.15504512 -0.30207303 -0.15590699
-0.23869109 -0.15135197 0.31872723 -0.1991495 -0.17615503 0.22335608 0.23158254 -0.0143448515
-0.03543201 -0.2634048 -0.099638976 -0.15112484 0.19649473 -0.13808712 -0.20637447 0.17838208
-0.23493394 0.1969987 0.2610479 0.054169837 -0.21387468 0.04099785 -0.03850316 0.20109826
0.2211366 -0.020344054 0.34483 -0.1775487 -0.07111013 -0.11136598 0.07576107 0.02985692
-0.057690132 0.114104256 0.3529927 -0.016105711 0.2599346 -0.06357816 -0.17532393 -0.18908957
0.44079292 0.07350478 -0.12961367 -0.012439473 -0.2754768 -0.085271925 -0.13223508 -0.28999758
0.1274208 -0.25038415 -0.38547575 0.050340902 0.014389515 0.3548741 -0.1454474 0.35104406
0.09877903 -0.065159716 -0.17137673 0.06652506 0.16704881 -0.050152082 -0.10823987 0.18660252
-0.041689437 0.3222978 0.29715744 0.19508748 0.061695155 -0.27441412 0.23027076 -0.019966377
-0.14269732 -0.35274214 0.2821113 0.08876436 -0.033182837 -0.21905304 -0.027697373 0.113932
-0.016924635 -0.15529908 -0.47788197 0.20324565 -0.0020715948 0.09712361 0.11563 -0.111725986
0.334751 -0.06813109 0.040688846 -0.22607622 0.07150105 0.004185722 -0.12853564 0.039317034
-0.18390054 0.01380021 0.2270675 0.04418248 0.1915598 -0.04550542 -0.039167907 -0.0023479105
-0.06753486 -0.21582079 0.34323785 0.15175493 -0.04908718 -0.31037274 -0.02708307 0.1103662
0.040834706 0.18782376 0.018484037 0.13172042 -0.09527546 -0.008460552 0.1398019 -0.22505581
-0.12749185 -0.010505058 0.023112407 0.45188594 -0.31005526 0.06800051 0.1740925 0.081322886
0.12470707 0.20161097 0.1817955 0.29721954 -0.11079642 -0.19489534 0.17493184 -0.023191188
-0.07654615 0.20772284 0.13763931 -0.43509609 0.18368225 0.026124323 -0.31949666 0.12734292
0.21020429 0.040773194 -0.16883622 0.26376814 0.10420676 0.25646925 0.03480245 0.06071466
0.18739681 0.12989531 -0.07484207 0.049894262 -0.17024241 -0.21456346 0.040462196 0.2803469
0.0037501964 -0.053009678 0.45336264 -0.2565782 0.34850544 0.07473245 -0.19993238 0.21427709
0.38802987 -0.076379456 0.14001758 -0.24324057 -0.088328205 -0.08952292 -0.17460898 0.46866348
0.31640765 -0.053269587 -0.2228068 0.096599825 -0.1705613 0.13317217 -0.017156597 -0.055222526
00000000: 8bf1 86bd cca2 cf3d aff8 e63d ee2b 07be
00000010: a83d 4d3e b2d2 10be f6aa 933e e2e1 ecbd
00000020: bef9 e23d 12a9 0ebe 39c8 a83d a374 80be
00000030: 79cc bf3d 3695 443e 5c00 e53d af10 613c
00000040: e78a 853e 1930 64bd ef1c 363d cd47 41bc
00000050: d204 053b 508a 373e 4b6c 393e 9bc6 0ebe
00000060: 0e3d 9c3e 2027 763e 721c 3e3e ffc0 053e
00000070: 468e d0bc e18d 9c3e 9840 71be 2f0a a3bd
00000080: 60f0 e53d 7cdb 8d3d 5af6 413d 3982 0dbe
00000090: b1e2 f73e d928 c1bc 6f55 0d3e c296 c83d
000000a0: 3dfa aa3d d93e 3c3d f67d ec3d c5c1 ad3d
000000b0: c65b c83c 6108 9c3e e9f4 ff3d b0fd 813d
000000c0: 6d2e 903e f7ba d0bd ad3c 4abe 1edb 07be
000000d0: d699 7e3d c0a4 b3be 07fc 593e 94b9 0d3e
000000e0: f4c4 e53d 0f40 963e 0283 18be 7c22 9cbe
000000f0: 8add ef3d 4fcc 833d 5bec 2f3e 9663 933d
00000100: 7568 173e 7384 e3bb af66 87be c28b d83c
00000110: 3b7a 083f 26c4 1e3e 51a9 9abe 15a6 1fbe
00000120: 706b 74be 03fc 1abe 3730 a33e d9ed 4bbe
00000130: fc61 34be 75b7 643e f923 6d3e ab06 6bbc
00000140: 2821 11bd fedc 86be 850f ccbd 78c0 1abe
00000150: ea35 493e b666 0dbe d453 53be cba9 363e
00000160: 8692 70be 07ba 493e 12a8 853e 31e1 5d3d
00000170: f701 5bbe 5ded 273d 7db5 1dbd b4ec 4d3e
00000180: a271 623e 93a8 a6bc 8f8d b03e 54cf 35be
00000190: 30a2 91bd d913 e4bd 9f28 9b3d 8096 f43c
000001a0: 7d4c 6cbd 7eaf e93d 76bb b43e 20f0 83bc
000001b0: 2616 853e 4435 82bd 1e88 33be b2a0 41be
000001c0: 9caf e13e ad89 963d 72b9 04be eece 4bbc
000001d0: 4c0b 8dbe 0ca3 aebd a268 07be 907a 94be
000001e0: 997a 023e 5a32 80be 145d c5be 4332 4e3d
000001f0: 00c2 6b3c 0fb2 b53e 2af0 14be 0cbc b33e
00000200: a94c ca3d 7572 85bd 627d 2fbe 4a3e 883d
00000210: d80e 2b3e 456c 4dbd ddac ddbd bb14 3f3e
00000220: 8bc2 2abd 3804 a53e 0525 983e 03c5 473e
00000230: 0fb4 7c3d 0280 8cbe 19cc 6b3e 8790 a3bc
00000240: 3f1f 12be 9e9a b4be e470 903e 17ca b53d
00000250: baea 07bd 714f 60be 9ae5 e2bc 2e55 e93d
00000260: 88a5 8abc b906 1fbe f2ac f4be a11f 503e
00000270: 98c3 07bb bee8 c63d 6ccf ec3d 98d0 e4bd
00000280: 7c64 ab3e 5088 8bbd 59a9 263d 8680 67be
00000290: 246f 923d 6228 893b d99e 03be e60a 213d
000002a0: 6c50 3cbe 471a 623c 6284 683e b0f8 343d
000002b0: 4128 443e e463 3abd 876e 20bd 67df 19bb
000002c0: b74f 8abd 2000 5dbe dfbc af3e a565 1b3e
000002d0: a40f 49bd 2de9 9ebe 50dd ddbc ad07 e23d
000002e0: 4b42 273d df54 403e d66b 973c b8e1 063e
000002f0: c81f c3bd 219e 0abc 3b28 0f3e 0875 66be
00000300: 398d 02be 681d 2cbc 3b56 bd3c 985d e73e
00000310: 90bf 9ebe da43 8b3d 4e45 323e 9d8c a63d
00000320: 6c66 ff3d 1b73 4e3e 9928 3a3e 292d 983e
00000330: 3ce9 e2bd a592 47be 5521 333e 72fb bdbc
00000340: 3ac4 9cbd 4cb5 543e 52f1 0c3e eac4 debe
00000350: 3317 3c3e ad02 d63c 1195 a3be 2f66 023e
00000360: cb3f 573e cb01 273d 67e3 2cbe 9e0c 873e
00000370: 5b6a d53d f04f 833e 048d 0e3d efaf 783d
00000380: f3e4 3f3e 4703 053e cd46 99bd ed5d 4c3d
00000390: 0754 2ebe 86b6 5bbe b0bb 253d a189 8f3e
000003a0: dbc5 753b ad20 59bd 261f e83e 385e 83be
000003b0: 4e6f b23e 540d 993d 13bb 4cbe 746b 5b3e
000003c0: daab c63e d56c 9cbd c560 0f3e 0e14 79be
000003d0: 6be5 b4bd cb57 b7bd b2cc 32be a9f4 ef3e
000003e0: 2f00 a23e 3631 5abd 7727 64be 21d6 c53d
000003f0: 9fa7 2ebe 495e 083e fe8b 8cbc 0431 62bd

spectral_ssm.hidden.0.mlp.fc_1.weight f4 [256, 32]
0.0039787693 0.09032959 -0.00923967 -0.012427797 -0.043718338 0.12091273 0.01192045 -0.043424506
-0.064727604 -0.05636639 -0.03217424 0.012054638 -0.0135712875 0.0074606733 0.06969197 -0.024935082
-0.022919068 0.034444485 0.058285575 -0.057986803 0.116214916 -0.011452218 -0.014143689 -0.061534863
0.11871112 -0.033653088 0.06958426 -0.0071760877 -0.06678547 -0.013908152 -0.0053698784 -0.060734257
-0.0421989 0.05388731 0.0016079817 -0.060233478 0.11460779 -0.0014716274 -0.0233877 -0.016789138
-0.05184982 -0.08967495 -0.104740106 0.05759012 0.07072934 0.09876707 0.06317344 -0.11229775
-0.060893215 -0.023055749 -0.023955131 0.027774896 -0.036000665 0.02104914 0.025174616 -0.011778796
0.041169535 -0.1697353 -0.11634476 0.0024986013 0.071012974 0.033776868 -0.0012714206 -0.117923684
0.047663 -0.052662477 -0.053575367 -0.07171262 0.045382775 -0.07265779 0.011031339 -0.022165721
-0.06624546 -0.0059749475 -0.020778032 0.05354558 -0.015108521 0.029617203 -0.061929792 -0.0638911
0.061647717 -0.0012887651 0.024681194 -0.045299564 0.05124319 -0.043905742 0.084970705 0.038117304
-0.001331591 0.04194924 -0.004557145 -0.003365118 0.077871 -0.04876509 0.02692759 0.09595239
-0.0070438907 -0.044604257 -0.01933298 0.016730692 0.06038094 0.043083273 0.08343916 -0.11473483
-0.031826742 0.08030649 0.031174995 -0.053109605 -0.04376792 -0.015667189 -0.13428375 -0.044997785
0.0038169348 0.026909497 0.007195293 0.010243335 -0.012662428 0.030682169 -0.0051607774 0.10007681
0.02510843 -0.060924657 -0.03753013 0.0145577565 0.063449435 0.06535518 -0.021105062 -0.0410388
0.14012437 -0.025340961 0.11108766 -0.06295005 0.049757987 -0.0072632455 -0.019749157 -0.034621328
0.030855937 -0.011392201 -0.070790716 -0.0038388867 0.024365755 0.022401508 -0.023277082 -0.010508096
-0.108739756 -0.028093774 0.118715174 0.109192386 -0.0039376267 -0.03757105 0.003648825 0.09609334
-0.008180818 -0.027105182 -0.026606392 0.03262985 -0.037811138 0.08666414 -0.056022678 0.06425336
0.032950673 -0.034501687 0.028372176 -0.11654743 0.110556886 0.0914281 -0.013589105 -0.17064941
0.07775292 0.08409167 -0.074700445 0.014396421 -0.00849841 0.039908905 0.100437224 -0.041360382
0.062427025 0.07889503 -0.042156402 -0.028180711 -0.041355144 -0.07416241 -0.06415982 0.1056885
0.07723481 0.004992766 0.10572318 0.19913399 0.052304547 0.10226309 -0.09947431 -0.16639872
0.010449666 0.029153703 -0.011055845 -0.14174134 0.07052432 -0.08059656 0.05438931 -0.0626158
-0.07084753 0.07853622 -0.0046334593 0.05024883 0.037450265 -0.0268608 -0.09049268 0.00649961
-0.0025969793 -0.038498703 -0.013270901 0.026205126 0.015717644 -0.0060896813 0.12993895 0.1821146
0.107122466 0.018985337 -0.022301633 0.0744882 0.019420208 0.11925046 -0.027051218 0.0798504
-0.010220117 0.08039361 -0.025233988 0.081389435 -0.086111225 -0.104967125 -0.034233768 0.020403976
-0.008964432 -0.0826664 0.08017363 0.016542686 0.050074507 0.040724937 0.063720085 0.06168796
0.11731908 -0.009770328 0.109805875 -0.05105184 0.0017279556 0.052633222 0.012846308 -0.110261634
0.17206566 0.08898606 -0.047878485 -0.005030481 0.0945485 -0.055383533 0.032533996 0.04501676
00000000: 5660 823b b8fe b83d fc61 17bc f59d 4bbc
00000010: 0012 33bd 18a1 f73d fe4d 433c e5dd 31bd
00000020: e88f 84bd 72e0 66bd 23c9 03bd d180 453c
00000030: 1b5a 5ebc aa78 f43b aaba 8e3d a844 ccbc
00000040: c5c0 bbbc a915 0d3d dbbc 6e3d 9283 6dbd
00000050: 1602 ee3d 15a2 3bbc eeba 67bc fb0b 7cbd
00000060: d11e f33d d2d7 09bd 3182 8e3d 6325 ebbb
00000070: d2c6 88bd 04df 63bc cef5 afbb 7cc4 78bd
00000080: c1d8 2cbd f1b8 5c3d eac2 d23a 61b7 76bd
00000090: 7db7 ea3d 9fe3 c0ba 9097 bfbc 6089 89bc
000000a0: 7a60 54bd 80a7 b7bd fb81 d6bd 9ee3 6b3d
000000b0: 8bda 903d 6446 ca3d 1461 813d 5dfc e5bd
000000c0: 2a6b 79bd 69df bcbc 8d3d c4bc 2e88 e33c
000000d0: 6f75 13bd 3f6f ac3c ff3a ce3c dafb 40bc
000000e0: 63a1 283d 17cf 2dbe 2946 eebd 93bf 233b
000000f0: 406f 913d 9d59 0a3d cca5 a6ba f981 f1bd
00000100: 473a 433d 9cb4 57bd d871 5bbd 11de 92bd
00000110: 4ae3 393d 9bcd 94bd cabc 343c e394 b5bc
00000120: b3ab 87bd 7ec9 c3bb b136 aabc 9c52 5b3d
00000130: bb89 77bc c79f f23c 18aa 7dbd 56d9 82bd
00000140: 5182 7c3d c8eb a8ba 3730 ca3c 098c 39bd
00000150: 61e4 513d 82d6 33bd 1f05 ae3d e420 1c3d
00000160: c888 aeba f7d2 2b3d 1a54 95bb 5089 5cbb
00000170: d57a 9f3d e7bd 47bd 4097 dc3c b082 c43d
00000180: 70d0 e6bb f4b2 36bd 3360 9ebc ce0e 893c
00000190: 0152 773d 1678 303d 26e2 aa3d 18fa eabd
000001a0: c25c 02bd bb77 a43d b462 ff3c 7589 59bd
000001b0: fe45 33bd 7a58 80bc ae81 09be 994f 38bd
000001c0: 8a25 7a3b 4e71 dc3c 7ec6 eb3b a9d3 273c
000001d0: 1376 4fbc 2c59 fb3c bd1b a9bb 12f5 cc3d
000001e0: 32b0 cd3c 228c 79bd 32b9 19bd a883 6e3c
000001f0: c7f1 813d f0d8 853d 86e4 acbc 4d18 28bd
00000200: c37c 0f3e d997 cfbc ed81 e33d f5eb 80bd
00000210: 08cf 4b3d 8500 eebb fcc8 a1bc 18cf 0dbd
00000220: 97c5 fc3c 5ba6 3abc b9fa 90bd d595 7bbb
00000230: b19a c73c 5e83 b73c 94af bebc 262a 2cbc
00000240: f3b2 debd ea24 e6bc f120 f33d 42a0 df3d
00000250: 3507 81bb 1ae4 19bd 2021 6f3b 96cc c43d
00000260: d608 06bc b00b debc a6f5 d9bc e1a6 053d
00000270: dadf 1abd f87c b13d 0978 65bd 4497 833d
00000280: 49f7 063d a451 0dbd c46c e83c 6bb0 eebd
00000290: a66b e23d a83e bb3d d6a4 5ebc b8be 2ebe
000002a0: ec3c 9f3d 4138 ac3d 8cfc 98bd f7de 6b3c
000002b0: ea3c 0bbc 8577 233d 08b2 cd3d 8169 29bd
000002c0: 7bb3 7f3d b893 a13d 31ac 2cbd 3cdb e6bc
000002d0: 0364 29bd 76e2 97bd 3966 83bd 3673 d83d
000002e0: 492d 9e3d 5b9a a33b 6585 d83d c8e9 4b3e
000002f0: 4b3d 563d 506f d13d 30b9 cbbd 6d64 2abe
00000300: 1335 2b3c bfd3 ee3c 9323 35bc a424 11be
00000310: 0e6f 903d cf0f a5bd 53c7 5e3d b63c 80bd
00000320: 8318 91bd 99d7 a03d 46d4 97bb b8d1 4d3d
00000330: 7365 193d 2e0b dcbc 3a54 b9bd aefa d43b
00000340: 1532 2abb d1b0 1dbd 316e 59bc 22ac d63c
00000350: 4ac2 803c f38b c7bb b70e 053e 407c 3a3e
00000360: 0663 db3d 2387 9b3c eab1 b6bc 458d 983d
00000370: 2117 9f3c 9639 f43d 849a ddbc 9b88 a33d
00000380: 4772 27bc 68a5 a43d 82b7 cebc 81af a63d
00000390: 155b b0bd 01f9 d6bd b538 0cbd 3d26 a73c
000003a0: 8edf 12bc 004d a9bd 1232 a43d 8784 873c
000003b0: ed1a 4d3d 31cf 263d ad7f 823d 84ac 7c3d
000003c0: fc44 f03d ba13 20bc e7e1 e03d bc1b 51bd
000003d0: 927c e23a ef95 573d 5279 523c dad0 e1bd
000003e0: fb31 303e 533e b63d 3b1c 44bd bcd6 a4bb
000003f0: a5a2 c13d d8d9 62bd 5e42 053d 7e63 383d

spectral_ssm.hidden.0.mlp.fc_2.weight f4 [32, 128]
-0.018074885 0.038441487 0.008806615 0.00431819 -0.024919648 0.095242254 0.0014648131 -0.007829625
-0.0022833024 -0.019326879 -0.046693902 -0.09851343 -0.014460224 -0.015134155 0.016392635 0.011601858
-0.0067401794 -0.017510701 -0.013859327 -0.05301748 0.07847027 -0.022009743 0.039822217 0.0343577
-0.01516385 -0.048005525 0.03150745 0.019689156 0.028993156 0.028238209 0.0025545256 -0.057988748
-0.042418547 -0.06321721 -0.003209889 0.08540647 -0.036312155 0.07217186 0.06648006 -0.03827922
-0.024797013 0.013166635 -0.006357629 0.050855756 -0.014882809 0.005119168 0.041851036 -0.032822832
0.059349407 0.03723474 0.008238475 -0.050787747 0.07490002 0.026758373 0.031387467 -0.040288694
0.035270646 -0.014821499 0.01151385 -0.06300533 0.039521053 0.009799835 0.008613238 -0.021598402
0.0073006395 0.04251508 -0.0025385732 0.010120858 -0.005945045 0.003152534 0.00685989 0.019369775
-0.053827386 0.021322966 -0.07040769 0.005824954 -0.027031315 -0.0065158154 0.019900234 0.02216878
0.071299724 0.021716338 -0.06914826 -0.047360215 -0.044801272 0.001613798 -0.005973603 0.0951455
0.04158569 0.013487892 0.010390801 -0.084887855 -0.074531004 -0.012655923 0.05041013 0.075025745
-0.007731223 -0.03499009 0.04955722 0.02459261 0.013872436 0.038924057 -0.049066998 -0.008662098
-0.0076938933 0.05377766 0.055578075 -0.0403738 0.0010776852 0.035518806 -0.0021740012 0.055793595
0.037387658 0.05454924 0.034452036 0.051807553 -0.033129163 0.0017411739 -0.031034471 -0.012481394
-0.040582843 -0.027468845 0.064317144 -0.032556515 0.04000189 0.06997857 0.013329498 -0.004587676
0.064319454 0.038221374 -0.011395221 0.02409958 0.03303038 -0.037376463 0.022430856 0.029457768
-0.059403427 -0.03650864 0.03249979 0.042531114 0.022431336 -0.020896621 -0.018306585 -0.0017444183
0.03084895 0.0402268 -0.0052786362 0.03681861 0.004692007 -0.05947267 -0.015412687 0.01577326
-0.010454173 0.03531595 -0.037960514 -0.035501275 -0.004343852 0.0038783562 -0.01590533 0.031560875
0.0074829813 0.055547185 -0.009780482 -0.014460362 0.013509238 -0.004873755 -0.0038106353 0.044055585
-0.017800972 0.055489454 -0.10554685 -0.07266547 -0.05977845 -0.047338117 0.027706504 -0.01772785
-0.061197918 0.005335491 -0.047838856 0.06558588 -0.009725992 0.03115586 0.008565314 0.02218654
-0.026580807 0.049487647 -0.007797523 0.05083679 -0.043590557 0.008212937 0.023960127 0.016754465
-0.0028540553 0.0023936676 -0.021897735 -0.041194033 -0.025846235 0.023365691 -0.023995182 -0.043183427
-0.017857973 0.0363949 0.08681266 0.017597541 0.053766426 0.050314687 -0.037291083 -0.040967736
-0.015742714 -0.020702118 0.029150983 -0.0061097154 0.0019261532 -0.027101217 0.0019707915 -0.018153738
0.0023259956 -0.020373035 -0.008123287 -0.048930842 0.042699628 0.020619472 -0.07950512 0.0010046032
-0.01382652 0.022655101 0.015771303 0.049909595 -0.021755079 -0.0362401 0.021187108 -0.014438728
0.017395554 0.027479736 0.037256222 0.01769716 -0.00118353 -0.016155338 0.017244563 0.019020174
0.050592203 -0.06742242 -0.0430135 -0.054171745 -0.023528805 0.00095846853 0.002676346 -0.0014864978
-0.054184806 0.026254795 0.023084829 -0.0134014385 -0.0003856037 -0.03365951 -0.0372362 0.0011087843
00000000: c811 94bc d274 1d3d 9f49 103c 9a7f 8d3b
00000010: 4a24 ccbc 5f0e c33d f9fe bf3a d447 00bc
00000020: 75a3 15bb 6753 9ebc 1b42 3fbd 69c1 c9bd
00000030: 93ea 6cbc 3ff5 77bc d949 863c b815 3e3c
00000040: b9dc dcbb 9a72 8fbc 3b12 63bc db28 59bd
00000050: 05b5 a03d c74d b4bc 9f1c 233d a9ba 0c3d
00000060: cc71 78bc 71a1 44bd f50d 013d 274b a13c
00000070: 0e83 ed3c d153 e73c d469 273b 9c85 6dbd
00000080: 12bf 2dbd 0678 81bd 005d 52bb 96e9 ae3d
00000090: 0ebc 14bd d7ce 933d b326 883d acca 1cbd
000000a0: 1b23 cbbc dfb8 573c a853 d0bb 204e 503d
000000b0: 06d7 73bc b2be a73b fe6b 2b3d 3c71 06bd
000000c0: 5d18 733d 7483 183d abfa 063c d006 50bd
000000d0: 2f65 993d 6034 db3c 2590 003d c205 25bd
000000e0: f477 103d dfd5 72bc 96a4 3c3c f008 81bd
000000f0: d4e0 213d 7d8f 203c 8a1e 0d3c 22ef b0bc
00000100: 343a ef3b 4b24 2e3d 315e 26bb f5d1 253c
00000110: a7ce c2bb be9a 4e3b eec8 e03b 5dad 9e3c
00000120: 1b7a 5cbd 80ad ae3c e831 90bd 41df be3b
00000130: c770 ddbc 9f82 d5bb d105 a33c 4d9b b53c
00000140: 9705 923d 76e6 b13c 9a9d 8dbd c9fc 41bd
00000150: 8a81 37bd 1386 d33a 37be c3bb a5db c23d
00000160: c255 2a3d 52fc 5c3c 2e3e 2a3c afd9 adbd
00000170: b6a3 98bd ca5a 4fbc da7a 4e3d 19a7 993d
00000180: 3356 fdbb c551 0fbd 83fc 4a3d 7176 c93c
00000190: 3749 633c d56e 1f3d 7afa 48bd 79eb 0dbc
000001a0: 0e1d fcbb f745 5c3d d6a5 633d ff5e 25bd
000001b0: 1d41 8d3a 2b7c 113d b079 0ebb d387 643d
000001c0: cd23 193d 066f 5f3d 941d 0d3d 2834 543d
000001d0: 72b2 07bd 1a38 e43a 013c febc c37e 4cbc
000001e0: 323a 26bd 5806 e1bc b5b8 833d fb59 05bd
000001f0: 06d9 233d ed50 8f3d f763 5a3c 3754 96bb
00000200: ebb9 833d 048e 1c3d 05b3 3abc 7b6c c53c
00000210: dd4a 073d 1018 19bd eac0 b73c 6b51 f13c
00000220: 0251 73bd 158a 15bd 801e 053d 1b35 2e3d
00000230: ecc1 b73c 642f abbc b1f7 95bc f7a4 e4ba
00000240: f0b6 fc3c dbc4 243d 69f8 acbb 1ccf 163d
00000250: 68bf 993b 9d99 73bd 7f85 7cbc ec36 813c
00000260: fb47 2bbc 75a7 103d 7c7c 1bbd c969 11bd
00000270: df56 8ebb 052c 7e3b e54b 82bc fa45 013d
00000280: cc33 f53b 7285 633d 513e 20bc 27eb 6cbc
00000290: da55 5d3c 05b4 9fbb dabb 79bb a173 343d
000002a0: 58d3 91bc e948 633d f228 d8bd a2d1 94bd
000002b0: 3fda 74bd 9de5 41bd c0f8 e23c ff39 91bc
000002c0: abaa 7abd 58d5 ae3b adf2 43bd e451 863d
000002d0: c459 1fbc 933a ff3c 8855 0c3c 8cc0 b53c
000002e0: febf d9bc 8fb3 4a3d 5d82 ffbb 3d3a 503d
000002f0: 038c 32bd 8e8f 063c 0748 c43c a940 893c
00000300: 1a0b 3bbb 14df 1c3b e162 b3bc 13bb 28bd
00000310: 7cbb d3bc 6869 bf3c 8b91 c4bc 1be1 30bd
00000320: e24a 92bc d212 153d d6ca b13d b828 903c
00000330: 2f3a 5c3d c616 4e3d 89be 18bd c9cd 27bd
00000340: ddf6 80bc 7d97 a9bc 0bce ee3c 0234 c8bb
00000350: fa76 fc3a 5f03 debc 6528 013b 26b7 94bc
00000360: bb6f 183b 5ae5 a6bc 8917 05bc b56b 48bd
00000370: cee5 2e3d 2bea a83c 95d3 a2bd e4ac 833a
00000380: a188 62bc 3197 b93c d232 813c 016e 4c3d
00000390: b537 b2bc 8070 14bd 9690 ad3c 6a90 6cbc
000003a0: 1f81 8e3c 2f1d e13c fb99 183d a2f9 903c
000003b0: ad20 9bba 3358 84bc 7844 8d3c 32d0 9b3c
000003c0: c539 4f3d c414 8abd ec2e 30bd 31e3 5dbd
000003d0: 7bbf c0bc bc41 7b3a a365 2f3b 97d6 c2ba
000003e0: e3f0 5dbd 4c14 d73c 651c bd3c b591 5bbc
000003f0: da2a cab9 8ede 09bd fc84 18bd a154 913a

spectral_ssm.hidden.1.rn_1.weight f4 [32]
1.0244981 0.96109 1.0423193 0.9220581 0.917001 1.0576857 0.9990346 0.97616786
1.0226821 0.93145514 1.0344385 0.9865444 1.0147662 1.01784 0.9946774 0.94133586
0.9528209 1.0226612 0.99271435 1.0148706 1.0536065 1.0025495 1.0534344 0.9914514
0.96272635 0.9214678 0.9681556 0.93880063 1.0379122 1.0260358 0.9732212 1.045023
00000000: c122 833f ff09 763f b86a 853f 000c 6c3f
00000010: 94c0 6a3f 3f62 873f bbc0 7f3f 23e6 793f
00000020: 3fe7 823f d873 6e3f 7b68 843f 2c8e 7c3f
00000030: dce3 813f 9548 823f 2ea3 7e3f 63fb 703f
00000040: 12ec 733f 90e6 823f 8722 7e3f 48e7 813f
00000050: 94dc 863f 8b53 803f f0d6 863f c2cf 7d3f
00000060: 3c75 763f 50e5 6b3f 0cd9 773f 3d55 703f
00000070: 4fda 843f 2455 833f 0625 793f 50c3 853f

spectral_ssm.hidden.1.rn_2.weight f4 [32]
1.0137954 0.9959982 0.96482897 1.0340233 0.97204316 1.00216 1.0224497 1.0030485
0.9694326 1.0205946 1.0352987 1.0119066 0.95330226 1.0142026 0.98689353 0.9946467
1.0116645 1.0085963 1.0409687 0.9997803 0.93020266 0.9796673 1.0270329 0.97455215
1.0211463 1.009536 1.0025778 0.99528694 0.9742184 1.0123593 0.9766273 0.9931191
00000000: 0cc4 813f bdf9 7e3f 08ff 763f e05a 843f
00000010: d2d7 783f c746 803f a2df 823f e563 803f
00000020: bc2c 783f d8a2 823f ab84 843f 2886 813f
00000030: 9e0b 743f 64d1 813f 0ea5 7c3f 2ba1 7e3f
00000040: 397e 813f af19 813f 763e 853f 9af1 7f3f
00000050: c321 6e3f 7acb 7a3f d075 833f 407c 793f
00000060: ecb4 823f 7a38 813f 7854 803f 20cb 7e3f
00000070: 6166 793f fd94 813f 3f04 7a3f 0e3d 7e3f

spectral_ssm.hidden.1.stu.M_inputs f4 [32, 32]
0.047342133 -0.0112324385 0.04030177 0.36485866 -0.25924897 0.058954064 -0.03978346 0.35792533
-0.047131237 -0.09931155 0.20323345 -0.51747775 -0.19615671 0.15527982 0.16604504 -0.041758694
0.10185855 -0.21104819 -0.039559033 0.07407012 0.19141938 -0.14032988 -0.33137298 -0.22979875
-0.49932006 -0.15669155 0.06381438 0.1566001 0.16120367 -0.1558936 0.22624522 0.12135855
-0.011309938 0.23138626 -0.15053004 0.01875193 -0.002946934 0.20564258 0.049551573 -0.2772321
-0.21405518 0.033997454 0.08298279 0.021003066 -0.06607652 -0.14793257 -0.03877096 0.0006864617
0.3509252 0.021972058 -0.16952501 0.0045144437 0.22845283 0.026514852 -0.07612029 -0.17690232
-0.18130782 -0.023474116 0.32329592 0.113625 -0.011968769 -0.0053570457 -0.23435785 0.111627996
0.15803078 0.13426825 0.32183808 -0.0066115195 -0.25457412 -0.1609287 -0.14558709 -0.08469835
-0.008143905 -0.047786746 -0.13242394 -0.26141766 0.09768419 0.068550475 0.085347325 0.073165156
-0.1252464 0.01907805 0.08558399 0.1851813 0.19224006 -0.19013155 0.2128277 0.13483289
0.14173561 0.21761873 0.10054632 -0.26423147 0.16973367 -0.07742023 -0.000106765976 0.010558893
0.04292074 0.014536796 -0.1601121 -0.13788918 -0.11879863 -0.16303211 0.030381484 0.16989414
-0.18910521 0.15388662 0.05020878 0.14394274 -0.17040646 -0.10533112 -0.02712738 -0.09065512
-0.097916886 -0.003168263 -0.26414287 -0.030837813 -0.022967193 -0.07281857 -0.08621448 -0.118220784
-0.23956075 0.1465386 -0.25063166 -0.16939135 -0.34006006 -0.03460291 0.0044145635 0.008829299
0.040858492 0.23299743 0.11033458 0.19420683 0.035960216 0.24024534 -0.18986201 0.12782021
-0.15201843 -0.0035076484 -0.2208905 -0.1591144 0.062956594 -0.07530184 0.12584224 0.021606332
0.13275199 -0.02969626 0.13738316 -0.11074635 -0.1432852 -0.050604258 0.023945516 0.041529693
-0.05471282 -0.2552372 0.19635308 -0.33160967 -0.25130925 0.036230702 -0.3087963 0.14957663
0.03225808 -0.06427697 -0.20551085 0.18925461 0.06282653 0.523572 -0.10187867 0.017881703
-0.107341394 -0.011345244 0.17945619 -0.17928647 0.11722833 -0.13938706 -0.03766069 0.22408515
-0.12087817 -0.06268867 0.08585907 -0.06559961 -0.27761567 -0.027143527 -0.18235423 -0.12997133
0.074668944 -0.20362955 -0.30026785 -0.15913361 0.06331655 -0.08850291 -0.012263732 -0.03926568
-0.19932888 -0.23254728 -0.014840321 -0.11387768 -0.08628074 -0.08572489 0.012114062 -0.24787524
-0.13374357 0.26184216 -0.10455145 -0.06796143 0.12410525 -0.20518307 -0.078687966 -0.04640261
0.16173726 0.10093003 -0.14323564 -0.19453584 -0.023247499 -0.03628421 0.07171778 0.14071138
-0.1013101 0.15365914 -0.21141551 0.015159743 -0.15525475 0.047258135 -0.12399891 0.08284792
-0.054592416 0.29829687 0.04587075 -0.027848976 0.06747249 -0.05638804 0.010057384 0.0011057012
0.32883406 -0.041689217 -0.10103926 -0.21193217 -0.11296457 0.07668297 -0.12368294 -0.33082303
-0.17835063 -0.13624537 0.1099198 -0.22953504 0.12834603 0.09166187 -0.087237425 -0.28379002
-0.13104823 -0.07204597 0.28253782 -0.14586058 0.3296765 0.07737733 0.04443726 -0.20445885
00000000: d3e9 413d 4308 38bc 7813 253d c1ce ba3e
00000010: 48bc 84be d179 713d fbf3 22bd fd41 b73e
00000020: af0c 41bd db63 cbbd 6e1c 503e 6c79 04bf
00000030: 4edd 48be ac01 1f3e b607 2a3e 2a0b 2bbd
00000040: 379b d03d 041d 58be a708 22bd 13b2 973d
00000050: 7103 443e a3b2 0fbe b8a9 a9be 5d50 6bbe
00000060: e1a6 ffbe c073 20be 1db1 823d c75b 203e
00000070: 9312 253e 92a2 1fbe d4ac 673e d58a f83d
00000080: 514d 39bc 85f0 6c3e 8c24 1abe a69d 993c
00000090: 5921 41bb f893 523e 97f6 4a3d 5ef1 8dbe
000000a0: 4831 5bbe ea40 0b3d e2f2 a93d 9f0e ac3c
000000b0: 2053 87bd a37b 17be 4cce 1ebd aaf3 333a
000000c0: 78ac b33e bffe b33c f797 2dbe e6ed 933b
000000d0: 8aef 693e ad35 d93c f4e4 9bbd e225 35be
000000e0: c2a8 39be ca4c c0bc 0b87 a53e 39b4 e83d
000000f0: a818 44bc 288a afbb 81fb 6fbe 389d e43d
00000100: d2d2 213e 9e7d 093e f6c7 a43e 72a5 d8bb
00000110: 8a57 82be 7eca 24be c814 15be 5476 adbd
00000120: 036e 05bc 09bc 43bd 249a 07be 89d8 85be
00000130: a60e c83d 3164 8c3d 94ca ae3d 9dd7 953d
00000140: 9840 00be 9249 9c3c a946 af3d 2ba0 3d3e
00000150: 94da 443e d8b1 42be 81ef 593e a211 0a3e
00000160: 2423 113e 72d7 5e3e 3beb cd3d 5949 87be
00000170: aace 2d3e 7f8e 9ebd 8ce7 dfb8 35ff 2c3c
00000180: a8cd 2f3d be2b 6e3c 6df4 23be d232 0dbe
00000190: b24c f3bd e4f1 26be 97e2 f83c bbf8 2d3e
000001a0: cca4 41be 7494 1d3e b9a7 4d3d ba65 133e
000001b0: 087f 2ebe d8b7 d7bd 3d3a debc 64a9 b9bd
000001c0: a688 c8bd a2a2 4fbb bc3d 87be 959f fcbc
000001d0: b225 bcbc e721 95bd 3891 b0bd bd1d f2bd
000001e0: 6a4f 75be 370e 163e cb52 80be ed74 2dbe
000001f0: 5a1c aebe c8bb 0dbd 0ba8 903b c4a8 103c
00000200: 3c5b 273d e196 6e3e 19f7 e13d 28de 463e
00000210: 054b 133d e002 763e 306b 42be 4de3 023e
00000220: b8aa 1bbe 93e0 65bb 1f31 62be e3ee 22be
00000230: 63ef 803d da37 9abd cadc 003e c3ff b03c
00000240: 23f0 073e 9245 f3bc 2cae 0c3e fbce e2bd
00000250: 5bb9 12be 6946 4fbd 6329 c43c 0a1b 2a3d
00000260: 8d1a 60bd 73ae 82be c810 493e bec8 a9be
00000270: 9bab 80be a566 143d 8c1a 9ebe 9e2a 193e
00000280: 0c21 043d a5a3 83bd 7071 52be f6cb 413e
00000290: 32ab 803d d108 063f c4a5 d0bd a67c 923c
000002a0: ced5 dbbd 67e1 39bc 5dc3 373e df96 37be
000002b0: 6815 f03d 7bbb 0ebe 1842 1abd 9476 653e
000002c0: f98e f7bd eb62 80bd e1d6 af3d 1759 86bd
000002d0: a423 8ebe 1a5c debc 11bb 3abe 3417 05be
000002e0: 08ec 983d 4484 50be b5bc 99be ecf3 22be
000002f0: 1bac 813d 0441 b5bd d2ed 48bc 0dd5 20bd
00000300: df1c 4cbe e020 6ebe d124 73bc b338 e9bd
00000310: f5b3 b0bd 8890 afbd 0f7a 463c 02d3 7dbe
00000320: 13f4 08be 2d10 863e 121f d6bd 5d2f 8bbd
00000330: e52a fe3d 831b 52be 2827 a1bd aa10 3ebd
00000340: 749e 253e 67b4 ce3d 5dac 12be 6734 47be
00000350: 8a71 bebc c09e 14bd c5e0 923d a516 103e
00000360: ab7b cfbd d258 1d3e 4f7d 58be 9260 783c
00000370: 1afb 1ebe bf91 413d 24f3 fdbd 2cac a93d
00000380: 4c9c 5fbd 5eba 983e f8e2 3b3d 8923 e4bc
00000390: 042f 8a3d 25f7 66bd bac7 243c 2ded 903a
000003a0: f05c a83e 50c2 2abd aced cebd bf04 59be
000003b0: f859 e7bd f60b 9d3d 7b4d fdbd a361 a9be
000003c0: 8ca1 36be e883 0bbe a21d e13d 3c0b 6bbe
000003d0: 246d 033e 38b9 bb3d 89a9 b2bd ed4c 91be
000003e0: 8231 06be d68c 93bd cca8 903e 7a5c 15be
000003f0: 5ccb a83e 0178 9e3d d803 363d a95d 51be

spectral_ssm.hidden.1.stu.M_filters f4 [16, 32]
0.025102356 0.08171102 -0.34590182 -0.13779691 0.059449174 -0.27367067 -0.49937886 -0.1250691
-0.24708147 -0.08581507 0.27030224 0.019313587 0.16902868 -0.28032932 -0.026560528 0.091726296
-0.10205395 -0.09099523 0.30468258 -0.097434126 0.16487908 0.29809657 0.03544707 0.09802664
-0.24696705 0.0047899615 0.119467214 0.24134791 0.1610321 0.18719105 0.07311154 0.08714838
0.053434893 -0.09496995 0.2617413 -0.012578918 0.11516576 0.15290818 -0.04947034 -0.38288423
0.24471453 -0.4314646 0.12957817 -0.15577416 -0.15791331 0.27161452 0.38150275 -0.20862104
0.17788514 -0.3431615 -0.14553957 -0.0633471 -0.36800066 0.06409527 -0.11678461 -0.27166885
0.26480246 -0.169521 -0.06459274 -0.35010773 -0.015408491 0.2465979 -0.07973847 -0.00047559748
-0.029870568 -0.05225623 0.032693937 -0.09580189 -0.030024003 0.24194752 0.24213916 0.299334
0.08039001 0.12596032 -0.13960454 0.040172156 0.10595953 0.24533841 -0.19993825 -0.31610548
-0.10317365 -0.042870287 0.14648926 0.15418254 -0.42082074 0.19156165 0.10452489 0.035831593
0.06613801 0.025818247 -0.309994 0.022401268 -0.04024469 -0.22482097 -0.10605896 0.027699687
-0.07360954 -0.009475627 0.109173186 -0.37535644 -0.13829726 -0.07957752 0.2989573 -0.015929328
0.11861641 -0.11722532 -0.13332196 -0.34528267 -0.38487512 0.058364786 0.07918853 -0.24195981
0.08100921 -0.4293313 0.11713179 0.2926875 -0.06297627 -0.23455088 0.108582966 -0.19903876
0.1600443 -0.14588094 0.041073952 0.031603493 -0.29432607 0.09648946 -0.2106726 -0.121027246
0.20906602 0.282098 -0.31805283 0.21002214 -0.06807521 0.009500785 0.21971983 0.0635082
-0.010459633 0.03509036 -0.29697657 0.24688615 0.31315413 -0.023124626 -0.19978662 -0.13729288
-0.11796157 -0.13496408 0.104053035 -0.018955352 0.16093837 0.15769699 0.2351413 0.1866383
-0.37093574 0.06092791 0.25402734 -0.11178795 0.13473645 0.10348735 0.022496952 0.52232206
-0.11824859 -0.010649311 -0.015818914 -0.049519487 0.14669809 0.01031417 -0.16317834 0.05242108
-0.11646069 -0.15328483 -0.19880944 -0.11528795 0.058812167 -0.1647293 0.09139771 -0.30244547
0.20395218 0.17012493 -0.025721174 0.031760085 -0.09063596 0.045107167 0.16051455 0.023225773
-0.50505984 -0.049055822 -0.0044516656 0.09330707 -0.12410872 0.15849791 -0.12973765 -0.06460661
-0.2078777 0.030473405 0.16884516 0.08131352 -0.32017812 -0.09091945 -0.27105236 -0.20855993
0.31018406 0.05167057 -0.24328126 -0.15292275 0.06491267 -0.032149885 -0.060514484 0.061308935
0.11572757 -0.01750927 -0.38104075 0.067534365 -0.05692138 -0.38322353 0.0005505158 0.14329155
-0.24448834 -0.18277414 -0.07357454 0.039939653 -0.3600174 0.095220305 -0.029841004 -0.3777055
0.032703202 0.36918178 -0.4121257 0.024559313 0.26299205 0.02727275 0.09778711 0.1337038
0.17062294 -0.17872041 -0.20237082 -0.028972255 -0.11459188 0.05972631 0.1866089 -0.22113903
0.13848414 -0.23801172 -0.13834623 -0.12983188 -0.090034455 -0.30872303 0.30386305 -0.10281602
-0.27664483 0.17885318 -0.09421861 0.2327352 -0.14974596 -0.07351459 -0.32596725 0.1458589
00000000: 75a3 cd3c 1b58 a73d 0b1a b1be a21a 0dbe
00000010: fa80 733d 901e 8cbe 96ae ffbe 1d12 00be
00000020: ed02 7dbe d0bf afbd 0e65 8a3e 8737 9e3c
00000030: db15 2d3e 5387 8fbe 7795 d9bc ffda bb3d
00000040: a901 d1bd b55b babd 5bff 9b3e 8b8b c7bd
00000050: 10d6 283e 1da0 983e f230 113d 31c2 c83d
00000060: eee4 7cbe 1cf5 9c3b 3aab f43d e823 773e
00000070: 99e5 243e 03af 3f3e 81bb 953d da7a b23d
00000080: 8cde 5a3d 9b7f c2bd f502 863e ce17 4ebc
00000090: 07dc eb3d f693 1c3e 69a1 4abd 6709 c4be
000000a0: 7296 7a3e eee8 dcbe 24b0 043e 4383 1fbe
000000b0: 07b4 21be 0f11 8b3e 5454 c33e c1a0 55be
000000c0: 8627 363e ddb2 afbe 5308 15be 20bc 81bd
000000d0: 956a bcbe 6244 833d c52c efbd 2e18 8bbe
000000e0: 3094 873e ea96 2dbe 3349 84bd 5241 b3be
000000f0: e573 7cbc 2984 7c3e ec4d a3bd 9d59 f9b9
00000100: 1fb3 f4bc a10a 56bd 14ea 053d c833 c4bd
00000110: e6f4 f5bc 17c1 773e 54f3 773e 4e42 993e
00000120: 84a3 a43d befb 003e 7ef4 0ebe 8f8b 243d
00000130: 4f01 d93d fe39 7b3e 9dbc 4cbe 94d8 a1be
00000140: b54c d3bd c198 2fbd 4801 163e 07e2 1d3e
00000150: d175 d7be bd28 443e 2511 d63d 26c4 123d
00000160: 5d73 873d ca80 d33c 89b7 9ebe dd82 b73c
00000170: 9ed7 24bd 7837 66be 7135 d9bd 74ea e23c
00000180: 99c0 96bd a93f 1bbc 3196 df3d b82e c0be
00000190: cc9d 0dbe 8af9 a2bd ee10 993e 397e 82bc
000001a0: 29ed f23d d413 f0bd 8d85 08be e4c8 b0be
000001b0: 5a0e c5be ea0f 6f3d 992d a23d 50c4 77be
000001c0: 28e8 a53d 50d1 dbbe cbe2 ef3d 23db 953e
000001d0: b4f9 80bd 1b2e 70be bf60 de3d d1d0 4bbe
000001e0: a7e2 233e d061 15be 293d 283d aa72 013d
000001f0: e8b1 96be 449c c53d 8fba 57be 22dd f7bd
00000200: 6715 563e 266f 903e d2d7 a2be 0b10 573e
00000210: 046b 8bbd 2ea9 1b3c 3cfe 603e 9610 823d
00000220: e15e 2bbc e9ba 0f3d 500d 98be b9cf 7c3e
00000230: bd55 a03e db6f bdbc dd94 4cbe 8196 0cbe
00000240: d695 f1bd 0634 0abe c219 d53d 4148 9bbc
00000250: 07cd 243e 527b 213e e2c8 703e 1c1e 3f3e
00000260: 4aeb bdbe 8b8f 793d df0f 823e 15f1 e4bd
00000270: 5af8 093e 2df1 d33d 874b b83c e6b6 053f
00000280: 512c f2bd 737a 2ebc ab96 81bc f2d4 4abd
00000290: 0638 163e c4fc 283c 3918 27be 7db7 563d
000002a0: f182 eebd b3f6 1cbe b494 4bbe 171c ecbd
000002b0: 07e5 703d ccae 28be b92e bb3d 22da 9abe
000002c0: d7d8 503e 3b35 2e3e 36b5 d2bc dd16 023d
000002d0: 599f b9bd 4bc2 383d ed5d 243e fa43 be3c
000002e0: 9a4b 01bf c2ee 48bd 47df 91bb c717 bf3d
000002f0: b62c febd 474d 223e f2d9 04be 7850 84bd
00000300: e4dd 54be 5da3 f93c bfe5 2c3e b487 a63d
00000310: 63ee a3be fa33 babd 60c7 8abe bc90 55be
00000320: 72d0 9e3e 85a4 533d b91e 79be c897 1cbe
00000330: eff0 843d 99af 03bd 09de 77bd 141f 7b3d
00000340: 9402 ed3d 9a6f 8fbc c617 c3be 754f 8a3d
00000350: 6526 69bd e035 c4be 7d50 103a 05bb 123e
00000360: 275b 7abe 2529 3bbe 40ae 96bd c397 233d
00000370: 3354 b8be dd02 c33d 1f75 f4bc 9e62 c1be
00000380: cbf3 053d 6505 bd3e 2402 d3be 9d30 c93c
00000390: e5a6 863e 1a6b df3c 9c44 c83d a6e9 083e
000003a0: c8b7 2e3e 7c02 37be 4c3a 4fbe 3957 edbc
000003b0: 26af eabd 93a3 743d 6716 3f3e 4572 62be
000003c0: c9ce 0d3e 58b9 73be a2aa 0dbe a6f2 04be
000003d0: fc63 b8bd f210 9ebe f093 9b3e 3591 d2bd
000003e0: 64a4 8dbe 4a25 373e b0f5 c0bd 2352 6e3e
000003f0: 0157 19be d18e 96bd 2ee5 a6be 095c 153e

spectral_ssm.hidden.1.mlp.fc_1.weight f4 [256, 32]
-0.017650725 0.018337999 0.03155427 0.023266219 -0.010284728 0.017075792 0.0036129039 0.010657193
0.008525608 0.003919896 0.0011516997 -0.023803983 0.039554767 0.019298019 -0.02254116 0.0111540165
0.022837784 -0.014761698 0.015509352 -0.00364088 -0.010009345 -0.0046748426 -0.012819374 -0.0064155837
-0.022108348 -0.029156446 -0.002680834 -0.025158873 -0.015702672 -0.003736688 -0.0074440455 -0.00044044864
-0.002981715 0.022292612 -0.02840389 0.0708613 0.036570262 0.024747191 0.046443533 0.019476613
-0.032308288 -0.01444242 -0.0059486777 0.07106117 0.040961005 0.043326315 0.001314411 -0.024856744
-0.0193835 0.006042241 -0.012190789 0.02307869 0.000316863 -0.02320429 -0.013503519 0.018182304
-0.07668314 0.040530805 -0.04860506 -0.05913612 -0.017050095 -0.0040763346 -0.00400161 0.08341108
-0.056023523 -0.0671486 -0.009609916 -0.0004689159 0.060150843 0.04373728 0.037516214 -0.036072742
0.013834809 0.051387675 -0.06784868 0.074098684 0.03779124 -0.027192976 0.076398134 -0.039185952
-0.050709836 0.036556974 -0.07196062 0.03210852 0.07989948 0.004184542 -0.030490343 -0.055267945
0.034629695 -0.008894369 -0.029632945 0.018050049 0.07338007 0.050350342 0.008541642 0.053346977
-0.0038139033 0.014497716 -0.0024851128 0.008887648 -0.02220423 0.034796078 -0.058331728 -0.024388116
0.011560109 -0.03839801 0.022967283 0.0104518635 0.013142132 0.009673372 0.004567695 0.028643409
0.025691735 -0.04067312 0.049533863 0.00949351 -0.019008646 0.003489637 0.012058303 -0.052232545
-0.002997866 0.018837841 0.0026453296 -0.02334356 -0.03476884 -0.0548232 -0.02957821 -0.039607152
-0.017877035 0.042449523 -0.05327543 -0.06910627 -0.0031553968 0.052773457 -0.035115696 0.053180177
0.010962116 0.004929113 -0.0027829264 0.017329985 0.03006576 -0.020494057 -0.005998193 0.03299972
-0.005217448 -0.058505733 0.09190445 0.0007974665 -0.028653372 -0.0057271193 0.021392457 0.018376943
-0.0062846225 -0.07254576 0.04093286 -0.028501676 0.056585178 -0.038905513 0.028192515 -0.002601276
0.028687952 -0.021465583 0.019404732 0.032037046 0.04126134 -0.00074831326 0.07888793 -0.024928002
0.03492161 0.0069947196 -0.017554123 0.025640825 -0.042274572 -0.024196621 0.03998117 -0.021716055
-0.016515516 0.026644854 -0.052032266 -0.016057665 0.018283024 -0.004715858 -0.03458759 -0.0128795095
-0.025457842 -0.051092707 -0.0034046345 0.009123765 -0.025687667 0.02138309 -0.030275194 -0.012208155
-0.029594205 -0.016153526 0.040215034 -0.03480575 -0.041705087 -0.0006556744 0.026762143 0.032423135
-0.020396134 0.017617308 -0.01703124 0.011795163 -0.03484786 0.027191738 0.021614773 -0.019472858
-0.01711539 -0.012405233 -0.011216576 -0.015595137 -0.019296512 0.005631268 -0.0010894827 -0.025985919
0.0047017513 -0.031409547 -0.012813513 0.012677819 -0.01850123 0.005783504 -0.014495358 0.004693323
-0.0011503992 -0.012288653 0.024594866 0.005338107 -0.00372636 -0.038106095 0.032063264 -0.00513425
0.0035576946 0.0070103635 -0.013108214 0.019422486 -0.0037631216 0.0117182955 0.013105582 -0.03578307
0.0069947415 0.0062154694 -0.03940012 0.0029604777 0.008095453 0.024929633 -0.035054125 -0.010813356
-0.008640983 -0.009152754 -0.012765728 0.039292686 -0.007262107 0.014811186 -0.05060615 -0.008558804
00000000: 4198 90bc 9239 963c 0d3f 013d cc98 be3c
00000010: 4781 28bc 88e2 8b3c 78c6 6c3b 829b 2e3c
00000020: feae 0b3c 7972 803b a1f4 963a 9200 c3bc
00000030: 2e04 223d e116 9e3c 3da8 b8bc 56bf 363c
00000040: 4e16 bb3c 0ddb 71bc f01a 7e3c d59b 6ebb
00000050: 3cfe 23bc 6c2f 99bb 5a08 52bc d139 d2bb
00000060: 911c b5bc 80d9 eebc eeb0 2fbb fb19 cebc
00000070: e4a2 80bc 39e3 74bb 2eed f3bb 04ec e6b9
00000080: e068 43bb ff9e b63c 46af e8bc bb1f 913d
00000090: b3ca 153d 9fba ca3c 933b 3e3d 6b8d 9f3c
000000a0: b255 04bd e69f 6cbc 20ed c2bb 8588 913d
000000b0: bac6 273d ef76 313d 5148 ac3a 5fa0 cbbc
000000c0: 25ca 9ebc fefd c53b e0bb 47bc 850f bd3c
000000d0: a220 a639 ec16 bebc dd3d 5dbc 0ef3 943c
000000e0: 0d0c 9dbd a103 263d 1916 47bd b738 72bd
000000f0: a4ac 8bbc c692 85bb f01f 83bb 6ed3 aa3d
00000100: ec78 65bd 3585 89bd e972 1dbc d4d8 f5b9
00000110: bb60 763d dd25 333d 9aaa 193d 03c1 13bd
00000120: 65ab 623c e27b 523d 40f4 8abd 0dc1 973d
00000130: fdca 1a3d cec3 debc a076 9c3d 7381 20bd
00000140: 1eb5 4fbd c4bc 153d 1760 93bd 3984 033d
00000150: 57a2 a33d 7c1e 893b e2c6 f9bc a460 62bd
00000160: ded7 0d3d b0b9 11bc cac0 f2bc b2dd 933c
00000170: 4a48 963d 293c 4e3d 3ef2 0b3c 5c82 5a3d
00000180: aef2 79bb d487 6d3c 46dd 22bb 7f9d 113c
00000190: a5e5 b5bc 5586 0e3d 40ed 6ebd 96c9 c7bc
000001a0: 9d66 3d3c 3b47 1dbd e225 bc3c 4b3e 2b3c
000001b0: 1952 573c 107d 1e3c 9aac 953b 95a5 ea3c
000001c0: 7977 d23c dc98 26bd 05e4 4a3d ab8a 1b3c
000001d0: 05b8 9bbc 65b2 643b 3090 453c cbf1 55bd
000001e0: d877 44bb d151 9a3c 445d 2d3b fe3a bfbc
000001f0: c569 0ebd 4b8e 60bd 014e f2bc 1c3b 22bd
00000200: dc72 92bc 8ddf 2d3d 5637 5abd 9787 8dbd
00000210: c6ca 4ebb fb28 583d 7ad5 0fbd 75d3 593d
00000220: 729a 333c 6684 a13b c261 36bb 9df7 8d3c
00000230: 784c f63c 27e3 a7bc 7d8c c4bb b72a 073d
00000240: 20f7 aabb b5a3 6fbd 6638 bc3d 120d 513a
00000250: 7aba eabc 8faa bbbb 3c3f af3c 3e8b 963c
00000260: 3cef cdbb df92 94bd 37a9 273d 597c e9bc
00000270: dcc5 673d 635b 1fbd fdf3 e63c 2b7a 2abb
00000280: ff02 eb3c 97d8 afbc acf6 9e3c 4739 033d
00000290: a701 293d 742a 44ba ff8f a13d cf35 ccbc
000002a0: f609 0f3d f633 e53b aacd 8fbc b50c d23c
000002b0: 1a28 2dbd fe37 c6bc 4cc3 233d dee5 b1bc
000002c0: 8c4b 87bc 4f46 da3c c91f 55bd 5d8b 83bc
000002d0: 48c6 953c 7c87 9abb b7ab 0dbd 9404 53bc
000002e0: f78c d0bc 9646 51bd 4a20 5fbb d87b 153c
000002f0: f16e d2bc 972b af3c af03 f8bc b704 48bc
00000300: 8c6f f2bc 6654 84bc 85b8 243d 7990 0ebd
00000310: f4d2 2abd 90e1 2bba 483c db3c 1fce 043d
00000320: cb15 a7bc 2c52 903c 1985 8bbc 8040 413c
00000330: a1bc 0ebd 35c1 de3c 7711 b13c 8b85 9fbc
00000340: 9335 8cbc 523f 4bbc bbc5 37bc bf82 7fbc
00000350: b813 9ebc 8086 b83b f9cc 8eba 6ce0 d4bc
00000360: 2611 9a3b 4ca7 00bd c5ef 51bc a0b6 4f3c
00000370: e48f 97bc 8c83 bd3b f07d 6dbc 72ca 993b
00000380: fec8 96ba 5956 49bc 2c7b c93c 49eb ae3b
00000390: f235 74bb 2315 1cbd c554 033d 363d a8bb
000003a0: 3628 693b 31b7 e53b d6c3 56bc e81b 9f3c
000003b0: b49e 76bb 18fe 3f3c ccb8 563c 4591 12bd
000003c0: 2534 e53b 23ab cb3b 0562 21bd 9304 423b
000003d0: caa2 043c 3b39 cc3c ea94 0fbd 812a 31bc
000003e0: e992 0dbc 6ff5 15bc 5827 51bc 5ef1 203d
000003f0: f8f6 edbb 9eaa 723c 6548 4fbd 3a3a 0cbc
