checkpoints/sssm-Walker2D-v1-model_step-2450-2024-11-18-17-23-46.pt (torch, 34514 bytes, 18 tensors)

emb.weight f4 [8, 24]
0	0x3ebadc0b	0.36496004
1	0xbde4e2e9	-0.11176092
2	0x3e50899d	0.20364995
3	0xbe8313dd	-0.25601092
4	0x3e9a7898	0.3017013
5	0x3dbc9d60	0.092097044
6	0x3e816a4c	0.2527641
7	0x3e8e444a	0.27786475
8	0x3dc27a5f	0.09495997
9	0x3da23ceb	0.079217754
10	0xbf0c9b11	-0.5492411
11	0x3db26b83	0.087119125
12	0x3be011a5	0.006838041
13	0xbe6a74f9	-0.22896184
14	0x3d23cf61	0.039992694
15	0xbd93ce9e	-0.072171435
16	0xbdabb2d8	-0.08383721
17	0xbda9b74f	-0.082869165
18	0xbdd4121c	-0.103550166
19	0xbdaa051b	-0.08301755
20	0xbd993c58	-0.07482213
21	0xbaa8eb9c	-0.00128876
22	0x3e3cb665	0.18428953
23	0x3dfa1fc2	0.122130886
24	0x3e43e6a5	0.19130953
25	0xbd1ef7a1	-0.038810376
26	0x3ea2b7f9	0.31780985
27	0x3c31c739	0.010850721
28	0xbf2339e7	-0.63760227
29	0xbdbcaa35	-0.09212152
30	0x3dfc9f2f	0.12335049
31	0xbea59b29	-0.3234494
32	0xbe960e70	-0.2930789
33	0x3dfacab1	0.122456916
34	0xbb93bed7	-0.004508834
35	0x3caeb32a	0.021325666
36	0x3e9b032c	0.30275857
37	0x3e6ab369	0.22920002
38	0x3e8ed3cc	0.27895963
39	0x3e25f9db	0.16208594
40	0x3e04e3b2	0.12977484
41	0x3e311d99	0.17296447
42	0x3e331dd9	0.17491855
43	0xbeb5e21e	-0.35524076
44	0xbe908d1a	-0.28232652
45	0xbd2144ca	-0.039372243
46	0xbe2fe0c1	-0.1717558
47	0xbbb26ac0	-0.0054448545
48	0xbeff4d58	-0.49863696
49	0x3e829c1e	0.25509733
50	0xbdc506fe	-0.09620474
51	0xbdae7d4c	-0.08519992
52	0xbe7cfb4a	-0.24705234
53	0xbe10c35e	-0.14137027
54	0x3c4b6f5e	0.012416689
55	0x3cdd142b	0.026987156
56	0xbebd0ae6	-0.36922377
57	0x3e025919	0.127293
58	0x3dbf3a41	0.09337283
59	0x3e358145	0.17725094
60	0xbeb156da	-0.34636575
61	0xbe1f4774	-0.15554601
62	0x3eab6e03	0.3348237
63	0xbb72d0de	-0.0037050764
64	0xbe1ea404	-0.15492254
65	0xbd345069	-0.044021998
66	0xbe6a267f	-0.22866248
67	0x3d91bae1	0.071157224
68	0x3e80e594	0.25175154
69	0xbb4ad484	-0.0030949423
70	0xbcce2558	-0.025164291
71	0x3eb294b6	0.34879082
72	0x3e8140b3	0.25244674
73	0x3c4b5749	0.012410947
74	0x3f0be391	0.54644114
75	0xbc25411c	-0.010086324
76	0x3eadcb37	0.33944103
77	0x3daff2ad	0.085912086
78	0xbdaf53be	-0.085608944
79	0x3ecb5754	0.39715064
80	0xbe425ba8	-0.18980277
81	0x3e654723	0.22390418
82	0xbccf9d48	-0.025343552
83	0xbca9afd1	-0.020713719
84	0xbe4a5754	-0.19759876
85	0xbeb9b4b2	-0.36270672
86	0x3c9a45ad	0.018832052
87	0xbdc4abf7	-0.09603112
88	0xbdd63eb9	-0.10461182
89	0xbe8abcbd	-0.2709712
90	0xbe61f88e	-0.22067472
91	0xbafa72c8	-0.0019107694
92	0xbc146988	-0.009058364
93	0x3c88a82b	0.016681751
94	0xbcc4f82b	-0.024044117
95	0xbdbb966c	-0.0915955
96	0x3e17812d	0.1479537
97	0xbe740a26	-0.23831996
98	0xbe358655	-0.17727025
99	0x3e19347f	0.14961432
100	0xbde0adda	-0.109706596
101	0xbe17807d	-0.14795108
102	0xbc623730	-0.013807103
103	0x3d83c157	0.06433361
104	0xbe3060f9	-0.17224492
105	0x3e72ec15	0.2372287
106	0x3e9aa19f	0.30201432
107	0x3bd23364	0.0064148176
108	0xbe0c5f7d	-0.13708301
109	0xbe53dceb	-0.20689742
110	0xbd070b48	-0.032969743
111	0xba8252d0	-0.0009942893
112	0x3de526fc	0.11189076
113	0xbdd5973e	-0.10429238
114	0x3d57015d	0.052491535
115	0xbde2f32f	-0.1108154
116	0x3d4754e2	0.048664935
117	0x3c89530f	0.016763238
118	0xbe023eac	-0.1271922
119	0xbd0516df	-0.032492515
120	0x3e98a1fb	0.2981108
121	0x3c99aa0b	0.01875784
122	0xbe55d31b	-0.20881312
123	0x3de9e8b8	0.11421341
124	0x3cbfc99c	0.023411565
125	0xbec9e223	-0.3943034
126	0xbd56842b	-0.05237214
127	0x3c93bb21	0.018033566
128	0xbe4b9cac	-0.19883984
129	0x3da3c477	0.07996457
130	0xbf017763	-0.50572795
131	0xbed3a9f8	-0.41340613
132	0xbd2a80cf	-0.041626748
133	0x3da85e68	0.082211316
134	0x3eaebea8	0.34129834
135	0xbc0dc95e	-0.008653967
136	0xbe0c4fcb	-0.13702314
137	0xbd858202	-0.06518938
138	0x3e42810f	0.18994544
139	0xbd9b4e48	-0.0758329
140	0xbd6b163d	-0.057394255
141	0x3c180d8a	0.009280572
142	0xbea79e7a	-0.32738096
143	0x3ea14f96	0.31506032
144	0xbf13320b	-0.57498235
145	0xbe245d81	-0.16051294
146	0x3cf242c8	0.02957286
147	0x3e8271f2	0.25477558
148	0x3ea189ff	0.31550595
149	0xbe1b5ef8	-0.15172946
150	0x3cee5b08	0.029096141
151	0x3aee1b48	0.001816609
152	0x3e63b301	0.22236253
153	0xbe93642c	-0.28787363
154	0x3df9eede	0.122037634
155	0xbe1a96cc	-0.15096587
156	0x3d874a59	0.066059776
157	0x3e410a88	0.18851674
158	0x3d37361c	0.044729337
159	0xbd069a7e	-0.03286218
160	0x3e112d7a	0.14177504
161	0xbe801ed6	-0.25023526
162	0xbde48009	-0.11157233
163	0x3e5a55f2	0.21321848
164	0xbda3f496	-0.080056354
165	0xbc1ff25b	-0.009762372
166	0x3d63af37	0.05558702
167	0xbc20a783	-0.009805563
168	0x3ec44d0b	0.3834003
169	0x3dce9fdb	0.10089084
170	0x3ed87a03	0.42280588
171	0x3d39e5cc	0.045385167
172	0x3cf9e6b6	0.03050552
173	0x3e125a3b	0.14292233
174	0xbdf0a1ba	-0.11749597
175	0x3c279783	0.010228994
176	0xbd21a397	-0.039462652
177	0xbe8a0036	-0.26953286
178	0x3f180eee	0.5939778
179	0xbe3d1761	-0.1846595
180	0xbe07db34	-0.13267213
181	0xbeab6820	-0.3347788
182	0x3c8162e6	0.015794229
183	0x3c6527c3	0.013986531
184	0xbda59572	-0.08085145
185	0xbe841402	-0.25796515
186	0xbdad5acf	-0.08464586
187	0xbe171381	-0.14753534
188	0x3e436329	0.19080795
189	0x3cdd9e2b	0.02705296
190	0xbdf76d71	-0.12081421
191	0x3c8e6253	0.017380869

stu.hidden.0.rn_1.weight f4 [8]
0	0x3f091941	0.5355416
1	0x3f54ea0c	0.8316963
2	0x3f112034	0.56689763
3	0x3f62dc09	0.88616997
4	0x3f1d8756	0.6153463
5	0x3ef896bb	0.48552498
6	0x3f3072fc	0.6892545
7	0x3f2fd6ff	0.68687433

stu.hidden.0.stu.M_u f4 [8, 3, 8]
0	0xbf0ca0a9	-0.5493265
1	0x3e253ee8	0.16137278
2	0xbe52b90b	-0.20578401
3	0x3e826b82	0.25472647
4	0x3d8bec8d	0.06832228
5	0x3e389979	0.18027295
6	0xbd069ba8	-0.03286329
7	0xbd074ec7	-0.033034112
8	0xbec5cf0a	-0.3863452
9	0x3e3e9452	0.18611267
10	0xbdcb48a5	-0.09925965
11	0xbe2a0710	-0.16604257
12	0x3ce91284	0.028451212
13	0xbeaa33e9	-0.3324273
14	0x3e16fc94	0.14744788
15	0xbddb3290	-0.107030034
16	0xbebe49bf	-0.3716564
17	0xbd927463	-0.07151105
18	0xbd564203	-0.052309047
19	0x3d398580	0.04529333
20	0xbcae82f3	-0.021302676
21	0xbe566343	-0.20936303
22	0xbd2adb8f	-0.041713294
23	0xbe75ef1e	-0.24016997
24	0xbb042f6a	-0.0020169863
25	0xbec217bf	-0.37908742
26	0xbd35e7c8	-0.044410497
27	0x3e0a983c	0.13534635
28	0x3da374bb	0.07981249
29	0x3d37b436	0.044849597
30	0xbdfd9273	-0.123814486
31	0xbc862e1d	-0.01637941
32	0x3e625704	0.22103506
33	0x3ce17eab	0.02752622
34	0xbe8d80d0	-0.2763734
35	0x3d86a54e	0.06574498
36	0x3e8607cd	0.26177827
37	0x3e6b0300	0.22950363
38	0xbdff8ab1	-0.12477625
39	0x3da2b909	0.07945449
40	0x3cd84296	0.026398938
41	0xbbf4794a	-0.007460748
42	0xbe89628f	-0.26833007
43	0x3e0824cc	0.13295287
44	0x3d548c58	0.051891655
45	0x3e9b44ce	0.3032593
46	0x3d8d45af	0.06898057
47	0x3e6e80f8	0.23291385
48	0xbdc7fdda	-0.09765215
49	0xbe6945eb	-0.22780578
50	0xbd07e05a	-0.033172943
51	0xbebe1162	-0.37122637
52	0xbe87d420	-0.26529026
53	0xbda8fd35	-0.082514204
54	0xbe24fd05	-0.16112144
55	0x3e01d2f9	0.12678136
56	0xbe318696	-0.17336497
57	0xbe5cf884	-0.21579176
58	0xbe296f14	-0.16546279
59	0x3e14b9c0	0.14523983
60	0xbe04571f	-0.12923859
61	0xbe8291c2	-0.2550183
62	0xbe34b9db	-0.17649023
63	0x3cad5e00	0.021162987
64	0x3e14201c	0.14465374
65	0xbde1952c	-0.110147804
66	0xbe64524b	-0.22297017
67	0x3db962ec	0.09052071
68	0xbd60cf29	-0.054885063
69	0xbe75e8d5	-0.240146
70	0xbe1c464b	-0.1526119
71	0x3d0bd19b	0.034135442
72	0x3e51e73c	0.20498365
73	0x3e991f2f	0.29906604
74	0xbec6d015	-0.3883063
75	0xbe80768c	-0.25090444
76	0x3d34d7ca	0.044151105
77	0x3b0c85d2	0.0021442068
78	0xbc59bf73	-0.013290274
79	0xbe2660ac	-0.16247815
80	0x3d5f589a	0.054527856
81	0xbd077fff	-0.03308105
82	0xbdc966cd	-0.09834061
83	0xbed54ca9	-0.4166005
84	0x3db68872	0.08912744
85	0xbdda2015	-0.106506504
86	0x3e68c38c	0.22730845
87	0x3da34598	0.07972258
88	0xbdd1892c	-0.102312416
89	0xbd554b11	-0.052073542
90	0xbe22a7f4	-0.15884382
91	0xbea3b632	-0.31974941
92	0x3d73d1b8	0.059526175
93	0xbe3cebf6	-0.18449387
94	0x3e60217f	0.21887778
95	0xbc943de3	-0.018095916
96	0x3db2b6be	0.087262616
97	0x3d05cddd	0.03266703
98	0xbd7da425	-0.06192412
99	0xbd8921e1	-0.06695915
100	0xbeef572c	-0.46746194
101	0xbdbd9558	-0.09257001
102	0xbe37f9d6	-0.17966399
103	0x3d0c5231	0.03425807
104	0x3dbef397	0.09323805
105	0x3e14dc3d	0.14537139
106	0xbd36c5be	-0.044622175
107	0x3ddb56f9	0.10709948
108	0xbeb7fb09	-0.35933712
109	0xbcffd958	-0.031231567
110	0xbdd6d985	-0.10490707
111	0xbd55e54f	-0.05222064
112	0xbe4e9184	-0.20172697
113	0xbddd1a0f	-0.10795986
114	0xbdaab337	-0.08334964
115	0x3e248ac2	0.16068557
116	0xbdd47027	-0.10372954
117	0xbc7b5700	-0.015340567
118	0xbedbc0a6	-0.42920417
119	0x3de36f93	0.111052655
120	0x3dd0b122	0.101900354
121	0x3eaa9378	0.33315635
122	0x3e0977a6	0.13424549
123	0xbd3bf3ed	-0.045886923
124	0x3e223223	0.15839438
125	0xbedf7de9	-0.4365075
126	0x3e6bc30f	0.23023628
127	0xbe85fcf5	-0.26169553
128	0xbdc3c10e	-0.09558307
129	0x3e803ae1	0.2504492
130	0x3bd26f44	0.0064219553
131	0xbdcfb591	-0.10142053
132	0x3e04c675	0.1296633
133	0xbec19fb3	-0.37817153
134	0x3d931a3e	0.0718274
135	0xbe85443e	-0.26028627
136	0xbe2b57ef	-0.16732763
137	0x3d2ae39d	0.041720975
138	0x3dc32d2d	0.09530101
139	0xbe0e47ec	-0.13894624
140	0xbd3f690c	-0.04673104
141	0xbecc33b5	-0.398832
142	0x3d2a53a7	0.041583683
143	0xbc0297c4	-0.007970754
144	0xbd0cdd4c	-0.034390733
145	0x3e501bf2	0.2032316
146	0x3d8953ea	0.067054585
147	0x3d319262	0.043352492
148	0x3d22e588	0.03976968
149	0x3a4a7a1d	0.0007723885
150	0xbebd1dbb	-0.36936745
151	0xbd3abc8f	-0.04558998
152	0xbcb18517	-0.021669907
153	0x3e075783	0.13216977
154	0x3e1feb64	0.15617138
155	0xbdb41f33	-0.08795013
156	0x3d37c37a	0.044864155
157	0xbe247631	-0.16060711
158	0xbea75af7	-0.32686588
159	0x3e90344f	0.28164908
160	0xbe04e3c0	-0.12977505
161	0x3de6efc5	0.11276201
162	0x3df83063	0.12118604
163	0xbe598f2e	-0.21246025
164	0xbe3be8da	-0.18350545
165	0xbe427146	-0.18988523
166	0xbe1a69c5	-0.1507941
167	0xbba5717e	-0.0050489297
168	0xbcfed1d0	-0.031105906
169	0x3e91effd	0.2850341
170	0xbe385e10	-0.18004632
171	0x3d456652	0.048193283
172	0x3d08a5e1	0.03336132
173	0xbd1a7519	-0.03770933
174	0xbd906015	-0.07049576
175	0xbe51396f	-0.20432065
176	0x3d9c435c	0.07630035
177	0x3e325c3c	0.17417997
178	0xbe7025f0	-0.23451972
179	0xbe0a3bf1	-0.13499428
180	0xbbb9d61e	-0.0056712767
181	0x3c9c9721	0.019115033
182	0x3d3248c9	0.043526445
183	0xbecee8e6	-0.40412062
184	0x3d980da9	0.074244805
185	0xbdcf1a11	-0.10112394
186	0xbe59068c	-0.21193904
187	0x3db3da28	0.087818444
188	0x3dd48650	0.103771806
189	0xbcd76919	-0.026295232
190	0xbc386f14	-0.011256952
191	0x3d62be1a	0.055357076

stu.hidden.0.stu.M_phi_plus f4 [8, 16, 8]
0	0x3f8252e6	1.0181549
1	0x3d8b3a76	0.0679826
2	0x3f01862b	0.5059535
3	0x3e158e67	0.14605103
4	0x3e5e816e	0.21729061
5	0xbf438183	-0.76369494
6	0xbf042e8b	-0.5163352
7	0x3f9651ff	1.1743773
8	0x3ee09749	0.4386542
9	0x3e589244	0.21149546
10	0x3f0a9326	0.5413078
11	0x3e6f2e9f	0.23357628
12	0xbe138643	-0.14406686
13	0xbf6d7421	-0.92755324
14	0xbf091e85	-0.53562194
15	0x3f745acb	0.9545104
16	0xbe46eb3d	-0.19425674
17	0x3f380698	0.7188506
18	0xbe93e201	-0.28883365
19	0x3da0814a	0.0783716
20	0xbf3e1117	-0.7424483
21	0xbed0105f	-0.4063749
22	0xbeaba1f5	-0.33522
23	0x3f3a19d0	0.72695637
24	0x3f9263ec	1.1436744
25	0xbd99e856	-0.07515018
26	0x3f736ddf	0.95089525
27	0xbdb8f6dd	-0.090314604
28	0x3ee60ba4	0.44930756
29	0xbf73e1e2	-0.95266545
30	0xbc961b00	-0.018323421
31	0x3f987172	1.1909621
32	0xbda997b9	-0.08280892
33	0xbf76a3a5	-0.9634345
34	0x3ef1dedc	0.4724034
35	0xbf31a651	-0.69394404
36	0x3f4f6c45	0.8102458
37	0xbdaaccd8	-0.08339852
38	0x3ee2875b	0.44243893
39	0xbf766b84	-0.96257806
40	0xbf0916f4	-0.5355065
41	0xbf248081	-0.6425858
42	0xbd14b92e	-0.036309414
43	0xbe96131f	-0.29311463
44	0x3e9bb59a	0.30411988
45	0x3e934fe4	0.2877189
46	0xbe10b896	-0.14132914
47	0xbf588647	-0.8457989
48	0x3cbfa8c1	0.023395898
49	0xbe770e35	-0.24126513
50	0xbf063efc	-0.52439857
51	0x3d872c1e	0.066002116
52	0x3e16f19e	0.14740607
53	0x3f20d6eb	0.6282794
54	0xbdda5acf	-0.106618516
55	0xbe9f7f8a	-0.31151992
56	0xbd8f5b33	-0.06999817
57	0x3ea7984d	0.32733384
58	0xbed80528	-0.42191434
59	0x3f33bd33	0.7021057
60	0xbe91ff06	-0.2851488
61	0x3e00ac77	0.1256579
62	0xbec23491	-0.3793073
63	0x3e00a645	0.12563427
64	0xbf6311c8	-0.8869901
65	0x3e8c4212	0.27394158
66	0x3e815536	0.25260323
67	0x3f13bda1	0.57711226
68	0xbf83553e	-1.0260389
69	0xbe757f23	-0.2397428
70	0xbe904411	-0.2817693
71	0xbd1d11d5	-0.038347084
72	0xbf111a38	-0.5668063
73	0xbea42916	-0.32062596
74	0x3f2a5d26	0.66548383
75	0xbdfbecf5	-0.12301055
76	0xbf639810	-0.88903904
77	0xbdf80435	-0.121101774
78	0xbdc28f60	-0.09500003
79	0xbec3dc3f	-0.38253972
80	0xbac0ac39	-0.0014699764
81	0xbf18a809	-0.596314
82	0x3f02c64f	0.51083845
83	0xbec06abf	-0.3758144
84	0xbef5a70f	-0.47979018
85	0x3c056589	0.008141884
86	0xbe2c3e45	-0.16820629
87	0x3c66a1eb	0.01407669
88	0x3e20e0aa	0.15710703
89	0xbec6fa7c	-0.3886298
90	0x3edb5dbe	0.42844957
91	0xbe79227d	-0.24329562
92	0xbd77dbfa	-0.06051252
93	0xbe144abf	-0.14481638
94	0x3dbec633	0.09315147
95	0x3dfef47c	0.124489754
96	0x3cd9c3a5	0.026582548
97	0xbe939f67	-0.28832552
98	0x3e122154	0.14270526
99	0xbd8ced39	-0.06881184
100	0x3e04de41	0.12975408
101	0x3df15533	0.117838286
102	0x3e7fec54	0.24992496
103	0xbe1f2b04	-0.15543753
104	0xbd8b51d5	-0.068027176
105	0xbd34bda3	-0.044126164
106	0x3ce2e37b	0.027696362
107	0x3dd87646	0.10569434
108	0xbe1d4a4d	-0.15360375
109	0xbc086519	-0.008324885
110	0x3d39f182	0.045396335
111	0x3e92a6e3	0.2864295
112	0xbe90082a	-0.2813123
113	0x3e55028a	0.2080175
114	0xbd31dafc	-0.04342173
115	0x3d9b2688	0.07575709
116	0x3dbf4052	0.0933844
117	0xbec79e37	-0.38987896
118	0xbd97f744	-0.07420209
119	0xbdc25af0	-0.09490001
120	0xbedb7e79	-0.42869928
121	0x3da153d7	0.07877319
122	0x3d0ae7c3	0.03391243
123	0x3bb0d35d	0.00539629
124	0x3e091c65	0.13389738
125	0xbd05a4c2	-0.03262783
126	0xbb6ade1c	-0.0035837954
127	0xbd8b2b3d	-0.067953564
128	0x3eaec6f4	0.34136164
129	0xbe3ef2c0	-0.1864729
130	0x3ec4698b	0.38361773
131	0x3e6df1ce	0.23236772
132	0xbea195d8	-0.31559634
133	0xbf25f80b	-0.6483161
134	0xbf1e19e1	-0.6175824
135	0x3f072801	0.52795416
136	0x3eba671b	0.36406788
137	0xbd90792d	-0.070543624
138	0x3f1e9d19	0.6195846
139	0x3c96bec8	0.018401518
140	0xbed9fc7f	-0.42575452
141	0xbf7992b0	-0.9748945
142	0xbf53c143	-0.8271677
143	0x3ec95607	0.39323446
144	0xbf17e22f	-0.59329504
145	0x3f80cb7a	1.0062096
146	0xbf48431e	-0.7822741
147	0x3f086912	0.53285325
148	0xbf660847	-0.8985638
149	0x3ee80b53	0.4532114
150	0xbf1d7785	-0.615105
151	0xbdff1d03	-0.124567054
152	0x3f6cecdf	0.92548937
153	0xbe882c15	-0.26596132
154	0x3f48517c	0.78249335
155	0xbd9281ae	-0.07153641
156	0xbca09b01	-0.019605162
157	0xbfa0bdb7	-1.2557896
158	0xbedf6aa8	-0.4363606
159	0x3f4f4cbc	0.8097646
160	0x3edf3156	0.43592328
161	0xc012d507	-2.2942522
162	0x3f7c3c52	0.9852954
163	0xbfd13221	-1.6343423
164	0x3fa6bafd	1.3025814
165	0x3d2b3a3e	0.04180359
166	0x3f54b1bc	0.830837
167	0xbedbd37a	-0.4293478
168	0xbe530bba	-0.20609942
169	0xbfa4b6ba	-1.2868264
170	0x3e300ab2	0.1719158
171	0xbf31c438	-0.6944003
172	0x3f8b1e0b	1.0868543
173	0x3f1eb59f	0.6199588
174	0x3ea522f1	0.3225322
175	0xbf7c44b8	-0.98542356
176	0xbf6512a5	-0.89481574
177	0x3dd26976	0.10274021
178	0xbf1dabbe	-0.6159018
179	0x3e1fb273	0.15595417
180	0x3ce0a1e6	0.02742095
181	0x3f2269a5	0.6344245
182	0x3c51b8ea	0.012800435
183	0xbf861878	-1.0476217
184	0xbf5f75a0	-0.87288857
185	0x3ef48214	0.47755492
186	0xbe59f315	-0.21284135
187	0x3f5dbc38	0.86615324
188	0xbf5a7bdb	-0.8534524
189	0x3db96ee0	0.09054351
190	0xbe9883c3	-0.29788026
191	0xbe3166c3	-0.17324357
192	0xbe4d8a0d	-0.20072193
193	0x3d78b48d	0.06071906
194	0x3e4b50f7	0.19855104
195	0x3ed872ae	0.42274994
196	0xbf9a168e	-1.2038133
197	0xbee3a9d1	-0.44465497
198	0xbebdab00	-0.37044525
199	0x3e8bc0b6	0.27295464
200	0xbe6e75d2	-0.23287132
201	0xbea30494	-0.3183943
202	0x3f8bd2a4	1.0923657
203	0x3c1a55a5	0.009419833
204	0xbefc2a09	-0.4925082
205	0xbf04a800	-0.5181885
206	0xbe15146a	-0.14558569
207	0x3ed4b226	0.41542166
208	0xbd886881	-0.066605575
209	0xbee4b67d	-0.44670478
210	0x3f059fcd	0.5219696
211	0xbe464634	-0.19362718
212	0xbdf93479	-0.121682115
213	0xbe7c2dc0	-0.24626827
214	0xbda3fc3b	-0.080070935
215	0x3e4387c8	0.19094765
216	0xbe86ca55	-0.26326242
217	0xbea704cf	-0.32620856
218	0x3d3849de	0.04499232
219	0xbd6c3b71	-0.057673875
220	0x3a568f94	0.0008184847
221	0x3d2634cb	0.04057769
222	0xbe0f43a9	-0.13990654
223	0xbd2da0a8	-0.042389542
224	0xbe5f6c4a	-0.21818653
225	0xbdf898c8	-0.12138516
226	0xbdf58ade	-0.119893774
227	0xbe16f461	-0.1474166
228	0x3d0b4bcc	0.034007832
229	0x3e6aaa12	0.22916439
230	0xbb00f9f6	-0.0019680238
231	0x3d4a6dcd	0.04942112
232	0x3dd33767	0.103133015
233	0xbd2683e4	-0.040653124
234	0x3cf7ad8d	0.030234123
235	0x3dddba44	0.10826543
236	0xbd09ca01	-0.03363991
237	0xbed06b43	-0.40706834
238	0xbdaa7154	-0.08322397
239	0xbe03208e	-0.12805387
240	0xbdaedd70	-0.085383296
241	0x3d0c6e74	0.034285024
242	0x3df306e4	0.11866549
243	0xbd2c11f4	-0.04200931
244	0x3d55d249	0.052202497
245	0x3e5359fb	0.20639794
246	0x3db0e4b1	0.086373694
247	0x3d8fb101	0.07016183
248	0x3e1a5944	0.15073115
249	0xbe27ca52	-0.16385773
250	0xbda2d166	-0.07950096
251	0xbc46746c	-0.012112718
252	0x3dc16e24	0.09444836
253	0x3e67fee7	0.22655831
254	0x3cef997b	0.02924799
255	0x3deca376	0.11554615

stu.hidden.0.stu.M_phi_minus f4 [8, 16, 8]
0	0xbe10292a	-0.14078203
1	0xbf3579aa	-0.7088877
2	0x3eb42f52	0.35192353
3	0xbbb42f8a	-0.005498831
4	0x3f457a81	0.7714005
5	0xbec48560	-0.38383007
6	0x3e56c2b7	0.20972715
7	0xbd97246f	-0.07379996
8	0xbe49cd44	-0.19707209
9	0xbec64939	-0.3872774
10	0x3e275291	0.1634009
11	0x3daaccf9	0.08339877
12	0xbc795c10	-0.015219703
13	0xbe8befa4	-0.2733127
14	0x3cf91a0b	0.030407926
15	0x3f9ae2c8	1.2100458
16	0xbe9aa049	-0.30200413
17	0xbe08b42c	-0.1334998
18	0x3d01f372	0.03172631
19	0x3e606af9	0.21915807
20	0xbe66ff30	-0.22558284
21	0xbd09b350	-0.03361827
22	0xbe7684d8	-0.24074113
23	0x3f721cf9	0.9457546
24	0xbe074fe5	-0.13214071
25	0xbf507203	-0.8142397
26	0x3e95e4c1	0.29276088
27	0x3e72521e	0.23664138
28	0x3ed1c1f3	0.40968284
29	0xbf48974c	-0.7835586
30	0xbd066773	-0.0328135
31	0x3e24ab84	0.16081053
32	0xbcdbbf00	-0.026824474
33	0xbb527286	-0.0032111718
34	0xbdd66ad5	-0.10469595
35	0x3ee533c8	0.44766068
36	0x3f06f8d0	0.5272341
37	0x3ebe252d	0.37137738
38	0xbe8a6e67	-0.27037355
39	0xbe58eab6	-0.21183285
40	0x3c536bd4	0.012904126
41	0x3ef87b10	0.4853139
42	0xbe1d32f6	-0.15351471
43	0xbd77f4aa	-0.060536064
44	0xbe8dad70	-0.27671385
45	0x3d75bb6d	0.059993196
46	0x3e5365fe	0.20644376
47	0x3ecb42d5	0.39699426
48	0x3eb8db7f	0.36104962
49	0x3e529f5d	0.20568605
50	0xbe04d014	-0.1297
51	0x3e8adf1e	0.2712335
52	0xbea50404	-0.32229626
53	0xbe3d1d3f	-0.18468188
54	0xbe898fd6	-0.2686755
55	0xbf0d3b02	-0.55168164
56	0xbe9b2a67	-0.30305788
57	0xbee32498	-0.44363856
58	0x3eb9688a	0.3621257
59	0xbe458921	-0.19290592
60	0xbeb4b8f5	-0.3529736
61	0xbe0a1698	-0.13485181
62	0xbe100193	-0.140631
63	0x3ecebbe3	0.4037772
64	0xbe6b4f74	-0.22979528
65	0xbe13ed0c	-0.14445895
66	0xbd0956dc	-0.0335301
67	0xbe0da40c	-0.1383211
68	0xbdda5162	-0.10660054
69	0x3e8d5f2a	0.27611667
70	0x3e6cd1e4	0.23126942
71	0xbf163641	-0.58676535
72	0xbd16de50	-0.036833107
73	0x3ca2fa21	0.019894661
74	0xbe303268	-0.17206728
75	0xbd38f00b	-0.045150798
76	0x3de8d62c	0.11368975
77	0xbe746638	-0.23867118
78	0xbe651816	-0.2237247
79	0x3dfaca97	0.12245672
80	0x3e7fe069	0.2498795
81	0x3ca89386	0.020578157
82	0xbe8cdf40	-0.27514076
83	0x3eb175c0	0.3466015
84	0x3e7e59cf	0.24838947
85	0x3e1546a2	0.14577726
86	0xbe9a0a3f	-0.30085942
87	0x3d0814b9	0.033222888
88	0xbe5337c0	-0.20626736
89	0x3e9915da	0.29899484
90	0xbc4f4eec	-0.012653094
91	0xbd1ad2b8	-0.037798613
92	0x3e60990d	0.21933384
93	0xbd981c97	-0.07427328
94	0x3f064168	0.5244355
95	0x3ddca88e	0.10774337
96	0xbed09076	-0.40735215
97	0x3dfb0499	0.12256736
98	0xbe9480a3	-0.29004392
99	0x3e8960a5	0.26831546
100	0x3da1bca2	0.07897307
101	0xbcf404e0	-0.02978748
102	0x3d9fe1f3	0.07806768
103	0xbe6a66b2	-0.22890738
104	0x3ea38b4e	0.3194222
105	0xbd99d049	-0.0751043
106	0x3df5ff10	0.1201154
107	0xbe5eccde	-0.21757838
108	0xbd300d54	-0.04298146
109	0xbda82040	-0.08209276
110	0x3dd846a1	0.105603464
111	0xbcff1a71	-0.031140538
112	0x3e553f4c	0.20824927
113	0x3e9c192b	0.30487952
114	0xbd98a16f	-0.07452666
115	0x3e09fa5b	0.1347441
116	0x3e8f860d	0.2803196
117	0x3ddfaaea	0.10921271
118	0xbe2889c2	-0.164588
119	0xbdd44274	-0.103642374
120	0x3d194cd3	0.03742678
121	0x3de20b53	0.11037316
122	0xbdbb6780	-0.091506004
123	0x3d121891	0.03566796
124	0x3e52214c	0.20520514
125	0x3d15e625	0.036596436
126	0xbdb32ae0	-0.08748412
127	0xbdf9cb2d	-0.12196956
128	0xbee0cbc2	-0.43905455
129	0xbeb2bfbb	-0.34911904
130	0x3e756e80	0.23967934
131	0x3d9fbd2f	0.07799756
132	0x3ef2736c	0.47353685
133	0xbd09dd99	-0.033658598
134	0x3e20f42b	0.15718143
135	0xbe796128	-0.24353468
136	0x3ec6e45d	0.38846102
137	0xbe998cb8	-0.29990172
138	0xbe9fb3ea	-0.3119195
139	0xbef9086c	-0.48639238
140	0x3f6bb76a	0.9207674
141	0x3dce786f	0.10081565
142	0x3f035985	0.5130847
143	0xbccea4f7	-0.025225146
144	0xbdc62d13	-0.09676566
145	0xbda620e2	-0.08111741
146	0xbe415b0c	-0.18882388
147	0x3c8d4abb	0.017247548
148	0x3cb04fc1	0.021522405
149	0x3da10ca2	0.07863738
150	0x3dacab4a	0.08431108
151	0x3e03061f	0.12795304
152	0xbe2d9493	-0.16951208
153	0xbf1f01ad	-0.6211193
154	0x3e2cbdf1	0.16869332
155	0xbe7bba07	-0.24582683
156	0x3f203bce	0.62591255
157	0x3c0dfe2c	0.008666556
158	0xbc0ac9e6	-0.008470988
159	0xbf47a2a8	-0.7798257
160	0x3e1da9fc	0.15396875
161	0xbd2cac47	-0.042156484
162	0x3dd8de05	0.10589222
163	0x3e8d688f	0.27618834
164	0xbe0abba3	-0.1354814
165	0x3c188138	0.009308152
166	0xbe62bd47	-0.22142516
167	0x3d59d4ae	0.053181343
168	0x3e064efa	0.13116065
169	0x3e519eb4	0.20470697
170	0xbe41c126	-0.18921337
171	0x3da4a1ee	0.08038698
172	0xbe34d01c	-0.17657512
173	0xbdd6a143	-0.10479977
174	0x3d7ed3ff	0.062213894
175	0xbe5a8aca	-0.21342006
176	0xbdd94bf2	-0.106101885
177	0x3ec3deda	0.3825596
178	0xbd20f67b	-0.039297562
179	0x3e9c758f	0.3055844
180	0xbe08667f	-0.13320349
181	0xbe08f70b	-0.1337549
182	0xbe4a707b	-0.1976947
183	0x3db3e29e	0.08783458
184	0x3d480ef4	0.048842385
185	0xbea46a5c	-0.32112396
186	0x3ef8e8a6	0.48614997
187	0x3e42517e	0.189764
188	0xbecd1eff	-0.4006271
189	0xbe4bd396	-0.19904932
190	0xbd3cb8bb	-0.04607461
191	0x3e91f1a0	0.28504658
192	0xbea634de	-0.3246221
193	0xbdedf13d	-0.11618278
194	0x3d25fcde	0.040524356
195	0xbf2c1c0c	-0.67230296
196	0x3d940ae7	0.07228642
197	0x3e204343	0.15650658
198	0x3f1dc84d	0.6163376
199	0xbef4900c	-0.4776615
200	0xbe12239c	-0.14271396
201	0xbebc3dc8	-0.36765885
202	0xbdc3e0ec	-0.09564385
203	0xbd335ed1	-0.043791596
204	0x3d8d1959	0.068896
205	0xbd882226	-0.06647138
206	0xbe723d66	-0.23656234
207	0x3e7262f8	0.23670566
208	0x3ec522fa	0.38503247
209	0x3c255186	0.0100902375
210	0xbeb5baa0	-0.35493946
211	0xbc4893c4	-0.012242261
212	0x3e438690	0.190943
213	0xbdd5a195	-0.1043121
214	0xbe1c10a3	-0.15240721
215	0x3e9fe1b1	0.31226876
216	0x3db70208	0.08935934
217	0x3e0fb5f8	0.1403426
218	0xbd0c32f5	-0.034228284
219	0xbd6d9598	-0.05800399
220	0x3ead2b2d	0.33822003
221	0x3d0224b4	0.031773284
222	0x3ed3e830	0.41388083
223	0xbe220f7a	-0.15826216
224	0xbd150f31	-0.03639144
225	0x3dce291c	0.10066435
226	0xbe5e048a	-0.21681419
227	0xbe0e4689	-0.13894095
228	0x3dd20ada	0.10255976
229	0x3def8d23	0.116968416
230	0x3ca8f18e	0.020622995
231	0x3e86b09a	0.2630661
232	0xbd99830a	-0.07495697
233	0x3e7b2b36	0.24528202
234	0x3e5b17ee	0.21395847
235	0x3d22e90a	0.039773025
236	0xbcd55980	-0.026043653
237	0xbe11e2fd	-0.14246745
238	0x3dd3b1ca	0.10336645
239	0xbdd9f84a	-0.106430605
240	0x3eb0918a	0.34486037
241	0x3ec80859	0.3906887
242	0xbd799370	-0.060931623
243	0x3e059a60	0.1304717
244	0x3e7d605d	0.24743791
245	0xbe1cc96a	-0.15311208
246	0x3daa6974	0.08320895
247	0xbe11cc36	-0.14238057
248	0x3d8acdf4	0.06777564
249	0x3e890c43	0.26767167
250	0xbdc452b9	-0.095860906
251	0xbda6a935	-0.081377424
252	0x3e26c319	0.16285361
253	0x3aaa2562	0.0012981112
254	0x3bcd91b6	0.0062734736
255	0xbdd5dd34	-0.10442582

stu.hidden.0.rn_2.weight f4 [8]
0	0x3f6bf91a	0.92176974
1	0x3f77fc4c	0.9686935
2	0x3f78666c	0.97031283
3	0x3f6408b3	0.89075774
4	0x3f7c7e16	0.9862989
5	0x3ed9e739	0.4255922
6	0x3efd7813	0.49505672
7	0x3ef52767	0.47881624

stu.hidden.0.mlp.swiglu.w.weight f4 [32, 8]
0	0xbede2093	-0.43384227
1	0xbeac5778	-0.33660483
2	0x3f5e2784	0.86779046
3	0xbe830eb4	-0.25597155
4	0xbf1c6290	-0.61087894
5	0xbe225fe2	-0.15856889
6	0x3dea00e0	0.11425948
7	0xbd7c15e6	-0.06154432
8	0x3df9d12d	0.121981
9	0x3eb984a3	0.36234006
10	0xbe267c9a	-0.16258469
11	0x3da9ce2c	0.08291277
12	0xbf2bbab7	-0.6708178
13	0x3ec12caf	0.37729403
14	0xbe2eab85	-0.17057617
15	0x3ebb901e	0.3663339
16	0x3ea3675b	0.3191479
17	0x3e7d1313	0.24714307
18	0xbe7f5132	-0.24933317
19	0x3e940f08	0.28917718
20	0xbc17d31c	-0.009266641
21	0x3c64668b	0.013940464
22	0x3eb7d770	0.35906553
23	0xbcfa4ed9	-0.030555176
24	0xbdf69776	-0.12040608
25	0x3d85f0dd	0.06540082
26	0x3e93c9c2	0.28864866
27	0xbdf58391	-0.11987985
28	0x3c94289e	0.018085774
29	0xbc8de4f3	-0.017321086
30	0x3e839e56	0.25706738
31	0x3df1c36c	0.11804852
32	0x3de7c153	0.113161705
33	0xbe94e122	-0.29078013
34	0xbeba2460	-0.36355877
35	0xbe16f36a	-0.14741293
36	0xbb532f20	-0.0032224134
37	0xbd22dc2a	-0.039760746
38	0x3ed3097b	0.4121817
39	0xbe25d603	-0.1619492
40	0x3e54e1cb	0.20789258
41	0xbe3a9d54	-0.18224078
42	0x3ee83866	0.4535553
43	0xbf2ffc40	-0.6874428
44	0xbe63682d	-0.22207709
45	0x3e798fdc	0.24371284
46	0x3e220df1	0.1582563
47	0x3d931a9c	0.0718281
48	0xbdca3dc1	-0.0987506
49	0x3e55f5d1	0.20894553
50	0x3ee446a4	0.44585145
51	0x3e67901b	0.22613566
52	0x3ea85493	0.32877025
53	0xbd44b981	-0.048028473
54	0x3d9895cf	0.07450449
55	0x3e601c53	0.21885805
56	0xbdf4329b	-0.11923715
57	0x3dabcb71	0.08388413
58	0x3e22b5b1	0.15889622
59	0xbe443a27	-0.19162808
60	0x3e02309d	0.12713857
61	0x3e644d4e	0.22295114
62	0x3ea51834	0.32245028
63	0xbec69b48	-0.38790345
64	0xbdbf1564	-0.09330252
65	0x3e071c33	0.13194351
66	0x3dbb7fc5	0.091552295
67	0xbd330a60	-0.043711066
68	0xbeac9ff1	-0.33715776
69	0xbcfdadb0	-0.03096661
70	0x3db5aa5c	0.08870384
71	0x3ea93235	0.33046117
72	0x3ebb4948	0.36579347
73	0x3e39eadf	0.18156002
74	0xbdaa1923	-0.08305576
75	0xbe9d34fb	-0.30704483
76	0x3f0785a2	0.5293828
77	0xbde22487	-0.11042123
78	0xbd97500f	-0.07388317
79	0x3e872a44	0.26399434
80	0x3d97ab2e	0.07405697
81	0x3e1063a6	0.14100513
82	0x3e0c7a39	0.13718499
83	0xbe71e72e	-0.23623344
84	0x3c9cfe87	0.019164337
85	0x3c74ba76	0.014937034
86	0x3c27b09e	0.01023498
87	0xbd016fbf	-0.03160071
88	0xbcaca68f	-0.021075515
89	0xbe36b7d5	-0.17843564
90	0xbdc519a7	-0.096240334
91	0xbe134b52	-0.14384201
92	0xbe9fac3b	-0.3118609
93	0x3e4df06f	0.2011125
94	0x3e139437	0.14412008
95	0xbd6ec9be	-0.058297865
96	0x3e382bc9	0.17985453
97	0x3ebb5ceb	0.36594328
98	0xbe470e11	-0.1943896
99	0x3e5c3aa7	0.21506749
100	0x3e0298b3	0.12753563
101	0xbf06a56b	-0.5259616
102	0xbeee2243	-0.46510515
103	0xba82be25	-0.000997488
104	0xbdae8b09	-0.085226126
105	0x3eb827ba	0.3596781
106	0xbe6566c2	-0.2240248
107	0x3e033a79	0.12815274
108	0x3dd24b0f	0.102682225
109	0xbd9e5468	-0.07730943
110	0x3e16c509	0.147236
111	0x3e86af7a	0.26305753
112	0x3e5becf6	0.21477112
113	0xbe5183b8	-0.20460403
114	0xbde010eb	-0.10940727
115	0xbe4108b0	-0.1885097
116	0x3ed341d1	0.4126115
117	0xbb980835	-0.00463965
118	0xbdcf3f59	-0.101195045
119	0x3d6f6076	0.0584416
120	0xbe26d588	-0.16292393
121	0x3e065331	0.13117673
122	0xbc23caf0	-0.009997115
123	0xba469820	-0.0007575769
124	0x3e70a516	0.23500475
125	0xbe12d580	-0.14339256
126	0xbed37e61	-0.41307357
127	0x3cdae273	0.026719308
128	0x3d60962d	0.05483072
129	0x3f174a1f	0.59097475
130	0x3f01a98d	0.5064934
131	0xbe910245	-0.28322044
132	0xbe5a2bbc	-0.21305746
133	0xbe581a31	-0.21103741
134	0x3d085861	0.03328741
135	0x3e0cd9fd	0.13755031
136	0xbe348531	-0.17628933
137	0x3d5b8236	0.053590976
138	0x3c7333ec	0.014843922
139	0xbcc0ce2c	-0.02353581
140	0x3e170f2a	0.14751878
141	0x3e00b2b8	0.12568176
142	0xbd0450f3	-0.03230376
143	0x3d445ea7	0.04794183
144	0x3e7c7971	0.24655701
145	0x3d1e00ca	0.03857497
146	0xbd1a65ad	-0.03769462
147	0xbec913eb	-0.3927301
148	0x3f07c95f	0.5304164
149	0x3d8fb6fa	0.07017322
150	0x3ef48341	0.4775639
151	0x3e7fd058	0.2498182
152	0xbe96b22b	-0.29432806
153	0x3f142bf4	0.5787957
154	0x3d8d8229	0.06909592
155	0x3f26832d	0.6504391
156	0xbd54f2b2	-0.051989265
157	0xbe2d9e68	-0.16954958
158	0xbd3174b4	-0.043324187
159	0xbdfc805f	-0.12329172
160	0xbd8fbb1e	-0.07018112
161	0x3ec14d29	0.3775418
162	0xbce31f7f	-0.02772498
163	0x3d2b0972	0.041757055
164	0x3cebd5fa	0.028788555
165	0x3d9eebf5	0.07759849
166	0xbbf28797	-0.0074014175
167	0x3d0c6081	0.03427172
168	0x3e75d7b5	0.24008067
169	0x3daae74e	0.08344899
170	0xbd844190	-0.064578176
171	0x3eb0933c	0.3448733
172	0xbed9cdf7	-0.4253995
173	0x3e6ec90f	0.23318885
174	0x3c4a6ca0	0.012355
175	0x3e3e9492	0.18611363
176	0xbc7c4a61	-0.015398593
177	0x3c073537	0.0082524335
178	0x3ee31543	0.4435216
179	0xbe15abd9	-0.14616336
180	0x3e7020c5	0.2345
181	0xbdc1f862	-0.094712034
182	0x3ede0a0f	0.4336705
183	0xbeae162b	-0.34001288
184	0x3dd972b6	0.106175825
185	0x3e0d4b74	0.13798314
186	0x3e8d8f65	0.27648464
187	0x3e4cf293	0.2001441
188	0x3f0e62a0	0.5561924
189	0xbe51296c	-0.20425957
190	0xbe967a85	-0.2939035
191	0x3e98a259	0.2981136
192	0xbe6f521d	-0.23371167
193	0x3d7fb475	0.062427957
194	0x3e9d4ad3	0.3072115
195	0x3ec431df	0.383193
196	0x3ed2b596	0.41154164
197	0xbcd6429c	-0.026154809
198	0xbd16b4c0	-0.03679347
199	0x3e02b07a	0.12762633
200	0x3ec42259	0.38307455
201	0xbd21af5f	-0.039473888
202	0x3c6bbe75	0.01438867
203	0xbe7526e1	-0.23940612
204	0x3f3d0f20	0.73851204
205	0x3e240b10	0.16019845
206	0x3eae3ea8	0.34032178
207	0x3e54199f	0.20712899
208	0x3dadcdf6	0.084865496
209	0x3e1ac645	0.15114696
210	0x3d16e496	0.03683909
211	0xbd2abc1a	-0.041683294
212	0xbdcff424	-0.10153988
213	0x3c4de24f	0.012566163
214	0x3e43e285	0.19129379
215	0x3eb3d00e	0.3511967
216	0xbd8f0ea6	-0.06985216
217	0xbd81dcde	-0.06340955
218	0xbe0cf3eb	-0.13764922
219	0xbf2ab279	-0.6667858
220	0x3e046994	0.129309
221	0x3eff4641	0.49858287
222	0x3f75df6e	0.9604405
223	0xbf1d50e7	-0.6145157
224	0x3e153a1c	0.14572948
225	0x3eb45076	0.35217637
226	0x3f25a577	0.64705604
227	0x3d395780	0.045249462
228	0xbcb0b17c	-0.021569006
229	0x3d971d82	0.07378675
230	0x3e61db61	0.22056343
231	0x3ecd3010	0.4007573
232	0xbeb29d2c	-0.34885538
233	0x3efd089b	0.49420628
234	0x3d21a54f	0.03946429
235	0x3ed40d9d	0.41416636
236	0xbb2eb0c8	-0.0026655663
237	0xbe900658	-0.2812984
238	0x3e0c7cbc	0.13719457
239	0x3dadbf8f	0.084838025
240	0x3ddd245b	0.1079795
241	0x3e931b06	0.28731555
242	0xbd29049e	-0.04126417
243	0xbde9debc	-0.11419436
244	0xbe726914	-0.23672897
245	0x3e01465a	0.12624493
246	0x3de79420	0.113075495
247	0xbe16c1cb	-0.14722364
248	0x3ea529e5	0.32258525
249	0x3c449dde	0.012000529
250	0xbe9c0ef6	-0.30480164
251	0xbed51aeb	-0.416221
252	0xba5b9c48	-0.0008377475
253	0xbd55455e	-0.052068107
254	0x3e491a77	0.19639002
255	0xbe316669	-0.17324223

stu.hidden.0.mlp.swiglu.v.weight f4 [32, 8]
0	0x3c563fa4	0.013076697
1	0x3f2fad96	0.68624246
2	0xbf08b6b3	-0.53403777
3	0x3f2fd5cc	0.68685603
4	0x3ef81d85	0.48460022
5	0xbce7c40e	-0.028291728
6	0xbe3ffb21	-0.18748142
7	0xbd635d46	-0.055508874
8	0x3d2342bf	0.039858576
9	0xbdcea7ab	-0.10090574
10	0xbd8ca784	-0.068678886
11	0xbf337ec8	-0.7011533
12	0x3f32393d	0.6961859
13	0xbde9edbc	-0.11422297
14	0xbc761047	-0.015018529
15	0x3e777be7	0.24168359
16	0x3ec58bab	0.3858312
17	0x3e15c3e4	0.14625508
18	0xbf07482b	-0.52844495
19	0x3d49e9a0	0.049295068
20	0x3df971bb	0.121798955
21	0x3e256de9	0.16155209
22	0xbda2206e	-0.07916342
23	0xbddf146d	-0.10892568
24	0xbd828985	-0.06373886
25	0xbe0d2989	-0.13785376
26	0xbed56b4f	-0.41683432
27	0xbe3b9c5a	-0.18321362
28	0xbe88327e	-0.26601022
29	0x3e367843	0.17819314
30	0xbe442683	-0.19155316
31	0x3d18622b	0.037202995
32	0x3d2a42bc	0.04156755
33	0x3e476dcb	0.19475476
34	0x3e802832	0.25030667
35	0x3db5d8a1	0.08879209
36	0xbebfba0b	-0.37446627
37	0xbd96671a	-0.07343884
38	0x3dc30d3c	0.09524009
39	0x3e656da1	0.22405101
40	0xbe51b508	-0.20479214
41	0x3dbe5163	0.09292867
42	0xbe5259be	-0.20542046
43	0x3e20ceee	0.15703937
44	0x3e0599d4	0.13046962
45	0xbe4a8df1	-0.19780709
46	0x3e9c1765	0.304866
47	0x3dde9a79	0.10869307
48	0x3ad27fbf	0.00160598
49	0x3df2f773	0.118636034
50	0xbdf84c6b	-0.121239506
51	0x3da35637	0.079754286
52	0x3eea9c27	0.4582226
53	0xbda743cb	-0.08167227
54	0xbdb13cf8	-0.08654207
55	0x3dc7ab36	0.09749453
56	0xbe739a1c	-0.23789257
57	0xbdcfdc35	-0.10149423
58	0xbca03596	-0.019556802
59	0x3e8c0a55	0.27351633
60	0xbe3c1744	-0.1836825
61	0xbe438b91	-0.19096209
62	0x3d46a144	0.04849364
63	0x3ea1caa6	0.3159992
64	0xbed931ad	-0.42420712
65	0xbe328af9	-0.17435826
66	0xbe739afc	-0.2378959
67	0xbd10d242	-0.035356767
68	0x3e574c02	0.21025088
69	0x3dc1ca82	0.094624534
70	0xbcda8476	-0.02667449
71	0x3c02719e	0.007961659
72	0x3dfecec2	0.1244178
73	0xbe9e6761	-0.30938247
74	0x3ef48139	0.4775484
75	0xbeadd351	-0.33950284
76	0xbd9e6119	-0.07733364
77	0xbe2e0817	-0.16995274
78	0xbe57ef1a	-0.21087304
79	0x3e4d4202	0.20044711
80	0xbe0f7b03	-0.14011769
81	0xbe313031	-0.1730354
82	0xbcc5b3e6	-0.024133634
83	0xbc87eb37	-0.016591651
84	0x3e160791	0.14651324
85	0xbd97bfe2	-0.074096456
86	0xbda849e0	-0.082172155
87	0xbe26f3ed	-0.16303988
88	0x3e041d59	0.1290182
89	0xbc095f5e	-0.008384554
90	0x3e8c27d2	0.2737413
91	0x3e655999	0.2239746
92	0x3ebaa1aa	0.36451465
93	0xbe0a5be9	-0.13511623
94	0xbe44adbb	-0.19206898
95	0x3d9dc53e	0.077036366
96	0xbf0fc5e1	-0.56161314
97	0x3e08954f	0.13338207
98	0x3eb0e35b	0.34548458
99	0x3e9453cf	0.2897019
100	0xbd363fbe	-0.044494383
101	0xbdae4f44	-0.085112125
102	0x3e928704	0.28618634
103	0x3d8eceeb	0.0697306
104	0xbe0430a9	-0.12909187
105	0x3f189121	0.5959645
106	0xbe04392d	-0.12912436
107	0x3e2877d4	0.16451961
108	0x3e761ce2	0.24034455
109	0xbe2f759c	-0.17134708
110	0x3e97cf19	0.2965019
111	0x3e6d52a4	0.23176056
112	0x3e176554	0.14784747
113	0x3e2cdfbf	0.16882227
114	0xbe760d64	-0.24028546
115	0x3ddb1d9a	0.106990054
116	0xbe724927	-0.23660718
117	0x3d9b0b89	0.075705595
118	0xbe609379	-0.21931256
119	0x3e352cfb	0.1769294
120	0xbdd70d7d	-0.105006196
121	0xbe1c6feb	-0.15277068
122	0xbd94c154	-0.07263437
123	0xbe1566f9	-0.14590062
124	0xbd9fa09b	-0.07794305
125	0x3cbc3d72	0.022978518
126	0xbe836801	-0.25665286
127	0xbdd5b200	-0.104343414
128	0xbecf0756	-0.40435284
129	0x3e169d35	0.14708407
130	0x3e98bf2f	0.29833362
131	0x3e410690	0.1885016
132	0xbf027089	-0.50952965
133	0xbe46fc43	-0.19432168
134	0x3e2b1a66	0.16709289
135	0xbe5aa88f	-0.21353363
136	0x3e595ebc	0.21227545
137	0xbc2366bd	-0.009973225
138	0xbe6f2a18	-0.23355901
139	0xbda535c1	-0.08066893
140	0xbe43bc78	-0.19114864
141	0x3deed903	0.116624855
142	0xbdba8f59	-0.09109373
143	0xbd8abe08	-0.06774527
144	0x3e634d57	0.22197472
145	0xbd8d3699	-0.06895179
146	0x3d0065d4	0.03134711
147	0xbe7c4dc4	-0.2463904
148	0xbe5f2808	-0.21792614
149	0x3dbfcbbb	0.093650304
150	0x3dce9fda	0.10089083
151	0x3f1ca4d6	0.6118902
152	0xbe160c89	-0.1465322
153	0x3dd1b38d	0.10239325
154	0xbe021529	-0.12703384
155	0xbe7d07f6	-0.24710068
156	0xbf45cad8	-0.7726264
157	0x3e363b17	0.17795978
158	0xbe2f6a96	-0.17130503
159	0xbeac478a	-0.3364833
160	0x3ee72ac7	0.45149824
161	0x3e4e9aa6	0.20176181
162	0x3dc272ab	0.094945274
163	0xbe133a9b	-0.14377825
164	0x3e5a1741	0.21297933
165	0x3d7ab75b	0.061210018
166	0xbd32af7b	-0.043624382
167	0x3e05f464	0.13081509
168	0xbda44daa	-0.08022626
169	0xbe8cd77a	-0.27508146
170	0xbd24b21f	-0.040208932
171	0xbde35a39	-0.11101193
172	0x3ead09b2	0.3379646
173	0xbd21ea6a	-0.039530195
174	0xbceb0f10	-0.028693706
175	0xbd918551	-0.07105506
176	0x3d6da421	0.058017854
177	0xbe8d8786	-0.2764246
178	0x3d3aeefa	0.045638062
179	0xbc0d8bf7	-0.008639327
180	0x3eeb3f58	0.45946765
181	0x3dd7edc0	0.10543394
182	0xbe64150d	-0.22273655
183	0x3d8596a4	0.06522873
184	0x3dc6a989	0.09700305
185	0xbe8677b7	-0.2626321
186	0xbea2e5c4	-0.31815922
187	0xbea0d0c1	-0.31409267
188	0xbed815c8	-0.42204118
189	0x3d4fa479	0.050693963
190	0x3de9b997	0.114123516
191	0xbdcfde81	-0.10149861
192	0xbdaf52cc	-0.08560714
193	0x3d098e2f	0.033582862
194	0x3cdcb3ae	0.026941147
195	0x3ea99ef4	0.33129084
196	0x3f0364a3	0.51325434
197	0xbe23d654	-0.15999728
198	0xbd86c405	-0.065803565
199	0x3e3a9cb9	0.18223847
200	0x3cdc31e9	0.026879268
201	0xbe9d904c	-0.30774152
202	0xbe64a634	-0.22329026
203	0xbec92195	-0.39283434
204	0x3eff0012	0.4980474
205	0x3e366728	0.17812788
206	0x3ece5841	0.40301707
207	0x3e2c49a1	0.16824962
208	0xbdd2a821	-0.10285974
209	0xbe76e8f4	-0.24112302
210	0x3d1011c6	0.0351732
211	0xbd5bb583	-0.0536399
212	0x3e101362	0.14069894
213	0xbcbdc4a4	-0.023165055
214	0xbc76d6e1	-0.01506588
215	0xbe8f1773	-0.27947578
216	0x3eeb4647	0.45952055
217	0x3ea743b8	0.32668853
218	0xbeaf2fe4	-0.34216225
219	0x3d274599	0.040837858
220	0x3f3cd589	0.7376333
221	0xbca7960d	-0.020457292
222	0x3da4ffd5	0.080566086
223	0xbee9294d	-0.45539322
224	0x3e94179f	0.2892427
225	0x3edfc30c	0.43703496
226	0xbca2f919	-0.01989417
227	0x3cfa1166	0.030525874
228	0x3cf10597	0.02942161
229	0xbcb00651	-0.021487387
230	0xbe496172	-0.19666079
231	0x3e994a86	0.2993967
232	0xbefbd9d1	-0.49189618
233	0x3eb7bfb3	0.35888442
234	0xbdc7e468	-0.09760362
235	0x3b50d2e0	0.0031863973
236	0xbe3a3423	-0.18183951
237	0xbe39a462	-0.18129113
238	0x3e0f87c9	0.14016642
239	0xbc989edd	-0.01863044
240	0xbe8610c6	-0.26184672
241	0xbe0768ae	-0.13223526
242	0xbcc8fd98	-0.024534985
243	0x3e686741	0.22695638
244	0x3d272ff7	0.040817227
245	0xbcd44d01	-0.025915625
246	0xbe5dbe8c	-0.21654719
247	0xbc93b8a5	-0.018032381
248	0xbeb1e4b9	-0.34744814
249	0x3cc2676f	0.023730962
250	0xbd959f42	-0.07305767
251	0x3e624095	0.22094949
252	0x3ed2c970	0.4116931
253	0xbd5ff3b5	-0.054675777
254	0x3c23c092	0.009994643
255	0xbe37eb06	-0.17960748

stu.hidden.0.mlp.swiglu.w2.weight f4 [8, 32]
0	0x3f102cb3	0.56318206
1	0xbe7d2601	-0.24721529
2	0xbe8a8d49	-0.27060917
3	0x3d10348f	0.035206374
4	0x3da5130a	0.08060272
5	0x3ddf2ae8	0.108968556
6	0x3e2ac4b5	0.166766
7	0xbeba8811	-0.36431935
8	0xbed77939	-0.42084673
9	0xbdd8e25b	-0.10590049
10	0xbd78d585	-0.060750503
11	0xbd06f42c	-0.032947704
12	0x3f07564b	0.5286605
13	0x3e1fb9ce	0.15598223
14	0xbdf8a697	-0.121411495
15	0xbd9644fa	-0.07337375
16	0x3e597780	0.21236992
17	0x3cd9c8ac	0.026584946
18	0xbea91ba7	-0.3302891
19	0xbe416fe3	-0.18890338
20	0x3dc3cac6	0.0956016
21	0xbe7952aa	-0.2434794
22	0x3deb49c9	0.11488683
23	0xbdef8d02	-0.11696817
24	0x3e975883	0.29559717
25	0xbcb37d30	-0.02191028
26	0xbd949864	-0.07255629
27	0x3e13cd2a	0.14433733
28	0x3e317463	0.17329554
29	0x3ecbe3d7	0.39822266
30	0x3cbe3036	0.023216348
31	0x3e721997	0.23642574
32	0x3f008a9f	0.5021152
33	0xbe891a7a	-0.26778013
34	0xbf1492cb	-0.5803649
35	0xbe6bcc06	-0.23027048
36	0xbdfeab82	-0.12435056
37	0x3e811ea8	0.252187
38	0xbeaaca9a	-0.33357698
39	0x3e78316c	0.24237603
40	0x3e469587	0.19392978
41	0x3f14c3ce	0.58111274
42	0x3e767e46	0.24071607
43	0x3e4fa57e	0.20277974
44	0x3e0ac6fc	0.13552469
45	0xbf1e3172	-0.617942
46	0xbe199b32	-0.15000609
47	0x3e6dc1d8	0.23218477
48	0x3e87ea45	0.2654592
49	0xbdcba593	-0.0994369
50	0x3e2094f6	0.15681824
51	0x3eb2c3df	0.34915063
52	0xbf0a0b2e	-0.5392331
53	0x3c9d09c8	0.019169703
54	0x3e2069a3	0.15665297
55	0x3ee12a1b	0.43977436
56	0xbe45865b	-0.19289534
57	0x3da898be	0.08232258
58	0x3e625383	0.2210217
59	0x3d17ca08	0.037057906
60	0xbf0c79d1	-0.5487338
61	0xbc9a7f58	-0.01885955
62	0x3e60d3b3	0.21955757
63	0xbe81b6e4	-0.25334847
64	0xbf268e40	-0.65060806
65	0xbe8e97b2	-0.2785011
66	0x3e902173	0.2815052
67	0xbe8bd3d1	-0.2731004
68	0xbf08626b	-0.53275174
69	0xbe894a75	-0.2681462
70	0xbf001d69	-0.50044876
71	0x3d59eb90	0.053203166
72	0xbe55063d	-0.20803161
73	0xbf00eb8a	-0.50359404
74	0x39ebed92	0.00044999697
75	0x3e8f668b	0.28007922
76	0xbecd91a0	-0.40150166
77	0x3ead1fef	0.33813426
78	0x3dbb7a02	0.091541305
79	0xbaebbccb	-0.0017985342
80	0x3f2ad1cd	0.6672638
81	0x3e4fc53a	0.2029008
82	0xbe0b9f2b	-0.13634937
83	0x3e822933	0.25422058
84	0x3c4a936b	0.012364249
85	0xbe2b07fb	-0.16702263
86	0xbe729956	-0.23691306
87	0x3ef103a0	0.47073078
88	0xbedc5268	-0.4303162
89	0x3e90360f	0.28166243
90	0xbde23eaf	-0.11047112
91	0x3e14c2e9	0.14527477
92	0xbe515c1f	-0.20445298
93	0xbdd47032	-0.10372962
94	0xbc3d9f05	-0.011573558
95	0x3eb35fb4	0.35033953
96	0x3eba639e	0.36404127
97	0x3d66f380	0.056384563
98	0xbed4a05e	-0.415286
99	0xbdadf0bd	-0.08493183
100	0xb9bb880e	-0.00035768788
101	0xbe01597c	-0.12631792
102	0xbdc550c6	-0.09634547
103	0x3c047d12	0.00808646
104	0xbca1b2d0	-0.019738585
105	0x3e115441	0.14192297
106	0xbe40ea75	-0.18839438
107	0x3e44b77e	0.19210622
108	0x3dbf1eca	0.093320444
109	0xbd6f0940	-0.05835843
110	0x3cb18e05	0.021674166
111	0x3e361b60	0.1778388
112	0xbeb5b528	-0.35489774
113	0xbc34de4c	-0.011039328
114	0xbd01220f	-0.03152662
115	0x3e5afa0b	0.21384446
116	0xbd3627d4	-0.044471577
117	0x3d83d811	0.06437696
118	0x3e1e20a5	0.1544214
119	0x3e5d52fd	0.21613689
120	0xbe27c554	-0.16383868
121	0x3e039214	0.12848693
122	0xbd8ad515	-0.067789234
123	0x3edd85cc	0.4326614
124	0x3dd85f21	0.105650194
125	0x3e2da520	0.16957521
126	0xbd87d224	-0.06631878
127	0x3cda76be	0.026667949
128	0x3e80c04f	0.2514672
129	0x3e6ab69b	0.22921221
130	0xbe109837	-0.14120565
131	0xbd1c8f0d	-0.03822236
132	0x3e1e83bd	0.15479942
133	0xbe229215	-0.15876038
134	0x3a047400	0.0005052686
135	0xbc0e5542	-0.008687319
136	0x3dddfc68	0.10839158
137	0x3d4dd7e8	0.050254732
138	0xbe2c8d94	-0.16850883
139	0xbc547460	-0.012967199
140	0x3ca4be4b	0.02011027
141	0xbda53dd1	-0.08068431
142	0x3e1b0bc5	0.15141208
143	0x3dfefac7	0.12450176
144	0xbc74953b	-0.014928157
145	0x3d735996	0.059411608
146	0xbe07fe5d	-0.13280626
147	0xbd30fd04	-0.043210045
148	0xbd6735ff	-0.05644798
149	0xbd51dec3	-0.051237833
150	0xbe39a14c	-0.18127936
151	0x3ccc0e5e	0.024909195
152	0x3de6d83c	0.11271712
153	0xbf057f7f	-0.5214767
154	0xbd23aeba	-0.039961554
155	0x3d7c4fe6	0.061599635
156	0x3d378af1	0.04481024
157	0xbde829f3	-0.11336126
158	0xbe7513d4	-0.23933345
159	0xbdfe2784	-0.12409881
160	0x3df5503b	0.11978193
161	0x3e203bd9	0.1564783
162	0xbcb4156d	-0.021982873
163	0xbcacb912	-0.021084342
164	0x3de334bb	0.11094042
165	0xbedd2724	-0.43193924
166	0xbe530ceb	-0.20610397
167	0xbd0583ac	-0.032596275
168	0x3d4e7356	0.05040296
169	0x3e52632e	0.20545647
170	0xbe3f416c	-0.186773
171	0xbd736eee	-0.059431963
172	0xbec2d791	-0.3805509
173	0x3d9982ea	0.07495673
174	0xbbe154d1	-0.006876566
175	0xbcf3df20	-0.02976948
176	0xbe17a3b9	-0.14808549
177	0x3e0716ed	0.13192339
178	0xbe6145e1	-0.21999313
179	0xbe612365	-0.21986158
180	0xbcb6b0c3	-0.022301083
181	0x3d733b35	0.059382636
182	0xbdb9500b	-0.0904847
183	0x3e89c498	0.26907802
184	0x3ba3db2c	0.0050004926
185	0xbebe1280	-0.3712349
186	0xbdb1fa1f	-0.08690285
187	0xbe906fe6	-0.28210372
188	0x3b805c14	0.0039172266
189	0x3db65532	0.089029685
190	0xbe44191d	-0.19150205
191	0x3d8bb84b	0.068222605
192	0xb996ce5e	-0.00028763985
193	0x3d591aa4	0.053003922
194	0xbe8ce82e	-0.2752089
195	0x3ce7cf81	0.028297188
196	0x3e2893a3	0.16462569
197	0x3e6f8b0e	0.23392889
198	0x3c50801b	0.012725855
199	0x3ed71066	0.420047
200	0xbd7316ab	-0.05934779
201	0xbd4b5d8d	-0.049649764
202	0x3e1b1506	0.15144739
203	0xbe03627f	-0.12830542
204	0xbea76424	-0.3269359
205	0xbeaba736	-0.3352601
206	0x3defc6c2	0.11707832
207	0x3db737b9	0.08946175
208	0x3e40756c	0.18794793
209	0x3b760363	0.003753864
210	0xbdcd0eeb	-0.10012611
211	0x3e2e67c8	0.17031777
212	0x3d2c2836	0.042030536
213	0x3ea3897e	0.31940836
214	0xbb4bec80	-0.0031116307
215	0xbe075f57	-0.13219963
216	0xbe22cf68	-0.15899432
217	0xbebb7e36	-0.3661973
218	0x3e3d6642	0.1849604
219	0xbef3ab53	-0.47591648
220	0xbea0f104	-0.3143388
221	0xbed87392	-0.42275673
222	0x3de1aa1b	0.11018773
223	0xbdd7edde	-0.105434164
224	0x3e61ae8f	0.22039245
225	0xbf1eb434	-0.6199372
226	0x3e6c27ca	0.23062053
227	0xbe265948	-0.16244996
228	0xbeea764d	-0.4579338
229	0xbdc66afb	-0.09688374
230	0x3a267278	0.00063494546
231	0xbe4a853d	-0.19777389
232	0x3db66d1e	0.08907531
233	0xbe353ac2	-0.17698196
234	0x3e288c49	0.16459765
235	0xbdf5ccf7	-0.120019846
236	0xbd90bee1	-0.07067657
237	0xbe9f1c42	-0.31076247
238	0xbe834264	-0.2563659
239	0x3c893ef7	0.016753657
240	0x3e5a6d6a	0.213308
241	0xbd9b0bbc	-0.075705975
242	0xbe96978f	-0.29412505
243	0x3ecfc3fc	0.40579212
244	0x3d3a8a3b	0.045541983
245	0xbeac67d6	-0.3367297
246	0x3efd66d4	0.49492514
247	0x3c63704e	0.013881756
248	0xbe1a1412	-0.15046719
249	0x3e97f628	0.2967999
250	0x3dc45a10	0.095874906
251	0x3f23df4e	0.6401261
252	0x3e8702f6	0.26369447
253	0xbdc03c10	-0.09386456
254	0xbd656a31	-0.056009475
255	0x3e45fa76	0.19333825

stu.hidden.1.rn_1.weight f4 [8]
0	0x3f195adc	0.59904265
1	0x3f3f29c2	0.7467309
2	0x3f5a4cb2	0.8527328
3	0x3f1a10dc	0.60181975
4	0x3f04df1d	0.51902944
5	0x3f0e0005	0.5546878
6	0x3f304903	0.6886141
7	0x3f19f881	0.6014481

stu.hidden.1.stu.M_u f4 [8, 3, 8]
0	0xbf15f5b4	-0.5857804
1	0x3e062cd5	0.1310304
2	0xbe12948b	-0.14314477
3	0xbd8c271d	-0.06843398
4	0xbd31606d	-0.04330485
5	0x3d90a972	0.07063569
6	0x3def494a	0.11683901
7	0xbdf86180	-0.12127972
8	0xbea7c193	-0.32764873
9	0x3d888da9	0.066676445
10	0x3e5c6ec0	0.21526623
11	0x3e02dfc0	0.12780666
12	0xbe015cbb	-0.1263303
13	0x3c39c926	0.011339461
14	0xbdc846aa	-0.09779103
15	0x3da0fc4a	0.0786062
16	0x3d845a04	0.064624816
17	0xbe802ce4	-0.2503425
18	0x3e480e81	0.19536783
19	0x3d85f5f6	0.06541054
20	0xbd1b70bd	-0.037949312
21	0xbd98208b	-0.07428082
22	0xbb1f7390	-0.0024330355
23	0x3d300bf4	0.04298015
24	0x3e3403e4	0.17579609
25	0xbf177607	-0.5916447
26	0xbd8e1696	-0.06937902
27	0x3d844a01	0.064594276
28	0x3e25497c	0.16141313
29	0x3cca128a	0.024667043
30	0x3e3cc521	0.18434574
31	0x3e37523e	0.17902467
32	0xbda85a87	-0.08220392
33	0xbe32c72d	-0.17458792
34	0x3d16994d	0.036767293
35	0x3e1dbe5b	0.15404646
36	0xbe53a514	-0.20668441
37	0x3e39c0c2	0.18139938
38	0xbddf607b	-0.10907074
39	0xba81b61a	-0.000989619
40	0xb825e0f0	-3.9548555e-05
41	0xbdf270cb	-0.1183792
42	0x3e8ed7a5	0.278989
43	0xbe69d4e4	-0.22835118
44	0x3cc2cbc7	0.02377881
45	0x3c8933a5	0.016748259
46	0x3e2d8cc8	0.16948235
47	0x3d3ba273	0.04580922
48	0x3c84a21f	0.016190587
49	0xbc77c898	-0.015123509
50	0xbed7ac0b	-0.42123446
51	0xbdf4d194	-0.11954036
52	0xba6ba7d3	-0.00089895463
53	0xbdd5c7da	-0.10438509
54	0x3e3219d0	0.17392659
55	0xbd8cc9be	-0.06874417
56	0x3da79ed0	0.08184588
57	0xbdd6d24b	-0.10489329
58	0xbeeaa0c0	-0.45825768
59	0xbcebb8d1	-0.02877465
60	0x3da6a3b7	0.08136695
61	0xbe7451d6	-0.23859343
62	0xbc8801fb	-0.016602507
63	0x3d8d2367	0.06891518
64	0xbdf09bf4	-0.11748496
65	0x3d84207d	0.06451509
66	0xbe2f54bc	-0.17122167
67	0xbc2b1192	-0.010441201
68	0x3c8d5902	0.017254356
69	0x3df2cf41	0.11855937
70	0xbc9f7b90	-0.019468099
71	0x3e00685d	0.12539811
72	0x3ca71020	0.020393431
73	0x3d1b6189	0.037934814
74	0xbdbdf8f2	-0.09275998
75	0xbeeac0ba	-0.45850164
76	0x3e17dcd4	0.14830333
77	0x3e221370	0.15827727
78	0xbe313aaa	-0.17307535
79	0x3e6dd68a	0.23226371
80	0xbd90951a	-0.07059689
81	0x3cb4d653	0.022074854
82	0x3db5abdd	0.08870671
83	0xbe7f8ed1	-0.24956824
84	0x3e535e24	0.2064138
85	0x3e897748	0.26848817
86	0xbe33562e	-0.17513344
87	0xbd104d18	-0.035229772
88	0x3d0a07b9	0.03369877
89	0xbce31d64	-0.027723975
90	0xbcaddc5e	-0.021223243
91	0xbe65addb	-0.22429602
92	0xbe0f2303	-0.139782
93	0xbd1b5416	-0.037921987
94	0xbc9b88ee	-0.018986192
95	0x3e1a750e	0.15083715
96	0x3e3633ef	0.17793249
97	0xbd8c9fd3	-0.068664216
98	0xbe51d6e0	-0.20492125
99	0xbe0307ae	-0.12795898
100	0xbec1f35d	-0.37880984
101	0xbd1e908e	-0.038712077
102	0x3dd0e60b	0.10200127
103	0x3de7ef0c	0.113248914
104	0xbc097ebd	-0.008392033
105	0x3e4784db	0.19484274
106	0xbe0a31be	-0.13495538
107	0x3b8d0fdb	0.0043048686
108	0xbe2814f3	-0.16414241
109	0xbe440434	-0.19142228
110	0xbd86fb9e	-0.06590961
111	0xbe44870a	-0.19192138
112	0x3e38952f	0.18025659
113	0x3e0595fd	0.13045497
114	0x3db3f0aa	0.087861374
115	0xbe519058	-0.20465219
116	0xbe271b83	-0.16319089
117	0xbd8622c1	-0.065495975
118	0x3e5a589f	0.21322869
119	0xbbadda3e	-0.0053055575
120	0xbe42c2c0	-0.19019604
121	0xbd8d6976	-0.06904881
122	0xbbf2aa94	-0.0074055884
123	0xbd197f79	-0.037475083
124	0x3d1ad715	0.037802774
125	0xbf289520	-0.65852547
126	0xbd350adf	-0.04419982
127	0x3e212b7c	0.15739244
128	0xbe187a51	-0.1489041
129	0xbd57f927	-0.052727845
130	0x3c586e13	0.0132098375
131	0x3d833c7f	0.06408023
132	0xbe141f27	-0.14465009
133	0xbf07edad	-0.5309704
134	0x3dd15b2b	0.10222467
135	0xbcbd93d7	-0.023141785
136	0xbca70c9e	-0.020391759
137	0xbd935124	-0.07193211
138	0xbe2aa817	-0.16665684
139	0x3d46ba8b	0.048517745
140	0x3e2596c5	0.16170795
141	0xbe69f2ce	-0.22846529
142	0xbe07bdfb	-0.13256066
143	0xbd9181c5	-0.0710483
144	0x3e356971	0.17716004
145	0x3dd9e306	0.106390044
146	0xbdcbfa9e	-0.09959911
147	0xbdb1f168	-0.08688623
148	0x3e01faf1	0.12693383
149	0x3d8f6322	0.0700133
150	0xbf07989f	-0.52967256
151	0x3c0544b9	0.008134061
152	0xbca26e80	-0.019828081
153	0x3e3547a6	0.17703113
154	0xbe32dae9	-0.1746632
155	0xbe12f6cb	-0.14351957
156	0x3da8b541	0.082376964
157	0x3e18d5c0	0.14925289
158	0xbe691695	-0.2276252
159	0xbe16a0a6	-0.1470972
160	0xbe4032be	-0.18769357
161	0xbdf70f92	-0.12063517
162	0x3d98429b	0.07434579
163	0x3db265a0	0.0871079
164	0xbe2ad34f	-0.1668217
165	0xbdeebc22	-0.11656977
166	0x3d32ed76	0.04368349
167	0x3d28ffcc	0.041259572
168	0x3d444fc8	0.047927648
169	0x3c84062c	0.016116224
170	0xbe633fa1	-0.22192241
171	0xbbc5fc4e	-0.00604204
172	0x3cce8580	0.025210142
173	0x3e239e8e	0.15978453
174	0xbe20ea5c	-0.15714401
175	0xbf2403ca	-0.6406828
176	0xbddb3f1d	-0.10705397
177	0x3e1e777c	0.15475267
178	0x3db200b4	0.0869154
179	0x3ca62957	0.020283384
180	0x3da02704	0.07819942
181	0x3c697691	0.01424946
182	0x3da92cdf	0.082605116
183	0xbedbdceb	-0.42941985
184	0x3d82b0b5	0.063813604
185	0xbe75e63b	-0.24013607
186	0xbdcb40e0	-0.09924483
187	0x3c1c967d	0.009557364
188	0x3e3cf4c8	0.18452752
189	0xbb4d0da3	-0.0031288646
190	0xbdb3e117	-0.08783167
191	0x3d92c94b	0.071673
