checkpoints/sssm-Walker2D-v1-model_step-1050-2024-11-18-22-01-56.pt (torch, 34514 bytes, 18 tensors)

emb.weight f4 [8, 24]
000000 4b 37 3f be 4d e9 15 be 23 9d 0d bc e7 e8 1f be
       -0.18673436 -0.14639778 -0.008643421 -0.15616189
000010 a7 26 18 bd e4 4d 06 3d a6 6c 56 3e 61 44 fe 3d
       -0.037146237 0.032789126 0.20939884 0.12415386
000020 ba db 67 be 28 a0 d5 3d fe 7d ec 3d 5e 70 9b be
       -0.22642413 0.10430938 0.115474686 -0.30359167
000030 e8 37 51 bd 4c 7f d9 bb 60 40 1c be 34 83 1d 3d
       -0.051078707 -0.0066374894 -0.15258932 0.038455203
000040 1d cb 36 be 7a 37 d6 be be 54 37 be 4a fe 1a be
       -0.17850919 -0.418392 -0.1790342 -0.15136066
000050 ae b3 4e be 66 b7 12 3b e2 62 3b bd 29 d0 6a be
       -0.2018573 0.0022387146 -0.0457486 -0.2293097
000060 2d 51 86 be 36 b7 05 be cd 19 82 3e 6c 25 81 3e
       -0.26233807 -0.1305817 0.2541031 0.25223863
000070 d1 5e 81 be 02 2a 67 3b e3 7d fa bd 5e ca 71 3d
       -0.25267652 0.0035272841 -0.12231042 0.059030883
000080 fc 06 90 3d 1f 9a 43 be e5 69 12 3f 25 1a 01 3e
       0.07032582 -0.19101761 0.5719283 0.1260763
000090 37 a4 89 3e d1 9c 29 3d e2 c8 08 be 09 6a 32 bd
       0.26883098 0.041409317 -0.1335788 -0.043558154
0000a0 da 30 b3 3e e8 f8 10 be a8 55 2c be 83 01 2c 3d
       0.34998208 -0.1415745 -0.1682955 0.04199363
0000b0 8e 15 07 be 75 d6 f9 3d f9 c6 47 3e 0e 4f 2d be
       -0.13191816 0.121991076 0.19509496 -0.16924688
0000c0 f4 20 48 3d 39 5a 8a be 0f 1a e3 3e 59 7a 67 3e
       0.04885955 -0.2702196 0.4435582 0.22605266
0000d0 4f d5 3b 3d 06 04 40 3e 5f 0b 26 be 88 b8 85 be
       0.045857724 0.18751535 -0.16215275 -0.2611735
0000e0 19 13 64 bd b2 c2 4f 3e 54 3b 38 3e c6 9e 87 bd
       -0.055682275 0.20289114 0.17991382 -0.066220805
0000f0 5e bb bc 3b c3 b1 e7 3e ef b6 2b be 34 0e da 3d
       0.0057596406 0.4525281 -0.16769002 0.1064724
000100 9c 7e 9b bd cb a7 5a 3e ef 8d 98 3e 8c de 88 3d
       -0.07592508 0.2135307 0.29795787 0.066830724
000110 56 7a 99 be 63 db 0f bd a7 12 03 bd b8 95 0c be
       -0.29976147 -0.035121333 -0.03200021 -0.13728988
000120 e5 01 6d 3e da fe 0f 3d 53 5d a5 3d 11 71 6a 3d
       0.23145254 0.035155155 0.08074441 0.057236735
000130 2c 53 0d bf 22 65 01 bf 8f a1 0a be dc 5e d4 be
       -0.55205035 -0.5054494 -0.13538192 -0.41478622
000140 d2 29 a9 be 7a 4b 04 3e 2c 85 2a be ed 23 0f 3e
       -0.3303972 0.12919417 -0.16652364 0.13978548
000150 68 cb 2d 3d 5c 33 6d be 2b 95 13 3d d8 27 07 be
       0.04243031 -0.23164123 0.03603093 -0.13198793
000160 74 03 ba 3e 9c 26 61 3e c4 0c e1 bd 1a 15 00 be
       0.3633076 0.21987385 -0.10988763 -0.1250805
000170 fc 24 2d be 71 d3 6d 3d 66 ce 2b be 82 c0 75 be
       -0.1690864 0.058062974 -0.16777954 -0.23999217
000180 f5 4c c4 be 5d a4 06 3e 2d 2f 07 bf 13 eb 3b 3e
       -0.38339964 0.13148637 -0.5280636 0.18351392
000190 f3 1e 4d bd 0b 8e c1 3e 79 15 83 bd ed 1c d8 be
       -0.050078344 0.37803683 -0.0640058 -0.4220957
0001a0 86 67 ff bd a5 90 84 be 4c 65 3b bc 4c 12 3c bd
       -0.124709174 -0.25891605 -0.011437725 -0.045915887
0001b0 72 b3 0c be 4e 73 48 bb 5f 48 0d 3e db 1a 07 3e
       -0.13740328 -0.0030586305 0.13797139 0.13193838
0001c0 05 43 ac 3d 6f 4b d0 3e 04 26 5d 3e 0c e9 c0 39
       0.084112205 0.4068255 0.21596533 0.00036794727
0001d0 5c 80 0b 3e 31 94 eb bc 45 0a 29 be be 2b f3 bd
       0.13623184 -0.028757187 -0.16507824 -0.118735775
0001e0 47 c5 5e 3e d9 3c 97 be 7d a0 7b 3d 23 b4 23 3e
       0.21754943 -0.2953861 0.06143235 0.15986685
0001f0 c6 75 97 3d 1a 2e 3b 3e e7 82 b2 bd ce a1 88 3e
       0.073955104 0.18279305 -0.08716374 0.26685947
000200 b0 46 be 3e de 15 b2 3d a8 e7 91 be 2f 13 ca 3d
       0.37163305 0.08695577 -0.28497052 0.0986694
000210 45 39 a8 bd 7e 85 b3 3c 8f 34 8c 3c 8c 7d 39 bd
       -0.08214048 0.02191424 0.017114906 -0.045285746
000220 16 71 10 be 66 85 ba 3e 2f 39 bb bd 0e d9 70 3d
       -0.14105639 0.364299 -0.09141766 0.05880075
000230 57 0a 7c bd 00 62 33 3d 2e a7 0c bd 75 b2 6b 3e
       -0.0615333 0.043794632 -0.034339122 0.23017295
000240 bd 81 db 3c e0 2f d8 3d f3 ab d6 3e 1a 85 41 be
       0.026795262 0.105560064 0.41928062 -0.1889843
000250 34 e5 b2 bd 77 6c 4d 3e ed b9 3b 3e 9e 95 39 3e
       -0.08735123 0.20060907 0.18332644 0.1812348
000260 e3 d2 03 be 59 ad 50 bd 52 e2 54 3d fc b0 9f b9
       -0.12873416 -0.050946567 0.05197365 -0.00030458707
000270 62 64 85 3e 83 67 a8 be 02 ef 59 3d cd a1 2f be
       0.26053149 -0.32891473 0.05320645 -0.17151566
000280 b1 94 8e be 9a 4d 45 3e 8c e7 04 bd 00 ee 09 be
       -0.27847818 0.19267884 -0.032447383 -0.13469696
000290 19 f5 68 3e d2 02 0e 3b 33 4b 83 3d 5b 40 51 3d
       0.22749747 0.0021669162 0.064108275 0.051086765
0002a0 11 fb 13 be 77 2c 69 be 5a 4c 72 be f6 e9 a2 3d
       -0.14451243 -0.22770868 -0.23661938 0.07954781
0002b0 53 70 aa 3e df 43 e8 3d 00 bc 6a bd a5 6d 06 3f
       0.33288822 0.113410704 -0.057308197 0.52511054
0002c0 53 fe 9c 3d e2 af 95 3d 7a 44 53 be 5b ab 35 3e
       0.07665696 0.073089376 -0.2063159 0.17741148
0002d0 da a1 4f 3e 33 48 57 3e bc b4 b7 be b6 fb b8 bd
       0.20276585 0.21023636 -0.35880077 -0.09032385
0002e0 e3 ed 89 3d 7b 64 2e 3d 2c 1f 29 ba 11 a9 2c 3e
       0.067348264 0.042576294 -0.00064514834 0.16861369
0002f0 01 fd bb bd a8 23 81 3c fb 11 c1 3e ce ea 77 bc
       -0.09179116 0.015764073 0.3770903 -0.015131665

stu.hidden.0.rn_1.weight f4 [8]
000000 60 fa ef 3e 14 48 1e 3f 85 57 5f 3f 55 15 4e 3f
       0.46870708 0.6182873 0.8724292 0.805013
000010 b6 9d 57 3f 81 27 67 3f a0 66 32 3f 7b 98 4c 3f
       0.8422502 0.90294653 0.69687843 0.79920167

stu.hidden.0.stu.M_u f4 [8, 3, 8]
000000 53 02 6e be f9 50 75 be ba 66 a5 3c 88 d3 d0 bd
       -0.23243074 -0.2395667 0.020190585 -0.101965964
000010 3d 00 11 bd 32 3f 22 3e 5e 1d ca 3b ed 79 11 be
       -0.035400618 0.1584442 0.0061680516 -0.14206667
000020 63 43 eb be 7a ff 2d be 46 55 e6 3d 1e 68 ce bd
       -0.4594985 -0.16991988 0.11246733 -0.100784525
000030 1f 26 3a be fb b4 1b 3e 9a 90 32 3e e8 29 c4 3b
       -0.18178605 0.15205757 0.17437974 0.005986441
000040 23 6e b9 3c ba c2 93 3d 9e fc 1f 3e 06 02 ed bd
       0.022635525 0.072148755 0.1562371 -0.115726516
000050 50 1c 4b be 44 25 12 3e ae 58 c0 bd 41 d6 89 3e
       -0.19835019 0.14272028 -0.09391914 0.26921275
000060 26 ba 90 3e cf dd 0d bf fa f4 99 3c 50 f0 d0 3c
       0.2826702 -0.5541658 0.018793572 0.025505215
000070 f8 88 24 3d 4e 92 ea bd d5 a7 94 bd 8c 8e 91 3c
       0.040169686 -0.11453687 -0.07258574 0.017768167
000080 3c 13 85 3c 37 37 04 bf c3 c1 1a 3e 07 01 e5 bd
       0.016244523 -0.5164675 0.15112977 -0.111818366
000090 54 08 67 3e b0 5c 27 bc 12 65 2d 3e 1e 63 b0 bd
       0.2256177 -0.0102149695 0.16933087 -0.08612655
0000a0 04 13 86 bd 17 d7 28 3c df aa 1a bd 57 75 04 3c
       -0.06546596 0.010305188 -0.03776061 0.008084617
0000b0 4e e5 e5 bd 58 bb fb bd 0c 53 f2 3d bf 12 a4 be
       -0.11225377 -0.12291592 0.11832246 -0.32045552
0000c0 95 79 7e 3e 82 82 3b be 54 89 c9 bd be fa 5d 3d
       0.24851067 -0.18311504 -0.098406464 0.054194205
0000d0 89 ac 0a 3e 80 af 99 bd ea 27 79 3e 48 98 e1 be
       0.1354238 -0.07504177 0.24331632 -0.44061494
0000e0 57 74 9b 3e cd 51 1f 3e e4 3b 22 be f9 d0 0e 3c
       0.30362198 0.15558548 -0.15843159 0.008716815
0000f0 d3 c9 34 be 3e 52 a7 bc 54 40 fd bd c5 21 bf be
       -0.17655115 -0.020424958 -0.12365785 -0.37330452
000100 df 34 41 3b e0 bf 24 bd f9 3e 09 be dc 18 8e 3e
       0.0029480977 -0.04022205 -0.13402928 0.2775334
000110 04 cb dd bd 0d 4a 63 3e 04 d5 89 bd d3 76 ca bd
       -0.10829738 0.22196217 -0.06730083 -0.09885945
000120 f4 b1 0b bc dc 40 c8 be d8 9f 50 bd fd 5f 49 be
       -0.008526314 -0.39111984 -0.05093369 -0.19665523
000130 cf f4 a1 3d 62 c0 16 3d b5 88 a4 3e 1e 18 2a 3c
       0.07908022 0.036804564 0.3213555 0.010381727
000140 ae 78 38 3e c5 76 1a be f1 47 fe bd 26 9e 97 be
       0.18014786 -0.1508437 -0.124160655 -0.29612845
000150 52 1b 72 be be 8e 64 3e 32 ac 70 bc 7a e6 69 be
       -0.23643234 0.22320077 -0.014689492 -0.22841826
000160 ac b7 2c 3e 7b 1c ee bd c5 46 38 3e 20 49 7c b9
       0.1686694 -0.11626526 0.17995746 -0.00024059834
000170 49 5c 8a bd 54 18 2f be 82 26 1c 3e da ff 3a be
       -0.06755883 -0.17099124 0.15249065 -0.18261662
000180 1b 48 25 be a4 07 9c 3d f1 42 d5 be 3e b6 57 3d
       -0.16140787 0.07618645 -0.41652635 0.052664034
000190 ce d3 91 be 9e fd ed bd 99 69 d5 3c 74 cc 3a 3e
       -0.28481907 -0.11620639 0.02605133 0.18242055
0001a0 8f cb 82 3e 5a d2 98 3b 45 3e 14 be 6f 48 33 be
       0.25545928 0.0046637477 -0.14476879 -0.175081
0001b0 7e 85 d4 bd 76 bc af bd 17 c2 a2 3d 13 b1 e1 3e
       -0.10377024 -0.08580868 0.07947176 0.4408041
0001c0 ac 92 e2 bd bb db bb 3e fa b9 0e 3d b8 b9 94 be
       -0.11063132 0.3669108 0.03484533 -0.29047942
0001d0 76 dd 8c be 1e a5 6f 3c 3b a2 16 3c 40 b5 ab 3e
       -0.2751271 0.014626769 0.009193952 0.3353672
0001e0 7f 76 aa be 4f 7c b7 3d 08 8f 9e 3d bd 88 77 3e
       -0.3329353 0.08959257 0.07742125 0.24173255
0001f0 e3 21 50 3e 9b 29 68 be a0 58 fc 3d c5 b9 c5 3d
       0.20325427 -0.22672121 0.123215914 0.09654573
000200 76 41 73 be c5 b0 90 3d a5 85 a8 bd 74 29 6c 3e
       -0.2375544 0.07064966 -0.08228616 0.23062688
000210 83 72 78 3c f4 e0 56 be aa df 98 3d 37 06 e5 bd
       0.0151640205 -0.2098425 0.074645355 -0.11182826
000220 c5 8f 6a 3c 45 2f 7e bd bd 8f 1a bd db 0f 9a 3e
       0.014316504 -0.0620568 -0.037734736 0.30090222
000230 4f e2 53 3e a7 8b 25 3d fb fd 3a bd 35 49 69 be
       0.20691799 0.040416386 -0.04565237 -0.22781833
000240 7c da 46 3e cf 7e 3e 3e 6a 15 04 bd 46 86 be 3d
       0.19419283 0.18603061 -0.032246985 0.093029544
000250 a3 54 e8 3d 18 cb 48 bb fa f8 c2 bd aa e4 26 3e
       0.11344268 -0.0030638631 -0.09520145 0.16298166
000260 62 a4 89 bd 29 eb e4 3d 6a eb 95 3d b6 bb c3 3b
       -0.06720807 0.11177666 0.07320292 0.0059733046
000270 32 e5 28 be 59 72 2d bd 1e 31 21 bd 36 51 a5 bd
       -0.16493681 -0.04234538 -0.039353482 -0.080721304
000280 a7 52 d1 3d e5 fc 70 bc f7 a6 7b 3e 6e 6c 96 bd
       0.10220843 -0.014708732 0.24575411 -0.073449
000290 55 44 46 be 43 d5 75 3d fb f5 8d be 68 5c cd 3d
       -0.19362004 0.060017835 -0.2772673 0.10027391
0002a0 bf 27 47 3e 26 91 01 be 8e 94 fa bd 0a 40 21 be
       0.19448756 -0.12653026 -0.12235366 -0.15747085
0002b0 af 21 75 bd 25 df ed 3c 91 c3 2b 3e b1 f3 a3 be
       -0.059846576 0.029037068 0.16773821 -0.3202186
0002c0 97 ee 1f 3e f2 79 be bc fc 4f 88 3e 23 2f 24 be
       0.15618359 -0.023251507 0.26623523 -0.16033606
0002d0 18 65 bf 3d 88 cb 0f 3c 75 f7 54 be 02 f1 20 be
       0.09345454 0.008776553 -0.20797522 -0.15716937
0002e0 cd 29 14 be e7 20 6a be e3 ae 04 be 91 5b 2a 3d
       -0.1446907 -0.22864114 -0.12957339 0.04159123
0002f0 ed 10 8c 3d 42 0d d2 bd a3 c3 cb 3d af d9 5a bc
       0.06839166 -0.10256435 0.09949424 -0.013357564

stu.hidden.0.stu.M_phi_plus f4 [8, 16, 8]
000000 a6 01 12 bd 34 97 c1 be 15 66 95 3b 98 85 d9 be
       -0.035646103 -0.3781067 0.0045592883 -0.42484736
000010 5f 2e a5 3e 96 40 77 be 26 12 22 be a2 f2 68 be
       0.3226194 -0.24145731 -0.15827236 -0.22748807
000020 e7 3c c7 3e 19 fa b8 be 9a 60 7d be 7b a4 14 be
       0.38913652 -0.3612831 -0.24743882 -0.1451587
000030 d4 c3 02 3f 41 d3 e1 be 50 20 f8 be 7c ff 10 be
       0.5108006 -0.44106486 -0.48462152 -0.1415996
000040 ec f3 08 be 84 d6 74 3d 0a c2 f9 be ed 95 e0 3e
       -0.13374299 0.05977489 -0.48780853 0.43864384
000050 08 89 2c be ad f5 12 3d e7 af a3 be 8e 66 6f 3e
       -0.16849148 0.035878826 -0.3197014 0.23378965
000060 34 21 4a be 4f b9 99 3c 85 21 90 bb f6 6c 42 be
       -0.19739228 0.01876512 -0.004398527 -0.18986878
000070 1a 7d 2a 3e 82 19 f3 bd c1 83 59 bc f9 6a af be
       0.16649285 -0.118700996 -0.0132760415 -0.342613
000080 b9 80 68 bf 08 81 15 3d df a8 4b 3e d7 ce 01 bf
       -0.90821415 0.036500007 0.19888638 -0.5070624
000090 27 7c 7f be 31 7c f9 bd cb 74 36 3f 69 17 32 bd
       -0.24949704 -0.12181891 0.7127196 -0.043479357
0000a0 60 bf 2f bf ca ce 2d be f7 b1 7e 3d 6e a0 14 3c
       -0.6865139 -0.16973415 0.06218144 0.009071453
0000b0 33 42 ac be b7 93 4c 3e 5d 70 77 3e 96 6b 5a 3e
       -0.33644256 0.19978224 0.24163957 0.21330103
0000c0 c8 16 99 3e 70 1c 64 bf 32 2e a8 3e 5a 5d 9e 3e
       0.29900193 -0.8910589 0.32847744 0.30930597
0000d0 6e 8a 00 3e 44 12 35 be ee 21 ee bd 57 a5 0f 3f
       0.12552807 -0.17682749 -0.11627565 0.56111664
0000e0 d1 cf 23 3f 02 ce 90 bc f3 22 97 bd be ad 25 3f
       0.6398898 -0.017676357 -0.07379713 0.64718235
0000f0 1c d7 0e 3e 88 6b ab be a2 ab a0 bc 72 95 ee 3e
       0.13949245 -0.33480477 -0.01961309 0.46598393
000100 c6 4b 74 3e a6 4c ce 3e a0 17 92 be b8 b9 bf 3e
       0.2385703 0.40292853 -0.2853365 0.3744638
000110 ba 1d db 3e 8c 94 24 3d 32 6d 53 be a8 1f f6 bd
       0.42796117 0.040180728 -0.20647123 -0.12017757
000120 58 46 0c 3d 42 12 07 3e be 15 68 be 70 50 2e be
       0.034246773 0.13190559 -0.22664544 -0.17022872
000130 8c f0 75 3e 41 d7 7d 3e 2c 35 07 bf bc 6c b9 3d
       0.24017543 0.24789144 -0.5281551 0.090539426
000140 45 74 ac bd 54 c0 9f 3e 53 20 b2 be 01 8c 8e be
       -0.08420614 0.31201422 -0.34790286 -0.2784119
000150 3a e5 ea bc aa b2 15 be 6d 36 2e 3c c4 20 16 be
       -0.028673757 -0.14618936 0.010633093 -0.14660937
000160 a0 6d 5d be b2 d3 e7 3d 0b 0c 82 be 0c 9d 28 be
       -0.2162385 0.113196746 -0.25399813 -0.16466159
000170 37 1e 11 3e 1a ee 9b bd 59 f7 2b 3e 18 72 e8 bd
       0.14171682 -0.07613774 0.16793574 -0.11349887
000180 6c 19 16 3e df 63 7f be f2 16 a0 3c 7f 4f 04 be
       0.14658135 -0.24940442 0.019542191 -0.1292095
000190 ea 1e 1d 3e d9 73 65 bc 31 85 82 bd bb 86 1e be
       0.15343824 -0.014004671 -0.063730605 -0.15481083
0001a0 f9 bc 7d be bb b6 82 3e 05 11 3e be f0 d6 06 be
       -0.24779119 0.25530037 -0.1856118 -0.1316793
0001b0 ad ab aa bc 36 2e 10 3e 24 da 5d bd 3d 8f 49 3e
       -0.020833815 0.14080128 -0.054163113 0.19683547
0001c0 dd 3d 60 bd 54 cc 46 bd fd 2d c1 3d 7c 6a 1f 3d
       -0.054746497 -0.048534706 0.094326 0.03891991
0001d0 86 30 2b 3d 4a af ba bd ec 80 6f 3d 4f 0f f2 3d
       0.041794322 -0.09115465 0.05847256 0.11819326
0001e0 35 0f 8b be 33 59 82 bb 26 c8 ac 3c de d4 02 be
       -0.2716004 -0.0039779185 0.021091532 -0.12776515
0001f0 06 9f 72 bc 0d c8 f4 3d 2e e1 ce 3d ae c9 b6 bd
       -0.014808422 0.11952219 0.10101543 -0.08925186
000200 85 9e fe be 50 e2 58 3e 92 3d 87 3e 90 56 eb be
       -0.49730316 0.21180081 0.26414162 -0.4596448
000210 71 10 d3 be ec df 12 3f 76 f3 a5 be 27 6f d1 be
       -0.4122348 0.5737293 -0.32412308 -0.40905115
000220 62 65 58 3e 38 00 71 bd 17 75 97 be 40 96 96 be
       0.21132424 -0.0588381 -0.2958152 -0.29411507
000230 4e 1a 97 3e 96 f0 f0 bd 1d 88 8d bd 9d 70 c9 be
       0.29512256 -0.11764638 -0.06910727 -0.3934373
000240 2f e3 41 3e ce c9 56 bf bb 40 a0 3d ad a8 36 3f
       0.1893432 -0.8390168 0.07824846 0.7135113
000250 3d c5 88 3d 75 33 97 3e cf 17 05 bf 94 4a 72 3d
       0.06678245 0.29531446 -0.51989454 0.059153154
000260 1d 01 1c bf 84 e6 e5 3d 7f 7f 25 3d cc 8c c5 be
       -0.609392 0.11225608 0.040404793 -0.38583982
000270 d9 b9 87 3d 59 c3 54 3e f9 22 32 be 87 d5 5c be
       0.066272445 0.20777644 -0.17396154 -0.21565829
000280 21 76 3c bf 5e 9c 3c 3f 37 92 81 be 6b 8e 96 be
       -0.7361775 0.736761 -0.25306866 -0.2940553
000290 81 eb 6f be 9a 93 48 bf bf 88 3f 3f fd aa 07 bf
       -0.23429681 -0.7835022 0.7481803 -0.5299528
0002a0 9f 11 cc be c7 29 9f be 93 22 da 3e 86 84 f3 bd
       -0.39857194 -0.3108656 0.42604503 -0.11890511
0002b0 40 44 64 be d9 8b 47 bf 6b 2f 1e 3f a6 3b b1 be
       -0.2229166 -0.77947766 0.61791104 -0.3461582
0002c0 55 b5 a3 3e 88 d9 01 bf 18 d5 dd 3e 9d be b7 3e
       0.31974283 -0.5072255 0.4332664 0.35887614
0002d0 74 c4 9d 3d 37 e9 9e 3d 18 17 ae be 05 3f 3d 3f
       0.07703486 0.07759326 -0.34001994 0.73924285
0002e0 8e c0 5f 3f 87 8b 98 bd 8b 63 b6 be 5d ac 2f 3f
       0.8740319 -0.07448488 -0.3562282 0.6862238
0002f0 50 05 00 3e d8 61 96 bd 17 e1 20 bf d9 00 7c 3e
       0.12502027 -0.07342881 -0.6284346 0.24609698
000300 0a 8e 58 3f c3 a7 d0 3d 09 32 0c bf ad 01 21 3e
       0.84591734 0.10188248 -0.5476385 0.15723296
000310 45 3f f6 3e 29 16 a8 be 91 6a cc bd d1 c7 be 3e
       0.48095146 -0.32829407 -0.099812634 0.37261823
000320 a7 9d ac be 19 21 10 3f 51 06 3b be 12 74 e4 be
       -0.3371403 0.56300503 -0.18264128 -0.44619805
000330 3f 11 45 3d 9e c7 e0 be d4 d7 e1 bd f3 3a b3 3e
       0.04811215 -0.43902296 -0.11027494 0.35005912
000340 de b9 13 bf 8b 0a d1 3c e0 99 a0 3c 3d d7 a4 bd
       -0.57705486 0.025517723 0.019604623 -0.08048866
000350 ae 20 ea bd 4f d3 c0 3d 26 a6 d2 3c a2 f9 01 bc
       -0.114320144 0.09415304 0.025713991 -0.007933052
000360 bf 49 ba be 1f 7e 54 be da f7 e6 3d fb 2c 56 3d
       -0.3638439 -0.20751236 0.11277743 0.05228899
000370 e1 70 bc 3d e9 66 91 3e ae ed ab bd a3 e6 84 be
       0.092012174 0.28398827 -0.08394943 -0.25957212
000380 59 48 34 be be 90 09 be 8c 7d c6 39 21 42 9a 3d
       -0.17605723 -0.13434121 0.00037859043 0.07532144
000390 b3 5a 94 3e 9b 0a 8a 3d e1 cc 67 3d ec c6 31 be
       0.28975448 0.06740304 0.056591872 -0.17361039
0003a0 d2 dc 79 3d 8a 99 09 bd 93 43 2f 3e ad 86 a7 bd
       0.061001606 -0.033593692 0.17115621 -0.08179984
0003b0 0f b3 81 be b6 5c de 3c 65 64 3f be 53 08 9a 3d
       -0.25331923 0.027143817 -0.18690641 0.07521119
0003c0 bc 2a 64 3c 98 29 40 ba b2 86 d0 bd d3 3d b0 3d
       0.013926204 -0.00073304167 -0.10181941 0.08605542
0003d0 ec 33 b3 3d 2d fa cb bd 29 ac d8 3d f7 73 1e be
       0.08750138 -0.099598266 0.10579712 -0.15473925
0003e0 0d a4 fa 3c 59 1c bd be ba d1 83 ba 9b 0d e7 bd
       0.030595804 -0.3693569 -0.001005701 -0.11281892
0003f0 fa c4 30 3e 63 d1 c4 bd c6 b2 c6 bb 2a c9 37 be
       0.1726264 -0.0961025 -0.006063792 -0.17947832

stu.hidden.0.stu.M_phi_minus f4 [8, 16, 8]
000000 39 12 88 be 0e 6a 0e 3f 1f 44 d0 bd 46 59 ec bd
       -0.26576403 0.55630577 -0.10169243 -0.11540465
000010 8d 94 4a be 91 9d bc 3e 56 37 e4 3e c2 a9 37 be
       -0.1978323 0.36838964 0.44573468 -0.17935851
000020 25 48 04 bf 70 33 5d 3f 44 ca 8d bd 85 a2 4e 3d
       -0.51672584 0.8640661 -0.06923345 0.05044796
000030 98 fa db 3d 0d 3d 7e 3e 4f 32 dd 3e 14 b9 7d be
       0.10741156 0.24827977 0.43202445 -0.24777633
000040 1c 63 fb be 29 4a 83 3e 10 ba 46 be 8a 4a 57 3d
       -0.49099052 0.25642517 -0.19406915 0.05256132
000050 fe 6c bc 3e 9b 50 98 3d 96 7f c2 3e de d0 d6 3d
       0.36801904 0.07437249 0.37987965 0.10489057
000060 7f 53 ab be 95 f8 da 3e bc e1 a3 3e 43 44 31 be
       -0.3346214 0.42767778 0.3200816 -0.17311196
000070 da ed f2 bd bc f3 b4 3e 90 79 d2 3e f1 38 ae be
       -0.11861773 0.35342205 0.4110837 -0.34027818
000080 2e ef d9 3d a0 32 8f be 80 9a 9b 3e b1 65 6c bc
       0.10641323 -0.2796831 0.30391312 -0.014428542
000090 f5 26 e6 3d c6 c5 f6 bd 22 58 63 be 54 95 d1 bd
       0.11237899 -0.12049441 -0.22201589 -0.1023356
0000a0 d8 4c 34 be f1 db cf bd d3 a0 b5 be 6a 17 a6 3d
       -0.17607439 -0.10149372 -0.35474262 0.08109935
0000b0 1f a4 ad 3e 00 eb 47 3e e1 d9 01 3e 34 e6 46 3e
       0.33914277 0.19523239 0.1268077 0.19423753
0000c0 c7 91 8c be d6 dc bd be cf cf a0 3e 49 5c 33 bc
       -0.2745497 -0.37082547 0.31408545 -0.010947295
0000d0 7f b4 9d bd 5d 5b 66 be b7 f0 12 3d 74 8f 66 3e
       -0.077004425 -0.2249579 0.035874095 0.2251566
0000e0 fc 8a 13 3c 6d 04 88 bd a6 2a 8c be ed 09 4d 3c
       0.009005304 -0.06641469 -0.27376288 0.0125145735
0000f0 5d 7d 7e 3d c9 25 35 be 1a b0 2c bb 5e d4 2e bc
       0.062131274 -0.17690195 -0.0026350082 -0.0106707495
000100 21 43 1d be 58 e6 04 3e 24 68 6a 3d cb f4 a9 bd
       -0.15357639 0.12978494 0.057228222 -0.08298644
000110 d2 82 21 bc 50 f2 3e 3e 31 98 2f be 71 e3 60 be
       -0.00985785 0.18647122 -0.171479 -0.21961762
000120 e8 44 3e 3e d2 f6 98 3d d4 6e 8c be 60 8c 19 3e
       0.18580973 0.07468952 -0.27428305 0.14994955
000130 c6 10 81 3e 8f 33 d6 bd 28 3d ec bd 80 f8 64 3d
       0.2520811 -0.10459053 -0.11535102 0.05590105
000140 7c ee 60 3e 76 2a 85 bd 8b 1f 5b 3e 40 7c 4f 3e
       0.21965975 -0.065022394 0.21398751 0.20262241
000150 ea 51 0d 3e 29 24 a9 bd 5d 50 ef 3c 5d 3e 7c bb
       0.13800779 -0.0825885 0.029213125 -0.003848932
000160 37 c8 3c 3e 3f 7c 1f 3d c9 f3 8b bd 6f cf 51 be
       0.18435751 0.03893685 -0.06833608 -0.20489286
000170 cf ab 86 be 8e 8f f8 3d 4a be ed 3d c2 53 72 be
       -0.26302955 0.12136756 0.116085604 -0.23664764
000180 9f 98 36 3e 51 13 7f 3d e6 a5 4a 3d ff 6b 55 bd
       0.17831658 0.06227428 0.04947462 -0.052104946
000190 5e 99 0f bd 7b 55 d6 3d 77 2c f3 bd 71 cd 4a be
       -0.03505837 0.10465523 -0.11873715 -0.19804932
0001a0 a6 27 15 3e 6d 7a 85 3e 60 99 98 bd 51 bd e5 3d
       0.14565906 0.26069966 -0.07451129 0.1121775
0001b0 36 c7 1a be 1e 60 97 3d 10 88 a9 3d e8 f4 bc 3d
       -0.15115055 0.0739138 0.08277905 0.092264
0001c0 90 50 38 be 4c 65 4e be bb ae 9c 3e 40 8c 1d be
       -0.17999482 -0.20155829 0.3060206 -0.15385532
0001d0 69 c9 28 3e d7 ad 09 bc 41 be cf 3d 4f b9 76 be
       0.16483082 -0.008403263 0.1014371 -0.24094127
0001e0 b7 4a d3 3d 30 79 4a bd 0e 8c 00 bd aa 93 4a be
       0.10316985 -0.04943198 -0.031383567 -0.19782892
0001f0 37 82 ff 3b 6c 56 80 3d 17 a3 7d 3d 42 fa e5 3d
       0.0077975052 0.06266484 0.061923113 0.112293735
000200 4e 07 85 be b5 30 32 be 02 9c 95 3e c1 8f 7a be
       -0.25982136 -0.17401393 0.29220587 -0.244689
000210 cc aa 61 bf b9 ea c7 3d a0 9b 13 be 46 33 e2 be
       -0.8815124 0.09761567 -0.14414835 -0.44179744
000220 b9 a7 c2 be d4 96 ca 3e 6d 43 b0 3e 0f e6 ad be
       -0.38018587 0.39568198 0.34426442 -0.33964583
000230 38 cb 97 be 46 b1 fb 3e 26 28 a1 3e aa 9a ef be
       -0.2964723 0.49158686 0.31475943 -0.46797687
000240 fa bc e0 bd 0f af 28 bd c9 57 77 3e 3c 72 b5 be
       -0.109735444 -0.041182574 0.24154581 -0.35438716
000250 76 fb a5 3d a5 98 27 be 54 3f 1d 3e f9 73 63 3c
       0.08104603 -0.16366823 0.15356189 0.0138826305
000260 b3 29 f3 be 2d 2a 9f 3e 9d 6e f9 3e 4b 05 11 be
       -0.4749275 0.31086865 0.48717204 -0.14162175
000270 4c ad db be a5 f8 16 3f a5 91 8e 3e 20 f3 fa be
       -0.42905653 0.5897315 0.27845493 -0.49013615
000280 21 82 dc 3d 7d fb 86 3d c0 e7 42 38 ba 88 9c bb
       0.107670076 0.06590936 4.646904e-05 -0.0047770413
000290 fc 8b a5 3d ab 78 f0 3d 97 e9 84 3c 6c 89 59 bd
       0.080833405 0.117417656 0.016224666 -0.05310957
0002a0 f6 22 14 3e 5e b0 5c be bc f5 13 be d2 87 42 3e
       0.14466462 -0.21551654 -0.14449209 0.18997124
0002b0 79 13 15 3e 01 d5 b1 bd c1 10 87 bb 02 71 c1 3a
       0.1455821 -0.086832054 -0.0041218703 0.001475841
0002c0 48 82 f8 3d 17 31 2e 3c 0d 62 df bd 17 3a 64 3e
       0.12134224 0.010631821 -0.109073736 0.22287785
0002d0 be 32 90 3e 0b d3 6e be ee 79 10 3e 9d 4c 99 3e
       0.28163713 -0.23322694 0.14109012 0.29941264
0002e0 f0 00 4b bd 17 65 35 3d 29 65 93 3e 4a bc b8 be
       -0.04956144 0.04428586 0.28788117 -0.36081153
0002f0 3b 71 9d bd 3f 30 43 bd 0a 4f dc bc 94 64 04 3e
       -0.076876126 -0.047653433 -0.026893158 0.12928993
000300 ee e3 bd bd 1e 09 21 3e 19 87 0d be be 03 bd 3e
       -0.0927199 0.15726134 -0.13821067 0.36916918
000310 8a 6e 14 3e 42 d1 35 bc e7 15 f9 bd 74 b0 c3 3c
       0.14495292 -0.011097254 -0.12162381 0.02388785
000320 9c b9 7c 3d 06 f1 76 be 8c 6b c1 3d 10 d4 dc bd
       0.06170045 -0.2411538 0.09444341 -0.10782635
000330 e4 00 d6 bd 8b 4f 1d 3e bf 9a fd 3b bc e7 43 be
       -0.104493886 0.15362374 0.0077393944 -0.19131368
000340 00 ec fe 3d 35 09 11 3e 00 45 81 bd 9d ce 5e 3e
       0.12447357 0.14163668 -0.06311989 0.21758504
000350 aa 46 ac 3d 11 a5 a9 3d 55 48 60 be 0a b9 41 be
       0.084119156 0.08283437 -0.21902592 -0.18918243
000360 39 5b e9 bd d5 b8 33 3e f4 54 17 be fa 43 14 bd
       -0.113943525 0.17550977 -0.14778501 -0.03619764
000370 e6 e4 d6 bc 1a b1 45 be 35 af 97 bd 14 22 0a bf
       -0.026232194 -0.1930584 -0.07406465 -0.5395825
000380 b0 8e 9c be e3 04 dd 3d cb d4 96 bd 24 2e 7f 3d
       -0.30577612 0.10791948 -0.07364806 0.062299863
000390 62 f8 0a bd 21 00 09 3e 1a ca 60 3d 41 0e 49 bd
       -0.033928283 0.13378955 0.05488024 -0.04908586
0003a0 a7 96 98 3c f3 69 40 3e ff ba 82 be d5 41 28 3e
       0.018626524 0.18790416 -0.25533292 0.16431363
0003b0 57 8d a9 be 89 b6 59 3d b5 01 06 3e 16 76 18 3c
       -0.33115646 0.053152595 0.13086589 0.009305498
0003c0 35 c2 58 3d 86 94 4e be f4 6b 9b bd ce 53 76 3e
       0.052919585 -0.20173845 -0.0758895 0.24055406
0003d0 f4 b4 f5 bd 3d 9b 93 bd cb 03 87 be 38 2d 5e 3e
       -0.11997405 -0.07207344 -0.2637008 0.21696937
0003e0 c6 d2 0a bd d9 06 c5 bc 92 9b 8a bd 32 32 3f 3d
       -0.033892415 -0.024051117 -0.06767954 0.04667873
0003f0 71 ce d4 3c 10 3d 83 bd e1 2f fd 3a 00 00 8e bc
       0.025977345 -0.06408131 0.0019316637 -0.017333984

stu.hidden.0.rn_2.weight f4 [8]
000000 c4 72 6a 3f 6b e1 01 3f 58 e4 33 3f 9a 8a 3f 3f
       0.9158137 0.50734586 0.702703 0.74820864
000010 5d f5 5a 3f 23 bf 22 3f d8 85 19 3f e4 7a 84 3f
       0.85530645 0.635729 0.59969854 1.0350003

stu.hidden.0.mlp.swiglu.w.weight f4 [32, 8]
000000 d1 a8 a8 be 1f a0 02 be bb 7c 83 3d 27 75 80 bd
       -0.32941297 -0.12756394 0.06420275 -0.06272345
000010 c5 59 0d 3f f7 35 71 bd f7 71 79 be e4 85 a6 bb
       0.552151 -0.058889356 -0.2435988 -0.005081879
000020 f2 fe 4e be 04 1a cc be d0 fc 09 3a c0 ec b9 bd
       -0.20214441 -0.39863598 0.0005263807 -0.090783596
000030 f1 24 b5 bd 22 33 c2 bd d2 b8 1a 3e 0c dc 25 3e
       -0.08844937 -0.09482409 0.15109566 0.16197222
000040 54 fc 48 bd 87 97 e8 3d 58 fc 38 3d 5d 87 7a be
       -0.049068764 0.113570265 0.04516253 -0.244657
000050 5a 7f f6 bd f6 e6 84 3e 07 4c cb 3d 1d e7 01 3e
       -0.12036009 0.2595746 0.099266104 0.12685819
000060 a8 23 7c be 78 3b da 3d 69 af 79 be 43 e6 c9 be
       -0.24622977 0.10655874 -0.2438332 -0.39433488
000070 8b 5b 9d bc 4f a0 69 be 87 12 fb 3d 1e 56 f5 bd
       -0.01920869 -0.22815059 0.12259393 -0.11979316
000080 2d e5 56 3e c6 54 00 3e 26 a6 69 bd 0a 55 d2 3d
       0.20985861 0.12532339 -0.057043217 0.10270126
000090 5d 11 3a bd df 04 bb 3e 8f 49 cc bd b2 33 01 3c
       -0.045426715 0.36527154 -0.09974968 0.00788586
0000a0 f8 21 4e 3d 55 40 24 be 48 ea 42 3e 91 61 fb 3c
       0.050325364 -0.16040166 0.19034684 0.030686172
0000b0 0e 54 b8 3c a5 b4 21 3c 35 4c 3c be bc 0b 67 be
       0.022501018 0.009869729 -0.18388446 -0.2256307
0000c0 c9 ff 05 be 2b ea dd 3d f9 a0 09 be 6c 7e e3 be
       -0.13085856 0.108356796 -0.13440312 -0.4443239
0000d0 9b 2a 3b 3e dd b8 8f be 1b ea f6 3d ac 11 fe bd
       0.18277971 -0.28070727 0.12056371 -0.124057144
0000e0 27 48 19 bf 30 71 2a 3e 6b 94 53 3d 40 9c 39 3e
       -0.5987572 0.1664474 0.051655214 0.18126011
0000f0 57 43 71 be 5f 45 9a 3e 17 a8 07 3f 9b 2b c5 be
       -0.23560844 0.3013105 0.5299086 -0.3850983
000100 68 24 09 3d 1b 21 ad be fb 9c a7 3e cf 0e 14 bd
       0.033481985 -0.3381432 0.32736954 -0.036146935
000110 03 ae 02 3e e8 74 4b be 14 0e 11 3e 68 26 8e be
       0.12761693 -0.19868815 0.14165527 -0.27763677
000120 6d e8 4d be b1 1d 4d be 2c 5e 4c bd 65 0c 9f be
       -0.20108195 -0.20030858 -0.049894497 -0.31064144
000130 98 8d 8d 3d d7 24 4f 3e 89 b4 b0 3e 8c 6b f3 bd
       0.069117725 0.20228897 0.34512737 -0.11885747
000140 24 7e 9d bd ee ae 24 3e 83 34 15 bd 04 3f ce 3d
       -0.07690075 0.16082355 -0.036427032 0.10070613
000150 6b ce 70 bd 10 64 ab 3d e2 5a 28 3c 62 b1 cf bd
       -0.058790606 0.08368695 0.010275574 -0.10141255
000160 d7 61 cb 3e 4e 74 f1 3b c8 c0 1b be 3c 43 32 3e
       0.39723083 0.007368601 -0.15210259 0.1740846
000170 9a 65 1b be f4 72 bd 3e bf 1c 90 be a4 a6 2f 3e
       -0.15175477 0.37001765 -0.28146932 0.17153412
000180 6f 63 84 3c 99 65 f7 bd 8d 23 9f bd 10 80 ed 3d
       0.016160695 -0.12079925 -0.07770453 0.115966916
000190 e6 7b b4 3d 06 dd 0e be 85 7a 4e be 80 a2 24 be
       0.08812694 -0.13951501 -0.20163925 -0.16077614
0001a0 59 74 9c bd a6 32 82 3d 2d 4d 9d 3e 60 b7 b2 3b
       -0.07639379 0.06357317 0.30722943 0.005453989
0001b0 6d 08 e9 bd 68 b6 3e 3f 5f 03 42 3e 48 f9 11 bf
       -0.1137856 0.7449708 0.18946598 -0.57021
0001c0 a2 ac d2 3d 7c 13 5d be db d5 cd 3e 66 c0 47 be
       0.10286833 -0.21589464 0.4020222 -0.19506988
0001d0 14 09 17 3d 6f 5e 8a 3d 66 2a 9b 3e 03 0c 94 3d
       0.036873892 0.06756293 0.30305785 0.072288536
0001e0 5b 70 c0 3e 12 39 07 be 82 56 51 3e aa 65 65 3e
       0.3758572 -0.13205364 0.20443156 0.22402063
0001f0 0a 18 9d bd 1d 8a a8 be cd e6 99 3c 7d df 71 3d
       -0.07670601 -0.32917872 0.018786812 0.059051026
000200 a7 56 5c bd 04 58 4a be fb f7 ea bd 64 ae 51 3e
       -0.053793576 -0.19760138 -0.1147308 0.20476681
000210 86 68 90 3d 16 c1 0d be e6 7d 1a 3d 39 00 86 3e
       0.07051186 -0.13843188 0.037717722 0.26172045
000220 ab 2f f9 3e 4d aa a9 3d b8 dc c4 3d 0d 48 d1 3e
       0.4866918 0.082844354 0.09612411 0.40875283
000230 4f 26 27 be 00 f6 39 3c 94 56 c4 3e ce 6b 2b 3e
       -0.16323207 0.011350155 0.38347304 0.16740343
000240 71 21 33 3e 77 f0 b9 bd 4a 9a b3 bd 44 70 7b 3e
       0.17493226 -0.09079068 -0.08769663 0.24554545
000250 1d c7 df be 3f c0 39 3d de dc 29 be 93 2c 15 3e
       -0.437066 0.045349356 -0.1658816 0.14567785
000260 14 eb 32 3e 0b 49 07 be 4f 90 08 be f1 41 89 3e
       0.17472488 -0.13211457 -0.133363 0.26808122
000270 13 05 28 bd 7e 51 95 3d fc 7c a4 3e ca cb 40 3d
       -0.041020464 0.07290934 0.32126606 0.04706935
000280 e2 57 0f 3d 34 09 ad bd 71 0b 1c bd c8 52 07 ba
       0.03499592 -0.08449021 -0.03809685 -0.00051621767
000290 95 10 08 3e be 27 8c 3c 28 3d 91 3d ef 24 5d 3d
       0.13287576 0.017108794 0.07091743 0.0539903
0002a0 5d 1a 97 3d 17 66 be 3d 8d 60 93 3e fe ba 36 bc
       0.07378075 0.09296816 0.287846 -0.011152981
0002b0 67 89 d0 bd 62 87 d9 be e4 bb 01 be b8 b1 fb be
       -0.101824574 -0.424861 -0.12669331 -0.49159026
0002c0 b8 2f ce be 2e 99 2b 3e cb 5c 81 3d fa 9d 88 be
       -0.40270782 0.16757652 0.06316527 -0.26683027
0002d0 e2 8f a3 be 7f 68 95 3d dd 3f 86 be aa bb 1f be
       -0.3194571 0.07295322 -0.262206 -0.15598932
0002e0 3c 20 ef 3e 98 bd 14 be 95 3f c9 3e e5 f8 db bd
       0.4670428 -0.1452545 0.39306322 -0.10740832
0002f0 f2 94 c2 be 25 fc 85 be c0 88 d2 3e 3a 4f d8 3c
       -0.3800426 -0.26168934 0.41119957 0.026404966
000300 43 63 1f 3f 72 eb 65 3e ee d5 47 3d da b6 f0 3e
       0.62260836 0.22453097 0.048788004 0.47014505
000310 9b 86 cb 3e ab ad 1f be 2b ab 11 bd 08 2f 8c 3d
       0.39751133 -0.15593593 -0.03556363 0.06844908
000320 8d 4f 32 3f ad 5e 59 be 02 0e ee 3d f7 b1 11 3f
       0.69652635 -0.21227522 0.116237655 0.5691218
000330 44 0c 27 be 6e 28 36 bf 6d 2d 63 3e f8 4b 3d be
       -0.16313273 -0.7115544 0.22185297 -0.18486011
000340 94 63 9f be 29 80 15 3f 31 aa 53 be b8 2e d4 be
       -0.3113066 0.5839868 -0.20670392 -0.41441894
000350 fc 6b aa be b7 b7 a3 3e 90 07 85 bd 8d 70 8d 3e
       -0.3328551 0.319761 -0.06495583 0.27624932
000360 0f b8 a4 3c 55 75 3d 3f cf 7d 50 be 45 8a 00 bf
       0.020107297 0.7400716 -0.20360492 -0.5021098
000370 e2 e9 99 be 8e 21 74 bd a7 3a de bd ef e3 57 bd
       -0.3006125 -0.059602313 -0.10851031 -0.05270761
000380 95 81 12 bf 44 bc 20 bf b2 2e 2b 3f b2 57 8b be
       -0.57228976 -0.6278727 0.66868126 -0.27215344
000390 4d 53 cd 3c 20 f1 07 3e a2 45 9f 3e a9 a8 1d 3e
       0.025064135 0.13275576 0.31107813 0.1539637
0003a0 fd 82 cb bc 91 6f e4 3e 38 65 98 3d 18 5b c7 bd
       -0.024842734 0.44616368 0.07441181 -0.09734172
0003b0 d3 54 b5 3b 70 42 e0 bd bc b0 89 3e 47 d9 d1 be
       0.0055337935 -0.10950172 0.2689265 -0.40986082
0003c0 16 8f 0b 3e 4f a8 84 be 9f f7 e0 3d 30 fd e0 bd
       0.13628802 -0.2590966 0.1098473 -0.10985792
0003d0 00 19 af 3c 77 c0 b5 bd fc 3e 12 3e ea 46 ee 3d
       0.021374226 -0.088746004 0.14281839 0.116346195
0003e0 1c 48 42 be 7c e2 97 3e ef c7 86 bd 13 59 53 be
       -0.1897282 0.2966498 -0.06581103 -0.20639448
0003f0 a0 13 6d be 5e ac 2b 3d bc 0d d5 3d 23 68 a5 be
       -0.23152018 0.04191243 0.1040301 -0.32306013

stu.hidden.0.mlp.swiglu.v.weight f4 [32, 8]
000000 22 f8 87 bd 31 6b 12 3c 15 1c a7 be 46 4a 80 3e
       -0.066391245 0.008936689 -0.32638612 0.25056666
000010 59 86 34 3e a5 81 a4 bd 3e 69 a9 be 02 23 77 bd
       0.17629375 -0.0803254 -0.33088106 -0.06033612
000020 10 15 0b be c2 3d c7 bc e8 55 36 3d 7c a7 7e 3a
       -0.13582253 -0.02432144 0.04451552 0.0009714288
000030 fa bc 62 be b9 44 07 be e2 9c bf 3d a6 66 8b 3d
       -0.22142401 -0.1320981 0.09356095 0.06806688
000040 56 9c e0 bd f4 9c 31 3b aa f3 9f bd c1 3c 7b be
       -0.10967319 0.0027101608 -0.07810147 -0.24534895
000050 2c 74 08 be d6 f4 8b 3d 14 3a 8f 3e d6 73 27 3e
       -0.13325566 0.06833808 0.27973998 0.16352782
000060 80 e4 f3 be 98 27 cc 3d 00 32 37 be 1e 6f 05 bd
       -0.4763527 0.099684894 -0.17890167 -0.032576673
000070 8f 81 87 be 35 61 a5 3e c9 0e 88 3e 49 35 3c 3e
       -0.26466033 0.32300726 0.2657378 0.18379702
000080 fc b2 03 bd 5e 54 2b bd c4 2f e2 bd 67 a7 db bc
       -0.032153115 -0.041828506 -0.11044267 -0.026813222
000090 1f 43 ae 3d 14 79 07 3e 6c 0a c1 3c 11 73 ae 3c
       0.08508896 0.13229781 0.02356454 0.021295102
0000a0 4a a9 aa 3d 62 c6 3b bd 8c 71 dc 3d fa b4 9f 3d
       0.083330706 -0.04584349 0.10763845 0.077981904
0000b0 16 96 1a bd 21 b2 85 bd 06 34 94 bd 51 ab 40 be
       -0.03774079 -0.06528116 -0.07236485 -0.18815352
0000c0 b6 a6 6a be a4 bb 86 3e 8d 20 9a bd 44 77 6f bd
       -0.22915158 0.26315033 -0.0752574 -0.05846335
0000d0 c2 1e 45 be ab dd 8c 3c 28 5b b9 3d 6a de 4f be
       -0.19250014 0.017195543 0.0905059 -0.20299688
0000e0 2e 88 32 3e 61 f0 54 be 73 22 4b bd 39 05 81 3e
       0.17434761 -0.20794822 -0.0495934 0.25199297
0000f0 f0 d8 e1 3e bf ac 72 be e5 bb a0 bd ee 22 aa 3e
       0.44110823 -0.2369871 -0.07848338 0.33229774
000100 d6 b2 94 3e 9e c3 36 3e ae 29 d9 be d6 87 20 be
       0.2904269 0.1784806 -0.42414612 -0.15676817
000110 64 d2 94 be 80 46 53 3e cb 5e db be a2 8f 9d 3d
       -0.29066765 0.20632362 -0.4284576 0.076934114
000120 e8 ae b3 3c da 02 c9 3e 63 87 0e be 70 59 6b bd
       0.021933988 0.39259988 -0.13918833 -0.05745834
000130 34 6e bb bd b5 a3 72 be b8 b5 62 be 7c 14 37 be
       -0.09151879 -0.23695262 -0.22139633 -0.17878908
000140 dd 40 ad bd a6 01 41 be a2 10 e7 3d 37 4e b1 3d
       -0.08459637 -0.18848285 0.11282469 0.086574964
000150 20 19 4c 3e 48 e2 be 3a 34 95 2b 3d fa 60 ed 3c
       0.1993146 0.0014563287 0.041890338 0.028976906
000160 59 f4 fb 3d c3 58 91 3e db 37 8a be 74 55 96 be
       0.12302465 0.28388032 -0.2699574 -0.2936207
000170 d5 2d 49 be 8d ea af 3e 57 cc 74 be e4 48 28 bb
       -0.1964639 0.34358636 -0.23906074 -0.0025678212
000180 e0 c2 02 3e b0 1d 11 be b1 49 07 be a8 8b 68 3d
       0.12769651 -0.14171481 -0.13211705 0.05677381
000190 40 13 22 be c4 a0 b7 3d 2d 02 07 be ad 35 c4 3d
       -0.15827656 0.089662105 -0.13184424 0.0958055
0001a0 78 b0 c9 3e 3b d5 ac 3e a2 53 ac be c6 45 58 bd
       0.39392447 0.33756432 -0.33657557 -0.052800916
0001b0 00 45 3a 3e 29 ec ea bd 40 dc 79 be 3b 69 ad 3e
       0.18190384 -0.11470825 -0.24400425 0.33869347
0001c0 b7 6a 01 be ac 8f 9c 3d 4f 4e 18 bd 57 10 2e 3e
       -0.12638365 0.07644591 -0.037184056 0.1699842
0001d0 8c 64 8f be 1e af 98 3d 78 17 f2 be 5e e0 57 3e
       -0.280064 0.07455276 -0.4728353 0.21081683
0001e0 52 8c c3 3e 00 d3 13 bc 8c e8 bb 3d b6 7b ab 3e
       0.38192993 -0.009022474 0.09175214 0.3349282
0001f0 4f a8 4e bd 72 93 08 3e ff c7 0a be b1 3f bf bc
       -0.05045348 0.13337496 -0.13552855 -0.0233458
000200 9e 3f 81 bd 2e af 89 3e d5 94 04 bd d7 6c 20 3d
       -0.06310962 0.26891464 -0.0323685 0.039166298
000210 40 8c ae be 94 87 17 be 61 46 75 3e 3f ae b0 ba
       -0.34091377 -0.14797813 0.23952629 -0.0013479664
000220 b6 b0 62 3e 75 6f 24 3e f1 71 dc 3d 7f f9 e6 3e
       0.22137722 0.16058142 0.1076392 0.45112225
000230 09 5f 4a be 87 55 53 bc cf 5c 80 3d a4 13 dc 3a
       -0.19762816 -0.012898809 0.06267702 0.0016790521
000240 62 c8 e2 3d ad ab 6d 3e dc ad 92 bd ad 2d d5 3e
       0.11073376 0.2321002 -0.07162067 0.4163641
000250 09 d5 e7 bd 80 ed 6a 3e 31 95 2d bd 50 06 0f 3d
       -0.1131993 0.22942162 -0.04237861 0.03491813
000260 d4 72 f3 bc 1f 20 bd 3c f0 8b 80 3c b5 7a 40 be
       -0.02971784 0.023086606 0.015691727 -0.18796809
000270 0f 0d 30 be ab 99 46 3d d0 fe 40 be 79 37 37 be
       -0.17192481 0.048486393 -0.18847203 -0.17892255
000280 af 86 af bd 76 bc 1e be d7 c9 65 3d cd b9 03 3d
       -0.08570611 -0.1550158 0.056100693 0.032159615
000290 65 a1 46 3d 38 c6 cc bd 96 3e 4a bd 0d 8a 09 3d
       0.04849376 -0.09998745 -0.049376093 0.03357892
0002a0 e6 a7 bb 3e fd 68 72 be 1c 55 a6 3e e7 a3 bf 3e
       0.36651534 -0.23672862 0.32486808 0.37429735
0002b0 4b dc 43 be c3 90 00 bf 37 f1 d3 3e 77 f9 1d be
       -0.19127004 -0.5022089 0.4139497 -0.15427195
0002c0 91 2e 82 3e 86 e0 55 3e ff 56 c8 bd a7 48 86 3e
       0.25426152 0.2088643 -0.09782218 0.26227304
0002d0 e2 95 1f 3e 00 71 cb be 26 e6 3a bd 2e 14 8d be
       0.1558452 -0.3973465 -0.045629643 -0.27554458
0002e0 34 49 ab 3e 17 70 83 3e 59 79 ca bd 62 bf ab 3d
       0.33454287 0.25671455 -0.098864265 0.08386113
0002f0 20 08 37 bf 78 50 a5 bd 90 c6 a8 bd 17 36 d1 bd
       -0.7149677 -0.08071989 -0.08240998 -0.10215395
000300 a2 c6 bf 3e c2 89 82 3e 4e d1 02 bf 88 2c 91 3d
       0.37456232 0.25495726 -0.51100624 0.07088572
000310 2e 6f 3a 3f 52 00 ce be 83 2e a7 be fd c8 e3 3c
       0.72825897 -0.4023462 -0.32652673 0.0278058
000320 b1 33 3c 3e 42 3e 89 be fd 50 64 3e d3 d0 f9 3e
       0.18379094 -0.2680531 0.2229652 0.48792133
000330 49 d9 11 bf 2f fd 30 be 48 8f bb 3e a5 7e 0c bf
       -0.56972176 -0.17284082 0.36632752 -0.54880744
000340 52 3a 02 3f 9f 42 bf bd 92 46 64 3d 32 d0 b0 3e
       0.5087024 -0.09338879 0.055731364 0.3453384
000350 5f 98 a7 3d bd 7a a5 3e ce 51 05 bf 10 1e 38 3d
       0.08183359 0.32320204 -0.5207795 0.044950545
000360 0d ea 0e bf ec dc fe bd 71 c7 d9 bd 7f fe a5 bd
       -0.55825883 -0.12444481 -0.106337436 -0.08105182
000370 f4 43 eb 3a bc 81 3a 3e e6 5c 1e 3f be ff 8e be
       0.0017949329 0.18213552 0.618605 -0.2792949
000380 e7 fe 49 3f 0b ab 29 3e 3f dd 80 be 6b ca ec 3e
       0.78904575 0.16569154 -0.25168797 0.46248183
000390 fa 18 05 3d 1c 83 3e bf 3c fa 5a be 58 e1 b4 bd
       0.032494523 -0.7441881 -0.2138452 -0.088320434
0003a0 f8 05 ab 3d f7 85 e2 3e b7 02 85 bd e6 61 8b be
       0.08350748 0.44242832 -0.064946584 -0.27223128
0003b0 a4 f0 70 be 5e b0 1c 3d 16 8b 23 bd 19 c2 de bd
       -0.23529297 0.038254134 -0.039927565 -0.10876865
0003c0 98 e7 70 3e 9e 82 60 be c0 5d bd 3d 75 a8 8b 3d
       0.23525846 -0.21924827 0.09246397 0.0681924
0003d0 a8 b4 33 3d 40 cf 2a 3e 2a 20 0b 3e 93 fa 98 3c
       0.04387346 0.16680622 0.13586488 0.01867417
0003e0 14 a3 88 be 47 8a 83 3e f8 d9 01 be 53 02 d8 be
       -0.2668692 0.25691435 -0.12680805 -0.42189273
0003f0 d1 de 1a be 54 c8 6b be 7c 13 4e 3e 33 ad 18 be
       -0.1512406 -0.23025638 0.2012462 -0.1490982

stu.hidden.0.mlp.swiglu.w2.weight f4 [8, 32]
000000 b1 1b 8f be e0 c2 60 3e 25 dd 86 3d d2 d8 a2 3e
       -0.27950814 0.21949339 0.06585149 0.31806046
000010 64 62 d3 bd 4c 23 8a bd 12 e6 b8 3d 04 18 83 be
       -0.10321501 -0.067450136 0.090282574 -0.2560426
000020 64 9a 09 3d f4 f8 ed 3c 1d 59 8a bb 2e 58 e7 bc
       0.033594504 0.029049374 -0.004222049 -0.02824029
000030 6e 8d 14 be 81 46 59 be 2c fb 46 3e af cc 47 3d
       -0.14507076 -0.21218301 0.19431752 0.048779186
000040 73 81 ef 3d 02 f4 af ba c4 64 d7 3c 7d 7e c0 be
       0.11694612 -0.001342416 0.026293166 -0.37596503
000050 1f 75 fb bc 14 ff 99 be 76 14 ab be 20 fc 8b be
       -0.030695496 -0.30077422 -0.33414048 -0.27340794
000060 69 e3 04 3f ab fb 16 bf 78 43 32 be 8b d5 4d bd
       0.519095 -0.58977765 -0.1740855 -0.05025248
000070 40 3f b8 be c1 8f c2 bd 7b 7e 78 be 95 54 80 3c
       -0.35985756 -0.09500075 -0.24266998 0.015665332
000080 42 21 65 be 5d 09 4d 3c ba ed 09 bd 5a 0f 48 bd
       -0.22375968 0.012514439 -0.03367398 -0.048842765
000090 40 cc a9 bd ca 9b 9b 3d d5 eb a8 be 7c 8c af bb
       -0.08290911 0.07598074 -0.32992426 -0.005357323
0000a0 27 7f a4 be 15 02 59 be 97 6d 44 3e de 22 1e 3e
       -0.3212826 -0.211922 0.1918243 0.15442988
0000b0 74 c6 8c 3e 8a a8 a7 bd 30 8d 72 be 4f ef 80 be
       0.27495158 -0.08186443 -0.23686671 -0.25182578
0000c0 10 1a 93 3c 62 e0 a9 be a9 c5 90 bc f1 ae 8b 3e
       0.017956764 -0.33179003 -0.017672377 0.27281907
0000d0 cd 79 a9 bd 05 a7 a2 3e 36 8b 21 be 1d a9 09 bd
       -0.08275185 0.3176805 -0.15775761 -0.033608545
0000e0 79 66 a6 3e 0c 3f 56 3e c9 9f ae 3e 69 76 38 bf
       0.32500055 0.20922488 0.3410628 -0.7205568
0000f0 d5 fa be be 13 42 b2 be da 93 12 be 98 91 88 be
       -0.37300745 -0.34816036 -0.14314213 -0.2667358
000100 a7 d5 7f 3d 64 7f 04 3e 54 36 17 bd ce 62 52 3e
       0.062459614 0.1293922 -0.036917046 0.20545503
000110 2b 06 04 bd 69 8c 0e be 6d eb 16 3e 7e a6 88 3e
       -0.032232445 -0.1392075 0.14738245 0.26689523
000120 b8 98 54 3e 94 66 a0 3d b1 6f 7c 3d 0e b6 a1 3d
       0.20761383 0.07832065 0.061629955 0.07896052
000130 76 2e 13 be fa 05 f2 3e 20 bb 13 3e 57 1f 88 bd
       -0.14373192 0.47270185 0.14426851 -0.066466026
000140 bb 1a 46 3e 27 a1 10 3e 68 3d fb 3c 11 a8 89 be
       0.19346134 0.14123975 0.03066893 -0.26886037
000150 ec 7e bd bd 37 cb 8b be a0 48 ab 3d 04 9f 31 3d
       -0.09252724 -0.27303478 0.083634615 0.04336454
000160 c7 20 db be 86 41 ab 3c 00 aa 4f 3d 94 65 69 bd
       -0.42798445 0.020905267 0.050699234 -0.056981638
000170 86 e8 b3 3e 5f 1f 24 bd 89 a2 93 3e ad 6a 5b 3d
       0.3513834 -0.04006898 0.28834942 0.05356853
000180 2e 24 c1 be 95 94 ac bd 28 eb 49 be cc 20 0c 3d
       -0.37722915 -0.08426777 -0.19718611 0.034210965
000190 cc f3 5e bd 6f 85 1f be c0 2a 27 3e e0 ac d0 3d
       -0.05443172 -0.15578245 0.16324902 0.10189223
0001a0 ea 8f 96 3e 92 f4 30 3e 5b 24 37 be 6c e2 b4 be
       0.29406673 0.17280796 -0.17884962 -0.35328996
0001b0 b7 f4 80 3e 8b ae 22 3e 0b de 2c 3c 5a 34 c1 bb
       0.25186703 0.15886895 0.010550986 -0.0058961334
0001c0 63 8f 06 be 6a 6a 97 be 3c c0 c2 bd f8 2c 5d 3e
       -0.13140635 -0.29573375 -0.09509322 0.21599185
0001d0 57 38 c3 3d 1e d5 00 bf 0f 35 ee 3d 06 f4 e2 be
       0.0953223 -0.5032519 0.11631214 -0.443268
0001e0 7f f7 39 bd 80 3d 12 bf 60 d5 54 bd a8 16 10 3f
       -0.045402046 -0.5712509 -0.051961303 0.5628457
0001f0 4b 47 ec bd ce 1e 2c 3e be 19 40 3e 4c c1 cc 3d
       -0.115370356 0.16808626 0.1875982 0.09997806
000200 9b c5 68 3e 42 58 a5 bd fa e7 a5 3e 9c 4d 55 3e
       0.2273163 -0.080734745 0.32403547 0.20830387
000210 84 e5 13 3d d9 0c fa 3d b8 23 6f 3e 69 70 d0 be
       0.036107555 0.12209482 0.2335347 -0.40710762
000220 48 0a 20 3e af 05 a6 bc 50 a8 06 bd 74 5a 77 be
       0.15628922 -0.020266382 -0.03287536 -0.24155599
000230 ad 29 97 bc 48 e9 43 be 36 68 5f 3e 47 b4 f7 3e
       -0.01845249 -0.19131958 0.21817097 0.48379728
000240 c9 af e8 bd e4 d6 81 3e 3e 05 f9 3d 60 20 10 3e
       -0.11361653 0.2535926 0.12159203 0.1407485
000250 f3 1d 1e bd 53 dd 93 3e ab 46 96 bd f4 c1 1f 3f
       -0.03860278 0.28879794 -0.073376976 0.62405324
000260 30 20 86 3d 8a 7c 9c 3e 75 d4 81 be 07 54 91 3d
       0.06549108 0.30563766 -0.25357404 0.07096105
000270 5a 71 01 be a5 b1 68 3e 88 99 26 3e ee 84 c7 3e
       -0.12640896 0.22724016 0.16269505 0.38968605
000280 2c 23 9d 3c 39 1a 3d 3e 47 00 b0 bd 7e 5e df bd
       0.01918181 0.18467034 -0.08593803 -0.10906695
000290 77 0d 05 3e 79 a1 65 be cc b1 96 3d 58 bd 8c 3e
       0.12993418 -0.22424878 0.07358131 0.27488208
0002a0 2f cb 08 3e fc 31 32 3e d3 c3 cd 3c 01 3b 70 bd
       0.13358758 0.1740188 0.02511779 -0.05865002
0002b0 0f 4c 45 be 0b 4e d2 3e 51 0d 91 3e 77 89 a3 bd
       -0.19267295 0.41075167 0.28330472 -0.07985204
0002c0 99 d5 0d 3e cc 4b 56 be 14 c8 d1 bc 47 32 ec 3d
       0.13851012 -0.20927352 -0.0256081 0.11533027
0002d0 68 2f ff bd ba e6 dc bd b8 8f db 3d 01 ee 1b be
       -0.12460214 -0.10786195 0.107207716 -0.1522751
0002e0 3c b8 9b be 53 d3 e6 bd 81 b8 69 3e 2e 0b 85 bc
       -0.30413997 -0.11270776 0.22824289 -0.016240682
0002f0 91 61 a0 3e f5 62 f7 bc aa 94 99 be 7b f2 7e 3c
       0.31324437 -0.030198554 -0.29996234 0.015560742
000300 46 c5 73 3e f0 ef 72 bd 08 5d 03 3e 28 41 9a be
       0.23805723 -0.059310853 0.12828457 -0.30127835
000310 b3 0d a1 3d bb af 1a be 13 72 ce be f1 04 a4 3e
       0.07863941 -0.15106098 -0.40321407 0.3203502
000320 bd 78 1a 3e 86 1e 1b be 96 51 7c 3d c1 44 c6 3d
       0.1508512 -0.15148363 0.061601244 0.096810825
000330 a7 41 b6 bd 6e c6 29 3e 8b 72 95 3e c6 d1 20 be
       -0.08899241 0.16579601 0.29188952 -0.15705022
000340 ad 15 8f be f2 ee 51 be e8 96 79 be f6 ae 8f 3e
       -0.27946225 -0.20501307 -0.24373972 0.28063172
000350 c6 6d 47 3c b8 9a e1 bd 3e 08 93 be 8c 01 83 bd
       0.012172168 -0.110158384 -0.28717226 -0.063967794
000360 b5 02 9a 3e 9a 69 20 be d2 20 b4 3d d5 3a 7d be
       0.3008019 -0.15665284 0.087953225 -0.24729474
000370 6a 00 f4 bd be ef c1 be f5 f1 e9 bd 1f 1a eb be
       -0.119141415 -0.3787822 -0.11423103 -0.45918366
000380 2d 6f 25 be e2 ee 8c be 48 b0 ad b9 23 ac b4 be
       -0.16155691 -0.27526003 -0.0003312847 -0.3528758
000390 a7 31 b3 3d ae ea bb 3d 17 6b b0 ba 2d 8b 30 be
       0.08749705 0.09175621 -0.001345965 -0.17240591
0003a0 a1 29 9e be 6e 03 0a 3c 8c 8c 16 bd ef 50 88 3e
       -0.30891135 0.008423669 -0.03675513 0.26624247
0003b0 28 68 00 be b4 e9 b5 be a3 16 cc bd 79 78 b6 bd
       -0.12539732 -0.35529864 -0.09965255 -0.08909697
0003c0 50 d6 8e bd ae 92 35 bd 37 99 55 3e 17 39 ee 3d
       -0.069744706 -0.044329338 0.20859228 0.11631983
0003d0 94 b4 06 bd 71 02 c7 3e 59 76 d1 3e 22 ff 1a be
       -0.032887056 0.3886905 0.40910605 -0.15136388
0003e0 ba 60 a1 be f3 71 ae 3e 20 bf fb 3e 02 06 0b be
       -0.3151911 0.3407131 0.49169254 -0.1357651
0003f0 d0 bc c4 3e 9e d3 0b bd 6b 83 75 3e 10 9e 3d bd
       0.38425303 -0.03413736 0.23975913 -0.04629332

stu.hidden.1.rn_1.weight f4 [8]
000000 61 28 67 3f 01 a4 15 3f 48 4c 3b 3f b1 c6 2a 3f
       0.9029599 0.58453375 0.7316327 0.6670943
000010 cc e4 16 3f e2 9c fa 3e 67 e9 3e 3f 5c 52 01 3f
       0.58942866 0.48947817 0.74574894 0.50516295
