checkpoints/sssm-Walker2D-v1-model_step-350-2024-11-18-20-20-43.pt (torch, 34490 bytes, 18 tensors)

emb.weight f4 [8, 24]
000000 fe 1c e5 bc cb b6 2f be fc ab 37 bd a5 5f a4 be
       -0.027967926 -0.17159574 -0.04484175 -0.3210422
000010 c8 39 ec 3e 7c 9e d1 be 9c 98 59 3e 5f 20 f5 3e
       0.46137834 -0.40941226 0.21249622 0.4787626
000020 1b 7a a3 be a1 f4 32 3e 6c 41 0f bf 45 f0 20 be
       -0.31929097 0.17476131 -0.559592 -0.15716656
000030 ff c7 59 be 52 5d 00 3e 49 0b 7c be 40 54 26 3e
       -0.21267699 0.12535599 -0.2461368 0.16243076
000040 50 66 17 be 95 9f 7c be 99 87 80 be 9e 26 ae 3d
       -0.14785123 -0.2467025 -0.25103453 0.085034594
000050 c3 86 de 3d 9b 2d e3 bc 9c 89 6b bd 0b 4a df 3b
       0.108655475 -0.027731707 -0.05750428 0.0068142465
000060 1d 9a 65 3e 54 39 20 be 2d 9c d6 be bd f3 17 3d
       0.22422071 -0.15646869 -0.41916028 0.03709768
000070 d2 b5 b3 3e be fd a2 3d a1 63 93 be 60 79 19 3e
       0.35099655 0.07958554 -0.28786948 0.14987707
000080 ef 97 99 bb 07 43 66 3e be 5d da be 1e 53 0a 3e
       -0.0046873013 0.22486506 -0.42649645 0.13508269
000090 88 a3 5a bd a4 cf 0c be b3 f9 c1 3d be f6 5c 3e
       -0.05337861 -0.13751084 0.094714545 0.215785
0000a0 0e 13 a3 bd cd 4c 8c bd 14 9b 78 bc 5b 85 8e 3e
       -0.07962619 -0.06850586 -0.015173692 0.27836117
0000b0 fd 53 b2 3e b5 3e 30 bd a0 0c 5f 3e 6e 31 9d 3d
       0.34829703 -0.043028552 0.2178216 0.076754436
0000c0 32 c0 91 be 24 20 39 3d de 74 cb be c7 6c b7 bd
       -0.28466946 0.045196667 -0.397376 -0.089562945
0000d0 fa 8d d1 3e 28 76 e1 ba 43 69 48 3e bd 08 4d be
       0.40928632 -0.0017201351 0.19571404 -0.20022865
0000e0 04 00 08 3e 00 82 27 bf 44 3b 96 3e a3 19 92 be
       0.13281256 -0.6543274 0.2934209 -0.28535184
0000f0 82 03 1c ba 0b 8e 87 bd 81 72 cc 3c 42 b0 f0 3c
       -0.00059514504 -0.066188894 0.024956943 0.029380921
000100 ba 78 c6 3d 9d 53 5a 3e f1 69 5f bd c6 dd 9c 3c
       0.096909955 0.21320958 -0.054544393 0.019148719
000110 6f 09 94 3e c4 e5 21 3e 3f ec 6d 3d d8 ef 89 3d
       0.28913447 0.15810305 0.05808663 0.067352
000120 a7 3c fd be 88 b3 41 3f 1e 18 8d be 85 66 58 3d
       -0.49460337 0.7566457 -0.27557462 0.052832145
000130 69 5f 41 bd a3 7a 5d 3e 89 ce ae 3d ec a3 49 3e
       -0.04721013 0.21628813 0.08535487 0.19691437
000140 fb 6b a0 3e b0 02 61 be 1b 2d 33 be 92 b3 4c 3e
       0.31332383 -0.21973681 -0.17497675 0.19990376
000150 d6 fc 36 bd 62 39 1b be de 6c 8a 3c 81 24 82 bc
       -0.044674717 -0.15158609 0.016897615 -0.015886547
000160 0e f0 25 be 6f d3 c3 bd 7f e7 3c 3e 56 d9 8e 3d
       -0.16204855 -0.09561812 0.18447684 0.06975047
000170 26 f7 a7 3e c1 74 1a 3d 94 cf 16 3e fd d8 aa 3e
       0.32805747 0.037709 0.14727622 0.33368674
000180 8b 28 83 3e 72 fc b7 bd dc 7a fa 3d be 44 12 be
       0.2561687 -0.08983697 0.12230465 -0.14284036
000190 e6 a6 db bd a9 91 01 be 94 25 6b 3c c1 1b 37 be
       -0.10725193 -0.12653221 0.014352221 -0.17881681
0001a0 40 44 34 be 2c 3f 4b ba 5f da ec bd d7 bf 97 bd
       -0.1760416 -0.0007753249 -0.115650885 -0.074096374
0001b0 c3 52 ae 3b 84 7e 05 bd 6c ec 37 3d c5 af f1 bd
       0.0053199246 -0.032591358 0.044903204 -0.118011035
0001c0 2d 6e 8e 3e 05 ab 44 3e 3b 2f 51 be f4 5d 95 bd
       0.27818432 0.19205864 -0.20428173 -0.07293311
0001d0 e4 40 be 3a dc 38 0f 3e 8d d3 db 3d 15 00 3f be
       0.0014515189 0.13986534 0.107337095 -0.18652375
0001e0 b5 33 38 3e 4c 4e 09 3d 4f b8 99 3e a7 2f 15 3e
       0.17988475 0.033521935 0.3002343 0.14568959
0001f0 5f 3b 4d 3c b3 cc fa 3d 24 91 e2 3e ce 10 83 3d
       0.012526362 0.122460745 0.44251359 0.063996896
000200 30 45 68 bd e4 02 68 3d fc 21 e0 3d bb 52 60 be
       -0.056706607 0.05664338 0.10943982 -0.21906559
000210 6e d1 40 3b 34 74 05 be 1e ca 3a bd 74 97 a0 3e
       0.0029421705 -0.13032609 -0.04560291 0.3136555
000220 30 53 d7 bd fe ad 20 3d 27 86 1f 3e c1 b7 bf 3d
       -0.10513914 0.039228432 0.15578519 0.0936122
000230 37 af 3b 3e f4 c8 93 3d 1d 9a 2d bc 84 44 95 3e
       0.18328558 0.07216063 -0.0105958255 0.29153836
000240 eb f9 e3 bd 42 29 45 3e 2d 1f 2e be bd 6a ef bc
       -0.111316524 0.1925402 -0.1700408 -0.029225701
000250 a5 ee 94 3d ca 4a 61 be 0b dd 20 3d 8b 3e c7 3e
       0.0727208 -0.22001186 0.039273303 0.38914904
000260 84 4a bd 3e 92 bb e8 bd 2b 7a bb 3e 05 e7 6c be
       0.36970913 -0.11363901 0.36616644 -0.23135002
000270 c3 f2 e1 bd 77 a8 03 3f 5d 41 3e be a1 2a 9c 3e
       -0.11032631 0.5142893 -0.18579622 0.30501273
000280 d4 a0 92 3e e6 55 65 be 16 de 2d be 90 9f 90 bd
       0.28638327 -0.22396049 -0.1697925 -0.07061684
000290 9f dd 8e be 81 b9 bf 3c 3d 05 92 bd ea ca 77 be
       -0.27903458 0.023403885 -0.071299054 -0.241985
0002a0 71 6f 8a 3c b0 2b 92 3c 7e 89 1e 3e fa e4 ab 3c
       0.016898843 0.017843097 0.15482137 0.020983208
0002b0 ed e0 bf 3c 8a 27 84 3d be 82 91 3d 57 ea 1c 3e
       0.023422683 0.06452854 0.07105015 0.15323769
0002c0 11 b8 9a 3e 87 10 71 be 10 35 04 bf d6 1c 14 be
       0.30218557 -0.23541461 -0.51643467 -0.14464125
0002d0 59 f0 04 3e ab e9 4c be 69 fe cd bc 49 16 3e be
       0.1298231 -0.20011012 -0.025145726 -0.18563189
0002e0 47 f5 85 3e 93 89 05 3e 78 35 19 3e fc e0 47 3e
       0.26163694 0.13040762 0.14961803 0.19519418
0002f0 fc f2 5b 3e 14 15 88 3d 70 6b 80 3e 08 c0 9e 3e
       0.2147941 0.06644645 0.25081968 0.31005883

stu.hidden.0.rn_1.weight f4 [8]
000000 64 9b 56 3f 6a 87 45 3f eb d8 22 3f 61 27 07 3f
       0.8383086 0.7715975 0.6361224 0.5279446
000010 62 1b 48 3f 8c 55 50 3f ce c4 1d 3f 8b 04 54 3f
       0.7816678 0.81380534 0.61628425 0.8281943

stu.hidden.0.stu.M_u f4 [8, 3, 8]
000000 e9 27 07 bf f4 8d 84 3d b3 ab e2 bc 82 bd 36 bd
       -0.52795273 0.06472388 -0.027669763 -0.044614322
000010 9b d0 b3 3e 01 1a 8c bd 18 b3 3f 3e 60 f1 54 3d
       0.3512009 -0.06840897 0.18720663 0.051988006
000020 2c 16 08 bf 62 53 22 bb 62 69 44 be bd 63 91 bd
       -0.5315883 -0.0024768938 -0.19180825 -0.07099102
000030 05 51 b1 3e ea 4a 84 3e ed 3c 2f 3e b0 ff 23 3e
       0.34632125 0.25838405 0.17113085 0.16015506
000040 8d 5b e1 be 32 63 20 3e da ce 6c bd b7 d2 9a 3d
       -0.4401516 0.1566284 -0.057814457 0.07559722
000050 73 d6 1c 3e a4 7a 90 3e 35 c7 6b 3e 7c d7 0f 3e
       0.15316181 0.28218567 0.2302521 0.14047045
000060 30 db 3b 3d 1e af 03 bf 44 c8 05 3e 2b 43 90 be
       0.04586333 -0.5143908 0.13064677 -0.28176245
000070 6a fe c6 3d 04 aa 1a 3c 5a e6 5a 3d f2 03 c9 3d
       0.097164944 0.009439949 0.053442337 0.09815206
000080 dc 6b e5 3d 2f 1b b4 be ed 82 d4 3d 3c a3 87 3c
       0.11202213 -0.3517699 0.103765346 0.016557328
000090 08 8b a8 3e de 37 85 bd c7 be 99 3e 22 e4 b1 bb
       0.32918572 -0.065047964 0.30028364 -0.005428807
0000a0 10 55 28 3e d5 a9 06 bd 66 22 99 3e 8d 45 78 3d
       0.16438699 -0.03287681 0.29909056 0.060613204
0000b0 64 7c dd bd 4f 5c 14 3e 2c cf f7 bd 39 5a 89 3e
       -0.10814741 0.14488338 -0.12100062 0.26826647
0000c0 f5 52 f1 3d 4d 9f 8b 3d 67 25 46 be ee 30 18 bd
       0.11783401 0.068174936 -0.19350205 -0.037156038
0000d0 dc 27 bf bd 3f 06 f7 bd dc b4 b6 3e 06 ed 1b 3d
       -0.093337744 -0.12061738 0.3568486 0.03806784
0000e0 2c 7e 03 3e f5 e1 30 3e 9e 0f 3e bd 58 bc a7 3d
       0.128411 0.17273696 -0.046401612 0.081902206
0000f0 e6 2e 83 be db 53 6e be 02 14 19 3d 09 7d 8b be
       -0.25621718 -0.23274176 0.037372597 -0.27243832
000100 62 bc a5 3d 21 78 f4 bd 8e 94 63 be 84 13 e8 3d
       0.08092572 -0.11936975 -0.22224638 0.11331847
000110 70 45 bc bd c3 64 44 3c 03 a7 05 3e 57 f1 4a bc
       -0.09192932 0.011986914 0.13051991 -0.012386641
000120 75 26 22 3e 40 96 9e 3e 4a 6d 7f be 0d fc 56 be
       0.15834983 0.30974007 -0.24944034 -0.20994587
000130 d8 c9 b2 be 33 41 57 be 32 8c 1c bd a8 e0 2c bd
       -0.3491962 -0.21020965 -0.03821964 -0.042206436
000140 35 b2 f6 3d 80 6c 5d 3e fa bc 54 be 9a ba 95 3d
       0.12045709 0.2162342 -0.20775214 0.07310982
000150 bc 70 80 3c aa 20 e0 3c bb 87 15 be 1f 68 70 3e
       0.015678756 0.027359325 -0.14602558 0.23477219
000160 69 85 49 3d 3a dd 84 bd 1c fc f2 bc dc 5a 4d 3d
       0.049199495 -0.06487508 -0.02966123 0.05013548
000170 5b b9 82 3c 31 12 73 be 32 c0 02 be 59 ff 02 3e
       0.015957525 -0.23737408 -0.12768629 0.1279272
000180 4a ff 34 bd b5 64 91 bd b6 21 9e be 8c fb 05 be
       -0.044188775 -0.070992865 -0.30885094 -0.13084239
000190 d8 f8 30 bd e4 83 ca 3d fc 05 00 be 42 6d 5e be
       -0.043206066 0.098884374 -0.12502283 -0.21721366
0001a0 1f c8 50 be 2f f6 f2 bd 54 e7 d4 be 09 e0 da 3c
       -0.2038884 -0.11863362 -0.4158274 0.026718156
0001b0 f4 5f 2e bd e0 0c f8 bd db 07 b0 bb d4 e8 18 bd
       -0.042571977 -0.12111831 -0.00537203 -0.037331417
0001c0 d8 8e 0c bf 00 2e 3f be f3 81 13 be e0 61 ac 3c
       -0.5490546 -0.18669891 -0.1440504 0.021042764
0001d0 06 a1 6d 3b c5 77 47 be 3d c8 2d 3e 82 8d d8 bc
       0.0036259308 -0.19479282 0.16970916 -0.026434664
0001e0 7a 85 19 3e fc 98 90 be 74 01 de bd 5a a7 8e be
       0.14992324 -0.28241718 -0.10840121 -0.27862054
0001f0 b9 00 de 3d b8 19 b8 be 63 6d 92 3e b5 fd 39 be
       0.108399816 -0.35957122 0.2859908 -0.18163188
000200 6f 76 1b be 10 96 cf bd bf cd 22 be 77 5c 85 be
       -0.15181898 -0.10136044 -0.15898798 -0.26047108
000210 e6 1f 4a 3e b1 61 96 be 4c 3c 9a 3d c4 87 08 be
       0.19738731 -0.29371408 0.07531032 -0.1333304
000220 ac 7c e3 bd 9e b4 9e 3d db 04 97 bd 96 0a 5e 3d
       -0.11107764 0.07749294 -0.07373973 0.054209314
000230 0a e0 80 bc 26 78 38 be d9 41 9f 3c 27 7e 3f 3e
       -0.01573183 -0.18014583 0.019440578 0.18700467
000240 0e ea 1e 3c b3 00 f7 bd d9 36 e4 bd 9d 21 50 3e
       0.009699358 -0.1206068 -0.11143274 0.20325322
000250 f2 5c dd bd 63 47 53 3d 83 7f ba be fd 42 fa 3c
       -0.108087435 0.05158175 -0.3642541 0.03054952
000260 45 16 92 3c 7e a1 4f 3d 1a a5 61 3e 24 2f 77 3d
       0.017832885 0.05069112 0.22035637 0.06034769
000270 e0 0c be 3d f0 d3 14 be b3 10 fd be de 8f dc bd
       0.092797995 -0.14533973 -0.49426803 -0.10769628
000280 43 74 6a be 1e 88 a7 3d dd 1f bb 3d fc c3 85 bc
       -0.22895913 0.08180259 0.09136937 -0.016328804
000290 2f 6f 3a be ed 3d 9d 3e bd df 6a bc 06 01 58 bd
       -0.18206476 0.30711308 -0.01433557 -0.05273535
0002a0 d7 eb 49 bd 68 a3 bf be 88 8e 23 be 68 08 92 bd
       -0.04929718 -0.37429357 -0.1597234 -0.071305096
0002b0 d5 d0 2c 3e 14 61 4e 3d c0 f7 36 bd cf 77 6e be
       0.16876538 0.05038555 -0.044669867 -0.23287891
0002c0 e1 93 88 3d a1 27 cc 3d a1 6f 54 3d cc c3 7c bc
       0.06668831 0.09968496 0.05186427 -0.015427541
0002d0 e1 1a e4 3b 87 6f 8b be a4 b0 35 3d e0 c7 d1 bd
       0.006961212 -0.27233526 0.04435791 -0.10243201
0002e0 17 ac 39 3e 39 22 31 bd 64 b5 13 3e 34 e4 c2 bd
       0.18132053 -0.043245528 0.14424664 -0.095161825
0002f0 2b 43 5b 3e 3f c2 90 3d bd b4 36 bd 92 89 92 be
       0.21412341 0.070682995 -0.04460596 -0.28620583

stu.hidden.0.stu.M_phi_plus f4 [8, 16, 8]
000000 6c b8 c9 3e 5e 6e c9 be 72 a6 b6 be 38 9a ef bc
       0.39398515 -0.39342016 -0.35673863 -0.029248342
000010 d9 0b 7c 3e 43 85 16 be f9 b5 df be a1 92 e8 be
       0.24613895 -0.14699273 -0.43693522 -0.4542437
000020 0a c7 12 3e 20 52 18 39 5c 02 26 be a7 63 bf bc
       0.1433374 0.00014526444 -0.16211838 -0.023362948
000030 61 8d 17 be f4 1d d2 bc b5 97 3b 3e 10 83 dc be
       -0.14800026 -0.025649048 0.1831959 -0.43068743
000040 5f 95 cc be 60 81 86 be 10 20 94 3d 44 46 31 3e
       -0.3995771 -0.2627058 0.07232678 0.1731196
000050 5c b2 b0 be 19 f1 86 be ed 4e 3d 3e dc 7e c7 3e
       -0.34511077 -0.26355818 0.18487139 0.38963974
000060 e2 b0 aa 3d ae 56 2a 3d 01 bf de 3c 30 e7 9b be
       0.08334519 0.04158657 0.027190687 -0.3044982
000070 1c 1d 83 3c 51 96 9a bc 69 5b f0 bd 69 0e 98 be
       0.016005091 -0.018870505 -0.11736185 -0.29698494
000080 47 9a 62 3e 78 4b ae 3e 08 83 7e be 24 44 41 bd
       0.22129165 0.34041953 -0.24854672 -0.047184125
000090 1b 36 f5 3d 28 af 94 bd d6 34 34 be f0 bc 24 be
       0.119732104 -0.07259971 -0.1759828 -0.16087699
0000a0 65 54 b1 3d 07 36 cf bd 63 65 cc bd 60 de c5 3e
       0.08658675 -0.10117727 -0.099802755 0.3864622
0000b0 7e e8 6a 3d 85 ed 2e be 96 e3 08 3c 26 70 fc bd
       0.057350628 -0.17082794 0.008355042 -0.12326078
0000c0 6d 89 2b 3e 5a d3 df bd 6f d2 98 3d bf e8 ae 3e
       0.16751643 -0.10928984 0.07462012 0.34161946
0000d0 04 98 50 3e fd b3 a3 3d e2 45 a8 bc 5e 1f 73 3c
       0.2037049 0.079933144 -0.020541135 0.0148390215
0000e0 18 a5 84 3e 8c c2 7c bc bc 44 23 3e 0f dd 75 3e
       0.25907207 -0.015427243 0.15944189 0.24010108
0000f0 2b 7d 6c 3e 2c 14 81 bd 57 49 f4 3d ba 0d c3 3d
       0.23094623 -0.063026756 0.11928051 0.095241025
000100 b8 aa ac 3d d0 e8 69 3e 59 6c 00 be c9 37 45 3e
       0.084309995 0.22842717 -0.12541331 0.19259562
000110 85 9f 6a 3e b2 08 85 bd 4f eb 32 bd 09 ce c7 3d
       0.22912414 -0.06495799 -0.04368144 0.09756095
000120 02 67 a8 3c 96 1d c4 3e b3 bf 92 bc 36 19 ca 3d
       0.02055693 0.38303822 -0.017913675 0.0986809
000130 36 0a 3b be 26 17 14 bd 61 9a 0a be af ea 68 3e
       -0.18265614 -0.03615489 -0.13535453 0.22745775
000140 2c 95 75 be df be 79 3d b0 c4 79 3e c8 a5 49 3e
       -0.23982686 0.060973044 0.24391437 0.19692147
000150 55 cf f1 be 5a 81 37 3e 3e b0 90 3e f3 70 dd 3e
       -0.47228494 0.17920437 0.28259462 0.43250236
000160 89 b8 51 bd 28 70 cc bd 90 be c3 3e fc 72 19 be
       -0.051201377 -0.099823296 0.38231325 -0.1498527
000170 b2 f5 cd bd 04 be 9b bc 77 e2 56 bc b5 c4 e9 3d
       -0.10056628 -0.019011505 -0.013115517 0.11414472
000180 af ad 68 3d 66 da a8 3e 87 50 58 3e 56 91 a0 bd
       0.056806263 0.32979125 0.21124469 -0.07840221
000190 0f 16 98 3d 0a ee 42 3c 03 67 da bd 5c ca 1c 3e
       0.07426082 0.011897573 -0.10664179 0.15311569
0001a0 30 82 ef bd c4 7e 61 be 52 ed 74 bc af f8 cb bc
       -0.11694753 -0.22021013 -0.01494916 -0.024898855
0001b0 b8 2e e5 bd 5b 01 bd bc 0c 80 cf bd 69 44 7b be
       -0.111905515 -0.023071935 -0.10131845 -0.24537815
0001c0 d9 5f 6b be 3e 6b bb bd 7a 9b 2e bc af b2 84 3d
       -0.22985782 -0.09151314 -0.010657186 0.06479394
0001d0 17 88 69 3e 48 9e 19 3d 3e ed 33 3c e6 fd 63 3e
       0.2280582 0.037504464 0.010981856 0.22264823
0001e0 5c 9c de be 4a 99 08 3d 16 90 85 3d a7 90 b8 3d
       -0.43478668 0.033349313 0.06521623 0.09011965
0001f0 ff cf 26 3e 56 33 98 3d f6 b2 6b 3b ca 35 2e 3e
       0.16290282 0.074316666 0.0035964823 0.17012706
000200 40 66 f4 bd c5 b6 c2 be 32 78 c9 3d fa 36 24 bf
       -0.11933565 -0.38030067 0.098373786 -0.6414639
000210 bc 12 92 3c 24 ef bc bd 6e eb 51 3d 4d 3b b9 3e
       0.017831199 -0.092253 0.051249914 0.36178055
000220 21 91 3b 3e a6 64 d2 bc 3c f2 30 3e 1f 67 f1 bd
       0.18317081 -0.025682759 0.17279905 -0.11787247
000230 14 c8 75 3e 49 ff d1 be df b0 78 3e ea 90 bc 3e
       0.24002105 -0.4101508 0.24286221 0.3682931
000240 9d a8 55 3d 79 ac 13 bf 33 ed 01 3f 94 5a 5d 3e
       0.052162755 -0.5768505 0.5075256 0.21616584
000250 21 66 7c be 1c 31 f2 bb aa b7 94 be 3d 49 5f be
       -0.24648334 -0.007391108 -0.29046375 -0.21805282
000260 41 41 5f 3e 48 b2 97 be 4d ee 75 3c 3d 87 82 3d
       0.21802236 -0.29628205 0.015010429 0.06373451
000270 ed fd b4 3e f3 60 ac be 28 6a a4 3e de 24 08 3e
       0.3534998 -0.33667716 0.3211224 0.13295314
000280 b4 fe 0d bd 22 83 47 3f 3f 78 76 bf 9d eb d5 3e
       -0.034666732 0.7793447 -0.9627723 0.4178132
000290 48 1b b9 3e c8 13 ed 3e 66 b7 ed 3d 3f b5 97 3d
       0.36153626 0.46304154 0.11607246 0.07407617
0002a0 b0 8a 1b bf d3 8d db 3e ae a3 b2 be fb 25 e3 3e
       -0.60758495 0.4288164 -0.34890503 0.44364914
0002b0 37 b8 b9 be 7c 70 80 3e 63 dd 4b 3e 2e 4e 90 bd
       -0.36273357 0.2508582 0.19908671 -0.070461616
0002c0 62 46 d4 be 12 2e b2 bd eb 51 2a 3e 0c 97 7e be
       -0.41459948 -0.087001935 0.16632812 -0.24862307
0002d0 d7 b6 5e bf 18 91 a0 bd 63 3b d5 bd 4d 78 24 3e
       -0.8699774 -0.078401744 -0.10411718 0.16061516
0002e0 2f 89 a5 bd 54 f8 95 bc 91 31 c5 3e 17 ad 28 bf
       -0.08082806 -0.018306889 0.3851438 -0.65889114
0002f0 15 8f 6a be c6 b7 44 3c fb 14 09 bf c2 7a dd 3c
       -0.22906144 0.012006706 -0.5354764 0.027036075
000300 10 1d 8f 3e 3e c1 ac 3e 86 20 55 3e d2 45 ba be
       0.2795186 0.33741182 0.20813188 -0.36381394
000310 4f 44 07 3f 81 99 f9 3d 00 f9 19 bf 43 48 28 be
       0.52838606 0.12187482 -0.6014557 -0.16433816
000320 48 75 60 3d 8a 59 07 3f 6c bf 64 be 6c 8d e0 3d
       0.054799348 0.52871 -0.22338647 0.10964474
000330 52 6e 5d 3f 7f 6e 8f 3e 26 f7 bd bd 6d e7 da be
       0.8649646 0.2801399 -0.092756554 -0.4275469
000340 56 7f c5 be ec 7a 09 be 37 b4 a2 bc 7a 9d a9 3e
       -0.38573712 -0.13425797 -0.019861324 0.33127958
000350 5c 4c 94 3e 9d 17 06 3f e5 eb 54 3e 37 3a d8 be
       0.28964508 0.5237978 0.20793112 -0.42231914
000360 5c 08 24 3b e7 81 26 bf c6 a1 45 3e d2 8c 7a 3d
       0.0025029397 -0.65041965 0.19299993 0.061169453
000370 11 77 10 be ca 38 2a 3e 5a 9e a0 3e c5 f7 25 3e
       -0.1410792 0.16623226 0.31370813 0.16207798
000380 a9 cc 97 3e d8 e5 a4 be 76 59 a6 3d 82 34 a7 bd
       0.2964833 -0.32206607 0.08122532 -0.08164312
000390 5e 9b c0 bb 95 7b 88 3d f2 57 79 3e 1e f3 d8 3e
       -0.005877896 0.066641964 0.24349955 0.42372984
0003a0 8e 64 eb be bf dd da 3d 21 16 59 3d 68 74 64 bc
       -0.45975155 0.10686826 0.05299962 -0.013943769
0003b0 ff 51 e9 bd 4e 32 18 3d 85 be 32 be fe e7 fb be
       -0.11392593 0.03715735 -0.1745549 -0.49200433
0003c0 58 57 ad 3e 53 40 f9 bd 28 8f 92 3d 92 dc 0b bd
       0.338557 -0.12170472 0.07156211 -0.0341459
0003d0 e4 c9 6a 3e 4a af 1c bd db c7 46 3d 48 7a ad 3e
       0.22928578 -0.038253106 0.04853044 0.33882356
0003e0 6f e7 06 3e a6 e4 b0 be 80 8c 56 3e a9 19 c4 bd
       0.13174222 -0.34549445 0.20952034 -0.09575207
0003f0 f6 18 34 3e 01 27 c4 bc 9a 2f 03 3e 4b fc 54 3e
       0.17587647 -0.02394438 0.12811127 0.20799367

stu.hidden.0.stu.M_phi_minus f4 [8, 16, 8]
000000 bf 50 c3 be 6a 4e d7 3d 59 6e 6f 3e 3e 68 ab bd
       -0.38147542 0.10513003 0.23381938 -0.08369492
000010 a7 55 57 3c 56 68 05 bd 55 4e 8a 3e f3 06 4a 3e
       0.01314298 -0.032570206 0.27012888 0.19729213
000020 dd a7 96 3d 56 ea e1 bd df 5a 0b be fa 48 84 3e
       0.07356236 -0.11031024 -0.13608883 0.25836927
000030 b1 ca 82 be 97 c6 e1 be 9a 93 09 3e 3a e1 1f 3d
       -0.25545266 -0.44096825 0.13435212 0.039033152
000040 bf cc 69 3e 79 6b 01 3d 69 0e 4b bd 57 97 75 3e
       0.2283201 0.031596635 -0.04957429 0.23983513
000050 45 76 af bd 80 2b 6d be 42 2e 6a 3c 49 dc 85 be
       -0.0856748 -0.23161125 0.014293255 -0.26144627
000060 66 21 d9 bc c8 0f 3b 3e fa eb e1 3b 8c 2b 8f be
       -0.026505183 0.18267739 0.0068945857 -0.2796291
000070 9a 9e 78 be 60 f5 ba be 75 27 2c 3e 0c 19 77 be
       -0.24279252 -0.3651533 0.16811927 -0.24130648
000080 5d e8 0b 3e 02 fd 81 bd 72 b0 eb bc f9 4b 7c be
       0.13662858 -0.063470855 -0.02877066 -0.24638356
000090 0c 5a 8d 3d 13 16 f1 bd a9 8a 77 3e 25 61 45 3d
       0.06901941 -0.117717884 0.24173988 0.048188347
0000a0 02 76 8a bd 09 0a 71 bd f0 2e 7e 3d 80 7f ac 3a
       -0.067607895 -0.05884746 0.06205648 0.0013160557
0000b0 f7 69 10 be 49 10 e0 bd ab 7b 13 bd d3 be c4 3d
       -0.14102922 -0.10940606 -0.03600661 0.09606709
0000c0 08 82 42 bd e6 f1 f4 bd af 6e ea bd 5a 87 99 bc
       -0.04748729 -0.11960201 -0.114468925 -0.018741298
0000d0 36 df 0e 3c 8b 81 2c 3e c4 09 b7 3d e4 fb 60 be
       0.00872021 0.16846292 0.089374095 -0.21971089
0000e0 b8 d5 9a 3d d3 7c 1e 3e 8f 5a 94 3d 85 c3 f5 3d
       0.07560295 0.15477304 0.07243835 0.12000183
0000f0 86 ef 6a bc 20 a6 1a 3d a2 00 89 be 71 54 e6 3d
       -0.014339333 0.037756085 -0.26758295 0.11246575
000100 97 2c ba bd 61 fc 1b 3d f4 ff 16 be 25 91 81 3d
       -0.09090536 0.038082484 -0.14746076 0.06326512
000110 1a 1d 3f 3e ee 4e 28 3e 42 73 ab 3c 84 56 2e be
       0.18663445 0.1643636 0.020928983 -0.1702519
000120 9d d2 e4 3d 53 e8 c1 bd dc 98 d1 3c 04 ca d8 3d
       0.11172984 -0.094681405 0.025585584 0.105854064
000130 5b 3a 0f be e2 6c b0 be 10 ca 0a be 54 8b 9f 3e
       -0.13987105 -0.3445807 -0.13553643 0.31160986
000140 27 d0 60 3d 37 62 74 3d aa 7e 97 3d 91 2d 01 be
       0.05488601 0.059663977 0.07397206 -0.12615038
000150 eb 9a 72 3d b8 52 a9 3d 38 f6 d8 bd ee 1f 0f be
       0.059229773 0.082677305 -0.105938375 -0.13977024
000160 b7 7f 6f be e1 c8 9e bd 0b 03 8c 3e 7e 51 d2 bd
       -0.23388563 -0.07753158 0.27346072 -0.1026945
000170 cf 4f 54 bd 69 66 0f be 3d f9 92 3e 5d 63 4a 3f
       -0.051833924 -0.1400391 0.2870578 0.79057866
000180 ff 37 36 bd 48 4a d3 3c 42 7c 0f be ea ed 9b bd
       -0.044486996 0.025792256 -0.14012244 -0.07613738
000190 21 c8 d4 3d c6 0f 0f be 39 ba 78 3d 73 36 b5 3c
       0.10389734 -0.13970861 0.06072447 0.02212069
0001a0 36 05 a6 bd 60 09 86 3a f0 93 7b bc 0f 27 af 3d
       -0.08106463 0.0010226183 -0.015355095 0.08552372
0001b0 c6 cf 87 3c bc 64 08 3e 92 e9 c9 bd 06 41 56 be
       0.016578566 0.13319677 -0.09859003 -0.20923242
0001c0 29 2b c1 bc e6 3d b7 3c a9 7a 8c bd cc 96 b5 3d
       -0.02358015 0.022368383 -0.06859333 0.08866653
0001d0 d6 6c a4 3d 09 ec 3f 3d 92 73 88 3d c3 2a ea bc
       0.08028571 0.04685596 0.06662668 -0.028584844
0001e0 ec 25 da 3d 88 ea 13 bd ce 23 f4 3d a0 06 fa 3d
       0.10651764 -0.03611234 0.11920892 0.12208295
0001f0 58 70 09 bc 42 96 e6 3d bf c1 3a 3d bf eb c4 3d
       -0.008388601 0.11259128 0.045594927 0.096152775
000200 ec 8d e8 3e 3a ab 90 bd a8 5b 05 3e b9 dd 67 3e
       0.45420778 -0.07063909 0.13023245 0.22643174
000210 fb d7 82 be f9 27 2a 3e 4f 25 63 3e bf a6 1e 3e
       -0.25555405 0.16616811 0.22182201 0.15493296
000220 d3 6b 59 be 80 72 b2 be 4f 63 5a 3e a0 32 6b 3e
       -0.21232538 -0.34852982 0.21326946 0.2296853
000230 04 b5 b8 3e c2 bb 95 be 16 3b 2a 3e 81 da e7 3e
       0.36075604 -0.2924481 0.16624102 0.45283893
000240 de 43 81 3e 05 01 b3 be 18 e3 cc 3e 3f 63 cf 3d
       0.2524709 -0.34961715 0.4001701 0.101263516
000250 ef 78 7e be 38 0e 5b 3e 1d b3 b1 bc ba c4 1f 3e
       -0.2485082 0.21392143 -0.021691853 0.15602389
000260 88 26 84 bd c4 4e c3 be 45 45 78 3e 7b bb 1d 3e
       -0.06452662 -0.3814603 0.24245174 0.1540355
000270 74 6d 82 3d 53 d1 b4 be 37 37 a7 ba 84 f1 b1 3e
       0.06368533 -0.35315952 -0.0012757544 0.34754574
000280 8f 0c 6c be 5c b2 df 3e 66 f4 b0 3d de 84 9e be
       -0.23051666 0.43690765 0.08640365 -0.30960745
000290 39 06 a5 bd 8a e0 ce bb ec d8 82 bd e8 86 d7 bd
       -0.080578275 -0.0063133882 -0.06389031 -0.10523778
0002a0 1b b3 f2 3d b0 df dc be 86 cb 49 3e da 00 ca 3a
       0.11850568 -0.4313941 0.19706544 0.0015411631
0002b0 49 b2 a7 bd 01 15 56 bd d2 39 23 3d 9b b7 80 3d
       -0.08188302 -0.052266125 0.039850064 0.0628502
0002c0 da d9 8e be 9a b4 d7 3d 97 f6 bd 3d ac e7 56 be
       -0.27900583 0.10532494 0.09275549 -0.20986813
0002d0 55 3e 93 3e 7d bd 99 bd 0d ed 0d 3d 8a 77 92 bd
       0.28758493 -0.07506845 0.034649897 -0.071517065
0002e0 ad 11 4c 3e 66 af 5d 3e c2 b0 76 be 8f 7b 3b be
       0.19928618 0.2164894 -0.24090865 -0.18308853
0002f0 e6 5d d4 bd c9 dc 86 3e db 41 fa bd b2 08 a6 bd
       -0.10369472 0.2634032 -0.12219592 -0.08107127
000300 7e 6b 0f bd bc 5e f0 3e df 01 4d 3d 33 d4 8b 3e
       -0.035014622 0.46947277 0.050050613 0.27310333
000310 94 b4 55 3e d9 c1 cf 3d cb ac 81 be 63 e1 7d be
       0.20869666 0.101443954 -0.25327143 -0.2479301
000320 86 28 09 3e 86 19 54 be 93 1b 99 bc e6 5d 17 3f
       0.13394365 -0.20712861 -0.018689906 0.5912765
000330 b9 22 5c 3d 97 0d 29 be 95 4c af 3d e9 37 a0 3d
       0.05374405 -0.1650909 0.08559529 0.07823164
000340 8d e4 f5 3d 68 97 33 3d 3b 50 f1 3d 26 29 aa 3c
       0.12006483 0.043845564 0.11782881 0.020771574
000350 2c 37 9d bd 4b 9b 4a be 0d b7 4e 3e 71 a6 00 3e
       -0.07676539 -0.19785802 0.20187016 0.12563492
000360 e5 81 af 3d 37 a0 d9 be 49 24 94 3e 70 2c 82 bd
       0.08569697 -0.42505047 0.28933933 -0.06356132
000370 4d 65 15 be 74 a3 5e be 00 97 13 3d 03 20 01 3f
       -0.14589424 -0.2174204 0.036032677 0.5043947
000380 97 00 2a 3d 35 4a 99 be 7a 0c 82 3d 43 76 87 be
       0.04150447 -0.29939428 0.06350036 -0.26457414
000390 6f a1 12 3e bd 9a a2 be 2b 59 c7 3c 2c 82 cc bc
       0.14319395 -0.3175868 0.02433451 -0.024964415
0003a0 00 e6 7e be 3a ea 23 3e eb 55 f3 bd d1 60 c0 3d
       -0.24892426 0.16007319 -0.11881622 0.09393466
0003b0 5a ae c8 3d 4c d4 44 3e 55 1f 0b 3e a6 72 21 3e
       0.0979888 0.1922161 0.13586171 0.15766391
0003c0 c1 ac ae 3d 06 96 12 bc 27 e6 a4 3d 13 d4 4c 3e
       0.08529044 -0.008946901 0.080517106 0.20002775
0003d0 24 ab 1e bd fc 26 96 3d ee a4 0a 3e 03 79 6e bd
       -0.03873743 0.073316544 0.13539478 -0.058220875
0003e0 c3 ef 69 3c 58 bd ef bd 2d 44 b0 bc f2 aa 20 3c
       0.014278355 -0.11706036 -0.021516884 0.009806382
0003f0 f4 4f dd bd 78 02 49 bd 31 3e 94 bd cc 63 ff 3d
       -0.108062655 -0.04907462 -0.072384246 0.124702066

stu.hidden.0.rn_2.weight f4 [8]
000000 1c 64 7b 3f 5e a7 1e 3f 57 57 82 3f 5d 46 7f 3f
       0.9819963 0.6197413 1.0182904 0.9971674
000010 57 88 40 3f 95 3a 2d 3f dd aa 4d 3f 2a 3f 6e 3f
       0.7520804 0.67667514 0.8033884 0.9306513

stu.hidden.0.mlp.swiglu.w.weight f4 [32, 8]
000000 53 4b e7 3e 7c da 57 3e 1a d2 09 be 2e a1 9f 3e
       0.45174655 0.21079439 -0.13459054 0.31177658
000010 7c 85 71 be 2a af 21 bd f2 e4 95 3d bf cb c3 3d
       -0.23586076 -0.03947369 0.073190585 0.09560346
000020 33 27 ae bd 77 19 8e be 2b a6 a1 bd d7 a2 25 3e
       -0.085035704 -0.27753803 -0.07893022 0.161754
000030 a7 5a 95 3d 85 3e a9 3c 54 97 fb be 98 cc b9 3c
       0.07292681 0.020659694 -0.49138892 0.022680566
000040 11 5b c8 be 44 24 c1 3b df 0b 86 3e 3f 51 b8 3e
       -0.39131978 0.005894216 0.26180932 0.35999486
000050 19 c9 0e 3e e8 3d 4f 3e 98 bd 4c bf e3 70 b7 be
       0.139439 0.20238459 -0.799768 -0.35828313
000060 e9 42 51 3e 58 b3 a6 bd 52 a4 c6 3d 0c a5 a2 bd
       0.2043568 -0.08139676 0.0969931 -0.079416364
000070 df 33 96 3e d1 0c d3 3e 6f b2 59 be eb 99 8a 3c
       0.2933645 0.41220716 -0.21259473 0.016919097
000080 c8 ee 9c bc 09 ce 0a 3e f6 25 a8 3c bf ff 8d be
       -0.019156829 0.13555159 0.020525914 -0.2773418
000090 d4 0f 42 be d0 75 bb bd f9 a5 56 be c2 f8 30 3e
       -0.1895135 -0.0915333 -0.20961751 0.17282394
0000a0 13 44 9e be 79 3d bd 3e 3f 98 1b be 38 12 ee bd
       -0.30911312 0.36960962 -0.15194796 -0.11624569
0000b0 14 81 da be 02 f3 17 be a9 01 43 3e 3b 54 21 be
       -0.42676604 -0.14838794 0.19043602 -0.15754788
0000c0 99 91 b9 3c 05 10 99 3e cd 22 a3 bd 6c cf 88 be
       0.022652434 0.29895034 -0.07965622 -0.2672075
0000d0 f6 64 f6 3d a4 d4 f7 3c 9d ca b8 3c 9b c0 b7 bd
       0.120309755 0.030252762 0.022557551 -0.089722835
0000e0 96 bb c9 3d 00 8f d9 3d 65 0c 9a be 31 69 06 be
       0.09850232 0.10622978 -0.3008758 -0.13126065
0000f0 17 da 38 bd 89 8b 14 be 21 d5 15 3d 09 bf 18 3d
       -0.04512986 -0.14506353 0.03658021 0.03729156
000100 17 a3 56 3e 67 aa 35 3d 00 75 81 be 0c 17 61 bd
       0.20960651 0.04435196 -0.25284576 -0.05495362
000110 fe 9a 02 bf ed 8d 7f 3e 39 68 f1 3d d9 97 8c 3e
       -0.5101775 0.24956484 0.11787457 0.274596
000120 85 76 b5 bd fb 88 b6 be 5a d4 17 3d c0 25 08 3f
       -0.088604964 -0.35651383 0.03706775 0.531826
000130 af d3 0d 3e 0b 29 89 bd fc 34 1f bc d0 b3 76 3e
       0.13850282 -0.066972815 -0.009717222 0.2409203
000140 fc bb dc 3e 61 eb 42 be ab 2f 89 be 1b 05 d5 3e
       0.4311217 -0.19035102 -0.2679418 0.41605458
000150 10 e5 be be 43 7e c4 bd 42 5f 8a 3e 54 3f a8 bd
       -0.37284136 -0.09594395 0.270258 -0.08215204
000160 17 13 c0 be 7e 8a a6 bd 99 3b 96 be 05 52 fd be
       -0.37514564 -0.08131884 -0.29342344 -0.49476638
000170 72 4f 64 bd e8 65 dd 3d 0a 10 8a be f8 3c 86 3d
       -0.055739827 0.10810453 -0.26965362 0.065545976
000180 0c da 35 bd 60 1e 60 3d df 98 38 3e 74 34 07 bd
       -0.0443974 0.054716468 0.18027066 -0.033009008
000190 12 8e 0f 3e 0a 31 67 bb 42 e5 55 3e 51 21 d6 bd
       0.1401904 -0.0035277032 0.20888236 -0.10455573
0001a0 79 51 b2 3c 6e 77 78 3e ec 16 0e be 81 85 95 be
       0.021767365 0.24264309 -0.13875932 -0.29203418
0001b0 29 dd 93 bd 6d 41 a0 be d6 af 30 3e 49 fd ef 3d
       -0.07219917 -0.31299916 0.17254576 0.11718232
0001c0 98 80 c7 3c da 1c 32 3e 56 0c 86 be e7 39 8d be
       0.02435331 0.17393818 -0.26181287 -0.27583238
0001d0 7d 44 1a be 5c 09 22 3d d5 88 bb be 13 fc 97 be
       -0.15065189 0.039559707 -0.36627832 -0.29684505
0001e0 4b 50 a5 bd e6 2d 85 3d b9 0b 8f bd d7 eb 4b bf
       -0.08071955 0.06502895 -0.06984658 -0.7965674
0001f0 78 bb d1 3e 95 22 29 3e 19 8d a7 3e fb f5 10 3f
       0.4096334 0.16517098 0.32724836 0.56625336
000200 70 0d 41 3e ad 9f 77 3e 78 3d 0a be 12 d1 62 be
       0.18852782 0.24182005 -0.13500011 -0.22150066
000210 88 21 2b 3d d9 58 07 3e 39 7b 8a 3d 25 89 b8 be
       0.041780025 0.13217486 0.06761784 -0.36042133
000220 34 f3 63 3d 4f ef a5 be 2a 91 5a 3e 4c e4 89 3b
       0.05565186 -0.3240914 0.21344438 0.0042081233
000230 47 5f cc 3d da 92 59 bd 52 fa 12 be c1 25 b9 3e
       0.0997911 -0.053118564 -0.14353302 0.36161616
000240 4d 50 9b 3e 88 d7 4d bd 85 a8 05 bd 5a 8d d1 3d
       0.30334702 -0.050254375 -0.032631416 0.10232039
000250 07 23 a3 3e 6a a7 99 3e a7 e6 89 3e 0d d1 8b 3d
       0.3186266 0.3001054 0.26933786 0.06826983
000260 ba 51 1e be d2 42 4f bd 9d 68 bd 3d f3 72 80 3c
       -0.15460864 -0.050600834 0.09248469 0.015679812
000270 fa 7d 46 3c 7a 69 ea bc 0f 90 a4 3c 7d 7e c7 3d
       0.012114996 -0.028614748 0.020088224 0.097409226
000280 05 6b 38 bc f1 34 09 bf 67 40 ae 3e f7 8b dc 3d
       -0.011255984 -0.5359641 0.3403351 0.10768884
000290 f3 3c c6 3d 01 41 04 be fa 54 4f be 3d 9a 14 3f
       0.09679594 -0.12915422 -0.2024726 0.5804785
0002a0 53 67 88 3e e3 74 9c be e0 97 c1 3e 71 9e d2 3e
       0.2664133 -0.30557927 0.37811184 0.41136506
0002b0 81 3f ba 3d ce b7 6e be cb 21 01 3e c8 b8 f2 3d
       0.09094144 -0.23312303 0.12610547 0.118516505
0002c0 7a 18 28 bd 9c 55 51 bd e9 42 b7 3c c3 99 7a bd
       -0.041038968 -0.051107034 0.022370772 -0.061181795
0002d0 42 5e 94 be de 6a d3 bd 1a d4 aa be bf 06 5d 3e
       -0.28978163 -0.10323118 -0.33364946 0.21584605
0002e0 04 ad 6b 3c 6d 60 b4 bd d4 e6 8d bd 97 77 f5 3d
       0.014384512 -0.08807454 -0.069287926 0.119857006
0002f0 45 fe d9 bd 78 cd 67 3e be 80 0d 3e 12 cc bb 3c
       -0.10644201 0.22636974 0.13818642 0.022924457
000300 1a 86 2c be a1 2b 1a 3e 84 84 43 bd 60 4c e7 be
       -0.1684803 0.15055706 -0.0477338 -0.45175457
000310 c6 45 f6 3d 98 08 f2 3b 16 b6 61 3e cf 86 3a bf
       0.12025027 0.0073862784 0.22042117 -0.7286195
000320 5c 4c 0c bc c6 0f 5d be 3a 0e 34 bc 0d 29 f2 3c
       -0.008563127 -0.21588048 -0.01098972 0.02956059
000330 40 2a 1b bd d9 fe 53 3e 3e 59 ca bd bd 5c 8a bd
       -0.03788209 0.20702685 -0.09880303 -0.0675597
000340 54 4d 9e 3c 1f d2 e0 bd 6a 7f f3 bd ce 3e 01 3f
       0.019323982 -0.109775774 -0.11889537 0.5048646
000350 81 35 39 3f 06 86 f1 3e 53 68 17 3f 79 64 80 be
       0.72347265 0.47172564 0.5914356 -0.25076655
000360 dc 7e aa 3d 95 e9 ae bd 65 9e 9f be 80 a0 2c be
       0.08324978 -0.08540646 -0.31175533 -0.16858101
000370 c3 8a 76 be 3c 62 d9 3d d3 58 e2 3d b4 77 27 3e
       -0.24076371 0.1061444 0.11052098 0.16354257
000380 1a cc 31 3b 49 6d 76 be 1f 38 92 3e 3b 52 cf 3e
       0.002712971 -0.24065126 0.28558442 0.40492424
000390 7a 16 f7 3d 7c 36 f6 3d 60 2f c3 be 7c fe 84 be
       0.12064834 0.12022111 -0.38122082 -0.25975406
0003a0 c6 ef de bd b4 3b e8 be c1 f1 71 bd 72 33 b1 bd
       -0.10885577 -0.4535805 -0.059068445 -0.086523905
0003b0 2c 59 f4 bd 6d fb 8b be 20 e9 a5 bc 64 15 18 3e
       -0.11931071 -0.2734026 -0.020252764 0.1485191
0003c0 7d f6 f7 bc 81 ea d8 3d e4 f8 bb bd 01 3e 3a 3e
       -0.030268902 0.10591603 -0.091783315 0.18187715
0003d0 36 a6 87 3c d5 73 83 bd d8 8e 37 3e 76 fb 6c 3e
       0.016558748 -0.064185776 0.17925584 0.231428
0003e0 b6 c0 ea 3d 6b 88 5d be 84 d7 9b be 41 7a 6d be
       0.11462538 -0.2163407 -0.30437863 -0.23191167
0003f0 51 2c 4b be 8b c7 86 be 7c 86 27 3d 64 6c b2 be
       -0.19841124 -0.26324114 0.04089974 -0.3484832

stu.hidden.0.mlp.swiglu.v.weight f4 [32, 8]
000000 19 15 51 3d d6 e6 09 3e 12 43 4f bd cc 43 f5 3d
       0.05104551 0.13466963 -0.050601073 0.11975822
000010 38 26 6b bd 0a 24 27 bd 0f 93 cf 3e 1a 81 0b 3f
       -0.057409495 -0.040805854 0.40541884 0.5449387
000020 b8 24 f4 3c 43 d7 36 3e 5b 47 c9 3d c6 93 8f 3c
       0.029802665 0.17855553 0.09828063 0.017526519
000030 c2 00 86 bd c7 99 d8 3e 00 b4 32 be e1 f2 76 be
       -0.06543113 0.42304823 -0.17451477 -0.24116088
000040 8c 0f 14 be a7 91 9d 3d 6b 93 b4 be 37 00 ba be
       -0.14459056 0.076937966 -0.3526872 -0.3632829
000050 57 9b f1 bc 96 5b 7f 3c e5 cd 7d 3e 73 0e 44 bd
       -0.029493017 0.015585801 0.24785574 -0.047865342
000060 a3 1e 00 be 23 09 26 3e f5 68 95 bd cb 83 4d be
       -0.12511687 0.16214423 -0.072954096 -0.20069806
000070 af 33 b0 3d 79 9d 29 be 7e ec 06 ba 2c 15 61 bd
       0.08603608 -0.16563977 -0.00051469344 -0.05495183
000080 10 df 52 3e 09 55 10 bd 46 bc af be 57 23 37 bd
       0.20592904 -0.035237346 -0.3432333 -0.044711437
000090 3c a5 ed 3d 04 09 8e bd ac 5d ac 3c 45 24 52 3e
       0.116037816 -0.06935313 0.02104076 0.20521648
0000a0 fb 5f c6 bd 63 64 c8 3e 71 8d 00 bd 81 fa 19 be
       -0.096862756 0.3913909 -0.03138489 -0.15036966
0000b0 50 95 6e be 5f cd a1 bd e3 14 8e bd 38 78 ba be
       -0.23299146 -0.079004996 -0.069375776 -0.36419845
0000c0 9b 3d 4e be 21 80 8f 3e 99 4c b9 3e d2 f0 49 3e
       -0.20140688 0.28027442 0.36191252 0.19720772
0000d0 9e 76 ae be ec 6f 09 be 12 db c7 bd 6c 08 d1 3d
       -0.34074873 -0.13421601 -0.09758581 0.102066845
0000e0 ca 9f a7 bc 37 00 27 bd aa 2f 9e 3d fc e1 78 3e
       -0.020461936 -0.04077169 0.07723935 0.24304956
0000f0 fb 35 17 3e b5 03 b6 bb 11 a7 f7 bd 33 fd 30 3e
       0.14766686 -0.005554641 -0.12092412 0.17284088
000100 90 b2 29 3e 5c d0 33 be 5b a4 1a be c3 a0 7c 3d
       0.16572022 -0.17559952 -0.15101759 0.06167675
000110 d7 16 f9 bd b8 a1 0c bb d5 06 60 3e 72 50 2e 3e
       -0.121625595 -0.0021458697 0.21877606 0.17022875
000120 26 82 ce bd de 1b 5c be a1 9c b6 bd 52 56 02 3e
       -0.100834176 -0.21495005 -0.08916593 0.12728241
000130 4e cc e2 3e c6 a2 64 3e 2e 88 b0 be 0d e1 84 bc
       0.44296497 0.22327718 -0.34478897 -0.016220594
000140 2a dc 56 3e 8f 5f e4 3d d4 1d 30 bd 06 fe a7 bc
       0.20982423 0.11151039 -0.042997196 -0.02050687
000150 db 91 61 be 22 aa 55 3c 92 c4 bf 3e e4 4d 3c 3f
       -0.22028296 0.013041051 0.3745466 0.7355635
000160 ef ff 60 be a0 18 66 be d7 2d b9 be c0 ae 42 be
       -0.21972631 -0.22470331 -0.36167786 -0.19011974
000170 68 08 0a 3e d1 a9 67 3e d7 18 8f be 75 00 0e be
       0.13479769 0.22623374 -0.2794864 -0.13867362
000180 1b b1 17 be 8b 31 59 3c 2c af 45 3d 72 3f 05 3e
       -0.14813654 0.013256441 0.04826276 0.13012484
000190 c2 fc a0 3e a8 b2 19 bc 93 40 ed 3d e8 9c bd 3c
       0.3144284 -0.009380974 0.11584582 0.023146108
0001a0 9f 0e bc bd 46 aa 56 3e 25 03 a7 be 3b 4d 6d 3c
       -0.09182476 0.20963392 -0.32619587 0.014483745
0001b0 49 ea 9c 3c 1b f2 9f be fa 01 1b bd 25 0c 3e 3e
       0.019154685 -0.312394 -0.037843682 0.1855932
0001c0 77 fd 22 be 96 91 31 3e 00 7c c6 be d0 eb b6 bd
       -0.15917002 0.17340693 -0.3876648 -0.089316964
0001d0 74 fc 26 3e 69 27 01 3f 4f e7 47 be 44 90 3d be
       0.1630724 0.5045076 -0.19521831 -0.18512064
0001e0 43 48 3a 3e 3c 81 d4 3d 28 e9 f7 3d df c6 a6 3e
       0.18191628 0.10376212 0.12105018 0.32573602
0001f0 98 05 b5 be f7 f4 d0 be 67 9f f8 3d d6 c5 91 be
       -0.3535583 -0.40811893 0.121397786 -0.2847125
000200 fb ae 97 bd 96 25 f5 3d bf c7 f5 3e 73 bf 67 3e
       -0.07406422 0.119700596 0.48003957 0.22631626
000210 e1 71 43 bd a0 d4 7a bc 28 de 25 bd e6 f4 ee 3d
       -0.047716025 -0.015309483 -0.040495068 0.116678044
000220 c6 db 4f 3e de 3e dc bc b8 6a 37 be 83 6e 99 3d
       0.2029868 -0.026885446 -0.17911804 0.074917816
000230 f2 cb 01 3d 55 58 2a be fb ae dc 3e ad 0a cf bd
       0.031688638 -0.16635258 0.4310225 -0.10109458
000240 a1 a9 0d 3e 22 e6 18 3e 12 ac 40 3d 09 75 70 3e
       0.1383424 0.14931539 0.0470391 0.23482145
000250 ab ff e2 bc d1 08 35 3d 74 47 f9 bc ac 1b 8c bd
       -0.027709803 0.04419786 -0.03042958 -0.068412155
000260 23 db 74 bd 17 f5 8d bd 93 c6 f2 3d 38 87 84 3c
       -0.059779298 -0.06931513 0.11854281 0.016177759
000270 98 74 e9 3d 5a ea 43 be 8d 99 55 3d 45 54 29 3e
       0.113991916 -0.19132367 0.05214839 0.16536053
000280 f3 34 ad be 72 2d d9 be ec 40 9e 3c f2 38 1f bd
       -0.3382946 -0.42417485 0.019318067 -0.038872667
000290 b7 62 07 3e 80 b1 92 3e 23 f3 28 bf 2d b9 44 3c
       0.1322125 0.28651047 -0.65996 0.01200704
0002a0 b4 51 9b be ac 10 3b bd c1 35 4f 3e a1 2a 7c bd
       -0.30335772 -0.045670196 0.20235349 -0.06156409
0002b0 45 72 37 3e 24 b1 06 3f 6d 76 29 bf 33 e5 03 bf
       0.17914684 0.52614045 -0.6619633 -0.51521605
0002c0 a2 64 5c 3e c4 84 4a 3d 39 96 03 be 2e ae e1 bd
       0.21522763 0.04944302 -0.12850274 -0.1101955
0002d0 29 65 1e be b7 b4 a7 3d 04 99 32 3d 73 a9 6c 3e
       -0.15468277 0.081887655 0.04360296 0.23111515
0002e0 d1 9d cc bd 82 29 16 3e 07 44 5e 3e ed 0a ec 3c
       -0.099910386 0.14664271 0.21705638 0.028813804
0002f0 c9 58 c1 bb c0 d9 1f 3e 07 ab 34 be 0a 7a d9 3d
       -0.0059004766 0.15610409 -0.17643367 0.1061898
000300 02 9c ad 3e 4b 01 89 be f1 0b 4b 3e aa e4 ae 3e
       0.33908087 -0.267588 0.19828774 0.34158832
000310 94 2d e2 be 29 da ad be 3d 1f bf 3e c1 00 98 3e
       -0.44175398 -0.33955505 0.3732852 0.29688075
000320 a1 f8 6a 3b b6 9b 81 3e dc 04 b0 bd 87 53 0c bc
       0.003585376 0.2531411 -0.08594677 -0.008564836
000330 45 87 6b 3d 86 57 4a bd 19 21 a5 bd c0 b5 3e bd
       0.05750205 -0.049399875 -0.080629535 -0.04656005
000340 7c 86 d6 be 07 d5 85 be a3 42 90 be eb 43 77 be
       -0.41899478 -0.2613909 -0.2817584 -0.24147002
000350 f0 31 21 3e 71 96 8b bd 39 53 8e be bb 73 12 3f
       0.15741706 -0.06815804 -0.2779787 0.5720784
000360 67 65 bc bd 00 d9 83 3d 5a dc 12 3e 98 2a c8 3d
       -0.091990285 0.06437874 0.1434187 0.09773749
000370 60 c7 7a 3e 4e 9a 8a bd f3 cf 53 3e 91 f5 a9 bd
       0.24490118 -0.067677125 0.20684795 -0.08298791
000380 08 9c f5 bd e0 3a ae 3d fa 58 5e be 08 60 63 be
       -0.11992651 0.08507323 -0.2171363 -0.22204602
000390 0b cc f5 bd 5a e4 ea 3c 75 30 96 3e 88 b6 97 3c
       -0.12001809 0.02867334 0.29333845 0.018519655
0003a0 14 ba 9c be 47 65 33 be f8 c6 4a bb a9 71 37 3d
       -0.30610716 -0.17519103 -0.0030941349 0.04478613
0003b0 72 b7 0b 3e 12 31 a7 bd 9e ac 3a be 6e ba 35 3e
       0.13644198 -0.08163656 -0.1822991 0.17746899
0003c0 ba 03 b8 3c 97 85 38 bd 02 b9 87 be 77 d2 f5 bb
       0.022462714 -0.045049276 -0.26508337 -0.007501896
0003d0 f7 06 d3 3d 9f 93 40 3e 94 d6 e9 bd e7 ef 24 3d
       0.10304063 0.18806313 -0.11417881 0.04026785
0003e0 b7 dd a5 be 33 ac 5e be 42 ce e7 bc 7c 99 9f 3c
       -0.32395718 -0.21745376 -0.028296594 0.019482367
0003f0 6f 19 9b bd 0f 08 c1 3d 3c 9f a8 be c0 0c a8 bd
       -0.075732104 0.09425365 -0.32933986 -0.08205557

stu.hidden.0.mlp.swiglu.w2.weight f4 [8, 32]
000000 9e fb f2 3e c9 fd ca 3d 0c 75 a1 bd fd 0f 1e bd
       0.47457594 0.09911687 -0.07883653 -0.038589466
000010 f6 5f 91 3b fa 99 49 3e 3b de dd 3c 7a c7 cc bd
       0.0044364883 0.19687644 0.027083507 -0.09998985
000020 19 e0 ca 3e 54 c4 88 ba 04 7f 40 3f 7a 06 a3 3e
       0.39624098 -0.0010434487 0.7519381 0.3184088
000030 db 91 e7 bd e5 30 34 be 76 f4 1b 3e 5e 92 cb 3e
       -0.113071166 -0.17596777 0.15229973 0.39760107
000040 b0 fc 52 be 73 7e 96 3d 25 5e 92 3d 4c 6d 3a be
       -0.20604205 0.07348337 0.07146863 -0.18205756
000050 1e 92 33 be 8e a3 89 be 52 e1 92 3d 91 66 15 bd
       -0.17536208 -0.26882595 0.07171883 -0.036474768
000060 3c 8b 97 bb 92 81 f7 bd 44 18 a4 3e 14 ff 87 3d
       -0.0046247523 -0.120852605 0.32049763 0.06640449
000070 21 b7 c2 be c9 4a 94 be 7a a5 7c 3c e8 6d 4b 3d
       -0.3803034 -0.28963307 0.015420312 0.04966536
000080 8b 71 a2 3e 16 c7 67 be 67 80 11 3e 4e b3 b2 bc
       0.3172725 -0.22634539 0.14209138 -0.021814015
000090 3c f9 b9 be 8d f5 e1 3c c4 0b 96 3e f4 68 ba 3c
       -0.36322963 0.027582908 0.2930585 0.022755124
0000a0 46 bc 73 3d a6 2e f9 3e f8 38 2a be 4b ae 30 3e
       0.059505723 0.48668402 -0.16623294 0.17253987
0000b0 cd 2b 05 be 57 2f a0 be 23 f8 57 ba 4c ab 05 be
       -0.1300499 -0.31286117 -0.00082385744 -0.13053626
0000c0 c9 b5 3a bd 1e 82 9d 3c af 1e bf 3e 6f 23 b1 bd
       -0.04558352 0.019227084 0.37328097 -0.086493365
0000d0 dd 1c bc 3d fe 2c c2 be fe 1f 1b be f8 5c 66 3d
       0.09185193 -0.3792495 -0.15148923 0.056241006
0000e0 4e c5 4f be ae 3c 99 3d 45 9e ca 3e 36 81 86 bc
       -0.2029011 0.07482277 0.39573875 -0.016419034
0000f0 d3 f5 ef bd ec ff 92 3e 84 99 23 3e 10 a8 93 3e
       -0.11716809 0.28710878 0.1597653 0.2883916
000100 b4 04 66 3e 52 81 b1 be 63 c5 ee 3e 3a 57 2c 3e
       0.22462732 -0.34668976 0.4663497 0.1683015
000110 dd fd 36 3d 0b 6a e0 3e 70 75 ee bc 2e 6d 2a 3e
       0.044675697 0.43830904 -0.029108733 0.16643211
000120 11 d0 b1 3d 76 75 f1 be b6 fc 89 3d 0d c0 bc 3e
       0.08682264 -0.47159928 0.06737654 0.36865273
000130 9b 46 c2 3d b3 b0 05 3e d2 e0 fb 3e f0 21 73 be
       0.09486123 0.13055687 0.49194962 -0.23743415
000140 c9 d9 0c bd d2 32 8c 3e 60 6a 07 be 7b b7 c8 bd
       -0.034387384 0.27382523 -0.13224173 -0.09800621
000150 2a 57 dd be cd 1a b0 be 69 56 b0 3d 6b 0d 97 3e
       -0.43230563 -0.34395447 0.086102314 0.29502425
000160 98 0a b7 be 1a ef 0d 3e 60 31 99 3e 87 5a 06 be
       -0.3575027 0.13860741 0.29920483 -0.13120471
000170 1a c1 d6 3e bc fb ec 3c 9e 80 09 3d d7 d3 39 bd
       0.419442 0.02892863 0.033569925 -0.04536804
000180 40 05 70 3d d0 5f d5 bd 9f 84 d1 3d f6 51 46 3d
       0.058598757 -0.104186654 0.102303736 0.048418008
000190 84 52 8f bc 74 1f 36 3c 11 1a 21 be 79 b2 55 bd
       -0.017495401 0.011115897 -0.157326 -0.052172158
0001a0 75 2a 7b 3d 51 e2 04 be 24 78 5e 3d 78 d7 a2 3e
       0.061319787 -0.12976958 0.054313794 0.31805015
0001b0 5e 38 1e 3e 1e 45 e9 3c d0 ec 61 3e 3f 6e c6 be
       0.1545119 0.02847534 0.22062993 -0.38755986
0001c0 89 af a0 bd 58 92 83 3c 7c cd bb 3d e9 71 9e 3d
       -0.07845981 0.016060993 0.091700524 0.077365704
0001d0 17 bc db bd 45 b6 90 bd b3 36 e4 3d b9 d8 d6 bc
       -0.10729235 -0.07066015 0.111432455 -0.026226388
0001e0 0e 13 da be 76 36 6b 3d 7d 3c 74 be 20 6d e8 bd
       -0.42592663 0.057424985 -0.238512 -0.11348939
0001f0 ea 31 00 bd d3 e6 b8 3d d2 40 2e bd ff a7 4f 3e
       -0.0312976 0.09028401 -0.042542286 0.20278929
000200 96 42 22 3e b4 eb 31 bb 5b bf 88 3e 9c f5 62 be
       0.15845713 -0.0027148547 0.26708493 -0.22164005
000210 09 66 79 be dd 21 ba 3e f8 f7 92 3e 50 f9 98 3d
       -0.2435533 0.3635396 0.2870481 0.074694276
000220 98 2c 29 be 90 db 56 3d 51 94 bc 3e c3 b3 a1 be
       -0.16520917 0.052455485 0.36831906 -0.3158246
000230 3e 23 44 bd 52 02 e7 3b b8 b5 17 be 08 ab a0 3e
       -0.047885172 0.007049837 -0.14815414 0.31380486
000240 db de 2e 3e 0e aa 03 3e 16 1c 91 bd c7 ef 0c 3d
       0.170772 0.1285784 -0.07085435 0.034408357
000250 e8 46 54 be 99 6c 89 be 79 c8 4e be 10 47 6b 3d
       -0.20730174 -0.26840666 -0.20193662 0.057440817
000260 db 5b 46 3e b7 e6 64 bd 01 d5 07 3e 43 0f 7f bd
       0.19370978 -0.05588409 0.13264848 -0.062270414
000270 41 51 ea 3e 58 26 00 3c 0f 1f 75 bd 47 fe 67 3c
       0.45765117 0.007821642 -0.059844073 0.014159746
000280 df 11 a8 3d 00 28 a6 be 03 76 d8 3e f6 bb f4 3d
       0.08206534 -0.32452393 0.42277536 0.11949913
000290 de ee 7c be 68 e4 13 3e 19 fc 6f 3e 75 e7 cf 3e
       -0.24700496 0.14442599 0.23436011 0.40606275
0002a0 c4 f6 3a 3e b1 e5 39 be 22 c2 eb bd ed 39 20 bd
       0.18258196 -0.18154027 -0.11511637 -0.039117742
0002b0 7c f8 6c 3e 6f 73 4d 3d 27 dd c7 be 9d a2 b0 bc
       0.23141664 0.050158914 -0.39035913 -0.021561915
0002c0 09 53 c6 3e ed 43 3e 3e e0 ae 76 be e1 91 9f bd
       0.38735226 0.18580599 -0.24090147 -0.07791496
0002d0 72 a1 e7 bd 57 6f 8a be e2 02 9b 3d c4 e8 98 bd
       -0.1131009 -0.2703807 0.07568909 -0.074662715
0002e0 4d 01 76 be 79 4a 6f 3c 2b ae fa 3e 04 27 1a be
       -0.24023934 0.014605158 0.48961005 -0.15053946
0002f0 bf b0 24 3e b6 df a1 3d 14 d0 a7 3e b8 50 4c 3e
       0.16083048 0.079039976 0.3277594 0.19952667
000300 04 fb f2 3c 42 3c 5a 3e 35 f2 76 be 71 c3 72 3d
       0.02966071 0.21312049 -0.24115832 0.05926842
000310 65 e5 61 be 09 b8 34 be 1f 0e e0 bd 31 7b c5 3d
       -0.22060163 -0.17648329 -0.109401934 0.096426375
000320 2a 45 9c be 5f 13 eb 3d c5 45 95 be 53 40 a0 3d
       -0.30521518 0.11478304 -0.29154792 0.07824769
000330 c8 d1 b9 bd 67 ff 03 be ed f3 19 3e 58 e3 05 3e
       -0.09073216 -0.12890397 0.15034457 0.13075006
000340 af 5e ac 3d e1 5f 11 bc a6 32 79 3c ee 69 9d bd
       0.08416497 -0.008872957 0.015209829 -0.0768622
000350 9d 99 16 3e 0f cf 43 be ca ff cf be 34 3f 0e be
       0.14707036 -0.19121955 -0.4062484 -0.13891298
000360 0a b1 2d 3d ca 33 1e 3e bf 28 24 3e 01 99 1f 3e
       0.042405166 0.15449443 0.16031168 0.1558571
000370 8f ef ad be 81 13 95 3d 3a ab 79 bb a4 2b cf 3d
       -0.3397183 0.07279111 -0.0038096444 0.10115746
000380 a5 88 42 bd 46 1d 41 3e 7e 38 a9 3e eb e8 52 3e
       -0.047493596 0.18858823 0.33050913 0.20596664
000390 c7 6b e6 bd 96 b2 f6 3d 27 39 93 be 21 7d 50 3d
       -0.11251026 0.12045781 -0.2875454 0.050900582
0003a0 ae 4f 77 3c 59 0f 9b be ef 9f 97 3e d4 6a 13 bb
       0.015094681 -0.30285147 0.29614207 -0.0022494094
0003b0 44 b3 b1 3d 5e 13 79 be 2d 53 75 3e 3a a4 d8 3d
       0.0867677 -0.24323794 0.2395751 0.10578199
0003c0 65 f0 de bd 35 c0 43 3e 5a 79 61 be 41 35 05 3e
       -0.10885695 0.1911629 -0.22018948 0.13008596
0003d0 17 57 db be ec c0 85 be 75 91 b8 3c 45 dc d8 bd
       -0.42839882 -0.2612375 0.022530297 -0.10588888
0003e0 ec 06 16 bf e1 90 c1 3d 84 81 e1 3e 61 5c a2 3d
       -0.5860431 0.094514616 0.44044125 0.07927776
0003f0 c4 51 c2 3d 36 76 6e be ca b1 aa bd 98 e7 14 3e
       0.09488252 -0.23287281 -0.08334692 0.14541471

stu.hidden.1.rn_1.weight f4 [8]
000000 b9 1c 34 3f 65 ee 38 3f b2 70 11 3f 23 e8 41 3f
       0.7035633 0.7223876 0.56812584 0.7574484
000010 12 97 34 3f 6a c0 0c 3f 48 91 30 3f ff 39 5c 3f
       0.70543015 0.549811 0.6897168 0.86025995
