checkpoints/sssm-Walker2D-v1-model_step-350-2024-11-18-16-25-27.pt (torch, 34490 bytes, 18 tensors)

emb.weight f4 [8, 24]
000000 2e f4 f5 be fa c0 79 3e 94 a2 b6 3e 0b a6 9d 3e
       -0.48037857 0.24390021 0.35670912 0.30790743
000010 95 f4 89 3e e8 69 10 bd e0 69 bf 38 dd 95 0c 3e
       0.26944414 -0.03525725 9.1273105e-05 0.13729043
000020 6b a3 ee 3d af 76 44 be 8d 6c 64 bd a3 96 ec 3d
       0.11652263 -0.19185899 -0.055767585 0.11552169
000030 2a b7 cc bb a6 bc b1 bd b3 d6 11 be d7 3b d0 bc
       -0.006247421 -0.0867856 -0.14242058 -0.025419159
000040 ec 4f 9a bd a4 4a 22 bc 9f 50 a0 bc d7 cb 44 3e
       -0.07534775 -0.009905491 -0.019569693 0.19218384
000050 1d 58 e8 3d fc b6 9f bc 38 aa 15 3e 30 90 34 3e
       0.11344931 -0.019496433 0.14615715 0.17633128
000060 c2 8c 12 3e fa 8e 5b be 30 19 37 be 3c d1 f5 3e
       0.14311507 -0.2144126 -0.17880702 0.48011196
000070 79 b4 bd 3e 7d e7 dc bd 36 02 5d bd 13 b3 2e 3e
       0.37051752 -0.107863404 -0.053957187 0.17060499
000080 f1 c0 d7 3e 05 7c 83 3e 64 d3 ae be 7a f2 20 bd
       0.4213939 0.25680557 -0.34145653 -0.039293744
000090 3b 69 a8 3d 66 32 2b be 32 a0 b3 bd 71 1d bb bd
       0.08223196 -0.16718444 -0.08770789 -0.09136475
0000a0 46 90 25 bd c9 f1 02 bf dd ea 12 3e a8 49 c3 3d
       -0.040420793 -0.51150185 0.14347406 0.09535533
0000b0 e2 4a 08 3d ea 06 a5 ba b4 39 c2 3d d2 8b ba bc
       0.03327454 -0.0012590562 0.09483662 -0.02277175
0000c0 ba d5 0c 3e 12 37 d0 3d f2 48 10 be 05 2e 04 bb
       0.13753405 0.10166754 -0.14090326 -0.0020169031
0000d0 a8 9c a3 be b8 90 f5 bd fb 61 bb 3d f8 67 83 be
       -0.31955457 -0.119904935 0.09149548 -0.2566526
0000e0 21 5d 59 be 32 26 aa be d5 49 ca 3e 03 4b 95 be
       -0.21226932 -0.33232266 0.39509454 -0.29158792
0000f0 ff 0c 29 3c 8d c2 a0 3e c6 10 bb 3c 48 13 35 3e
       0.01031804 0.3139843 0.022835147 0.17683136
000100 35 a7 e5 3d 2b 64 86 be f7 53 eb 3c 2d c6 11 be
       0.11213533 -0.26248297 0.028726561 -0.14235754
000110 71 bb 2e 3e 06 d1 44 bc 5f 75 03 be 52 4d 91 3d
       0.1706369 -0.012012726 -0.12837742 0.07094826
000120 bc b3 84 bd 76 1f 89 be ab 98 98 bd ba e6 41 3e
       -0.06479594 -0.26781815 -0.07450994 0.18935671
000130 02 8b c7 3c 98 e3 7d 3e ea 7d b6 3d e7 d9 81 be
       0.024358276 0.24793851 0.08910735 -0.2536156
000140 ef ea 9e ba a2 b3 f6 3d 24 d2 d4 be 4c 82 3b bd
       -0.0012124459 0.12045981 -0.41566575 -0.045778558
000150 ba e4 b2 3e 8a e6 73 3e 2b ab 85 be 41 a1 4c 3e
       0.3494013 0.23818412 -0.26107153 0.19983388
000160 06 94 49 3e 6b 7e c8 bd 06 1a bd 3e 96 cd 80 be
       0.19685373 -0.09789737 0.36933917 -0.2515685
000170 b6 9f 81 3e 06 ca 11 bd 0f 58 34 3e e4 cd 41 3d
       0.25317162 -0.035593055 0.17611717 0.047315493
000180 cc eb d4 bd c8 a2 60 3e 77 0f cd bd 1b 46 41 bd
       -0.10396537 0.21937096 -0.10012715 -0.047186
000190 ec c7 e2 bd 38 fe 80 3d 02 50 10 be 0d ba 34 3b
       -0.11073288 0.062984884 -0.1409302 0.0027576715
0001a0 b6 e3 bd 3c 84 8a f4 3d 34 dc da be 6a 57 49 3e
       0.02317987 0.11940482 -0.42746127 0.19662252
0001b0 54 2f 36 bd 2f 61 10 3e 9b 61 3d 3e 93 5d 4f bd
       -0.04447873 0.14099573 0.18494265 -0.05062635
0001c0 39 8e 01 3d 17 50 0b 3f 7a 07 a5 bd 00 b0 db 3d
       0.031629775 0.5441908 -0.08058067 0.10726929
0001d0 37 c9 53 3e e9 1a 3a bd 3b ff 62 3e 57 94 5a 3e
       0.20682226 -0.04543582 0.22167675 0.2134565
0001e0 64 dc 3b 3e e6 28 7d 3e 32 38 d9 3e 73 70 00 be
       0.18345791 0.24722633 0.42425686 -0.12542896
0001f0 dd 9d 4b 3e e3 e0 8f 3e af 09 48 3e e8 6b e7 ba
       0.19884439 0.28101262 0.19534944 -0.001765606
000200 e6 f4 ac bd d3 4f 04 3e 62 93 e1 3d 87 94 8d 3d
       -0.08445148 0.12921076 0.11014439 0.06913095
000210 c8 bf 68 bd 4b 04 1a 3e 9d be ae be d3 aa 2d 3e
       -0.05682352 0.150407 -0.341298 0.16959696
000220 17 fd fe 3d 64 3f 1d bd 90 44 de bd 46 b8 fb 3d
       0.12450617 -0.038390532 -0.10852921 0.12291007
000230 32 4e 03 3d 7c 61 01 3b 97 14 d0 3d 11 79 bd bd
       0.032056995 0.0019741943 0.10160177 -0.09251607
000240 c7 7f bd 3e 4f 26 1f 3e 92 fb 51 3d 43 2f e5 3d
       0.3701155 0.15541957 0.051265307 0.11190655
000250 39 a5 85 3d 90 bd a9 be af 4b 1e bd 2b ec 57 be
       0.06525654 -0.33152437 -0.038646396 -0.21086185
000260 06 37 52 be ce 07 90 be 3f 9a 60 3e f3 1f 46 be
       -0.20528802 -0.28130955 0.2193384 -0.19348125
000270 c4 1a c9 bd d8 f1 a8 3a 2d a5 b6 3e f8 84 73 bc
       -0.09819558 0.0012889458 0.35672894 -0.014863245
000280 f9 c8 5b 3b 06 d6 6a bd b2 55 c9 bd be 38 06 bd
       0.0033536537 -0.057333015 -0.09830798 -0.032768957
000290 96 d8 95 3e aa a1 5e bd f1 6b 3e bd 48 7e aa bd
       0.29266804 -0.054353394 -0.04648966 -0.083248675
0002a0 35 d5 95 be ce bf 9b 3e bf 8e 62 be 49 30 9e be
       -0.29264227 0.30419773 -0.22124766 -0.30896214
0002b0 a3 4c f9 3e 2f 64 cf 3d 57 73 53 3e 2d 3b 8a 3e
       0.48691282 0.101265304 0.20649467 0.26998273
0002c0 6c b4 a0 3d cf 7e 61 3e 54 7c a7 bd 6c 75 0d bd
       0.07846913 0.2202103 -0.081780106 -0.03453581
0002d0 b7 59 70 be bb 31 3a bd 12 52 9c be d1 b4 19 3e
       -0.23471723 -0.045457583 -0.30531365 0.15010382
0002e0 80 0d 99 bd 3a ed 17 bf e4 14 11 bf 44 09 d8 3e
       -0.07473278 -0.59346354 -0.566725 0.4219457
0002f0 28 fb 10 be 3d 24 57 bc be f7 87 3e 94 af b1 be
       -0.14158309 -0.0131311985 0.265562 -0.34704268

stu.hidden.0.rn_1.weight f4 [8]
000000 6d 8a 3c 3f 9d 11 6b 3f 89 b3 46 3f 34 7e 53 3f
       0.7364872 0.9182375 0.776177 0.82614446
000010 72 95 53 3f f7 0f 69 3f 91 b7 b3 3e fb 8e 32 3f
       0.8264991 0.91039985 0.35100988 0.6974942

stu.hidden.0.stu.M_u f4 [8, 3, 8]
000000 1b 64 d9 be 27 8b 20 be 8f b1 75 bc 32 4a 29 3e
       -0.42459187 -0.15678082 -0.014995947 0.1653221
000010 04 44 55 3e 05 70 bc be a7 09 5a bd 87 96 7a bd
       0.20826727 -0.36804214 -0.05323186 -0.06117871
000020 52 2b de be 74 bb 33 3e 0a 56 1b 3d e7 39 12 3e
       -0.43392426 0.17551976 0.03792385 0.142799
000030 68 fa 8a 3d ba aa bd 3d dc 84 e0 bb b7 04 99 be
       0.067860425 0.09261079 -0.0068517756 -0.2988641
000040 24 b5 a8 be 34 3c c7 3d f4 61 18 bd 27 1c 2b be
       -0.329507 0.0972828 -0.03720279 -0.16709958
000050 1a 66 bf 3c 56 a1 80 be 89 33 18 be 06 ed ae 3d
       0.023364116 -0.2512309 -0.14863409 0.085413024
000060 96 e5 fa 3c 72 38 2b bf 78 c2 f9 bc 5e cf 82 be
       0.030627053 -0.66883004 -0.030488238 -0.25548834
000070 5c 69 ae 3e f4 db 74 be 02 87 19 3e de 53 98 3d
       0.34064758 -0.2391203 0.14992908 0.074378714
000080 37 c9 0d 3b 30 ef d9 be 2d 27 01 3c 57 eb 4f bd
       0.0021634826 -0.42565298 0.007882875 -0.050761547
000090 3c a0 21 be 76 9b 35 3d d0 82 c0 3e 42 a1 cd bd
       -0.15783781 0.044337712 0.37599802 -0.10040523
0000a0 85 be b1 bc c2 6e b2 be ad 73 3b 3d 15 07 6c 3d
       -0.021697292 -0.34850127 0.045764614 0.05762394
0000b0 2d 33 03 3d e4 3c 12 bd b1 3b 40 bd 10 55 8b bd
       0.032031227 -0.0357026 -0.046931926 -0.06803334
0000c0 4a ff 4c 3d 96 de 7e bd 1c 6f 93 bd f0 08 59 be
       0.05004815 -0.062223993 -0.07198927 -0.21194816
0000d0 98 31 6e 3c 04 ea 30 be e8 b5 b1 bd e9 95 5a bd
       0.014538191 -0.1727677 -0.08677274 -0.05336562
0000e0 5b 6f 8b 3d 93 05 03 3e 01 f2 0f be 37 a7 50 3d
       0.06808349 0.12795095 -0.14057161 0.05094072
0000f0 2c e0 90 3d 95 a8 13 be 26 3b ad bd 8a 0b e2 bd
       0.070740074 -0.14419778 -0.08458547 -0.11037357
000100 65 8d 6f 3d 59 4f 87 3e 94 44 dd bd 71 eb 24 3d
       0.058484454 0.26427725 -0.10804096 0.040263597
000110 02 e9 6a 3d 41 b9 b5 3c cc 60 eb 3c d6 37 ec 3d
       0.05735112 0.022183063 0.02873268 0.11534087
000120 a8 67 8c bd 19 07 47 3e 57 66 56 be 4a 83 76 bf
       -0.06855708 0.19436301 -0.20937477 -0.9629408
000130 97 45 8c be 63 30 57 be 43 3a 87 3b 81 c0 a2 3c
       -0.27396843 -0.21014552 0.0041268184 0.019867184
000140 72 bd 22 be 91 fb 45 bd 46 e2 6c bb 56 7f 54 be
       -0.1589258 -0.048335616 -0.0036145612 -0.207517
000150 07 ec bf 3c 8f fb 14 bd fc 67 e1 bb 46 a6 fc 3d
       0.023427976 -0.036372717 -0.006878851 0.12336402
000160 04 ca a2 3c 46 ed 5c 3e 0d 4d e7 3d e4 31 10 3e
       0.01987172 0.21574888 0.11293993 0.14081532
000170 09 a3 4c be ec cf 26 3b ee fc 06 bd 53 56 28 bd
       -0.19984068 0.002545352 -0.032956056 -0.04109795
000180 e9 24 07 3e ca 6e 9f 3d 14 19 bf 3d 02 45 2f 3a
       0.13197674 0.07784803 0.09330955 0.0006686003
000190 ee 8c 9d be 44 4e 86 be 72 df 5b 3e 8f 5f 0f ba
       -0.30771583 -0.26231587 0.21471956 -0.00054692564
0001a0 e9 4b 7c 3e 93 1f c1 3d 50 e5 ec bc fc 62 91 3e
       0.24638332 0.094298504 -0.028917938 0.28395832
0001b0 ce fa 1b 3d bc f7 ed bd 42 04 86 bd f2 45 bf bc
       0.038080983 -0.11619517 -0.06543781 -0.023348782
0001c0 7e bf 80 3e 11 fd 20 be 4e f3 03 3e 7e af 76 3d
       0.25146097 -0.15721537 0.12885782 0.060225956
0001d0 44 96 e2 bd 09 41 ab be ba d0 f4 3c ba b7 c4 bd
       -0.11063817 -0.33448055 0.029884685 -0.096053556
0001e0 20 25 f0 bd 7c d3 63 be 13 45 53 bd 11 b9 4f 3e
       -0.11725831 -0.22248644 -0.051579546 0.20285441
0001f0 b3 a0 64 bd f0 7c 64 b9 c0 4e fc ba be 0b c2 3c
       -0.055817317 -0.00021790317 -0.0019249544 0.02368724
000200 3d d3 1a 3d be d9 54 bd 96 52 f1 bd 51 b9 0b bd
       0.03779911 -0.051965468 -0.1178333 -0.03411228
000210 e0 a4 dc 3d 9d 07 68 be cd 4a 02 be 72 22 4f be
       0.10773635 -0.22659154 -0.12723847 -0.20227984
000220 48 46 78 3c d2 e1 6b 3d 8f 9e 25 be f5 77 14 3e
       0.015153475 0.057588406 -0.16173767 0.14498885
000230 fd 3d 34 3e 00 b5 79 3d eb 5e 2f be 8d ab 10 3e
       0.17601772 0.06096363 -0.17126052 0.14127941
000240 ab cc e9 3d bd bf 8a be 2d 6d 08 be e8 53 a6 3d
       0.114159904 -0.2709941 -0.13322897 0.081214726
000250 5c 9f 27 3e 43 06 93 be 62 5a 4d be 21 06 7b bd
       0.16369385 -0.28715715 -0.2005401 -0.06128514
000260 4f 8e 96 3c c6 f1 50 be d2 51 08 3e d6 5f 51 bd
       0.018378405 -0.20404729 0.13312462 -0.051116787
000270 56 0d 23 3e 73 06 30 bd 87 79 99 be c3 8a f0 3d
       0.15923056 -0.0429749 -0.2997553 0.11745217
000280 4d cc 8d bd cb 26 4e be fb 28 5a 3e f4 ff ae 3d
       -0.06923733 -0.20131986 0.21304695 0.08544913
000290 54 ab b9 3c 12 42 ef bc 2b 77 15 bf 91 8d 78 be
       0.022664703 -0.02920631 -0.5838496 -0.24272753
0002a0 4b e8 7e bb 9c 26 d1 3c d0 33 a9 bc 17 c3 83 3b
       -0.0038895782 0.025531106 -0.020654589 0.0040210593
0002b0 63 18 af 3d bd 7e 54 be 9c 0d 83 bc 9b 71 06 bf
       0.08549573 -0.20751472 -0.0159977 -0.525171
0002c0 33 f2 0c 3e 41 e1 c8 3c 79 16 00 be d8 8b 90 3d
       0.13764267 0.024521472 -0.12508573 0.07057923
0002d0 41 e0 0d 3e d0 ff 32 be 43 7d 42 bd d3 cc 84 be
       0.13855077 -0.17480397 -0.04748274 -0.25937518
0002e0 fb e9 87 3d cd 72 70 3e 3e 47 53 3d 51 b3 b7 3d
       0.06636425 0.23481293 0.051581614 0.08969749
0002f0 d6 c8 10 3e af dc 54 be 1b 0c 0c 3e cf 40 9c bd
       0.14139113 -0.20787309 0.13676493 -0.07629549

stu.hidden.0.stu.M_phi_plus f4 [8, 16, 8]
000000 bb ea 20 bf 89 5e 23 bf a1 29 0f bf 15 7a 40 bf
       -0.6285817 -0.63816124 -0.55922896 -0.7518628
000010 34 33 44 3f b7 94 df 3e d0 22 a9 3f 2a 01 43 3d
       0.7664063 0.43668148 1.3213749 0.047608532
000020 82 8c 65 3e 26 01 06 bf c7 94 80 bf 6d 24 58 bf
       0.2241688 -0.523455 -1.0045403 -0.8443058
000030 39 85 99 3e 4e 7c 50 3f de 3e 80 3f 7b df eb be
       0.29984453 0.81439674 1.0019186 -0.4606894
000040 94 e5 ce 3f 27 bf 84 3f 46 77 52 bf 81 be ee be
       1.6163812 1.0370835 -0.82213247 -0.46629718
000050 98 43 c6 be be 71 5b 3f f6 12 d0 3d af 9c b3 bf
       -0.38723445 0.8572043 0.101598665 -1.4032191
000060 68 50 4f bf 96 40 a2 bf 27 b8 1b 3e 53 9c 2c bf
       -0.80982065 -1.267596 0.15206967 -0.6742603
000070 78 b2 01 3f 68 ae ad bc ef 36 17 3f 5f ba 0e 3f
       0.50662947 -0.021201327 0.59068197 0.5575313
000080 9d 06 a3 bf d1 61 72 bf 3f ce 85 3f cc fc 98 3e
       -1.2736393 -0.94680506 1.0453566 0.2988037
000090 a1 5c 71 3d 6c e0 81 bf 0d 84 82 bf 0d bc 54 3f
       0.05892623 -1.0146613 -1.0196549 0.8309944
0000a0 24 4a 98 be 75 c9 22 3e fc 38 67 3f 7b 9e 93 3f
       -0.29744065 0.15897162 0.90321326 1.1532739
0000b0 9a 35 d0 be fe f3 89 bf 41 df b7 bf dc 18 12 3d
       -0.40665895 -1.0777586 -1.4365007 0.03566824
0000c0 23 dc b8 3f 86 0f c9 3f 14 69 f7 bd 7e 62 8c 3e
       1.444218 1.5707862 -0.12080589 0.27418894
0000d0 fd c8 8e be 7a c7 7a 3e 6f 2e 1f be ce 88 63 bf
       -0.27887717 0.24490157 -0.15545057 -0.8888062
0000e0 f4 a3 40 3f 5d d6 38 3f 6e 67 49 bf 4b 24 dc be
       0.7525017 0.7220209 -0.78673446 -0.4299644
0000f0 09 1d 8f 3e 1a 0c 76 3f 92 8e 1a 3f 59 61 f4 be
       0.2795184 0.96112216 0.60373795 -0.4773052
000100 6c 05 cb bd cb ba 2c be ed 22 6d bf 20 a8 7d bf
       -0.099131435 -0.16868131 -0.9263142 -0.99084663
000110 06 ae 57 3f ff 4d b4 3f 2d 7c 81 3f ab 6d 49 3c
       0.84249914 1.4086303 1.011602 0.012294213
000120 25 0b a1 bf 4f da 19 bf c9 f8 cf be 21 74 12 bf
       -1.2581526 -0.6009874 -0.40619496 -0.5720845
000130 40 63 bd 3e b3 64 1d 3f 53 58 31 3f a1 ad 91 3e
       0.36989784 0.6148178 0.692754 0.2845278
000140 50 83 df be 49 6c 97 be 6e 0a c2 be 62 1b fe bd
       -0.4365487 -0.29574803 -0.37898582 -0.124075666
000150 28 d3 3c 3e 04 70 f8 3d 22 41 b7 3e b8 97 a2 3e
       0.18439925 0.1213074 0.3579188 0.31756377
000160 56 3b 86 bd 7d cc d2 bc 1c a6 08 3d ce 9d 44 bd
       -0.06554286 -0.025732273 0.03336154 -0.048002057
000170 6e 0a f1 bc 10 56 af bc bf 8c 05 be f8 72 98 be
       -0.029423919 -0.021403342 -0.13041972 -0.29775214
000180 6c 5d 0d 3e a6 6f 25 3e 31 b5 51 bc 76 f3 1a 3c
       0.13805169 0.16155872 -0.012799547 0.00945746
000190 12 a0 83 bd b9 80 d3 bd ca 0b bb 3c e4 01 cc be
       -0.06427015 -0.10327286 0.02283277 -0.39845192
0001a0 ae 16 03 be f0 c8 8e be c1 3c 1b 3e b0 a7 55 3c
       -0.1280162 -0.27887678 0.15159895 0.013040468
0001b0 12 d3 67 3e 78 a6 11 ba ac 43 85 bd ea d9 ab 3d
       0.2263911 -0.0005556117 -0.06507048 0.08391173
0001c0 3f 30 2d 3c 55 b9 66 3e fc 8c ea bd ef 09 cf bd
       0.010570585 0.22531636 -0.11452672 -0.101093166
0001d0 bf 00 06 be eb 56 2a 3d 7c f4 bb bd 89 a7 47 3d
       -0.13086222 0.041586798 -0.09177491 0.04874376
0001e0 9e d3 90 be e6 b7 ce 3c d1 b0 f9 3d 0b 1e de 3d
       -0.2828645 0.025234174 0.12191928 0.10845574
0001f0 c0 fc 1b 3c 80 41 3e be 08 b5 3b be 12 97 52 be
       0.0095207095 -0.18579674 -0.18330777 -0.20565441
000200 f8 94 bc 3f 1d d2 8e 3e a7 b7 94 3e 41 52 01 bf
       1.4732962 0.2789468 0.29046366 -0.50516135
000210 0b 71 d8 be 92 85 d1 3e 18 1a 54 3e d3 1d f2 be
       -0.42273745 0.4092222 0.20713079 -0.4728838
000220 48 49 87 3f 5b e3 46 3e a1 7a 91 3e c4 bd ee be
       1.0569239 0.19422667 0.2841387 -0.46629155
000230 29 12 c1 be e7 a2 4e 3d 6d 4e 13 3e 98 13 37 be
       -0.37709168 0.050448325 0.14385386 -0.17878568
000240 02 78 93 3e 58 ac de bd 69 2a 34 3f 78 11 95 be
       0.28802496 -0.10872716 0.7037721 -0.2911489
000250 83 e3 2a bf ff 7a 7a be 4e 0b 3d 3e 38 e2 98 be
       -0.66753405 -0.24460982 0.18461344 -0.2986009
000260 66 d7 a6 3f 25 6d 77 3e e0 3d b2 bc 4e e8 1c bf
       1.3034484 0.24162729 -0.02175802 -0.6129197
000270 44 09 9a be 94 8b 0b 3f e8 8f 9f 3e 3a 3c 7b bf
       -0.30085194 0.54509854 0.3116448 -0.98138773
000280 4c dd 0e bf 86 19 83 bf 8f 84 84 bf 67 86 f4 3d
       -0.5580642 -1.0242164 -1.0352954 0.11939698
000290 73 05 25 3f ba 01 bd 3e 1e ba 0e 3e a7 07 92 be
       0.6446144 0.3691538 0.13938186 -0.28521463
0002a0 61 ba af bf 46 4f 15 be e2 a0 b6 be 7e 16 c0 3d
       -1.3728753 -0.14581022 -0.3566962 0.0937929
0002b0 21 8c 23 3f 71 c1 ac be 10 22 c0 bd 35 87 18 3f
       0.63885695 -0.33741334 -0.09381497 0.5958131
0002c0 6c d9 f5 3d 77 f6 f3 3e 45 e9 6a 3f eb 62 7b 3e
       0.120043606 0.47648975 0.9176219 0.24549453
0002d0 8b a9 6d be 4d 71 9e be 09 fe 1a 3e 50 25 08 3f
       -0.23209207 -0.30945817 0.15135969 0.53181934
0002e0 4c 0b 98 3f 4e c5 e1 3e 70 d5 a6 3e 51 f1 cc 3e
       1.1878448 0.44095844 0.32584715 0.4002786
0002f0 61 28 29 bf 17 78 46 3e c8 00 27 3e fb 37 e0 be
       -0.6607724 0.19381748 0.16308892 -0.4379271
000300 68 41 60 be ef 18 6b be 78 65 d7 be 51 68 8a be
       -0.2189995 -0.2295873 -0.42069602 -0.27032712
000310 42 cf 05 3e 36 35 4d bd de aa 64 3d 17 2e bc bd
       0.13067344 -0.050099574 0.055827014 -0.091884784
000320 d0 6a 7d bf d4 f3 c4 be 0d e1 46 3e 8a 58 ca 3d
       -0.9899111 -0.38467276 0.19421788 0.09880169
000330 de 4b d9 3e f7 83 cb be 7f bb 92 be 1d f4 02 3f
       0.42440695 -0.3974912 -0.28658673 0.5115374
000340 64 15 2c be b9 3a 3a be 21 ef 00 3f 5d b6 18 3f
       -0.16805035 -0.18186463 0.5036488 0.59653264
000350 e7 bf d2 be 2d 38 98 be 3e 81 d3 be 34 c8 ab 3e
       -0.41162035 -0.2973036 -0.4130954 0.3355118
000360 cc b7 50 3e 53 ef 0b be c6 b3 b1 3e 8d 4c 82 3d
       0.20382613 -0.13665514 0.3470747 0.06362257
000370 43 0f e6 be a1 87 6a be be d0 a5 3d 38 e0 55 be
       -0.4493352 -0.22903301 0.08096455 -0.20886314
000380 0b ec 3d 3e 63 07 71 be 4a db 07 bc 94 a5 1e 3e
       0.18547074 -0.23537974 -0.008292029 0.1549285
000390 c3 67 83 3e fc 45 36 bd be 8f 3b be 4a 96 23 be
       0.256651 -0.044500336 -0.18316552 -0.159753
0003a0 0b 98 0e bc 3e 4e 74 3e c9 5d cb 3d 27 e5 95 be
       -0.008703242 0.23857972 0.099299975 -0.29276392
0003b0 68 ef 8f be 1a 07 33 bd ac 80 85 3e e7 7d 9e bc
       -0.2811234 -0.043707944 0.2607473 -0.019347144
0003c0 2d b7 8c 3b 9f f9 8c be 31 0c 81 3d 20 df 9a 3d
       0.004294297 -0.27534196 0.063011535 0.07562089
0003d0 a3 47 b3 3d 91 f5 7f bd 43 f4 ae 3c 14 7b 13 3c
       0.08753898 -0.06249005 0.021356707 0.009001512
0003e0 bd 08 09 bd d4 7c 15 bf b0 fb 76 3d 2b a3 b3 bd
       -0.0334556 -0.583936 0.06029862 -0.08771356
0003f0 44 5a e9 3d 23 55 51 bd c8 38 91 3e 2c 4e fa 3b
       0.1139417 -0.051106583 0.28363633 0.0076387133

stu.hidden.0.stu.M_phi_minus f4 [8, 16, 8]
000000 d5 09 a6 bf e8 55 06 bf e4 52 98 3f cb 7a 21 bf
       -1.297175 -0.5247483 1.1900296 -0.6307799
000010 91 b6 32 bf 51 87 94 be ec a8 97 be a1 14 9b 3e
       -0.69809824 -0.29009488 -0.29621065 0.30289176
000020 fc fc a1 bf bb 4a 48 bf 2a 75 e4 3e 99 fb c8 be
       -1.265533 -0.7823903 0.4462064 -0.39254454
000030 ac 2d 95 3f 9a cf 22 bf 4b e9 79 bf 75 87 a1 be
       1.1654563 -0.63598025 -0.976216 -0.31548658
000040 d6 83 e3 be e3 d3 c8 be 4b 5b 90 3d 15 3b 26 bf
       -0.4443652 -0.39224157 0.07048663 -0.649339
000050 a1 e9 5c 3f 70 5b bb be 76 79 00 be 21 31 20 3d
       0.8629399 -0.365932 -0.12546334 0.039109353
000060 a4 80 98 be f5 a9 c0 bd 34 1b 94 3f 5e 4d 02 be
       -0.29785645 -0.09407417 1.1570802 -0.12724826
000070 1d 4c 2c bf 6e b8 15 bf c2 af f6 be c4 a8 0e bf
       -0.6730364 -0.5848454 -0.48180968 -0.55726266
000080 b8 7f 83 3f 07 9c 12 3f 02 29 a0 be 68 c8 f6 3e
       1.0273352 0.5726933 -0.31281286 0.48199773
000090 fc cb cc bd ee 01 3c be fb 35 b3 3d dd f6 7c bd
       -0.099998444 -0.18360111 0.0875053 -0.061758865
0000a0 60 b7 b6 3e 8a a8 75 3e fb 99 9e be 8b 60 1c be
       0.3568678 0.23990074 -0.30976853 -0.15271203
0000b0 15 82 ad bd 82 5e ca 3e 59 11 6c 3e 13 59 0a be
       -0.08472077 0.3952523 0.23053493 -0.13510542
0000c0 1c 8e c0 3e f9 86 79 3e 5b 69 26 3d e0 c1 c0 3e
       0.3760842 0.24367894 0.04062782 0.37647915
0000d0 d6 63 60 be 91 c2 e6 3e 84 08 65 3c 58 7b 2a 3e
       -0.21913084 0.45070317 0.013979081 0.16648614
0000e0 cb e2 f1 be 81 31 bc be a3 96 6c 3e 4d 9b 59 bf
       -0.47243342 -0.36756518 0.23104338 -0.85002595
0000f0 22 e6 0a 3f 6e 81 06 3e 83 6e bb 3e d2 25 86 be
       0.54257405 0.13135311 0.3660775 -0.2620073
000100 9c 34 44 bd fa de 6b 3e 39 d7 07 be 4e c4 1d 3f
       -0.047901735 0.23034278 -0.13265695 0.6162766
000110 14 f6 d1 be 9f 59 9b 3e 6b a3 08 bf df b2 e0 3e
       -0.41008055 0.30341813 -0.53374356 0.43886468
000120 92 89 a5 be 5f 65 f1 bd 5a 11 09 be d3 34 ec be
       -0.3233152 -0.11786913 -0.13385525 -0.46134052
000130 b6 03 a2 3e 11 5d c6 bc e5 e1 05 3e d9 e0 48 be
       0.31643456 -0.0242143 0.13074453 -0.19617023
000140 39 61 ac 3e 6d 1e 21 3d ba b6 c4 3d ad 69 d4 3e
       0.33667925 0.039335657 0.09605165 0.41486874
000150 23 96 02 3d 7f cd 0b be 08 4f 08 3c 98 44 aa bd
       0.031881463 -0.1365261 0.008319624 -0.083138645
000160 b7 ef 92 3d 78 c8 8c 3d d9 15 3e 3e 6d 95 b8 3e
       0.07174628 0.06874174 0.18563022 0.36051503
000170 59 0d 10 bf 0d 09 a7 be 59 2f 38 be 3d 09 e5 bd
       -0.56270367 -0.32624093 -0.17986812 -0.11183403
000180 95 8a a3 3e 69 e8 ef bd 9c c6 8e 3e 62 1f f3 3e
       0.31941667 -0.117142506 0.27885902 0.4748488
000190 5f 5e 8e be 16 69 a9 be a6 16 2a be 4a 81 97 3d
       -0.27806374 -0.33087987 -0.16610202 0.07397707
0001a0 66 7b 7a be 38 cb 8b bd 9a 52 91 be 83 65 fb bd
       -0.24461135 -0.0682587 -0.28383332 -0.12275221
0001b0 ba b5 19 be 98 fc a7 3e d5 5b 22 3e 14 43 a2 3c
       -0.1501073 0.328099 0.15855344 0.019807376
0001c0 96 ea 40 3e f1 23 53 3e 37 25 a1 3e 57 79 82 3e
       0.18839487 0.2061918 0.31473705 0.254832
0001d0 e2 78 eb bc 6e 35 36 bf e7 03 f4 bc 76 f2 06 be
       -0.028744165 -0.7117528 -0.029787017 -0.13178429
0001e0 64 0a ab 3d 2f 38 37 be 33 82 71 3e f1 99 01 3e
       0.08351591 -0.17892526 0.23584823 0.1265638
0001f0 a1 f6 a3 bd ff 86 7c be 32 71 31 3d 13 c0 b5 bd
       -0.08006025 -0.24660872 0.043320842 -0.08874526
000200 56 e6 cc bd 65 f8 88 3e d4 51 a6 be e9 96 93 3e
       -0.100048706 0.2675201 -0.32484305 0.28826073
000210 b2 28 3a 3e d4 65 ce 3d 69 a0 1b 3d 82 73 e9 3d
       0.18179587 0.10078016 0.037994776 0.113989845
000220 c0 52 8a 3d 12 4b a7 bc 74 d5 90 be 33 be be 3e
       0.067540646 -0.020421539 -0.28287852 0.37254485
000230 9f ca bb 3e 00 14 9d 3d 51 99 ca be 67 2b d8 bc
       0.36678025 0.0766983 -0.39570096 -0.026387883
000240 38 3b c9 3d ac 13 98 bd a1 f7 55 3d 72 a2 0c 3f
       0.09825748 -0.07425627 0.05223811 0.5493537
000250 4f 95 d0 3d 2a 48 8d 3e 71 a2 70 bf de 30 c9 3d
       0.10184728 0.2759412 -0.93997866 0.09823774
000260 6b cd 3d be 92 ad 94 3d eb 85 38 bf b7 8a 8c 3e
       -0.18535392 0.072596684 -0.7207934 0.2744958
000270 c5 8a 10 3f 7b cc 35 3d f2 6f 11 bf cc db 5a 3e
       0.56461746 0.04438446 -0.5681144 0.21372908
000280 9a 5b 16 3e 3c e1 8f 3d 5b 2f 21 3e 92 6d 01 3d
       0.1468338 0.07025382 0.15740721 0.031598635
000290 02 6d a9 be 5d 94 54 bd de 83 ab bd 9e 3f ff 3c
       -0.3309098 -0.051899303 -0.08374761 0.031158265
0002a0 8d 05 91 be fc 74 10 bf c8 99 08 3f e4 90 3e be
       -0.28324547 -0.56428504 0.5335965 -0.18609959
0002b0 00 cc 4e 3e 43 d1 7d bd e1 f4 d7 3d 0c 9d 47 be
       0.20195007 -0.061967146 0.10544754 -0.19493502
0002c0 82 4e ce 3e dd fb b2 3d 1b c0 c7 be 9e 31 a9 3e
       0.40294272 0.08739445 -0.39013752 0.33045667
0002d0 09 89 c4 bd 8c 75 4e be 21 b8 e2 bd 52 e2 a8 bd
       -0.0959645 -0.20162028 -0.11070276 -0.08246292
0002e0 7f 8c 27 be 96 91 8d 3e ef c4 89 3e e0 09 17 3e
       -0.16362189 0.27650136 0.2690806 0.14749861
0002f0 c8 4c 16 be b1 a7 5c bc 56 e6 f3 bd fb 4e cd 3d
       -0.14677727 -0.013467715 -0.119091675 0.1002483
000300 0e 4f 35 3e df ff 17 3e 3e f2 a8 3d fc e9 5b 3d
       0.17705938 0.14843701 0.08249329 0.05368994
000310 97 fa b2 bd 1e 73 0d be 28 d7 45 be 2b 25 90 3d
       -0.087392025 -0.13813445 -0.19320357 0.07038339
000320 3f 17 ef bc 9f 08 e2 3d ff b1 a9 3d 98 0d 3b be
       -0.02918589 0.110368006 0.08285903 -0.18266904
000330 af fe 18 bd 05 d0 b5 be 29 dc 0c bd 05 1d 53 3e
       -0.03735226 -0.3551027 -0.03438965 0.20616539
000340 4a 91 db 3c 39 58 89 3e 0e 36 f7 bd a3 38 81 bd
       0.026802678 0.2682512 -0.12070857 -0.06309631
000350 53 de e6 bc 50 59 07 bd a3 7a 57 3e 52 98 17 3e
       -0.028182184 -0.03304416 0.21042876 0.148042
000360 ac 6a a6 be d1 98 b1 be aa c2 38 3d 8b 2b 70 be
       -0.3250326 -0.34686902 0.04510752 -0.2345411
000370 61 0d ad 3e 17 cc 22 be 8c af 2d 3e cd b5 1f 3e
       0.3379927 -0.15898167 0.16961497 0.15596695
000380 13 84 74 be a7 9e 71 be 9d 8b db bd fe 15 b9 bd
       -0.23878507 -0.23595677 -0.107199885 -0.09037398
000390 31 bd b0 3e 48 ff 02 bf d5 61 bc 3e 28 d4 0c be
       0.34519342 -0.5117078 0.3679339 -0.13752806
0003a0 78 6e 68 3d 19 5d 90 be 82 32 71 bd da ea a4 bd
       0.056745976 -0.28196028 -0.05888606 -0.08052607
0003b0 aa 72 00 3d 95 c0 7c 3e c4 d9 78 be 02 09 83 bd
       0.031359352 0.24682839 -0.24301821 -0.063982025
0003c0 0d 64 12 be c0 de 10 3e f8 5d 8b 3d 1e 50 96 bd
       -0.14295979 0.14147472 0.068050325 -0.073395
0003d0 4d 65 93 3d 6d 51 b0 bd 9d 4b 82 3c 83 9c 01 be
       0.07197056 -0.08609281 0.015905196 -0.1265736
0003e0 b6 94 b3 bd 76 90 69 3c 33 e9 9c bc 75 b4 1a be
       -0.08768599 0.014255634 -0.019154167 -0.15107901
0003f0 0c 8e b4 bd ea 14 21 be 2d 6e f7 3c 42 1e c1 bd
       -0.08816156 -0.15730634 0.030203903 -0.09429599

stu.hidden.0.rn_2.weight f4 [8]
000000 db 79 76 3f 36 0a 7f 3f df aa 16 3f 64 38 86 3f
       0.96279687 0.99624956 0.5885448 1.0485959
000010 48 c8 3f 3f 9e de 4f 3f 0f 21 4f 3f 1c 19 61 3f
       0.7491498 0.8119906 0.8090982 0.8792894

stu.hidden.0.mlp.swiglu.w.weight f4 [32, 8]
000000 ca 11 14 be 75 9d da 3d fc c0 fa 3c 70 5e 70 3e
       -0.14459911 0.10674564 0.0306096 0.23473525
000010 26 de e2 bd 94 d0 45 3e de de 0c bb c9 11 0d 3e
       -0.11077528 0.19317847 -0.0021495144 0.13776316
000020 f7 70 96 be 08 b5 2c 3e f2 d6 14 bd 31 a1 ac be
       -0.2938306 0.16865933 -0.0363378 -0.3371673
000030 69 d4 ce be 40 2b 8c 3e 0f d9 a6 be 54 ae 0e 3e
       -0.4039643 0.27376747 -0.32587478 0.13933688
000040 8b ab c8 be a6 38 ca bb f2 41 30 3d cc f3 14 be
       -0.39193377 -0.006171304 0.04303164 -0.14546126
000050 55 67 dc 3d 73 e5 cf 3d fd 18 c3 3d 76 c1 b6 bc
       0.107618965 0.10151186 0.095262505 -0.022309046
000060 18 f5 85 3e e5 c1 3c be dd 3d 1a 3e 7b c7 e4 bd
       0.26163554 -0.1843334 0.15062661 -0.111708604
000070 88 a4 1f 3d fa 10 2e 3c e0 bb a2 3e ea a4 15 3e
       0.03897527 0.010624165 0.31783962 0.14613691
000080 cb 16 47 be fe 34 4f 3d bc cd 20 be a8 85 86 be
       -0.19442289 0.050587647 -0.15703481 -0.26273847
000090 e5 09 a2 3e b4 73 13 3e 5e fe 02 3e 8e d3 02 3e
       0.31648174 0.14399606 0.12792346 0.12776014
0000a0 d1 f2 aa 3d da 43 ed bd 68 d8 a7 3b 73 34 0d bf
       0.08347095 -0.11585207 0.005122233 -0.55158156
0000b0 bd 4a bc 3e 8a 67 36 bc 23 c8 dc 3e c5 39 1e 3e
       0.3677577 -0.011133084 0.43121442 0.15451725
0000c0 7a 53 23 3f 38 2d 87 3d 96 25 bf be b5 8d cb be
       0.6379925 0.06600422 -0.37333363 -0.3975655
0000d0 16 f2 8b be f7 9f 1d 3f 6e 1c cc 3e 12 97 52 3e
       -0.27333134 0.6157221 0.3986544 0.20565441
0000e0 12 80 30 3e 05 94 a0 3d 7f bc 00 be b4 86 a8 be
       0.17236355 0.078407325 -0.12571906 -0.3291527
0000f0 cd 64 97 bc 6a b4 f4 3d 05 e3 3b 3e e6 8d 26 be
       -0.018480683 0.11948474 0.1834832 -0.16265067
000100 34 43 f0 bd 2d ef 08 3e d2 53 10 3d 4b 92 b2 be
       -0.11731568 0.13372488 0.035236187 -0.34877238
000110 00 e2 16 3e f0 cb 40 be bb 09 86 be 23 b6 98 be
       0.1473465 -0.18827796 -0.261793 -0.2982646
000120 d9 5c 78 bf 02 8e e5 be dd 8d c0 bc e9 07 5d 3e
       -0.97016674 -0.44834906 -0.023505146 0.21585049
000130 31 70 02 bf 02 ae d2 bd a0 e8 cb b8 ee dd d6 3e
       -0.5095244 -0.102870956 -9.723124e-05 0.41966194
000140 56 45 41 3f 0a 67 a1 3d 8a 71 41 bc 2c 6b 67 bc
       0.75496423 0.07880981 -0.011806855 -0.014124673
000150 2f 52 ea bd c4 17 95 3c b5 27 c8 bd e2 ac 8b be
       -0.114414565 0.018199809 -0.097731985 -0.27280337
000160 c9 bc 45 bd db 80 1f be 94 0c a2 be 10 c4 44 3d
       -0.048275743 -0.15576498 -0.3165022 0.048038542
000170 c5 95 b6 be 30 a6 0c 3e ef 93 b9 3e 94 6e 0c be
       -0.3566114 0.1373527 0.36245677 -0.13714057
000180 aa ab 9b bd 61 e9 8b 3e ae 45 ef be ba c4 f1 be
       -0.07601102 0.2732649 -0.4673285 -0.47220403
000190 6c f5 3d be a7 26 7c 3e 5c 2d 26 3b 08 86 56 bc
       -0.18550652 0.2462412 0.0025356626 -0.013093479
0001a0 8f 5a f7 be b8 d4 10 bd ad 9d 93 3e 27 49 6b bd
       -0.48311278 -0.035359114 0.28831235 -0.05744281
0001b0 5b 81 64 3e f1 fd 0d 3e c8 3f 60 3d b8 db 80 3e
       0.2231497 0.13866402 0.054748327 0.25167632
0001c0 09 79 ce bd 17 2e b1 be 65 b2 15 3e 6b 98 23 3e
       -0.100816794 -0.34605476 0.14618833 0.15976112
0001d0 68 85 9d be 7f dc 84 be ed 4f e2 be 92 c2 04 be
       -0.30765843 -0.25949475 -0.44201604 -0.12964848
0001e0 83 0d d1 bd 29 50 ea bd 6a 5d db bd 9f f6 f2 3d
       -0.10207655 -0.114410706 -0.10711177 0.118634455
0001f0 05 01 19 3d c3 ed 8b 3e a2 5a a4 3c e7 e2 20 be
       0.037354488 0.27329835 0.020062748 -0.15711556
000200 aa cb bc 3d a9 40 06 3e 4c d3 87 be c7 b0 7f bd
       0.09218533 0.13110603 -0.26528394 -0.062424447
000210 e9 4e a2 bd d0 43 5f bd 16 de 2a be 10 56 40 3e
       -0.07925207 -0.05450803 -0.16686282 0.1878283
000220 2f b0 c2 bd 6d d5 b8 3e ec aa bc 3e 72 20 88 be
       -0.095062606 0.3610033 0.36849153 -0.26587254
000230 a0 d6 75 3e ff 6c ff 3e f8 74 04 3f 69 90 9b 3e
       0.24007654 0.49887845 0.5174098 0.30383614
000240 9b 21 07 be 1a 82 ba 3d f0 9f fc bc 7b 56 b2 bd
       -0.13196413 0.09106846 -0.030837983 -0.08707901
000250 a2 51 7c bd 78 62 56 3e 9c 0d 86 bd 03 a5 a0 be
       -0.06160129 0.20936 -0.065455645 -0.31375894
000260 1a 2b 15 3e bd f8 14 3e 33 79 dc 3c 86 e8 d4 3d
       0.14567223 0.14548011 0.026913261 0.10395913
000270 41 d5 11 be ef f4 a0 bd e1 99 95 bd ad d4 1b bd
       -0.14241506 -0.078592174 -0.07304741 -0.03804462
000280 2a 8c e3 3d f7 49 bd 3e af 00 2d 3e aa 3a d0 3e
       0.111107185 0.36970493 0.16894792 0.40669757
000290 93 65 2e be e3 b1 11 bf 2f 30 97 be 10 2d d7 3e
       -0.17030935 -0.5691206 -0.2952895 0.42026567
0002a0 ef 64 78 be c8 62 2e bd 19 ca b7 bd 00 a0 ef 3d
       -0.24257253 -0.042574674 -0.08974094 0.117004395
0002b0 aa db aa 3c 0c 8f 97 3d 8f 4f 7e be b7 ce 0d 3f
       0.020856697 0.07400331 -0.24835037 0.55393547
0002c0 aa 90 31 bd 61 2e 31 bf e5 f6 85 be cc 2d 26 3e
       -0.043350853 -0.69211394 -0.26164928 0.16228408
0002d0 7c 53 22 3f 69 ff 22 be 7f f1 29 3e 31 94 9e 3e
       0.6340864 -0.15917744 0.1659603 0.30972436
0002e0 6e b8 4a 3e b1 a5 2f 3e 3b 31 c4 be a8 51 5d 3e
       0.19796917 0.1715305 -0.3831881 0.2161318
0002f0 3d 16 96 3c 06 22 03 3f 8f 68 6d 3e 94 3c 00 bd
       0.01832115 0.5122379 0.23184417 -0.03130777
000300 a6 6c 4a 3e 8f 92 43 bb fb 2c b2 3e 28 a5 f8 3c
       0.19768009 -0.0029841994 0.34799942 0.03035219
000310 65 8c 65 be 53 35 b2 be 2b ea 0e 3e 15 33 66 3e
       -0.22416838 -0.34806308 0.13956515 0.22480424
000320 82 fe 25 3d 53 5a 81 be 9e 16 67 be f0 62 d1 3d
       0.04052592 -0.25264224 -0.22567222 0.10223949
000330 12 4d 67 be ef 3a 30 3e 82 17 d1 bd 63 61 94 bd
       -0.22587994 0.17209981 -0.10209562 -0.072451375
000340 ca aa ad bd c7 54 86 be 69 1d 1f 3e 0e 9b 34 bd
       -0.08479841 -0.26236555 0.15538563 -0.044093184
000350 b7 77 c5 be 9f 79 c2 be 9a f3 84 3e 3f 64 0d be
       -0.38567898 -0.37983415 0.25967103 -0.13807772
000360 45 bc e5 3d 11 fe 69 3c a8 e4 6d bb ff 9b 6e 3d
       0.1121755 0.014281766 -0.003629962 0.05825424
000370 6b 76 6b 3e ca 9e 0e be cf 94 e2 3b d6 1b 28 3d
       0.22994392 -0.1392776 0.006914712 0.04104217
000380 02 1c 5a be 22 e9 6b 3d d6 bb 95 bc 58 ea 5b 3d
       -0.21299747 0.05759538 -0.018278044 0.053690284
000390 52 8b 5e be 83 5c b4 3e 58 81 97 3e 96 c5 f0 bd
       -0.21732834 0.3522683 0.2959087 -0.117564365
0003a0 6f cc b5 3b 78 b8 52 be 3a 97 a8 3e 8a 25 24 be
       0.005548052 -0.20578182 0.32927877 -0.16029945
0003b0 e3 24 a5 3d 18 0e 57 be 65 bf 74 3e 18 79 4e be
       0.08063676 -0.2100147 0.23901136 -0.20163381
0003c0 7c 13 37 3e a0 74 b7 be b1 25 bb 3e aa ab 94 be
       0.17878526 -0.35831165 0.36552194 -0.2903722
0003d0 c1 fe 1e 3e 1b 5d 74 3e fb c1 ef 3e ba 2a fe be
       0.15526868 0.23863642 0.46827683 -0.49641973
0003e0 6a 89 0b 3d f9 00 ac 3e 99 cf c3 be 18 0f 3d bd
       0.034066595 0.33594492 -0.38244322 -0.046156973
0003f0 de 47 47 3e 5e 91 63 3e 43 58 32 3e 96 d2 59 3d
       0.19461009 0.22223422 0.17416482 0.053179346

stu.hidden.0.mlp.swiglu.v.weight f4 [32, 8]
000000 bb 8b 89 be 62 15 46 bd e2 f2 bc bd 96 0f 98 bd
       -0.26864418 -0.048360236 -0.09226014 -0.07424848
000010 a9 01 47 be 0c 85 01 3e f0 c7 ae bc 4a cc 39 be
       -0.19434227 0.1264841 -0.021335572 -0.18144336
000020 7e 24 01 bf a6 4e be bd 8a 34 00 3e d9 46 c7 be
       -0.5044631 -0.09292345 0.12520042 -0.3892124
000030 09 21 87 be a3 d4 6c 3e 4b 30 a0 bd f9 d2 89 3e
       -0.2639239 0.2312799 -0.07821711 0.26918772
000040 66 3f 1a bd 26 cf 1d 3d f0 41 af bd 03 ef 71 3e
       -0.037658118 0.03852763 -0.085574985 0.23626332
000050 7c b5 a0 be 67 31 77 be 4d bc 5b be 99 78 4f bd
       -0.31388462 -0.24139939 -0.2145855 -0.05065212
000060 81 25 90 3e 91 c8 68 3e 8a 94 7c bd af 03 85 3e
       0.28153613 0.2273276 -0.061665095 0.25979373
000070 40 f5 31 3e 4c 61 db bd 22 5a 3a be f5 97 01 be
       0.17378712 -0.10711917 -0.18198445 -0.12655623
000080 b9 d1 03 3e 29 c8 37 3e 84 28 e4 3d c8 57 ad 3e
       0.12872972 0.17947449 0.1114054 0.33856034
000090 cf c3 b4 be 40 ab 8a be 2d 23 9b be 51 29 5d be
       -0.3530564 -0.27083778 -0.30300274 -0.21597792
0000a0 c2 18 14 3e ac da 55 3e 17 07 ef bc ef 04 b9 3e
       0.1446257 0.20884198 -0.029178185 0.36136577
0000b0 50 c1 bf be 47 b5 80 bd 22 75 f1 be 3e 4d 3c be
       -0.37452173 -0.06284576 -0.47159678 -0.1838884
0000c0 35 9e 71 3d 70 68 92 be b1 c6 9a bd 59 43 5f 3e
       0.05898877 -0.28595304 -0.07557429 0.21803035
0000d0 a4 82 d6 bd ee 7e 87 be 55 ec a0 be d6 75 0a 3f
       -0.104741365 -0.26464027 -0.31430307 0.54086053
0000e0 95 92 79 3c 37 31 b1 3d 6d 33 43 3e a8 44 c5 3b
       0.015232702 0.08651965 0.19062586 0.0060201474
0000f0 55 37 20 3e 5a 17 34 be c5 1c b7 be 25 81 ea bd
       0.15646107 -0.17587033 -0.35764137 -0.114504136
000100 90 ef bb be c1 a2 51 be ca ff 50 3c 56 37 e1 3d
       -0.3670621 -0.20472242 0.012756297 0.109968826
000110 77 68 fd 3c 3c 96 bf 3d 67 86 0e be 33 22 16 3d
       0.030933602 0.09354827 -0.13918458 0.03665371
000120 b9 d8 cd bb d4 d4 29 be 1e cb 86 bd 6c 57 d6 be
       -0.006281939 -0.16585094 -0.0658171 -0.41863573
000130 f6 c1 d6 3d e2 f5 50 3f f9 e5 18 3f df 33 33 be
       0.10486214 0.8162519 0.5972591 -0.17500256
000140 d5 fa 90 3d 1e ca a8 3d 45 3e 23 3e aa 97 ae 3b
       0.070790924 0.08241676 0.15941723 0.0053281384
000150 44 64 55 3d e6 87 9a 3e 0a 30 0e 3e 17 1d 28 be
       0.052097574 0.30181807 0.13885513 -0.16417347
000160 0e 33 5e 3b 2e 27 5d be f8 e0 6d 3e 03 ae f0 3d
       0.0033904943 -0.21596977 0.2323035 0.1175194
000170 23 2c 30 be 26 44 60 be 67 2e 4f 3d 88 55 71 bb
       -0.17204337 -0.21900997 0.050581362 -0.0036824662
000180 de 07 9c 3e 8a f4 06 3f 43 e3 65 3c fb 9a 52 3e
       0.30474752 0.52716887 0.014031234 0.20566933
000190 c5 ce 2f be b7 d1 b4 be 8f 93 99 bd ff cb 8e bd
       -0.1716872 -0.3531625 -0.07498848 -0.06972503
0001a0 db be fc 3d 07 fc f6 3d b8 8c 19 3d 53 68 6f be
       0.1234109 0.12059789 0.037487715 -0.2337964
0001b0 aa 94 37 3d 3f 67 b5 3e a0 f2 8f 3e 22 41 93 3e
       0.04481951 0.35430333 0.28114796 0.2876063
0001c0 1e 9a c1 3e f7 18 77 bc f3 55 30 3e 5d 28 e3 3d
       0.37812895 -0.015081636 0.17220287 0.11091683
0001d0 1d ab a2 be 56 71 7e 3c 74 1d d2 3d 6e 30 81 3c
       -0.31771174 0.015529951 0.10259524 0.015770163
0001e0 69 d3 20 3e a6 86 58 3d 99 6b bb 3d d8 a4 51 3e
       0.15705647 0.052862786 0.09151382 0.20473039
0001f0 90 7e e5 bd 97 6d 9e bc ef 33 7c be 0a 73 43 be
       -0.112057805 -0.019339366 -0.24629186 -0.19086853
000200 67 45 61 3e 9b e9 5d bd dd 39 05 be 91 53 81 be
       0.21999131 -0.05417786 -0.13010354 -0.2525907
000210 f4 8c cc 3d 87 22 86 be a8 4b 8c 3d ca c0 96 bc
       0.09987822 -0.26198217 0.06850368 -0.018402476
000220 18 39 ce be e6 45 b7 3e 18 b3 a9 3e 27 23 06 be
       -0.40277934 0.35795516 0.3314445 -0.13099347
000230 32 e3 60 3e c4 b8 47 3d a6 cd 8a 3e 2c 86 a8 3e
       0.21961668 0.04876019 0.27110022 0.32914865
000240 48 28 7e 3e d1 77 82 3e db 3b 0f be b2 fd 47 bb
       0.24820054 0.25482038 -0.13987677 -0.0030516204
000250 32 57 ec 3d 4b 4f f6 bd 98 ae 71 3b fb 66 60 bb
       0.11540069 -0.12026843 0.0036877748 -0.0034241069
000260 2e 59 65 3d e3 f7 a2 bc fb 9e 0e bd e6 fc d8 be
       0.05599325 -0.019893592 -0.034819584 -0.42380446
000270 05 cd ea 3d d2 96 e1 bd 8c 4a 9f bc 53 ba ec bd
       0.114648856 -0.11015095 -0.019444726 -0.11558976
000280 04 43 59 bf 42 85 4d be 43 06 bc be 99 40 0c be
       -0.8486788 -0.20070365 -0.36723527 -0.13696517
000290 95 18 ed 3e 0e fb 97 3d e0 c0 a9 3e 88 e6 c8 3e
       0.46307817 0.07420932 0.33154964 0.3923838
0002a0 3d 90 30 bd ce 23 3a bd a2 8a 63 3d c6 24 05 3e
       -0.043106306 -0.045444302 0.055552132 0.13002309
0002b0 b8 1a 5e be 12 c6 03 3f 47 fb a0 be fa e6 48 3e
       -0.2168988 0.51474106 -0.3144171 0.1961936
0002c0 26 d6 86 be c0 41 06 3f 70 19 05 3e b9 50 32 be
       -0.26335257 0.52444077 0.12997985 -0.17413606
0002d0 ef 5a bc be 61 c4 c1 3e fa 17 09 be 94 17 b1 3d
       -0.36788127 0.37845138 -0.13388053 0.08647075
0002e0 4f 31 26 bf 63 9c ff be bf 76 48 be 01 d3 71 3e
       -0.6491899 -0.49924 -0.19576548 0.23615648
0002f0 05 26 4e 3e ab 82 03 3e 3e 65 ba 3d 4c c7 5b 3e
       0.20131691 0.12842815 0.09101342 0.21462744
000300 6c ee fa bd ce 77 d2 3d d5 28 7f bd e6 eb 81 bc
       -0.122525066 0.10276757 -0.0622948 -0.015859555
000310 55 78 08 be 09 b1 03 3f d1 fd 08 3e c3 2c d6 3b
       -0.13327153 0.5144201 0.13378073 0.0065360977
000320 86 eb 9f bd c9 7f b4 be 91 51 56 3d 41 67 3b 3e
       -0.078085944 -0.35253742 0.05232388 0.18301107
000330 e9 87 15 be b3 15 2c bc 0c d3 31 be 3d d0 17 be
       -0.14602627 -0.01050322 -0.17365664 -0.1482553
000340 f2 4a 10 3e 2a b6 16 be 63 e6 ad bd 42 78 97 3d
       0.1409109 -0.14717928 -0.084912084 0.07395984
000350 30 49 2c 3c db 11 32 3b c4 da 52 be a8 02 c2 bc
       0.010515496 0.0027171287 -0.20591265 -0.023682907
000360 05 68 9e 3d 95 b8 90 bd ee 45 e4 3d 87 fe 36 be
       0.07734684 -0.07066456 0.111461505 -0.17870532
000370 85 82 02 be e8 df 48 bd e8 80 3c 3e cf 47 91 3b
       -0.12745102 -0.04904166 0.18408549 0.004433609
000380 5f d6 ac bc 5a 39 27 bf ee e1 66 3d dc c2 be 3d
       -0.021098314 -0.65321887 0.056367807 0.0931451
000390 19 ae c0 be d8 7d 91 3d ee 8b 10 3e 85 46 ae bd
       -0.37632826 0.07104081 0.14115879 -0.08509544
0003a0 8f 08 3b be c1 48 f2 bd 26 c0 6b be c2 f2 99 3e
       -0.18264984 -0.11830283 -0.23022518 0.30068022
0003b0 1a f6 f8 bc 29 d7 ee bd d4 fa 0f be f6 1d d2 3d
       -0.030390788 -0.11662132 -0.14060527 0.10259621
0003c0 48 76 b2 bd 52 52 e1 be ac 8d 94 3e 7f c3 3e be
       -0.087139666 -0.44008118 0.29014337 -0.18629263
0003d0 ba f7 24 be 4f 27 a0 bd 15 08 34 3e e4 fd ce be
       -0.16110125 -0.078199975 0.17581208 -0.40428078
0003e0 1f ec 20 be 7d 19 08 bf 04 55 36 be 24 63 21 be
       -0.15715073 -0.5316389 -0.17805868 -0.15760475
0003f0 c3 fa bb 3d e5 74 22 3b 5b 76 a3 3d f4 c6 79 3e
       0.091786884 0.0024788913 0.07981559 0.24392301

stu.hidden.0.mlp.swiglu.w2.weight f4 [8, 32]
000000 6d 34 0a 3e 34 21 9c 3e ba 2d 87 be 8f 1f 01 3d
       0.13496561 0.30494082 -0.26402074 0.031524237
000010 e9 10 d1 be 33 1c d3 bd 93 98 c8 3e 4c 7c 0e be
       -0.40833214 -0.10308113 0.39178905 -0.13914603
000020 d5 cf e6 3d de 92 75 3e 8b b4 d0 be 1d c5 f9 bd
       0.112701096 0.23981807 -0.40762743 -0.121957995
000030 e0 70 c6 be ec 01 17 bd fb 5c d3 3d 97 c3 49 be
       -0.38757992 -0.036867067 0.10320469 -0.19703518
000040 b3 4e 0c 3b 23 3c 53 3e 2b ca ad be e6 05 97 bd
       0.0021409213 0.20628409 -0.33943304 -0.07374172
000050 8b ac 16 bf de 13 f4 3b bc e8 c4 3e e4 98 04 3f
       -0.5885703 0.0074486574 0.38458812 0.5179579
000060 f6 93 f3 bd 74 85 82 bd 58 32 20 be 25 0f 59 3e
       -0.11893456 -0.063731104 -0.15644205 0.21197183
000070 b3 5e 14 3e bc 28 16 3e 9e d5 12 3e e1 f7 f0 3e
       0.1448925 0.14663976 0.14339301 0.47064117
000080 6f ef 42 be ea 37 23 bd bc f1 44 be c2 85 a9 be
       -0.19036649 -0.039848246 -0.1923284 -0.33109862
000090 41 c3 a6 be 88 8f 9d be df ee ee bd 4f 9b c8 bd
       -0.32570842 -0.30773568 -0.11666655 -0.09795248
0000a0 9d 23 83 bd 1e 6d 19 3f 7d 82 72 3e 58 9a 9a 3d
       -0.06403277 0.59932125 0.2368259 0.0754897
0000b0 11 67 0d be b2 d1 b9 bd 1e 47 97 be c3 78 8a be
       -0.13808848 -0.09073199 -0.29546446 -0.2704526
0000c0 72 38 6e 3e ed b6 96 be 26 3d a3 3d b8 6e 86 3c
       0.2326372 -0.29436436 0.079706475 0.016410217
0000d0 25 a5 8b be 6b 84 c1 3d 3f 35 19 bf e9 6b 86 3e
       -0.27274433 0.09449085 -0.5984687 0.26254204
0000e0 a7 1e 39 be 0a 29 fb 3d 23 cc 3d 3e 11 39 ce be
       -0.18078099 0.12263687 0.18534903 -0.40277913
0000f0 55 dd ec 3e 18 ea 97 bd 13 6d e9 3e f7 63 60 3d
       0.46262613 -0.07417697 0.4559103 0.054782834
000100 5b d2 cc 3c 41 c4 4b 3e 39 b4 c9 3e b8 32 c8 3d
       0.025002649 0.19899084 0.3939531 0.09775299
000110 f7 96 e8 3c 4f 7e 98 3e 10 d2 14 3e 86 b2 18 be
       0.028392298 0.29783866 0.14533257 -0.14911851
000120 cb e5 d5 3d b2 53 34 bf 60 25 81 3d 43 a5 58 be
       0.1044422 -0.7044021 0.06305957 -0.21156792
000130 cc 5d a9 be ce f8 a4 be 5a bd 81 be 96 9c 20 3d
       -0.33079374 -0.32221073 -0.25339776 0.039211832
000140 0d b6 8c be 6c 87 01 bf 9f 09 b7 3d 4c 80 7a 3d
       -0.27482644 -0.5059726 0.08937382 0.06115751
000150 a6 9a c3 3e e9 a8 e6 3d 62 90 4b 3e 47 70 af 3e
       0.38203925 0.11262686 0.19879296 0.34265348
000160 e7 49 d2 be 95 1e 97 bd ca b5 e7 3c 9a 82 d6 3d
       -0.41072008 -0.0737888 0.028284926 0.10474129
000170 51 d1 72 3d 2a 20 29 3e 38 ff a3 be eb cf 54 3e
       0.05928165 0.16516176 -0.32030654 0.2078244
000180 a4 e5 f2 bd 2e af 7e 3e 2d 51 9a be 09 cf 16 be
       -0.11860207 0.24871513 -0.30140057 -0.14727415
000190 cb fb fe be 30 f0 a8 be f7 f8 d9 be da a5 0e be
       -0.49801478 -0.3299575 -0.42572758 -0.13930455
0001a0 03 b2 2e 3d 16 35 f9 bd a8 a9 e6 bd e2 07 3e be
       0.042650234 -0.121683285 -0.11262828 -0.18557695
0001b0 3c 60 06 bf 0d 70 e7 3d 39 57 ea bd ad 5c 30 be
       -0.5249059 0.11300669 -0.11442418 -0.17222853
0001c0 19 3b 04 be 86 a8 f3 3d d0 1b 9e be aa ce 83 be
       -0.12913169 0.11897378 -0.30880594 -0.2574361
0001d0 72 83 02 bf 9c e8 da bd 03 53 3d 3e 0f 80 07 3d
       -0.5098182 -0.10688898 0.18488698 0.03308111
0001e0 88 dd 81 bd fe 67 d0 bc 58 78 82 3d ec 4f b6 bd
       -0.06341082 -0.025440212 0.0637061 -0.08901963
0001f0 c6 29 9e 3d 29 b7 27 be f1 fe 8f 3e ff c0 52 3c
       0.077228114 -0.16378464 0.28124192 0.012863397
000200 97 17 64 3e 7e e0 8d 3e 1e 42 9e bd 6a e2 59 be
       0.22274624 0.27710336 -0.077274546 -0.21277776
000210 45 17 11 bd d8 d0 93 bc f9 78 53 be 3d 03 25 3e
       -0.035422582 -0.01804392 -0.20651616 0.16114517
000220 6b ff 55 be 31 9c 5c 3d 15 2d 76 bc cf 77 15 3e
       -0.20898215 0.053859893 -0.015025397 0.14596485
000230 bd 66 1f be e5 e0 37 3e 5c f2 1c bd 3d 01 dd 3c
       -0.15566535 0.17956884 -0.03831707 0.02697813
000240 ad e6 f0 bd 77 46 74 bd d3 39 29 be 1c 84 a2 3b
       -0.11762748 -0.059637513 -0.16525964 0.0049595963
000250 94 7e a5 3c eb 39 72 3d b2 87 e9 3e 96 3d 2c 3e
       0.020201959 0.059137266 0.4561134 0.16820368
000260 7c d9 02 3d 22 61 aa 3e b2 44 bc bd 6f 64 90 3c
       0.03194569 0.3327723 -0.0919279 0.017626015
000270 ad 4d 08 3f 6e 4c f1 bd cc b6 54 3e 89 8d 32 be
       0.53243524 -0.11782156 0.20772856 -0.17436804
000280 12 38 cf bd 7a 96 0f bd 98 42 1b 3e 7a 92 ba bd
       -0.101181164 -0.035055615 0.15162122 -0.091099694
000290 3a 97 26 3e 8e a9 7e be b7 4a 82 3e 74 0a b5 3c
       0.16268626 -0.24869367 0.25447628 0.022099711
0002a0 6a b2 11 3e 44 27 6a be e0 b3 31 3e e3 13 2e 3e
       0.14228216 -0.22866541 0.17353773 0.16999774
0002b0 a3 c3 b9 3e e4 17 45 be d3 7f 34 bd b0 61 30 3e
       0.3628207 -0.19247395 -0.044067215 0.17224765
0002c0 19 62 c6 bd 45 c7 4e 3d 9b 8a d6 3c 7f 57 0e be
       -0.096866794 0.050483007 0.02618914 -0.13900565
0002d0 96 ba 04 3d 77 28 58 be 84 51 cd be 80 7a ba be
       0.032404505 -0.21109186 -0.40101254 -0.36421585
0002e0 2e 23 25 3e 43 fa b2 bb 27 5a bd bd 38 73 59 bc
       0.16126701 -0.0054619624 -0.09245711 -0.013272099
0002f0 94 11 84 bd 75 3a 03 3e c5 6b be 3e 2c cc 71 be
       -0.06448665 0.12815268 0.37191597 -0.23613042
000300 3c bf f6 bc a5 1e c2 3e f3 24 97 3e c3 4a a1 3e
       -0.030120485 0.37914005 0.29520378 0.3150235
000310 f5 9e 7a 3e 35 cc 02 3f 04 e0 64 3e 4f fb 8b 3e
       0.244747 0.51092845 0.2235108 0.2734017
000320 3f 3b 46 3e 10 35 6c be 43 af 74 bc 5e 87 74 bd
       0.19358538 -0.23067117 -0.014934364 -0.05969941
000330 b7 3e c7 3b 41 a3 24 be 67 93 2b be 69 9e 0d 3e
       0.0060804742 -0.16077901 -0.16755448 0.1382996
000340 0f cf c5 bd d2 06 39 be 9e 0f 1f bd 0a 58 11 3d
       -0.09658634 -0.18069008 -0.038833253 0.03548435
000350 0a 4f e6 3e 49 8f 56 3e 81 f0 ca 3e ca 75 29 3d
       0.44982177 0.20953096 0.39636615 0.041372098
000360 d6 9c 8d 3e 01 0f f4 bd be f7 b1 3d d1 72 a8 bd
       0.2765872 -0.11916924 0.08689831 -0.082250245
000370 1c 85 33 3e 8f f7 94 bd a0 01 1e be d8 b3 ac bd
       0.17531246 -0.072737806 -0.15430307 -0.0843274
000380 52 2c 43 bd 66 ca b7 bd 6c 0b a9 3d f1 ee 40 3e
       -0.04764969 -0.08974151 0.08254132 0.18841149
000390 ac 89 db 3e 0a 71 cc 3e 00 d3 79 be 65 db 90 be
       0.42878473 0.39929992 -0.24396896 -0.28292385
0003a0 20 6d df 3e b7 9a 9d 3e c7 2e e0 bd d2 54 84 be
       0.43637943 0.307821 -0.10946422 -0.25845963
0003b0 5b e7 e8 3d 4a b5 18 bf 46 ab 98 be 0c cc 87 3d
       0.113722526 -0.59651625 -0.2981817 0.06630716
0003c0 c4 12 ab 3d 40 aa dd be b7 65 2c be 86 e6 04 be
       0.08353189 -0.43293953 -0.16835676 -0.12978563
0003d0 06 cf dd bd e7 8c 25 bf 65 2d e6 bd 56 db 4d be
       -0.10830502 -0.64668125 -0.11239127 -0.20103201
0003e0 38 ea 00 3d d7 d7 74 be 50 f3 1b be ed 47 1e bc
       0.03147337 -0.23910461 -0.15229535 -0.009660703
0003f0 96 4e 8b bb 31 9e 7e 3e aa 62 00 3f ee 73 12 bd
       -0.0042513115 0.24865033 0.5015055 -0.03575509

stu.hidden.1.rn_1.weight f4 [8]
000000 b3 a1 26 3f 8b a7 37 3f 0f 33 25 3f fc de 5b 3f
       0.65090483 0.71740025 0.64531034 0.8588712
000010 0b 2e 22 3f b8 b2 28 3f 47 74 4e 3f d3 e9 2e 3f
       0.63351506 0.65897703 0.80646175 0.6832554
