checkpoints/sssm-Walker2D-v1-model_step-175-2024-11-18-19-37-05.pt (torch, 34490 bytes, 18 tensors)

emb.weight f4 [8, 24]
0	0xbe4e449e	-0.20143363
1	0x3eafb8d5	0.34320703
2	0xbf10ce8c	-0.56565166
3	0x3e74afc5	0.23895176
4	0xbe2b8b63	-0.1675239
5	0xbdd299c0	-0.10283232
6	0xbe298266	-0.1655365
7	0xbd737fee	-0.059448175
8	0x3e610b97	0.21977077
9	0xbf2b4e1e	-0.6691607
10	0xbd9c28e6	-0.07624988
11	0x3e297e19	0.16552009
12	0x3d0803f5	0.0332069
13	0x3d206f4c	0.03916864
14	0x3e732a04	0.23746496
15	0x3d5c5e76	0.053801022
16	0x3e9b87b1	0.30376962
17	0x3eb0c990	0.3452878
18	0x3e8c9e73	0.27464637
19	0x3e89c2cb	0.26906428
20	0x3eb5a5b3	0.3547798
21	0x3d893a88	0.06700617
22	0x3e5661de	0.20935771
23	0x3ef817e6	0.48455733
24	0xbec8b628	-0.39201474
25	0xbd37403d	-0.044738997
26	0xbe272bb1	-0.1632526
27	0x3e16e173	0.1473444
28	0x3e66ca80	0.22538185
29	0x3e9e2cab	0.30893454
30	0x3e160278	0.14649379
31	0x3eb1e2c1	0.34743312
32	0xbdc5260c	-0.096263975
33	0xbea64e5e	-0.32481664
34	0x3e97a2c0	0.29616356
35	0xbe57fe63	-0.21093135
36	0xbddf8f15	-0.109159626
37	0x3deceef2	0.11569013
38	0xbeff2b8f	-0.4983792
39	0xbe10794e	-0.14108774
40	0xbd8b97dc	-0.06816074
41	0xbeff4dbd	-0.49863997
42	0xbd64919c	-0.055802926
43	0xbd73c63c	-0.059515223
44	0xbdb8a309	-0.090154715
45	0xbd716f18	-0.058943838
46	0x3e8bba4c	0.2729057
47	0x3c191d44	0.009345356
48	0xbe20bbff	-0.15696715
49	0xbe89b6b9	-0.2689722
50	0xbe9c2266	-0.30494994
51	0x3d68569f	0.056723233
52	0x3e36ba41	0.17844488
53	0x3d8cb285	0.068699874
54	0xbd231917	-0.03981885
55	0x3e04963b	0.12947933
56	0xbd2aa508	-0.041661292
57	0xbe1b4c36	-0.15165791
58	0x3ed11ae0	0.40840816
59	0xbeb41de8	-0.35179067
60	0x3def09e2	0.11671807
61	0x3f0936da	0.5359932
62	0x3e0dce5e	0.13848254
63	0x3e538042	0.20654395
64	0x3e32e160	0.17468786
65	0x3e838c90	0.25693178
66	0x3e0b071a	0.13576928
67	0x3eb17619	0.34660414
68	0xbc8b5a61	-0.01701087
69	0x39786b20	0.0002369103
70	0x3e2eb6bb	0.17061894
71	0x3e5e0cda	0.2168459
72	0x3dbc0ac7	0.09181743
73	0xbdbb9ebb	-0.09161135
74	0xbd1478a3	-0.03624786
75	0xbdb58369	-0.08862955
76	0xbe80fa32	-0.25190884
77	0xbab63eec	-0.001390425
78	0xbd077d07	-0.03307822
79	0xbe671a1f	-0.22568558
80	0x3e1cf38e	0.15327284
81	0x3ce6b623	0.028163021
82	0x3e790c86	0.24321184
83	0x3df01a85	0.11723808
84	0x3d170101	0.03686619
85	0x3bf8f132	0.007597112
86	0xbea7a54b	-0.32743296
87	0x3ddece81	0.10879231
88	0xbae51c08	-0.0017479667
89	0xbe193781	-0.1496258
90	0xbe88d8b8	-0.26727843
91	0x3d34bde4	0.044126406
92	0xbe1d2194	-0.1534484
93	0x3d8f93b1	0.07010592
94	0xbe435b8a	-0.19077888
95	0xbd408a39	-0.04700682
96	0x3e11de27	0.142449
97	0xbe9b5273	-0.3033634
98	0x3ece3917	0.4027793
99	0x3e254e7d	0.16143222
100	0x3e0c624b	0.13709371
101	0xbc93ac30	-0.018026441
102	0xbe527563	-0.20552592
103	0x3e7da0d3	0.24768381
104	0x3e05468a	0.1301519
105	0xbcfbd12e	-0.030739393
106	0xbece2584	-0.40262997
107	0xbeb91e22	-0.36155802
108	0x3eaff93f	0.34369847
109	0x3ef50967	0.47858736
110	0x3dc7cbe9	0.0975569
111	0x3d8b5550	0.068033814
112	0x3da1a813	0.07893386
113	0xbd3cec18	-0.046123594
114	0xbc24d55a	-0.010060633
115	0x3eb7fff5	0.35937467
116	0xbd76ac75	-0.06022306
117	0x3d2ec112	0.042664595
118	0x3eadb256	0.33925122
119	0x3d97eba1	0.074179895
120	0x3e28dfce	0.16491625
121	0xbe62f2db	-0.22162955
122	0xbde31940	-0.110888004
123	0x3cc47468	0.023981288
124	0xbe47982f	-0.19491647
125	0x3e480abe	0.19535348
126	0x3e1dcac8	0.15409386
127	0xbd3bf85b	-0.045891147
128	0xbe5e7082	-0.21722606
129	0xbe7a91ba	-0.24469653
130	0x3cde526d	0.027138913
131	0xbe8aaea4	-0.27086365
132	0x3e34f865	0.1767288
133	0x3e6cd9a9	0.23129906
134	0x3e4ec94c	0.20193976
135	0xbe561016	-0.20904574
136	0xbdbc7812	-0.09202589
137	0x3e340c74	0.17582875
138	0x3edad4ea	0.42740566
139	0xbef9f573	-0.48820075
140	0xbd83842e	-0.06421696
141	0xbd2b804b	-0.041870397
142	0xbea17ebe	-0.3154201
143	0xbd13b55b	-0.036061626
144	0x3e9b5198	0.3033569
145	0xbe985972	-0.2975574
146	0x3e6339ad	0.2218997
147	0xbe80a380	-0.2512474
148	0xbe241fe9	-0.16027798
149	0xbe8af12a	-0.2713712
150	0xbb255865	-0.002522969
151	0xbdae0aa1	-0.08498121
152	0x3ce5f584	0.028071173
153	0xbe9482e7	-0.2900612
154	0x3d92cf99	0.07168502
155	0xbd6249ac	-0.05524604
156	0x3e03b47c	0.12861818
157	0xbee21c1a	-0.44162065
158	0xbe0dc833	-0.13845901
159	0xbe0a8e36	-0.13530812
160	0x3e902096	0.2814986
161	0xbd2ef6b3	-0.04271574
162	0x3ccba689	0.024859684
163	0xbee0f4f7	-0.43936893
164	0xbe2f08ed	-0.17093249
165	0x3be1b8b6	0.0068884743
166	0xbeb0dea8	-0.34544873
167	0xbedbf73f	-0.4296207
168	0xbea49939	-0.3214815
169	0x3e704c2f	0.23466562
170	0xbea13859	-0.31488302
171	0xbdfd954a	-0.1238199
172	0x3eb7ef9d	0.35924998
173	0x3ddb0f0a	0.10696228
174	0xbda2998f	-0.07939445
175	0x3efb5dd1	0.49095014
176	0x3e5a1865	0.21298368
177	0xbe779afe	-0.24180219
178	0xbebbb8f5	-0.3666455
179	0x3e8909c7	0.26765272
180	0x3e9e769a	0.3094986
181	0x3d393982	0.04522086
182	0x3ea098b4	0.31366503
183	0xbe7aa5c0	-0.24477291
184	0x3dcc40e4	0.099733144
185	0x3e2a7a1d	0.16648145
186	0xbe1c0a19	-0.15238227
187	0x3e79b958	0.2438711
188	0x3ea32d66	0.31870574
189	0x3c77d94e	0.015127493
190	0x3eacd2be	0.33754534
191	0x3e3aa666	0.18227538

stu.hidden.0.rn_1.weight f4 [8]
0	0x3f2cd5a0	0.67513466
1	0x3f30f213	0.69119376
2	0x3f57710b	0.84156865
3	0x3f65f67d	0.89829236
4	0x3f4b93c7	0.79522365
5	0x3f1b22a4	0.6059973
6	0x3f7c1326	0.9846672
7	0x3f57bbb0	0.84270763

stu.hidden.0.stu.M_u f4 [8, 3, 8]
0	0xbeeb16d5	-0.45915857
1	0xbd1ac411	-0.03778464
2	0x3e3a065f	0.18166493
3	0xbddfa281	-0.10919667
4	0xbc885015	-0.016639749
5	0xbb829e6e	-0.0039861714
6	0x3cb7ce7e	0.02243733
7	0xbd3fbe28	-0.046812207
8	0xbe14674a	-0.14492527
9	0xbe716f70	-0.23577666
10	0x3e0d3115	0.13788255
11	0x3d356dbb	0.0442941
12	0xbe34ade7	-0.17644463
13	0x3e8c0bf7	0.27352878
14	0x3e3247b2	0.17410162
15	0x3e6af65a	0.22945538
16	0xbea3ec78	-0.3201635
17	0xbe5bc809	-0.21463026
18	0x3df587a2	0.119887605
19	0x3df07dbb	0.11742731
20	0xbe860351	-0.26174405
21	0xbdf0fc46	-0.11766867
22	0xbce48c7d	-0.027899021
23	0x3e8c6ac6	0.27425212
24	0xbd7de922	-0.06198991
25	0xbeb6ccd0	-0.35703135
26	0xbd82f3fd	-0.06394193
27	0x3e42ba7e	0.19016454
28	0x3d4443b4	0.04791613
29	0xbea6da28	-0.32588315
30	0xbd10e0d3	-0.03537066
31	0x3dcca531	0.09992445
32	0x3dc31e2a	0.09527238
33	0xbe88d37c	-0.2672385
34	0xbd9b5548	-0.075846255
35	0x3e801993	0.25019512
36	0x3e20bfe5	0.15698202
37	0xbe3e1ca3	-0.18565612
38	0xbe6d784c	-0.23190421
39	0x3ec0585a	0.37567407
40	0x3e6109bc	0.2197637
41	0xbe4b9cb9	-0.19884004
42	0x3da57070	0.080780864
43	0x3e8cc11f	0.2749109
44	0xbd933f69	-0.07189829
45	0xbed3accd	-0.41342774
46	0x3e02dcf2	0.12779596
47	0x3e29ad59	0.16570033
48	0xbe21ef1a	-0.15813866
49	0x3cea8b47	0.028630866
50	0x3cbb2b69	0.022847848
51	0x3df126c0	0.11774969
52	0xbe25e252	-0.16199616
53	0xbcb0f686	-0.021601927
54	0x3cd83ce2	0.026396219
55	0x3d436cb3	0.047711086
56	0x3deee3cb	0.11664542
57	0xbdf5a8e2	-0.119951025
58	0xbe28044d	-0.1640789
59	0xbd489ae3	-0.048975836
60	0xbde80399	-0.11328811
61	0x3d254546	0.040349267
62	0x3d118518	0.03552732
63	0xbde3089d	-0.11085627
64	0xbd9892f5	-0.07449905
65	0xbe028abf	-0.1274824
66	0xbe05a640	-0.130517
67	0x3ddee13b	0.10882803
68	0x3e65ab91	0.22428729
69	0xbc6dc788	-0.014512904
70	0x3e1d9572	0.1538904
71	0x3dfe0b4a	0.12404497
72	0x3df22566	0.118235394
73	0xbeaf47b0	-0.3423438
74	0x3e3a04d1	0.181659
75	0xbce60a06	-0.028080951
76	0xbe48c402	-0.19606021
77	0xbd5e1230	-0.054216564
78	0x3dce40c4	0.10070947
79	0xbda9bd84	-0.082881
80	0x3e804e20	0.25059605
81	0xbe2866a7	-0.16445409
82	0x3df0dcbb	0.11760851
83	0xbe6bfd4b	-0.23045842
84	0x3e185e41	0.14879705
85	0x3dbc8333	0.09204712
86	0x3de220ed	0.11041436
87	0xbe7fb20f	-0.24970268
88	0x3e549193	0.20758657
89	0xbd7f1e70	-0.062284887
90	0x3d9daa59	0.07698507
91	0xbc7bcba4	-0.015368376
92	0xbe4a5bc8	-0.19761574
93	0xbddb2e49	-0.107021876
94	0xbdd03a65	-0.10167388
95	0xbe36b79d	-0.1784348
96	0xbe689de8	-0.22716486
97	0xbddd2348	-0.10797745
98	0xbe9350eb	-0.28772673
99	0xbda4e24b	-0.080509745
100	0xbc161330	-0.009159848
101	0x3e0e0eb0	0.1387279
102	0xbd630258	-0.055422157
103	0x3ebc2baa	0.36752063
104	0x3d62aaed	0.05533879
105	0x3d7b0944	0.061288133
106	0x3dfd5eaa	0.12371571
107	0xbd78277b	-0.060584527
108	0x3d309f24	0.04312052
109	0x3db113f9	0.086463876
110	0x3e80831f	0.25100037
111	0x3db40841	0.08790637
112	0xbd447520	-0.04796326
113	0xbdb4af61	-0.08822513
114	0xbe9be778	-0.30450034
115	0x3e3ae747	0.18252288
116	0xbdfe47fd	-0.124160744
117	0x3e05b250	0.13056302
118	0x3defa02a	0.11700471
119	0xbdce353f	-0.1006875
120	0xbe6f5585	-0.23372467
121	0xbe5d57ee	-0.21615574
122	0x3c7c95eb	0.015416603
123	0x3e0ba531	0.13637234
124	0xbe2ce1cd	-0.16883011
125	0xbebb65fc	-0.36601245
126	0x3d50f4fc	0.051014885
127	0xbdbad956	-0.09123485
128	0xbd0fe3c0	-0.03512931
129	0xbe7a34cb	-0.24434201
130	0xbdd49652	-0.10380234
131	0xbe40a514	-0.18812972
132	0xbdf544c1	-0.119760044
133	0xbceada31	-0.028668495
134	0xbe065394	-0.1311782
135	0xbe88f6fb	-0.2675093
136	0x3da1df06	0.079038665
137	0xb9eabe50	-0.00044773752
138	0x3deb2f41	0.11483622
139	0xbdc0c361	-0.094122656
140	0x3dde2111	0.10846151
141	0xbe8b3b1a	-0.27193528
142	0x3cc70505	0.024294386
143	0xbe29fbcc	-0.16599959
144	0x3eb82e43	0.35972795
145	0xbd9a9be2	-0.075492635
146	0xbad7cfa0	-0.0016465075
147	0xbe431f7f	-0.19054984
148	0x3ec033ff	0.3753967
149	0xbe5ff5d6	-0.21871123
150	0xbe9f19d2	-0.31074387
151	0x3d837e62	0.0642059
152	0xbe753441	-0.23945715
153	0xbe9f7877	-0.31146595
154	0x3e1469d7	0.144935
155	0x3e7651dd	0.24054666
156	0x3e845906	0.2584917
157	0x3dca5d2a	0.09881051
158	0xbcd4083b	-0.02588283
159	0x3d8ece66	0.06972961
160	0x3da8cb41	0.082418926
161	0xbdaa7b30	-0.083242774
162	0xbd2b6270	-0.041841924
163	0xbdebde58	-0.11517018
164	0x3e1435ba	0.1447362
165	0xbe199357	-0.14997612
166	0xbea0c683	-0.31401452
167	0xbd1b422f	-0.037904914
168	0xbe1d6a08	-0.15372479
169	0x3e572a7d	0.21012302
170	0xbdb8f75c	-0.09031555
171	0xbd203b24	-0.0391189
172	0xbd9af260	-0.075657606
173	0xbe0cf401	-0.13764955
174	0x3e4686fc	0.1938743
175	0xbe6f43e3	-0.2336574
176	0xbe89ebe2	-0.26937777
177	0x3dd5814d	0.10425053
178	0xbe063587	-0.13106357
179	0xbcc46007	-0.02397157
180	0xbe1333f7	-0.14375292
181	0xbe241142	-0.16022208
182	0x3ddc5e10	0.107601285
183	0x3d2833f5	0.041065175
184	0xbdcef15d	-0.1010463
185	0xbd72d460	-0.059284568
186	0x3e046785	0.12930115
187	0xbdd82c4b	-0.10555323
188	0xbe8180e7	-0.25293657
189	0xbdbd31a3	-0.09237983
190	0x3e0dc6ef	0.13845418
191	0xbd54c4d5	-0.051945526

stu.hidden.0.stu.M_phi_plus f4 [8, 16, 8]
0	0xbe140235	-0.14453967
1	0x3a1c3d04	0.000596002
2	0xbe190c24	-0.14946038
3	0x3d7fb1fb	0.062425595
4	0x3ebc6de8	0.36802602
5	0x3e876f82	0.2645226
6	0x3e4f8f7a	0.20269576
7	0x3d8873b2	0.06662692
8	0xbe83f073	-0.25769386
9	0xbe52cf6a	-0.20586935
10	0xbebad4da	-0.36490518
11	0xbe589ac0	-0.21152782
12	0xbc75866c	-0.014985662
13	0x3f035144	0.51295877
14	0x3ea05655	0.31315866
15	0x3e400956	0.18753561
16	0xbd01d87d	-0.0317006
17	0xbcf2de82	-0.029647116
18	0x3f0ed396	0.55791605
19	0xbe339a2a	-0.17539278
20	0x3e13d217	0.14435612
21	0x3e40d4ec	0.18831223
22	0x3f456e0b	0.7712104
23	0xbe3c4bda	-0.1838831
24	0xbcaef202	-0.021355633
25	0xbe83287f	-0.25616834
26	0xbeeee0ac	-0.46655786
27	0xbe889c27	-0.26681635
28	0xbde22b30	-0.110433936
29	0x3e180e63	0.14849238
30	0xbd110562	-0.035405524
31	0x3e3bb398	0.18330228
32	0xbea74cc5	-0.32675758
33	0xbe5f79ec	-0.21823853
34	0xbec4d3a3	-0.38442716
35	0x3ead8b6c	0.33895433
36	0xbf07605e	-0.5288142
37	0xbebd4b28	-0.36971402
38	0xbee70dc9	-0.45127705
39	0xbc58dce9	-0.013236263
40	0xbe891566	-0.26774138
41	0xbe103761	-0.14083625
42	0x3df87f49	0.12133653
43	0x3c26edf0	0.010188565
44	0xbeab20aa	-0.33423358
45	0xbd1d7d59	-0.03844962
46	0x3e79d793	0.24398641
47	0xbc989258	-0.01862447
48	0x3e2db493	0.16963415
49	0x3e075ace	0.13218233
50	0x3eaef941	0.3417454
51	0x3d844311	0.064581044
52	0x3e023c9d	0.12718435
53	0x3ecbbc79	0.3979223
54	0x3ee8c7a6	0.4546482
55	0x3d4c0d3e	0.049817316
56	0x3e022321	0.12708713
57	0x3ddd8bc3	0.10817673
58	0x3dac6cef	0.08419215
59	0x3d6526a0	0.05594504
60	0x3f0f11c1	0.55886465
61	0x3f1e3bfe	0.6181029
62	0x3ef9de16	0.4880225
63	0xbe6d9201	-0.23200227
64	0x3d8a6fa9	0.06759579
65	0x3cf09f95	0.02937297
66	0xbe087fc7	-0.13329993
67	0x3ded365c	0.11582634
68	0x3f103425	0.56329566
69	0x3ef856be	0.4850368
70	0x3e171d98	0.14757383
71	0xbeaf3bac	-0.34225214
72	0xbebe7b0f	-0.3720326
73	0xbe386377	-0.18006693
74	0xbe746de0	-0.23870039
75	0x3e58535a	0.21125546
76	0x3edb6f17	0.42858192
77	0x3d4f0671	0.050543252
78	0xbe869bfa	-0.26290876
79	0x3deb074f	0.114760034
80	0xbec06d16	-0.37583226
81	0xbe89b4a8	-0.26895642
82	0xbd78cf9a	-0.06074486
83	0x3d9ea334	0.07745972
84	0x3e00200c	0.12512225
85	0xbdef76c6	-0.11692576
86	0xbe85a224	-0.26100266
87	0xbcdfbecb	-0.027312657
88	0xbe18eec3	-0.1493483
89	0xbd40cb3a	-0.047068812
90	0xbd077d7a	-0.03307865
91	0xbd0022b6	-0.031283103
92	0xbe4ebf8a	-0.20190254
93	0xbe959c38	-0.29220748
94	0x3dfef64e	0.12449323
95	0xbe0dd2f8	-0.1385001
96	0xbe3cb6e1	-0.18429138
97	0x3d86d8c6	0.06584315
98	0xbda0ccb0	-0.07851541
99	0x3d7ea713	0.062171053
100	0xbd309ce7	-0.043118384
101	0xbe99e90b	-0.3006061
102	0x3e1096aa	0.14119974
103	0x3d419261	0.04725874
104	0x3dcf21f3	0.10113897
105	0xbd401c1d	-0.04690181
106	0xbd1759e8	-0.036950976
107	0x3ce80b2b	0.028325638
108	0x3e511285	0.20417221
109	0x3e413c28	0.18870604
110	0xbdfdd75a	-0.12394591
111	0xbe7c14c5	-0.24617298
112	0xbe1c91a6	-0.15289935
113	0xbd313f98	-0.04327354
114	0xbc90fb83	-0.017698055
115	0x3df488fe	0.11940192
116	0xbe294f14	-0.16534072
117	0xbe0a3b7c	-0.13499254
118	0x3dd50be8	0.104026616
119	0x3ea5093f	0.32233617
120	0xbe80c8f5	-0.25153318
121	0xbd2fbd5b	-0.042905193
122	0x3d852280	0.06500721
123	0xbce0d8c5	-0.027447114
124	0xbe2f4413	-0.17115812
125	0x3d64d383	0.055865776
126	0x3e47cc17	0.19511448
127	0x3e2cecf0	0.1688726
128	0x3e48aecc	0.1959793
129	0x3d8c31ec	0.06845459
130	0x3d3f5009	0.046707187
131	0xbeca4c90	-0.39511538
132	0xbddebc93	-0.108758114
133	0x3e8b7d84	0.27244198
134	0x3e733a7a	0.23752776
135	0x3ef749f3	0.48298606
136	0x3d8b25aa	0.06794293
137	0xbec6e4d7	-0.38846466
138	0x3e528090	0.20556855
139	0xbf0aba03	-0.5419008
140	0x3e96819e	0.29395765
141	0x3e326412	0.17420986
142	0x3e278a21	0.16361286
143	0x3ce8c217	0.028412862
144	0x3eaa5d9b	0.3327454
145	0x3e9f26ed	0.31084386
146	0xbd9defe9	-0.07711775
147	0x3e20217e	0.15637776
148	0x3de2dd7a	0.110773996
149	0x3d872584	0.065989524
150	0x3e5c6f75	0.21526892
151	0x3f013f38	0.5048709
152	0x3ec3bf5a	0.38231927
153	0xbe7779c5	-0.24167545
154	0x3eb080ea	0.34473354
155	0xbf0ec6c1	-0.55772024
156	0xbce7cbfc	-0.02829551
157	0x3e3d1290	0.18464112
158	0x3e18df90	0.14929032
159	0x3e7286f4	0.23684293
160	0xbd066729	-0.032813225
161	0xbe4e92a8	-0.20173132
162	0xbd74c0c7	-0.05975416
163	0x3b834b9c	0.004006816
164	0xbdc78f9e	-0.0974419
165	0x3e24c794	0.16091758
166	0x3e525f29	0.20544113
167	0xbe9fbb45	-0.31197563
168	0xbdf6bc41	-0.12047625
169	0xbe402112	-0.18762615
170	0xbf19dd62	-0.6010343
171	0x3e1651dc	0.14679664
172	0x3d1a8e4f	0.037733372
173	0x3d03cc4f	0.032177266
174	0x3e3e8ce8	0.18608439
175	0xbeb737d9	-0.35784796
176	0xbe9d1d7c	-0.30686557
177	0x3ea75da4	0.3268863
178	0xbe95014a	-0.29102546
179	0x3e2b68a6	0.16739139
180	0xbd833aed	-0.064077236
181	0xbdc70166	-0.097170636
182	0x3d9d54a0	0.076821566
183	0xbe666d6b	-0.22502677
184	0xbdf910ed	-0.121614315
185	0x3e2af617	0.16695438
186	0x3d835d5c	0.06414291
187	0x3eea49fc	0.4575957
188	0x3e479fe4	0.19494587
189	0x3e460586	0.19338045
190	0xbd76b0dd	-0.060227264
191	0x3e882869	0.2659333
192	0xbe926871	-0.28595307
193	0x3d770b79	0.060313676
194	0x3e2e67e9	0.17031826
195	0x3eed8b94	0.46395552
196	0x3e223292	0.15839604
197	0x3edb892d	0.42878094
198	0x3e20ae93	0.15691595
199	0x3e7811b3	0.24225502
200	0xbed131a3	-0.40858182
201	0x3e4b12e2	0.19831422
202	0xbeab5edb	-0.33470806
203	0x3e98ffe1	0.2988272
204	0x3e46e8f0	0.19424796
205	0x3e861424	0.2618724
206	0x3e12c9ce	0.14334795
207	0xbe9da95a	-0.30793267
208	0x3d7feafa	0.06247995
209	0xbdf97ced	-0.12182031
210	0xbf0d7041	-0.5524941
211	0x3e9cae60	0.30601788
212	0x3eab9564	0.33512414
213	0xbde6d8a9	-0.112717934
214	0xbe8a05d2	-0.26957566
215	0xbe930ead	-0.28722134
216	0xbc3b34df	-0.01142618
217	0xbed20d4e	-0.41025776
218	0xbdf3074e	-0.11866628
219	0x3ed89f62	0.423091
220	0x3e4d6a13	0.20059995
221	0xbe5e5874	-0.2171343
222	0xbed9954a	-0.4249671
223	0xbebad51b	-0.36490712
224	0xbd7df583	-0.062001716
225	0xbe7ce735	-0.24697573
226	0x3ea8d6ee	0.32976478
227	0x3eda8f05	0.4268724
228	0x3e2842d8	0.16431749
229	0xbde6477c	-0.11244103
230	0xbea3987a	-0.31952268
231	0xbe7419ce	-0.23837969
232	0x3d642826	0.05570235
233	0x3dd11656	0.10209338
234	0xbed709ec	-0.41999757
235	0xbea7a381	-0.3274193
236	0x3d5a3af8	0.053278893
237	0x3ea81165	0.3282577
238	0x3e2f9d4b	0.17149846
239	0x3d474ed7	0.048659172
240	0xbcad6750	-0.021167427
241	0xbdb02d49	-0.086023875
242	0x3ed0c5c3	0.4077588
243	0x3d40bb8a	0.04705385
244	0xbb7f22cc	-0.0038930653
245	0xbebba8bd	-0.36652175
246	0xbb5c8d44	-0.0033653537
247	0x3e8c6439	0.27420214
248	0x3be3beb2	0.006950223
249	0xbe7139ab	-0.23557155
250	0x3e1ff931	0.15622403
251	0x3db065a4	0.086131364
252	0x3d07941f	0.033100244
253	0xbe64c547	-0.2234088
254	0xbd4aaae1	-0.04947937
255	0x3e46ccec	0.19414109

stu.hidden.0.stu.M_phi_minus f4 [8, 16, 8]
0	0x3ec2fd67	0.38083956
1	0x3d523747	0.051322248
2	0x3db89370	0.090124965
3	0x3dc2a789	0.09504611
4	0xbea03f01	-0.31298068
5	0xbcfdca8e	-0.030980375
6	0xbe14c0c6	-0.14526662
7	0xbe595f9c	-0.21227878
8	0x3e9da964	0.30793297
9	0x3e9e5a27	0.30928156
10	0x3e379cf2	0.17930964
11	0xbe9d7842	-0.30755812
12	0xbd804a14	-0.06264129
13	0xbc154ea2	-0.009112986
14	0xbe83de31	-0.25755456
15	0xbdee6b25	-0.1164153
16	0x3d9a42be	0.07532261
17	0xbe105e2c	-0.14098424
18	0xbce6784f	-0.02813354
19	0xbe9c89a8	-0.30573773
20	0x3e2598fd	0.16171642
21	0xbd742096	-0.05960139
22	0xbe17f395	-0.14839013
23	0xbd12be57	-0.035826053
24	0x3db33af9	0.087514825
25	0x3e1099ed	0.14121218
26	0x3e99d945	0.30048576
27	0x3df946ca	0.12171705
28	0xbe397320	-0.18110323
29	0xbc85b91c	-0.016323619
30	0xbe8e3682	-0.2777596
31	0xbe9ca284	-0.3059274
32	0xbd6f4d94	-0.058423594
33	0x3e2f5398	0.17121732
34	0xbdaf4992	-0.08558954
35	0x3dedf271	0.11618508
36	0xbd50ed3b	-0.05100749
37	0xbd66c521	-0.05634034
38	0x3bcce17a	0.006252465
39	0xbe1ddbf4	-0.15415937
40	0xbe5e554c	-0.21712226
41	0x3a6da2ce	0.00090650923
42	0x3d5b7a87	0.053583648
43	0xbeae1dd8	-0.34007144
44	0xbc943ccc	-0.018095396
45	0xbc410c5b	-0.011782731
46	0xbd3746dc	-0.04474531
47	0x3e2e3ec3	0.17016129
48	0x3e62cc21	0.22148181
49	0xbe4d59f7	-0.2005385
50	0x3d81d608	0.06339651
51	0x3e50b723	0.20382361
52	0x3c552250	0.013008669
53	0x3dcf5609	0.10123832
54	0x3e4104fc	0.18849558
55	0x3d2a63b9	0.04159901
56	0x3c137f73	0.009002554
57	0xbe288366	-0.16456375
58	0xbdf39881	-0.11894322
59	0x3e4fa2b8	0.20276916
60	0xbc6f8df8	-0.01462125
61	0x3e02f356	0.12788138
62	0x3d33ab61	0.04386461
63	0x3e1545de	0.14577433
64	0x3e044537	0.12917028
65	0x3c22f661	0.009946437
66	0x3e800026	0.25000113
67	0xbdedde81	-0.11614705
68	0xbdeda439	-0.116035886
69	0x3d731bfa	0.059352852
70	0x3e2ed564	0.1707359
71	0x3dce0816	0.10060136
72	0x3e4e9cf8	0.20177066
73	0xbd91184e	-0.07084714
74	0xbd90835e	-0.07056306
75	0xbc8713cb	-0.01648893
76	0x3e0d1726	0.13778362
77	0x3ddb7c6e	0.107170925
78	0xbd72c264	-0.059267417
79	0xbccad219	-0.024758385
80	0xbe4cd971	-0.20004822
81	0x3e228883	0.15872388
82	0xbe3021dd	-0.17200418
83	0xbc8dde0e	-0.017317798
84	0xbd55dc3c	-0.052211985
85	0xbde49dcf	-0.11162912
86	0xbdc360bc	-0.09539935
87	0x3d99c02e	0.075073585
88	0x3d9eb634	0.07749596
89	0x3d8a703e	0.0675969
90	0x3d924eeb	0.07143959
91	0xbdbd004d	-0.09228573
92	0xbdc03a7e	-0.093861565
93	0xbda21ab4	-0.079152495
94	0xbe27c159	-0.1638235
95	0x3e30b8ec	0.17258042
96	0x3b70ca5b	0.0036741707
97	0x3e7f8041	0.24951269
98	0x3e25d71b	0.16195337
99	0xbdd952d6	-0.10611503
100	0xbd3a2181	-0.045442108
101	0xbe26074b	-0.1621372
102	0xbd9484f3	-0.072519206
103	0x3dbcf8f1	0.09227169
104	0x3e06c8ef	0.13162588
105	0xbdd7c46d	-0.10535512
106	0x3deb4e6e	0.11489569
107	0x3e264736	0.16238102
108	0x3e1edadc	0.15513176
109	0x3d1ee833	0.03879566
110	0x3df1d55d	0.11808274
111	0xbe2e66cf	-0.17031406
112	0xbe0e3e12	-0.13890865
113	0x3dc4f9bc	0.096179456
114	0x3db45985	0.08806137
115	0xbdd0c571	-0.10193909
116	0xbde5ad34	-0.112146765
117	0xbe1138ec	-0.1418187
118	0x3df6b56b	0.120463215
119	0x3dc8d722	0.09806658
120	0xbd020fa9	-0.031753216
121	0xbdde72af	-0.10861718
122	0x3d3e5ac3	0.046473276
123	0xbdbe755f	-0.092997305
124	0xbe62ba24	-0.2214132
125	0xbd2327f2	-0.039833017
126	0x3d909690	0.070599675
127	0x3e16af2b	0.14715259
128	0x3e8d7741	0.27630046
129	0x3c7f792d	0.015592855
130	0xbe2bafe6	-0.16766319
131	0x3e6bedf4	0.2303999
132	0x3dc9b2e7	0.09848576
133	0x3dcb3898	0.09922904
134	0xbeb3981d	-0.3507699
135	0xbe33d179	-0.17560376
136	0xbb3b1668	-0.002854729
137	0xbdfebc59	-0.12438268
138	0xbe3e5885	-0.18588455
139	0x3ebaf716	0.36516637
140	0xbcc0cc9e	-0.02353507
141	0xbc7dea57	-0.0154977655
142	0x3cc0f7b3	0.023555612
143	0x3e0b2a1f	0.13590287
144	0x3db73dda	0.08947344
145	0x3e0642a8	0.13111365
146	0x3d0713be	0.032977812
147	0x3e1db7ff	0.1540222
148	0x3eac8bfa	0.33700544
149	0x3d6b46c5	0.057440538
150	0xbd1731b1	-0.036912624
151	0xbde8af49	-0.11361558
152	0xbd8efe68	-0.06982118
153	0xbec5c340	-0.38625526
154	0xbe3cd1bc	-0.18439382
155	0x3eceef70	0.4041705
156	0xbd199a76	-0.03750082
157	0x3da51bbc	0.080619305
158	0xbe9494ca	-0.29019767
159	0xbea09d90	-0.3137021
160	0xbbd0c658	-0.0063713007
161	0xbe1778f6	-0.14792237
162	0x3d436366	0.047702216
163	0x3d7186f6	0.0589666
164	0xbf0a41b6	-0.54006517
165	0x3e0f254e	0.13979074
166	0x3e8f397b	0.27973542
167	0x3de9eb93	0.11421885
168	0x3e2c0b8b	0.16801278
169	0x3de1b71f	0.11021256
170	0x3e5de2cd	0.21668549
171	0xbd057df0	-0.032590806
172	0xbc6f9134	-0.0146220215
173	0xbe88ca66	-0.26716918
174	0x3d51df41	0.051238302
175	0xbd8f06d3	-0.069837235
176	0xbea08178	-0.31348777
177	0x3dfbaa57	0.12288349
178	0x3dc8bdc6	0.098018214
179	0xbe75455e	-0.23952243
180	0xbdc5cfb2	-0.09658755
181	0x3e455ff4	0.19274884
182	0xbdda39ee	-0.106555805
183	0xbcc04dea	-0.023474652
184	0xbd17dc64	-0.037075415
185	0x3df33f7e	0.118773445
186	0xbdd6ef51	-0.10494865
187	0x3d43fd26	0.047848843
188	0x3ee66ee2	0.45006472
189	0xbe748fd7	-0.23882996
190	0xbe7794da	-0.24177876
191	0x3e987963	0.2978011
192	0xbd38dd9b	-0.045133214
193	0xbadf27f2	-0.0017025454
194	0x3d852e0e	0.06502925
195	0x3e38d318	0.18049276
196	0xbe0c8f9e	-0.1372666
197	0x3e1395ee	0.14412662
198	0x3e345dd7	0.17613922
199	0x3db65162	0.08902241
200	0x3d76505f	0.06013524
201	0x3e67357e	0.22579
202	0x3ded9fe3	0.116027616
203	0xbe08d1d1	-0.13361289
204	0x3ec5160c	0.38493383
205	0x3d9a1cf2	0.07525052
206	0x3d8c1a43	0.068409465
207	0x3e619c53	0.22032289
208	0xbdb7ebfc	-0.08980557
209	0x3e208432	0.15675429
210	0xbe87bf2c	-0.2651304
211	0xbde26c4b	-0.110558115
212	0x3aa99e69	0.0012940887
213	0x3ddbdf00	0.10735893
214	0x3dafe565	0.085886754
215	0xbd5d287a	-0.05399368
216	0x3dd99739	0.106245466
217	0x3e6e26cf	0.23256992
218	0xbe32a6b0	-0.17446399
219	0xbd493e79	-0.049131844
220	0xbe103220	-0.14081621
221	0xbe905263	-0.28187856
222	0xbe5c909f	-0.21539544
223	0x3d5db83c	0.054130778
224	0xbe9d473e	-0.30718416
225	0x3e10de20	0.14147234
226	0x3cc12737	0.02357827
227	0xbcf1d1ee	-0.029519048
228	0xbe6e53c7	-0.23274146
229	0xbd321070	-0.043472707
230	0xbe1d3987	-0.15353976
231	0xbe1c8c2d	-0.15287848
232	0x3cb47a4e	0.022030976
233	0xbe15eec8	-0.14641869
234	0xbca0e1cf	-0.019638924
235	0xbc221694	-0.009893078
236	0xbe3f5f68	-0.18688738
237	0x3e9f13c4	0.31069767
238	0x3e5424fe	0.20717236
239	0xbda81de6	-0.08208828
240	0xbdbc4c84	-0.09194282
241	0xbc00c5ff	-0.007859706
242	0x3d87362e	0.06602131
243	0x3dcc3b18	0.09972209
244	0xbdf26e16	-0.118374035
245	0x3d7f7f37	0.06237718
246	0x3da25536	0.07926409
247	0xbdc9086d	-0.0981606
248	0xbe03fc2d	-0.12889166
249	0x3da50388	0.08057314
250	0x3dbe1b11	0.09282506
251	0xbe08e425	-0.1336828
252	0x3c92b7d3	0.01790992
253	0xbdbb4fcc	-0.091460794
254	0x3ddac285	0.10681633
255	0x3d0ee345	0.03488471

stu.hidden.0.rn_2.weight f4 [8]
0	0x3f665fc4	0.89989877
1	0x3f478cf8	0.77949476
2	0x3f6681ca	0.9004179
3	0x3f494f2e	0.78636444
4	0x3f535131	0.82545763
5	0x3f65f3f2	0.89825356
6	0x3f5bf1f2	0.85916054
7	0x3f5aa211	0.85403544

stu.hidden.0.mlp.swiglu.w.weight f4 [32, 8]
0	0x3f3ae8a9	0.7301126
1	0x3ee2c195	0.44288316
2	0x3db85791	0.09001077
3	0xbf3ec9e1	-0.7452679
4	0xbe240e37	-0.16021048
5	0x3decd40b	0.115638815
6	0x3e0fea3f	0.14054202
7	0x3f0a4c96	0.5402311
8	0x3f13f4ac	0.57795215
9	0x3e0ede32	0.13951948
10	0x3e70b7b2	0.23507574
11	0x3e878c09	0.26474026
12	0xbf0fb18b	-0.56130284
13	0x3e3c8e61	0.18413688
14	0xbe8a27ea	-0.26983577
15	0x3e352113	0.17688398
16	0xbe68765b	-0.22701399
17	0xbe59a2bb	-0.21253483
18	0xbf1e7da5	-0.6191047
19	0xbde543e0	-0.11194587
20	0x3f090008	0.5351567
21	0x3de376dd	0.11106656
22	0x3da33759	0.07969541
23	0x3dd35e0e	0.10320674
24	0x3dd5a330	0.10431516
25	0x3e2bbd21	0.16771366
26	0xbbbd7d71	-0.005782776
27	0xbd8c633d	-0.06854866
28	0xbe8f3af5	-0.27974668
29	0x3c1cd7c9	0.009572932
30	0xbdacf7b5	-0.08445684
31	0x3cf99eb5	0.030471185
32	0xbdc339fe	-0.095325455
33	0xbde97e7c	-0.11401078
34	0xbf11b1a4	-0.56911683
35	0x3d7b08cc	0.061287686
36	0x3f1ce035	0.6127961
37	0x3ec74d90	0.38926363
38	0x3e67f047	0.22650252
39	0xbe8783d3	-0.2646776
40	0x3e1f8383	0.15577511
41	0xbd82cebe	-0.06387089
42	0x3c7274bc	0.014798339
43	0x3e21c1fa	0.15796652
44	0xbd7c4540	-0.06158948
45	0x3dd1ad9d	0.10238192
46	0xbec9ec88	-0.39438272
47	0xbed7dac6	-0.42159098
48	0xbd86f073	-0.06588831
49	0x3d8b219c	0.0679352
50	0x3cc86c96	0.02446584
51	0x3c8af386	0.016961824
52	0xbdc290f0	-0.09500301
53	0x3d80cef0	0.0628947
54	0x3e1f7acf	0.15574192
55	0x3ca34707	0.01993133
56	0xbc00e801	-0.007867814
57	0xbdc3cedc	-0.0956094
58	0x3d9e3108	0.07724196
59	0xbe020311	-0.12696482
60	0x3d74408e	0.059631877
61	0x3e4091f6	0.1880568
62	0x3ece42e2	0.40285403
63	0xbd5f9a75	-0.05459066
64	0xbedafabd	-0.42769423
65	0x3ddfe27e	0.10931872
66	0x3e358bba	0.17729083
67	0xbe29416b	-0.16528861
68	0x3a6a17cb	0.0008929937
69	0x3dc25b78	0.094901025
70	0x3f1f98d3	0.62342566
71	0x3ef782d6	0.48342007
72	0xbea914e1	-0.33023742
73	0x3ec13699	0.37736967
74	0xbf31cfc0	-0.69457626
75	0xbd804d16	-0.06264703
76	0x3e86491e	0.2622766
77	0x3e5ec1e7	0.21753655
78	0x3df7792e	0.1208366
79	0xbe67e757	-0.22646843
80	0xbcb6c636	-0.022311311
81	0xbe524e94	-0.20537788
82	0xbe16697d	-0.14688678
83	0x3b17546c	0.002309109
84	0x3e4746d3	0.19460611
85	0xbeade736	-0.33965462
86	0xbefee07a	-0.49780637
87	0xbe620b14	-0.22074538
88	0xbd8ce94a	-0.06880434
89	0x3ef312b6	0.47475213
90	0xbe833a24	-0.25630295
91	0xbddc4977	-0.107562
92	0x3d66e1a3	0.056367528
93	0x3e556529	0.20839371
94	0xbe20db7c	-0.15708727
95	0xbed1b12e	-0.4095549
96	0x3db53809	0.088485785
97	0xbd9b9506	-0.07596783
98	0xbeb9d584	-0.36295712
99	0xbd98388b	-0.0743266
100	0x3cc0d3ae	0.023538437
101	0x3dc54b5a	0.09633513
102	0xbc4364ef	-0.01192592
103	0x3e4acc76	0.19804558
104	0xbd79aa70	-0.060953557
105	0x3d3a0841	0.045418028
106	0x3e9c976a	0.3058427
107	0xbeb1af1d	-0.34703913
108	0x3d2a18fe	0.04152774
109	0xbeb58b7a	-0.35457975
110	0x3d979ae8	0.07402593
111	0x3e71fc2f	0.23631357
112	0xbead3d22	-0.33835703
113	0x3e26a729	0.16274704
114	0x3d04b4a1	0.032398824
115	0x3e7f6983	0.24942593
116	0x3efbcad6	0.4917819
117	0x3cb17b24	0.021665163
118	0x3ec28769	0.37993935
119	0x3d4a54c1	0.049397234
120	0x3ddf5cfb	0.109064065
121	0xbe9ebaaa	-0.31001788
122	0xbe391018	-0.18072546
123	0xbe3289bb	-0.17435353
124	0xbbff315b	-0.007787866
125	0xbdacf50c	-0.084451765
126	0x3e6fed4d	0.23430367
127	0xbe25be19	-0.16185798
128	0xbdf0cbb7	-0.117576055
129	0xbdc66b7c	-0.0968847
130	0xbca55f93	-0.020187175
131	0x3d8f6c69	0.070030995
132	0x3dd0af02	0.1018963
133	0xbdf11feb	-0.11773666
134	0x3e4b9f56	0.19885
135	0xbe89c509	-0.26908138
136	0x3e9323d0	0.2873826
137	0x3e03e014	0.12878448
138	0xbd87dfb2	-0.06634463
139	0xbd85d267	-0.06534272
140	0xbe16e003	-0.14733891
141	0x3e1a0f60	0.15044928
142	0xbe065b0d	-0.1312067
143	0x3e7893de	0.24275157
144	0x3e93c292	0.28859383
145	0xbd9d6382	-0.07684995
146	0x3d4970c1	0.049179796
147	0xbdf916b3	-0.12162533
148	0x3dce1b45	0.10063795
149	0xbd79da49	-0.06099919
150	0xbdff65c4	-0.12470582
151	0x3c20147a	0.009770507
152	0xbb474d0e	-0.0030410918
153	0xbe7d5b5c	-0.24741882
154	0x3b9f7636	0.0048663868
155	0xbebb0be6	-0.36532515
156	0xbe6946da	-0.22780934
157	0xbe5fcd75	-0.2185572
158	0x3e4122b0	0.18860888
159	0xbe2ce8a1	-0.16885616
160	0x3d9befd0	0.076141
161	0xbdfdbb18	-0.12389201
162	0xbe77ac0d	-0.24186726
163	0xbd50a2e2	-0.050936587
164	0x3d17327d	0.036913384
165	0x3d8c3bbe	0.068473324
166	0x3dfcdf08	0.12347227
167	0xbd4c6722	-0.049903043
168	0xbe5831b0	-0.21112704
169	0xbc9d18ca	-0.01917686
170	0x3ea23a22	0.31684977
171	0x3ee0f181	0.43934253
172	0xbe3458db	-0.1761202
173	0xbcff55c7	-0.031168832
174	0x3e19ce1a	0.15020028
175	0xbe220d69	-0.15825428
176	0x3e3b6995	0.18301995
177	0xbf15e881	-0.585579
178	0xbdf24c65	-0.11830977
179	0xbd1ca618	-0.038244337
180	0x3da204d7	0.079110794
181	0x3d233f14	0.039855078
182	0xbe32108a	-0.17389122
183	0xbef42063	-0.4768096
184	0xbdb0c7ca	-0.08631857
185	0xbcb7b6d7	-0.022426052
186	0xbe3e4bbf	-0.18583582
187	0x3eb67e5f	0.35643288
188	0xbe065a13	-0.13120298
189	0x3e75962d	0.23983069
190	0x3e22be0a	0.15892807
191	0xbe2e9baa	-0.17051569
192	0x3e5cea82	0.21573833
193	0x39dad400	0.00041738153
194	0xbe2e85cf	-0.17043231
195	0x3e3dcba1	0.1853471
196	0x3dc4764a	0.09592874
197	0xbda9e4fa	-0.08295627
198	0xbece51f9	-0.40296915
199	0xbe377ee9	-0.17919506
200	0x3e2f2dde	0.1710734
201	0xbdcac6fa	-0.09901233
202	0x3e16c801	0.14724733
203	0x3d181caf	0.03713673
204	0xbdf1de68	-0.11809999
205	0x3ebbad42	0.36655623
206	0xbe088c03	-0.1333466
207	0xbe56b9d4	-0.20969325
208	0x3d974b0e	0.073873624
209	0x3e2ec62d	0.17067786
210	0x3da24bf1	0.07924641
211	0x3ea658d2	0.3248964
212	0xbe29ce71	-0.16582657
213	0xbda2f062	-0.07956006
214	0x3e5a6800	0.21328735
215	0xbd320472	-0.04346127
216	0x3f0d09b9	0.5509296
217	0xbe4a0990	-0.1973021
218	0x3b4ddf1a	0.0031413496
219	0xbee51fdb	-0.44750866
220	0xbe7b20fa	-0.24524298
221	0xbb8c51d5	-0.004282216
222	0xbde79cec	-0.11309227
223	0x3f00b755	0.5027974
224	0x3f038e08	0.513886
225	0xbdf89714	-0.12138191
226	0x3e17f468	0.14839327
227	0xbee6a58b	-0.45048174
228	0xbe7327a2	-0.23745587
229	0x3e874f86	0.2642786
230	0xbe0a370c	-0.13497561
231	0x3e1e42b1	0.15455128
232	0x3e5ce80d	0.21572895
233	0x3e602fd8	0.21893251
234	0x3e501e1c	0.20323986
235	0xbf1d5a7b	-0.6146619
236	0xbeb2971a	-0.34880906
237	0xbd865842	-0.065598026
238	0x3e95dccc	0.29270017
239	0xbd345719	-0.044028375
240	0x3dd7d809	0.10539252
241	0x3e39f355	0.1815923
242	0xbe20200a	-0.15637222
243	0xbe0761f3	-0.13220958
244	0x3e49d7d8	0.19711244
245	0xbd2a21e9	-0.041536245
246	0x3c434891	0.011919157
247	0x3e227aab	0.15867107
248	0x3e839944	0.2570287
249	0x3dcb9965	0.09941367
250	0x3dd81ff1	0.10552967
251	0x3dc2abd5	0.095054306
252	0x3c8da486	0.017290365
253	0xbd13b0a7	-0.03605714
254	0x3e0a5c56	0.13511786
255	0x3e8584a6	0.26077765

stu.hidden.0.mlp.swiglu.v.weight f4 [32, 8]
0	0x3f253c09	0.6454473
1	0x3eaa8393	0.33303508
2	0x3ea4985b	0.32147488
3	0xbeea18d3	-0.45722064
4	0xbed7c1d0	-0.42140055
5	0xbd0e9356	-0.03480848
6	0x3e1b3747	0.15157805
7	0x3ed30bf5	0.4122006
8	0x3d9e6ad6	0.07735221
9	0x3e3faf9b	0.18719332
10	0xbedd9dfc	-0.43284595
11	0xbe49af89	-0.19695868
12	0xbec1314f	-0.37732932
13	0x3e324071	0.17407395
14	0x3d5a510b	0.053299945
15	0x3e8ef8c9	0.27924183
16	0x3eac70fc	0.3367995
17	0x3df975a7	0.121806435
18	0xbe1647ee	-0.14675876
19	0x3e0f5b82	0.13999751
20	0x3f0bae44	0.54562783
21	0x3e5aa84b	0.21353261
22	0x3e3c65d6	0.18398222
23	0x3e52022a	0.20508638
24	0x3e079a8e	0.13242552
25	0x3b9169ee	0.0044376766
26	0xbd969f37	-0.073545866
27	0x3d3db02f	0.0463106
28	0x3d482b36	0.048869334
29	0xbe05212b	-0.13000934
30	0xbd9dd771	-0.07707108
31	0x3e8e0759	0.2773998
32	0xbe56d1d5	-0.20978482
33	0xbd4469c2	-0.04795242
34	0x3de8eddc	0.11373493
35	0xbec5c073	-0.3862339
36	0xbf13abef	-0.57684225
37	0xbed57880	-0.41693497
38	0xbe9e8f10	-0.30968523
39	0x3dfabaf5	0.122426905
40	0x3defa9d1	0.11702312
41	0x3e333b05	0.17502983
42	0xbd1f1a2e	-0.038843326
43	0x3e98d298	0.2984817
44	0x3e1199c7	0.14218818
45	0x3dd63b0a	0.104604796
46	0xbe77ae31	-0.24187542
47	0xbecc1f79	-0.39867762
48	0x3d5ef2e0	0.054430842
49	0x3e967e0b	0.29393038
50	0xbdc0681e	-0.09394859
51	0xbc9c1439	-0.019052612
52	0xbe23826f	-0.15967725
53	0xbe08eaeb	-0.13370864
54	0x3d1d5572	0.038411565
55	0x3d7bd2b7	0.06148025
56	0xbe468494	-0.19386512
57	0xbe2ad476	-0.1668261
58	0x3d338702	0.043829925
59	0xbdc18f91	-0.09451211
60	0xbc7cb808	-0.015424736
61	0xbe98c572	-0.2983814
62	0x3e2e2b4d	0.17008705
63	0x3c7614a7	0.015019572
64	0x3d73161b	0.059347253
65	0xbe4259fc	-0.18979639
66	0x3e2fd303	0.17170338
67	0x3d17b31b	0.037036043
68	0xbf0c47e6	-0.5479721
69	0xbf03dcbc	-0.5150869
70	0x3dd5064d	0.104015924
71	0xbd9bbaf3	-0.07604017
72	0xbe9cf35e	-0.30654424
73	0x3da58a5b	0.0808303
74	0x3dd3cf17	0.10342234
75	0x3e68cd0e	0.22734472
76	0x3f027441	0.5095864
77	0x3f25fe5c	0.64841247
78	0x3ed72537	0.4202058
79	0x3e4078a1	0.18796016
80	0xbe9d0bb9	-0.30673006
81	0xbdd65654	-0.104656845
82	0x3dec12bf	0.11527013
83	0xbc7537c4	-0.014966909
84	0xbee78d8a	-0.45225173
85	0xbe5f61f4	-0.2181471
86	0x3d5a550d	0.053303767
87	0x3ed093c9	0.4073775
88	0xbda994be	-0.082803234
89	0xbdb6235f	-0.08893465
90	0x3d911c2b	0.07085451
91	0xbe318e01	-0.17339326
92	0x3e5bf002	0.21478274
93	0x3ed67e0e	0.41893047
94	0x3e68a34a	0.2271854
95	0x3d1873ef	0.037219938
96	0x3be93d33	0.007117891
97	0xbe41856d	-0.18898554
98	0x3d698d1b	0.057019334
99	0x3cacbcda	0.021086145
100	0xbe845f7b	-0.25854096
101	0xbd468f30	-0.048476398
102	0xbd968c82	-0.073510185
103	0xbe529d12	-0.2056773
104	0x3de81b4a	0.1133333
105	0x3dd954a0	0.10611844
106	0xbe4fb1f2	-0.20282724
107	0xbe54fd66	-0.20799789
108	0xbe2a55ac	-0.16634244
109	0x3e251b6b	0.1612374
110	0xbe834581	-0.25638965
111	0x3d89af14	0.067228466
112	0x3d2f8762	0.04285372
113	0xbeb90bd7	-0.36141846
114	0xbc99ca8b	-0.018773338
115	0x3e526d52	0.20549515
116	0x3e8b3f05	0.27196518
117	0x3dcebd54	0.10094705
118	0x3db8d740	0.09025431
119	0xbf022bf7	-0.50848335
120	0xbd063113	-0.032761645
121	0xbe1af162	-0.15131143
122	0xbe9fa060	-0.31177044
123	0xbd7193d5	-0.058978874
124	0xbe4dba1c	-0.20090526
125	0xbda8b145	-0.082369365
126	0x3d6d766d	0.057974268
127	0xbc622a37	-0.01380401
128	0xbcf28e6a	-0.029608924
129	0xbded1d3c	-0.11577842
130	0x3e2e17ce	0.17001268
131	0xbe6b1722	-0.22958043
132	0x3e689043	0.22711281
133	0xbda4ff4b	-0.08056506
134	0xbd774ea7	-0.060377743
135	0xbd3a2f40	-0.045455217
136	0xbd90efa2	-0.07076956
137	0xbe8d1b58	-0.27559924
138	0x3d430c18	0.047618955
139	0xbde3ae08	-0.11117178
140	0x3e838dfa	0.25694257
141	0xbcd5e189	-0.02610852
142	0x3e22a163	0.15881877
143	0x3998f300	0.00029172748
144	0xbdc64109	-0.09680373
145	0x3de95aab	0.11394247
146	0x3e21afef	0.1578977
147	0xbd483b09	-0.048884425
148	0xbe147fa6	-0.14501819
149	0x3d93140a	0.071815565
150	0x3dfbfc7b	0.12304016
151	0x3d5091da	0.050920345
152	0xbbb7fc72	-0.0056148106
153	0xbe23e753	-0.16006212
154	0x3ed9c4f6	0.42533082
155	0x3e3957ea	0.18099943
156	0x3d0da9b2	0.034585662
157	0xbdfb600c	-0.12274179
158	0xbe001607	-0.12508403
159	0x3d92f1e1	0.07175041
160	0x3da386df	0.07984709
161	0xbda8867f	-0.08228778
162	0xbdaabf4b	-0.083372675
163	0x3ca0122d	0.019539917
164	0xbe0b576f	-0.13607572
165	0xbdf9ba39	-0.12193722
166	0xbd3f0f00	-0.046645164
167	0xbe6dad5a	-0.2321066
168	0xbbcb88ea	-0.00621139
169	0xbd106eba	-0.035261847
170	0x3cfe5ea3	0.031050986
171	0x3e871211	0.2638097
172	0xbc76dc98	-0.015067242
173	0x3e275d59	0.16344203
174	0x3dfa3d1d	0.12218688
175	0x3d851d85	0.06499771
176	0x3e369406	0.17829904
177	0xbdbd5491	-0.092446454
178	0xbe4aeac1	-0.19816114
179	0x3e47234b	0.19447057
180	0xbda9f13b	-0.08297964
181	0xbd251ee5	-0.040312666
182	0xbdc06362	-0.09393956
183	0xbf10b947	-0.5653271
184	0xbd1c696f	-0.038186487
185	0x3d8cee63	0.06881406
186	0x3e2c84f7	0.16847597
187	0xbe165ef2	-0.14684656
188	0x3e54696a	0.20743337
189	0xbce85f6e	-0.028365817
190	0x3de7511a	0.11294766
191	0xbdc3670e	-0.095411405
192	0xbe989345	-0.29799858
193	0x3d524ebf	0.05134463
194	0x3e8751ba	0.2642954
195	0xbdcffb71	-0.101553805
196	0xbe507596	-0.20357355
197	0xbc7a0161	-0.015259118
198	0x3e5bd61e	0.21468398
199	0x3d34acc4	0.044110075
200	0x3e649714	0.22323257
201	0xbbba5d28	-0.0056873746
202	0xbeaab250	-0.33339167
203	0x3e5c599b	0.21518557
204	0xbc1dc73e	-0.009630023
205	0xbd49622d	-0.049165893
206	0xbe86dc53	-0.2633997
207	0xbe801509	-0.2501605
208	0xbe00f712	-0.1259425
209	0xbe3a8cff	-0.18217848
210	0x3c84af41	0.016196849
211	0x3cb8b799	0.022548484
212	0x3d7a58bc	0.06111978
213	0x3d81de26	0.063411996
214	0xbeecc758	-0.46245837
215	0xbd87df55	-0.06634394
216	0xbd6cfb2d	-0.057856727
217	0x3f4b6180	0.7944565
218	0xbddd19ac	-0.10795912
219	0x3e12ccd2	0.14335945
220	0xbe864044	-0.26220906
221	0x3e04788d	0.12936611
222	0x3d4f47f0	0.050605714
223	0x3e23e3cd	0.16004868
224	0x3de33950	0.11094916
225	0x3ef23606	0.47306842
226	0xbd860309	-0.06543548
227	0x3cab32a2	0.020898167
228	0xbe3c4301	-0.18384935
229	0xbdddd2b0	-0.10831201
230	0x3e3c77e9	0.18405117
231	0x3e55ef3a	0.20892039
232	0x3e3c86cf	0.184108
233	0x3e0a0d1e	0.13481566
234	0x3e044d1e	0.12920043
235	0xbec4bcf3	-0.38425407
236	0xbd36c3f2	-0.04462046
237	0x3df0bc39	0.117546506
238	0x3e7edcb0	0.24888873
239	0x3f203382	0.62578595
240	0xbd0114ff	-0.031514164
241	0xbe1378ab	-0.144015
242	0xbc316fa0	-0.010829836
243	0x3d983209	0.074314184
244	0xbdb4ae29	-0.08822281
245	0xbe362d7b	-0.17790787
246	0x3c065199	0.008198165
247	0x3d457bf7	0.048213925
248	0x3c8dff76	0.017333727
249	0xbc9b7547	-0.01897682
250	0x3e927b79	0.28609827
251	0xbd8f184f	-0.06987058
252	0xbdb042da	-0.08606501
253	0x3e52bfdf	0.20581006
254	0x3ca42085	0.020035038
255	0xbe218a66	-0.15775451

stu.hidden.0.mlp.swiglu.w2.weight f4 [8, 32]
0	0x3f7693e5	0.9631942
1	0x3ea12572	0.3147388
2	0xbe502fe5	-0.2033077
3	0x3e66165a	0.22469464
4	0xbe75e8eb	-0.24014632
5	0xbe3e52a0	-0.18586206
6	0xbbf47b82	-0.0074610123
7	0x3a4fa9b0	0.0007921709
8	0xbea6900e	-0.3253178
9	0xbdf3f446	-0.11911826
10	0x3d932681	0.071850784
11	0xbe44105e	-0.19146869
12	0x3e0d7dd1	0.13817526
13	0x3e7e2708	0.24819577
14	0x3e01bc49	0.12669481
15	0x3e05d41b	0.13069193
16	0x3e3d17b4	0.18466073
17	0xbe16dee2	-0.1473346
18	0xbd2dd66b	-0.042440813
19	0xbd428f99	-0.047500227
20	0xbdc7727e	-0.097386345
21	0x3e2fc3f9	0.17164601
22	0xbe4598a0	-0.19296503
23	0x3cc500c3	0.024048215
24	0x3e678a9c	0.22611469
25	0xbe31639a	-0.17323151
26	0x3e3bf506	0.18355188
27	0x3e40ce33	0.18828659
28	0x3e9d7bb7	0.3075845
29	0x3f09220c	0.53567576
30	0xbcdf1dfb	-0.027235975
31	0x3e503c00	0.20335388
32	0x3d186b7e	0.037211888
33	0x3ec230cf	0.37927863
34	0x3e513ba2	0.20432904
35	0x3ea28996	0.31745595
36	0xbec83db3	-0.39109573
37	0x3e3cffd9	0.18456973
38	0x3df57d34	0.11986771
39	0xbdabc117	-0.08386438
40	0x3ec54c38	0.38534713
41	0x3befe1bb	0.0073206103
42	0xbe82bd86	-0.2553522
43	0x3e6b25d4	0.22963649
44	0x3e2eb79d	0.1706223
45	0xbdb2a618	-0.08723086
46	0x3e5b4acc	0.21415251
47	0x3e7edb87	0.2488843
48	0x3d99ec6e	0.075157985
49	0xbe421800	-0.18954468
50	0xbe40c7cd	-0.18826218
51	0x3e931c61	0.2873259
52	0x3e5ab572	0.21358278
53	0xbc89e451	-0.016832503
54	0x3ef3fc55	0.47653452
55	0x3dc5e4ca	0.09662779
56	0xbeb3d42d	-0.35122815
57	0x3e70f051	0.23529173
58	0xbe60f4b8	-0.21968353
59	0xbe2f88c8	-0.17142022
60	0xbe3e40e9	-0.18579449
61	0x3ef4b1ac	0.47791803
62	0xbe3cf44f	-0.18452571
63	0xbdc4bd3e	-0.096064076
64	0x3c75c952	0.015001612
65	0x3ebcfbcc	0.36910856
66	0x3efd5235	0.4947678
67	0xbe21a347	-0.15784942
68	0xbf0090b4	-0.502208
69	0x3df92dc0	0.12166929
70	0x3ddf244a	0.108955935
71	0x3db26b43	0.08711865
72	0xbd8ea50a	-0.069650725
73	0x3f4b6b80	0.79460907
74	0xbe1e53ad	-0.15461607
75	0x3e7a044e	0.24415705
76	0xbe0067e7	-0.12539636
77	0xbdc44a95	-0.09584538
78	0x3d93332a	0.07187493
79	0xbdd4d3ae	-0.10391937
80	0xba225a1e	-0.0006193238
81	0xbe114ee0	-0.14190245
82	0xbaff42b0	-0.001947483
83	0x3e214047	0.15747176
84	0xbd92ad24	-0.0716193
85	0xbd311012	-0.043228216
86	0x3e12ff3b	0.14355175
87	0xbdc3819a	-0.09546204
88	0xbd5f7aee	-0.054560594
89	0x3d78909c	0.060684785
90	0x3d795a8d	0.06087737
91	0x3e576a35	0.21036609
92	0xbde28f96	-0.11062543
93	0xbe28dad0	-0.1648972
94	0x3d0d08b7	0.03443214
95	0xbdb3cc0a	-0.08779152
96	0xbdd4e64b	-0.103954874
97	0xbdc37d17	-0.09545343
98	0x3e4e8ac0	0.20170116
99	0x3d3caa5a	0.046060897
100	0xbd9ef8dd	-0.07762311
101	0xbdaf71fc	-0.08566663
102	0x3e089a8c	0.13340205
103	0xbdc4df37	-0.09612887
104	0xbe519a40	-0.20468998
105	0x3e24238f	0.1602919
106	0xbd19ef96	-0.037582003
107	0xbc94184d	-0.018077994
108	0xbd956a83	-0.07295706
109	0xbe42499a	-0.1897339
110	0xbe988a2f	-0.29792926
111	0x3d72fd70	0.059323728
112	0xbe2d189d	-0.1690392
113	0x3c9fc92a	0.019505102
114	0xbe122fc6	-0.14276037
115	0x3e531891	0.2061484
116	0x3d8d83e5	0.069099225
117	0x3d5ebfdd	0.054382194
118	0x3e093659	0.13399638
119	0x3daf4e17	0.08559816
120	0xbd1c5c28	-0.038173825
121	0xbdcbc44f	-0.09949552
122	0xbebcfe47	-0.36912748
123	0xbe6be188	-0.23035252
124	0xbeadd0df	-0.33948418
125	0xbd525f52	-0.051360436
126	0xbe0101a4	-0.12598282
127	0xbc869fad	-0.016433561
128	0xbe72d902	-0.23715594
129	0x3e2209a1	0.15823986
130	0x3d701f42	0.05862356
131	0xbcf0b9ab	-0.029385408
132	0x3edb3bb0	0.42818975
133	0xbc7bf79a	-0.015378857
134	0xbad01d39	-0.001587785
135	0x3e8bccd6	0.27304715
136	0x3e095259	0.1341032
137	0xbdedf20a	-0.11618431
138	0xbe6061f6	-0.21912369
139	0xbc8baf2a	-0.017051298
140	0x3e47f267	0.19526063
141	0x3dc50b8a	0.096213415
142	0xbe871542	-0.26383406
143	0x3ed9395d	0.42426577
144	0x3da4877d	0.08033655
145	0xbde80a9e	-0.1133015
146	0xbd1c7dcd	-0.03820591
147	0xbea202f9	-0.31642893
148	0x3e00649d	0.12538381
149	0x3ea4ee47	0.3221304
150	0x3e00da87	0.12583362
151	0xbe250111	-0.16113688
152	0xbd5a41e3	-0.05328549
153	0x3d43daff	0.047816273
154	0xbd182d8c	-0.037152812
155	0xbe14a5b2	-0.14516333
156	0xbda50b3d	-0.08058784
157	0xbcf70197	-0.030152125
158	0x3dc7eca4	0.097619325
159	0x3d806382	0.062689796
160	0x3e5f211f	0.21789978
161	0xbea71eb0	-0.326406
162	0xbef55b09	-0.47921017
163	0x3d735edf	0.059416648
164	0x3eb05151	0.3443704
165	0x3e438ac0	0.19095898
166	0x3da3df8a	0.08001621
167	0x3d8433d6	0.064551994
168	0x3e61473e	0.21999833
169	0xbe1810ff	-0.14850233
170	0x3d57f40c	0.052722976
171	0xbe184fc2	-0.14874175
172	0xbe1cc7d9	-0.15310611
173	0xbe5525ba	-0.20815173
174	0xbe300835	-0.1719063
175	0x3dcbf60f	0.09959041
176	0xbca752ea	-0.020425279
177	0x3baaa344	0.005207451
178	0x3c808ae6	0.015691232
179	0x3e02d8ff	0.1277809
180	0x3ca2b76e	0.019862857
181	0xbd5d6707	-0.054053333
182	0x3e787968	0.24265063
183	0xbccc67c0	-0.024951816
184	0x3cf08524	0.029360361
185	0x3df44cea	0.11928733
186	0x3e9fd0a4	0.31213868
187	0x3d4c8c84	0.049938694
188	0xbd0da836	-0.034584247
189	0x3d5fdcbd	0.05465387
190	0x3d115c59	0.03548846
191	0x3c003556	0.007825216
192	0x3c417a96	0.011809012
193	0xbd2094f0	-0.039204538
194	0xbf014abd	-0.50504667
195	0xbe22b84c	-0.15890616
196	0x3edd43fa	0.43215925
197	0x3ecd5a3d	0.4010791
198	0x3e433db4	0.19066507
199	0x3c9797d3	0.018505013
200	0x3f026064	0.5092833
201	0xbea4c585	-0.32181945
202	0xbf0af72f	-0.5428342
203	0xbe946915	-0.2898642
204	0x3dd437d4	0.10362211
205	0xbe08ac0e	-0.13346884
206	0xbe03a410	-0.12855554
207	0xbeb5e733	-0.35527954
208	0x3e7b174b	0.24520604
209	0x3e02b49b	0.12764208
210	0xbe105837	-0.14096151
211	0xbdf1d968	-0.11809045
212	0xbbf988ce	-0.0076151853
213	0xbd97741a	-0.073951915
214	0xbda81b98	-0.08208388
215	0xbdd473d7	-0.10373657
216	0xbe9da605	-0.30790725
217	0x3d097a8d	0.03356414
218	0xbe61d662	-0.22054437
219	0x3dfcd335	0.12344972
220	0xbea045c8	-0.3130324
221	0x3e0eaf36	0.13934025
222	0x3e6bbc6e	0.23021099
223	0xbd37d865	-0.044884104
224	0x3eefd1f9	0.46839884
225	0x3eef61a7	0.4675419
226	0x3d953c7d	0.07286928
227	0xbd11f50c	-0.035634086
228	0xbe8af1c0	-0.27137566
229	0x3ece4afb	0.4029158
230	0x3d7b4768	0.061347395
231	0x3e487bca	0.19578472
232	0x3eed6bbb	0.46371254
233	0x3e6a866a	0.22902837
234	0xbe9efbb8	-0.3105142
235	0xbd752741	-0.05985189
236	0xbbf32882	-0.0074206004
237	0x3de0a1e6	0.1096838
238	0x3ec87162	0.39149004
239	0xbb4b2924	-0.0030999864
240	0x3c88704c	0.01665511
241	0xbde049b5	-0.109515585
242	0x3d96ed6c	0.073695034
243	0x3d99cfee	0.075103626
244	0x3deefdc7	0.11669498
245	0x3cd90115	0.026489774
246	0x3ee35933	0.4440399
247	0xbdba1405	-0.0908585
248	0xbe093ea8	-0.13402808
249	0x3e579c78	0.21055782
250	0x3d112145	0.03543212
251	0x3ec580ed	0.38574925
252	0x3dd798c7	0.10527187
253	0x3e8e3857	0.2777736
254	0xbd0b68a9	-0.03403536
255	0xbd9d7c62	-0.0768974

stu.hidden.1.rn_1.weight f4 [8]
0	0x3f324ad2	0.69645417
1	0x3f6d95b4	0.92806554
2	0x3f1f1216	0.6213697
3	0x3efa4294	0.4887892
4	0x3f19142c	0.59796405
5	0x3f3c6f72	0.7360755
6	0x3f5ef44a	0.87091506
7	0x3f768ff6	0.96313417

stu.hidden.1.stu.M_u f4 [8, 3, 8]
0	0xbe942d5d	-0.2894086
1	0x3d2ee078	0.04269454
2	0x3e98d04d	0.2984642
3	0x3dd21555	0.10257975
4	0xbd0ede5b	-0.034880023
5	0x3e3ac75d	0.18240114
6	0x3d1d7e15	0.03845032
7	0xbd43530e	-0.04768663
8	0xbe9e8781	-0.30962756
9	0x3e4f6bce	0.20255968
10	0x3e5a8eb5	0.21343501
11	0xbcaa943b	-0.020822635
12	0xbe1d638e	-0.15370008
13	0x3dfcd103	0.12344553
14	0xbcca2fd5	-0.024681011
15	0xbdf0fc19	-0.11766834
16	0xbed629a1	-0.41828635
17	0x3dfa34d2	0.12217106
18	0xbe5454cb	-0.20735471
19	0x3de37b62	0.11107518
20	0x3d842bec	0.0645369
21	0xbe2f8bae	-0.17143127
22	0x3e1ca6a1	0.15297939
23	0x3cc30789	0.023807304
24	0xbc22701b	-0.009914423
25	0xbf244b19	-0.6417709
26	0x3c43502d	0.011920971
27	0x3da80773	0.08204546
28	0xbd81bbea	-0.0633467
29	0x3d1522f9	0.036410306
30	0x3e0a4149	0.13501467
31	0xbd9dd4dd	-0.07706616
32	0x3dc44153	0.09582772
33	0xbe0c4c2e	-0.13700935
34	0x3e00f3ac	0.12592953
35	0xbdaafcbe	-0.08348988
36	0x3c331702	0.010930778
37	0x3e8cccd5	0.27500024
38	0xbc5a8790	-0.013337985
39	0xbe04872e	-0.12942192
40	0x3e09c4f3	0.13454036
41	0xbe478af2	-0.19486597
42	0x3e1cf07b	0.15326111
43	0xbd3fad31	-0.046796028
44	0xbd951711	-0.0727979
45	0xbc3df814	-0.011594791
46	0x3e0be98b	0.13663308
47	0x3d8428ee	0.06453119
48	0xbdb8cd8e	-0.090235814
49	0xbbe626f4	-0.0070236865
50	0xbea55449	-0.32290867
51	0xbe4b45c9	-0.1985084
52	0xbe1d6685	-0.1537114
53	0x3e5c80f9	0.21533574
54	0xbd0f68c7	-0.035012033
55	0xbd60566c	-0.05476992
56	0xbcb0227f	-0.021500824
57	0x3dd70973	0.10499849
58	0xbe504e30	-0.20342326
59	0xbcecd0a8	-0.028908089
60	0x3d58d197	0.052934255
61	0xbdf4d37c	-0.119544
62	0x3dd8668a	0.10566433
63	0xbdbb7fda	-0.09155245
64	0x3e2ac5db	0.16677038
65	0x3e90aecd	0.28258362
66	0xbe24dbcb	-0.1609947
67	0xbd2b6e78	-0.041853398
68	0xbddd6015	-0.10809342
69	0xbdbca2f6	-0.0921077
70	0xbe1e0d52	-0.15434769
71	0xbe6dff44	-0.23241907
72	0x3d880f1c	0.06643507
73	0xbd6431c3	-0.05571152
74	0x3da9fe92	0.083005086
75	0xbb78d83a	-0.0037970678
76	0x3dc97adf	0.09837889
77	0xbd748888	-0.05970052
78	0xbda7556d	-0.081705905
79	0x3ebc8240	0.36818123
80	0x3e924498	0.28567958
81	0xbe3be398	-0.18348539
82	0x3e833361	0.25625136
83	0x3e205ff8	0.15661609
84	0x3cb82598	0.022478864
85	0xbd5e1f54	-0.054229096
86	0xbe32cb1b	-0.17460291
87	0x3d21c7be	0.03949713
88	0x3e564e9f	0.20928429
89	0xbe764148	-0.2404834
90	0x3eac6c5e	0.33676428
91	0xbd2b3893	-0.041802
92	0xbe1feb68	-0.15617144
93	0x3e193084	0.14959913
94	0x3d625c03	0.05526353
95	0x3ebcacb1	0.36850503
96	0xbe8bc297	-0.27296898
97	0xbdd80cb0	-0.10549295
98	0x3ba86389	0.0051388186
99	0xbe18a70d	-0.14907475
100	0xbea146af	-0.3149924
101	0x3e6bee41	0.23040105
102	0xbdbd0714	-0.09229866
103	0xbe692128	-0.22766554
104	0xbe75fc30	-0.24021983
105	0x3e5c3c3e	0.21507356
106	0xbe0d5b04	-0.13804251
107	0xbb6d2d2f	-0.0036190262
108	0xbd43ceaa	-0.047804512
109	0xbd679a2f	-0.056543525
110	0xbc1104de	-0.008851258
111	0x3dc14c7e	0.09438418
112	0xbe3def88	-0.18548405
113	0x3eb7446b	0.35794386
114	0x3d328940	0.043587923
115	0x3e70d36d	0.23518153
116	0xbe71c172	-0.2360895
117	0x3e0d9e11	0.13829829
118	0xbd23767e	-0.039907925
119	0xbddeadeb	-0.10873016
120	0xbd348a6a	-0.044077314
121	0x3bf4f53e	0.007475524
122	0xbe700e10	-0.23442864
123	0x3ea5b178	0.3236196
124	0x3e55f294	0.20893317
125	0xbebb93e6	-0.36636275
126	0x3dc5517c	0.096346825
127	0xbd17202e	-0.036895923
128	0xbe15f1f6	-0.14643082
129	0x3cadb651	0.0212051
130	0x3eb84201	0.35987857
131	0xbd1c1cf8	-0.038113564
132	0x3dacca22	0.08436991
133	0xbeb9eb8a	-0.36312515
134	0xbd84a0a1	-0.0647595
135	0xbb712ee3	-0.0036801628
136	0x3e345936	0.17612156
137	0x3de23b74	0.11046496
138	0x3e4a82b8	0.19776428
139	0x3e480209	0.19532026
140	0x3d814134	0.06311265
141	0xbe0bbb01	-0.13645555
142	0x3e13daeb	0.1443898
143	0xbc660a46	-0.014040535
144	0x3df4820d	0.11938868
145	0xbe77693b	-0.24161236
146	0x3e537034	0.20648271
147	0x3e413a6b	0.18869941
148	0xbd16209d	-0.036652196
149	0x3ca32fc2	0.019920234
150	0xbeea263b	-0.45732293
151	0x3e900bf0	0.28134108
152	0x3e0ae672	0.1356447
153	0x3e6516ff	0.22372054
154	0x3c4747cd	0.012163115
155	0xbe1289fd	-0.14310451
156	0x3e8c18c3	0.27362642
157	0xbd6df812	-0.058097906
158	0xbdf8f2bb	-0.12155672
159	0x3d9523fc	0.07282254
160	0xbc79ee85	-0.015254621
161	0xbdba96de	-0.09110807
162	0xbe06d948	-0.13168824
163	0xbc871886	-0.016491186
164	0xbd79f028	-0.061020046
165	0xbdabdd6e	-0.08391844
166	0xbdcc5670	-0.09977424
167	0x3a01eb10	0.00049559865
168	0x3e9c1e2e	0.30491775
169	0xbe106fdf	-0.14105175
170	0x3da80a7b	0.08205124
171	0x3d60bfb3	0.05487032
172	0xbd83158c	-0.06400594
173	0x3e3271b3	0.17426185
174	0x3c21a9cb	0.009867142
175	0xbf16863a	-0.58798563
176	0xbd1ac1cc	-0.037782475
177	0x3e36771e	0.17818877
178	0x3e12b719	0.14327659
179	0x3d5867c8	0.05283335
180	0x3d69d658	0.05708918
181	0x3e75ab5c	0.2399115
182	0x3c4f36bf	0.01264733
183	0xbebe5b31	-0.3717895
184	0x3d3c717f	0.046006676
185	0x3e234601	0.15944673
186	0x3e333e63	0.17504267
187	0xbed0914b	-0.4073585
188	0x3c0f9010	0.0087623745
189	0x3e1bef80	0.15228081
190	0xbe05fc05	-0.13084419
191	0xbe8f07de	-0.2793569
