checkpoints/sssm-HalfCheetah-v1-model_step-1078-2024-11-19-13-01-52.pt (torch, 239784 bytes, 26 tensors)

spectral_ssm.hidden.0.rn_1.weight f4 [32]
0	0x3f8178d5	1.0115
1	0x3f670b53	0.90251654
2	0x3f8196e3	1.0124172
3	0x3f80d7da	1.0065873
4	0x3f7ff3be	0.99981296
5	0x3f7e6b85	0.9938281
6	0x3f69c01b	0.91308755
7	0x3f6ef58c	0.93343425
8	0x3f7bdb8b	0.9838187
9	0x3f707dfa	0.93942225
10	0x3f644e6f	0.8918218
11	0x3f7243ec	0.9463489
12	0x3f6a01c9	0.91408974
13	0x3f71064c	0.94150233
14	0x3f6a58fc	0.9154203
15	0x3f77051f	0.9649219
16	0x3f6eded3	0.9330875
17	0x3f820eeb	1.0160803
18	0x3f7362a0	0.95072365
19	0x3f83a67e	1.0285184
20	0x3f67233b	0.9028813
21	0x3f801a84	1.0008092
22	0x3f7bd0a8	0.9836526
23	0x3f6e6596	0.9312376
24	0x3f65b5fa	0.897308
25	0x3f7a46ee	0.9776448
26	0x3f8264dd	1.0187031
27	0x3f720a9a	0.94547427
28	0x3f6fe89a	0.93714297
29	0x3f6eccca	0.93281233
30	0x3f795730	0.9739866
31	0x3f868578	1.0509481

spectral_ssm.hidden.0.rn_2.weight f4 [32]
0	0x3f769f5b	0.9633691
1	0x3f7fb6d8	0.9988837
2	0x3f7e3c2c	0.99310565
3	0x3f6de1a4	0.92922425
4	0x3f77696d	0.9664524
5	0x3f7f69e7	0.9977097
6	0x3f86cd65	1.0531431
7	0x3f7c8c77	0.9865183
8	0x3f7c8266	0.9863647
9	0x3f807668	1.0036135
10	0x3f8001f9	1.0000602
11	0x3f8387a3	1.0275768
12	0x3f859ae7	1.0437897
13	0x3f82b72c	1.021215
14	0x3f88d4ed	1.068998
15	0x3f7d83ce	0.99029243
16	0x3f753e49	0.95798165
17	0x3f7923e0	0.97320366
18	0x3f84b8fa	1.036895
19	0x3f782fc4	0.96947885
20	0x3f7282f8	0.9473109
21	0x3f7190b2	0.9436141
22	0x3f7fe2a7	0.9995522
23	0x3f84cbe1	1.0374719
24	0x3f80921e	1.0044591
25	0x3f7fef94	0.9997494
26	0x3f7c0bc9	0.9845548
27	0x3f81cfcd	1.0141541
28	0x3f813311	1.0093709
29	0x3f89266b	1.0714849
30	0x3f829470	1.020155
31	0x3f818029	1.0117236

spectral_ssm.hidden.0.stu.M_inputs f4 [32, 32]
0	0xbdae0360	-0.084967375
1	0xbd500aaf	-0.05079144
2	0x3e173105	0.14764793
3	0xbd923854	-0.0713965
4	0xbe180c45	-0.1484843
5	0x3b531366	0.0032207607
6	0x3d1d7543	0.038441908
7	0xbe416e46	-0.18889722
8	0x3e411a85	0.18857773
9	0xbe4d5a4d	-0.20053978
10	0x3dbb48c5	0.09144739
11	0xbe8a92fd	-0.27065268
12	0x3eb68aee	0.3565287
13	0x3d9ee777	0.07758992
14	0xbea8c25d	-0.32960787
15	0xbd576817	-0.052589502
16	0x3dd835c4	0.1055713
17	0xbe2d4fbc	-0.16924948
18	0xbd910e2b	-0.070827805
19	0xbe33c61a	-0.17556038
20	0x3e438a16	0.19095644
21	0x3ea7de42	0.32786757
22	0xbce2438e	-0.027620103
23	0x3e1bda55	0.15220006
24	0x3e3b668e	0.1830084
25	0x3dbe116c	0.09280667
26	0xbe1af689	-0.15133108
27	0xbcc795d4	-0.024363436
28	0x3d8134bc	0.063088864
29	0xbe5d5da7	-0.21617757
30	0xbea60d3b	-0.3243197
31	0xbe1093a3	-0.14118819
32	0x3d280d87	0.041028526
33	0xbd54c04f	-0.051941212
34	0x3df9eb84	0.12203124
35	0xbdaa508f	-0.083161466
36	0x3cd20f2c	0.025642
37	0xbc504e83	-0.012714031
38	0x3ddae145	0.10687498
39	0xbe5d320e	-0.21601126
40	0xbd42c00a	-0.047546424
41	0x3e2f2f10	0.17107797
42	0xbe88736f	-0.2665057
43	0xbe3bfd10	-0.18358254
44	0x3e0ab865	0.13546903
45	0xbc19021d	-0.009338883
46	0xbdd0db3f	-0.10198068
47	0xbddb50f2	-0.107087985
48	0x3def7ba8	0.116935074
49	0xbcf0b0fc	-0.029381268
50	0xbe0af4c3	-0.13569932
51	0x3d9c7ddc	0.07641193
52	0xbcfc234f	-0.030778555
53	0xbdb4932f	-0.088171355
54	0x3df8af3c	0.12142798
55	0xbc8c5496	-0.017130177
56	0xbd9006c4	-0.070325404
57	0x3b367c9d	0.0027845271
58	0xbe3d974f	-0.18514751
59	0xbce1eb1d	-0.027577931
60	0xbe05dada	-0.13071766
61	0x3d98caad	0.07460532
62	0xbd27a598	-0.040929407
63	0x3cc86f49	0.024467127
64	0x3d24bb8a	0.040217914
65	0xbe230aa4	-0.15922028
66	0xbe305102	-0.17218402
67	0xbdc4f21e	-0.09616493
68	0x3d83e796	0.06440656
69	0x3da4ca65	0.08046416
70	0x3e2ad7a4	0.16683823
71	0xbd872e4f	-0.066006295
72	0xbe32e9e4	-0.17472035
73	0x3b312d67	0.0027035119
74	0xbe25f6f3	-0.16207485
75	0xbd5f9b00	-0.05459118
76	0x3d8d07cf	0.06886255
77	0xbe9e27d0	-0.3088975
78	0xbcf2fd83	-0.0296619
79	0xbd22e5ce	-0.03976994
80	0xbdd45208	-0.10367209
81	0xbcde8396	-0.027162354
82	0x3bb1e4a3	0.005428867
83	0x3e54945d	0.20759721
84	0x3d275c81	0.040859703
85	0x3e13deac	0.14440411
86	0x3d5fe3e9	0.05466071
87	0x3cd2e6a1	0.025744738
88	0xbd9bfa57	-0.07616108
89	0x3da404e3	0.080087446
90	0xbeb45558	-0.35221362
91	0x3e299606	0.16561136
92	0xbdc6b264	-0.09701994
93	0x3ce76a86	0.028249037
94	0x3dc0ad01	0.09407998
95	0x3dfe7246	0.1242414
96	0x3e13f8c9	0.14450373
97	0x3c866b09	0.01640846
98	0xbe323d50	-0.17406201
99	0xbedae12a	-0.42749912
100	0xbe9f6f28	-0.31139493
101	0x3cc40c03	0.023931509
102	0x3c136528	0.0089962855
103	0xbd5a3f84	-0.05328323
104	0x3ec582da	0.38576394
105	0xbe35fda1	-0.17772533
106	0xbe32c58d	-0.17458172
107	0x3e3e2797	0.1856979
108	0xbd07249f	-0.03299391
109	0x3e76fcd3	0.24119882
110	0xbc5779e8	-0.013151623
111	0x3debf59d	0.115214564
112	0x3e29782d	0.1654975
113	0xbcc12480	-0.023576975
114	0x3e8d08d8	0.2754581
115	0xbea30591	-0.31840184
116	0x3ca90af6	0.02063511
117	0xbb4bf6fd	-0.0031122558
118	0xbe70b98c	-0.2350828
119	0xbcb4ed98	-0.02208595
120	0xbd0d87c7	-0.034553315
121	0x3dbeb704	0.09312251
122	0xbde5d9d3	-0.11223187
123	0xbce8b4b7	-0.028406484
124	0xbe258fc5	-0.16168125
125	0xbe2e482d	-0.1701972
126	0xbcf0458f	-0.029330043
127	0x3d5734de	0.052540652
128	0x3de2cbb8	0.110740125
129	0xbe8479b9	-0.25874117
130	0xbe91aed9	-0.2845371
131	0xbe4a1533	-0.1973465
132	0x3e89a69a	0.2688492
133	0x3e03d545	0.12874325
134	0x3e3189ca	0.17337719
135	0xbd5a3323	-0.053271424
136	0x3e760e59	0.2402891
137	0xbd9330a9	-0.071870156
138	0x3e274e65	0.16338499
139	0x3cc971f2	0.024590466
140	0x3e2b907d	0.16754337
141	0xbcc19e2e	-0.023634996
142	0xbdf0dfb6	-0.117614195
143	0x3e01692d	0.12637778
144	0x3ce8820f	0.02838233
145	0x3c1b21a1	0.009468467
146	0xbe357f99	-0.17724456
147	0xbdbb1d19	-0.09136409
148	0xbe3d8b7b	-0.18510239
149	0xbdbeb2e1	-0.09311462
150	0x3eb07655	0.3446528
151	0x3cf38239	0.029725181
152	0xbe25a789	-0.16177191
153	0x3e5255e1	0.20540573
154	0xbddca91b	-0.10774442
155	0xbdd78189	-0.10522754
156	0xbc8ca9c1	-0.017170789
157	0xbbf6ec75	-0.007535512
158	0xbdc44fbf	-0.09585523
159	0xbe346896	-0.17618021
160	0x3dc7af18	0.09750193
161	0xbe3ad33c	-0.18244642
162	0x3e15e766	0.14639053
163	0xbd97df07	-0.07415586
164	0x3d482a95	0.048868734
165	0xbe735b53	-0.23765306
166	0xbda3d108	-0.07998854
167	0xbdabe769	-0.08393747
168	0xbe728ab3	-0.23685722
169	0x3c962e4c	0.018332623
170	0x3df44bf1	0.11928547
171	0xbcbe29ca	-0.023213286
172	0xbd8a3bef	-0.06749713
173	0xbd8d7e80	-0.069088936
174	0x3e30c07d	0.17260928
175	0xbdc2a4e2	-0.09504105
176	0xbdc0c0ac	-0.09411749
177	0x3e9ce08f	0.30640075
178	0x3e2c3c72	0.16819933
179	0x3dbb7ba5	0.09154443
180	0xbcd705fe	-0.026247974
181	0xbd9bf746	-0.07615523
182	0x3d6e01d9	0.05810723
183	0x3d94ac7c	0.07259461
184	0xbb2a895d	-0.0026021816
185	0xbe2efe69	-0.17089237
186	0x3adcf853	0.0016858674
187	0xbe2621a4	-0.1622377
188	0x3d445d82	0.04794074
189	0xbb552efb	-0.0032529223
190	0x3ccd3de3	0.025053924
191	0x3e9ead99	0.3099182
192	0x3d1c6a7b	0.038187485
193	0xbc81c0b4	-0.015838958
194	0x3e50e091	0.20398165
195	0xbc79052a	-0.015198985
196	0xbdfd6e5c	-0.12374565
197	0x3e0f7450	0.14009213
198	0xbd9878ec	-0.07444939
199	0x3e72587f	0.23666571
200	0x3ea87aa3	0.32906064
201	0xbdf7d841	-0.12101794
202	0xbe26d264	-0.16291195
203	0x3ec95bd7	0.3932788
204	0x3dda2bff	0.10652923
205	0xbd84cee9	-0.064847775
206	0x3c179643	0.009252134
207	0x3c419552	0.011815386
208	0xbe5c007c	-0.2148456
209	0xbec0a4c4	-0.37625706
210	0xbc15fffc	-0.00915527
211	0x3e3e35cb	0.18575208
212	0x3e20192e	0.15634605
213	0xbd830113	-0.06396689
214	0xbda22069	-0.07916338
215	0xbd14b9e1	-0.03631008
216	0xbe0389a5	-0.12845476
217	0x3e42db8e	0.19029066
218	0x3deefb5d	0.116690375
219	0xbd9accc8	-0.0755859
220	0xbd0f5835	-0.03499623
221	0x3cf48a5d	0.029851133
222	0xbd839da0	-0.06426549
223	0xbe119d38	-0.1422013
224	0x3b99f19f	0.004697993
225	0x3e259b19	0.16172446
226	0x3decf87b	0.115708314
227	0x3ea1de90	0.31615114
228	0xbe2b9502	-0.1675606
229	0xbe03acb6	-0.12858853
230	0xbe4861e3	-0.19568591
231	0x3e00c5ed	0.12575503
232	0xbd7c4b1d	-0.06159507
233	0x3b4e85c9	0.0031512848
234	0x3dca193f	0.098680966
235	0x3ea3f6cf	0.32024238
236	0xbdf2a6a8	-0.118481934
237	0x3e359bf1	0.17735268
238	0x3d706623	0.058691155
239	0xbd7745b3	-0.060369205
240	0x3be91ad3	0.0071137934
241	0xbdbeebf5	-0.09322349
242	0xbd19baf2	-0.0375318
243	0x3bfccb9e	0.0077147027
244	0xbd9cf511	-0.0766393
245	0xbc36660f	-0.011132731
246	0xbd0c2d62	-0.034222968
247	0x3d6c2d22	0.05766023
248	0x3e67567e	0.22591588
249	0xbd56fc4c	-0.052486703
250	0x3d9d9b15	0.07695595
251	0x3e008929	0.12552322
252	0x3dc492e0	0.09598327
253	0x3e5dc233	0.21656112
254	0x3e61cea3	0.22051482
255	0x3e6a40c8	0.22876275

spectral_ssm.hidden.0.stu.M_filters f4 [16, 32]
0	0xbd82d527	-0.06388312
1	0x3dc95a59	0.098316856
2	0x3ddff60f	0.10935604
3	0xbe031487	-0.128008
4	0x3e4703e1	0.19435073
5	0xbe0c6ddf	-0.13713787
6	0x3e8f3189	0.2796748
7	0xbde5bdeb	-0.112178646
8	0x3ddc1b0d	0.10747347
9	0xbe0a57a3	-0.13509993
10	0x3da3aed5	0.07992331
11	0xbe791d4b	-0.2432758
12	0x3db9fd1d	0.09081481
13	0x3e3ea050	0.18615842
14	0x3dde0eeb	0.10842689
15	0x3c5a3fd1	0.013320879
16	0x3e817db1	0.25291207
17	0xbd5d4d81	-0.05402899
18	0x3d309712	0.043112822
19	0xbc3b553c	-0.011433896
20	0x3b010b2d	0.00196905
21	0x3e31fedd	0.17382379
22	0x3e33cf16	0.17559466
23	0xbe0a740a	-0.13520828
24	0x3e978199	0.29591063
25	0x3e6eb21d	0.23310132
26	0x3e385b48	0.18003571
27	0x3e01b339	0.12666024
28	0xbcca3f60	-0.024688423
29	0x3e97cd98	0.29649043
30	0xbe69f08e	-0.2284567
31	0xbd9e15e4	-0.07719019
32	0x3ddefa74	0.10887614
33	0x3d899038	0.06716961
34	0x3d3c14f2	0.045918413
35	0xbe0938ae	-0.13400528
36	0x3ef05d57	0.46946213
37	0xbcbb3983	-0.022854572
38	0x3e090e1a	0.13384286
39	0x3dc27a67	0.09496003
40	0x3da5d119	0.08096523
41	0x3d368f39	0.04457018
42	0x3de558e2	0.11198594
43	0x3da87a9e	0.08226512
44	0x3cc249f7	0.02371691
45	0x3e974e5d	0.29551974
46	0x3df83265	0.12118987
47	0x3d7c1c00	0.06155014
48	0x3e8bcee4	0.27306283
49	0xbdca67c1	-0.09883071
50	0xbe441af9	-0.19150914
51	0xbe03c3b4	-0.12867624
52	0x3d76e8b5	0.06028052
53	0xbeae2e39	-0.3401964
54	0x3e5363d8	0.20643556
55	0x3e096e72	0.13421038
56	0x3dded0d4	0.108796746
57	0x3e91b24e	0.28456348
58	0xbe13e294	-0.14441901
59	0xbe9767fb	-0.29571518
60	0x3de89af7	0.11357682
61	0x3d7f5fab	0.062347095
62	0x3e2a9c52	0.16661194
63	0x3d8ef2bc	0.06979892
64	0x3e12cb12	0.14335278
65	0xbbdbd8ad	-0.0067091794
66	0xbe834aef	-0.25643107
67	0x3cd206e7	0.025638057
68	0x3f0456ca	0.5169493
69	0x3e19f788	0.15035832
70	0xbe95f8a5	-0.29291263
71	0xbe1abca7	-0.15111028
72	0xbe6cfbb6	-0.23142895
73	0xbe164b52	-0.1467717
74	0x3e9e3d05	0.3090593
75	0xbe45bf8c	-0.1931135
76	0xbe2eece5	-0.17082556
77	0x3e5dcb02	0.21659473
78	0x3e65efc1	0.2245474
79	0xbc63cd43	-0.013903919
80	0xbd0c85b3	-0.034307193
81	0xbe82c2fe	-0.25539392
82	0xbdc5d9c1	-0.09660674
83	0xbe1628fb	-0.1466407
84	0x3e431ff9	0.19055165
85	0xbe090e62	-0.13384393
86	0xbe4cf449	-0.20015062
87	0x3e312522	0.17299321
88	0xbe69456b	-0.22780387
89	0x3e439b12	0.19102123
90	0x3e8198fe	0.25312036
91	0x3d571df2	0.052518792
92	0xbe545df0	-0.2073896
93	0x3d22bd09	0.03973106
94	0xbd18d188	-0.0373092
95	0x3e47b3e4	0.19502217
96	0x3e5b975f	0.21444462
97	0xbca1bda8	-0.019743755
98	0x3eab3387	0.3343775
99	0xbe304cb7	-0.17216764
100	0xbd8d437e	-0.06897639
101	0xbddd25b4	-0.10798207
102	0x3d967749	0.073469706
103	0x3cecfc28	0.028928831
104	0xbd651994	-0.055932596
105	0x3de2a722	0.11067034
106	0x3eaf4526	0.34232444
107	0xbc8039be	-0.015652534
108	0x3e810df4	0.25205958
109	0xbd7c834b	-0.06164865
110	0xbe2e15d9	-0.17000522
111	0xbe3bc329	-0.18336166
112	0x3edad661	0.42741683
113	0x3d91f6f6	0.07127182
114	0xbe00b14a	-0.1256763
115	0xbc462a70	-0.012095079
116	0xbe88c423	-0.2671214
117	0xbda94439	-0.082649656
118	0xbe0345d6	-0.12819609
119	0xbe8ffaa4	-0.2812091
120	0x3dfd0dea	0.123561695
121	0xbe78a071	-0.24279954
122	0xbebf609b	-0.37378392
123	0x3d47eda0	0.0488106
124	0x3c64bb1f	0.013960629
125	0x3eb024c3	0.34403047
126	0xbe10662b	-0.14101474
127	0x3eae4cc3	0.3404294
128	0x3dc454da	0.09586497
129	0xbd8272a3	-0.063695215
130	0xbe29d3bb	-0.16584675
131	0x3d84685b	0.06465217
132	0x3e25c96e	0.1619012
133	0xbd485c79	-0.048916314
134	0xbdd75843	-0.105148815
135	0x3e368830	0.17825389
136	0xbd273ab0	-0.040827453
137	0x3ea01503	0.3126603
138	0x3e9384f3	0.2881237
139	0x3e4378aa	0.19088998
140	0x3d764f89	0.060134444
141	0xbe883af0	-0.26607466
142	0x3e64eb01	0.22355272
143	0xbc9de5df	-0.01927465
144	0xbe0f42de	-0.13990352
145	0xbeaf6f20	-0.3426447
146	0x3e8be645	0.2732412
147	0x3db5f895	0.08885304
148	0xbd04abd3	-0.032390427
149	0xbe5a4a2b	-0.21317355
150	0xbcdb8609	-0.026797311
151	0x3de18a69	0.11012728
152	0xbc8a2252	-0.016862068
153	0xbe19e324	-0.15028054
154	0xbeed2d98	-0.46323848
155	0x3e49be7a	0.19701567
156	0xbafa9dba	-0.0019120493
157	0x3dc3cc79	0.095604844
158	0x3de384da	0.11109324
159	0xbddf8e59	-0.109158225
160	0x3ea5bbf4	0.3236996
161	0xbd88ec00	-0.066856384
162	0x3d2b664f	0.041845616
163	0xbe607a1c	-0.21921581
164	0x3d8e4cbc	0.0694823
165	0x3b5c6b5e	0.0033633332
166	0xbdff7dfe	-0.12475203
167	0x3d048415	0.032352526
168	0xbe34fe22	-0.17675069
169	0x3c48b727	0.012250698
170	0x3e609cd5	0.21934827
171	0x3d50ed33	0.05100746
172	0x3e3f140a	0.18659988
173	0xbd33a1ed	-0.043855596
174	0xbd1a9efd	-0.03774928
175	0xbadf1588	-0.0017019967
176	0xbd8a0a28	-0.067402184
177	0xbe5841bc	-0.21118826
178	0x3eaa2a16	0.33235234
179	0x3e1ae324	0.1512571
180	0xbd3fc66e	-0.046820097
181	0xbe9c1789	-0.30486706
182	0xbcddf586	-0.027094614
183	0x3ddc6877	0.107621126
184	0x3d15946c	0.0365185
185	0x3e3ab0b9	0.18231477
186	0x3c908a12	0.017643962
187	0x3e02596a	0.12729421
188	0xbdbd0de3	-0.09231164
189	0xbb1a71e0	-0.002356641
190	0x3e08eeca	0.13372341
191	0xbe5ed87d	-0.21762271
192	0xbdfed8eb	-0.124437176
193	0x3a5a59c4	0.0008329416
194	0x3c8fb0f1	0.017540427
195	0x3edfc8e2	0.4370795
196	0xbe9d7e5b	-0.30760464
197	0x3d8f5225	0.0699809
198	0x3e2db9f1	0.16965462
199	0x3dda0eda	0.10647364
200	0x3e06c032	0.13159254
201	0x3e407fed	0.187988
202	0x3e376913	0.17911176
203	0x3e7fe18b	0.24988382
204	0xbde473e0	-0.11154914
205	0xbe4837d5	-0.19552548
206	0x3e2359b3	0.15952186
207	0xbcbdd0f2	-0.023170922
208	0xbd606b79	-0.054789994
209	0x3e5756a1	0.2102914
210	0x3e0c0682	0.13674358
211	0xbee9bbc3	-0.45651063
212	0x3e3c089a	0.18362656
213	0x3d151e2f	0.03640574
214	0xbe9bf22c	-0.304582
215	0x3e06e18d	0.13171978
216	0x3e4e6edc	0.20159477
217	0x3d0761b9	0.03305218
218	0xbe23fc02	-0.16014102
219	0x3e8307bb	0.25591835
220	0x3dd0acda	0.10189219
221	0x3e635914	0.2220195
222	0x3d597a54	0.053095177
223	0x3d924604	0.07142261
224	0x3e1e8a88	0.15482533
225	0x3e365104	0.17804343
226	0xbda3b9e2	-0.07994439
227	0x3d1ab29b	0.037767988
228	0xbe5c5d5d	-0.2151999
229	0xbe2f429c	-0.17115253
230	0x3d5c0e87	0.05372479
231	0x3eb9b43d	0.36270323
232	0x3d0500cf	0.032471474
233	0xbdb0b662	-0.08628537
234	0x3eddd98a	0.43330032
235	0xbebc82b4	-0.3681847
236	0x3e9d09cc	0.30671537
237	0x3d794cae	0.060864143
238	0xbe70d0b9	-0.23517121
239	0x3e5a0dda	0.21294346
240	0x3eea146d	0.4571871
241	0xbccbcb78	-0.024877295
242	0x3e370d73	0.17876224
243	0xbeadf44d	-0.3397545
244	0xbdb72395	-0.089423336
245	0xbbd678ef	-0.006545178
246	0xbe45e37f	-0.19325064
247	0x3ef2d40c	0.47427404
248	0x3eaf84ec	0.342811
249	0xbdb53f08	-0.08849913
250	0xbe4ba9cc	-0.19888991
251	0x3daf90af	0.08572518
252	0xbe2c47f6	-0.16824326
253	0x3c854ea5	0.016272852
254	0x3d8176c2	0.063214794
255	0xbcdb2a76	-0.026753645

spectral_ssm.hidden.0.mlp.fc_1.weight f4 [256, 32]
0	0x3ca10097	0.019653602
1	0x3dcc7c69	0.09984667
2	0xbc581f78	-0.0131910965
3	0x3bd8bd03	0.006614329
4	0xbd408840	-0.047004938
5	0x3de8106d	0.11331258
6	0xbb62be40	-0.003459826
7	0xbd7db028	-0.061935574
8	0xbd8bee69	-0.068325825
9	0xbd9f7d3c	-0.077875584
10	0xbc129af7	-0.008948079
11	0xbc075df3	-0.008262145
12	0xbcdabf8d	-0.026702667
13	0x3be0a6f5	0.0068558403
14	0x3d89aadc	0.06722042
15	0xbca01426	-0.019540858
16	0xbc135e38	-0.0089946315
17	0x3c82f73c	0.015987031
18	0x3d9419bc	0.07231471
19	0xbd3b6775	-0.04575296
20	0x3dee79a1	0.116442926
21	0x3b30cd81	0.0026977959
22	0x3a704270	0.00091651734
23	0xbd938573	-0.07203188
24	0x3dfb84ac	0.122811645
25	0xbc8b35d5	-0.016993443
26	0x3dabddbf	0.08391904
27	0xbc38b36a	-0.011273244
28	0xbd768286	-0.06018307
29	0xbd049214	-0.032365873
30	0xb9dff071	-0.00042713017
31	0xbd88185c	-0.06645271
32	0xbd253715	-0.040335733
33	0x3d5248a5	0.05133881
34	0x3d041ef0	0.032256067
35	0xbd1e3199	-0.03862152
36	0x3df51aea	0.11968024
37	0x3adb6432	0.0016738235
38	0xbd16d9a5	-0.036828656
39	0xbcd2c2c7	-0.025727643
40	0xbd233d03	-0.039853107
41	0xbdb4c3fc	-0.088264436
42	0xbdc1f259	-0.09470052
43	0x3d6ebd9f	0.058286306
44	0x3d8a30dc	0.067476004
45	0x3dd26ec4	0.10275033
46	0x3d94ac37	0.0725941
47	0xbddc0bea	-0.1074446
48	0xbd419bf2	-0.04726786
49	0xbd182201	-0.037141804
50	0xbc5a974d	-0.013341737
51	0x3d3444ad	0.044010807
52	0xbca35d69	-0.019942002
53	0x3d038b3c	0.032115206
54	0x3d020766	0.031745337
55	0xbcaeadec	-0.021323167
56	0x3d58b8b8	0.052910537
57	0xbe1bdaa7	-0.15220128
58	0xbde02fcb	-0.10946616
59	0xbbd5c9da	-0.0065243067
60	0x3da705f3	0.081554316
61	0x3d05145a	0.032490112
62	0xba24a63b	-0.0006280874
63	0xbddc0291	-0.10742677
64	0x3d11b0f1	0.035569135
65	0xbd42b1ae	-0.04753273
66	0xbd26d305	-0.040728588
67	0xbd94b8cb	-0.07261809
68	0x3d2138f8	0.03936097
69	0xbd66dd1f	-0.05636322
70	0x3ccf374d	0.025294924
71	0xbc851b77	-0.016248448
72	0xbd7f7dc4	-0.0623758
73	0xbbaa4c10	-0.0051970556
74	0xbcd689dd	-0.026188785
75	0x3d2e9ba6	0.042628907
76	0xbc601c1d	-0.013678578
77	0x3d0cb978	0.034356564
78	0xbd90db45	-0.07073072
79	0xbd6ec439	-0.0582926
80	0x3d343697	0.043997373
81	0xbb125f60	-0.002233468
82	0x3d1578ef	0.036492284
83	0xbd3878b3	-0.045036983
84	0x3d47ffe4	0.04882802
85	0xbd7819cd	-0.06057148
86	0x3d84febe	0.06493901
87	0x3d132e75	0.035932977
88	0x3b5f682a	0.0034089186
89	0x3d32e2e3	0.043673407
90	0xbc9af017	-0.018913312
91	0xbbd7477f	-0.0065698023
92	0x3da8a3fe	0.08234404
93	0xbd661a40	-0.056177378
94	0x3d12f9f9	0.035882924
95	0x3daf2449	0.08551843
96	0xbbb5291c	-0.0055285823
97	0xbce9911b	-0.028511574
98	0xbc91169e	-0.01771098
99	0x3c012a12	0.0078835655
100	0x3d2a98e4	0.041649714
101	0x3cab5883	0.02091623
102	0x3d6fcf01	0.058547024
103	0xbdc9ae29	-0.098476715
104	0xbd5f66d6	-0.05454143
105	0x3d818e06	0.06325917
106	0x3ce3a911	0.027790578
107	0xbd1cfb3d	-0.038325537
108	0xbc86477c	-0.016391508
109	0xbd4d23c7	-0.050082948
110	0xbdd3a1d8	-0.103336036
111	0xbd14db4f	-0.03634196
112	0x3c862872	0.016376708
113	0x3d27c7f2	0.040962167
114	0x3cdd9393	0.027047908
115	0x3c054df0	0.0081362575
116	0xbc90a897	-0.017658515
117	0x3d0bc1c0	0.03412032
118	0x3a866d02	0.0010255876
119	0x3da84df5	0.08217994
120	0x3cd0a47e	0.025469061
121	0xbd752693	-0.05985124
122	0xbcfa52c0	-0.030557036
123	0x3c2e2d2d	0.010630888
124	0x3d79e07b	0.061005097
125	0x3d4da814	0.05020912
126	0xbccbcd70	-0.024878234
127	0xbcf93b58	-0.030423805
128	0x3e0a1b3c	0.13486952
129	0xbc9d7114	-0.019218959
130	0x3dfa749a	0.12229271
131	0xbd6fe6b7	-0.058569636
132	0x3d392be9	0.04520789
133	0x3bf98157	0.0076142955
134	0xbb32414f	-0.0027199571
135	0xbd116593	-0.03549726
136	0x3d1dc169	0.03851453
137	0xbc446400	-0.0119867325
138	0xbdab9ab4	-0.08379117
139	0xbb89a4ef	-0.00420057
140	0x3c9d0523	0.019167488
141	0x3d1d3f91	0.0383907
142	0xbc14176e	-0.009038789
143	0xbce53ae5	-0.027982185
144	0xbdf8af1c	-0.121427745
145	0xbcf2a123	-0.029617852
146	0x3e01a99b	0.12662356
147	0x3de12398	0.10993117
148	0x3c40243e	0.011727391
149	0xbd1c2f23	-0.03813089
150	0x3b020a8f	0.001984272
151	0x3dbd9141	0.092562206
152	0xbb66f240	-0.0035239607
153	0xbc8b0f71	-0.016975136
154	0xbd237792	-0.039908953
155	0x3d0c3af9	0.03423593
156	0xbd042114	-0.03225811
157	0x3daf3fe8	0.08557111
158	0xbd5d43ca	-0.054019727
159	0x3d465412	0.04842002
160	0x3d0eeab0	0.034891784
161	0xbc6a9e50	-0.014319971
162	0x3d0b9882	0.03408099
163	0xbdf1f081	-0.118134506
164	0x3dc3dac8	0.095632136
165	0x3dc6187e	0.0967264
166	0xbc8ab46d	-0.016931737
167	0xbe321bca	-0.17393413
168	0x3d9ee8c3	0.077592395
169	0x3d9753f8	0.07389063
170	0xbd95c345	-0.07312635
171	0x3c60ebda	0.013728106
172	0xbc810d6d	-0.015753472
173	0x3cd111f1	0.02552125
174	0x3dcb2068	0.099182904
175	0xbcdc084b	-0.026859423
176	0x3d7e69ee	0.06211274
177	0x3da27189	0.07931811
178	0xbd28363f	-0.041067358
179	0xbcbb3af2	-0.022855256
180	0xbd3050a5	-0.04304566
181	0xbd90253e	-0.070383534
182	0xbd7cb472	-0.061695524
183	0x3df6b450	0.12046111
184	0x3da51629	0.08060867
185	0x3a2a7a3a	0.00065031985
186	0x3de77db3	0.11303272
187	0x3e4e8dd2	0.20171288
188	0x3d60e16b	0.054902475
189	0x3dd43736	0.10362093
190	0xbdcef3af	-0.10105073
191	0xbe2975f1	-0.16548897
192	0x3cd33329	0.025781231
193	0x3d4254d5	0.047444183
194	0xbc9cee01	-0.019156458
195	0xbdee2cf2	-0.116296664
196	0x3d6cb66d	0.057791162
197	0xbd870341	-0.065924175
198	0x3d6d1f24	0.057891026
199	0xbdb6d6c2	-0.089276806
200	0xbd98fb09	-0.07469756
201	0x3d86527f	0.06558704
202	0x3bd5916a	0.006517579
203	0x3d061da1	0.0327431
204	0x3d17f643	0.037100088
205	0xbcdc7d4b	-0.026915213
206	0xbded6ecc	-0.115933985
207	0xbb7d3245	-0.00386347
208	0xbcb86240	-0.022507787
209	0xbd6d6ded	-0.05796616
210	0xbd1036e6	-0.035208605
211	0x3d112fbb	0.03544591
212	0x3cfd5de0	0.030928552
213	0xbb47f76a	-0.003051246
214	0x3df1e26c	0.11810765
215	0x3e4032e6	0.18769416
216	0x3ddd06f4	0.10792342
217	0x3cf5cff8	0.030006394
218	0xbcacab55	-0.021077791
219	0x3d8bb8a0	0.06822324
220	0x3cbc7f34	0.023009874
221	0x3dc52ced	0.096277095
222	0xbcaf5116	-0.02140097
223	0x3d89526f	0.06705176
224	0xbcc9cef0	-0.024634808
225	0x3d5fc1c5	0.054628152
226	0xbccd6222	-0.025071207
227	0x3daa2798	0.08308333
228	0xbd8026b4	-0.06257382
229	0xbda66950	-0.081255555
230	0xbbda6cb8	-0.0066657923
231	0x3cb6b077	0.022300942
232	0x3c0e3abc	0.008680996
233	0xbd46d030	-0.048538387
234	0x3d806693	0.062695645
235	0x3d176cb9	0.03696892
236	0x3d26350b	0.04057793
237	0x3d71400c	0.05889897
238	0x3d64f857	0.055900898
239	0x3d4adb0d	0.04952531
240	0x3de931c8	0.11386448
241	0xbcb79e2f	-0.022414295
242	0x3dbf1875	0.09330837
243	0xbd15255a	-0.036412574
244	0x3c8bc0ef	0.017059771
245	0x3d62fe26	0.055418156
246	0x3c10aeb7	0.008830718
247	0xbe0236a9	-0.12716164
248	0x3e36cbb9	0.17851152
249	0x3db76053	0.08953919
250	0xbd66242a	-0.056186832
251	0xbc589385	-0.013218765
252	0x3df31580	0.11869335
253	0xbcf0d77d	-0.029399628
254	0x3c86bed1	0.01644841
255	0x3cb89f2e	0.02253684

spectral_ssm.hidden.0.mlp.fc_2.weight f4 [32, 128]
0	0xbc6e643a	-0.014550263
1	0x3d1ddcb8	0.038540572
2	0x3c78fa69	0.015196421
3	0x3bca839a	0.006180239
4	0xbd3729bb	-0.04471753
5	0x3ddddb0c	0.108327955
6	0xbc3fcd39	-0.011706644
7	0xbc98cc3b	-0.018652072
8	0x3b4640d5	0.0030251045
9	0xbc4afbd4	-0.012389142
10	0xbd1ecf36	-0.03877183
11	0xbde4a7d5	-0.11164824
12	0xbb92c803	-0.0044794097
13	0x38a551c7	7.883045e-05
14	0x3b97374f	0.0046147476
15	0xbc1b3c0a	-0.009474764
16	0xbb61b4f2	-0.0034440127
17	0xbcbc0cd1	-0.02295533
18	0xbcaf3090	-0.021385461
19	0xbd7da8d0	-0.06192857
20	0x3d935210	0.071933866
21	0xbd0bc715	-0.034125406
22	0x3d088d6e	0.033338003
23	0x3d2e07dd	0.042487968
24	0x3bf5ed60	0.007505104
25	0xbd676b19	-0.05649862
26	0x3ce85475	0.028360585
27	0x3cc49667	0.023997499
28	0x3d033c21	0.032039765
29	0x3cd3df7b	0.0258634
30	0x3c5b79ea	0.013395766
31	0xbd4c1dac	-0.049832985
32	0xbd301b44	-0.042994753
33	0xbd6b76b0	-0.057486236
34	0xbb476b34	-0.0030428888
35	0x3dd74e60	0.10512996
36	0xbcd31e7a	-0.025771368
37	0x3d94b1d7	0.07260483
38	0x3d81b2dc	0.06332943
39	0xbd2f34e6	-0.042775057
40	0xbc8a6498	-0.01689367
41	0x3c4db07a	0.012554282
42	0xbbf343c5	-0.0074238502
43	0x3d3bd81a	0.045860387
44	0xbcebb3e9	-0.028772311
45	0xbb037748	-0.002006011
46	0x3d6be1fe	0.05758857
47	0xbcd576d3	-0.026057636
48	0x3d48f611	0.049062792
49	0x3d3b99cd	0.045800973
50	0x3cb49ce9	0.022047477
51	0xbd609e83	-0.05483867
52	0x3db6c426	0.08924131
53	0x3cd793d1	0.026315602
54	0x3d18b2b6	0.037279807
55	0xbd33d55b	-0.043904644
56	0x3d101e21	0.035184983
57	0xbc7d9e9c	-0.01547971
58	0xbb5d3b64	-0.0033757323
59	0xbd7d230a	-0.061800994
60	0x3d34ed9b	0.04417191
61	0x3c9a7e5f	0.018859087
62	0x3c4cf2f3	0.0125090955
63	0xbd134962	-0.035958655
64	0x3c0fb3fb	0.008770938
65	0x3d162a42	0.036661394
66	0xbbc0383e	-0.0058660796
67	0x3c72ca6f	0.014818772
68	0xbbed1372	-0.007234984
69	0x3c5d5f1c	0.013511445
70	0xbbdcb4cc	-0.00673542
71	0x3c512572	0.012765275
72	0xbd385051	-0.04499847
73	0x3d493d06	0.049130462
74	0xbd96a054	-0.07354799
75	0x3c07abed	0.008280736
76	0xbd2139dc	-0.03936182
77	0x3c1a2e18	0.009410404
78	0x3bd8d6dd	0.0066174106
79	0x3c961513	0.018320596
80	0x3da1432e	0.07874142
81	0x3c656261	0.014000506
82	0xbda402c5	-0.08008341
83	0xbd088d28	-0.033337742
84	0xbcff4f33	-0.031165695
85	0x3b439b81	0.0029847326
86	0xbcd9b638	-0.026576146
87	0x3dd4a5e8	0.103832066
88	0x3d0fbf1d	0.03509437
89	0x3c921fc0	0.017837405
90	0x3beca72d	0.0072220773
91	0xbdc2cb9a	-0.0951149
92	0xbda8fda5	-0.08251504
93	0x3807d9f9	3.238951e-05
94	0x3d755375	0.059894044
95	0x3db144ee	0.086557254
96	0x3afe4801	0.0019400121
97	0xbd0e2bdd	-0.0347098
98	0x3cc83ca6	0.024442982
99	0x3c5586b2	0.013032602
100	0x3b2263f3	0.0024778813
101	0x3cee441d	0.029085213
102	0xbd110ee9	-0.03541461
103	0x3ad87c43	0.0016516525
104	0xbbd3d478	-0.0064645372
105	0x3d8648a7	0.06556826
106	0x3d587c87	0.052853134
107	0xbd24e637	-0.040258612
108	0xba7affbd	-0.0009574851
109	0x3cef5ca3	0.029218977
110	0x3bdcdce1	0.006740198
111	0x3d4a6b1c	0.049418554
112	0x3d28232d	0.04104917
113	0x3d49c33b	0.049258452
114	0x3d188573	0.037236642
115	0x3d772e97	0.060347166
116	0xbd0fc0f2	-0.035096116
117	0x3b22100a	0.0024728798
118	0xbcb0ef61	-0.02159852
119	0xbbcec29a	-0.0063098194
120	0xbd17529e	-0.036944024
121	0xbcc496da	-0.023997713
122	0x3d968d05	0.07351116
123	0xbd277ed9	-0.040892456
124	0x3d7fd0f6	0.06245514
125	0x3d690d32	0.05689735
126	0x3b30a1a8	0.0026951823
127	0xbbf63404	-0.007513525
128	0x3d8b6523	0.068064
129	0x3d2f47b1	0.04279298
130	0xbc1c0b83	-0.009524229
131	0x3c94567c	0.018107645
132	0x3d269f31	0.04067916
133	0xbd0ba44a	-0.034092225
134	0x3d33282c	0.043739483
135	0x3c358b13	0.011080521
136	0xbd150fb9	-0.036391947
137	0xbd30627b	-0.04306267
138	0x3c8e79db	0.01739209
139	0x3cf78a0b	0.030217191
140	0x3d0f0667	0.034918215
141	0xbd12bf4c	-0.035826966
142	0xbc1bd220	-0.009510547
143	0xbc5b755e	-0.013394682
144	0x3d3545da	0.04425607
145	0x3cdbf054	0.026847996
146	0xbc81c909	-0.015842931
147	0x3c9a8fe7	0.018867446
148	0x3c0f57eb	0.008748989
149	0xbd5b7da9	-0.053586636
150	0xbcab9026	-0.020942759
151	0x3c5d95ea	0.013524512
152	0x3a94dbab	0.001135697
153	0x3c60b58c	0.013715159
154	0xbd04286f	-0.032265123
155	0xbcf0d25f	-0.029397188
156	0x3bee9e56	0.0072820587
157	0x3b174add	0.0023085393
158	0xbbc8147c	-0.0061059576
159	0x3d416a8b	0.047220748
160	0x3cc962c2	0.024583224
161	0x3d85cda6	0.06533365
162	0xbbaae0b0	-0.005214773
163	0xbce7eb36	-0.0283104
164	0x3c450574	0.012025226
165	0xbccfe6b5	-0.025378564
166	0xbb2822dd	-0.0025655546
167	0x3d25a803	0.04044343
168	0xbc341fdc	-0.010993924
169	0x3d85317f	0.06503581
170	0xbddc61b5	-0.10760824
171	0xbd5fe4cd	-0.05466156
172	0xbd8f37dd	-0.06993077
173	0xbd56b866	-0.05242195
174	0x3d018c91	0.031628195
175	0xbb949365	-0.0045341724
176	0xbd663460	-0.056202292
177	0xba771d30	-0.00094266515
178	0xbcf527e3	-0.029926246
179	0x3d3b0162	0.045655616
180	0xbbaac934	-0.0052119736
181	0x3d2c192c	0.042016193
182	0x3c0a3e0e	0.008437647
183	0x3c9b988f	0.018993644
184	0xbd21ebda	-0.039531566
185	0x3d8c9abd	0.068654515
186	0xbc0aad64	-0.008464191
187	0x3d05aa41	0.03263307
188	0xbd19b5fb	-0.037527066
189	0x3c85f113	0.016350305
190	0x3c4ab501	0.012372256
191	0x3b40c25d	0.0029412725
192	0xb971d22c	-0.00023061846
193	0xbaab9006	-0.0013089187
194	0x3bf9fa35	0.007628704
195	0xbd3bcdaa	-0.045850433
196	0xbb76f6b1	-0.003768366
197	0x3c8956e9	0.016765075
198	0xbc6d5a22	-0.014486821
199	0xbd998d0f	-0.07497608
200	0xbccb6cd0	-0.02483216
201	0x3d4a46ea	0.049384035
202	0x3d9f0131	0.07763899
203	0x3ca8ec1f	0.020620404
204	0x3d2950a0	0.041336656
205	0x3d329468	0.043598562
206	0xbcc300a4	-0.023804016
207	0xbd1a49dd	-0.037668098
208	0xbc5f6677	-0.013635269
209	0xbc57061e	-0.013124017
210	0x3d11ab64	0.03556384
211	0xbc8974e3	-0.016779369
212	0xbc27fe3d	-0.010253486
213	0xbcf3d85a	-0.02976625
214	0xbc8d5222	-0.017251078
215	0xbb9fa4ed	-0.0048719556
216	0x3c5c794d	0.013456655
217	0xbca5eb7a	-0.020253886
218	0xbbf9200b	-0.007602697
219	0xbd5a1008	-0.053237945
220	0x3cf91791	0.030406745
221	0x3cf840fe	0.030304428
222	0xbd95ab50	-0.07308066
223	0x3c5486a1	0.012971551
224	0xbd1b314e	-0.037888817
225	0x3caabe80	0.02084279
226	0x3bfee561	0.007778809
227	0x3d36f3da	0.04466615
228	0xbd1337b5	-0.0359418
229	0xbd19b081	-0.037521843
230	0x3d100f81	0.035171036
231	0x3bbad178	0.00570124
232	0x3bb3445a	0.0054707946
233	0x3ce7a570	0.028277129
234	0x3c675509	0.014119395
235	0x3bc65d01	0.0060535674
236	0xba4180ed	-0.0007381577
237	0xbc92a874	-0.01790259
238	0x3c50d4a7	0.012746013
239	0xbb2c1c0e	-0.002626184
240	0x3d1171b3	0.035508823
241	0xbd7afb03	-0.06127454
242	0xbd524fd1	-0.05134565
243	0xbd22ee9e	-0.039778344
244	0xbc6a73a8	-0.014309801
245	0x3c978827	0.01849754
246	0x3c832a0d	0.016011262
247	0xbc949995	-0.01813964
248	0xbd6827d9	-0.056678627
249	0x3ca222bf	0.019791959
250	0x3c6f096f	0.0145896515
251	0xba2d9c47	-0.00066227134
252	0x3ca51406	0.02015115
253	0xbd1ce2af	-0.03830212
254	0xbd4c2419	-0.049839113
255	0x3beae69f	0.0071686055

spectral_ssm.hidden.1.rn_1.weight f4 [32]
0	0x3f85435f	1.0411185
1	0x3f7a0b3c	0.9767339
2	0x3f870135	1.0547243
3	0x3f6dbad5	0.9286321
4	0x3f67e2ff	0.90580744
5	0x3f89688c	1.073503
6	0x3f7bb0a2	0.98316395
7	0x3f7607bd	0.9610556
8	0x3f8534b7	1.0406712
9	0x3f6f3164	0.9343474
10	0x3f85c0be	1.0449445
11	0x3f813ace	1.0096071
12	0x3f82a791	1.0207387
13	0x3f85bca1	1.044819
14	0x3f804fb2	1.0024321
15	0x3f73b91f	0.9520435
16	0x3f7cfb85	0.9882129
17	0x3f81c078	1.0136862
18	0x3f84ba26	1.0369308
19	0x3f816f0d	1.0112015
20	0x3f86f5bc	1.0543742
21	0x3f80b4d3	1.0055183
22	0x3f8654d5	1.0494639
23	0x3f80904a	1.0044034
24	0x3f707825	0.93933326
25	0x3f6a03cf	0.9141206
26	0x3f75c665	0.9600585
27	0x3f6d9ec2	0.9282037
28	0x3f83aab6	1.0286472
29	0x3f85b123	1.0444683
30	0x3f7b5a18	0.9818435
31	0x3f87fae7	1.0623444

spectral_ssm.hidden.1.rn_2.weight f4 [32]
0	0x3f81e684	1.0148473
1	0x3f7b7271	0.982215
2	0x3f80d9b4	1.0066438
3	0x3f857067	1.0424927
4	0x3f7977e0	0.9744854
5	0x3f80b377	1.0054768
6	0x3f844b53	1.0335487
7	0x3f7ff821	0.9998799
8	0x3f7a7133	0.9782898
9	0x3f834205	1.0254523
10	0x3f85d48e	1.0455492
11	0x3f83608f	1.0263842
12	0x3f76a0dc	0.963392
13	0x3f82c927	1.0217637
14	0x3f7c1278	0.9846568
15	0x3f80c490	1.0059986
16	0x3f818daa	1.0121357
17	0x3f8220ad	1.0166222
18	0x3f86bdcd	1.0526673
19	0x3f809b26	1.0047348
20	0x3f6b4315	0.91899234
21	0x3f7c6e51	0.9860583
22	0x3f833c8e	1.0252855
23	0x3f819abb	1.0125345
24	0x3f856711	1.0422078
25	0x3f81f282	1.0152133
26	0x3f80b4ce	1.0055177
27	0x3f80432c	1.0020499
28	0x3f78200d	0.96923906
29	0x3f833566	1.0250671
30	0x3f793b09	0.97355705
31	0x3f810ef3	1.0082687

spectral_ssm.hidden.1.stu.M_inputs f4 [32, 32]
0	0x3d873f95	0.06603924
1	0xbc05afa5	-0.008159553
2	0x3d15c6ee	0.036566667
3	0x3ebdc99b	0.37067875
4	0xbe902ad6	-0.2815768
5	0x3d31d882	0.04341937
6	0xbd3d0125	-0.04614367
7	0x3ec08dc2	0.37608153
8	0xbd6bb799	-0.05754814
9	0xbdd68a7b	-0.10475632
10	0x3e4fefaa	0.20306268
11	0xbef88aa4	-0.48543274
12	0xbe6cfccb	-0.23143308
13	0x3e181144	0.14850336
14	0x3e2f00a3	0.17090087
15	0xbd488752	-0.048957177
16	0x3dd4f00e	0.10397349
17	0xbe527b43	-0.20554833
18	0xbd2fa979	-0.04288623
19	0x3d80eb8a	0.062949255
20	0x3e3e4c33	0.18583755
21	0xbe1eea64	-0.155191
22	0xbea16d19	-0.31528547
23	0xbe836400	-0.2566223
24	0xbefd1e1c	-0.49437034
25	0xbe1ac1a0	-0.15112925
26	0x3dab645d	0.08368752
27	0x3e239270	0.1597383
28	0x3dfe25ec	0.12409577
29	0xbe18e36b	-0.14930503
30	0x3e62c11d	0.2214398
31	0x3dfc717e	0.123263344
32	0x3c1d430f	0.009598508
33	0x3e7fd16e	0.24982235
34	0xbe258a1a	-0.16165963
35	0x3ca1a59b	0.019732287
36	0xbcb97710	-0.022639781
37	0x3e53c076	0.20678887
38	0x3cf53cb6	0.029936176
39	0xbe8a9709	-0.27068356
40	0xbe560ecd	-0.20904084
41	0x3d2db2b2	0.042406745
42	0x3da66db0	0.0812639
43	0x3c8f4a40	0.01749146
44	0xbd8cd01d	-0.06875632
45	0xbe0e07c1	-0.13870145
46	0xbd4edea0	-0.05050528
47	0xbc8a94cc	-0.016916655
48	0x3ea9e9e4	0.33186257
49	0x3d01554c	0.031575486
50	0xbe33feb5	-0.17577632
51	0x3bea26b6	0.007145728
52	0x3e71d628	0.2361685
53	0x3c5edd43	0.013602558
54	0xbd9355f1	-0.071941264
55	0xbe43caad	-0.19120283
56	0xbe33b06f	-0.17547773
57	0xbd3d32f4	-0.04619117
58	0x3ea61ac3	0.32442293
59	0x3e014a0a	0.126259
60	0xbc993a1a	-0.018704463
61	0x3c9508f3	0.018192744
62	0xbe777576	-0.24165902
63	0x3dbe3df5	0.09289161
64	0x3e064e37	0.13115774
65	0x3ddedc16	0.10881822
66	0x3eaaf94f	0.33393332
67	0xbc86725a	-0.016411949
68	0xbe60542e	-0.21907112
69	0xbe2a2f78	-0.1661967
70	0xbdeda073	-0.11602869
71	0xbdb0c4b8	-0.08631271
72	0xbcc11e8e	-0.02357414
73	0xbd44b511	-0.04802424
74	0xbe0c3880	-0.13693428
75	0xbe8657ac	-0.26238763
76	0x3db6fbcc	0.08934745
77	0x3d89a1c4	0.067203075
78	0x3dcc9e4c	0.0999113
79	0x3dc3e7d9	0.09565706
80	0xbded5f91	-0.115904935
81	0x3c5daf11	0.013530509
82	0x3da0d890	0.07853806
83	0x3e315767	0.17318498
84	0x3e316b32	0.17326048
85	0xbe34da26	-0.17661342
86	0x3e4d67f1	0.20059182
87	0x3e0cc420	0.13746691
88	0x3e07d2e7	0.13264047
89	0x3e616519	0.22011222
90	0x3dd95412	0.10611738
91	0xbe866262	-0.26246935
92	0x3e3c1ed4	0.18371135
93	0xbdaa2b15	-0.083089985
94	0x3cc9fdc4	0.024657138
95	0x3ccebc66	0.02523632
96	0x3ca7905a	0.020454574
97	0x3ca9fbb1	0.020749899
98	0xbe25842d	-0.16163702
99	0xbe17126b	-0.1475312
100	0xbdebb0b9	-0.115083165
101	0xbe2c6d80	-0.16838646
102	0x3cc32d2d	0.023825252
103	0x3e2893eb	0.16462676
104	0xbe5e0607	-0.21681987
105	0x3e187af0	0.14890647
106	0x3d15bb5f	0.036555644
107	0x3df0011a	0.1171896
108	0xbe40d9ca	-0.1883308
109	0xbdc89051	-0.09793151
110	0xbd240f4f	-0.040053662
111	0xbda5ff8b	-0.081053816
112	0xbde0c336	-0.109747335
113	0x39fa979f	0.00047796682
114	0xbe7ac3a6	-0.24488696
115	0xbd334eab	-0.043776195
116	0xbc758139	-0.014984422
117	0xbd9022b2	-0.070378676
118	0xbdb98ae0	-0.090596914
119	0xbde45788	-0.11149508
120	0xbe7e2cab	-0.24821727
121	0x3e2a846a	0.16652074
122	0xbe82c765	-0.2554275
123	0xbe304f88	-0.17217839
124	0xbea37eba	-0.31932622
125	0xbcc3b9cf	-0.023892311
126	0x3cc6f5d5	0.024287144
127	0x3c493927	0.012281693
128	0x3cf4edf0	0.029898614
129	0x3e4f7319	0.2025875
130	0x3dee6dfa	0.1164207
131	0x3e39b134	0.18134004
132	0x3d5785f7	0.052617993
133	0x3e63fa3d	0.22263427
134	0xbe458882	-0.19290355
135	0x3dfe4be4	0.12416819
136	0xbe1b6c40	-0.15178013
137	0xbc3b6e08	-0.011439808
138	0xbe5f32ea	-0.21796766
139	0xbe195475	-0.14973624
140	0x3d28c46e	0.041202955
141	0xbd9b5cda	-0.075860694
142	0x3e032866	0.1280838
143	0x3d059ae0	0.032618403
144	0x3e043414	0.12910491
145	0xbceb35a3	-0.0287121
146	0x3e1359e0	0.14389753
147	0xbddb6587	-0.10712724
148	0xbe1313ec	-0.14363068
149	0xbd21ea0f	-0.039529856
150	0x3cd1c6ae	0.025607433
151	0x3d708ebc	0.058729872
152	0xbd66bdd3	-0.056333374
153	0xbe5e9278	-0.21735561
154	0x3e4645c3	0.1936255
155	0xbea79269	-0.3272889
156	0xbe63ab55	-0.22233327
157	0x3cf216b8	0.029551849
158	0xbe892720	-0.26787663
159	0x3e2619f7	0.16220842
160	0x3d45a874	0.048256353
161	0xbd3e5565	-0.046468157
162	0xbe6119dd	-0.21982522
163	0x3e4b160d	0.1983263
164	0x3d1bbfc2	0.03802467
165	0x3f04f4c7	0.51936
166	0xbdfb8918	-0.12282008
167	0x3cd551c1	0.02603996
168	0xbdbf8f16	-0.09353463
169	0xbd21c555	-0.03949483
170	0x3e43ece6	0.19133338
171	0xbe298194	-0.16553336
172	0x3df90357	0.1215884
173	0xbe0f1544	-0.13972956
174	0xbd286c9c	-0.041119203
175	0x3e3e7d95	0.18602593
176	0xbe01a819	-0.1266178
177	0xbd561934	-0.05227013
178	0x3daafa6a	0.08348544
179	0xbd6ae1a7	-0.057344105
180	0xbe7de444	-0.24794108
181	0xbd7a616b	-0.06112806
182	0xbe402f9b	-0.1876816
183	0xbe1454c6	-0.14485464
184	0x3d7c776c	0.061637327
185	0xbe772adc	-0.24137443
186	0xbe91342b	-0.28360114
187	0xbe17a134	-0.14807588
188	0x3d89da97	0.06731146
189	0xbdc4e2ad	-0.096135475
190	0xbcf0cb2d	-0.029393757
191	0xbd6dbbdc	-0.058040485
192	0xbe3b228b	-0.18274896
193	0xbe67c952	-0.22635391
194	0xbcc0e443	-0.023546344
195	0xbdb84e91	-0.0899936
196	0xbdbfe8ec	-0.09370598
197	0xbd83ffac	-0.0644525
198	0xbc796c18	-0.015223525
199	0xbe74d8fe	-0.23910901
200	0xbdd63d27	-0.10460883
201	0x3e81eeee	0.253776
202	0xbdaee5fc	-0.0853996
203	0xbd359f5b	-0.044341426
204	0x3df6240b	0.120185934
205	0xbe4533a2	-0.19257978
206	0xbd9f5979	-0.077807374
207	0xbd4017d8	-0.04689774
208	0x3e1e3f5d	0.15453859
209	0x3dd49e66	0.103817746
210	0xbdf367bf	-0.11885022
211	0xbe2b2c65	-0.16716154
212	0xbc36cca0	-0.011157185
213	0xbc83704b	-0.016044756
214	0x3da6ba2a	0.08140977
215	0x3e492c99	0.19645919
216	0xbda277f3	-0.07933035
217	0x3e4d2e52	0.20037201
218	0xbe6c1fa2	-0.23058942
219	0x3cd772ea	0.026299912
220	0xbe134720	-0.14382601
221	0x3d2d8cf4	0.04237075
222	0xbe0c8556	-0.13722739
223	0x3d5fd0c0	0.05464244
224	0xbd30fff2	-0.04321284
225	0x3e866323	0.2624751
226	0x3d7008ed	0.058602262
227	0xbc8f78f4	-0.01751373
228	0x3da31803	0.07963564
229	0xbd820364	-0.06348303
230	0x3d0c40c9	0.03424147
231	0x3c220b7d	0.009890434
232	0x3eb2631c	0.3484124
233	0xbd25bb1d	-0.04046165
234	0xbdb3da9e	-0.08781932
235	0xbe3bc05b	-0.18335097
236	0xbd9a0406	-0.07520299
237	0x3d93a6c7	0.07209545
238	0xbdc27671	-0.09495247
239	0xbea58e9a	-0.3233536
240	0xbe1dbab9	-0.1540326
241	0xbe147e57	-0.1450132
242	0x3dcdbf58	0.100462615
243	0xbe615d80	-0.22008324
244	0x3ddb46f8	0.107068956
245	0x3db73af2	0.0894679
246	0xbda6f38b	-0.08151921
247	0xbe904d6d	-0.2818407
248	0xbdecc3f1	-0.1156081
249	0xbdbf5832	-0.09342994
250	0x3e8aa22e	0.27076858
251	0xbe113ef4	-0.14184171
252	0x3e9df23e	0.3084888
253	0x3d709f79	0.058745835
254	0x3d06c7b1	0.032905284
255	0xbe3d5dc0	-0.18492794

spectral_ssm.hidden.1.stu.M_filters f4 [16, 32]
0	0x3cc767df	0.024341522
1	0x3da2472f	0.079237334
2	0xbeabbc6a	-0.33542186
3	0xbe08d3c9	-0.1336204
4	0x3d6c0a55	0.05762704
5	0xbe87e1a9	-0.26539353
6	0xbef7ef5f	-0.48424813
7	0xbdf862a6	-0.12128191
8	0xbe755896	-0.23959574
9	0xbdaa6e37	-0.08321803
10	0x3e86338a	0.26211196
11	0x3c997299	0.018731402
12	0x3e27d85e	0.16391131
13	0xbe8b2ea2	-0.27184016
14	0xbcd3051b	-0.02575927
15	0x3db62852	0.08894409
16	0xbdcaaaae	-0.09895836
17	0xbdb4b810	-0.0882417
18	0x3e97435c	0.2954358
19	0xbdc17f8e	-0.09448157
20	0x3e23b7d9	0.15988101
21	0x3e940012	0.28906304
22	0x3d0ccaf6	0.034373246
23	0x3dc2a8f9	0.09504885
24	0xbe753c7f	-0.23948859
25	0x3b988158	0.004654091
26	0x3ded4711	0.115858205
27	0x3e6fa75d	0.23403688
28	0x3e1fe6df	0.15615414
29	0x3e39dfec	0.18151826
30	0x3d9135a4	0.07090309
31	0x3dad18b2	0.08451976
32	0x3d543e23	0.05181707
33	0xbdbc9892	-0.09208788
34	0x3e81f35a	0.25380975
35	0xbc47d8e2	-0.012197705
36	0x3de4a6cb	0.11164626
37	0x3e17d23b	0.1482629
38	0xbd447d8a	-0.047971286
39	0xbebe198e	-0.37128872
40	0x3e72fdff	0.23729704
41	0xbed638ca	-0.41840202
42	0x3e00ab31	0.12565304
43	0xbe1aad85	-0.15105255
44	0xbe1ccae9	-0.15311779
45	0x3e86dabd	0.2633876
46	0x3ebd68e4	0.36994088
47	0xbe4f2941	-0.20230581
48	0x3e30a40c	0.17250079
49	0xbeaa6031	-0.33276513
50	0xbe1089dc	-0.14115089
51	0xbd7b9d30	-0.061429203
52	0xbeb6b536	-0.35685128
53	0x3d7e8caa	0.062145866
54	0xbde7eff0	-0.11325061
55	0xbe86e13c	-0.26343715
56	0x3e8378d4	0.25678122
57	0xbe285229	-0.16437592
58	0xbd803a0d	-0.06261072
59	0xbeadd2fe	-0.33950037
60	0xbc74c4ff	-0.014939546
61	0x3e74dd2b	0.23912494
62	0xbd9e5305	-0.077306785
63	0xb9e4b9fd	-0.0004362612
64	0xbced48dc	-0.028965406
65	0xbd4f8ab6	-0.050669394
66	0x3d01dd41	0.031705145
67	0xbdbe403a	-0.09289594
68	0xbcee9507	-0.029123796
69	0x3e70401e	0.23461959
70	0x3e706e1c	0.23479503
71	0x3e949af1	0.2902446
72	0x3d9f9f59	0.07794065
73	0x3dfa2ff0	0.122161746
74	0xbe0a9f58	-0.13537347
75	0x3d1f8d63	0.038953196
76	0x3dd273be	0.10275982
77	0x3e739e28	0.237908
78	0xbe468656	-0.19387183
79	0xbe9cf257	-0.3065364
80	0xbdcce327	-0.10004263
81	0xbd2a4ead	-0.041578937
82	0x3e1172e9	0.14203991
83	0x3e191815	0.14950593
84	0xbed0ed86	-0.40806216
85	0x3e3e3145	0.18573482
86	0x3dcf96a5	0.10136155
87	0x3d0e7615	0.03478058
88	0x3d835cb4	0.06414166
89	0x3ccd1b0f	0.025037317
90	0xbe99e619	-0.30058363
91	0x3cb1ec01	0.02171898
92	0xbd1fdca0	-0.039028764
93	0xbe5f3c56	-0.2180036
94	0xbdd2a049	-0.10284478
95	0x3cdc086f	0.02685949
96	0xbd922d50	-0.07137549
97	0xbc1675cf	-0.009183361
98	0x3dd8ceb1	0.10586298
99	0xbeba5c11	-0.36398366
100	0xbe095c05	-0.13414009
101	0xbd9e104d	-0.07717953
102	0x3e946dc6	0.2899
103	0xbc7d210a	-0.015449772
104	0x3deb8ff1	0.11502064
105	0xbde8da94	-0.113698155
106	0xbe0460fe	-0.12927625
107	0xbeab6d92	-0.33482033
108	0xbebf148a	-0.37320358
109	0x3d67df18	0.056609243
110	0x3d9d4184	0.07678512
111	0xbe7043f5	-0.23463424
112	0x3da0e31a	0.07855816
113	0xbed527f6	-0.4163205
114	0x3de892c7	0.113561206
115	0x3e915078	0.28381705
116	0xbd7a23e4	-0.061069384
117	0xbe68e880	-0.22744942
118	0x3dd79ca5	0.105279244
119	0xbe45a460	-0.19300985
120	0x3e1eebff	0.15519713
121	0xbe10d9e9	-0.14145626
122	0x3d2345cb	0.03986148
123	0x3cfb034c	0.03064122
124	0xbe9220f3	-0.28540763
125	0x3dbf9df4	0.09356299
126	0xbe512b5d	-0.20426698
127	0xbdf04d00	-0.117334366
128	0x3e4fb088	0.20282185
129	0x3e8c0670	0.2734866
130	0xbe9de683	-0.3083993
131	0x3e506f5a	0.20354977
132	0xbd881899	-0.06645317
133	0x3c0b39e8	0.008497693
134	0x3e5a5f34	0.2132538
135	0x3d7d6c00	0.061870575
136	0xbc24a964	-0.0100501515
137	0x3d0a63d0	0.033786595
138	0xbe937769	-0.2880204
139	0x3e753969	0.23947681
140	0x3e9b86b2	0.30376202
141	0xbcbbf92f	-0.022945968
142	0xbe469993	-0.19394521
143	0xbe084ce6	-0.13310584
144	0xbdea159b	-0.11429902
145	0xbe05f0cf	-0.13080142
146	0x3dce249f	0.10065579
147	0xbc95dfd5	-0.018295208
148	0x3e1f9c92	0.1558707
149	0x3e1cd0a6	0.15313968
150	0x3e698222	0.22803548
151	0x3e38fd86	0.18065462
152	0xbeb823be	-0.3596477
153	0x3d7378a4	0.059441224
154	0x3e7c4741	0.24636556
155	0xbddd8757	-0.1081683
156	0x3e05f41e	0.13081405
157	0x3dcd4af2	0.1002406
158	0x3cb3a2d8	0.021928236
159	0x3f01d4f3	0.5071556
160	0xbdeac0a6	-0.11462526
161	0xbc2c47cb	-0.010515164
162	0xbc7dd0cd	-0.0154916765
163	0xbd439250	-0.047746956
164	0x3e116be1	0.14201309
165	0x3bfd41ef	0.007728807
166	0xbe220dee	-0.15825626
167	0x3d563d8b	0.052304786
168	0xbde7d406	-0.11319737
169	0xbe1779d4	-0.14792567
170	0xbe4463a8	-0.19178641
171	0xbde5407c	-0.1119394
172	0x3d6bac22	0.057537206
173	0xbe26b1bf	-0.16278742
174	0x3db525f2	0.08845128
175	0xbe962f87	-0.29333135
176	0x3e4a1927	0.19736157
177	0x3e28bba2	0.16477826
178	0xbccac4df	-0.024752079
179	0x3cfa0d26	0.030523848
180	0xbdb305c5	-0.08741335
181	0x3d335278	0.04377982
182	0x3e1f0157	0.15527855
183	0x3cc8e392	0.024522576
184	0xbefadcaf	-0.48996493
185	0xbd3f92b1	-0.046770755
186	0xbbbb19d8	-0.005709868
187	0x3dbbb1f0	0.09164798
188	0xbdf6dbad	-0.120536186
189	0x3e1dac26	0.153977
190	0xbe02b1cd	-0.12763138
191	0xbd83259e	-0.06403659
192	0xbe4f5712	-0.20248058
193	0x3cdaca3f	0.026707767
194	0x3e2ab271	0.16669632
195	0x3da42245	0.08014349
196	0xbe9c123a	-0.30482656
197	0xbda96802	-0.08271791
198	0xbe8763fa	-0.26443464
199	0xbe4b96e8	-0.19881785
200	0x3e9a359e	0.30119032
201	0x3d4dc803	0.050239574
202	0xbe6f9cd6	-0.23399672
203	0xbe1940b6	-0.14966092
204	0x3d82c0ba	0.06384416
205	0xbd1ce7f6	-0.038307153
206	0xbd5ac61c	-0.053411588
207	0x3d8388e3	0.064225934
208	0x3de439e3	0.111438535
209	0xbc8a2db2	-0.016867492
210	0xbeb7a680	-0.35869217
211	0x3d8c6024	0.06854275
212	0xbd504ded	-0.050855566
213	0xbebee61b	-0.37284932
214	0x3babac5a	0.0052390518
215	0x3e0fc6e0	0.14040709
216	0xbe73fdd9	-0.23827304
217	0xbe360a05	-0.1777726
218	0xbdafe79b	-0.08589097
219	0x3d2e05e3	0.042486083
220	0xbeb353e0	-0.3502493
221	0x3dbdd568	0.0926922
222	0xbd22550d	-0.039631892
223	0xbebecd08	-0.372658
224	0x3cb984bd	0.022646302
225	0x3eb78d61	0.3585005
226	0xbec0a740	-0.37627602
227	0x3c777620	0.015103847
228	0x3e73d893	0.23813085
229	0x3d83f2c5	0.06442789
230	0x3daa2fd7	0.08309906
231	0x3de969ce	0.11397134
232	0x3e1d4986	0.15360078
233	0xbe0c9349	-0.1372806
234	0xbe6943bd	-0.22779746
235	0xbd2ccf54	-0.04218991
236	0xbdc7fe42	-0.09765293
237	0x3d656e33	0.056013297
238	0x3e4b4750	0.19851422
239	0xbe57ea7a	-0.2108554
240	0x3e15bd2e	0.14622948
241	0xbe803261	-0.25038436
242	0xbe083cb8	-0.13304412
243	0xbdf508d4	-0.119645745
244	0xbdb346b9	-0.08753724
245	0xbea66ae5	-0.3250343
246	0x3ea2e052	0.31811768
247	0xbdb35f14	-0.08758369
248	0xbe78a0b1	-0.24280049
249	0x3e3004a6	0.17189273
250	0xbdcc22de	-0.09967588
251	0x3e6a24c4	0.22865587
252	0xbe10937e	-0.14118764
253	0xbd70fe45	-0.05883624
254	0xbeaa71b6	-0.3328988
255	0x3e205565	0.15657575
