checkpoints/sssm-Walker2D-v1-model_step-525-2024-11-18-19-37-05.pt (torch, 34490 bytes, 18 tensors)

emb.weight f4 [8, 24]
0	0xbe5d4877	-0.21609674
1	0x3ea9672a	0.3308652
2	0xbf0f11ef	-0.5588674
3	0x3e89ddc3	0.26927003
4	0xbe3c06ca	-0.18361965
5	0xbe3431a3	-0.1759706
6	0xbe62846d	-0.22120829
7	0xbd2596e9	-0.040427122
8	0x3e7776ed	0.2416646
9	0xbf35c93a	-0.7101017
10	0xbe0dd29f	-0.13849877
11	0x3e42e889	0.19034018
12	0xbc3ccb8d	-0.01152314
13	0x3e245b59	0.16050471
14	0x3e75fdcb	0.24022596
15	0x3da0a7e9	0.07844526
16	0x3ea02afe	0.312828
17	0x3ebe5e72	0.3718143
18	0x3e8c3bf4	0.2738949
19	0x3e8777d4	0.2645861
20	0x3e9a844e	0.30179065
21	0x3d9ccf15	0.07656685
22	0x3e53657d	0.20644183
23	0x3f019977	0.50624794
24	0xbefb19de	-0.49043173
25	0xbd275b72	-0.040858693
26	0xbe3a7b0e	-0.18211004
27	0x3da9d27d	0.082921006
28	0x3e79d9a7	0.24399434
29	0x3e92872e	0.2861876
30	0x3e2bd498	0.16780317
31	0x3ea21bfe	0.3166198
32	0xbde481ee	-0.111575946
33	0xbebeb698	-0.37248683
34	0x3e9e6c80	0.30942154
35	0xbe6e5a35	-0.23276599
36	0xbd0543bf	-0.03253531
37	0x3d4c5b8b	0.04989199
38	0xbebf1025	-0.37317005
39	0xbde2aca9	-0.110680886
40	0xbe18957a	-0.14900771
41	0xbf07edfc	-0.5309751
42	0xbe28a693	-0.16469793
43	0xbd9f13f3	-0.07767477
44	0xbda4970b	-0.08036622
45	0xbd6c1c37	-0.057644095
46	0x3e10843b	0.14112942
47	0x3c7d54e0	0.01546213
48	0xbe564928	-0.20926344
49	0xbe8b30bd	-0.27185622
50	0xbe8a38e7	-0.26996538
51	0x3e210016	0.15722689
52	0x3e41df21	0.18932773
53	0x3d883075	0.066498674
54	0xbcf251e7	-0.02958007
55	0x3e0d13fa	0.13777152
56	0xbce4343b	-0.027856937
57	0xbe3f648a	-0.18690696
58	0x3ed39923	0.41327772
59	0xbeb0803c	-0.34472835
60	0x3de101ee	0.10986696
61	0x3efa61cc	0.48902738
62	0x3e21fb71	0.15818574
63	0x3e58ce6f	0.21172498
64	0x3dfe717c	0.12423989
65	0x3e7bd715	0.24593766
66	0x3da853a3	0.082190774
67	0x3e83ae49	0.25718907
68	0x3c25da3b	0.010122831
69	0xbc5b64c1	-0.013390721
70	0x3e1a08f3	0.15042476
71	0x3e577cbe	0.21043679
72	0x3d5e0e88	0.054213077
73	0xbdb1732a	-0.08664544
74	0xbb92f5c2	-0.004484863
75	0xbd940a94	-0.0722858
76	0xbe7a4e39	-0.24443902
77	0xbcaa54e4	-0.020792432
78	0xbcd48793	-0.025943553
79	0xbe4dc66a	-0.2009522
80	0x3e4e07d6	0.20120177
81	0x3c56695b	0.013086642
82	0x3e7a77d6	0.24459776
83	0x3e20b431	0.15693738
84	0xbc294e34	-0.0103335865
85	0x3d4f3104	0.050583854
86	0xbe95a99b	-0.2923096
87	0x3dc77068	0.09738237
88	0x3b3e9688	0.0029081423
89	0xbe2cdb70	-0.16880584
90	0xbe68e30b	-0.2274286
91	0xbc10b84a	-0.008833
92	0xbe578f5c	-0.21050781
93	0x3cfff92a	0.03124674
94	0xbdbf1c14	-0.09331527
95	0xbdf36880	-0.11885166
96	0x3e35dd75	0.1776026
97	0xbe8a02e6	-0.26955336
98	0x3ec7cb8d	0.39022484
99	0x3e34209d	0.17590566
100	0x3e087c0c	0.1332857
101	0x3c4ef7ee	0.012632353
102	0xbe2661f0	-0.16248298
103	0x3e5fc0bc	0.21850866
104	0x3de810b7	0.11331313
105	0x3cccf69a	0.025019933
106	0xbee61a21	-0.4494181
107	0xbea7b620	-0.32756138
108	0x3e8c3b4e	0.27388996
109	0x3ecf094c	0.4043678
110	0x3dc85fff	0.09783935
111	0x3dc520f8	0.09625429
112	0x3dbf093b	0.093279324
113	0xbd8445d0	-0.06458628
114	0xbcb38cb2	-0.021917675
115	0x3ea378ef	0.31928203
116	0x3c2e36f4	0.010633219
117	0x3d2047d4	0.039131
118	0x3e89e103	0.26929483
119	0x3df277e4	0.118392736
120	0x3e37930c	0.17927188
121	0xbe66383a	-0.22482386
122	0xbdaf177a	-0.085494
123	0x3d56ea19	0.052469347
124	0xbe35f613	-0.17769651
125	0x3e1e01ea	0.15430418
126	0x3e4b758e	0.19869062
127	0xbc73d446	-0.014882153
128	0xbe867db7	-0.26267788
129	0xbe692a6d	-0.2277009
130	0x3b2b7b34	0.0026165964
131	0xbe8c13ab	-0.27358755
132	0x3e4677a4	0.19381577
133	0x3e09634e	0.13416788
134	0x3e6c6fc8	0.23089516
135	0xbe073545	-0.13203914
136	0xbe0f2a09	-0.13980879
137	0x3e51a048	0.20471299
138	0x3ece49cc	0.40290678
139	0xbee2b79e	-0.44280714
140	0xbcf53036	-0.029930215
141	0xbd1110a0	-0.035416245
142	0xbeb85623	-0.36003217
143	0xbd0c9e3d	-0.034330595
144	0x3e8dce84	0.2769662
145	0xbe74854d	-0.23878975
146	0x3e45d062	0.19317773
147	0xbe4fab24	-0.20280129
148	0xbe2cd743	-0.16878991
149	0xbe7b505b	-0.24542372
150	0x3cf3027c	0.02966427
151	0xbe157206	-0.14594278
152	0x3d63360c	0.055471465
153	0xbe935f3f	-0.28783605
154	0x3cfb0979	0.030644165
155	0xbd0e906d	-0.034805704
156	0x3de9f9a8	0.11424571
157	0xbef63120	-0.48084354
158	0xbdc4a2de	-0.09601377
159	0xbdae47ec	-0.08509812
160	0x3e6fcf67	0.23418961
161	0x3cb3e4b8	0.021959648
162	0x3dc8ca84	0.09804252
163	0xbf035f28	-0.5131707
164	0xbe5f9a9d	-0.21836324
165	0x3c919d19	0.017775105
166	0xbe988416	-0.29788274
167	0xbebda509	-0.37039974
168	0xbea7ca1b	-0.32771382
169	0x3e482321	0.1954465
170	0xbea736fa	-0.3265913
171	0xbdf17005	-0.11788944
172	0x3eb66600	0.35624695
173	0x3dc6586f	0.09684836
174	0xbd8cbc22	-0.06871821
175	0x3f06571c	0.5247667
176	0x3e415b88	0.18882573
177	0xbe772e7e	-0.24138829
178	0xbecf0ea0	-0.40440845
179	0x3e81ce8a	0.2535289
180	0x3e3924d7	0.1808046
181	0x3d65c00a	0.056091346
182	0x3e9c5e41	0.3054066
183	0xbe6b703f	-0.22992037
184	0x3db7539d	0.08951495
185	0x3e56ba51	0.20969512
186	0xbdfa4f48	-0.12222153
187	0x3e87d2b1	0.26527932
188	0x3e942497	0.28934166
189	0xb906eac0	-0.00012866687
190	0x3ea52812	0.32257134
191	0x3e5376b4	0.2065075

stu.hidden.0.rn_1.weight f4 [8]
0	0x3f2628d1	0.6490603
1	0x3f2b8fa2	0.6701604
2	0x3f4f1c63	0.8090269
3	0x3f5fe7e7	0.8746323
4	0x3f3807d8	0.7188697
5	0x3f13fda6	0.5780891
6	0x3f732714	0.94981503
7	0x3f561210	0.8362131

stu.hidden.0.stu.M_u f4 [8, 3, 8]
0	0xbef9fa5a	-0.48823816
1	0xbcc50257	-0.024048967
2	0x3e28d914	0.16489059
3	0xbe0c45a6	-0.13698444
4	0x3c028722	0.0079667885
5	0xbd03063d	-0.03198837
6	0x3d1cbfd8	0.038268894
7	0xbd3aa8f0	-0.045571268
8	0xbe208f54	-0.15679675
9	0xbe761bf4	-0.24034101
10	0x3e10b0a2	0.1412988
11	0x3cae6a33	0.021290874
12	0xbe176a66	-0.14786682
13	0x3e7be1bb	0.24597828
14	0x3e392820	0.18081713
15	0x3e5573b3	0.20844917
16	0xbea010fc	-0.31262958
17	0xbe68cb89	-0.22733893
18	0x3e0dc4ce	0.13844606
19	0x3db3b10b	0.08774003
20	0xbe715bd9	-0.23570193
21	0xbe0bea2d	-0.1366355
22	0xbcb2ea60	-0.021840274
23	0x3e74d25a	0.23908368
24	0x3c062d5e	0.008189527
25	0xbee2c2d1	-0.44289258
26	0xbd051ba5	-0.032497067
27	0x3e29c291	0.16578127
28	0x3d05eaed	0.032694746
29	0xbe8f7faa	-0.28027087
30	0xbd607afe	-0.054804794
31	0x3db75ba8	0.08953029
32	0x3e066828	0.1312567
33	0xbe8af104	-0.27137005
34	0xbd3a3c8a	-0.04546789
35	0x3e5821bc	0.21106619
36	0x3e18acbe	0.14909646
37	0xbe093be7	-0.13401757
38	0xbe6bd46b	-0.2303025
39	0x3ebfc645	0.37455955
40	0x3e6cda4d	0.2313015
41	0xbe13d6fa	-0.14437476
42	0x3da507ab	0.08058103
43	0x3e706d13	0.23479109
44	0xbdabad88	-0.08382708
45	0xbeb26a29	-0.3484662
46	0x3e1f54b7	0.1555966
47	0x3e449d2e	0.19200584
48	0xbe1ebcfe	-0.15501782
49	0xbca52bd7	-0.020162506
50	0xbd432ead	-0.047651935
51	0x3ce4f94f	0.02795091
52	0xbe46f819	-0.19430579
53	0xbd1d69ff	-0.038431164
54	0x3cf815cb	0.03028383
55	0x3d095157	0.033524837
56	0x3df1794b	0.11790713
57	0xbe27293e	-0.16324326
58	0xbe338160	-0.17529821
59	0xbe02ab5b	-0.1276068
60	0xbe0460ab	-0.12927501
61	0x3d2dae48	0.042402536
62	0x3cb588b7	0.022159917
63	0xbe13003a	-0.14355555
64	0xbd8cdfb3	-0.06878605
65	0xbe30842d	-0.17237921
66	0xbde7c872	-0.11317529
67	0x3c8be70a	0.017077941
68	0x3e5eb14d	0.21747322
69	0xbc3adf40	-0.011405766
70	0x3e04ecb0	0.12980914
71	0x3d96c919	0.07362575
72	0x3dcb9846	0.09941153
73	0xbeb4cd09	-0.3531268
74	0x3e06e6c4	0.13173968
75	0xbdb177af	-0.08665406
76	0xbe468a1e	-0.19388625
77	0xbdd66681	-0.1046877
78	0x3dce93f3	0.10086813
79	0xbdc161ab	-0.09442457
80	0x3e79895d	0.24368806
81	0xbe3560be	-0.17712685
82	0x3d27d0b9	0.040970538
83	0xbe7cb473	-0.24678211
84	0x3df84f6a	0.12124522
85	0x3d2e3d25	0.04253878
86	0x3dd98b54	0.10622278
87	0xbe746372	-0.2386606
88	0x3e6e1430	0.23249888
89	0xbd67e8d2	-0.05661852
90	0x3d5b45d4	0.05353339
91	0xbb1698c4	-0.002297924
92	0xbe3a4594	-0.18190604
93	0xbdd7b0e1	-0.10531784
94	0xbdbfaaca	-0.09358747
95	0xbe377aa7	-0.17917882
96	0xbe718ecb	-0.23589627
97	0xbe1cfdd8	-0.15331209
98	0xbe8385b2	-0.2568794
99	0xbdbf1c53	-0.09331574
100	0xbd54009b	-0.05175839
101	0x3ddc0fca	0.10745199
102	0xbd82451c	-0.06360838
103	0x3ea39cc7	0.3195555
104	0x3d59446a	0.05304376
105	0x3ca7cd83	0.020483738
106	0x3e39fe05	0.18163307
107	0xbd8b99ba	-0.068164304
108	0x3d128fe1	0.035781745
109	0x3dcd756b	0.10032161
110	0x3e6730cf	0.22577213
111	0x3d3f0985	0.046639938
112	0xbd0d1ee1	-0.034453277
113	0xbdfc5797	-0.12321394
114	0xbe6f7c0a	-0.23387161
115	0x3e25b570	0.16182494
116	0xbdf4b154	-0.11947885
117	0x3e25a40b	0.16175859
118	0x3da46b6b	0.08028301
119	0xbe092897	-0.1339439
120	0xbe882ba5	-0.26595798
121	0xbe368378	-0.17823589
122	0x3ae5e4d4	0.001753951
123	0x3e22b322	0.15888646
124	0xbe43a4e3	-0.19105868
125	0xbede8257	-0.43458816
126	0x3c621630	0.013799235
127	0xbbde66da	-0.006787163
128	0xbd92f127	-0.071749024
129	0xbe5a1e2b	-0.2130057
130	0xbe052128	-0.1300093
131	0xbe34ebd2	-0.17668083
132	0xbe128256	-0.14307532
133	0xbdacc3a8	-0.08435756
134	0xbe19feec	-0.15038651
135	0xbe5da839	-0.21646203
136	0x3c56f995	0.013121028
137	0x3b9dd7ef	0.004817001
138	0x3d7ab425	0.061206955
139	0xbdaefb0b	-0.085439764
140	0x3d924d99	0.07143707
141	0xbead30f5	-0.33826414
142	0x3bc2a124	0.0059396196
143	0xbdf4cd75	-0.1195325
144	0x3eb73efe	0.35790247
145	0xbd827f25	-0.06371907
146	0x3c53c0af	0.012924357
147	0xbe34706a	-0.17621008
148	0x3ead398b	0.33832964
149	0xbe8126a5	-0.25224796
150	0xbeba140e	-0.36343426
151	0x3d40a76e	0.047034673
152	0xbe748113	-0.23877363
153	0xbe90fad5	-0.2831637
154	0x3df3de20	0.11907601
155	0x3e84efab	0.25964102
156	0x3e493ddd	0.19652505
157	0x3d6e84f2	0.058232255
158	0xbca736f4	-0.020411946
159	0x3d94aa00	0.072589874
160	0x3d9c8043	0.076416515
161	0xbd72e930	-0.059304416
162	0xbd8612b9	-0.0654654
163	0xbd96a51b	-0.0735571
164	0x3dbbbcb4	0.09166852
165	0xbe4aa12b	-0.19788043
166	0xbe8ca0ff	-0.2746658
167	0xbd19d297	-0.03755435
168	0xbe029f30	-0.12756038
169	0x3e71f320	0.23627901
170	0xbda72518	-0.08161372
171	0xbc99ffec	-0.01879879
172	0xbd5eec35	-0.054424483
173	0xbdfc9435	-0.12332956
174	0x3e567ad9	0.209453
175	0xbe9e9502	-0.3097306
176	0xbe78bdab	-0.24291103
177	0x3ddd9a11	0.108204015
178	0xbde9f127	-0.11422949
179	0x3a18db0c	0.00058309804
180	0xbdf733f7	-0.120704584
181	0xbe0b2b4d	-0.13590737
182	0x3dc9377c	0.09825036
183	0xbcd8ed40	-0.026480317
184	0xbd8a6675	-0.067578234
185	0xbd704895	-0.05866297
186	0x3e1d44fd	0.15358348
187	0xbdb4eb0b	-0.088338934
188	0xbe668776	-0.22512612
189	0xbd3ead77	-0.046552148
190	0x3e1804f0	0.14845634
191	0xbdd44068	-0.10363847

stu.hidden.0.stu.M_phi_plus f4 [8, 16, 8]
0	0xbdfdd353	-0.123938225
1	0xbdebfe2b	-0.11523088
2	0xbebe92d3	-0.37221393
3	0xbd2e8168	-0.04260388
4	0x3ec2e75c	0.38067138
5	0x3eb70620	0.3574686
6	0x3e47c471	0.1950853
7	0x3d070088	0.03295949
8	0xbed05af1	-0.40694383
9	0xbea1229c	-0.31471717
10	0xbf30b1c0	-0.69021225
11	0xbe98bd2c	-0.29831827
12	0x3db66238	0.089054525
13	0x3f16c1b4	0.5888932
14	0x3ee65a32	0.4499069
15	0x3cf162d2	0.029466067
16	0xbc3a100e	-0.011356367
17	0xbc585219	-0.013203167
18	0x3f1cb3e5	0.61212
19	0xbe3d7d60	-0.18504858
20	0x3ea7313b	0.32654747
21	0x3ecd4734	0.40093386
22	0x3f74725f	0.95487016
23	0xbe497892	-0.196749
24	0xbba99576	-0.005175288
25	0xbec96a1a	-0.39338762
26	0xbf409e5a	-0.75241625
27	0xbed112ec	-0.4083475
28	0xbe27fd96	-0.16405329
29	0x3de34774	0.11097613
30	0xbdee6020	-0.11639428
31	0x3ccfee41	0.025382163
32	0xbedf5882	-0.43622214
33	0xbeadaad8	-0.33919406
34	0xbeb33905	-0.3500444
35	0x3edd3b53	0.43209323
36	0xbf4aed1a	-0.7926804
37	0xbf379f1d	-0.7172716
38	0xbf36e3b1	-0.7144118
39	0xbda55de6	-0.0807455
40	0xbeae6a00	-0.34065247
41	0xbe103530	-0.1408279
42	0x3e8c3d8d	0.2739071
43	0x3d6c4be3	0.05768956
44	0xbef7a028	-0.48364377
45	0xbe3c6288	-0.18396962
46	0x3e3d5c93	0.18492346
47	0x3e344a50	0.17606473
48	0x3e9e9235	0.30970922
49	0x3e8ef43c	0.2792071
50	0x3f093399	0.53594357
51	0x3de54268	0.111943066
52	0x3e484efc	0.1956138
53	0x3f007ef0	0.5019369
54	0x3f0992bc	0.53739524
55	0x3e790f89	0.24322332
56	0x3ea281d3	0.31739673
57	0x3e3d2e1c	0.1847462
58	0x3de38695	0.11109654
59	0x3e1255a7	0.14290486
60	0x3f3f0848	0.7462201
61	0x3f4588c6	0.77161825
62	0x3f1ca94a	0.61195815
63	0xbe6cafe4	-0.23113972
64	0x3d85077d	0.06495569
65	0x3b91a604	0.0044448394
66	0xbe865c6e	-0.26242393
67	0x3e54c7be	0.2077932
68	0x3f44d45f	0.7688655
69	0x3f140de0	0.5783367
70	0x3e6eccde	0.23320338
71	0xbee6295f	-0.4495344
72	0xbee944d9	-0.4556034
73	0xbe7cd2a9	-0.24689735
74	0xbe94707b	-0.28992066
75	0x3e8f87b4	0.2803322
76	0x3f0a7edd	0.5409983
77	0x3dfe0886	0.124039695
78	0xbe62afab	-0.22137325
79	0xbcf2e1d6	-0.029648703
80	0xbec95684	-0.3932382
81	0xbeb40c78	-0.35165763
82	0xbdb999ee	-0.09062563
83	0x3dab342f	0.083595626
84	0x3e496ad8	0.19669664
85	0xbd662438	-0.056186885
86	0xbe41787a	-0.18893614
87	0xbe0c5e3f	-0.13707827
88	0xbe1d9032	-0.15387037
89	0xbda9b9ae	-0.08287369
90	0xbda66b90	-0.08125985
91	0xbd7e8d69	-0.062146578
92	0xbe3177a0	-0.1733079
93	0xbe8b8207	-0.2724764
94	0x3e3bda9e	0.18345115
95	0xbe39a9a9	-0.18131126
96	0xbe39b895	-0.18136819
97	0x3daeffb1	0.08544863
98	0xbd99ad60	-0.07503772
99	0x3d66f855	0.05638917
100	0xbd2953f0	-0.041339815
101	0xbe868d5a	-0.26279718
102	0x3dd24162	0.10266377
103	0x3d42a222	0.047517903
104	0x3da91382	0.08255674
105	0xbd9d9443	-0.07694294
106	0xbdc693e0	-0.09696174
107	0x3c860061	0.016357603
108	0x3e4620f4	0.19348508
109	0x3deb6c51	0.11495269
110	0xbcf509ec	-0.029911958
111	0xbe7444db	-0.23854391
112	0xbe0f15ac	-0.13973111
113	0xbd3d4a03	-0.04621316
114	0x3cf145ed	0.029452289
115	0x3de1dd12	0.11028494
116	0xbe0f251f	-0.13979004
117	0xbde8d229	-0.1136821
118	0x3d7f0c72	0.06226773
119	0x3e962f34	0.29332888
120	0xbe8a4d9b	-0.27012333
121	0xbd0f41c3	-0.034974825
122	0x3d807642	0.06272556
123	0xbd573c9c	-0.052548036
124	0xbe145962	-0.14487222
125	0x3d0b7ba8	0.034053475
126	0x3e50493d	0.20340438
127	0x3e246b62	0.16056588
128	0x3e90872c	0.28228128
129	0xbca408d0	-0.020023733
130	0xbde64a39	-0.112446256
131	0xbefd132f	-0.49428698
132	0xbdd6586d	-0.10466085
133	0x3e9269b1	0.2859626
134	0x3e82f0b2	0.2557426
135	0x3ef572b3	0.4793907
136	0xbb34ca5e	-0.002758644
137	0xbed45f7e	-0.41479105
138	0x3b8f5c0c	0.0043749865
139	0xbf20298f	-0.62563413
140	0x3ed37e8f	0.41307494
141	0x3e8b2bca	0.27181846
142	0x3e926691	0.28593877
143	0xbdee9052	-0.11648621
144	0x3ec2516c	0.37952745
145	0x3ef18b04	0.47176373
146	0xbe2f46b1	-0.1711681
147	0x3e8ff0e7	0.2811348
148	0x3e9ee564	0.31034386
149	0x3e346ed3	0.17620401
150	0x3ea57940	0.3231907
151	0x3f0ef8ca	0.5584837
152	0x3eef13a4	0.46694672
153	0xbea4e76b	-0.32207808
154	0x3e6ded4a	0.2323505
155	0xbf26eeb6	-0.65207994
156	0xbd880ee6	-0.06643467
157	0x3e16af40	0.1471529
158	0x3dbe06eb	0.09278663
159	0x3e018f09	0.1265222
160	0xbe622514	-0.22084457
161	0xbea6125d	-0.32435885
162	0x3d826e5c	0.06368706
163	0xbb4a5077	-0.0030870715
164	0xbe763bd9	-0.24046268
165	0x3d39fa4a	0.04540471
166	0x3b6dd688	0.00362912
167	0xbeb8c8c8	-0.36090684
168	0xbe674c6e	-0.2258775
169	0xbe6090b1	-0.21930195
170	0xbf13248f	-0.5747766
171	0x3e4e05b9	0.2011937
172	0xbdc23383	-0.09482481
173	0xbdde4897	-0.10853689
174	0x3e69c7aa	0.22830072
175	0xbe9215ef	-0.2853236
176	0xbe6ac0f5	-0.2292517
177	0x3ec7a868	0.3899567
178	0xbe96dfee	-0.2946772
179	0x3e62d259	0.22150554
180	0xbda2b74a	-0.07945116
181	0xbdfb4a51	-0.12270034
182	0x3e2a27ce	0.16616747
183	0xbcc9e119	-0.024643468
184	0x3ce612a4	0.02808506
185	0x3e85bc99	0.2612045
186	0x3e1038f6	0.14084229
187	0x3f09f1b1	0.53884417
188	0x3ea21800	0.31658936
189	0x3eaa9c70	0.33322477
190	0xbd922f07	-0.07137876
191	0x3ea7d602	0.32780463
192	0xbe5b62df	-0.21424435
193	0x3d95cc88	0.07314402
194	0x3e6b5f60	0.22985601
195	0x3f12bc6f	0.57318777
196	0x3eb1b186	0.34705752
197	0x3f1280db	0.5722787
198	0x3e6ab293	0.22919683
199	0x3e1c3383	0.15254025
200	0xbf093c88	-0.5360799
201	0x3e010e33	0.12603073
202	0xbeec804f	-0.46191642
203	0x3ebd463d	0.3696765
204	0x3e9673b8	0.2938516
205	0x3e912964	0.2835189
206	0x3e8b434b	0.27199778
207	0xbed9b0db	-0.42517743
208	0x3cc1041b	0.023561528
209	0xbe2e1988	-0.17001927
210	0xbf248582	-0.64266217
211	0x3eb4664c	0.35234296
212	0x3ec4beff	0.38426968
213	0xbd8ca3f3	-0.06867208
214	0xbe4cd22c	-0.20002049
215	0xbea664d1	-0.32498792
216	0x3d75142c	0.05983369
217	0xbeee96ec	-0.4659952
218	0xbdc52082	-0.09625341
219	0x3eeb58b1	0.45966104
220	0x3e6f1b01	0.23350145
221	0xbe0e68d8	-0.13907182
222	0xbedd3701	-0.43206027
223	0xbece9562	-0.40348345
224	0xbc860429	-0.016359406
225	0xbea6637e	-0.32497782
226	0x3eca2ff2	0.39489704
227	0x3edbe2e7	0.4294655
228	0x3e28cc14	0.164841
229	0xbe172733	-0.14761047
230	0xbeb7a2d1	-0.35866407
231	0xbe98e108	-0.29859185
232	0x3d923d64	0.071406156
233	0x3ded493d	0.11586235
234	0xbeea0636	-0.45707864
235	0xbe9d447e	-0.30716318
236	0x3d95d1df	0.0731542
237	0x3ed70a6d	0.42000142
238	0x3e1afbfc	0.15135187
239	0x3d8aee94	0.067837864
240	0xbcecb0ed	-0.028892959
241	0xbd2c2616	-0.04202851
242	0x3ed8f3a3	0.4237338
243	0x3c048679	0.008088701
244	0xbc956667	-0.018237306
245	0xbeba3e80	-0.3637581
246	0x3cee97d6	0.029125135
247	0x3e924fcf	0.28576514
248	0x3d7b2010	0.061309874
249	0xbe920645	-0.28520408
250	0x3e3c1e49	0.18370928
251	0x3d68324b	0.056688588
252	0x3c9b69aa	0.018971283
253	0xbe38012b	-0.17969196
254	0xbd6c581f	-0.057701226
255	0x3e435ffb	0.19079582

stu.hidden.0.stu.M_phi_minus f4 [8, 16, 8]
0	0x3eb2b4f4	0.3490368
1	0xbd898e25	-0.06716565
2	0x3e92762e	0.2860579
3	0x3e7ad5e6	0.24495658
4	0xbee25997	-0.44208977
5	0xbd8c27ff	-0.06843566
6	0xbf0987de	-0.5372294
7	0xbe1f1144	-0.1553393
8	0x3e68fdf6	0.22753128
9	0x3e67848d	0.22609158
10	0x3d54bb97	0.051936712
11	0xbeb37e12	-0.35057122
12	0xbe858a75	-0.26082197
13	0xbd8be2c6	-0.06830363
14	0xbe9ca296	-0.30592793
15	0xbe909ac7	-0.28243086
16	0x3bda2e4c	0.006658351
17	0xbe278f48	-0.16363251
18	0xbe1d7fdc	-0.15380806
19	0xbe751b2d	-0.23936148
20	0x3dc9d2dd	0.09854672
21	0xbd2d4dcf	-0.042310532
22	0xbe4ac855	-0.19802983
23	0xbd18768a	-0.037222423
24	0x3dac93ba	0.08426614
25	0x3dc43563	0.09580495
26	0x3f052109	0.5200353
27	0x3e318380	0.1733532
28	0xbe978a6b	-0.29597792
29	0xbd380536	-0.044926845
30	0xbf0207bf	-0.5079307
31	0xbef0b463	-0.47012624
32	0x3b8e358f	0.004339881
33	0x3e355a7b	0.17710297
34	0xbd35132a	-0.04420773
35	0x3c9284cd	0.01788559
36	0x3d50e0ff	0.050995823
37	0x3cb12109	0.021622198
38	0x3e274010	0.16333032
39	0xbe0a5fe6	-0.13513145
40	0xbe891d73	-0.2678028
41	0x3cbe85b0	0.023257107
42	0x3d12c19e	0.03582918
43	0xbea53cb5	-0.32272878
44	0xbd77db37	-0.060511794
45	0xbd0468ce	-0.032326512
46	0xbd0b0879	-0.033943627
47	0x3e7d3f9c	0.24731296
48	0x3eaba45c	0.33523834
49	0xbe353055	-0.17694218
50	0x3d9a6138	0.07538074
51	0x3e3fc2c4	0.18726641
52	0x3dc95a9e	0.09831737
53	0x3e35a099	0.17737044
54	0x3e3ce355	0.18446095
55	0x3b846ae6	0.0040410636
56	0xbd3b50e8	-0.045731455
57	0xbe463e13	-0.19359617
58	0xbe1f2cc2	-0.15544418
59	0x3e9d42c4	0.30715
60	0x3d36d79b	0.04463921
61	0x3db0d507	0.08634382
62	0x3ca0545a	0.019571472
63	0x3e01aee0	0.12664366
64	0x3de7bb40	0.11315012
65	0x39bddc84	0.00036213186
66	0x3e85e61f	0.2615213
67	0xbdc0e805	-0.09419254
68	0xbe126e50	-0.14299893
69	0x3da5893a	0.080828145
70	0x3e5b9e34	0.21447068
71	0x3da8b6b0	0.0823797
72	0x3e3f8198	0.1870178
73	0xbd485311	-0.048907343
74	0xbd9fc79f	-0.078017466
75	0xbc846df8	-0.016165718
76	0x3e187563	0.1488853
77	0x3d30db17	0.04317769
78	0xbd66a3ac	-0.056308433
79	0x3c6b1922	0.014349254
80	0xbe081075	-0.13287528
81	0x3e08216c	0.13294
82	0xbe18119f	-0.14850472
83	0xbdbbe96e	-0.091753826
84	0xbd46f669	-0.04857484
85	0xbcfaf910	-0.03063634
86	0xbdcf3c15	-0.101188816
87	0x3d9b5dbb	0.07586237
88	0x3c0677ce	0.008207275
89	0x3d9bfaa5	0.07616166
90	0x3dc0ec35	0.09420053
91	0xbdbc7460	-0.09201884
92	0xbe3bb0d3	-0.18329172
93	0xbe28fa47	-0.16501723
94	0xbe6dae4f	-0.23211025
95	0x3e39b0da	0.1813387
96	0xbd0bb30b	-0.034106296
97	0x3e73dcc8	0.2381469
98	0x3e4a499b	0.19754641
99	0xbd3de8ce	-0.046364598
100	0xbd3abe84	-0.045591846
101	0xbe091745	-0.13387783
102	0xbde71760	-0.11283755
103	0x3d5e4f4e	0.05427485
104	0x3dedd8cf	0.116136186
105	0xbe15eb43	-0.14640526
106	0x3e08beeb	0.1335408
107	0x3e76517a	0.24054518
108	0x3e06d174	0.13165838
109	0x3dabfae7	0.08397465
110	0x3cfa7517	0.03057341
111	0xbe3c62b9	-0.18397035
112	0xbdb4233d	-0.08795784
113	0x3da2de87	0.079526
114	0x3d2add90	0.041715205
115	0xbdebf39c	-0.11521074
116	0xbe09d9ad	-0.13461943
117	0xbdc2ac46	-0.09505515
118	0x3e091f13	0.1339076
119	0x3e00fa36	0.12595448
120	0xbd1f15a6	-0.038839005
121	0xbdb485d3	-0.088145874
122	0x3d57b3f1	0.05266184
123	0xbdf66476	-0.1203088
124	0xbe1a72ac	-0.15082806
125	0xbd77eafe	-0.06052684
126	0x3dd8f07f	0.10592746
127	0x3e2f72f3	0.17133693
128	0x3e96c484	0.29446805
129	0xbc471c18	-0.012152694
130	0x3db8301f	0.08993553
131	0x3e601dad	0.2188632
132	0x3bc36d32	0.005963945
133	0x3e15065f	0.14553212
134	0xbeeaeb20	-0.4588251
135	0xbe897ccf	-0.26853034
136	0xbd1c8be5	-0.03821935
137	0xbb6789af	-0.0035329869
138	0xbd01939d	-0.031634916
139	0x3e80650d	0.25077096
140	0x3ddb6c48	0.107140124
141	0xbd9a61b2	-0.07538165
142	0x3d9b1d20	0.075739145
143	0x3da64041	0.08117724
144	0x3e26e16b	0.16296928
145	0x3e863e71	0.26219514
146	0x3e3801a7	0.1796938
147	0x3cade7a4	0.021228619
148	0x3ecc0f7e	0.3985557
149	0x3dc5560d	0.096355535
150	0x3dcdcb25	0.10048512
151	0xbe823b28	-0.25435758
152	0xbcb2d06c	-0.021827899
153	0xbec6c0a6	-0.38818854
154	0x3e06e667	0.13173829
155	0x3eb176ac	0.34660852
156	0x3bddc835	0.0067682513
157	0x3c3d83c0	0.011567056
158	0xbeb5b92d	-0.3549284
159	0xbeaca6fc	-0.3372115
160	0xbc256a70	-0.010096177
161	0xbe2a44c0	-0.16627789
162	0xbd71d6f6	-0.059042893
163	0x3e28f33b	0.16499035
164	0xbeef9671	-0.46794465
165	0x3e2275bd	0.15865226
166	0x3e93018c	0.28712118
167	0x3e8b8a71	0.2725406
168	0x3e6689d2	0.22513512
169	0x3e4ac961	0.19803382
170	0x3e97d1dd	0.296523
171	0xbd8d20ad	-0.06890998
172	0xbd215af5	-0.039393384
173	0xbe66730e	-0.22504827
174	0x3dfaabbf	0.12239789
175	0xbe16f65d	-0.14742418
176	0xbea29c06	-0.3175966
177	0x3dd2642d	0.10273013
178	0xb9d7c4a4	-0.00041154504
179	0xbe2395cc	-0.15975112
180	0xbd57f02e	-0.052719288
181	0x3e34b07d	0.1764545
182	0xbda7f257	-0.082005195
183	0x3d4e4dd5	0.050367195
184	0xbc5c186e	-0.013433559
185	0x3db4e135	0.08832017
186	0xbd89de9a	-0.06731911
187	0xbd87a1ea	-0.066226795
188	0x3eb9bc88	0.3627665
189	0xbe6d8299	-0.2319435
190	0xbe734bac	-0.23759335
191	0x3e3f6b82	0.18693355
192	0xbe054bc5	-0.13017185
193	0xbd19817a	-0.037476994
194	0x3d83e66a	0.06440432
195	0x3e2bcce2	0.16777375
196	0xbdc2f278	-0.095189035
197	0x3d351787	0.04421189
198	0x3dbac14f	0.09118902
199	0x3e1515fc	0.14559168
200	0x3dafcc15	0.085838474
201	0x3e6d3361	0.23164131
202	0x3e0498f0	0.12948966
203	0xbe2a7f11	-0.16650034
204	0x3ef46709	0.4773486
205	0x3e60492d	0.21902914
206	0x3d89cdc1	0.067286976
207	0x3e288783	0.16457944
208	0xbc74c46b	-0.014939408
209	0x3e46eecc	0.19427031
210	0xbea7e253	-0.3278986
211	0x3c575b3b	0.01314431
212	0x3da4f528	0.08054572
213	0x3de6a583	0.112620376
214	0x3dd84665	0.10560302
215	0x3ce54717	0.027988
216	0x3e1871ff	0.14887236
217	0x3e5f760d	0.21822377
218	0xbde8e0de	-0.11371015
219	0xbd8dfc8f	-0.06932937
220	0xbe36d50b	-0.17854707
221	0xbe63f9fb	-0.22263329
222	0xbe8e0b49	-0.27742985
223	0x3ce5da88	0.028058305
224	0xbebf38d8	-0.37348056
225	0x3e04dc32	0.12974623
226	0x3dbba869	0.09162981
227	0x3d2278f1	0.03966612
228	0xbe06b348	-0.13154328
229	0xbd8ff2a1	-0.070287
230	0xbdec92da	-0.11551447
231	0xbdb10aee	-0.08644663
232	0xbcc62de7	-0.02419181
233	0xbe37edbb	-0.1796178
234	0xbd81e580	-0.06342602
235	0x3bde885c	0.0067911576
236	0xbe5532b8	-0.20820129
237	0x3e51f19d	0.20502324
238	0x3e1ce843	0.15322976
239	0xbd2c9ea2	-0.04214347
240	0xbd94432f	-0.07239377
241	0x3bca1eb6	0.006168212
242	0x3d9adc6a	0.07561572
243	0x3dbb9ea1	0.091611154
244	0xbcfd3fea	-0.030914266
245	0x3d209fc2	0.039214857
246	0x3e1f6aeb	0.1556813
247	0xbd197573	-0.037465524
248	0xbd92131d	-0.07132552
249	0x3dc17868	0.09446794
250	0x3db84bbb	0.089988194
251	0xbdfbae77	-0.12289136
252	0x3a110088	0.000553139
253	0x3c7d2d2e	0.015452666
254	0x3d90c426	0.07068662
255	0x3cdb6577	0.02678178

stu.hidden.0.rn_2.weight f4 [8]
0	0x3f6b0c96	0.9181608
1	0x3f423523	0.7586233
2	0x3f4ce386	0.80034673
3	0x3f51db02	0.81974804
4	0x3f475588	0.77864885
5	0x3f4d5edc	0.8022287
6	0x3f58c992	0.8468257
7	0x3f603416	0.87579477

stu.hidden.0.mlp.swiglu.w.weight f4 [32, 8]
0	0x3f48aa22	0.783846
1	0x3ed97e22	0.42479044
2	0x3ddd09f8	0.10792917
3	0xbf39118e	-0.7229241
4	0xbe377263	-0.17914729
5	0x3de734ec	0.11289391
6	0x3e64ac51	0.22331358
7	0x3f0f5bca	0.55999434
8	0x3f3e5db2	0.7436172
9	0x3e8210a1	0.25403312
10	0x3ebdb5f1	0.37052873
11	0x3e9275c0	0.2860546
12	0xbf05df1b	-0.52293557
13	0x3e53e9a7	0.206946
14	0xbe553cf1	-0.20824029
15	0x3e6d1f5f	0.23156498
16	0xbe81b8ee	-0.25336403
17	0xbe79bfa3	-0.2438951
18	0xbf102753	-0.56310004
19	0xbe06fe5f	-0.13182972
20	0x3efd1885	0.4943277
21	0x3d88b6f7	0.06675523
22	0xbc1dbf42	-0.009628119
23	0x3de49ae2	0.11162354
24	0x3e0ae949	0.13565554
25	0x3e06f463	0.13179164
26	0xbb8a2294	-0.004215548
27	0xbdc03b4d	-0.09386311
28	0xbe78d3af	-0.24299501
29	0x3d5c68ad	0.053810764
30	0xbd8d83b5	-0.06909887
31	0x3cde2622	0.027117793
32	0xbc7cd7ea	-0.015432337
33	0xbe65d562	-0.2244468
34	0xbed43369	-0.41445473
35	0x3bd42256	0.0064738197
36	0x3f1694df	0.5882091
37	0x3edf7a90	0.43648195
38	0x3e40c3bb	0.18824665
39	0xbe64e64f	-0.22353481
40	0x3e02f54c	0.12788886
41	0xbe043e11	-0.12914301
42	0x3c9acec7	0.018897427
43	0x3e1f5258	0.15558755
44	0xbe25c85d	-0.16189714
45	0xbc68b163	-0.014202449
46	0xbf0568bc	-0.52112937
47	0xbf0171f5	-0.5056451
48	0xbd1a5b72	-0.037684865
49	0x3e233b33	0.15940551
50	0x3d8db87d	0.06919954
51	0x3d82d6b4	0.063886076
52	0xbdd78037	-0.10522502
53	0x3d8d4522	0.06897952
54	0x3e65c604	0.22438818
55	0x3bed68c4	0.007245155
56	0x3c7a540c	0.015278827
57	0xbe28e2f3	-0.16492824
58	0x3ea59199	0.32337645
59	0x3d1d07cf	0.038337525
60	0x3e5b3fb7	0.21411024
61	0x3e8a4ff4	0.27014124
62	0x3ed596f8	0.41716743
63	0x3cf9303c	0.030418508
64	0xbed21b2c	-0.41036355
65	0x3e005d55	0.12535603
66	0x3e84ba13	0.25923213
67	0xbe3389fa	-0.17533103
68	0x3cc60956	0.024174374
69	0x3e4c3998	0.19943845
70	0x3f3937a0	0.723505
71	0x3f13374d	0.5750626
72	0xbeb2d857	-0.3493068
73	0x3eb6ea79	0.35725763
74	0xbf2f57fe	-0.6849364
75	0xbd3c5abe	-0.045984976
76	0x3e6ab195	0.22919305
77	0x3e04f947	0.12985717
78	0x3d81a625	0.06330518
79	0xbe1ca547	-0.15297423
80	0xbdf2615d	-0.11834977
81	0xbeb419eb	-0.35176024
82	0xbe60c449	-0.21949877
83	0xbdb2e0a5	-0.08734254
84	0x3df9c5d6	0.12195937
85	0xbea9b767	-0.33147737
86	0xbf036d1a	-0.5133835
87	0xbe941900	-0.28925323
88	0xbd126b50	-0.035746872
89	0x3ef0c7e5	0.47027507
90	0xbe18f912	-0.14938763
91	0xbd025afe	-0.03182506
92	0x3d8269de	0.06367849
93	0x3e2046c7	0.15652
94	0xbe501a3f	-0.20322512
95	0xbee15815	-0.44012514
96	0x3d9cbb9c	0.07652971
97	0xbe1f61c4	-0.15564638
98	0xbecce8c7	-0.40021345
99	0xbd2997e4	-0.04140462
100	0x3d7f0aab	0.062266033
101	0x3d5da7d5	0.054115135
102	0xbd82c7a9	-0.063857384
103	0x3e4e6b53	0.20158128
104	0xba3519ad	-0.0006908428
105	0xbdc47d05	-0.09594158
106	0x3e8d0013	0.2753912
107	0xbeb2c01a	-0.34912187
108	0x3df4eabe	0.11958836
109	0xbecdd20a	-0.4019931
110	0x3d1e3bb1	0.038631145
111	0x3e699100	0.2280922
112	0xbe46a902	-0.19400409
113	0x3e39b0c0	0.18133831
114	0x3e3ffde7	0.187492
115	0x3e510f4d	0.20415993
116	0x3eda943f	0.42691228
117	0x3c020a06	0.00793696
118	0x3eb27e5a	0.34862024
119	0x3d88ea6d	0.06685338
120	0x3e65f3bd	0.2245626
121	0xbebd201b	-0.36938557
122	0xbd7ca7bd	-0.061683405
123	0xbd033911	-0.032036845
124	0x3d4cf555	0.050038654
125	0x3b54fc08	0.0032498855
126	0x3e6da117	0.23205982
127	0xbe2a3f7f	-0.16625784
128	0xbddaa013	-0.10675063
129	0xbdd2eeb6	-0.10299437
130	0xbc1adc33	-0.009451914
131	0x3d5c779d	0.05382501
132	0x3db1e901	0.0868702
133	0xbdf9081d	-0.121597506
134	0x3e411cbe	0.1885862
135	0xbe98c824	-0.29840195
136	0x3ea6c6f0	0.32573652
137	0x3e0671a7	0.13129292
138	0x3c38849d	0.011262086
139	0xbca6c97a	-0.020359743
140	0xbe1a110c	-0.15045565
141	0x3e301b72	0.1719797
142	0xbe65100a	-0.223694
143	0x3e63d4e2	0.22249177
144	0x3e8f1ec3	0.27953157
145	0xbdbb18c4	-0.09135583
146	0x3cfd32f5	0.030908087
147	0xbdee14c7	-0.11625057
148	0x3de883b3	0.11353245
149	0xbd757ff1	-0.059936468
150	0xbe018978	-0.12650096
151	0x3c8677ae	0.01641449
152	0x3d940e71	0.07229317
153	0xbe4a42d4	-0.19752055
154	0x3d7b185b	0.061302524
155	0xbefe9fd8	-0.49731326
156	0xbe430d4d	-0.19048043
157	0xbe2edd84	-0.17076689
158	0x3e884c56	0.2662074
159	0xbe38a8c7	-0.18033133
160	0x3d1fbd4b	0.038998883
161	0xbe283d3b	-0.16429608
162	0xbe8ddce0	-0.27707577
163	0xbc5680a1	-0.013092191
164	0x3d2c7392	0.042102404
165	0x3d3caf68	0.046065718
166	0x3df7e867	0.12104874
167	0xbd339f1d	-0.043852914
168	0xbeae3af1	-0.34029344
169	0xbc4e2893	-0.012582916
170	0x3e5a44d3	0.21315317
171	0x3f061baa	0.5238596
172	0xbe6a7fea	-0.22900358
173	0xbc777a07	-0.015104777
174	0x3e98794a	0.29780036
175	0xbe254ba4	-0.16142136
176	0x3e3dd718	0.18539083
177	0xbf1b336a	-0.60625327
178	0xbe05bdf1	-0.13060738
179	0xbd91b700	-0.071149826
180	0xba50f938	-0.0007971707
181	0x3d18a72e	0.03726881
182	0xbe1b350b	-0.15156953
183	0xbf00f41b	-0.50372475
184	0xbd62f55c	-0.055409774
185	0xbccc8abf	-0.024968503
186	0xbde5e8f7	-0.11226075
187	0x3ecfc2a3	0.40578184
188	0xbdf19dda	-0.11797686
189	0x3e8474ec	0.25870454
190	0x3e1b7b16	0.15183672
191	0xbe2a8032	-0.16650465
192	0x3e81c7c3	0.2534772
193	0xbe72232f	-0.23646234
194	0xbe0f90b4	-0.14020044
195	0x3e357af8	0.1772269
196	0x3dbccaef	0.09218394
197	0xba3d788c	-0.0007227741
198	0xbede537e	-0.43423074
199	0xbdc1f845	-0.09471182
200	0x3e1e555b	0.15462248
201	0xbe468f79	-0.19390668
202	0x3e1343f3	0.1438139
203	0x3de28eaf	0.11062371
204	0xbe134c72	-0.1438463
205	0x3ec73b2a	0.38912326
206	0xbde8d480	-0.11368656
207	0xbe6264b3	-0.22108726
208	0x3d922150	0.0713526
209	0x3e5494c0	0.20759869
210	0xbc1a4ea2	-0.009418162
211	0x3eb256b7	0.34831783
212	0xbe3fc0c5	-0.1872588
213	0xbd33748f	-0.04381233
214	0x3e4f6e2e	0.20256874
215	0xbdd4d4e0	-0.10392165
216	0x3f194247	0.59866756
217	0xbe429e9a	-0.19005814
218	0x3dca0ba5	0.09865502
219	0xbeff9fc9	-0.49926594
220	0xbe82df83	-0.2556115
221	0xbc4e9708	-0.012609251
222	0xbd99ed6b	-0.07515987
223	0x3f0f53d5	0.5598729
224	0x3f094435	0.536197
225	0xbe217a0b	-0.15769212
226	0x3e351b75	0.17686255
227	0xbf08c260	-0.5342159
228	0xbe479cad	-0.19493361
229	0x3e90a98a	0.28254348
230	0xbe01d8e8	-0.126804
231	0x3e3d1f15	0.18468888
232	0x3ea7373b	0.32659325
233	0x3e11fc01	0.14256288
234	0x3e2e2567	0.17006455
235	0xbf46b934	-0.7762635
236	0xbeb00425	-0.34378162
237	0xbcefb3f5	-0.029260615
238	0x3ea6dc64	0.3259002
239	0x3d031504	0.032002464
240	0x3dcc7684	0.099835426
241	0x3e3e2753	0.18569688
242	0xbe02d02d	-0.12774725
243	0xbdee29ac	-0.11629042
244	0x3e2bf1eb	0.16791503
245	0xbda0a368	-0.07843667
246	0xbd1c8e21	-0.038221482
247	0x3e2c108a	0.16803184
248	0x3e4f703d	0.2025766
249	0x3e240f6d	0.1602151
250	0x3db4a656	0.088207886
251	0x3e2399b4	0.15976602
252	0x3cb1b4b6	0.021692615
253	0xbd0f446f	-0.034977373
254	0x3defb7a8	0.117049515
255	0x3e70f757	0.23531853

stu.hidden.0.mlp.swiglu.v.weight f4 [32, 8]
0	0x3f3fd8cf	0.749402
1	0x3e9a23b8	0.30105376
2	0x3ea9c242	0.3315602
3	0xbf0f660c	-0.56015086
4	0xbed23518	-0.41056132
5	0xbba0ce32	-0.004907393
6	0x3e625de9	0.22106136
7	0x3ee5e603	0.44902048
8	0x3e0522fb	0.13001625
9	0x3e6fb2bd	0.23408027
10	0xbee361f2	-0.44410664
11	0xbe6f81a1	-0.23389293
12	0xbedf2964	-0.43586266
13	0x3e1847c2	0.14871123
14	0xbc2d20c8	-0.010566898
15	0x3e96ad69	0.29429176
16	0x3eb56a8e	0.35432857
17	0x3d8aa05d	0.06768868
18	0xbe40d267	-0.18830262
19	0x3e84eec5	0.25963417
20	0x3f036227	0.51321644
21	0x3e0e3397	0.13886867
22	0x3e1852c1	0.14875318
23	0x3e6f299a	0.23355713
24	0x3dd967c8	0.10615498
25	0xbd28e678	-0.041235417
26	0xbdea06ce	-0.11427079
27	0x3d2be4f8	0.04196641
28	0x3daca94e	0.0843073
29	0xbd9e06c3	-0.077161334
30	0xbdc8c9b7	-0.09804099
31	0x3e80f448	0.25186372
32	0xbe9cc23e	-0.30616945
33	0xbd844597	-0.06458586
34	0x3d923611	0.071392186
35	0xbec8562f	-0.39128253
36	0xbf076b5a	-0.5289818
37	0xbebc1f78	-0.3674276
38	0xbe96b81f	-0.29437348
39	0x3d29dc54	0.041469887
40	0x3de569c8	0.11201817
41	0x3dbb2fd3	0.09139981
42	0x3b2647da	0.0025372417
43	0x3ed2b005	0.41149917
44	0x3dfe0591	0.124034055
45	0x3d942595	0.07233731
46	0xbe9db183	-0.30799493
47	0xbefea8cb	-0.49738154
48	0x3db67072	0.08908166
49	0x3e9a9bc5	0.30196968
50	0xbdabc5df	-0.0838735
51	0xbd6a7e82	-0.057249554
52	0xbe2c4899	-0.16824569
53	0xbdfabbcb	-0.1224285
54	0x3d362d68	0.044476897
55	0x3d7833cc	0.060596272
56	0xbe9fb1ac	-0.3119024
57	0xbdaac017	-0.083374195
58	0xbe051b8d	-0.12998791
59	0xbe69e4a0	-0.2284112
60	0xbd95a2fe	-0.07306479
61	0xbeb40609	-0.35160854
62	0x3e95122c	0.29115427
63	0xbdaf9323	-0.08572986
64	0x3e143d67	0.14476548
65	0xbd7a801f	-0.061157342
66	0x3dd454ce	0.10367738
67	0xbe627b7e	-0.22117421
68	0xbf2130d6	-0.6296514
69	0xbf0a903f	-0.5412635
70	0xbcbe9cc8	-0.023268119
71	0xbdf1d360	-0.11807895
72	0xbe906e48	-0.28209138
73	0x3dc94ed3	0.09829488
74	0x3d8682d6	0.06567924
75	0x3e93fde3	0.28904638
76	0x3f0a8653	0.5411121
77	0x3f1e91e1	0.61941344
78	0x3ec18142	0.37793928
79	0x3e593462	0.21211389
80	0xbe675c15	-0.2259372
81	0x3d50b412	0.05095298
82	0x3dc40781	0.09571744
83	0xbe6b9b8b	-0.23008554
84	0xbef09ed4	-0.46996176
85	0xbe108ba6	-0.14115772
86	0x3e553247	0.2081996
87	0x3f0f872a	0.5606562
88	0xbd255251	-0.040361706
89	0xbd44c081	-0.04803515
90	0x3d3f726f	0.04673999
91	0xbe202730	-0.15639949
92	0x3e3265d9	0.17421664
93	0x3eadb6d8	0.3392856
94	0x3e6e17fc	0.23251337
95	0x3dd45fba	0.10369821
96	0x3d159572	0.036519475
97	0xbdb65a81	-0.08903981
98	0x3dc160af	0.09442269
99	0x3d20b8c2	0.0392387
100	0xbe9dca60	-0.30818462
101	0xbdd5688b	-0.104203306
102	0xbdb05aeb	-0.08611091
103	0xbe51ee07	-0.20500956
104	0x3df040d3	0.11731114
105	0x3ded4bab	0.11586698
106	0xbe864655	-0.26225534
107	0xbe786ea8	-0.24260962
108	0xbdcc5f37	-0.09979098
109	0x3e178598	0.14797056
110	0xbe8483aa	-0.25881702
111	0x3da80f4c	0.08206043
112	0x3d81c173	0.06335726
113	0xbe967f95	-0.29394212
114	0x3d1897a8	0.037254006
115	0x3e26776c	0.16256493
116	0x3e74dbad	0.23911925
117	0x3db33dc4	0.08752015
118	0x3d33f761	0.04393709
119	0xbeec73bd	-0.4618205
120	0xbd1dc63f	-0.03851914
121	0xbe2917ae	-0.1651294
122	0xbeb4cd23	-0.35312757
123	0xbd1cb226	-0.038255833
124	0xbe33a643	-0.17543893
125	0xbda34244	-0.079716235
126	0x3d960fab	0.07327207
127	0xbd0838a7	-0.033257153
128	0xbd814c8c	-0.06313428
129	0xbe508e3d	-0.2036676
130	0x3e219735	0.15780337
131	0xbe5d9c2c	-0.21641606
132	0x3e3ca5a9	0.1842257
133	0xbddec4c6	-0.10877375
134	0xbdfef13e	-0.12448357
135	0xbe1f090e	-0.15530798
136	0xbddf469a	-0.10902138
137	0xbea3da11	-0.3200231
138	0x3d7d520f	0.061845835
139	0xbd84e1d8	-0.06488389
140	0x3e6fbbfe	0.23411557
141	0xbc378a83	-0.011202457
142	0x3e687ac7	0.22703086
143	0xbca17bf0	-0.019712418
144	0xbe027a27	-0.1274191
145	0x3e2cb020	0.16864061
146	0x3dcb2704	0.09919551
147	0xbd819e9f	-0.06329083
148	0xbe0f22c2	-0.13978103
149	0x3d1558cd	0.03646164
150	0x3dda9713	0.10673346
151	0x3c5ab4ee	0.013348801
152	0xbdb7a855	-0.08967654
153	0xbe435005	-0.19073494
154	0x3ee0eadf	0.43929192
155	0x3e4ddf80	0.2010479
156	0xbce0e6f0	-0.02745387
157	0xbdc5282e	-0.09626804
158	0xbdf73acb	-0.12071761
159	0x3beccff6	0.0072269393
160	0x3e00fa77	0.12595545
161	0xbe0da160	-0.13831091
162	0x3d146dd8	0.036237568
163	0x3d824a16	0.06361787
164	0xbdf23538	-0.11826557
165	0xbdbe094a	-0.092791155
166	0xbd1dcedf	-0.038527366
167	0xbe88dd33	-0.26731262
168	0xbda6a923	-0.08137729
169	0xbd3e9913	-0.0465327
170	0xbd038d10	-0.03211695
171	0x3ecbe3c5	0.39822212
172	0xbd044cbc	-0.032299742
173	0x3e37cb67	0.17948686
174	0x3e2f777b	0.17135422
175	0x3d80880e	0.0627595
176	0x3e23aa69	0.15982975
177	0xbe17a84a	-0.14810291
178	0xbe75473c	-0.23952955
179	0x3e21ece4	0.15813023
180	0xbe12a624	-0.1432119
181	0xbc87ff12	-0.01660112
182	0xbd504443	-0.05084635
183	0xbf159426	-0.5842918
184	0xbcd21840	-0.025646329
185	0x3db17987	0.086657576
186	0x3e369792	0.17831257
187	0xbe878d92	-0.26475197
188	0x3e4cba46	0.19992933
189	0xbd661c69	-0.056179438
190	0x3deab447	0.114601664
191	0xbd83de30	-0.06438863
192	0xbe899f96	-0.26879567
193	0x3e6ee7ed	0.2333066
194	0x3e562f84	0.20916563
195	0xbe19928e	-0.14997312
196	0xbe3cfb3c	-0.18455213
197	0xbc1cefc7	-0.009578652
198	0x3e78d67d	0.24300571
199	0x3c81fc4b	0.015867373
200	0x3e518a70	0.20462966
201	0xbd8ff133	-0.07028427
202	0xbedaa191	-0.4270139
203	0x3e2a8110	0.16650796
204	0xbd9c7aa1	-0.07640577
205	0xbda5d911	-0.08098043
206	0xbe6d6709	-0.23183836
207	0xbe7e1ea9	-0.24816383
208	0xbe589179	-0.21149243
209	0xbe8c6fcc	-0.27429044
210	0x3cab5e5e	0.020919021
211	0x3de0c2aa	0.10974629
212	0x3d66a6b8	0.05631134
213	0x3d9b01eb	0.07568725
214	0xbed8b9e5	-0.42329326
215	0xbc1e7610	-0.009671703
216	0xbdb17d67	-0.08666497
217	0x3f5e1c95	0.8676236
218	0xbe05a77e	-0.13052174
219	0x3dc8bbb9	0.0980143
220	0xbe827f9b	-0.2548798
221	0x3e0e0055	0.13867314
222	0x3e0eb805	0.13937385
223	0x3e086f2f	0.13323663
224	0x3d7f9f9d	0.06240808
225	0x3f01ff1e	0.507799
226	0xbe018a79	-0.1265048
227	0xbd09a586	-0.03360512
228	0xbdff5efc	-0.12469289
229	0xbe0bb631	-0.1364372
230	0x3e2c4a1d	0.16825147
231	0x3e1da699	0.15395583
232	0x3e33375a	0.17501584
233	0x3df6b963	0.120470785
234	0x3d7096b9	0.05873749
235	0xbedf4741	-0.4360905
236	0x3cd63b06	0.026151191
237	0x3e5543b7	0.20826612
238	0x3ed59f6e	0.41723198
239	0x3f291745	0.6605113
240	0xbb2a70aa	-0.0026007094
241	0xbdfdd7b0	-0.12394655
242	0xbcb5fa5d	-0.02221411
243	0xbd881dbb	-0.06646296
244	0xbd9f8a8e	-0.07790099
245	0xbe130b43	-0.14359765
246	0x3dc08b80	0.094016075
247	0x3d910534	0.070810705
248	0xbb3f16f3	-0.0029157966
249	0xbe1229ea	-0.14273801
250	0x3e793211	0.24335505
251	0xbd1ae345	-0.037814397
252	0xbd3c5943	-0.045983564
253	0x3e57fbe0	0.21092176
254	0x3cb4f332	0.02208862
255	0xbe2a78c5	-0.16647632

stu.hidden.0.mlp.swiglu.w2.weight f4 [8, 32]
0	0x3f8b6968	1.0891542
1	0x3e9717e1	0.29510406
2	0xbe1cf683	-0.15328412
3	0x3e4eb8ea	0.20187727
4	0xbe8be5d3	-0.2732378
5	0xbd52131b	-0.05128775
6	0xbd8b4336	-0.06799929
7	0xbdb33fce	-0.08752404
8	0xbee90199	-0.4550903
9	0xbd47e4c9	-0.04880217
10	0x3d3bf869	0.0458912
11	0xbe500d95	-0.20317681
12	0x3c8773be	0.016534682
13	0x3e1025e4	0.14076954
14	0x3cfafbca	0.03063764
15	0x3e12ea4e	0.14347193
16	0x3e2bdf20	0.16784334
17	0xbdec5751	-0.11540092
18	0xbd175a46	-0.036951326
19	0xbe27bf24	-0.16381508
20	0xbe0a464a	-0.13503376
21	0x3e88eb2b	0.2674192
22	0xbddd84e9	-0.10816366
23	0xbd68c867	-0.056831744
24	0x3e57cbb6	0.21073803
25	0xbe0c47a9	-0.13699211
26	0x3e5f2d9f	0.21794747
27	0x3e5305ee	0.20607731
28	0x3eafc68e	0.34331173
29	0x3f1c4ac5	0.6105159
30	0x3c4022e6	0.01172707
31	0x3e44ba88	0.19211781
32	0x3d8f5b20	0.069998026
33	0x3ee7792a	0.45209628
34	0x3e2fd037	0.17169271
35	0x3e908c3b	0.28231987
36	0xbeaf9d36	-0.3429963
37	0x3e619140	0.22028065
38	0x3e0fff17	0.14062153
39	0xbd8c549d	-0.06852076
40	0x3f0785f7	0.5293879
41	0xbe0ff546	-0.14058408
42	0xbea265a8	-0.31718183
43	0x3de38b34	0.11110535
44	0x3e1c7666	0.1527954
45	0xbd7689e0	-0.06019008
46	0x3e13b043	0.14422707
47	0x3e82b9b8	0.25532317
48	0x3e01155c	0.12605804
49	0xbe478348	-0.19483674
50	0xbe40fbe4	-0.18846089
51	0x3e987129	0.29773834
52	0x3e5b1f81	0.21398737
53	0xbe0af7af	-0.13571046
54	0x3f0ec28c	0.55765605
55	0x3db8ccc3	0.0902343
56	0xbebd63a4	-0.36990082
57	0x3e8f03f3	0.279327
58	0xbe6192ae	-0.2202861
59	0xbe315e7d	-0.173212
60	0xbe7c2640	-0.24623966
61	0x3eeb1ba9	0.4591954
62	0xbe2b2f94	-0.16717368
63	0xbe075fd6	-0.13220152
64	0x3dc2139f	0.09476399
65	0x3ef3750b	0.47550234
66	0x3f0ff912	0.56239426
67	0xbe370750	-0.17873883
68	0xbef4b79b	-0.4779633
69	0x3d80d617	0.062908344
70	0x3dda5c16	0.10662095
71	0x3e30d846	0.17270002
72	0xbd9dfa34	-0.07713738
73	0x3f4fd0e4	0.81178117
74	0xbe203b74	-0.1564768
75	0x3e45f220	0.19330645
76	0xbe6a39d0	-0.22873616
77	0xbde91926	-0.1138175
78	0xbcb5c038	-0.022186384
79	0xbd9d1215	-0.076694645
80	0x3b3312df	0.002732448
81	0xbe60be3f	-0.21947573
82	0x3d016c20	0.031597257
83	0x3e41c0bf	0.18921183
84	0xbe154caf	-0.14580034
85	0x3cf52616	0.029925387
86	0x3e0af4d1	0.13569953
87	0xbdffcdc1	-0.12490416
88	0x3cc3901d	0.02387243
89	0x3d9849da	0.07435961
90	0x3d4a2b8f	0.049357947
91	0x3e911fcf	0.2834458
92	0xbce7f5f0	-0.028315514
93	0xbe55d8ef	-0.20883535
94	0x3d30ef3f	0.043196913
95	0xbdeb9658	-0.11503285
96	0x3cad75c6	0.021174323
97	0xbc0fca89	-0.0087763155
98	0x3e7bf614	0.2460559
99	0x3c8ff1c6	0.017571341
100	0xbdf96c24	-0.12178829
101	0xbe0c51bc	-0.13703054
102	0x3e0c4f2b	0.13702075
103	0xbd33293f	-0.043740507
104	0xbe75c3cd	-0.24000473
105	0x3e1ebc4e	0.1550152
106	0xbd2b319a	-0.04179535
107	0xbdd87799	-0.105696864
108	0xbe2dcc94	-0.16972572
109	0xbe609d55	-0.21935017
110	0xbe3ceb84	-0.18449217
111	0x3d4d9dd4	0.050199345
112	0xbde739bc	-0.11290309
113	0xbd860be5	-0.065452375
114	0xbe0aaf9a	-0.13543549
115	0x3e907338	0.28212905
116	0xbd21a736	-0.039466105
117	0xbc781a40	-0.015142977
118	0x3db62b7a	0.08895011
119	0x3dcf42dc	0.10120174
120	0xbcf4d27c	-0.029885523
121	0xbe1be956	-0.1522573
122	0xbec87e5c	-0.39158905
123	0xbe9aab42	-0.30208784
124	0xbe9dd2e0	-0.30824947
125	0xbdc9bed4	-0.09850851
126	0xbe09037e	-0.13380238
127	0x3c31c69c	0.010850575
128	0xbe38ebbc	-0.18058676
129	0x3e759fc7	0.23986731
130	0x3ddefc27	0.10887938
131	0x3d16a4ec	0.036778376
132	0x3eceb3b8	0.4037149
133	0x3b836d12	0.004010805
134	0xbcf9d960	-0.03049916
135	0x3ebc3623	0.36760053
136	0x3ddb087e	0.10694979
137	0xbc6f9a69	-0.014624217
138	0xbe702b14	-0.23453933
139	0x3d0ca6c5	0.03433873
140	0x3e4c541c	0.1995396
141	0x3e523aa0	0.20530176
142	0xbe7bd336	-0.2459229
143	0x3ecd098e	0.40046352
144	0x3da917ec	0.08256516
145	0xbe3fdedd	-0.1873736
146	0x3ca86edd	0.020560676
147	0xbe5249fb	-0.20536034
148	0x3debee71	0.115200885
149	0x3ed76b38	0.4207399
150	0x3e33cf6f	0.17559598
151	0xbe263993	-0.162329
152	0xbc93735e	-0.017999347
153	0x3e2f1336	0.17097172
154	0xbcfb23e8	-0.03065677
155	0xbdc8dd61	-0.0980785
156	0x3d18af45	0.037276525
157	0x3d463b48	0.04839638
158	0x3d7542e6	0.059878252
159	0x3b383308	0.002810659
160	0x3e1d1ff7	0.15344225
161	0xbe926028	-0.28588986
162	0xbed17365	-0.40908352
163	0x3d8411e9	0.064487286
164	0x3ec18714	0.3779837
165	0x3e511a85	0.20420273
166	0x3d2cb03b	0.042160254
167	0x3e62f2f7	0.22162996
168	0x3eab7117	0.33484718
169	0xbd87df96	-0.066344425
170	0xbd5db4c0	-0.054127455
171	0xbdf7eff1	-0.12106312
172	0xbe5e5215	-0.21711
173	0xbe512447	-0.20423995
174	0xbe0b925b	-0.13630049
175	0x3d1da848	0.038490564
176	0x3c78673e	0.015161334
177	0x3c561785	0.013067131
178	0x3d80f561	0.06296802
179	0x3e2d2921	0.1691022
180	0xbd388e03	-0.045057308
181	0xbdd4f729	-0.103987046
182	0x3e6aa8e0	0.22915983
183	0xbb8ffde6	-0.0043942807
184	0x3d80ce6c	0.06289372
185	0x3e046ed7	0.12932907
186	0x3e889f07	0.26683828
187	0x3d9b7e42	0.07592441
188	0x3d5221b9	0.05130169
189	0x3df4c207	0.1195107
190	0xbc49ee60	-0.012324899
191	0xbc85f9d1	-0.016354473
192	0x3d4b9a3a	0.04970763
193	0xbe3053be	-0.17219445
194	0xbed98e46	-0.4249136
195	0xbe23b8fe	-0.15988538
196	0x3ec46ba4	0.38363373
197	0x3f0a619d	0.54055196
198	0x3ea0171b	0.31267628
199	0xbe2f945e	-0.17146441
200	0x3ef7d1ad	0.48402157
201	0xbe8bd461	-0.2731047
202	0xbf246605	-0.6421817
203	0xbe82125e	-0.25404638
204	0xbdb295d8	-0.08719987
205	0xbde17fe8	-0.11010724
206	0xbdf36e6c	-0.11886296
207	0xbecc8c99	-0.39951017
208	0x3e9540a0	0.29150867
209	0x3df1b86c	0.11802754
210	0xbe2b3103	-0.16717915
211	0xbe0e29a5	-0.13883074
212	0xbd449d1f	-0.048001405
213	0xbe207578	-0.15669811
214	0x3c327650	0.010892466
215	0xbdaeceaf	-0.085355155
216	0xbede4e0b	-0.43418917
217	0x3d80a086	0.062806174
218	0xbe83e9e3	-0.2576438
219	0x3e1add7f	0.15123557
220	0xbea4af0d	-0.32164803
221	0x3e6d05d8	0.2314676
222	0x3e7a58f8	0.24448001
223	0xbcb61988	-0.022228971
224	0x3ef76ced	0.4832529
225	0x3f02885d	0.50989324
226	0x3b932589	0.0044905585
227	0xbcff7406	-0.031183254
228	0xbe2194c6	-0.15779409
229	0x3ee3ceac	0.44493616
230	0x3d50441c	0.050846204
231	0x3e41be73	0.18920307
232	0x3ec55de2	0.3854819
233	0x3e606374	0.21912938
234	0xbe9531d6	-0.29139584
235	0xbe09df2d	-0.13464041
236	0x3cf98c8c	0.030462526
237	0x3e180340	0.1484499
238	0x3e9043de	0.2817678
239	0x3c5e8097	0.013580463
240	0x3d10c723	0.03534616
241	0xbd055cfd	-0.032559384
242	0x3d8214dd	0.063516356
243	0x3d513004	0.051071182
244	0x3db56fff	0.08859252
245	0x3b790a49	0.0038000515
246	0x3ee6f1a5	0.45106235
247	0xbdc69730	-0.096968055
248	0xbdce687e	-0.10078524
249	0x3e4b2a93	0.1984046
250	0x3d4597b5	0.048240382
251	0x3eb5708a	0.35437423
252	0x3d6af78f	0.057364997
253	0x3eaa84d7	0.33304474
254	0xbcd9957b	-0.026560536
255	0xbdc258fd	-0.094896294

stu.hidden.1.rn_1.weight f4 [8]
0	0x3f1e98bc	0.61951804
1	0x3f65317b	0.89528626
2	0x3f1f2230	0.6216154
3	0x3ec462c1	0.38356593
4	0x3f0465a5	0.517176
5	0x3f2b23b5	0.6685136
6	0x3f665e4e	0.8998765
7	0x3f6a5f19	0.9155136

stu.hidden.1.stu.M_u f4 [8, 3, 8]
0	0xbea2b178	-0.31776023
1	0x3bcbc4cf	0.00621853
2	0x3e7d79dc	0.24753517
3	0x3e095048	0.13409531
4	0xbc8f0f04	-0.017463215
5	0x3e3a932c	0.18220204
6	0x3d552b45	0.05204322
7	0xbc9df648	-0.019282475
8	0xbe9185c9	-0.28422382
9	0x3e3001f7	0.1718825
10	0x3e22ec1f	0.15910386
11	0xbcb3eb3a	-0.02196275
12	0xbe228a54	-0.1587308
13	0x3de52290	0.11188233
14	0xbc9c5bab	-0.01908668
15	0xbda85a37	-0.08220332
16	0xbeb1a3af	-0.34695193
17	0x3dc76f6d	0.0973805
18	0xbe79c888	-0.24392903
19	0x3daf7586	0.08567338
20	0x3d45e070	0.048309743
21	0xbe2ce854	-0.16885501
22	0x3e131f29	0.14367355
23	0x3d685e20	0.05673039
24	0x3d331973	0.043725442
25	0xbf392c80	-0.72333527
26	0xbc374bf5	-0.011187543
27	0x3d874124	0.066042215
28	0xbb9b172e	-0.004732988
29	0x3d69540e	0.056964926
30	0x3d80d1e8	0.062900364
31	0xbdaaccc0	-0.08339834
32	0x3dc6a2cb	0.09699019
33	0xbe13a916	-0.1441997
34	0x3e17b8d4	0.148166
35	0xbdab7f8a	-0.083739355
36	0x3d6f120c	0.05836682
37	0x3e858c4f	0.2608361
38	0xbdbbae44	-0.09164098
39	0xbe02214c	-0.12708014
40	0x3de89602	0.11356737
41	0xbe2ef2d3	-0.17084818
42	0x3e24d071	0.16095139
43	0xbc8ae234	-0.016953565
44	0xbd09edbc	-0.033673987
45	0xbd10bb3c	-0.03533481
46	0x3d758da9	0.05994955
47	0x3daa8d16	0.08327691
48	0xbd98223e	-0.07428406
49	0xbdea6846	-0.1144567
50	0xbecfe33b	-0.4060305
51	0xbe4b57ba	-0.19857684
52	0xbe146a9e	-0.14493796
53	0x3e606e9a	0.21917191
54	0x3d0f2b4e	0.034953408
55	0x3c7bd0bd	0.015369591
56	0xbceb8cbc	-0.02875363
57	0x3d1ac02d	0.03778093
58	0xbe6b51eb	-0.22980468
59	0xbcc0930b	-0.023507616
60	0x3d51e308	0.051241904
61	0xbdf22809	-0.11824042
62	0x3e1352e8	0.14387095
63	0xbbd4f456	-0.0064988537
64	0x3e131140	0.14362049
65	0x3e643e29	0.22289337
66	0xbe298386	-0.16554078
67	0xbcc88e9d	-0.024482066
68	0xbde188f9	-0.110124536
69	0xbdcfab04	-0.101400405
70	0xbe0671b4	-0.13129312
71	0xbe354a42	-0.17704108
72	0x3dc13a71	0.09434975
73	0xbd8d7f20	-0.06909013
74	0x3d4e5368	0.05037251
75	0xbd89054a	-0.06690462
76	0x3d8621bf	0.06549405
77	0xbd2fe35a	-0.04294143
78	0xbd6b82f9	-0.057497952
79	0x3ea6e4ac	0.32596338
80	0x3e99cdfb	0.30039963
81	0xbe3dabd3	-0.18522577
82	0x3e6669aa	0.22501245
83	0x3df5d96d	0.12004361
84	0xbc46b640	-0.012128413
85	0xbd5cd0c6	-0.05391004
86	0xbe13a678	-0.14418972
87	0x3b84b8b2	0.0040503377
88	0x3e5f83bd	0.21827598
89	0xbe729292	-0.23688725
90	0x3ea6b2a6	0.32558173
91	0xbd741cd6	-0.059597813
92	0xbe31c683	-0.17360882
93	0x3e0e6674	0.1390627
94	0x3da70abd	0.08156345
95	0x3ea15237	0.31508037
96	0xbe8945c3	-0.26811036
97	0xbdf37d45	-0.11889128
98	0xbc7af22d	-0.015316528
99	0xbe0f8ace	-0.14017794
100	0xbeab8518	-0.3349998
101	0x3e4c6cfc	0.19963449
102	0xbdbef5fb	-0.09324261
103	0xbe708b52	-0.23490646
104	0xbe6b8f2a	-0.23003832
105	0x3e4b4f7b	0.19854538
106	0xbe10f064	-0.14154202
107	0x3bb48e25	0.005510109
108	0xbd30fcd3	-0.043209862
109	0xbdb4cb9f	-0.088279
110	0xbd0810f4	-0.033219293
111	0x3dc66950	0.096880555
112	0xbe2b8db2	-0.16753271
113	0x3ea74604	0.32670605
114	0x3d209dc4	0.039212957
115	0x3e7b8512	0.24562481
116	0xbe5bdd96	-0.21471247
117	0x3dd7568c	0.105145544
118	0xbd9a92f8	-0.07547563
119	0xbde900d9	-0.11377115
120	0xbcc3bc46	-0.023893487
121	0xbce92d64	-0.028464027
122	0xbe787a12	-0.24265316
123	0x3e9897fd	0.29803458
124	0x3e3f9cec	0.18712205
125	0xbee08e30	-0.4385848
126	0x3dc656a8	0.09684497
127	0xbd387bda	-0.04503999
128	0xbe0cc47c	-0.13746828
129	0xbce0783c	-0.027401082
130	0x3ea98570	0.33109617
131	0xbd8b6525	-0.06806401
132	0x3d57fb59	0.05272994
133	0xbec2d9d2	-0.3805681
134	0xbd7018cf	-0.05861741
135	0xbcce4848	-0.02518095
136	0x3e2b5d42	0.16734794
137	0x3d97b1d2	0.074069634
138	0x3e262ae3	0.16227297
139	0x3e1deecb	0.15423124
140	0x3c929bb8	0.017896518
141	0xbdeebbc1	-0.11656905
142	0x3e0a4ab9	0.13505067
143	0x3a9c6580	0.0011932105
144	0x3dd9575c	0.106123656
145	0xbe8e42c5	-0.27785316
146	0x3e5f48df	0.21805142
147	0x3e55aa11	0.20865656
148	0xbd9c6791	-0.07636941
149	0x3d995f5f	0.07488894
150	0xbf17c148	-0.592793
151	0x3e6ef7fd	0.23336788
152	0x3dfdb300	0.12387657
153	0x3e3d9f86	0.18517885
154	0xbd26d04f	-0.040726002
155	0xbde83df5	-0.11339942
156	0x3e61cf97	0.22051845
157	0x399aa8d9	0.0002949897
158	0xbe2b0aae	-0.16703293
159	0x3d0c5970	0.03426498
160	0xbcf368cc	-0.029713057
161	0xbdee78cd	-0.11644135
162	0xbe46cd50	-0.19414258
163	0x3c02e65a	0.00798949
164	0xbddbdfbb	-0.107360326
165	0xbc8b14ee	-0.016977753
166	0xbdd63168	-0.10458642
167	0x3bbb3b6b	0.0057138703
168	0x3e8936af	0.26799533
169	0xbe120c4f	-0.14262508
170	0x3d7d962b	0.06191079
171	0x3dcf23b8	0.10114235
172	0xbd8cdbe9	-0.06877882
173	0x3e2fd1e7	0.17169915
174	0x3d6c9546	0.057759546
175	0xbf18e0c9	-0.59717995
176	0xbd8760ae	-0.06610237
177	0x3e3debde	0.18547007
178	0x3e14bbd5	0.14524777
179	0x3daef573	0.085429095
180	0x3d5ccace	0.053904347
181	0x3e702541	0.23451711
182	0x3cfeb1fd	0.03109073
183	0xbeacde41	-0.33763316
184	0x3cb71bc1	0.022352101
185	0x3e3662d3	0.17811136
186	0x3e47495b	0.19461577
187	0xbebbec0a	-0.3670352
188	0x3c864d44	0.016394265
189	0x3e15b8c8	0.1462127
190	0xbde1e390	-0.11029732
191	0xbe8701cc	-0.26368558
