checkpoints/sssm-Walker2D-v1-model_step-875-2024-11-18-16-25-27.pt (torch, 34490 bytes, 18 tensors)

emb.weight f4 [8, 24]
-0.49703923 0.24872889 0.36516264 0.33450967 0.25307313 -0.03354673 -0.0037421999 0.10044998
0.10912095 -0.1460778 -0.07178889 0.10829875 -0.023870185 -0.09884238 -0.1302867 -0.013719073
-0.06253101 -0.018666636 -0.016988467 0.17294149 0.11435216 -0.007886735 0.13753557 0.14512317
0.14583987 -0.20611365 -0.18167104 0.45431367 0.35168964 -0.10561049 -0.05682173 0.14815497
0.44487515 0.27620822 -0.30940798 -0.04146211 0.030087147 -0.18881333 -0.10030805 -0.077850275
-0.042747304 -0.52786547 0.16374353 0.111407876 0.040555634 0.0043640872 0.11224424 -0.039356627
0.12727295 0.091334924 -0.13347878 -0.007558399 -0.32046017 -0.123418614 0.07215693 -0.2506865
-0.20322515 -0.3203949 0.38267532 -0.27263612 -0.012775399 0.3408139 0.03021691 0.1922603
0.1311218 -0.28951445 0.018664135 -0.14719264 0.1731503 0.0034429417 -0.123079404 0.060608115
-0.078337155 -0.27501842 -0.06623551 0.18023616 0.031017842 0.2592579 0.13184856 -0.2847357
-0.00015156239 0.13207687 -0.42287874 -0.05369277 0.35088924 0.22609991 -0.2670499 0.17647378
0.19949476 -0.12717843 0.34952107 -0.2571318 0.25501543 -0.046887316 0.15786505 0.029687412
-0.111756265 0.21903345 -0.09225851 -0.067904696 -0.101612374 0.058325805 -0.13347553 -0.017586658
0.010520547 0.13953948 -0.4239904 0.19898228 -0.051300667 0.138358 0.19470812 -0.028837554
0.0033228097 0.53996265 -0.07979015 0.07377616 0.2084332 -0.03425369 0.20753092 0.2178547
0.19061294 0.25621378 0.41019687 -0.122089185 0.18552838 0.25899982 0.17852494 -0.0029691253
-0.11439786 0.12197848 0.106224544 0.059582155 -0.048672166 0.14179434 -0.35678315 0.1299849
0.10203076 -0.014236338 -0.11969765 0.11922808 0.02503326 -0.0035960397 0.102239706 -0.098529294
0.400477 0.1412498 0.051239043 0.10045289 0.042114597 -0.3412282 -0.05013125 -0.20920177
-0.19101949 -0.30511665 0.27348605 -0.17410885 -0.08768495 0.03386954 0.3792205 0.003973949
0.026240857 -0.06247374 -0.112462044 -0.013963448 0.30758503 -0.031247513 -0.026256537 -0.0667392
-0.3052207 0.30236405 -0.20897734 -0.30665597 0.49013016 0.10247689 0.18525316 0.26033017
0.066162005 0.2426999 -0.06982826 -0.03559598 -0.25090632 -0.04738337 -0.32661214 0.12782581
-0.06240045 -0.611035 -0.55058664 0.3762511 -0.15054183 -0.015003408 0.2424018 -0.356664
00000000: ed7b febe c9b2 7e3e 99f6 ba3e da44 ab3e
00000010: cd92 813e 4c68 09bd b23f 75bb b8b8 cd3d
00000020: ce7a df3d 6b95 15be 0e06 93bd bccb dd3d
00000030: 688b c3bc e06d cabd e069 05be f6c5 60bc
00000040: 4210 80bd c6ea 98bc 662b 8bbc 9317 313e
00000050: 7731 ea3d 5d37 01bc 20d6 0c3e 2b9b 143e
00000060: 0c57 153e 750f 53be f907 3abe cd9b e83e
00000070: aa10 b43e 504a d8bd e7bd 68bd f0b5 173e
00000080: adc6 e33e 2a6b 8d3e b96a 9ebe 2cd4 29bd
00000090: 5279 f63c 4858 41be 4f6e cdbd f76f 9fbd
000000a0: cc17 2fbd 3122 07bf 62ac 273e d029 e43d
000000b0: aa1d 263d 9e00 8f3b 4fe0 e53d 6a34 21bd
000000c0: d753 023e ce0d bb3d a9ae 08be 72ac f7bb
000000d0: 5b13 a4be e6c2 fcbd 03c7 933d fb59 80be
000000e0: 411a 50be cd0a a4be 05ee c33e f696 8bbe
000000f0: e84f 51bc 297f ae3e 7489 f73c e2df 443e
00000100: cb44 063e 3d3b 94be 87e5 983c abb9 16be
00000110: 504e 313e faa2 613b 0e11 fcbd 3740 783d
00000120: 3b6f a0bd 37cf 8cbe 7ca6 87bd d48f 383e
00000130: 2119 fe3c 74bd 843e 4f03 073e e1c8 91be
00000140: b8ec 1eb9 293f 073e 9083 d8be f3ec 5bbd
00000150: c1a7 b33e bc86 673e c4ba 88be 8bb5 343e
00000160: 5b48 4c3e 103b 02be 6df4 b23e c7a6 83be
00000170: 6291 823e ea0c 40bd 60a7 213e 0433 f33c
00000180: 78e0 e4bd 4e4a 603e 08f2 bcbd 9e11 8bbd
00000190: 261a d0bd 0ae7 6e3d cfad 08be e511 90bc
000001a0: 5f5e 2c3c 70e3 0e3e 4515 d9be 03c2 4b3e
000001b0: a620 52bd b8ad 0d3e 9161 473e bc3c ecbc
000001c0: 7fc3 593b fe3a 0a3f 0569 a3bd f517 973d
000001d0: 836f 553e 994d 0cbd fc82 543e 4d15 5f3e
000001e0: 0a30 433e 742e 833e 5305 d23e e509 fabd
000001f0: 27fb 3d3e a09b 843e 3ecf 363e a895 42bb
00000200: 6d49 eabd dacf f93d 418c d93d 6b0c 743d
00000210: 775c 47bd 8932 113e 48ac b6be c31a 053e
00000220: 81f5 d03d 883f 69bc 0b24 f5bd da2d f43d
00000230: 8d12 cd3c 89ab 6bbb 0d63 d13d bac9 c9bd
00000240: 520b cd3e caa3 103e 08e0 513d 3fba cd3d
00000250: 5b80 2c3d 76b5 aebe 6d56 4dbd fd38 56be
00000260: 9d9a 43be 4038 9cbe 5d06 8c3e 9749 32be
00000270: 2b94 b3bd c9ba 0a3d 3029 c23e e637 823b
00000280: 11f7 d63c 77e4 7fbd 8052 e6bd f2c6 64bc
00000290: c97b 9d3e c9fa ffbc f317 d7bc 90ae 88bd
000002a0: e345 9cbe 76cf 9a3e 28fe 55be 0302 9dbe
000002b0: 57f2 fa3e 67df d13d 01b3 3d3e ff49 853e
000002c0: f27f 873d 5386 783e 1e02 8fbd 17cd 11bd
000002d0: cb76 80be 1115 42bd b539 a7be c5e4 023e
000002e0: 9d97 7fbd ca6c 1cbf 3ff3 0cbf fca3 c03e
000002f0: a327 1abe dbd0 75bc 2d38 783e aa9c b6be

stu.hidden.0.rn_1.weight f4 [8]
0.7452995 0.8827881 0.7745773 0.8156155 0.819234 0.9317008 0.3474941 0.6879763
00000000: f3cb 3e3f 67fe 613f b34a 463f 2dcc 503f
00000010: 52b9 513f f283 6e3f bfea b13e 371f 303f

stu.hidden.0.stu.M_u f4 [8, 3, 8]
-0.43699035 -0.15219319 0.0029671558 0.16817757 0.24464333 -0.35929823 -0.04989789 -0.025340049
-0.441578 0.1790617 0.05607346 0.14022133 0.090550326 0.10433816 0.002839487 -0.278685
-0.33492997 0.094705895 -0.023647828 -0.16635305 0.023115175 -0.24521545 -0.13789505 0.09814546
0.04192552 -0.65234923 -0.008213635 -0.24436934 0.29591602 -0.23408085 0.15425037 0.07594582
0.011216636 -0.39242107 0.028153514 -0.036071137 -0.17397183 0.055918075 0.3666121 -0.0958334
-0.019333355 -0.3151976 0.06447548 0.054458022 0.017522464 -0.03167947 -0.038202554 -0.07025891
0.04171549 -0.080041096 -0.087807305 -0.2309529 0.04857839 -0.17342448 -0.07684691 -0.0551512
0.06484844 0.11704929 -0.15120894 0.037693147 0.08189692 -0.1470596 -0.077074334 -0.11894036
0.058331393 0.25004265 -0.11636168 0.032563508 0.046296705 0.00922183 0.02625921 0.10812569
-0.07511124 0.18301676 -0.2085774 -0.9643799 -0.29663736 -0.23609667 -0.011555108 0.053551305
-0.15927625 -0.03724833 0.01253991 -0.19490351 0.01911814 -0.036248155 -0.04185059 0.1487917
0.014256055 0.22575785 0.124039724 0.15414847 -0.17253514 0.01971898 -0.07064745 -0.0013841406
0.13295968 0.065571144 0.096983045 -0.015126292 -0.2971122 -0.2543991 0.22378351 0.02772753
0.24705556 0.08297664 -0.021616612 0.26770362 0.037620615 -0.10781986 -0.054293085 -0.0058058286
0.25156975 -0.17107883 0.13581389 0.046294663 -0.11255606 -0.3229842 0.038101383 -0.08087697
-0.13365263 -0.21627454 -0.041861143 0.2120865 -0.07620079 -0.022654539 -0.0077187186 0.011225467
0.012968609 -0.04992973 -0.1103896 -0.028540911 0.11451356 -0.23632573 -0.13619335 -0.19867413
-0.0072753 0.06820138 -0.15944871 0.15549111 0.20301287 0.057087924 -0.18475266 0.15367536
0.12098617 -0.28497216 -0.14231789 0.09310835 0.16358955 -0.29267687 -0.21082102 -0.07572864
0.025184007 -0.2153851 0.12367997 -0.035124976 0.15879804 -0.04764157 -0.3101666 0.108723864
-0.06438865 -0.21109334 0.20481306 0.0981483 0.017042251 -0.036762 -0.5893144 -0.24351421
-0.009424409 0.030890185 0.00017846076 -0.011466038 0.06829517 -0.19578286 0.009648127 -0.54347485
0.1314393 0.026310202 -0.11545754 0.056275744 0.12160007 -0.16328093 -0.021434948 -0.27295455
0.058797304 0.23162866 0.057118054 0.0742155 0.10786111 -0.20274772 0.16602196 -0.09392177
00000000: 33bd dfbe 88d8 1bbe 9d74 423b be36 2c3e
00000010: c883 7a3e f0f5 b7be bb61 4cbd ef95 cfbc
00000020: 8316 e2be f35b 373e 49ad 653d 2e96 0f3e
00000030: 7372 b93d 3faf d53d b016 3a3b cdaf 8ebe
00000040: f17b abbe 2af5 c13d 17b9 c1bc 7458 2abe
00000050: 095c bd3c c219 7bbe 5c34 0dbe 7d00 c93d
00000060: 18ba 2b3d 5c00 27bf 7b92 06bc f53b 7abe
00000070: 4e82 973e e4b2 6fbe cff3 1d3e 7b89 9b3d
00000080: fbc5 373c 6aeb c8be 33a2 e63c 54bf 13bd
00000090: ac25 32be 5a0a 653d 95b4 bb3e 4d44 c4bd
000000a0: fc60 9ebc 9461 a1be b80b 843d 600f 5f3d
000000b0: 458b 8f3c 55c2 01bd 487a 1cbd e7e3 8fbd
000000c0: dddd 2a3d 96ec a3bd 51d4 b3bd eb7e 6cbe
000000d0: 22fa 463d 3096 31be ea61 9dbd 3ae6 61bd
000000e0: 42cf 843d 8ab7 ef3d 84d6 1abe 2164 1a3d
000000f0: 93b9 a73d cb96 16be 26d9 9dbd 0197 f3bd
00000100: e6ec 6e3d 9705 803e 084f eebd 5061 053d
00000110: 9da1 3d3d 2917 173c 8e1d d73c 0071 dd3d
00000120: ecd3 99bd bf68 3b3e 5095 55be 9ae1 76bf
00000130: dae0 97be 53c3 71be a351 3dbc 9d58 5b3d
00000140: 5019 23be b491 18bd 3274 4d3c c994 47be
00000150: a59d 9c3c f278 14bd 866b 2bbd da5c 183e
00000160: 3a92 693c 112d 673e 8a08 fe3d 19d9 1d3e
00000170: 0dad 30be b389 a13c 9caf 90bd 0d6c b5ba
00000180: 9526 083e 2a4a 863d 0c9f c63d 44d4 77bc
00000190: 171f 98be 9940 82be 8127 653e d824 e33c
000001a0: 22fc 7c3e a8ef a93d 5215 b1bc 7310 893e
000001b0: 1318 1a3d a9d0 dcbd 6d62 5ebd d23e bebb
000001c0: c0cd 803e 4a2f 2fbe cc12 0b3e 799f 3d3d
000001d0: cb83 e6bd 2f5e a5be 3210 1c3d d3a2 a5bd
000001e0: 3cdc 08be 1377 5dbe 9776 2bbd 342d 593e
000001f0: 290f 9cbd 0396 b9bc 4eed fcbb 05eb 373c
00000200: 4a7a 543c 1e83 4cbd f113 e2bd a1ce e9bc
00000210: 1686 ea3d 5fff 71be 4576 0bbe 3b71 4bbe
00000220: a465 eebb 2aad 8b3d 8646 23be 1039 1f3e
00000230: 9be2 4f3e 07d5 693d cd2f 3dbe 135d 1d3e
00000240: 99c7 f73d dfe7 91be c8bb 11be 97af be3d
00000250: 0584 273e bed9 95be 77e1 57be 9e17 9bbd
00000260: b14e ce3c e98d 5cbe ed4b fd3d 35df 0fbd
00000270: f49b 223e cf23 43bd 28ce 9ebe 9eaa de3d
00000280: 32de 83bd da28 58be 84ba 513e fa01 c93d
00000290: 319c 8b3c c093 16bd 4fdd 16bf ca5b 79be
000002a0: d668 1abc 6a0d fd3c 3221 3b39 0ddc 3bbc
000002b0: 57de 8b3d 4d7b 48be 2d13 1e3c 2b21 0bbf
000002c0: 0698 063e 7e88 d73c 0175 ecbd 6581 663d
000002d0: 7509 f93d 1e33 27be 5898 afbc b3c0 8bbe
000002e0: 71d5 703d 1030 6d3e 9ff4 693d 4cfe 973d
000002f0: 49e6 dc3d 199d 4fbe a901 2a3e 0f5a c0bd

stu.hidden.0.stu.M_phi_plus f4 [8, 16, 8]
-0.6844076 -0.66072047 -0.58419555 -0.79799104 0.85749817 0.48680902 1.4203196 0.07786151
0.21698537 -0.5400151 -1.0545317 -0.9348916 0.36158636 0.8917934 1.094447 -0.48243812
1.7222518 1.0770597 -0.83864754 -0.5188587 -0.37557104 0.92115235 0.13198799 -1.5168655
-0.90385807 -1.347595 0.1379459 -0.7344387 0.5759443 -0.0025259745 0.6332159 0.6257879
-1.3136141 -0.9844418 1.081266 0.33966073 0.03955504 -1.0818659 -1.0464283 0.86864895
-0.2655873 0.18005629 0.93230975 1.2747154 -0.46072876 -1.1214268 -1.4893659 0.0067475867
1.5826921 1.6600145 -0.12806605 0.29052186 -0.28573406 0.26217085 -0.1495379 -0.9982493
0.75829834 0.7424055 -0.80373156 -0.43915847 0.31910518 1.0015153 0.6326095 -0.487863
-0.12732 -0.18077353 -0.9442934 -1.0525066 0.8765591 1.4554422 1.0605806 0.035492025
-1.283055 -0.6280524 -0.401598 -0.5829957 0.33352035 0.6180116 0.6967369 0.26910043
-0.41992685 -0.2862453 -0.37259766 -0.12413993 0.16155694 0.12023924 0.3562913 0.29564866
-0.04883274 -0.0083064325 0.033006165 -0.041477416 -0.029803518 -0.019443182 -0.13355294 -0.30898592
0.15020005 0.17806523 -0.027760837 0.018812958 -0.04295072 -0.09746028 0.019562252 -0.40034106
-0.13397984 -0.2877782 0.17114538 0.0013973466 0.20646766 -0.002353124 -0.062401365 0.07826299
0.009747688 0.22759403 -0.11302674 -0.09394213 -0.12302852 0.04487222 -0.0877701 0.06045629
-0.2923839 0.02861603 0.13788101 0.11130305 0.037911635 -0.17787689 -0.17862013 -0.17631932
1.5906432 0.32329297 0.26034322 -0.53161526 -0.40752828 0.48175624 0.23860495 -0.5477733
1.0713477 0.1558823 0.30825666 -0.50885457 -0.34859318 0.076894276 0.15156871 -0.19018845
0.25939095 -0.1704543 0.74669087 -0.3334089 -0.66352844 -0.27424914 0.19090866 -0.32960984
1.3314095 0.2543887 -0.02151239 -0.6499186 -0.276035 0.5797654 0.3376374 -1.0041656
-0.58934665 -1.0580468 -1.0427835 0.13098161 0.64968914 0.36996523 0.152225 -0.27535957
-1.4025779 -0.11620227 -0.34786862 0.09924258 0.6289255 -0.3538655 -0.10350385 0.6409548
0.1349349 0.47705978 0.90692127 0.25397313 -0.26252264 -0.31505203 0.14654757 0.5142048
1.2087585 0.44057077 0.33961973 0.439233 -0.64910215 0.17938411 0.12592962 -0.47218138
-0.23392637 -0.22795697 -0.40423286 -0.26545468 0.15286225 -0.08338973 0.030669741 -0.06093774
-0.99916357 -0.39374208 0.15887044 0.05192865 0.40986612 -0.3422294 -0.2659657 0.5269499
-0.1637162 -0.18938133 0.50644016 0.5471892 -0.43477187 -0.27399805 -0.3908537 0.30162442
0.21024847 -0.137069 0.36506948 0.017979212 -0.43142152 -0.26334694 0.11291904 -0.21598443
0.18326344 -0.23581967 -0.034987032 0.14173676 0.31012785 -0.046428345 -0.17237024 -0.13917746
0.01629395 0.23370981 0.12789296 -0.29029432 -0.30483982 -0.05334163 0.25587067 -0.03411545
-0.0069949906 -0.24839401 0.06961336 0.07901888 0.08810079 -0.055438373 0.020983139 0.01041044
-0.026100595 -0.562265 0.08111496 -0.07767622 0.079877116 -0.045320135 0.2857881 0.009034162
00000000: 5635 2fbf fa24 29bf d78d 15bf 2449 4cbf
00000010: 0085 5b3f 083f f93e 08cd b53f db75 9f3d
00000020: 6a31 5e3e 6e3e 0abf e5fa 86bf 0e55 6fbf
00000030: d921 b93e 924c 643f d716 8c3f 2102 f7be
00000040: bf72 dc3f 18dd 893f 9bb1 56bf ecd3 04bf
00000050: d94a c0be a4d0 6b3f dc27 073e a628 c2bf
00000060: 3e63 67bf fe7d acbf b141 0d3e 2d04 3cbf
00000070: 1671 133f d28a 25bb 701a 223f a333 203f
00000080: 8224 a8bf 6104 7cbf ed66 8a3f 03e8 ad3e
00000090: 7704 223d 957a 8abf 5df1 85bf c75f 5e3f
000000a0: 0ffb 87be ad60 383e daab 6e3f e029 a33f
000000b0: a4e4 ebbe ea8a 8fbf 8ba3 bebf dc1a dd3b
000000c0: a895 ca3f 5b7b d43f bf23 03be 48bf 943e
000000d0: bc4b 92be 423b 863e 7720 19be 448d 7fbf
000000e0: d71f 423f 490e 3e3f 5ac1 4dbf 61d9 e0be
000000f0: c161 a33e a731 803f b2f2 213f 2ec9 f9be
00000100: 2d60 02be b21c 39be 36bd 71bf 89b8 86bf
00000110: 2d66 603f ee4b ba3f 1bc1 873f 1660 113d
00000120: 253b a4bf 0bc8 20bf 419e cdbe 353f 15bf
00000130: 2ec3 aa3e 0236 1e3f 595d 323f 88c7 893e
00000140: a700 d7be be8e 92be 1fc5 bebe 133d febd
00000150: 2f6f 253e fe3f f63d d06b b63e 435f 973e
00000160: d704 48bd b417 08bc 7931 073d 39e4 29bd
00000170: 8226 f4bc 4f47 9fbc 1ac2 08be 6733 9ebe
00000180: 0bce 193e bb56 363e b26a e3bc a21d 9a3c
00000190: 18ed 2fbd 4199 c7bd 0441 a03c 81f9 ccbe
000001a0: 0332 09be aa57 93be bc40 2f3e 2c27 b73a
000001b0: 426c 533e df36 1abb 9398 7fbd 5948 a03d
000001c0: c4b4 1f3c 690e 693e 907a e7bd bb64 c0bd
000001d0: 60f6 fbbd efcb 373d cfc0 b3bd 04a1 773d
000001e0: 58b3 95be 2a6c ea3c ae30 0d3e daf2 e33d
000001f0: 3b49 1b3d 5c25 36be 32e8 36be 0d8d 34be
00000200: 329a cb3f a886 a53e b54b 853e f017 08bf
00000210: 8ca7 d0be c1a8 f63e db54 743e df3a 0cbf
00000220: ec21 893f 9c9f 1f3e d1d3 9d3e 4b44 02bf
00000230: ce7a b2be bf7a 9d3d d434 1b3e c3c0 42be
00000240: e4ce 843e 928b 2ebe 2227 3f3f 92b4 aabe
00000250: 00dd 29bf 626a 8cbe 8f7d 433e 9fc2 a8be
00000260: a06b aa3f 3c3f 823e c03a b0bc 1161 26bf
00000270: 7654 8dbe 816b 143f cfde ac3e 8088 80bf
00000280: 6cdf 16bf 146e 87bf ee79 85bf 0b20 063e
00000290: 0752 263f 156c bd3e dfe0 1b3e eefb 8cbe
000002a0: ac87 b3bf 75fb edbd d61b b2be b23f cb3d
000002b0: 4301 213f dc2d b5be d4f9 d3bd 9d15 243f
000002c0: 602c 0a3e 2e41 f43e fe2b 683f c408 823e
000002d0: 5e69 86be 804e a1be 9110 163e eda2 033f
000002e0: 99b8 9a3f 7e92 e13e a3e2 ad3e 26e3 e03e
000002f0: 8f2b 26bf 78b0 373e b2f3 003e c2c1 f1be
00000300: 658a 6fbe 8d6d 69be 9cf7 cebe ade9 87be
00000310: ec87 1c3e 3cc8 aabd 1c3f fb3c da99 79bd
00000320: 2fc9 7fbf 9098 c9be efae 223e 23b3 543d
00000330: f9d9 d13e b138 afbe a82c 88be 30e6 063f
00000340: 38a5 27be 2eed 41be 10a6 013f 9714 0c3f
00000350: 6b9a debe 7949 8cbe fa1d c8be 846e 9a3e
00000360: 604b 573e d15b 0cbe 63ea ba3e 2449 933c
00000370: 48e3 dcbe 69d5 86be 1942 e73d 062b 5dbe
00000380: 69a9 3b3e b67a 71be 904e 0fbd 7123 113e
00000390: 14c9 9e3e a62b 3ebd d381 30be 8984 0ebe
000003a0: e47a 853c a051 6f3e 5ff6 023e 75a1 94be
000003b0: f713 9cbe c17c 5abd 7b01 833e a4bc 0bbd
000003c0: 3c36 e5bb 005b 7ebe 7391 8e3d a7d4 a13d
000003d0: 306e b43d 5913 63bd d5e4 ab3c 8d90 2a3c
000003e0: ead0 d5bc 99f0 0fbf 9a1f a63d b614 9fbd
000003f0: 9d96 a33d 9ba1 39bd d152 923e 0604 143c

stu.hidden.0.stu.M_phi_minus f4 [8, 16, 8]
-1.4553211 -0.5791814 1.2514616 -0.6104984 -0.6848931 -0.33735257 -0.3480801 0.402208
-1.3823793 -0.8156903 0.45823836 -0.35927343 1.1946254 -0.6852904 -1.0638534 -0.27142754
-0.44500154 -0.3984995 0.0447892 -0.5457208 0.85963196 -0.3734881 -0.23810743 0.09225633
-0.34230995 -0.15857995 1.2117975 -0.16738357 -0.65421325 -0.66446555 -0.5163845 -0.5224357
1.1599754 0.63725084 -0.32434794 0.55623156 -0.14394656 -0.13789052 0.07226392 -0.07644206
0.33745566 0.18146361 -0.29776698 -0.21725446 -0.10978127 0.36682698 0.24721397 -0.16847914
0.37885648 0.30969933 0.03779661 0.44495326 -0.16686219 0.48430055 0.03047728 0.1980338
-0.47985998 -0.41573566 0.21604377 -0.9031074 0.5234815 0.13563815 0.3719308 -0.2711632
-0.056266174 0.24706507 -0.12374998 0.62543756 -0.4213511 0.31424585 -0.5195454 0.4385006
-0.30919722 -0.13477708 -0.13446638 -0.45469627 0.3022622 -0.049292725 0.11597811 -0.21324869
0.34884983 0.06939613 0.093771964 0.40581846 0.07099353 -0.098950416 0.03847572 -0.087500334
0.07467354 0.09337566 0.19294071 0.43579587 -0.5745539 -0.34408703 -0.2551038 -0.06437986
0.319963 -0.16867575 0.28592685 0.4477573 -0.34215057 -0.42238846 -0.13074392 0.015166358
-0.25367117 -0.05481544 -0.2775004 -0.113481514 -0.17810376 0.28660178 0.20249625 0.009691272
0.21785897 0.24894717 0.31660935 0.3009493 -0.037123702 -0.7577095 -0.030367801 -0.13736512
0.07971104 -0.16005264 0.23521005 0.122932225 -0.043064702 -0.18957858 0.014724009 -0.06751525
-0.06699759 0.28465006 -0.37001348 0.31040525 0.19874573 0.11887162 0.013442471 0.079525635
0.0042642117 -0.0071756076 -0.25272062 0.41494086 0.34463525 0.035670545 -0.48389772 -0.006065411
0.045352146 -0.05417878 0.07972759 0.653518 0.11083738 0.2713981 -1.0702518 0.13710971
-0.19019035 0.07872536 -0.7057469 0.27618054 0.55933946 0.07530174 -0.59696513 0.19475177
0.16432072 0.10964467 0.16732012 0.019805534 -0.32556957 0.026530465 -0.0732241 0.051412094
-0.3667385 -0.62461054 0.5342663 -0.17995898 0.19877736 -0.17385784 0.07472026 -0.166441
0.44437125 0.12090236 -0.3898664 0.32537332 -0.10202467 -0.13498251 -0.114066824 -0.0875154
-0.14471364 0.24552836 0.282618 0.15421717 -0.17271408 -0.08087166 -0.12719831 0.07144337
0.21250783 0.1824194 0.08697343 0.06131199 -0.06490333 -0.07599646 -0.15821393 0.058543645
-0.06319077 0.10832326 0.04990947 -0.17221858 0.002216411 -0.37300515 -0.05710647 0.24496558
0.032796364 0.24833135 -0.09573276 -0.109768875 -0.08587305 -0.019651553 0.23121472 0.10701862
-0.37586296 -0.38862094 0.040673066 -0.21855105 0.38390443 -0.18596207 0.14911935 0.19964187
-0.22158349 -0.24002177 -0.089625455 -0.08913732 0.32173097 -0.51725686 0.3701578 -0.18157955
0.066064775 -0.29145142 -0.0256744 -0.13247189 -0.028440284 0.2612954 -0.18793352 -0.11876836
-0.10096663 0.12356499 0.07480149 -0.07716966 0.012873602 -0.10179124 -0.00053916196 -0.17469135
-0.07923102 0.03098027 -0.045743354 -0.1343383 -0.084758 -0.17894079 0.028756991 -0.085113175
00000000: f647 babf 3b45 14bf e52f a03f a049 1cbf
00000010: 2755 2fbf 7ab9 acbe 8e37 b2be 35ee cd3e
00000020: cef1 b0bf 14d1 50bf 389e ea3e b0f2 b7be
00000030: 7ce9 983f 316f 2fbf 592c 88bf 8df8 8abe
00000040: 3ed7 e3be 2008 ccbe e174 373d 5cb4 0bbf
00000050: d710 5c3f d539 bfbe 6fd2 73be e3f0 bc3d
00000060: 4043 afbe c862 22be 2e1c 9b3f 9966 2bbe
00000070: 857a 27bf 6a1a 2abf c631 04bf 59be 05bf
00000080: 137a 943f df22 233f ef10 a6be 3165 0e3f
00000090: ba66 13be 2c33 0dbe 1bff 933d a88d 9cbd
000000a0: fdc6 ac3e 99d1 393e ea74 98be f477 5ebe
000000b0: 01d5 e0bd bfd0 bb3e a925 7d3e cc85 2cbe
000000c0: 7af9 c13e e990 9e3e 9ed0 1a3d ead0 e33e
000000d0: ecdd 2abe 3ef6 f73e 7dab f93c 5fc9 4a3e
000000e0: 35b0 f5be 4edb d4be 943a 5d3e 0c32 67bf
000000f0: e202 063f bae4 0a3e b76d be3e e7d5 8abe
00000100: 5c77 66bd a0fe 7c3e a170 fdbd ad1c 203f
00000110: 55bb d7be d5e4 a03e ed00 05bf 2783 e03e
00000120: 194f 9ebe 0103 0abe 8eb1 09be f3cd e8be
00000130: 1cc2 9a3e 2be7 49bd ee85 ed3d dd5d 5abe
00000140: 729c b23e 8f1f 8e3d 840b c03d 70c7 cf3e
00000150: 0e65 913d 84a6 cabd b798 1d3d 6033 b3bd
00000160: 71ee 983d bd3b bf3d 4092 453e a320 df3e
00000170: f715 13bf 2d2c b0be f79c 82be 97d9 83bd
00000180: 31d2 a33e 56b9 2cbe 0165 923e 7240 e53e
00000190: 5c2e afbe 4d43 d8be bce1 05be 517c 783c
000001a0: 30e1 81be 2886 60bd 8814 8ebe ff68 e8bd
000001b0: d560 36be 78bd 923e 2d5b 4f3e 24c8 1e3c
000001c0: 6c16 5f3e 02ec 7e3e 9f1a a23e 0716 9a3e
000001d0: 060f 18bd 40f9 41bf e5c5 f8bc 71a9 0cbe
000001e0: 8b3f a33d d7e4 23be e7da 703e e4c3 fb3d
000001f0: 9d64 30bd e320 42be f83c 713c 6f45 8abd
00000200: 0836 89bd a7bd 913e 6872 bdbe 70ed 9e3e
00000210: 0084 4b3e f772 f33d cf3d 5c3c 56de a23d
00000220: cdba 8b3b 5c21 ebbb 9964 81be 2173 d43e
00000230: 0874 b03e 471b 123d 71c1 f7be 5bc0 c6bb
00000240: 2cc3 393d 92ea 5dbd 3848 a33d f54c 273f
00000250: b5fe e23d b1f4 8a3e 03fe 88bf 7d66 0c3e
00000260: 42c1 42be c33a a13d d4ab 34bf 8967 8d3e
00000270: df30 0f3f cc37 9a3d b5d2 18bf 026d 473e
00000280: b143 283e 628d e03d f755 2b3e 373f a23c
00000290: 0eb1 a6be 6b56 d93c 84f6 95bd 7d95 523d
000002a0: 26c5 bbbe 7ae6 1fbf adc5 083f 2b47 38be
000002b0: 4b8c 4b3e ca07 32be f006 993d 826f 2abe
000002c0: a184 e33e a89b f73d 929c c7be 5597 a63e
000002d0: 4ff2 d0bd db38 0abe de9b e9bd 463b b3bd
000002e0: d02f 14be c96b 7b3e 4eb3 903e 1beb 1d3e
000002f0: f6db 30be 0aa0 a5bd 4640 02be e750 923d
00000300: a79b 593e 27cc 3a3e 201f b23d 4822 7b3d
00000310: 09ec 84bd 08a4 9bbd d502 22be 76cb 6f3d
00000320: 2a6a 81bd 96d8 dd3d df6d 4c3d 115a 30be
00000330: 3541 113b 88fa bebe 79e8 69bd 42d8 7a3e
00000340: 7b55 063d 934a 7e3e 8a0f c4bd 81ce e0bd
00000350: 36de afbd 4bfc a0bc 8dc3 6c3e 942c db3d
00000360: 1c71 c0be 53f9 c6be cd98 263d d9cb 5fbe
00000370: 1f8f c43e d76c 3ebe beb2 183e eb6e 4c3e
00000380: c8e6 62be 44c8 75be 8d8d b7bd a18d b6bd
00000390: ecb9 a43e f26a 04bf 5385 bd3e fdef 39be
000003a0: f84c 873d 1f39 95be 1f53 d2bc b6a6 07be
000003b0: 99fb e8bc 83c8 853e a571 40be d33c f3bd
000003c0: 98c7 cebd a40f fd3d 8631 993d 200b 9ebd
000003d0: cdeb 523c ed77 d0bd 8c56 0dba 4ae2 32be
000003e0: df43 a2bd 56ca fd3c 625d 3bbd fb8f 09be
000003f0: 9a95 adbd 413c 37be c893 eb3c d14f aebd

stu.hidden.0.rn_2.weight f4 [8]
0.98444515 0.9597276 0.5950939 1.035241 0.7372805 0.8089673 0.8125244 0.8792111
00000000: 9904 7c3f b5b0 753f 1358 183f c782 843f
00000010: 6abe 3c3f 7b18 4f3f 9901 503f fb13 613f

stu.hidden.0.mlp.swiglu.w.weight f4 [32, 8]
-0.15697178 0.14165318 0.07607536 0.25302416 -0.12680343 0.16339962 0.018529588 0.1585306
-0.2758331 0.1797714 -0.04703232 -0.32360193 -0.38792306 0.25604403 -0.32570386 0.11713393
-0.39056152 -0.016685262 0.040014487 -0.13192254 0.10990249 0.08693625 0.08022919 -0.012926085
0.300691 -0.16131273 0.120817915 -0.093638465 0.0034867958 0.02996247 0.32979327 0.14576913
-0.18606436 0.034653533 -0.18296537 -0.25691766 0.3325674 0.13137928 0.122447215 0.12733382
0.119235255 -0.10042968 -0.02474293 -0.53323907 0.3735386 -0.009694709 0.43814015 0.1475812
0.618944 0.065258145 -0.3764192 -0.4239332 -0.25797865 0.6255243 0.40649548 0.21133213
0.15544257 0.06033439 -0.12502868 -0.32862896 0.013918429 0.10850448 0.16544373 -0.16930982
-0.17307836 0.10422848 0.011648634 -0.36904502 0.19240712 -0.18963091 -0.2981311 -0.33642703
-1.001653 -0.44651982 -0.03379842 0.22899169 -0.45516044 -0.11343796 0.011392698 0.41082308
0.8147373 0.07887981 -0.021170584 -0.00060254434 -0.1313591 0.010950894 -0.10462155 -0.28866258
-0.055125356 -0.15833028 -0.3135495 0.03820686 -0.349355 0.1400362 0.3475074 -0.12790497
-0.07435029 0.24846362 -0.50183195 -0.47917992 -0.15782538 0.24566017 -0.0012941398 -0.01733712
-0.5176298 -0.055529535 0.30809996 -0.0629778 0.1858193 0.13376996 0.04777396 0.2895091
-0.06689643 -0.36150482 0.10205204 0.17783058 -0.36910516 -0.22894354 -0.5271131 -0.11498683
-0.10645616 -0.113969974 -0.13179693 0.119992025 0.05713554 0.27228603 0.022965914 -0.14957273
0.11438571 0.15583651 -0.27774402 -0.061392702 -0.09157602 -0.053147957 -0.16478208 0.18431906
-0.0943994 0.3732249 0.37310928 -0.24640483 0.26112252 0.49268696 0.5404582 0.27527642
-0.13916256 0.10201643 -0.033519812 -0.08078335 -0.04835362 0.19434991 -0.05835827 -0.3152088
0.12503254 0.13984263 0.037518483 0.10227504 -0.1427478 -0.07204148 -0.056411386 -0.044406082
0.120466866 0.31362426 0.155544 0.4107754 -0.22609404 -0.5681701 -0.3206518 0.45131865
-0.26418215 -0.0632301 -0.08372864 0.11623716 0.028070515 0.073974624 -0.24462949 0.5742702
-0.02141476 -0.6722375 -0.26105544 0.1793888 0.6105379 -0.14556892 0.13773972 0.30526668
0.17431739 0.15453206 -0.3911131 0.20900315 0.0319487 0.5022303 0.25293046 0.0014042599
0.204279 0.0106871845 0.33814648 0.026284466 -0.24469855 -0.3417617 0.15492614 0.25667384
0.08218547 -0.24666144 -0.22479759 0.120637864 -0.24937305 0.18141678 -0.11472774 -0.055621803
-0.09361687 -0.2709312 0.15276212 -0.05347549 -0.37673232 -0.37323052 0.26637432 -0.13771707
0.10257142 0.021252984 -0.018565377 0.057201993 0.26504385 -0.13191022 0.010606986 0.03136772
-0.20603219 0.067391604 -0.017719226 0.052633505 -0.23775418 0.3658743 0.29993394 -0.08504755
-0.015087794 -0.21454103 0.3322836 -0.16343173 0.0822604 -0.22371307 0.23938064 -0.198659
0.19109769 -0.33202463 0.36726117 -0.2717877 0.17096715 0.24190108 0.46469855 -0.50479895
-0.007868786 0.3159037 -0.40044063 -0.046448942 0.22789335 0.20177391 0.19797347 0.064029604
00000000: 36bd 20be 880d 113e 66cd 9b3d 628c 813e
00000010: c2d8 01be 3b52 273e 5dcb 973c d855 223e
00000020: ff39 8dbe fe15 383e f6a4 40bd 27af a5be
00000030: da9d c6be 3418 833e a8c2 a6be eae3 ef3d
00000040: aef7 c7be 88af 88bc 3be6 233d b416 07be
00000050: 8f14 e13d a20b b23d 344f a43d eec7 53bc
00000060: 2cf4 993e 2a2f 25be 626f f73d 86c5 bfbd
00000070: ba82 643b db73 f53c aada a83e 8144 153e
00000080: a887 3ebe ddf0 0d3d 465b 3bbe b68a 83be
00000090: 4646 aa3e 4a88 063e 9bc5 fa3d cc63 023e
000000a0: 9d31 f43d 13ae cdbd afb1 cabc 5b82 08bf
000000b0: 7440 bf3e 8fd6 1ebc e853 e03e 871f 173e
000000c0: 1d73 1e3f 10a6 853d 04ba c0be c60d d9be
000000d0: c715 84be 5c22 203f 2d20 d03e 7367 583e
000000e0: 562c 1f3e 3121 773d 8507 00be 0e42 a8be
000000f0: 1f0a 643c 9937 de3d 156a 293e 8e5f 2dbe
00000100: 743b 31be be75 d53d ead9 3e3c 78f3 bcbe
00000110: 5f06 453e 9b2e 42be a4a4 98be 2a40 acbe
00000120: 2a36 80bf 3f9e e4be 3670 0abd cc7c 6a3e
00000130: ca0a e9be 2952 e8bd 70a8 3a3c 6757 d23e
00000140: a092 503f bd8b a13d ef6d adbc 11f4 1dba
00000150: 0083 06be 616b 333c d343 d6bd 95cb 93be
00000160: 20cb 61bd 5521 22be 8f89 a0be cc7e 1c3d
00000170: a9de b2be a665 0f3e 7dec b13e 85f9 02be
00000180: f744 98bd 3f6d 7e3e 0f78 00bf 1257 f5be
00000190: fa9c 21be 578e 7b3e 20a0 a9ba 9306 8ebc
000001a0: 6383 04bf f072 63bd 47bf 9d3e 81fa 80bd
000001b0: 6a47 3e3e fefa 083e a1ae 433d 893a 943e
000001c0: ff00 89bd 2917 b9be a900 d13d 3819 363e
000001d0: 5afb bcbe 2d70 6abe e2f0 06bf 377e ebbd
000001e0: b005 dabd 1769 e9bd c6f5 06be 61be f53d
000001f0: f506 6a3d 1369 8b3e 0323 bc3c 9829 19be
00000200: 0e43 ea3d 9b93 1f3e 7734 8ebe ea76 7bbd
00000210: 358c bbbd acb1 59bd a2bc 28be 23be 3c3e
00000220: 7954 c1bd 5617 bf3e 2e08 bf3e 8c51 7cbe
00000230: dab1 853e 7741 fc3e 785b 0a3f 08f1 8c3e
00000240: a180 0ebe fded d03d 124c 09bd be71 a5bd
00000250: 720e 46bd aa03 473e 1509 6fbd 0c63 a1be
00000260: 8808 003e e832 0f3e fbac 193d 9375 d13d
00000270: 7b2c 12be 7c8a 93bd a00f 67bd 27e3 35bd
00000280: 55b7 f63d 5c93 a03e ed46 1f3e 2751 d23e
00000290: 3285 67be 9873 11bf 792c a4be 3d13 e73e
000002a0: e242 87be c87e 81bd ec79 abbd c00d ee3d
000002b0: 23f4 e53c 0280 973d 2780 7abe 5f03 133f
000002c0: 026e afbc c217 2cbf 0fa9 85be b3b1 373e
000002d0: 364c 1c3f 0510 15be a40b 0d3e ea4b 9c3e
000002e0: 4280 323e a73d 1e3e fa3f c8be ec04 563e
000002f0: a4dc 023d 2a92 003f 1a80 813e 250f b83a
00000300: 842e 513e 4d19 2f3c 8921 ad3e 8552 d73c
00000310: 4292 7abe 64fb aebe f5a4 1e3e c16a 833e
00000320: db50 a83d d194 7cbe 5731 66be fc10 f73d
00000330: a65b 7fbe 52c5 393e 61f6 eabd b0d3 63bd
00000340: 34ba bfbd 7fb7 8abe ac6d 1c3e 1e09 5bbd
00000350: 0fe3 c0be 1218 bfbe 3762 883e b405 0dbe
00000360: f710 d23d bd1a ae3c 6b16 98bc a34c 6a3d
00000370: d4b3 873e 7913 07be ecc8 2d3c 707b 003d
00000380: 1afa 52be 9c04 8a3d e927 91bc 3b96 573d
00000390: d575 73be e053 bb3e f190 993e 692d aebd
000003a0: cb32 77bc a5b0 5bbe 1321 aa3e a65a 27be
000003b0: 2478 a83d 0a15 65be 3320 753e 446d 4bbe
000003c0: 1daf 433e 22ff a9be a809 bc3e c227 8bbe
000003d0: 0312 2f3e ebb4 773e f8ec ed3e 813a 01bf
000003e0: 15ec 00bc 21be a13e 8e06 cdbe 3f41 3ebd
000003f0: e05c 693e d29d 4e3e 8fb9 4a3e f421 833d

stu.hidden.0.mlp.swiglu.v.weight f4 [32, 8]
-0.23876771 -0.01680118 -0.11490074 -0.072969355 -0.23115964 0.15963535 -0.043063127 -0.16378607
-0.48335695 -0.08130145 0.12005612 -0.37650216 -0.25894615 0.22960716 -0.08388858 0.24792466
-0.062797025 0.000479955 -0.07858675 0.21484247 -0.3259001 -0.23659141 -0.21956596 -0.024938468
0.3372934 0.23876718 -0.05934182 0.24346107 0.19532903 -0.09197953 -0.15625866 -0.1386934
0.13188516 0.18619612 0.13584748 0.34049875 -0.37126216 -0.2634557 -0.30672592 -0.21260194
0.12901731 0.2047114 0.0040209778 0.35299262 -0.38383472 -0.06318996 -0.4705641 -0.17626342
0.10101857 -0.26873866 -0.08584457 0.22667056 -0.1318851 -0.27008182 -0.30135927 0.5401851
0.020578481 0.09580308 0.17849988 0.01261354 0.14364809 -0.17395622 -0.33183357 -0.11157705
-0.43300998 -0.23884736 0.03181496 0.08853405 0.0030353584 0.089221634 -0.13185844 0.10199546
0.00075716566 -0.14240336 -0.027143769 -0.41584346 0.10679687 0.86837095 0.60581136 -0.18171257
0.053332824 0.12061934 0.15602136 -0.003377698 0.09263622 0.29689464 0.20029648 -0.1697243
0.0035417404 -0.20266795 0.21209748 0.106746465 -0.1881204 -0.20196277 0.08028474 -0.0154592255
0.31146833 0.53738093 0.017483553 0.21077879 -0.19915156 -0.35624075 -0.05544019 -0.050182085
0.14957412 0.17284289 0.044478808 -0.20960104 0.02534035 0.3702452 0.31596857 0.29758558
0.44235972 0.0055694385 0.19721656 0.15228371 -0.31441537 -0.0056212526 0.095471576 -0.053127896
0.16029823 0.060682204 0.09955115 0.21193266 -0.11362965 -0.01528867 -0.24231033 -0.18761927
0.2457399 -0.047525782 -0.12778684 -0.25392887 0.057869412 -0.27559027 0.05675768 0.0010982819
-0.40729907 0.35535884 0.36576033 -0.091964684 0.21256255 -0.0010526488 0.2699879 0.34669703
0.24612647 0.25253975 -0.14243905 -0.009372923 0.11853691 -0.11234331 0.02098 -0.009411936
0.0790452 -0.016425239 -0.049214564 -0.40395564 0.1223699 -0.12248072 -0.02831305 -0.13333958
-0.894355 -0.21703762 -0.38877645 -0.1413281 0.4988867 0.06953 0.33475193 0.37002575
-0.06945657 -0.06353618 0.050748825 0.1229957 -0.21109574 0.5140624 -0.30725455 0.23810759
-0.30922014 0.5062434 0.12439259 -0.1948612 -0.34951696 0.3520927 -0.122608915 0.12007099
-0.6626286 -0.4983297 -0.18645461 0.23191674 0.17432714 0.12590851 0.06597591 0.20241511
-0.13411051 0.09547464 -0.06852495 -0.03185513 -0.11882086 0.5147438 0.13271603 -0.024707168
-0.09170717 -0.3749648 0.043337744 0.18026994 -0.16369294 0.0009851624 -0.16622695 -0.14973553
0.1533185 -0.14353867 -0.08902611 0.078303926 -0.015430921 0.010661015 -0.19830032 -0.006927627
0.06236805 -0.11727787 0.10919357 -0.17993815 -0.1427031 -0.04864217 0.18212287 -0.00052416883
-0.024732517 -0.6694321 0.041144207 0.096825756 -0.38515645 0.08293587 0.14070201 -0.10624217
-0.21204649 -0.1307351 -0.22557321 0.29223466 -0.0045011775 -0.12190669 -0.13443875 0.10792099
-0.09416185 -0.4402206 0.2532946 -0.18666811 -0.12827201 -0.0638502 0.17747335 -0.41505897
-0.17814204 -0.5377116 -0.16842516 -0.1721535 0.08895776 -0.0047645853 0.0711688 0.25795758
00000000: 867f 74be a1a2 89bc 1451 ebbd f570 95bd
00000010: 1db5 6cbe 7377 233e f662 30bd 89b7 27be
00000020: 907a f7be 6081 a6bd fcdf f53d e4c4 c0be
00000030: 9794 84be 241e 6b3e c7cd abbd f6df 7d3e
00000040: ba9b 80bd 78a2 fb39 17f2 a0bd aaff 5b3e
00000050: 61dc a6be 0545 72be e6d5 60be c24b ccbc
00000060: b8b1 ac3e 627f 743e 6910 73bd dc4d 793e
00000070: 5504 483e c45f bcbd 4502 20be a505 0ebe
00000080: e70c 073e 32aa 3e3e 9a1b 0b3e da55 ae3e
00000090: 1316 bebe aae3 86be 2e0b 9dbe 53b4 59be
000000a0: 1d1d 043e de9f 513e 68c2 833b 73bb b43e
000000b0: fc85 c4be bd69 81bd c7ed f0be 667e 34be
000000c0: d3e2 ce3d 1d98 89be 47cf afbd 541c 683e
000000d0: e30c 07be 2a48 8abe c34b 9abe 9249 0a3f
000000e0: 3494 a83c 6834 c43d acc8 363e 05a9 4e3c
000000f0: 7c18 133e 9421 32be 17e6 a9be 8282 e4bd
00000100: 7cb3 ddbe 6794 74be 6750 023d 5751 b53d
00000110: ddec 463b d5b9 b63d e605 07be ffe2 d03d
00000120: 877c 463a 30d2 11be 9c5c debc 6fe9 d4be
00000130: 51b8 da3d 8f4d 5e3f 7416 1b3f dc12 3abe
00000140: 8573 5a3d 4607 f73d 10c4 1f3e 5e5c 5dbb
00000150: 0fb8 bd3d 9302 983e 851a 4d3e 35cc 2dbe
00000160: 8b1c 683b 3088 4fbe 1530 593e e49d da3d
00000170: a2a2 40be 54cf 4ebe 536c a43d b148 7dbc
00000180: c778 9f3e cc91 093f ab39 8f3c 65d6 573e
00000190: 63ee 4bbe 3065 b6be 4115 63bd bb8b 4dbd
000001a0: f529 193e bafd 303e 692f 363d a8a1 56be
000001b0: 9196 cf3c c790 bd3e a2c6 a13e 235d 983e
000001c0: f97c e23e d67f b63b 23f3 493e 43f0 1b3e
000001d0: 0dfb a0be 7c32 b8bb 9a86 c33d a39c 59bd
000001e0: 3825 243e e78d 783d 79e1 cb3d e004 593e
000001f0: a9b6 e8bd 547d 7abc 3320 78be 441f 40be
00000200: 3ea3 7b3e 65aa 42bd 8eda 02be f702 82be
00000210: 7a08 6d3d 2b1a 8dbe be7a 683d 3af4 8f3a
00000220: 8189 d0be 98f1 b53e f044 bb3e fb57 bcbd
00000230: ffa9 593e 08f9 89ba db3b 8a3e 4682 b13e
00000240: 9408 7c3e e44c 813e 8bdb 11be e390 19bc
00000250: 7bc3 f23d 4014 e6bd 40de ab3c 8534 1abc
00000260: 73e2 a13d 398e 86bc 3695 49bd 46d3 cebe
00000270: 129d fa3d 2cd7 fabd c5f0 e7bc 2c8a 08be
00000280: 73f4 64bf 1c3f 5ebe b50d c7be 50b8 10be
00000290: 146e ff3e bf65 8e3d 9b64 ab3e 0474 bd3e
000002a0: 3f3f 8ebd 421f 82bd 00de 4f3d 2be5 fb3d
000002b0: 7b29 58be 9899 033f 7850 9dbe 7ad2 733e
000002c0: 1a52 9ebe 2b99 013f 8bc1 fe3d b289 47be
000002d0: e3f3 b2be 7f45 b43e 621a fbbd c7e7 f53d
000002e0: 07a2 29bf 1225 ffbe f5ed 3ebe 957b 6d3e
000002f0: d082 323e 29ee 003e 611e 873d e845 4f3e
00000300: 4454 09be 3588 c33d cf56 8cbd 867a 02bd
00000310: 5a58 f3bd 40c6 033f b6e6 073e b066 cabc
00000320: f8d0 bbbd 63fb bfbe eb82 313d af98 383e
00000330: 1f9f 27be 9120 813a 6637 2abe 4554 19be
00000340: 86ff 1c3e cdfb 12be 5253 b6bd cf5d a03d
00000350: f9d1 7cbc 8aab 2e3c 3d0f 4bbe 2601 e3bb
00000360: a475 7f3d 612f f0bd e1a0 df3d b541 38be
00000370: c320 12be 033d 47bd 6b7e 3a3e 6068 09ba
00000380: d99b cabc e75f 2bbf d486 283d 954c c63d
00000390: 3a33 c5be 48da a93d 3014 103e 7f95 d9bd
000003a0: b722 59be 6cdf 05be aafc 66be c89f 953e
000003b0: 9d7e 93bb 37aa f9bd 50aa 09be ae05 dd3d
000003c0: eed7 c0bd 9864 e1be d4af 813e ed25 3fbe
000003d0: bd59 03be e5c3 82bd 93bb 353e 9c82 d4be
000003e0: de6a 36be 78a7 09bf a577 2cbe 0249 30be
000003f0: 7c2f b63d 3d20 9cbb f3c0 913d 0413 843e

stu.hidden.0.mlp.swiglu.w2.weight f4 [8, 32]
0.11335495 0.26865768 -0.2758384 0.011206945 -0.42289332 -0.127335 0.41701195 -0.13624947
0.1317417 0.24563202 -0.4384447 -0.118671745 -0.3709085 -0.047307573 0.15742172 -0.19718336
0.013098713 0.18397398 -0.32742876 -0.101032965 -0.62817997 -0.02557891 0.3733718 0.49690095
-0.122366905 -0.08505572 -0.15727809 0.22343099 0.13951892 0.16394183 0.13532728 0.47724304
-0.2060992 -0.038148403 -0.19814825 -0.33219838 -0.3361952 -0.30886298 -0.12139807 -0.101368144
-0.12946852 0.59442925 0.2253634 0.061630156 -0.15550996 -0.047782727 -0.25562713 -0.27225408
0.24493675 -0.3284336 0.08080108 0.009173318 -0.281875 0.10756298 -0.56243676 0.28357023
-0.18095838 0.15584013 0.18934883 -0.40992966 0.47918394 -0.090295054 0.4339163 0.067509204
0.021357412 0.20421322 0.389523 0.06969713 0.018849289 0.28061748 0.11018574 -0.15369096
0.05686441 -0.72741884 0.07298296 -0.2066744 -0.36137047 -0.29595864 -0.23774807 0.03280962
-0.27984628 -0.51061124 0.097517215 0.054175746 0.40081513 0.11915067 0.18968184 0.34737933
-0.42206013 -0.036605597 0.030462688 0.09360336 0.060499854 0.15359324 -0.3283399 0.2103984
-0.12447856 0.2322169 -0.28069928 -0.12183913 -0.4931128 -0.32038116 -0.41703683 -0.12062029
0.057449244 -0.1109455 -0.108544625 -0.16685691 -0.53872055 0.06776575 -0.10912328 -0.17131923
-0.13125247 0.067381 -0.31008855 -0.25039923 -0.49627668 -0.14565173 0.16707398 0.04301104
-0.053614024 -0.018917812 0.05826752 -0.08224116 0.079093635 -0.1646599 0.26861408 0.032579985
0.24809188 0.30654427 -0.07241816 -0.2470065 -0.0138484845 -0.008859917 -0.2146091 0.1546269
-0.2545087 0.07803041 -0.0121848 0.14307731 -0.15451267 0.2460841 -0.035703477 0.03702837
-0.121446304 -0.037958346 -0.1640313 0.02153407 0.0011494155 0.10514837 0.47880968 0.1676713
0.027396398 0.3444722 -0.09300893 -2.2317981e-06 0.5459288 -0.14945483 0.21669957 -0.19159375
-0.09464519 -0.040068835 0.15267299 -0.10316788 0.15890744 -0.26390758 0.24343933 -0.0024442973
0.13831031 -0.22378132 0.19354424 0.15796587 0.36309904 -0.20392925 -0.066784516 0.1712685
-0.09351173 0.06055439 0.03304242 -0.13818778 0.030856369 -0.24146606 -0.40742922 -0.3732191
0.17136486 -0.02389921 -0.09542835 -0.024193 -0.053640243 0.14449888 0.3737607 -0.23201337
-0.01835261 0.38273603 0.29392523 0.31046203 0.24589536 0.50949883 0.21772107 0.25727338
0.21261239 -0.2336933 0.008449791 -0.06952392 0.017498385 -0.18521804 -0.20146167 0.14154501
-0.088763565 -0.19697101 -0.032481793 0.04252184 0.42250708 0.22266382 0.39867264 0.011601845
0.26941648 -0.13520679 0.08531546 -0.076238446 0.16446859 -0.070968814 -0.1443066 -0.11164927
-0.030567387 -0.08714996 0.08608424 0.2294938 0.43712124 0.41018927 -0.25847298 -0.28551066
0.47448888 0.28901112 -0.09602269 -0.26680008 0.114412256 -0.6366836 -0.3505911 0.06944944
0.08271746 -0.45418894 -0.17889121 -0.12041233 -0.12652534 -0.63734907 -0.108672954 -0.2065536
0.011474846 -0.2338027 -0.15716045 0.0033323097 -0.01771658 0.23896971 0.5212812 -0.042109247
00000000: a426 e83d 808d 893e b13a 8dbe 569d 373c
00000010: 7985 d8be 1b64 02be 9782 d53e fb84 0bbe
00000020: 4ce7 063e f686 7b3e d37b e0be 2c0a f3bd
00000030: b8e7 bdbe 96c5 41bd 2933 213e 6fea 49be
00000040: fc9b 563c ad63 3c3e bea4 a7be 5fea cebd
00000050: 67d0 20bf dd8a d1bc 972a bf3e cd69 fe3e
00000060: 809b fabd b131 aebd 820d 21be 18cb 643e
00000070: 0cde 0e3e 5ee0 273e 3c93 0a3e 3359 f43e
00000080: ab0b 53be 8041 1cbd 60e7 4abe e815 aabe
00000090: c721 acbe 4a23 9ebe 8d9f f8bd 1a9a cfbd
000000a0: 6593 04be 842c 183f aac5 663e e76f 7c3d
000000b0: 013e 1fbe d2b7 43bd 8fe1 82be e364 8bbe
000000c0: b3d0 7a3e 7328 a8be 097b a53d af4b 163c
000000d0: ec51 90be fb49 dc3d dbfb 0fbf 1e30 913e
000000e0: 274d 39be 8e94 1f3e a9e4 413e 4de2 d1be
000000f0: 9957 f53e 9dec b8bd 472a de3e 4442 8a3d
00000100: bdf5 ae3c 451d 513e 8f6f c73e 5ebd 8e3d
00000110: d369 9a3c 18ad 8f3e 10a9 e13d 2a61 1dbe
00000120: a8ea 683d 1f38 3abf 1778 953d 74a2 53be
00000130: 8d05 b9be e487 97be 3b74 73be 6163 063d
00000140: 0348 8fbe 6bb7 02bf 1bb7 c73d 63e7 5d3d
00000150: a437 cd3e 4405 f43d f53b 423e b4db b13e
00000160: 4418 d8be c0ef 15bd e38c f93c 1eb3 bf3d
00000170: b2ce 773d 8c47 1d3e 2b1c a8be ae72 573e
00000180: 9eee febd 44ca 6d3e d1b7 8fbe cb86 f9bd
00000190: 4879 fcbe 0009 a4be da85 d5be c507 f7bd
000001a0: e64f 6b3d 6537 e3bd a54c debd 8adc 2abe
000001b0: 97e9 09bf c5c8 8a3d 077c dfbd 4f6e 2fbe
000001c0: 0c67 06be 0dff 893d edc3 9ebe 5434 80be
000001d0: fa17 febe ba25 15be 7115 2b3e 582c 303d
000001e0: 619a 5bbd 87f9 9abc eca9 6e3d 0e6e a8bd
000001f0: d8fb a13d 9b9c 28be c987 893e 9772 053d
00000200: cc0b 7e3e 5ff3 9c3e f94f 94bd 46ef 7cbe
00000210: c1e4 62bc 2f29 11bc 7dc2 5bbe 8456 1e3e
00000220: f74e 82be 68ce 9f3d c1a2 47bc dc82 123e
00000230: 9238 1ebe 78fd 7b3e cf3d 12bd 0fab 173d
00000240: d7b8 f8bd 367a 1bbd d2f7 27be 3868 b03c
00000250: fca7 963a 0758 d73d 8b26 f53e 06b2 2b3e
00000260: 696e e03c a95e b03e 777b bebd 00c6 15b6
00000270: fdc1 0b3f b00a 19be 7ee6 5d3e 2731 44be
00000280: 56d5 c1bd 381f 24bd 4f56 1c3e ae49 d3bd
00000290: a2b8 223e e51e 87be 2948 793e 8130 20bb
000002a0: 38a1 0d3e ee26 65be 7630 463e cec1 213e
000002b0: 1ee8 b93e d4d2 50be 52c6 88bd 0261 2f3e
000002c0: 1483 bfbd e107 783d 7d57 073d 1981 0dbe
000002d0: 7fc6 fc3c e142 77be 909a d0be 9316 bfbe
000002e0: 457a 2f3e 47c8 c3bc f06f c3bd 6630 c6bc
000002f0: dfb5 5bbd 84f7 133e 905d bf3e ea94 6dbe
00000300: 3658 96bc faf5 c33e 5e7d 963e e1f4 9e3e
00000310: fecb 7b3e 846e 023f 46f2 5e3e 56b9 833e
00000320: 10b7 593e 4c4d 6fbe fe70 0a3c 8f62 8ebd
00000330: c658 8f3c cca9 3dbe f84b 4ebe 2df1 103e
00000340: acc9 b5bd c5b2 49be a10b 05bd 622b 2e3d
00000350: d952 d83e fc01 643e d21e cc3e aa15 3e3c
00000360: f5f0 893e a673 0abe dfb9 ae3d e722 9cbd
00000370: 746a 283e 1958 91bd 1cc5 13be 5fa8 e4bd
00000380: 7568 fabc ae7b b2bd ef4c b03d 6c00 6b3e
00000390: 5bce df3e 5404 d23e 9256 84be 742e 92be
000003a0: 35f0 f23e 44f9 933e 8ba7 c4bd 059a 88be
000003b0: f950 ea3d b2fd 22bf ad80 b3be 823b 8e3d
000003c0: c667 a93d 748b e8be 422f 37be bd9a f6bd
000003d0: dc8f 01be 4f29 23bf ed8f debd c982 53be
000003e0: fe00 3c3c fa69 6fbe abee 20be e162 5a3b
000003f0: 5c22 91bc 7ab4 743e af72 053f bf7a 2cbd

stu.hidden.1.rn_1.weight f4 [8]
0.6638347 0.71187437 0.6614792 0.85639894 0.6069813 0.64445436 0.8210481 0.6630017
00000000: 12f1 293f 663d 363f b356 293f f63c 5b3f
00000010: 2063 1b3f f6fa 243f 3530 523f 7bba 293f

stu.hidden.1.stu.M_u f4 [8, 3, 8]
-0.5682467 0.097801566 -0.07477693 0.076409236 -0.05431255 -0.040524017 -0.036993135 -0.031842023
-0.07890413 -0.059204493 -0.2588132 0.17401534 0.047183838 -0.13074696 0.020996163 0.26252902
0.012717816 0.0051232693 0.037440293 0.033080064 0.03227887 0.068979315 0.06437668 -0.046623155
0.21102934 -0.3868368 0.061148565 0.026912868 0.38046032 -0.2559272 0.17164706 0.14694494
-0.1534852 -0.4576045 0.07657171 0.14990535 -0.20255415 -0.19783875 -0.1749381 -0.097814046
-0.062316384 -0.08429729 -0.06260172 0.19340919 0.20301099 0.14281517 0.0039332043 -0.08592868
-0.023262573 -0.056870744 -0.37140554 0.03751939 0.13644485 -0.09973848 -0.06852612 -0.09617642
-0.03583231 -0.019053724 -0.19239539 0.07507392 -0.1369773 -0.07095132 -0.10021398 -0.13153714
0.10047905 0.029401964 -0.28721964 -0.04852541 -0.17075138 0.083888516 -0.1343522 -0.11814213
0.099203035 0.2554667 -0.13042694 -0.5615576 -0.07914026 0.1582993 -0.059645265 0.019043876
0.059601516 0.14744696 -0.05185712 -0.110853486 0.08672727 -0.06485973 -0.08659055 -0.079574324
-0.020348975 -0.09466296 0.018376332 -0.12821375 -0.005796643 -0.16091315 -0.2181002 -0.06863512
-0.34099633 -0.16754906 0.102773406 0.10254465 -0.47970587 -0.034438863 0.112790644 0.16833508
0.16152598 0.10421037 0.076569796 -0.052796293 -0.51055396 -0.16676532 -0.111799926 0.083558485
-0.117740534 -0.05776639 0.17457643 -0.017311154 -0.1384019 -0.042387243 0.16753004 -0.20354249
0.12515204 0.06151569 -0.030059665 -0.049125675 0.04791235 -0.40153196 0.0058537233 0.1532787
-0.101716354 -0.15981495 -0.23995028 0.12463525 0.12190285 -0.2901219 0.022864921 0.061616756
-0.061063454 -0.147957 0.0011139647 0.029689923 -0.17763343 -0.058424655 0.16875407 0.17380045
-0.11417013 -0.15605882 -0.022605205 -0.019626617 0.008345796 0.11239842 -0.7953788 -0.02690519
0.29679653 0.043017402 0.08303483 0.010464599 -0.16690266 -0.0959852 -0.175904 0.143211
-0.092984214 -0.1483293 0.18007852 0.066551685 0.053811893 0.034328274 -0.11157454 0.035474736
-0.18939297 0.033482976 0.13924237 0.223153 0.039851423 -0.03244186 -0.16807592 -0.62325525
0.010418238 0.15615186 0.2911859 -0.15997764 0.075193785 0.04040691 -0.08528669 -0.27605367
0.009417603 8.699659e-06 0.081952184 -0.050246663 -0.12778527 -0.09436391 -0.1318493 -0.38372
00000000: 9e78 11bf 304c c83d a624 99bd 727c 9c3d
00000010: d676 5ebd 83fc 25bd 1d86 17bd c86c 02bd
00000020: 7d98 a1bd 6980 72bd 2a83 84be 1431 323e
00000030: d743 413d 88e2 05be 2500 ac3c 346a 863e
00000040: 635e 503c 19e1 a73b fe5a 193d f67e 073d
00000050: d936 043d 0745 8d3d ecd7 833d ecf7 3ebd
00000060: 1318 583e 790f c6be eb76 7a3d 6078 dc3c
00000070: b2cb c23e e408 83be 3fc4 2f3e bc78 163e
00000080: 392b 1dbe 234b eabe a1d1 9c3d ca80 193e
00000090: 5b6a 4fbe 3e96 4abe f922 33be bb52 c8bd
000000a0: 773f 7fbd 0fa4 acbd 5535 80bd 0f0d 463e
000000b0: 1de2 4f3e 243e 123e 1ce2 803b 60fb afbd
000000c0: 2791 bebc 4cf1 68bd de28 bebe efad 193d
000000d0: 33b8 0b3e b043 ccbd 6c57 8cbd 25f8 c4bd
000000e0: e6c4 12bd 8e16 9cbc 4c03 45be 5bc0 993d
000000f0: c743 0cbe ed4e 91bd fd3c cdbd acb1 06be
00000100: f6c7 cd3d 63dc f03c 740e 93be 95c2 46bd
00000110: 73d9 2ebe becd ab3d a093 09be 80f4 f1bd
00000120: f62a cb3d 88cc 823e a48e 05be 3dc2 0fbf
00000130: 4a14 a2bd 3619 223e 984e 74bd e701 9c3c
00000140: b820 743d 56fc 163e 2268 54bd 2707 e3bd
00000150: 119e b13d 2ed5 84bd 6356 b1bd ddf7 a2bd
00000160: e5b2 a6bc a7de c1bd f689 963c 774a 03be
00000170: c4f1 bdbb 6bc6 24be a955 5fbe 9290 8cbd
00000180: 1297 aebe fb91 2bbe dd7a d23d ee02 d23d
00000190: 029c f5be c40f 0dbd c8fe e63d 0860 2c3e
000001a0: 1167 253e 3f6c d53d a0d0 9c3d ed40 58bd
000001b0: aab3 02bf 87c4 2abe 5cf7 e4bd b620 ab3d
000001c0: f321 f1bd 739c 6cbd 2ac4 323e 1fd0 8dbc
000001d0: 3ab9 0dbe 3f9e 2dbd ff8c 2b3e 716d 50be
000001e0: db27 003e e0f7 7b3d b03f f6bc 0138 49bd
000001f0: be3f 443d 9995 cdbe 97d0 bf3b 17f5 1c3e
00000200: aa50 d0bd 88a6 23be 87b5 75be c440 ff3d
00000210: 34a8 f93d dc8a 94be 374f bb3c da61 7c3d
00000220: ac1d 7abd 0a82 17be 7402 923a 4838 f33c
00000230: 8ae5 35be b14e 6fbd decd 2c3e bff8 313e
00000240: 07d2 e9bd e2cd 1fbe 8d2e b9bc 00c8 a0bc
00000250: cebc 083c 2531 e63d f29d 4bbf 4668 dcbc
00000260: b7f5 973e 0433 303d 2a0e aa3d b673 2b3c
00000270: 88e8 2abe e393 c4bd 2e20 34be e8a5 123e
00000280: 826e bebd a3e3 17be 8166 383e 404c 883d
00000290: dc69 5c3d ce9b 0c3d 3181 e4bd f54d 113d
000002a0: 3bf0 41be 7225 093d 8d95 0e3e 3882 643e
000002b0: 3f3b 233d c1e1 04bd 181c 2cbe a88d 1fbf
000002c0: 42b1 2a3c 46e6 1f3e 5116 953e 2ed1 23be
000002d0: 33ff 993d b781 253d caaa aebd e856 8dbe
000002e0: 4a4c 1a3c c0f4 1137 8cd6 a73d 72cf 4dbd
000002f0: 24da 02be de41 c1bd 8103 07be f376 c4be
